Assets/results/ppo/My Behavior/My Behavior-128.pt (torch, 219670 bytes, 38 tensors)

discrete_act_size_vector f4 [1, 14]
2.0 2.0 2.0 2.0 2.0 2.0 2.0 10.0
10.0 10.0 10.0 10.0 10.0 10.0
00000000: 0000 0040 0000 0040 0000 0040 0000 0040
00000010: 0000 0040 0000 0040 0000 0040 0000 2041
00000020: 0000 2041 0000 2041 0000 2041 0000 2041
00000030: 0000 2041 0000 2041

network_body._body_endoder.seq_layers.0.weight f4 [128, 24]
0.17615305 0.04788373 0.11209581 0.45035225 0.21070595 0.014777339 -0.070889354 0.3295873
-0.32851192 -0.005361065 -0.14695401 0.5233665 -0.01851092 0.029015895 -0.4281149 0.13977043
0.021918451 -0.34106588 0.26113403 0.16345984 -0.064378 -0.4103386 0.29034463 0.11733983
0.28081608 0.01687184 0.0063003544 -0.088729635 -0.07659696 -0.3322943 0.028929487 -0.36644816
-0.015017447 -0.009146588 -0.17423742 -0.07874346 -0.20085454 -0.06922263 -0.37235886 -0.26780292
0.019251473 -0.06612772 0.021840168 0.048558597 -0.3847109 -0.2572227 0.15190613 0.16511534
0.028546926 0.015055133 0.068970315 0.54982024 0.048346963 -0.35184395 0.27835596 -0.105110176
-0.021861697 -0.029179191 -0.037499834 0.12050185 0.090324454 0.05248819 -0.1588201 0.020310624
-0.052666955 -0.3302369 0.16523892 -0.0145954285 0.15184666 -0.21629694 -0.23037189 -0.0035628043
-0.3419104 -0.13300996 -0.17106019 -0.06275585 0.37385884 -0.13607177 -0.12445138 -0.34318113
-0.32983842 -0.48571944 -0.13477641 -0.2945258 -0.15133838 -0.10075933 0.1705243 0.07687818
0.10044273 0.302825 0.22681212 -0.32622644 -0.3078652 0.19116524 0.069285445 0.027978677
-0.3430467 0.06957768 0.02294746 -0.047341615 -0.30304775 -0.0350342 0.1306791 -0.042020693
-0.0403841 -0.12903154 0.21279563 -0.05474979 0.40359208 -0.5378455 -0.15935545 0.28206727
0.14683825 -0.016472602 0.29280913 0.009231191 -0.13210411 -0.02478105 -0.064959265 0.30194452
-0.17592646 -0.04422112 0.4449263 0.10320624 -0.29778486 -0.16793755 -0.013716215 0.010506817
-0.1102716 0.18201445 0.07354845 -0.14050607 -0.02998842 0.062354594 0.052786108 0.20953655
-0.009640479 0.16067521 0.35446316 0.069446065 -0.0034868845 -0.029732086 -0.33115453 -0.103296235
0.33639959 0.043986145 0.17938712 0.1782017 -0.15928338 -0.26267716 0.13022093 0.26283425
0.24372737 -0.048443224 0.19184835 -0.14103957 0.12869042 0.31680417 0.029293695 -0.085820295
-0.066562064 -0.06793223 -0.24094597 -0.13356744 0.074709356 0.3614083 -0.16054052 0.020657046
-0.11695964 -0.02486861 0.007499971 -0.22694983 0.5216732 0.0588458 -0.013878688 -0.23353775
0.16775392 -0.2633137 0.58126134 0.00978946 0.24050212 0.07810044 0.091026105 0.019468695
0.5774594 -0.030962158 0.18131562 0.66173697 0.2294206 -0.15445594 0.12193365 -0.11159793
-0.112876125 -0.21480551 0.004038829 -0.113386504 -0.14948677 0.105207704 -0.23956598 -0.27256867
0.12932074 0.18273158 -0.31235087 0.19216862 -0.19606762 0.18986778 -0.26099846 0.12804253
-0.12054641 -0.11579387 -0.035219673 -0.13752836 0.28808132 -0.13220584 0.060173303 0.12647787
0.18079211 -0.096010305 -0.23187482 0.02022325 -0.046654806 -0.27230287 0.18414697 0.0848417
0.027430288 -0.43331346 0.11378007 -0.16109435 -0.1036579 0.26250592 0.051436994 -0.08435036
-0.044443835 -0.022082733 0.06478189 0.020186352 0.17347924 0.4268746 0.4166341 0.24094623
0.13516381 -0.033091873 -0.029914552 -0.11970886 -0.029541895 0.07948994 -0.2503987 -0.13900869
-0.065205336 0.43030208 0.23681135 0.33374357 -0.013572083 0.05694882 0.27102685 -0.021281624
00000000: 7761 343e bb21 443d 7d92 e53d 9294 e63e
00000010: 4dc3 573e a71c 723c 702e 91bd abbf a83e
00000020: b732 a8be dfab afbb 1d7b 16be 59fb 053f
00000030: 37a4 97bc beb2 ed3c e031 dbbe fb1f 0f3e
00000040: 538e b33c 30a0 aebe 5cb3 853e 0462 273e
00000050: 9dd8 83bd e717 d2be 0da8 943e dd4f f03d
00000060: 20c7 8f3e d036 8a3c 3473 ce3b e2b7 b5bd
00000070: dede 9cbd 7a22 aabe 88fd ec3c 189f bbbe
00000080: bd0b 76bc 92db 15bc 4b6b 32be 4044 a1bd
00000090: d0ac 4dbe 98c4 8dbd d2a5 bebe 771d 89be
000000a0: 44b5 9d3c f86d 87bd 27ea b23c 61e5 463d
000000b0: d4f8 c4be b2b2 83be 488d 1b3e ff13 293e
000000c0: 3edb e93c cea9 763c 4f40 8d3d 05c1 0c3f
000000d0: 7707 463d e424 b4be ac84 8e3e 0144 d7bd
000000e0: 4d17 b3bc 3309 efbc 6d99 19bd adc9 f63d
000000f0: 07fc b83d dbfd 563d bca1 22be 7762 a63c
00000100: 4eb9 57bd d014 a9be 6434 293e aa21 6fbc
00000110: b17d 1b3e f27c 5dbe 9ce6 6bbe f07d 69bb
00000120: e10e afbe c333 08be 672a 2fbe 2486 80bd
00000130: 6d6a bf3e 6656 0bbe 5de0 febd 70b5 afbe
00000140: 95e0 a8be 38b0 f8be d402 0abe 16cc 96be
00000150: 73f8 1abe e85a cebd ec9d 2e3e 4f72 9d3d
00000160: ebb4 cd3d e10b 9b3e 7041 683e 2707 a7be
00000170: 82a0 9dbe d2c0 433e 87e5 8d3d 8a33 e53c
00000180: d1a3 afbe be7e 8e3d 50fc bb3c 48e9 41bd
00000190: 1329 9bbe 0580 0fbd bed0 053e e41d 2cbd
000001a0: cc69 25bd d820 04be 19e7 593e 5141 60bd
000001b0: 9fa3 ce3e 3eb0 09bf 132e 23be 1f6b 903e
000001c0: c45c 163e 8df1 86bc 14eb 953e 6c3e 173c
000001d0: 4d46 07be a101 cbbc 5d09 85bd 7998 9a3e
000001e0: 1126 34be 3521 35bd 61cd e33e cb5d d33d
000001f0: 4277 98be d2f7 2bbe fab9 60bc c924 2c3c
00000200: 14d6 e1bd ff61 3a3e 92a0 963d d3e0 0fbe
00000210: 46aa f5bc 8867 7f3d 3f36 583d c090 563e
00000220: 1af3 1dbc 0b88 243e 327c b53e bd39 8e3d
00000230: 3784 64bb b490 f3bc 168d a9be fa8c d3bd
00000240: 913c ac3e d12a 343d 42b1 373e 827a 363e
00000250: 2f1b 23be 9f7d 86be a358 053e 3692 863e
00000260: ab93 793e 676c 46bd e573 443e ad6c 10be
00000270: 6cc7 033e 2834 a23e 55f9 ef3c 8dc2 afbd
00000280: b151 88bd 0e20 8bbd 8aba 76be e7c5 08be
00000290: 3801 993d 820a b93e bc64 24be f738 a93c
000002a0: 8988 efbd 41b9 cbbc 51c2 f53b 8965 68be
000002b0: 608c 053f 4b08 713d 7063 63bc 8524 6fbe
000002c0: afc7 2b3e 0ed1 86be 8bcd 143f f963 203c
000002d0: 3046 763e 20f3 9f3d e56b ba3d d07c 9f3c
000002e0: 61d4 133f 5aa4 fdbc cdaa 393e 9867 293f
000002f0: 3ced 6a3e b329 1ebe 59b8 f93d 758d e4bd
00000300: 992b e7bd faf5 5bbe 2758 843b 2f37 e8bd
00000310: 0f13 19be 2377 d73d c950 75be 1f8e 8bbe
00000320: a86c 043e fd1d 3b3e 74ec 9fbe dac7 443e
00000330: f3c5 48be b36c 423e 97a1 85be 951d 033e
00000340: 09e1 f6bd 5625 edbd 8142 10bd 3cd4 0cbe
00000350: 657f 933e f860 07be 4878 763d 6a83 013e
00000360: 9121 393e 0da1 c4bd 9870 6dbe 3bab a53c
00000370: 1c19 3fbd 486b 8bbe 0691 3c3e 7cc1 ad3d
00000380: 7cb5 e03c 43db ddbe 8605 e93d ebf5 24be
00000390: 984a d4bd 2d67 863e 99af 523d e2bf acbd
000003a0: bd0a 36bd d9e6 b4bc 5eac 843d d95d a53c
000003b0: 8ba4 313e 4f8f da3e 1151 d53e 9cba 763e
000003c0: 6268 0a3e 588b 07bd 5d0f f5bc eb29 f5bd
000003d0: d801 f2bc 9fcb a23d 4234 80be 4b58 0ebe
000003e0: 608a 85bd 8e50 dc3e ad7e 723e 70e0 aa3e
000003f0: 715d 5ebc 2a43 693d 08c4 8a3e cd56 aebc

network_body._body_endoder.seq_layers.0.bias f4 [128]
0.0 0.0 0.0 0.0 0.0 0.0 0.0 0.0
0.0 0.0 0.0 0.0 0.0 0.0 0.0 0.0
0.0 0.0 0.0 0.0 0.0 0.0 0.0 0.0
0.0 0.0 0.0 0.0 0.0 0.0 0.0 0.0
0.0 0.0 0.0 0.0 0.0 0.0 0.0 0.0
0.0 0.0 0.0 0.0 0.0 0.0 0.0 0.0
0.0 0.0 0.0 0.0 0.0 0.0 0.0 0.0
0.0 0.0 0.0 0.0 0.0 0.0 0.0 0.0
0.0 0.0 0.0 0.0 0.0 0.0 0.0 0.0
0.0 0.0 0.0 0.0 0.0 0.0 0.0 0.0
0.0 0.0 0.0 0.0 0.0 0.0 0.0 0.0
0.0 0.0 0.0 0.0 0.0 0.0 0.0 0.0
0.0 0.0 0.0 0.0 0.0 0.0 0.0 0.0
0.0 0.0 0.0 0.0 0.0 0.0 0.0 0.0
0.0 0.0 0.0 0.0 0.0 0.0 0.0 0.0
0.0 0.0 0.0 0.0 0.0 0.0 0.0 0.0
00000000: 0000 0000 0000 0000 0000 0000 0000 0000
00000010: 0000 0000 0000 0000 0000 0000 0000 0000
00000020: 0000 0000 0000 0000 0000 0000 0000 0000
00000030: 0000 0000 0000 0000 0000 0000 0000 0000
00000040: 0000 0000 0000 0000 0000 0000 0000 0000
00000050: 0000 0000 0000 0000 0000 0000 0000 0000
00000060: 0000 0000 0000 0000 0000 0000 0000 0000
00000070: 0000 0000 0000 0000 0000 0000 0000 0000
00000080: 0000 0000 0000 0000 0000 0000 0000 0000
00000090: 0000 0000 0000 0000 0000 0000 0000 0000
000000a0: 0000 0000 0000 0000 0000 0000 0000 0000
000000b0: 0000 0000 0000 0000 0000 0000 0000 0000
000000c0: 0000 0000 0000 0000 0000 0000 0000 0000
000000d0: 0000 0000 0000 0000 0000 0000 0000 0000
000000e0: 0000 0000 0000 0000 0000 0000 0000 0000
000000f0: 0000 0000 0000 0000 0000 0000 0000 0000
00000100: 0000 0000 0000 0000 0000 0000 0000 0000
00000110: 0000 0000 0000 0000 0000 0000 0000 0000
00000120: 0000 0000 0000 0000 0000 0000 0000 0000
00000130: 0000 0000 0000 0000 0000 0000 0000 0000
00000140: 0000 0000 0000 0000 0000 0000 0000 0000
00000150: 0000 0000 0000 0000 0000 0000 0000 0000
00000160: 0000 0000 0000 0000 0000 0000 0000 0000
00000170: 0000 0000 0000 0000 0000 0000 0000 0000
00000180: 0000 0000 0000 0000 0000 0000 0000 0000
00000190: 0000 0000 0000 0000 0000 0000 0000 0000
000001a0: 0000 0000 0000 0000 0000 0000 0000 0000
000001b0: 0000 0000 0000 0000 0000 0000 0000 0000
000001c0: 0000 0000 0000 0000 0000 0000 0000 0000
000001d0: 0000 0000 0000 0000 0000 0000 0000 0000
000001e0: 0000 0000 0000 0000 0000 0000 0000 0000
000001f0: 0000 0000 0000 0000 0000 0000 0000 0000

network_body._body_endoder.seq_layers.2.weight f4 [128, 128]
-0.16923721 0.091912 0.033796076 0.045806773 -0.14182982 -0.03982087 -0.006527987 -0.09785366
0.044081148 -0.12116665 -0.08602611 0.013461803 -0.011229825 0.04681937 0.07391486 0.1828704
-0.017133297 0.017579963 0.1294284 -0.14323032 -0.004056218 -0.08899074 -0.08049569 -0.094254985
-0.05310628 0.13840368 -0.0076071806 -0.021240935 -0.02697993 0.050920416 -0.02635961 0.07869076
-0.052256696 -0.0018748211 -0.08563325 -0.012058687 -0.041299827 0.042423084 0.10469912 -0.025095645
-0.16803318 -0.05356189 0.10010951 -0.1434444 -0.044703297 -0.07574691 0.17084624 0.14121956
0.134477 0.051439658 -0.086765364 0.29019484 0.043637123 -0.018150393 0.045742523 0.17369983
0.14557123 0.025601571 0.06725875 -0.09916182 0.003346148 0.0035783704 -0.022521397 0.07957244
-0.029782077 0.053724464 -0.021499591 0.052777573 0.0031052043 -0.0050563226 0.06807852 -0.25833485
0.028203243 -0.05827835 0.0022092 0.1267829 -0.119987175 0.15186249 0.053732477 -0.1548837
-0.008756795 -0.25492647 -0.052018598 -0.035484236 0.08288477 -0.007625047 0.022705395 -0.13636002
-0.19326589 0.13910481 -0.16885091 -0.13885951 -0.014794182 -0.04163558 0.07020178 -0.121720076
-0.024312466 0.018115263 0.13644505 0.005621952 -0.040994655 -0.12863128 0.06161025 -0.06929707
-0.002750425 0.006830787 -0.10232107 -0.043397456 0.03694596 0.071259774 0.048782226 -0.09809289
0.11046789 -0.11855067 0.00060544803 -0.024592938 0.0369401 -0.072089925 -0.004393979 -0.023324471
0.09678114 0.055237107 -0.12306798 -0.016770935 0.06005642 0.026838768 0.057295963 0.06817314
0.16367312 -0.057228755 -0.11843355 -0.031303022 0.069763504 -0.07325145 -0.04708722 -0.0788855
-0.046627138 -0.0854498 -0.029326733 -0.03524832 -0.15589525 -0.084507026 0.105324015 0.0318223
-0.036760505 0.058841534 -0.07132937 -0.033367727 0.14437813 -0.1262766 0.041336566 -0.02003133
0.10556494 -0.06601868 -0.07682288 -0.20942889 0.0866799 -0.16410948 0.07846268 0.10953265
0.09668302 -0.12617522 0.018519312 -0.1855086 0.25842682 0.15864153 -0.21492618 0.007866592
0.07113441 0.030074507 0.09559784 -0.05796816 0.042260297 0.0699435 0.2163567 0.08921485
-0.09072527 0.061207052 -0.07669421 0.0790041 0.062833264 0.13791978 0.09569077 -0.014876272
8.457217e-05 -0.0644198 -0.011693291 -0.12950614 0.13723813 0.049440317 0.036611795 0.049141932
0.01952261 0.035182104 0.005109504 0.041199304 0.09085864 -0.024870932 0.03140599 0.031626493
0.15325595 -0.058142513 -0.03703251 0.073030315 0.116142996 -0.10527933 -0.06550214 0.13224086
-0.07332488 -0.015528696 0.01101241 -0.05917343 -0.06424198 -0.049785264 -0.059621453 0.11018413
-0.06262259 0.03473423 -0.07273864 0.050787814 -0.049196824 0.020731037 -0.1441265 0.0048857783
-0.09082081 0.073223256 0.07930289 0.053324312 0.006406675 -0.1412183 -0.037476778 -0.03508727
-0.05313835 0.019950008 -0.12566794 -0.026948024 0.09979492 0.066331044 -0.16136612 -0.089126304
-0.065515466 0.06088731 -0.031749617 -0.0584339 -0.039131 0.14397037 -0.064834796 0.04624105
-0.066180065 0.067538045 -0.038432933 0.14309907 -0.14916848 -0.07726016 -0.012400512 -0.051795878
00000000: 854c 2dbe 5c3c bc3d c16d 0a3d e29f 3b3d
00000010: d63b 11be 351b 23bd b9e8 d5bb 8067 c8bd
00000020: 6f8e 343d 3826 f8bd 752e b0bd e58e 5c3c
00000030: 4dfd 37bc abc5 3f3d ad60 973d 6142 3b3e
00000040: 215b 8cbc db03 903c e188 043e f8aa 12be
00000050: 06ea 84bb c740 b6bd edda a4bd c208 c1bd
00000060: f885 59bd b2b9 0d3e a845 f9bb 7801 aebc
00000070: 0405 ddbc ed91 503d 1cf0 d7bc 9f28 a13d
00000080: 1e0b 56bd 8fbc f5ba 7c60 afbd cd91 45bc
00000090: 022a 29bd d4c3 2d3d 7e6c d63d 6295 cdbc
000000a0: e410 2cbe b663 5bbd 3706 cd3d 17e3 12be
000000b0: ce1a 37bd 3221 9bbd 51f2 2e3e dc9b 103e
000000c0: 57b4 093e 64b2 523d 0ab2 b1bd 6b94 943e
000000d0: d7bc 323d 22b0 94bc 835c 3b3d 5ede 313e
000000e0: a010 153e 63ba d13c f5be 893d 5a15 cbbd
000000f0: 0c4b 5b3b 1883 6a3b cb7e b8bc e0f6 a23d
00000100: 8bf9 f3bc 2f0e 5c3d e91f b0bc 4c2d 583d
00000110: af80 4b3b 82af a5bb c06c 8b3d 7744 84be
00000120: 7d0a e73c 47b5 6ebd 3ac8 103b 60d3 013e
00000130: d6bb f5bd d781 1b3e 9616 5c3d d599 1ebe
00000140: a978 0fbc b985 82be 7411 55bd eb57 11bd
00000150: 7ebf a93d 88db f9bb aa00 ba3c f6a1 0bbe
00000160: 7ee7 45be 7e71 0e3e 41e7 2cbe 3031 0ebe
00000170: 4c63 72bc 128a 2abd f3c5 8f3d 6048 f9bd
00000180: f02a c7bc 7666 943c 40b8 0b3e 5a38 b83b
00000190: 03ea 27bd ebb7 03be 085b 7c3d 9feb 8dbd
000001a0: 7940 34bb cbd4 df3b b68d d1bd 88c1 31bd
000001b0: a654 173d a5f0 913d dfcf 473d ede4 c8bd
000001c0: fd3c e23d b2ca f2bd eeb6 1e3a 2177 c9bc
000001d0: 814e 173d e2a3 93bd 5efb 8fbb f612 bfbc
000001e0: 3135 c63d 4e40 623d 110b fcbd 3363 89bc
000001f0: b8fd 753d fadc db3c 2caf 6a3d 5c9e 8b3d
00000200: ed99 273e b368 6abd 4a8d f2bd 9937 00bd
00000210: 2be0 8e3d db04 96bd 87de 40bd b98e a1bd
00000220: 19fc 3ebd 4e00 afbd 9e3e f0bc 8b60 10bd
00000230: 01a3 1fbe 0512 adbd 1eb4 d73d 1a58 023d
00000240: 2f92 16bd d203 713d 2215 92bd 99ac 08bd
00000250: dcd7 133e a74e 01be 8850 293d be18 a4bc
00000260: 6e32 d83d cd34 87bd 5055 9dbd 8774 56be
00000270: 3b85 b13d 510c 28be 0bb1 a03d a752 e03d
00000280: bf01 c63d 1434 01be d0b5 973c f7f5 3dbe
00000290: 8550 843e ed72 223e 9c15 5cbe e1e2 003c
000002a0: ebae 913d d05e f63c cdc8 c33d 0570 6dbd
000002b0: 2219 2d3d 8a3e 8f3d 9c8c 5d3e 46b6 b63d
000002c0: 2cce b9bd 3fb4 7a3d db11 9dbd e7cc a13d
000002d0: baae 803d d83a 0d3e 86f9 c33d 9bbb 73bc
000002e0: 575c b138 87ee 83bd 3895 3fbc 429d 04be
000002f0: 2788 0c3e ee81 4a3d 40f6 153d 0d49 493d
00000300: e1ed 9f3c 1c1b 103d a06d a73b 9ac0 283d
00000310: 1814 ba3d 20be cbbc 91a3 003d c88a 013d
00000320: 21ef 1c3e d826 6ebd 67af 17bd eb90 953d
00000330: 61dc ed3d b09c d7bd fc25 86bd 266a 073e
00000340: 5b2b 96bd 126c 7ebc 656d 343c d75f 72bd
00000350: 4d91 83bd a2eb 4bbd a035 74bd 38a8 e13d
00000360: 4640 80bd 7b45 0e3d fff7 94bd e206 503d
00000370: 9c82 49bd 23d4 a93c e695 13be e118 a03b
00000380: 4300 babd 13f6 953d 8e69 a23d 986a 5a3d
00000390: 16ef d13b 889b 10be 4081 19bd abb7 0fbd
000003a0: 99a7 59bd 336e a33c 19af 00be 1ac2 dcbc
000003b0: 4761 cc3d 92d8 873d 293d 25be da87 b6bd
000003c0: f92c 86bd f964 793d e30b 02bd 6358 6fbd
000003d0: d447 20bd f86c 133e 1bc8 84bd 4167 3d3d
000003e0: 6a89 87bd 6351 8a3d da6b 1dbd 9088 123e
000003f0: 9fbf 18be 933a 9ebd 842b 4bbc ea27 54bd

network_body._body_endoder.seq_layers.2.bias f4 [128]
0.0 0.0 0.0 0.0 0.0 0.0 0.0 0.0
0.0 0.0 0.0 0.0 0.0 0.0 0.0 0.0
0.0 0.0 0.0 0.0 0.0 0.0 0.0 0.0
0.0 0.0 0.0 0.0 0.0 0.0 0.0 0.0
0.0 0.0 0.0 0.0 0.0 0.0 0.0 0.0
0.0 0.0 0.0 0.0 0.0 0.0 0.0 0.0
0.0 0.0 0.0 0.0 0.0 0.0 0.0 0.0
0.0 0.0 0.0 0.0 0.0 0.0 0.0 0.0
0.0 0.0 0.0 0.0 0.0 0.0 0.0 0.0
0.0 0.0 0.0 0.0 0.0 0.0 0.0 0.0
0.0 0.0 0.0 0.0 0.0 0.0 0.0 0.0
0.0 0.0 0.0 0.0 0.0 0.0 0.0 0.0
0.0 0.0 0.0 0.0 0.0 0.0 0.0 0.0
0.0 0.0 0.0 0.0 0.0 0.0 0.0 0.0
0.0 0.0 0.0 0.0 0.0 0.0 0.0 0.0
0.0 0.0 0.0 0.0 0.0 0.0 0.0 0.0
00000000: 0000 0000 0000 0000 0000 0000 0000 0000
00000010: 0000 0000 0000 0000 0000 0000 0000 0000
00000020: 0000 0000 0000 0000 0000 0000 0000 0000
00000030: 0000 0000 0000 0000 0000 0000 0000 0000
00000040: 0000 0000 0000 0000 0000 0000 0000 0000
00000050: 0000 0000 0000 0000 0000 0000 0000 0000
00000060: 0000 0000 0000 0000 0000 0000 0000 0000
00000070: 0000 0000 0000 0000 0000 0000 0000 0000
00000080: 0000 0000 0000 0000 0000 0000 0000 0000
00000090: 0000 0000 0000 0000 0000 0000 0000 0000
000000a0: 0000 0000 0000 0000 0000 0000 0000 0000
000000b0: 0000 0000 0000 0000 0000 0000 0000 0000
000000c0: 0000 0000 0000 0000 0000 0000 0000 0000
000000d0: 0000 0000 0000 0000 0000 0000 0000 0000
000000e0: 0000 0000 0000 0000 0000 0000 0000 0000
000000f0: 0000 0000 0000 0000 0000 0000 0000 0000
00000100: 0000 0000 0000 0000 0000 0000 0000 0000
00000110: 0000 0000 0000 0000 0000 0000 0000 0000
00000120: 0000 0000 0000 0000 0000 0000 0000 0000
00000130: 0000 0000 0000 0000 0000 0000 0000 0000
00000140: 0000 0000 0000 0000 0000 0000 0000 0000
00000150: 0000 0000 0000 0000 0000 0000 0000 0000
00000160: 0000 0000 0000 0000 0000 0000 0000 0000
00000170: 0000 0000 0000 0000 0000 0000 0000 0000
00000180: 0000 0000 0000 0000 0000 0000 0000 0000
00000190: 0000 0000 0000 0000 0000 0000 0000 0000
000001a0: 0000 0000 0000 0000 0000 0000 0000 0000
000001b0: 0000 0000 0000 0000 0000 0000 0000 0000
000001c0: 0000 0000 0000 0000 0000 0000 0000 0000
000001d0: 0000 0000 0000 0000 0000 0000 0000 0000
000001e0: 0000 0000 0000 0000 0000 0000 0000 0000
000001f0: 0000 0000 0000 0000 0000 0000 0000 0000

action_model._discrete_distribution.branches.0.weight f4 [2, 128]
0.0017774014 -0.015321808 -0.0051384354 -0.00028497362 0.0008831678 -0.00012949535 -0.0077901306 -0.010459623
0.011409475 -0.02857694 -0.0030906743 -0.0077432888 0.00286079 0.0059040203 0.010227096 0.005172862
-0.005524717 0.004171035 -0.0072858185 0.004759073 -0.007671006 0.0017307712 -0.0065994016 0.0040373327
-0.0048304196 -0.006031057 0.005218746 -0.0052962066 0.010385647 0.009407146 0.0020585395 -0.0111767305
-0.013686272 0.00077786576 0.006935934 -0.011884377 0.002586358 -0.010775649 0.0015548113 0.002901662
-0.00015970459 -0.010655157 0.002995541 0.008423217 0.01159742 -0.005884383 0.006430547 -0.0067676455
-0.0044182255 0.004424744 -0.0010837918 0.00056592294 0.010360946 0.013453414 -0.008713259 0.004582286
0.008226297 0.0025400252 -0.002469505 -0.0015609007 -0.020572536 0.0022981402 0.008024362 -0.017050883
-0.004259145 -0.009173025 0.0078010685 0.00013187598 -0.0043791267 0.0038852121 0.011086105 -0.008007606
-0.00971769 -0.016035063 0.0044042827 -0.00015722454 0.0031084148 -0.0025614407 0.0015296399 0.0015763341
-0.0016988775 0.0062194485 -0.0061935056 -0.004446206 -0.003193685 0.0034569302 -0.005340937 -0.0043900656
-0.00590416 -0.0010849064 0.007839135 0.0075243637 0.0030099698 -6.0265105e-05 0.0059321304 0.0041711982
0.0054448335 0.005571349 -0.007928856 -0.009053561 -0.010919884 -0.00109071 0.005248101 -0.01394129
-0.011505874 0.007231069 -0.007322611 0.0014944003 0.0068327854 -0.0016459059 0.00037650636 -0.0088276565
-0.0005394314 -0.0060682762 0.008141327 0.018166307 -0.016614905 0.0003398178 0.0034433324 -0.012629079
0.0019110761 -0.001651834 0.007093874 0.010766561 -0.007275293 -0.009826526 0.015248767 -0.0083832005
-0.009100902 -0.0049722358 -0.0018760078 -0.005422823 -0.0028948507 0.012994361 0.0030814668 -0.00024732942
-0.012975402 0.0068426603 0.004619163 0.003161999 0.0002337325 0.0023366197 -0.006968569 -0.0061006136
-0.00038589558 0.010418602 0.015908647 0.0050973445 -0.006270904 -0.007931585 0.0070235454 0.006776646
0.0022878519 -0.003102327 0.0024806496 -0.01026745 -0.010827318 -0.009373218 -0.0005355343 0.0076117623
0.0044287154 0.010313221 -0.006327711 -0.0043828706 -0.009257871 -0.009050485 -0.023543848 -0.0009899198
-0.0034197408 0.0055950633 0.00912045 0.00071405474 0.002651287 0.008766905 -0.008693593 -0.0039439667
-0.007963405 0.008362249 -0.025744898 -0.009075766 -0.005646858 0.0056536305 0.00095968944 -0.024118172
-0.00522336 0.010767589 0.0017944163 0.01656189 0.007240563 0.009053866 0.009354204 -0.0026666098
0.010225556 -0.0047987774 0.004297697 0.005600404 0.004627209 -0.0009796394 -0.0011435116 -0.009240465
-0.010290198 0.017066147 0.007747303 -0.016669087 -0.005427616 -0.009386147 -0.006563443 -0.0026170218
-0.00048335927 0.011517399 0.016431678 0.006721668 -0.0076174247 0.00062934164 0.0005231499 0.0017297369
-0.0056610843 0.00031184545 0.011934953 0.010636299 -0.0013522246 0.0019520334 -0.007336282 -0.0076602325
0.020324092 -0.009983117 -0.005948264 -0.00071537436 -0.0074988673 -0.023286445 0.0030544174 -0.006149162
0.010673865 -0.0009802673 -0.010692899 0.0016968241 0.017189829 0.016493116 -0.008415331 -0.0014765456
-0.0054602083 0.0013877461 -0.0012356191 -0.005727793 -0.0038940979 -0.009262022 -0.0020349387 -0.0032916677
-0.003326127 -0.0060731145 -0.006746072 -0.0118379835 -0.012340983 0.02028998 -0.00033718438 -0.004691749
00000000: b2f7 e83a 5208 7bbc 5260 a8bb 8368 95b9
00000010: 6384 673a 25c9 07b9 5a44 ffbb d75e 2bbc
00000020: ceee 3a3c 301a eabc e98c 4abb 6abb fdbb
00000030: 177c 3b3b 8376 c13b 8d8f 273c 1d81 a93b
00000040: af08 b5bb 2dad 883b e0bd eebb fff1 9b3b
00000050: 105d fbbb 0bdb e23a cb3f d8bb 9a4b 843b
00000060: 7f48 9ebb 2ca0 c5bb 0402 ab3b cd8b adbb
00000070: 9028 2a3c 6e20 1a3c 90e8 063b 9b1e 37bc
00000080: 633c 60bc b0e9 4b3a d546 e33b b1b6 42bc
00000090: e37f 293b 598c 30bc cfca cb3a cf29 3e3b
000000a0: 6076 27b9 f892 2ebc d750 443b 8801 0a3c
000000b0: 1b03 3e3c c8d1 c0bb 57b7 d23b 20c3 ddbb
000000c0: c3c6 90bb 71fd 903b 050e 8eba 725a 143a
000000d0: f5c0 293c b56b 5c3c 0fc2 0ebc 0027 963b
000000e0: 97c7 063c 8d76 263b 6bd7 21bb 2397 ccba
000000f0: bc87 a8bc 659c 163b 9d78 033c 4bae 8bbc
00000100: 4c90 8bbb 754a 16bc 1ba0 ff3b 3048 0a39
00000110: c77e 8fbb 0b9f 7e3b 7fa2 353c 5532 03bc
00000120: f236 1fbc f75b 83bc cd51 903b a4dc 24b9
00000130: 8cb6 4b3b d8dd 27bb 337e c83a ff9c ce3a
00000140: dfac deba 84cc cb3b e4f2 cabb 7bb1 91bb
00000150: 254d 51bb aa8d 623b 0703 afbb 8ada 8fbb
00000160: af77 c1bb 6b33 8eba b76f 003c f08e f63b
00000170: ea42 453b 2ac5 7cb8 5162 c23b 8cae 883b
00000180: 936a b23b dd8f b63b 08e8 01bc 6355 14bc
00000190: 50e9 32bc 28f6 8eba 43f8 ab3b 026a 64bc
000001a0: 2283 3cbc 9af2 ec3b 83f2 efbb c1df c33a
000001b0: 8fe5 df3b 70bb d7ba d465 c539 e0a1 10bc
000001c0: a168 0dba 64d8 c6bb 3363 053c 82d1 943c
000001d0: fb1b 88bc 9329 b239 88a9 613b 32ea 4ebc
000001e0: 137d fa3a 5a82 d8ba ba73 e83b 3b66 303c
000001f0: 9565 eebb 70ff 20bc f7d5 793c b159 09bc
00000200: f31b 15bc 23ee a2bb 60e4 f5ba f0b1 b1bb
00000210: 89b7 3dbb 4de6 543c 6ff2 493b feab 81b9
00000220: c896 54bc 6538 e03b 595c 973b 8a39 4f3b
00000230: 1716 7539 f921 193b 9858 e4bb a8e7 c7bb
00000240: 0752 cab9 c9b2 2a3c da52 823c a007 a73b
00000250: 287c cdbb 7bf3 01bc c525 e63b a00e de3b
00000260: c9ef 153b 6950 4bbb 6592 223b ce38 28bc
00000270: 1065 31bc 2092 19bc 1963 0cba 176c f93b
00000280: c21e 913b c9f8 283c b058 cfbb 2f9e 8fbb
00000290: 53ae 17bc 7c48 14bc 07df c0bc 32c0 81ba
000002a0: bb1d 60bb cb56 b73b f16d 153c 672f 3b3a
000002b0: 37c1 2d3b 11a3 0f3c 926f 0ebc 643c 81bb
000002c0: f178 02bc d001 093c f7e6 d2bc 86b2 14bc
000002d0: 4709 b9bb 1742 b93b ab93 7b3a 7993 c5bc
000002e0: b828 abbb 8b6a 303c 9f32 eb3a cdac 873c
000002f0: 3f42 ed3b ab56 143c 6042 193c 4ac2 2ebb
00000300: 1789 273c 103f 9dbb b2d3 8c3b 9883 b73b
00000310: d89f 973b 3e67 80ba e2e1 95ba 5265 17bc
00000320: 3898 28bc 4ece 8b3c 17dd fd3b 9c8d 88bc
00000330: 25da b1bb 5bc8 19bc 2712 d7bb 5782 2bbb
00000340: 626b fdb9 79b3 3c3c ba9b 863c 7041 dc3b
00000350: 979b f9bb 67fa 243a ff23 093a 57b8 e23a
00000360: 9e80 b9bb 307f a339 d28a 433c df43 2e3c
00000370: 213d b1ba 5fdb ff3a 3265 f0bb b002 fbbb
00000380: b67e a63c 3a90 23bc a8e9 c2bb f687 3bba
00000390: 0fb9 f5bb 37c3 bebc 9f2c 483b e97e c9bb
000003a0: 6fe1 2e3c 507c 80ba 4531 2fbc f867 de3a
000003b0: afd1 8c3c 921c 873c 75e0 09bc a688 c1ba
000003c0: 8ceb b2bb 08e5 b53a 7ff4 a1ba 36b0 bbbb
000003d0: 1f34 7fbb bcbf 17bc 9b5c 05bb 05b9 57bb
000003e0: 27fb 59bb fa00 c7bb 270e ddbb 1af4 41bc
000003f0: d631 4abc 2c37 a63c 1fc8 b0b9 3ebd 99bb

action_model._discrete_distribution.branches.0.bias f4 [2]
0.0 0.0
00000000: 0000 0000 0000 0000

action_model._discrete_distribution.branches.1.weight f4 [2, 128]
-0.007956523 -0.00579135 0.012165903 0.0041716457 -0.0032063809 -0.0004977365 0.0010384317 -0.020761006
-0.0026297446 -0.009565006 0.011484085 0.0008954131 -0.004133428 -0.0013143213 -0.008202962 0.009059231
-0.020867994 0.002446917 0.0011240301 0.01838076 -0.007849182 0.007847724 -0.0019402264 -0.0038395994
-0.007468699 -0.0072396933 0.005514952 0.009316924 0.0014543595 0.0024397988 0.007899484 -0.0003438034
-0.0026138853 0.0022221426 -0.0077040615 -0.003181529 -0.0011661685 -0.007130153 0.0020258357 -0.00931525
0.009071703 -0.006456638 -0.008228972 0.01972525 0.0075164153 -0.008692998 0.0018594516 0.007404735
0.0046429886 0.0072005615 0.006165668 -0.0051549515 -0.0077162236 0.0019428643 0.0030075312 -0.005839815
0.018701795 0.010275848 0.0030443098 -0.0012626236 -0.005193721 0.004525866 0.01659092 0.0009794551
-0.008567229 -0.002996045 0.009199459 -0.0083999345 0.0025950626 -0.015835825 -0.0027970246 -0.0075089294
-0.013927288 0.0025477954 0.004318284 0.010518539 -0.0036376063 0.010362185 0.022386882 0.0017629846
0.010347065 0.0024551875 0.008556377 -0.011303347 0.001097674 -0.009561579 0.0051485416 -0.014926246
-0.012254195 0.0063483748 -0.0032737579 0.0059141563 -0.007077198 0.00030363185 -0.003588117 0.002969854
0.0047868867 -0.02352778 -0.01100533 0.015784068 -0.0044218185 -0.00058968825 0.018305847 0.028169343
0.00426089 0.0026432867 0.008174325 -0.005070055 0.0011224168 0.004308884 0.0025047986 0.0097206645
0.0066629737 -0.01189765 0.011151508 0.0040217065 -0.00056134525 -0.0051466306 -0.0034996502 0.002733928
0.0011072841 -0.0022314708 -0.0073288283 -0.022990318 0.003038843 -0.0041598594 0.00594321 0.018860461
-0.0057895845 -0.0029404599 0.0010746226 0.0010531687 -0.023382017 0.0020073326 -0.0032478415 -0.019073857
-0.0057529337 0.0008591666 -0.0026931937 0.0096587455 -0.00077810185 -0.0018702013 0.007522683 0.002679804
0.001263143 -0.016429724 -0.0031180645 -0.0017400865 -0.0019623854 -0.00568048 0.0018205863 0.00445117
-0.012208323 0.014505546 -0.01867575 -0.019077634 -0.0066933776 0.002137608 -0.018594066 0.010256128
-0.021842267 -0.0033861434 -0.003376668 0.0028131448 -0.006340459 0.008031067 -0.0028780557 0.005208704
0.012293455 0.005799768 0.003215636 0.015335078 -0.0017215146 -0.0025117097 -0.0005120956 0.005973039
-0.005625419 -0.001967084 -0.0029618286 -0.003839862 -0.0038170093 -0.0023192961 0.013423338 0.00567108
-0.003327743 0.004824165 0.012226035 -0.011871278 -0.0033310156 0.007857677 -0.0039440854 -0.0076309065
-0.0016697589 -0.008914465 -0.012798688 -0.0011111451 0.0013245146 0.001727688 -0.004374796 0.0031727862
0.007781613 0.0064830272 0.0019080198 0.0107931355 0.0049637 0.007847933 0.010563201 0.004995495
-0.00016349739 0.01131257 0.004913725 -0.00043497662 -0.0059984745 -0.00012510228 -0.0020271991 -0.006616073
-0.001509529 0.0028149437 0.0031443865 0.0055133677 0.009910551 -0.01046808 0.0061229295 -0.0135262
0.0063461894 -0.0042517255 -0.011501643 0.011341957 0.018835478 0.0011964916 -0.00177508 0.010495337
0.009718667 -0.01133239 0.00023898436 0.0068527595 -0.0015327105 0.0037046038 0.006842001 0.01339659
-0.016867792 -0.004816528 -0.011199399 -0.0011064882 -0.0054000807 -0.010069999 -0.005388109 0.00016627021
0.0023489788 -0.0021930614 -0.0004102312 0.0053876094 -0.008278322 -0.0049688206 -0.008198515 0.0088194925
00000000: 145c 02bc 5dc5 bdbb 7f53 473c 4db2 883b
00000010: 2522 52bb 887a 02ba fc1b 883a fc12 aabc
00000020: cb57 2cbb 8bb6 1cbc be27 3c3c 28ba 6a3a
00000030: b571 87bb 4e45 acba b765 06bc 2b6d 143c
00000040: 5bf3 aabc 745c 203b 3154 933a 3f93 963c
00000050: db99 00bc bd93 003c 324f feba caa1 7bbb
00000060: fdbb f4bb f33a edbb c5b6 b43b 03a6 183c
00000070: 35a0 be3a 08e5 1f3b d66c 013c 8340 b4b9
00000080: b84d 2bbb 5ea1 113b 5a72 fcbb 3381 50bb
00000090: 1fda 98ba 0fa4 e9bb e2c3 043b fe9e 18bc
000000a0: 7ba1 143c 3592 d3bb cfd2 06bc d996 a13c
000000b0: 434c f63b 146d 0ebc d8b8 f33a 6ba3 f23b
000000c0: 3624 983b b0f2 eb3b 5f09 ca3b deea a8bb
000000d0: 60d8 fcbb b5a7 fe3a 001a 453b eb5b bfbb
000000e0: 8234 993c 085c 283c 0b83 473b 9e7e a5ba
000000f0: 1730 aabb b74d 943b aee9 873c 0f61 803a
00000100: 905d 0cbc 4b59 44bb 54b9 163c e19f 09bc
00000110: ed11 2a3b 22ba 81bc 494e 37bb 770d f6bb
00000120: 482f 64bc eaf8 263b 6480 8d3b f355 2c3c
00000130: e864 6ebb 27c6 293c b264 b73c f213 e73a
00000140: bc86 293c 36e7 203b 0c30 0c3c ac31 39bc
00000150: d4df 8f3a 2ba8 1cbc 19b5 a83b 378d 74bc
00000160: d2c5 48bc 0706 d03b 8b8c 56bb 8acb c13b
00000170: d7e7 e7bb c730 9f39 9d26 6bbb e2a1 423b
00000180: 51db 9c3b 55bd c0bc b34f 34bc 974d 813c
00000190: e7e4 90bb 4f95 1aba 25f6 953c 65c3 e63c
000001a0: f09e 8b3b fe3a 2d3b 9bed 053c b422 a6bb
000001b0: 0f1e 933a 8a31 8d3b 8c27 243b 6c43 1f3c
000001c0: 1355 da3b 5cee 42bc d1b4 363c 85c8 833b
000001d0: 3e27 13ba 11a5 a8bb 635a 65bb b32b 333b
000001e0: 4a22 913a de3d 12bb ab26 f0bb 3156 bcbc
000001f0: 5327 473b 6e4f 88bb 42bf c23b 4181 9a3c
00000200: 8eb6 bdbb bbb4 40bb 5ada 8c3a 7a0a 8a3a
00000210: a58b bfbc 748d 033b bdd9 54bb c740 9cbc
00000220: 1b83 bcbb b239 613a 4b80 30bb b73f 1e3c
00000230: 88f9 4bba 8b21 f5ba d780 f63b a79f 2f3b
00000240: 0c90 a53a a197 86bc 7158 4cbb 9d13 e4ba
00000250: 5d9b 00bb 5223 babb bda0 ee3a 1fdb 913b
00000260: 6b05 48bc aba8 6d3c e3fd 98bc b348 9cbc
00000270: 1f54 dbbb 1c17 0c3b 9552 98bc 5209 283c
00000280: 8eee b2bc 0fea 5dbb 174b 5dbb bd5c 383b
00000290: a0c3 cfbb bd94 033c c39d 3cbb c7ad aa3b
000002a0: 7d6a 493c fb0b be3b 6bbd 523b fb3f 7b3c
000002b0: 72a4 e1ba 7f9b 24bb 273e 06ba 7cb9 c33b
000002c0: 6f55 b8bb 31ea 00bb 3d1b 42bb 32a6 7bbb
000002d0: ca26 7abb 55ff 17bb 8fed 5b3c 78d4 b93b
000002e0: 4316 5abb 0714 9e3b b54f 483c c07f 42bc
000002f0: 2b4d 5abb 7cbd 003c 633d 81bb af0c fabb
00000300: d0db daba fa0d 12bc 97b1 51bc d8a3 91ba
00000310: 569b ad3a 9773 e23a 735a 8fbb 85ee 4f3b
00000320: e7fc fe3b 936f d43b 8516 fa3a b1d5 303c
00000330: 89a6 a23b 9e94 003c 4711 2d3c 40b1 a33b
00000340: 7f70 2bb9 5c58 393c 5003 a13b 930d e4b9
00000350: da8e c4bb e32d 03b9 c2da 04bb a5cb d8bb
00000360: 63db c5ba eb7a 383b 0d12 4e3b 7ba9 b43b
00000370: dd5f 223c 4f82 2bbc dba2 c83b ff9c 5dbc
00000380: b2f3 cf3b 0f52 8bbb 6371 3cbc 9ed3 393c
00000390: dc4c 9a3c 99d3 9c3a cda9 e8ba a2f4 2b3c
000003a0: 0b3b 1f3c 7dab 39bc e097 7a39 1d8d e03b
000003b0: 3be5 c8ba f0c8 723b dd32 e03b 5f7d 5b3c
000003c0: 532e 8abc f7d3 9dbb af7d 37bc 9507 91ba
000003d0: 29f3 b0bb a3fc 24bc bc8e b0bb d258 2e39
000003e0: 53f1 193b 77b9 0fbb 4d14 d7b9 8b8a b03b
000003f0: cda1 07bc 7dd1 a2bb 1053 06bc a27f 103c

action_model._discrete_distribution.branches.1.bias f4 [2]
0.0 0.0
00000000: 0000 0000 0000 0000

action_model._discrete_distribution.branches.2.weight f4 [2, 128]
-0.00036663757 -0.002334119 0.0018370341 -0.005098071 0.0052899322 0.0028498115 -0.003907304 0.0050453087
-0.0009685654 0.00074102863 0.010938325 0.0087492885 0.0007398404 -0.0121763265 0.0098189125 0.002911705
0.0043373047 -0.022760298 0.0009901738 -0.0061118985 -0.000162541 -0.011139568 0.003561359 -0.0049112285
0.012066367 -0.000991035 0.011219206 0.00068133586 -0.0041132267 0.001041714 0.0011243662 0.008130228
-0.0148386285 0.0059232446 -0.003273466 -0.0051776543 -0.005786777 0.0055467603 0.012240048 -0.0027521013
0.005534762 0.0008533024 0.008760327 -0.009937733 0.009260649 0.0123591665 0.0052378946 -0.00036798613
0.0012716908 -0.0036997497 -0.006747725 -0.0005644501 -0.0024082342 0.0023264007 -0.008100535 -0.00096540694
-0.00021305394 0.0043217517 0.008733815 0.0029526073 -0.012798733 0.0065641715 -0.0010063363 0.0068245046
-0.015605542 -0.0046067475 0.003412631 -0.014162088 0.0039693895 0.011306822 0.0012504807 -0.0010919784
0.0033258486 -0.0053782333 0.013199823 -0.011973755 0.012132607 -0.004830481 -0.0013241593 0.0077853845
-0.004561084 0.00079663063 -0.009649835 -0.00042486592 -0.009711028 0.0035587002 -0.0041445335 -0.0012680069
0.0027117517 0.0031200303 0.0033489875 -0.00015766973 -0.008222632 0.0071849464 0.002625477 -0.011223686
-0.010860281 -0.00079867116 -0.011222708 0.0027763736 0.016660275 -0.0128683075 -0.0016474527 -0.012133551
-0.0062452066 -0.0021156697 9.9263285e-05 0.0065352805 0.009609203 0.003611153 -0.006965022 -0.0072936267
0.0035673734 -0.009508576 0.00466769 -0.002673514 -0.017201044 0.0051581766 -0.007812259 -0.00601888
0.017529327 0.004428546 -0.012553384 -0.0038060446 0.011037482 -0.00018108186 -0.012554324 0.008311243
-0.0053902613 0.0025973679 0.0112608485 0.015961898 0.0042491895 0.0010746829 0.005327705 -0.017040478
0.0037109894 0.0039953305 0.0065652006 0.019025281 0.0011250874 -0.015984252 0.0120716 0.006390111
-0.008998249 0.0031094635 0.0031322904 -0.0016584684 0.0050573046 0.0025178397 0.005704113 -0.006240339
-0.006876424 -0.005393041 0.0049114036 -0.014240255 -0.005396786 -0.002352812 -0.0057908874 0.008938159
0.009704455 0.0039319913 0.003755587 -0.0057297065 -0.003761376 -0.018883068 0.006291044 -0.015331149
-0.0019134203 0.0064919344 0.0013165004 0.014724036 0.005713058 -0.008385838 0.004091271 0.012347919
-0.0019319231 -0.011034704 0.0032663716 -0.014995321 -0.0014887847 -8.396785e-05 -0.0012969133 -0.003519673
-0.0021306416 -0.0028641738 0.01783318 0.0039657885 0.002932324 0.0066691884 0.0034075931 0.011525041
0.0014327025 -0.0054164585 -0.0033010815 -0.0009719681 -0.0123710325 -0.0049310555 -0.0067421943 0.0005292175
0.009193657 -0.004163504 -0.0007574571 0.009398315 -0.006903025 0.0004171036 -0.0040271617 -0.0043093255
-0.004446733 -2.938276e-05 -0.006559685 0.0038542156 -0.011644888 0.0067616454 0.0015658292 0.009024562
0.0016578771 0.010795552 -0.0042770044 -0.010662913 0.0023407952 0.003014815 -0.0075206156 0.010640139
-0.0060097734 0.0150825605 -0.013937861 0.006319666 -0.001374568 -0.021125114 0.015504886 -0.0018212408
6.9661415e-05 -0.0020127117 -0.009244681 -0.013467359 0.0059210556 0.0045860647 0.0023509716 -0.017691486
0.00067248725 0.007596984 0.015074349 -0.010126918 0.0061586252 -0.0069115846 0.00034696315 -0.0022360242
-0.0073429793 -0.0031248184 0.010228752 -0.006939936 -0.0149420155 0.0021344253 0.019129409 -0.0044333055
00000000: 4339 c0b9 05f8 18bb a3c8 f03a b80d a7bb
00000010: 2b57 ad3b e7c3 3a3b d708 80bb 1e53 a53b
00000020: 53e7 7dba 9741 423a a936 333c 2d59 0f3c
00000030: d9f1 413a 377f 47bc 81df 203c 4ed2 3e3b
00000040: f31f 8e3b ce73 babc b8c8 813a 5246 c8bb
00000050: c46f 2ab9 bc82 36bc b065 693b 5fee a0bb
00000060: 03b2 453c 9ee5 81ba c3d0 373c ad9b 323a
00000070: 3fc8 86bb 1f8a 883a 785f 933a a634 053c
00000080: b81d 73bc c717 c23b a587 56bb 50a9 a9bb
00000090: 019f bdbb 99c1 b53b 7b8a 483c 995c 34bb
000000a0: f35c b53b 28b0 5f3a 7987 0f3c e0d1 22bc
000000b0: fab9 173c 1a7e 4a3c a5a2 ab3b 43ee c0b9
000000c0: ddae a63a 8077 72bb 051c ddbb 9bf7 13ba
000000d0: 77d3 1dbb 8776 183b 1bb8 04bc 5d13 7dba
000000e0: 3b67 5fb9 7b9d 8d3b 4618 0f3c 8880 413b
000000f0: c7b1 51bc 4318 d73b 0be7 83ba 18a0 df3b
00000100: 63ae 7fbc 33f4 96bb 73a6 5f3b 1a08 68bc
00000110: a711 823b 4040 393c 2be7 a33a b720 8fba
00000120: 7bf6 593b e43b b0bb 1244 583c 922d 44bc
00000130: d8c7 463c 0349 9ebb 6a8f adba 8a1c ff3b
00000140: 2575 95bb fad4 503a 571a 1ebc 8ac0 deb9
00000150: 011b 1fbc 1539 693b dece 87bb 4033 a6ba
00000160: a5b7 313b 6c79 4c3b b07a 5b3b 2554 25b9
00000170: 38b8 06bc b36f eb3b 3210 2c3b 8de3 37bc
00000180: 52ef 31bc ea5d 51ba 73df 37bc d2f3 353b
00000190: 217b 883c 98d5 52bc 57ef d7ba cdcb 46bc
000001a0: 97a4 ccbb 0ca7 0abb 922b d038 e825 d63b
000001b0: eb6f 1d3c 18a9 6c3b d73a e4bb 60ff eebb
000001c0: 98ca 693b dcc9 1bbc 6cf3 983b 1f36 2fbb
000001d0: 34e9 8cbc ec05 a93b fafd ffbb 063a c5bb
000001e0: aa99 8f3c 561d 913b b5ac 4dbc d56e 79bb
000001f0: 8ed6 343c cbe0 3db9 a7b0 4dbc e12b 083c
00000200: caa0 b0bb 9a38 2a3b 6c7f 383c 87c2 823c
00000210: c93c 8b3b 60dc 8c3a 0794 ae3b 7998 8bbc
00000220: 1234 733b 43eb 823b e520 d73b e8da 9b3c
00000230: ab77 933a 68f1 82bc f6c7 453c 2364 d13b
00000240: 646d 13bc 24c8 4b3b 1d47 4d3b f760 d9ba
00000250: bfb7 a53b 5702 253b 91e9 ba3b c27b ccbb
00000260: a053 e1bb 1bb8 b0bb d7ef a03b f54f 69bc
00000270: 86d7 b0bb a331 1abb 7cc1 bdbb 5b71 123c
00000280: 6fff 1e3c efd7 803b 4b20 763b 43c0 bbbb
00000290: 6b81 76bb aab0 9abc 1a25 ce3b 802f 7bbc
000002a0: bbcb faba 4bba d43b 6c8e ac3a 153d 713c
000002b0: 9b34 bb3b c164 09bc 1210 863b ed4e 4a3c
000002c0: 9538 fdba e7ca 34bc 9f10 563b efae 75bc
000002d0: 5323 c3ba e517 b0b8 30fd a9ba 50aa 66bb
000002e0: 3ca2 0bbb ddb4 3bbb e416 923c 72f3 813b
000002f0: 3c2c 403b 3589 da3b ed51 5f3b 87d3 3c3c
00000300: 85c9 bb3a 8c7c b1bb f556 58bb adcb 7eba
00000310: dfaf 4abc b194 a1bb a0ed dcbb 2fbb 0a3a
00000320: fea0 163c 016e 88bb 1690 46ba 64fb 193c
00000330: c532 e2bb b3ae da39 48f6 83bb 3e35 8dbb
00000340: e6b5 91bb ff7a f6b7 a0f2 d6bb 0297 7c3b
00000350: 33ca 3ebc cb90 dd3b 823c cd3a c2db 133c
00000360: 204d d93a d4df 303c 1d26 8cbb 80b3 2ebc
00000370: 0768 193b 3494 453b 7f6f f6bb fa53 2e3c
00000380: a2ed c4bb d81c 773c a05b 64bc 3315 cf3b
00000390: d92a b4ba 930e adbc 3508 7e3c b3b6 eeba
000003a0: 3017 9238 b3e7 03bb 0177 17bc 33a6 5cbc
000003b0: 6a05 c23b b346 963b c212 1a3b bced 90bc
000003c0: db49 303a 1ff0 f83b 67fa 763c 5feb 25bc
000003d0: 4bce c93b 937a e2bb 9be8 b539 438a 12bb
000003e0: 609d f0bb c1c9 4cbb 7f96 273c 6768 e3bb
000003f0: 5bcf 74bc b7e1 0b3b 47b5 9c3c 4345 91bb

action_model._discrete_distribution.branches.2.bias f4 [2]
0.0 0.0
00000000: 0000 0000 0000 0000

action_model._discrete_distribution.branches.3.weight f4 [2, 128]
-0.0031477038 -0.018752033 -0.0031668835 0.0011690824 -0.0030893045 -0.008690584 -0.002775938 0.00027057514
0.01140941 -0.01264551 0.0069861957 -0.006932127 0.002641449 -0.0017556985 -0.0035185907 -0.0022569203
0.0011951652 0.006566974 -0.0032638721 -0.008227407 0.005828821 -0.0022424257 0.011970493 0.004957931
0.013000078 0.015583723 0.01806814 -0.0026957723 0.0033717945 -0.0014325718 -0.014029636 -0.0064057717
0.00040660315 -0.0037948128 0.0045838933 0.0066970172 -0.0036628523 0.0046283435 0.0042958255 0.01683156
0.007720341 0.016985023 0.00043669264 -0.007931164 0.001103634 0.0059152343 0.015974523 -0.012600784
0.00792387 0.0005201858 -0.00022075255 0.002252884 -0.00886211 -0.007999137 -0.007048696 -0.014136671
-0.0032789775 0.0020964146 -0.007243372 -0.0024434833 -0.0023227446 0.010699929 0.012151919 0.0064412593
-0.009970733 0.029033804 -0.014586093 -0.0016859632 -0.0078008473 -0.0054804627 -0.0060340064 0.009214031
0.00017665759 0.01312296 -0.011671724 0.008575221 -0.0012872131 0.005413671 -0.003209867 0.0054891794
-0.004144482 0.0040723844 -0.0020328565 0.028402084 0.0041018045 0.007683339 0.0084256185 0.013636351
-0.00044060723 -0.0056104544 -0.0034940075 0.010494598 0.0039396174 -0.008985037 0.0024225323 0.0020819395
0.015507854 -0.0003867818 -0.0038812037 -0.003285908 -0.0026366916 -0.00745755 -0.0014073234 0.00071594486
-0.011697968 0.002793688 -0.010525093 -0.0064755105 0.0024823137 -0.0037152288 -0.0051933173 0.00366267
0.003958077 0.011040035 0.0019723768 0.00790998 0.0017175637 -0.0022296766 -0.00676729 0.0042045577
5.901335e-05 0.0021164715 -0.0035989804 -0.0110382335 0.00019616362 -0.012062825 -0.0014868954 0.009916254
0.0061525963 0.0062258425 -0.0019442461 -0.00054352573 -0.0066550868 0.0031918993 -0.00034230677 -0.0010391392
0.0056664594 0.005203581 -0.017626604 0.0072755776 0.0029974757 -0.0006982185 0.006200184 0.0047460627
-0.01230505 -0.0015120421 -0.011514292 0.0046048774 -0.0042471606 -0.0065203244 0.011940851 -0.009175411
0.00037322886 -0.013867745 0.0045913225 0.005526188 -0.0011183375 -0.006083507 0.0057396125 0.006247546
-0.016773973 -0.0041863555 0.00568022 0.011088635 -0.010115674 -0.009789794 -0.009716693 0.002544943
0.0017261005 0.001957818 -0.010876722 0.0044945343 8.2219405e-05 0.0040723453 0.001230969 0.007866337
0.022385193 -0.0023150665 -0.0047146548 -0.0073809447 0.00089018134 0.0023074267 0.00010695984 0.01489111
0.00023925917 -0.0079498505 -0.010860141 0.0069951857 0.0011940539 -0.005770962 -0.010821452 -0.0063811042
0.007673835 -0.0024863614 0.005653593 0.003892254 0.00030233606 0.0019868077 0.009678989 0.0070175007
0.010922683 0.013926051 -0.003490495 0.00051086844 -0.0025405658 -0.0028441928 -0.009342449 -0.0024456254
-0.013992389 -0.008826194 0.0035412868 -0.010634957 0.0133150695 -0.007729651 -0.00085504306 -0.005673998
0.0025078254 0.00918046 -0.006067903 -0.008703472 0.002221618 -0.004287948 0.0070938505 -0.0039003044
-0.011913783 0.018402375 -0.008375517 0.0010219935 -0.009845531 0.0044701877 0.00033033788 0.0008725699
-0.00324403 -0.0016547801 -0.0046807253 0.0067217955 0.0009868981 0.0092204055 0.009602362 0.018564276
-0.006351807 -0.0021362104 -0.0043324637 -0.005125044 0.0054272986 -0.0027210864 -0.0023707766 -0.00038118355
-0.007861286 0.0051709157 0.010489521 0.008035893 0.0006647368 -0.008906883 -0.0030142395 -0.0021884714
00000000: b549 4ebb dd9d 99bc 7d8b 4fbb e53b 993a
00000010: ee75 4abb f462 0ebc 83ec 35bb fbdb 8d39
00000020: 89ee 3a3c 1d2f 4fbc 75ec e43b e526 e3bb
00000030: 291c 2d3b 771f e6ba 2898 66bb d7e8 13bb
00000040: 17a7 9c3a c52f d73b b0e6 55bb 3fcc 06bc
00000050: b2ff be3b a9f5 12bb e31f 443c 2476 a23b
00000060: 47fe 543c df52 7f3c a303 943c 8eab 30bb
00000070: 53f9 5c3b 22c5 bbba 8fdc 65bc 82e7 d1bb
00000080: 5a2d d539 65b2 78bb 7c34 963b a772 db3b
00000090: 770c 70bb 5ca9 973b ffc3 8c3b 57e2 893c
000000a0: eafa fc3b 2d24 8b3c e5f3 e439 b6f1 01bc
000000b0: d0a7 903a 95d4 c13b 01dd 823c 8573 4ebc
000000c0: 1fd3 013c 145d 083a d079 67b9 1fa5 133b
000000d0: 6232 11bc d00e 03bc bff8 e6bb 7f9d 67bc
000000e0: 1de4 56bb 0064 093b cf59 edbb d922 20bb
000000f0: 3039 18bb c14e 2f3c d818 473c 3311 d33b
00000100: 495c 23bc 4dd8 ed3c 82fa 6ebc 8afb dcba
00000110: 409e ffbb 7495 b3bb eab8 c5bb 72f6 163c
00000120: 293d 3939 af01 573c c23a 3fbc 157f 0c3c
00000130: b4b7 a8ba 2a65 b13b a25c 52bb 93de b33b
00000140: 6fce 87bb a371 853b ac39 05bb 7dab e83c
00000150: 6e68 863b 85c4 fb3b 9b0b 0a3c 006b 5f3c
00000160: 4d01 e7b9 e7d7 b7bb b8fb 64bb 89f1 2b3c
00000170: e817 813b fa35 13bc 59c3 1e3b 2671 083b
00000180: a714 7e3c f9c8 cab9 cb5b 7ebb 6358 57bb
00000190: 58cc 2cbb 775e f4bb f075 b8ba 3fae 3b3a
000001a0: d5a8 3fbc 4f16 373b 7171 2cbc 8530 d4bb
000001b0: 50ae 223b 327b 73bb b42c aabb 6809 703b
000001c0: c2b2 813b 43e1 343c fe42 013b dc98 013c
000001d0: e01f e13a c41f 12bb 25c0 ddbb 63c6 893b
000001e0: 1a85 7738 80b4 0a3b dfdc 6bbb b5d9 34bc
000001f0: 45b1 4d39 28a3 45bc eee3 c2ba c977 223c
00000200: b89b c93b 2702 cc3b 13d6 feba 657b 0eba
00000210: ea12 dabb 2f2f 513b a377 b3b9 ba33 88ba
00000220: b5ad b93b cd82 aa3b ab65 90bc f867 ee3b
00000230: 4c71 443b a608 37ba ea2a cb3b dc84 9b3b
00000240: 1f9b 49bc b72f c6ba 71a6 3cbc 83e4 963b
00000250: c42b 8bbb 72a8 d5bb 8fa3 433c 7754 16bc
00000260: eead c339 8a35 63bc ce72 963b 0615 b53b
00000270: 2e95 92ba 2858 c7bb 5c13 bc3b 37b8 cc3b
00000280: 9269 89bc b22d 89bb 2421 ba3b 1bad 353c
00000290: 36bc 25bc 5f65 20bc c432 1fbc 0fc9 263b
000002a0: 523e e23a bc4e 003b 4734 32bc e346 933b
000002b0: 356d ac38 4f71 853b 7758 a13a cfe1 003c
000002c0: 2761 b73c 5fb8 17bb 647d 9abb dadb f1bb
000002d0: 0f5b 693a 3238 173b a04f e038 d8f9 733c
000002e0: a5e1 7a39 1740 02bc bcee 31bc df37 e53b
000002f0: cd81 9c3a 571a bdbb 764c 31bc 9518 d1bb
00000300: cb74 fb3b 39f2 22bb c741 b93b 3015 7f3b
00000310: dc82 9e39 1a35 023b 9f94 1e3c 10f3 e53b
00000320: 0ef5 323c 172a 643c cac0 64bb cdeb 053a
00000330: 9f7f 26bb a365 3abb 1211 19bc c946 20bb
00000340: 5540 65bc be9b 10bc ef14 683b 3e3e 2ebc
00000350: 7327 5a3c 0349 fdbb f824 60ba f2ec b9bb
00000360: 545a 243b a469 163c 42d5 c6bb 0299 0ebc
00000370: 9198 113b ea81 8cbb 8873 e83b 409c 7fbb
00000380: 0732 43bc 94c0 963c 7739 09bc 69f4 853a
00000390: 264f 21bc a77a 923b 3331 ad39 2dbd 643a
000003a0: cb99 54bb 35e5 d8ba c560 99bb 8242 dc3b
000003b0: ce5a 813a 2f11 173c 3a53 1d3c 1c14 983c
000003c0: d222 d0bb aaff 0bbb 57f7 8dbb fcef a7bb
000003d0: 7bd7 b13b 4154 32bb 085f 1bbb 97d9 c7b9
000003e0: a0cc 00bc c970 a93b 3ddc 2b3c faa8 033c
000003f0: bb41 2e3a 2dee 11bc 8c8a 45bb 756c 0fbb

action_model._discrete_distribution.branches.3.bias f4 [2]
0.0 0.0
00000000: 0000 0000 0000 0000

action_model._discrete_distribution.branches.4.weight f4 [2, 128]
-0.0048835035 -0.0049556578 -0.011011134 0.009107082 0.00056666037 -0.00076497416 0.0019708618 0.008218302
-0.013006642 0.0044715996 -0.0004416877 -0.007897356 -0.0023194933 0.0045675463 0.0014832495 -0.006406508
0.0076646903 -0.0074758357 -0.005837032 0.008676119 -0.0010700523 0.0003208488 0.0035351913 0.00735024
0.0027335596 -0.009958497 0.0048950533 0.012052343 -0.005949967 -0.017613774 0.004353887 0.00033599354
0.009258755 -0.0023849811 -0.00218016 -0.005721554 0.014769179 0.0044226837 0.004450771 -0.0022650843
-0.007400993 0.0027882508 -0.0035862585 -0.014997981 -0.005683055 -0.008574388 -0.0018959179 0.0077140476
0.011619932 0.005431999 0.0125291115 -0.010313053 -0.0032494415 0.007247466 0.0054725134 -0.0069131902
-0.019783085 0.018980913 0.014592868 -0.000522747 -0.0047740955 0.010479667 -0.002002499 0.004071469
0.0090737855 0.014567475 0.0019865409 0.0027945542 0.0027607994 0.006126605 0.009990766 0.012037487
0.014774399 0.0077041434 -0.009634936 -0.004858395 0.0029673153 0.0054805144 0.0005224415 -0.0040684403
0.004912392 0.01252676 0.002351824 0.011193662 0.015148687 0.0069338307 0.003011058 -0.0014682178
0.00093408005 -0.0064164414 -0.0043226583 0.0036140815 -0.006940576 0.0033851636 0.01004384 -0.0021280004
0.015815577 0.004334231 0.0101930415 0.0017007918 -0.011562531 0.0031830918 -0.012379201 0.016679484
0.0012347227 0.0033907697 0.001797676 -0.015676064 -0.012369729 -0.016063005 -0.0027465434 0.0014938699
-0.020786377 -0.013379469 -0.0050132643 -0.009306742 0.004343705 -0.004350923 0.011924175 0.003566913
0.001985294 -0.007180184 -0.0010668196 0.0036882423 0.014816955 0.010190352 0.010540354 -0.00221382
-0.0003053287 0.0030063062 -0.020421311 -0.0033168097 0.009850069 0.014056275 -0.0013815829 -0.004710025
0.0063849553 0.010087139 -0.009436706 -0.0042414316 0.008412044 -0.006597411 0.003811307 0.0008423063
0.017765809 0.0039356723 0.0017223296 0.011628186 0.013560957 0.018325614 0.0051389094 -0.00040315557
-0.014354557 -0.010934032 0.010275691 0.00014513344 0.014214839 -0.01335154 0.006320413 -0.0052654217
-0.0014321428 0.004826589 -0.00077616563 0.0030470453 0.009199571 -0.0029899597 -0.014430039 -0.00052955485
-0.0087723425 0.015657997 -0.010326585 0.007235182 -0.004168359 0.0077821575 -0.0014865029 0.0013799153
0.017539887 0.0029021022 0.008130705 -0.0074759047 0.0004122026 0.009027833 -0.012866189 -0.0026772346
0.012096568 0.0026204763 -0.0083274385 -0.0057283267 0.00393943 -0.008868954 -0.013730213 0.0016963966
-0.009448815 0.010336263 -0.0014785499 0.0028926407 -0.005096325 0.0073246295 -0.016674967 -0.005950746
0.0078125065 0.0003225634 0.00053107634 -0.0021320747 0.0031960958 -0.0023275053 0.024298271 -0.014774128
0.020267464 0.0035230597 -0.0035435844 0.009435824 0.004683945 -0.0040326486 0.0029480995 0.01709489
-0.0034970026 -0.00020622853 -0.0054152696 -0.0033226262 0.0012265443 0.004638772 0.008147427 0.014298935
0.0015827775 -0.016486395 -0.01295419 0.0073236264 -0.012180995 0.008726944 0.009566623 0.0024939186
-0.0010873345 -0.0042491173 0.005592757 -0.02241093 -0.0017200476 -7.207699e-05 0.0044466723 0.0030288387
-0.018470393 -0.012072629 0.014526981 0.0021204916 -0.0006048435 0.015130261 -0.0028832832 0.002820107
0.00015148215 -0.011469471 0.0007068467 -0.0011661199 -0.017265273 0.015199825 0.0006780822 0.00055372104
00000000: cc05 a0bb 1263 a2bb 0b68 34bc df35 153c
00000010: ef8b 143a 8c88 48ba 9329 013b 0fa6 063c
00000020: d019 55bc 7f86 923b 5292 e7b9 e963 01bc
00000030: a402 18bb 5bab 953b 9869 c23a afed d1bb
00000040: 1528 fb3b dbf7 f4bb 9344 bfbb 4826 0e3c
00000050: ff40 8cba 9937 a839 abae 673b 48da f03b
00000060: 8525 333b f728 23bc af66 a03b 3177 453c
00000070: f1f7 c2bb c34a 90bc 0dab 8e3b 4a28 b039
00000080: 08b2 173c 584d 1cbb 04e1 0ebb e07b bbbb
00000090: 6dfa 713c 29ec 903b c6d7 913b cf71 14bb
000000a0: 0784 f2bb 16bb 363b 6f07 6bbb 17ba 75bc
000000b0: ec38 babb 977b 0cbc 7380 f8ba 1fc6 fc3b
000000c0: 8761 3e3c e9fe b13b e746 4d3c 14f8 28bc
000000d0: 95f4 54bb 277c ed3b c552 b33b 0b88 e2bb
000000e0: 2310 a2bc dc7d 9b3c ed16 6f3c f508 09ba
000000f0: 0470 9cbb e9b2 2b3c 5c3c 03bb f569 853b
00000100: 37aa 143c 6bac 6e3c a030 023b d724 373b
00000110: 87ee 343b b0c1 c83b 4fb0 233c e138 453c
00000120: 5210 723c 0a73 fc3b dadb 1dbc 2c33 9fbb
00000130: 4a77 423b e395 b33b 75f4 083a 8d50 85bb
00000140: 21f8 a03b 0a3d 4d3c 0f21 1a3b 9f65 373c
00000150: 3332 783c 3035 e33b 2c55 453b 3771 c0ba
00000160: 0ddd 743a 0341 d2bb 16a5 8dbb 3ada 6c3b
00000170: c56d e3bb 9fd9 5d3b eb8e 243c ec75 0bbb
00000180: ab8f 813c 2a06 8e3b b700 273c 1aed de3a
00000190: c570 3dbc 6b9b 503b 22d2 4abc 6aa3 883c
000001a0: 6bd6 a13a ad37 5e3b ff9f eb3a 176b 80bc
000001b0: 67aa 4abc 9096 83bc 5aff 33bb f5cd c33a
000001c0: 3148 aabc 8f35 5bbc 4f46 a4bb 4e7b 18bc
000001d0: a355 8e3b 3092 8ebb 9d5d 433c dfc2 693b
000001e0: b51b 023b c047 ebbb 87d4 8bba 70b6 713b
000001f0: d0c2 723c 6ff5 263c 73b1 2c3c bc15 11bb
00000200: 8614 a0b9 7305 453b 984a a7bc d55e 59bb
00000210: 2f62 213c 4a4c 663c 3b16 b5ba 8e56 9abb
00000220: e338 d13b 8744 253c 6a9c 1abc b5fb 8abb
00000230: abd2 093c 182f d8bb 1fc7 793b 38ce 5c3a
00000240: 9a89 913c d0f6 803b cbbf e13a 2684 3e3c
00000250: c72e 5e3c 991f 963c 4c64 a83b a05e d3b9
00000260: 602f 6bbc a724 33bc 5f5b 283c f62e 1839
00000270: 5be5 683c 6bc0 5abc 781b cf3b 8f89 acbb
00000280: bdb6 bbba 5d28 9e3b 9877 4bba f0b0 473b
00000290: ccb9 163c 33f3 43bb f86b 6cbc d3d1 0aba
000002a0: dfb9 0fbc 3345 803c d630 29bc 1b15 ed3b
000002b0: bb96 88bb 7801 ff3b c3d6 c2ba 46de b43a
000002c0: cfaf 8f3c 3231 3e3b a636 053c 6ff8 f4bb
000002d0: e51c d839 7ae9 133c b5cc 52bc 8b74 2fbb
000002e0: af30 463c 4cbc 2b3b cf6f 08bc b0b4 bbbb
000002f0: 5616 813b 174f 11bc b0f4 60bc a059 de3a
00000300: 34cf 1abc 6e59 293c e7cb c1ba 7592 3d3b
00000310: 13ff a6bb 7203 f03b f199 88bc 7afe c2bb
00000320: 0700 003c ba1d a939 ee37 0b3a 47ba 0bbb
00000330: 9775 513b 0f89 18bb 2b0d c73c 2f0f 72bc
00000340: f407 a63c 22e3 663b 7b3b 68bb b798 1a3c
00000350: c77b 993b 4f24 84bb e734 413b 950a 8c3c
00000360: f82d 65bb 0d3f 58b9 9372 b1bb 6bc0 59bb
00000370: ffc3 a03a d700 983b c97c 053c 1546 6a3c
00000380: 3375 cf3a 7a0e 87bc d03d 54bc 08fb ef3b
00000390: cc92 47bc 75fb 0e3c 53bd 1c3c 0371 233b
000003a0: e484 8eba 2e3c 8bbb 7243 b73b 2097 b7bc
000003b0: 3873 e1ba 0a28 97b8 64b5 913b 7b7f 463b
000003c0: 394f 97bc 47cc 45bc 9302 6e3c f2f7 0a3b
000003d0: 5c8e 1eba eae4 773c 77f5 3cbb 8bd1 383b
000003e0: 2ed7 1e39 73ea 3bbc ae4b 393a 7ed8 98ba
000003f0: e76f 8dbc b008 793c 53c1 313a 9727 113a

action_model._discrete_distribution.branches.4.bias f4 [2]
0.0 0.0
00000000: 0000 0000 0000 0000
