Assets/results/ppo/My Behavior/My Behavior-38.onnx (onnx, 156809 bytes, 20 tensors)

discrete_act_size_vector f4 [1, 14]
2.0 2.0 2.0 2.0 2.0 2.0 2.0 10.0
10.0 10.0 10.0 10.0 10.0 10.0
00000000: 0000 0040 0000 0040 0000 0040 0000 0040
00000010: 0000 0040 0000 0040 0000 0040 0000 2041
00000020: 0000 2041 0000 2041 0000 2041 0000 2041
00000030: 0000 2041 0000 2041

network_body._body_endoder.seq_layers.0.weight f4 [128, 24]
0.12479125 -0.05567523 -0.26377624 -0.5153189 0.12840052 -0.11171314 -0.18816324 0.25217447
-0.021629121 0.34382465 -0.1051807 0.22550671 0.088832416 0.12382279 -0.028191406 -0.06940199
-0.2436843 0.068419345 0.18599859 -0.45039907 0.092371255 0.039545126 0.32517698 -0.015344876
-0.09449445 -0.06298551 0.18796341 0.2013097 -0.04875022 -0.29261887 0.21827409 0.16736543
0.2001254 0.12902711 -0.21500222 -0.14043356 -0.098720506 0.24585247 0.017320957 -0.033144105
0.28633603 -0.0891718 0.31480408 0.06557606 -0.24738231 -0.017745536 0.21965489 -0.22428319
0.16915749 0.22154851 -0.11091668 -0.05557645 0.060911972 0.004688942 -0.18806061 0.22787024
-0.23440857 -0.054917105 0.07309854 -0.054218825 -0.20678738 0.022888405 0.4650353 -0.09840706
-0.12754649 -0.08332193 0.30057925 -0.50831795 -0.39145884 0.19387922 0.25262767 -0.32498193
0.44390708 -0.46206504 0.02922894 0.008053341 -0.40688282 -0.020703025 -0.20599377 0.03172181
-0.13110244 0.0060677347 0.2775984 -0.23464797 0.048195012 0.01511173 0.13787353 -0.10894989
-0.026835185 0.05891056 -0.2319728 -0.04916585 0.11406383 0.25933874 0.028218206 0.18548116
-0.17634003 -0.055236917 0.19975471 0.10414595 -0.044018332 0.25614095 0.17699261 0.0037332235
0.09332908 0.108765505 0.08534207 0.1925731 -0.1546372 0.5797883 0.26550025 0.13173613
0.14337863 0.11031651 0.3162363 0.24499698 -0.107707426 -0.34905598 0.103681825 0.27892622
0.2956744 0.148736 0.42562374 -0.160427 -0.16600677 -0.28521273 -0.23289149 -0.3529475
0.03311635 -0.013151331 0.25049654 -0.00619444 -0.20181756 0.16447955 -0.008059954 -0.08806086
0.25681585 -0.02008695 0.1570973 -0.14855619 -0.14249033 0.35402963 -0.17852224 -0.073041745
0.017000996 -0.11558021 -0.30771813 -0.06609817 0.069839366 -0.074706554 0.0438422 0.13052325
0.5128344 -0.024386913 -0.03863369 -0.16591221 -0.07455444 -0.13550636 0.026911912 0.18996893
-0.12879586 0.2266302 0.43739814 -0.27527988 -0.045880184 0.17054944 -0.0848581 0.33697635
0.14297904 0.15412527 -0.2592311 0.19028953 -0.29387188 -0.23927264 -0.13513847 0.073135145
-0.27730614 0.112696655 -0.11792684 0.072215706 -0.2120249 -0.43392697 -0.06693621 -0.057454746
0.2875897 0.44494182 0.30382022 0.29385042 -0.036785953 -0.07468367 0.07470533 0.06794008
-0.43829152 -0.46645314 0.09477081 -0.1821946 -0.122211315 -0.070175 0.04242227 0.09008621
-0.11157886 0.016948214 0.17173745 -0.43950737 0.077789225 -0.040613618 0.4850291 0.3468251
0.14687997 -0.026000272 0.20409012 0.23075277 -0.17282875 -0.06740992 0.055101175 -0.0034391216
-0.007533962 -0.14504686 0.12092763 0.0005621015 0.36876702 -0.2640719 0.27660406 0.20249878
0.26512644 -0.26296225 0.29575306 0.20499375 -0.03622121 -0.17270325 0.25165787 0.09183183
-0.1852246 -0.16450213 -0.111279555 -0.22808322 0.14638914 0.20455013 0.028645063 -0.0005979171
-0.20085886 -0.23226681 0.17497936 0.012842142 -0.030692346 -0.0909469 0.042020448 0.10520846
0.07856207 -0.26115248 0.04881514 0.0168586 0.28631204 -0.20225327 0.019616611 -0.022146923
00000000: 8e92 ff3d b60b 64bd ae0d 87be f0eb 03bf
00000010: 6d7b 033e dcc9 e4bd ddad 40be 031d 813e
00000020: 8e2f b1bc c909 b03e fb68 d7bd 3beb 663e
00000030: c5ed b53d ce96 fd3d aaf1 e6bc a122 8ebd
00000040: 6188 79be 711f 8c3d 6a76 3e3e b59a e6be
00000050: 242d bd3d 12fa 213d 997d a63e 1369 7bbc
00000060: 4e86 c1bd 8cfe 80bd 7b79 403e 2124 4e3e
00000070: 50ae 47bd 24d2 95be 3e83 5f3e d861 2b3e
00000080: aced 4c3e af1f 043e 8b29 5cbe d1cd 0fbe
00000090: fa2d cabd c0c0 7b3e aee4 8d3c 1dc2 07bd
000000a0: a39a 923e b49f b6bd 002e a13e be4c 863d
000000b0: ca51 7dbe 165f 91bc 36ed 603e 7eaa 65be
000000c0: 9f37 2d3e 9ddd 623e 4928 e3bd 22a4 63bd
000000d0: d57e 793d b2a5 993b f692 40be d156 693e
000000e0: cd08 70be c2f0 60bd b0b4 953d 8f14 5ebd
000000f0: 12c0 53be 7780 bb3c 1b19 ee3e a489 c9bd
00000100: 8c9b 02be b0a4 aabd 86e5 993e 2021 02bf
00000110: 4b6d c8be 4688 463e 6a58 813e 0864 a6be
00000120: ca47 e33e ca93 ecbe 8871 ef3c 29f2 033c
00000130: f252 d0be 6499 a9bc 08f0 52be bbee 013d
00000140: b83f 06be d9d3 c63b 6121 8e3e 8f47 70be
00000150: 2268 453d 3197 773c b82e 0d3e 1f21 dfbd
00000160: 76d5 dbbc 334c 713d 478a 6dbe 2162 49bd
00000170: 4c9a e93d 0cc8 843e de29 e73c c6ee 3d3e
00000180: 7b92 34be 1b40 62bd 808c 4c3e 794a d53d
00000190: 914c 34bd e824 833e 8d3d 353e 19a9 743b
000001a0: 5123 bf3d 73c0 de3d d3c7 ae3d e231 453e
000001b0: 3759 1ebe 026d 143f a6ef 873e d6e5 063e
000001c0: d9d1 123e 9fed e13d b9e9 a13e 7de0 7a3e
000001d0: b695 dcbd 77b7 b2be 2357 d43d 6bcf 8e3e
000001e0: a362 973e 404e 183e 5beb d93e fa46 24be
000001f0: aefd 29be 6707 92be 1b7b 6ebe 89b5 b4be
00000200: 03a5 073d ae78 57bc 1541 803e bbfa cabb
00000210: 43a9 4ebe 546d 283e e60d 04bc 4159 b4bd
00000220: 5e7d 833e 638d a4bc 1dde 203e 1d1f 18be
00000230: fce8 11be 5f43 b53e 89ce 36be e996 95bd
00000240: ac45 8b3c 51b5 ecbd 3b8d 9dbe 7a5e 87bd
00000250: f107 8f3d c0ff 98bd e193 333d e3a7 053e
00000260: 1e49 033f 10c7 c7bc 5c3e 1ebd e4e4 29be
00000270: 00b0 98bd 2ec2 0abe 5f76 dc3c 3787 423e
00000280: 10e3 03be bf11 683e a6f2 df3e 7cf1 8cbe
00000290: dcec 3bbd 83a4 2e3e 15ca adbd 2a88 ac3e
000002a0: 1969 123e 04d3 1d3e f0b9 84be 42db 423e
000002b0: 6076 96be e303 75be bd61 0abe e1c7 953d
000002c0: 12fb 8dbe 81cd e63d a183 f1bd d4e5 933d
000002d0: 0e1d 59be ad2b debe da15 89bd ab55 6bbd
000002e0: f53e 933e 6acf e33e 538e 9b3e 9073 963e
000002f0: deac 16bd c1f3 98bd 1cff 983d 2b24 8b3d
00000300: bf67 e0be f2d2 eebe 3317 c23d 3991 3abe
00000310: ed49 fabd e9b7 8fbd f9c2 2d3d 1e7f b83d
00000320: 7583 e4bd fbd6 8a3c f1db 2f3e 1c07 e1be
00000330: f54f 9f3d 775a 26bd bc55 f83e 0f93 b13e
00000340: b467 163e 86fe d4bc 00fd 503e 744a 6c3e
00000350: 05fa 30be 360e 8abd c5b1 613d e362 61bb
00000360: 74df f6bb 2a87 14be e8a8 f73d fe59 133a
00000370: 08cf bc3e 6f34 87be 0c9f 8d3e d75b 4f3e
00000380: a7be 873e fda2 86be f26c 973e e2e9 513e
00000390: b15c 14bd 1fd9 30be 4dd9 803e 5412 bc3d
000003a0: 84ab 3dbe 3f73 28be 89e6 e3bd a68e 69be
000003b0: 09e7 153e 9775 513e 0da9 ea3c 8abd 1cba
000003c0: f2ad 4dbe 5ad7 6dbe ca2d 333e d967 523c
000003d0: 846e fbbc 5e42 babd a21d 2c3d 8877 d73d
000003e0: 27e5 a03d c7b5 85be 62f2 473d 0c1b 8a3c
000003f0: 7e97 923e 7b1b 4fbe 04b3 a03c 776d b5bc

network_body._body_endoder.seq_layers.0.bias f4 [128]
0.0 0.0 0.0 0.0 0.0 0.0 0.0 0.0
0.0 0.0 0.0 0.0 0.0 0.0 0.0 0.0
0.0 0.0 0.0 0.0 0.0 0.0 0.0 0.0
0.0 0.0 0.0 0.0 0.0 0.0 0.0 0.0
0.0 0.0 0.0 0.0 0.0 0.0 0.0 0.0
0.0 0.0 0.0 0.0 0.0 0.0 0.0 0.0
0.0 0.0 0.0 0.0 0.0 0.0 0.0 0.0
0.0 0.0 0.0 0.0 0.0 0.0 0.0 0.0
0.0 0.0 0.0 0.0 0.0 0.0 0.0 0.0
0.0 0.0 0.0 0.0 0.0 0.0 0.0 0.0
0.0 0.0 0.0 0.0 0.0 0.0 0.0 0.0
0.0 0.0 0.0 0.0 0.0 0.0 0.0 0.0
0.0 0.0 0.0 0.0 0.0 0.0 0.0 0.0
0.0 0.0 0.0 0.0 0.0 0.0 0.0 0.0
0.0 0.0 0.0 0.0 0.0 0.0 0.0 0.0
0.0 0.0 0.0 0.0 0.0 0.0 0.0 0.0
00000000: 0000 0000 0000 0000 0000 0000 0000 0000
00000010: 0000 0000 0000 0000 0000 0000 0000 0000
00000020: 0000 0000 0000 0000 0000 0000 0000 0000
00000030: 0000 0000 0000 0000 0000 0000 0000 0000
00000040: 0000 0000 0000 0000 0000 0000 0000 0000
00000050: 0000 0000 0000 0000 0000 0000 0000 0000
00000060: 0000 0000 0000 0000 0000 0000 0000 0000
00000070: 0000 0000 0000 0000 0000 0000 0000 0000
00000080: 0000 0000 0000 0000 0000 0000 0000 0000
00000090: 0000 0000 0000 0000 0000 0000 0000 0000
000000a0: 0000 0000 0000 0000 0000 0000 0000 0000
000000b0: 0000 0000 0000 0000 0000 0000 0000 0000
000000c0: 0000 0000 0000 0000 0000 0000 0000 0000
000000d0: 0000 0000 0000 0000 0000 0000 0000 0000
000000e0: 0000 0000 0000 0000 0000 0000 0000 0000
000000f0: 0000 0000 0000 0000 0000 0000 0000 0000
00000100: 0000 0000 0000 0000 0000 0000 0000 0000
00000110: 0000 0000 0000 0000 0000 0000 0000 0000
00000120: 0000 0000 0000 0000 0000 0000 0000 0000
00000130: 0000 0000 0000 0000 0000 0000 0000 0000
00000140: 0000 0000 0000 0000 0000 0000 0000 0000
00000150: 0000 0000 0000 0000 0000 0000 0000 0000
00000160: 0000 0000 0000 0000 0000 0000 0000 0000
00000170: 0000 0000 0000 0000 0000 0000 0000 0000
00000180: 0000 0000 0000 0000 0000 0000 0000 0000
00000190: 0000 0000 0000 0000 0000 0000 0000 0000
000001a0: 0000 0000 0000 0000 0000 0000 0000 0000
000001b0: 0000 0000 0000 0000 0000 0000 0000 0000
000001c0: 0000 0000 0000 0000 0000 0000 0000 0000
000001d0: 0000 0000 0000 0000 0000 0000 0000 0000
000001e0: 0000 0000 0000 0000 0000 0000 0000 0000
000001f0: 0000 0000 0000 0000 0000 0000 0000 0000

network_body._body_endoder.seq_layers.2.weight f4 [128, 128]
-0.012354709 0.025399381 0.06278621 -0.018146355 -0.12788951 0.010025854 0.05947487 -0.0009978317
-0.13314717 -0.17394044 -0.014751639 -0.063920565 0.09655223 -0.101701505 -0.07957214 0.02268684
-0.07613719 0.02435042 -0.15857977 0.064581916 -0.25182453 0.039167665 0.16703454 0.07709442
-0.12001255 -0.11320429 -0.14023107 0.06663804 -0.053673886 -0.03421245 0.1649284 -0.018653713
-0.05991997 -0.048991717 -0.17045422 -0.043871734 0.058398355 -0.14154299 0.10659087 -0.06381815
-0.02603738 0.0959729 -0.03611162 0.054409917 -0.00876921 -0.017282711 -0.052773334 0.1421242
0.14775346 -0.11191691 0.034383245 -0.06218524 -0.0040000863 -0.014909357 0.09076203 -0.023619378
0.07520808 0.0844484 0.0022511005 -0.05041114 0.0011778959 -0.0024853302 -0.027012477 0.17534892
0.03518818 0.025539437 -0.0778144 -0.15481535 0.085521884 -0.10283118 -0.048910554 -0.035048157
0.13563478 -0.022031277 -0.16148049 0.05288103 0.007344666 -0.011150723 0.024022305 0.01706742
0.07413595 0.10568315 -0.077729665 -0.07405648 -0.0744893 0.042705882 0.10114487 -0.01938734
-0.096608095 0.16366598 -0.022249611 0.0058859317 0.14074194 -0.16878147 0.053307544 0.008780018
-0.20765027 0.035691492 0.18866916 0.028849501 -0.12435221 -0.1612743 -0.023103168 -0.12112882
-0.021352729 -0.010807486 0.14824048 -0.12817311 -0.012019953 -0.04151118 0.00063908484 -0.115297884
-0.018500173 0.101439774 -0.20027 -0.06256195 -0.07254941 0.0150109315 0.04352513 0.017142668
0.10199639 0.004275292 -0.041634 -0.07935789 -0.033796456 0.102574125 -0.048518162 -0.2614738
0.005631839 -0.12933804 0.023972983 0.16079497 0.0021722326 -0.018045925 0.060265966 -0.048921213
-0.060385343 -0.013345761 0.066589795 0.027297156 0.09023124 -0.04570274 0.052067906 -0.004459155
-0.11351025 0.11120232 0.05925066 -0.004993727 0.050336953 -0.111272715 0.081636555 -0.042047102
0.058457263 -0.14595231 -0.0644667 -0.0005383095 0.033615295 0.117361076 0.10401154 -0.100662984
0.09981165 -0.10139736 -0.0986695 0.0069523267 0.19113587 -0.031563852 0.028947076 0.03367173
-0.028767789 0.037471365 -0.043972302 -0.016721064 0.013000512 -0.042121362 0.12931395 -0.021393066
-0.06657394 -0.041432053 0.090516806 0.03520493 0.057799134 -0.124048755 0.09598348 -0.028087316
-0.011607861 -0.061949875 -0.031861868 0.007109004 -0.0028663303 0.13070938 0.0255203 -0.024272472
-0.12499815 -0.027285308 0.0881805 0.11863627 -0.23316117 -0.04793761 -0.030053087 0.0386696
0.028935136 0.109409414 0.016553968 -0.06087526 -0.0017718065 0.18684207 0.0267119 0.02708729
0.053437635 0.16527851 -0.04252673 0.16388917 0.15136364 0.039665096 0.14951004 0.048132658
0.016191365 0.09369692 -0.10331244 0.05371575 -0.061432146 -0.06603312 -0.08878208 0.03029165
-0.16470814 -0.10956084 -0.00046581216 0.011660684 0.09263924 0.027685732 -0.07348595 -0.0033178856
0.038001593 0.13382374 -0.102500215 0.032514554 0.01251276 0.035093743 0.015659057 -0.0087451525
0.16763023 -0.15065221 0.005437247 -0.13715626 0.04270076 -0.19124305 -0.032654766 0.051453326
0.07264336 -0.028181285 -0.02901355 0.036555685 0.14366935 -0.07295846 -0.08767749 0.0047616805
00000000: 686b 4abc 5d12 d03c 0e96 803d aaa7 94bc
00000010: 78f5 02be 7b43 243c ec9b 733d adc9 82ba
00000020: bb57 08be 711d 32be dcb0 71bc c9e8 82bd
00000030: 2dbd c53d e148 d0bd b8f6 a2bd c0d9 b93c
00000040: d1ed 9bbd 887a c73c bc62 22be 8643 843d
00000050: 25ef 80be 466e 203d 1a0b 2b3e aee3 9d3d
00000060: 24c9 f5bd a7d7 e7bd bc98 0fbe 8679 883d
00000070: 26d9 5bbd 5b22 0cbd fee2 283e accf 98bc
00000080: a46e 75bd 8aab 48bd 8d8b 2ebe d9b2 33bd
00000090: 1d33 6f3d a5f0 10be 504c da3d 17b3 82bd
000000a0: 584c d5bc 718d c43d c7e9 13bd efdc 5e3d
000000b0: bcac 0fbc 7994 8dbc da28 58bd 0289 113e
000000c0: af4c 173e b134 e5bd 72d5 0c3d f3b5 7ebd
000000d0: 2813 83bb 6046 74bc 71e1 b93d 6d7d c1bc
000000e0: b206 9a3d 48f3 ac3d 3387 133b e97b 4ebd
000000f0: a163 9a3a ece0 22bb 4549 ddbc ab8e 333e
00000100: 7b21 103d 1538 d13c 285d 9fbd ea87 1ebe
00000110: 1926 af3d 2799 d2bd 6f56 48bd a88e 0fbd
00000120: d8e3 0a3e f07a b4bc 245b 25be c799 583d
00000130: 86ab f03b 86b1 36bc 6dca c43c f9d0 8b3c
00000140: 97d4 973d 6870 d83d bb30 9fbd ecaa 97bd
00000150: d98d 98bd 5dec 2e3d 0b25 cf3d 33d2 9ebc
00000160: 77da c5bd 0e98 273e d144 b6bc c6de c03b
00000170: a81e 103e 0dd5 2cbe 0359 5a3d 11da 0f3c
00000180: 46a2 54be 3e31 123d 7d32 413e ca55 ec3c
00000190: 5fac febd 1725 25be db42 bdbc 6312 f8bd
000001a0: ebeb aebc e211 31bc 5acc 173e d03f 03be
000001b0: 56ef 44bc a107 2abd 4288 273a 4c21 ecbd
000001c0: ad8d 97bc a8bf cf3d 9413 4dbe 7b20 80bd
000001d0: c994 94bd 69f0 753c 6847 323d c86e 8c3c
000001e0: 7ce3 d03d c017 8c3b 6a88 2abd 6486 a2bd
000001f0: 276e 0abd 6212 d23d fbba 46bd e5df 85be
00000200: 4a8b b83b 3171 04be fd62 c43c 70a7 243e
00000210: 045c 0e3b 0cd5 93bc 72d9 763d 9c61 48bd
00000220: 9f56 77bd 2ea8 5abc 3b60 883d 499e df3c
00000230: 28cb b83d cc32 3bbd 2845 553d 1a1e 92bb
00000240: 1078 e8bd 0bbe e33d d2b0 723d 6ba2 a3bb
00000250: 1f2e 4e3d f3e2 e3bd 1131 a73d 9539 2cbd
00000260: e270 6f3d 8674 15be 1e07 84bd 571d 0dba
00000270: 31b0 093d 015b f03d 0104 d53d 6528 cebd
00000280: 0d6a cc3d 6ba9 cfbd 3c13 cabd 58d0 e33b
00000290: 1fb9 433e 1949 01bd 6b22 ed3c 5eeb 093d
000002a0: 6daa ebbc 937b 193d 4d1c 34bd 9dfa 88bc
000002b0: 1900 553c 7387 2cbd e06a 043e 8340 afbc
000002c0: eb57 88bd a8b4 29bd e060 b93d 0b33 103d
000002d0: c9be 6c3d 460d febd fd92 c43d 5f17 e6bc
000002e0: e62e 3ebc 27bf 7dbd 9781 02bd a6f2 e83b
000002f0: 0bd9 3bbb aed8 053e f30f d13c 10d7 c6bc
00000300: 08ff ffbd 7085 dfbc fa97 b43d 93f7 f23d
00000310: cdc1 6ebe 3a5a 44bd e431 f6bc 0464 1e3d
00000320: 6109 ed3c 0b12 e03d 309c 873c 5658 79bd
00000330: f63b e8ba 8753 3f3e ead2 da3c 2ae6 dd3c
00000340: 6ce1 5a3d c53e 293e 8230 2ebd 90d2 273e
00000350: 12ff 1a3e de77 223d 2919 193e c026 453d
00000360: c1a3 843c 2ce4 bf3d 7995 d3bd 0c05 5c3d
00000370: 46a0 7bbd 5f3c 87bd 61d3 b5bd 3226 f83c
00000380: 40a9 28be 6f61 e0bd 4038 f4b9 740c 3f3c
00000390: a4b9 bd3d 30cd e23c cd7f 96bd e270 59bb
000003a0: 8fa7 1b3d 1709 093e a2eb d1bd fb2d 053d
000003b0: 5202 4d3c 75be 0f3d 6c47 803c d447 0fbc
000003c0: 42a7 2b3e 9344 1abe ef2a b23b b172 0cbe
000003d0: fee6 2e3d 38d5 43be 01c1 05bd b9c0 523d
000003e0: 0bc6 943d 70dc e6bc d3ad edbc 6abb 153d
000003f0: 0f1e 133e 3f6b 95bd 4290 b3bd df07 9c3b

action_model._discrete_distribution.branches.0.weight f4 [2, 128]
-0.008474863 -0.007349234 -0.002002809 -0.013875211 -0.014810115 -0.030736495 -0.004065304 0.0011482683
-0.012229188 -0.0039233672 0.015311933 -0.0063054785 -0.010534544 -0.0069408068 -0.00061933114 0.008394087
-0.0036306698 0.0066253194 0.00019395999 0.003948264 0.0062738857 0.0031235963 -0.012610852 0.009125869
0.003707676 0.008449573 0.004225848 -0.003125395 -0.0065189125 -0.011321765 -0.0035489423 -0.011341618
0.005642718 0.012633686 0.0037411642 0.011155187 -0.004170144 0.008166122 0.012894176 -0.020386968
0.0013008156 -0.002924177 0.0022083616 -0.003786219 0.008627739 -0.010159114 -0.012820822 -0.01172677
0.011326424 -0.015440494 -0.014012331 -0.007434737 0.022113467 -0.006480335 0.0016062179 0.011881936
-0.0049619083 -0.009056285 0.004120516 0.0043238504 -0.0017674819 -0.008463219 0.00960585 -0.010961009
0.00017475347 0.005043692 -0.0016994629 -0.0005132218 0.0017396439 -0.0039759856 0.0027560375 -0.0121974135
-0.011951583 0.0073110755 -0.005827778 0.0018814913 0.0024339384 -0.015749818 0.00575414 0.0074164094
0.0030304617 0.008178258 0.0014421352 -0.007122056 0.003910048 -0.008523726 0.022055667 -0.0006489779
-0.0016187873 -0.01296881 -0.0018017894 -0.003208235 -0.021738334 0.008368959 -0.009792535 -0.0061964802
0.013904591 -0.0146627715 0.0077596167 0.0067582796 -0.0069449404 -0.0021177575 0.001663721 0.015812637
-0.015172188 0.0009220059 -0.0009679058 0.0029012093 0.00043254983 -0.013065897 0.0019522216 0.004395829
0.0073184217 0.0018493198 0.0010433786 0.0024449162 0.005157531 0.009732075 0.005659931 -0.009195133
9.851103e-05 -0.007831319 -0.003067824 -0.0038559288 -0.0034704076 0.009455566 0.008871226 -0.0025065676
-0.005556937 0.0020691196 -0.0070363446 0.0045722774 -0.016962633 0.0049565188 0.00082421437 7.435543e-05
-0.009547859 0.005362728 -0.0021603908 -0.015295689 -0.009659587 -0.018624624 0.012293939 -0.014072862
0.018677669 -0.015247747 -0.0046684174 0.004014828 0.020663507 -0.010472334 0.0029422427 -0.0014887804
-0.00114637 -0.0029630226 0.0074624284 0.007960505 -0.0043849056 -0.011288706 0.0037689477 0.008830727
-0.014931785 -0.009456627 0.0053647743 0.008113044 0.003158915 0.0032854658 0.0026320447 -0.008737206
-0.009847927 0.0034106714 0.013410263 -0.006254627 0.0027064958 0.0051667616 -0.0063089244 0.005110585
0.0009848897 -0.0060842587 -0.0071810405 0.0029310964 0.01861438 0.0011831999 0.014613104 -0.011038081
0.0050824275 0.002992134 -0.00787492 -0.013735245 -0.012307096 0.0083308825 0.0018365107 0.0117269205
0.004391325 0.0029073101 -0.0074880035 -0.010549908 0.011751969 -0.015791625 0.009220317 -5.8902544e-05
-0.02754565 -0.0017712292 0.009716854 -0.008746463 0.0039944043 0.0023264845 0.010176352 -0.0042514578
0.0055405456 -0.012958695 -0.0121617615 -0.011020961 0.0033595506 0.0026855883 0.006818807 -0.0038341654
-0.0010809446 -0.014287359 0.0029920512 0.0006760005 0.0024842627 0.009499233 -0.00089925074 0.008027031
0.001527134 -0.009625641 0.005330199 0.0013934544 0.0009156939 -1.5526964e-05 -0.0051338766 0.0015104476
-0.0031255053 -0.0056987084 -0.00031915566 -0.002090026 0.0034247537 -0.005519481 -0.0065899133 0.01906908
-0.0013834452 -0.0004596693 0.002051098 -0.011389508 -0.011092753 -0.0017251034 0.0027907516 -0.016929429
0.015339262 -0.0044176597 0.0067258812 -0.00041225794 -0.0020015505 0.018151695 -0.0029454872 -0.006864662
00000000: 27da 0abc d8d1 f0bb 8f41 03bb da54 63bc
00000010: 20a6 72bc 1acb fbbc 3e36 85bb 7e81 963a
00000020: ef5c 48bc 978f 80bb e7de 7a3c 309e cebb
00000030: 1499 2cbc b56f e3bb 9c5a 22ba 5a87 093c
00000040: 88f0 6dbb 3519 d93b bd61 4b39 7060 813b
00000050: 2b95 cd3b 40b5 4c3b bf9d 4ebc ab84 153c
00000060: 7bfc 723b 1470 0a3c fb78 8a3b 6dd3 4cbb
00000070: 9a9c d5bb ed7e 39bc 5f95 68bb 32d2 39bc
00000080: 8de6 b83b 85fd 4e3c 522e 753b 3fc4 363c
00000090: b4a5 88bb 33cb 053c 1842 533c 9202 a7bc
000000a0: 2180 aa3a 8da3 3fbb 29ba 103b 3722 78bb
000000b0: 5c5b 0d3c 6a72 26bc 6d0e 52bc a321 40bc
000000c0: 7792 393c 20fa 7cbc fa93 65bc 189f f3bb
000000d0: 4d27 b53c fd58 d4bb bb87 d23a 74ac 423c
000000e0: 8197 a2bb d060 14bc 6505 873b 16af 8d3b
000000f0: daaa e7ba 50a9 0abc db61 1d3c ce95 33bc
00000100: 073e 3739 8e45 a53b 83c0 deba bb89 06ba
00000110: c304 e43a fc48 82bb a39e 343b a9d7 47bc
00000120: 93d0 43bc bf91 ef3b f2f6 bebb 5f9c f63a
00000130: b682 1f3b c305 81bc 3a8d bc3b 5a05 f33b
00000140: b69a 463b 1afe 053c 0706 bd3a 2360 e9bb
00000150: dc1f 803b 19a7 0bbc 16ae b43c 2b20 2aba
00000160: 7d2d d4ba 227b 54bc 052a ecba 4041 52bb
00000170: 9714 b2bc f51d 093c de70 20bc d80b cbbb
00000180: 15d0 633c 1f3c 70bc 6244 fe3b 8f74 dd3b
00000190: 6292 e3bb 13ca 0abb 3711 da3a 8189 813c
000001a0: c594 78bc c5b2 713a 0fbb 7dba 3722 3e3b
000001b0: dbc7 e239 5812 56bc b0e1 ff3a e30a 903b
000001c0: 5fcf ef3b e064 f23a fac1 883a e33a 203b
000001d0: 8100 a93b 4873 1f3c f176 b93b 2fa7 16bc
000001e0: b597 ce38 ef4e 00bc 8c0d 49bb c0b3 7cbb
000001f0: c76f 63bb 85eb 1a3c 9e58 113c 3a45 24bb
00000200: f716 b6bb 119a 073b 2391 e6bb 0bd3 953b
00000210: 38f5 8abc 4b6a a23b 1710 583a 44ef 9b38
00000220: a06e 1cbc d3b9 af3b 5895 0dbb c59a 7abc
00000230: 3f43 1ebc ab92 98bc 846c 493c dd91 66bc
00000240: e901 993c b0d1 79bc 86f9 98bb d18e 833b
00000250: 8446 a93c 2794 2bbc a4d2 403b 2e23 c3ba
00000260: cb41 96ba 452f 42bb 6387 f43b c76c 023c
00000270: 41af 8fbb 44f4 38bc 7300 773b c1ae 103c
00000280: 72a4 74bc f8ef 1abc fdca af3b 93ec 043c
00000290: cd05 4f3b f850 573b 627e 2c3b 8026 0fbc
000002a0: 3359 21bc 9285 5f3b b8b6 5b3c 9df3 ccbb
000002b0: 775f 313b f04d a93b 18bb cebb b276 a73b
000002c0: 6a17 813a 765e c7bb ef4e ebbb a317 403b
000002d0: 2f7d 983c 9a15 9b3a cd6b 6f3c 11d9 34bc
000002e0: 7e8a a63b ae17 443b cf05 01bc cb09 61bc
000002f0: b4a3 49bc 417e 083c 13b7 f03a 4522 403c
00000300: 1be5 8f3b 9288 3e3b ed5d f5bb 85d9 2cbc
00000310: 558b 403c 705d 81bc d010 173c 200e 77b8
00000320: 6aa7 e1bc 9728 e8ba 7133 1f3c 534d 0fbc
00000330: 7ee3 823b ef77 183b b7ba 263c d04f 8bbb
00000340: 778d b53b b550 54bc 2042 47bc 4391 34bc
00000350: e82b 5c3b b200 303b 4d70 df3b 9f46 7bbb
00000360: 7bae 8dba 8715 6abc 4a16 443b a035 313a
00000370: 03cf 223b aca2 1b3c b2bb 6bba cf83 033c
00000380: 1d2a c83a ddb4 1dbc f3a8 ae3b 92a4 b63a
00000390: 2d0b 703a e73f 82b7 143a a8bb 36fa c53a
000003a0: 47d5 4cbb 3bbc babb 5954 a7b9 d1f8 08bb
000003b0: d571 603b c3dc b4bb 33f0 d7bb c236 9c3c
000003c0: b854 b5ba c5ff f0b9 b76b 063b 0f9b 3abc
000003d0: 61be 35bc dd1c e2ba 0be5 363b 96af 8abc
000003e0: 8751 7b3c 04c2 90bb c864 dc3b 5324 d8b9
000003f0: 722c 03bb ddb2 943c 1309 41bb f5f0 e0bb

action_model._discrete_distribution.branches.0.bias f4 [2]
0.0 0.0
00000000: 0000 0000 0000 0000

action_model._discrete_distribution.branches.1.weight f4 [2, 128]
0.01301038 -0.009453236 0.018862508 0.008296642 -0.011535593 0.0033580156 -0.006316834 3.9863673e-05
-0.0012700761 -0.019639244 0.006408119 -0.0013839643 -0.009648352 -0.0012884341 -0.0047335415 0.0003559986
-0.009749993 0.00010634818 0.0037702527 0.0055756173 -0.0014880132 0.0037524581 -0.0028357818 -0.0025826849
-0.0041323663 -0.017908199 0.0009066023 -0.009005977 -0.0040244213 -0.0016441908 -0.012451245 -0.003163805
-0.0069483477 -0.0027386805 0.002158907 -0.01395555 0.016432766 -0.005678385 0.0036737563 -0.01687931
0.005885831 0.00026112297 -0.0059619932 0.016315926 0.011676974 0.022403141 0.0032898781 0.0072224787
-0.009792935 0.004591787 0.0062512183 0.006951564 -0.0059930184 0.0025494273 -0.0007077613 -0.009171883
0.01111468 -0.0005088086 0.0046284683 -0.0026863674 -0.009494769 -0.0021958821 -0.029018944 0.0065312474
-0.0063000335 -0.0027966967 0.0066064536 -0.0088477945 -0.0093504675 0.013241182 0.010589296 0.0043268246
0.0058278297 0.0016937482 -0.015173164 -0.009565477 0.008862442 0.008318785 -0.003765874 0.0012927643
0.0046669254 0.0032674856 0.0032070277 -0.001218106 0.0010516936 0.00463037 0.003094763 -0.0068467
-0.0018772498 -0.0058111222 0.0015699327 0.007331041 0.0015858809 0.00096368947 0.0028217216 0.009427006
-0.017246446 0.0005323332 -0.0050763185 -0.007431604 0.007952951 0.01935483 -0.015159759 0.0044011427
0.0051351995 0.0054369504 -0.004555741 -0.019035844 0.0028098158 -0.0036490906 -0.008521697 0.012306248
-0.0050236597 -0.0133784255 -0.00076508813 -0.01213362 -0.005142956 -0.016623298 0.0023129208 0.0032958554
-0.010429456 -0.009936777 0.017835196 -0.009712783 -0.008227514 -0.0033712368 -0.01328695 -0.006724357
0.0077404254 -0.0009788779 0.006629653 0.010347253 -0.007492269 0.0033421107 -0.011537236 -0.008439321
0.0048489585 0.009270581 -0.011140193 -0.007817346 -0.0015058502 0.0038538494 -0.002044732 0.003248389
-0.009432186 -0.0077869887 0.020981506 -0.00069134956 -0.013606618 0.0026837564 0.019621698 -0.0014499723
0.0033500686 -0.0024419879 0.009527491 0.015364021 -0.0020018823 0.00704825 -0.0047951257 0.010540033
0.00068675855 -0.009432244 0.007745532 0.009139544 0.0059000147 -0.019725032 -0.009983457 -0.0054658945
0.0005826995 0.0017145763 -0.006942063 -0.004040733 0.008969723 -0.0016874366 0.007412962 0.019245556
-0.0021541703 -0.003107296 -0.006750115 0.007100886 0.0053287474 0.0110462215 0.001992851 -0.003257973
-0.0008139936 0.01071893 0.0026641057 0.0041603497 0.014443991 -0.012468291 -0.008582527 -0.013927071
-0.0051992293 -0.0043361285 -0.0014667937 0.0045375098 0.01673876 -0.0013151823 -0.0011394848 0.011835455
-0.01072892 0.0033954487 -0.015030284 0.004736235 -0.016943622 -0.007859889 0.015685769 0.00089412526
-0.006612477 0.009212204 -0.0069810636 0.009041765 -0.009772146 -0.006471701 0.016303597 0.008153572
-0.003469921 -0.010549013 0.0085900305 0.0031220613 0.0043178867 -0.0038563355 -0.010896197 -0.012688455
0.016693093 -0.0077076824 0.015470323 0.0069925166 -0.00036663766 -0.0048338207 -0.012094217 0.009741819
0.0014935612 0.0031205944 -0.0035464966 -0.014740713 0.0018771265 0.0074377465 -0.002403174 0.0066066505
-0.011018934 0.004365917 -0.00627923 -0.004202591 0.004762983 0.005270881 0.021187155 -0.016985012
0.00080691633 0.0071549388 -0.0021793155 -0.014717343 -0.006414103 0.012703883 -0.0012138133 0.0086930385
00000000: 7d29 553c bfe1 1abc 8c85 9a3c a4ee 073c
00000010: c9ff 3cbc 2712 5c3b 72fd cebb 4b33 2738
00000020: af78 a6ba 7be2 a0bc 33fb d13b 2366 b5ba
00000030: 1f14 1ebc ade0 a8ba d31b 9bbb 53a5 ba39
00000040: 6fbe 1fbc 3f07 df38 5816 773b abb3 b63b
00000050: 7009 c3ba cdeb 753b 86d8 39bb 4342 29bb
00000060: cd68 87bb 37b4 92bc 0da9 6d3a ce8d 13bc
00000070: 4bdf 83bb e381 d7ba 4f00 4cbc d757 4fbb
00000080: f7ae e3bb 6f7b 33bb 737c 0d3b d2a5 64bc
00000090: 029e 863c bf11 babb 67c3 703b 7b46 8abc
000000a0: eedd c03b 55e7 8839 d35c c3bb faa8 853c
000000b0: c750 3f3c cb86 b73c ff9a 573b 8baa ec3b
000000c0: 8c72 20bc b376 963b 05d7 cc3b f2c9 e33b
000000d0: 1561 c4bb 4b14 273b 0f89 39ba aa45 16bc
000000e0: 591a 363c 9161 05ba 68aa 973b c40d 30bb
000000f0: f38f 1bbc cae8 0fbb 23b9 edbc 1304 d63b
00000100: 8370 cebb c948 37bb f37a d83b 57f6 10bc
00000110: b432 19bc 8bf1 583c ba7e 2d3c 09c8 8d3b
00000120: 61f7 be3b c200 de3a dd98 78bc 85b8 1cbc
00000130: c733 113c 834b 083c e2cc 76bb f971 a93a
00000140: 02ed 983b 5023 563b ff2c 523b dba8 9fba
00000150: fbd8 893a 5cba 973b 82d1 4a3b 485a e0bb
00000160: 0d0e f6ba 3a6b bebb 33c6 cd3a 3b39 f03b
00000170: 55dd cf3a 1ba0 7c3a a2ec 383b bb73 1a3c
00000180: 6b48 8dbc 478c 0b3a 3f57 a6bb d084 f3bb
00000190: 184d 023c 058e 9e3c a360 78bc 7637 903b
000001a0: 2d45 a83b 7228 b23b 5348 95bb 0ff1 9bbc
000001b0: e324 383b 9525 6fbb 969e 0bbc 25a0 493c
000001c0: 839d a4bb 2f31 5bbc 3290 48ba 17cc 46bc
000001d0: 3e86 a8bb 952d 88bc 5f94 173b 47ff 573b
000001e0: 4fe0 2abc ddcd 22bc 1e1b 923c 5d22 1fbc
000001f0: b2cc 06bc f8ef 5cbb 82b1 59bc ff57 dcbb
00000200: 65a3 fd3b b14d 80ba 8f3d d93b 8687 293c
00000210: b581 f5bb 5007 5b3b ad06 3dbc 1445 0abc
00000220: 03e4 9e3b a3e3 173c 5b85 36bc 5314 00bc
00000230: f35f c5ba dd90 7c3b e900 06bb ede2 543b
00000240: 7589 1abc ff29 ffbb 68e1 ab3c af3b 35ba
00000250: 4bee 5ebc f6e1 2f3b afbd a03c ff0c beba
00000260: d38c 5b3b c209 20bb 3219 1c3c 60b9 7b3c
00000270: 0332 03bb 02f5 e63b 6e20 9dbb 1ab0 2c3c
00000280: 9607 343a b389 1abc 3bce fd3b 07be 153c
00000290: e954 c13b 6496 a1bc a791 23bc 3f1b b3bb
000002a0: 4dc0 183a a2bb e03a 3f7a e3bb 2068 84bb
000002b0: bff5 123c fa2c ddba 6fe8 f23b dba8 9d3c
000002c0: fb2c 0dbb c7a3 4bbb 1230 ddbb 8dae e83b
000002d0: c69c ae3b 36fb 343c 7e9a 023b b783 55bb
000002e0: 3062 55ba 739e 2f3c 4798 2e3b 8b53 883b
000002f0: 7da6 6c3c ce47 4cbc ba9d 0cbc 5f2e 64bc
00000300: 4c5e aabb 1516 8ebb 6e41 c0ba 64af 943b
00000310: b91f 893c 3262 acba c45a 95ba 7fe9 413c
00000320: 5ac8 2fbc 2d86 5e3b 9541 76bc 6b32 9b3b
00000330: 5acd 8abc c4c6 00bc 717f 803c bb63 6a3a
00000340: 7aad d8bb c9ee 163c 68c1 e4bb e923 143c
00000350: 5a1b 20bc 9010 d4bb 1f8f 853c 8f96 053c
00000360: 9d67 63bb c4d5 2cbc 33bd 0c3c 7f9b 4c3b
00000370: 0f7d 8d3b 93ba 7cbb f685 32bc 3de3 4fbc
00000380: f4bf 883c ba90 fcbb 3d77 7d3c 7b21 e53b
00000390: 4639 c0b9 0765 9ebb d326 46bc 279c 1f3c
000003a0: 99c3 c33a e382 4c3b 576c 68bb 0883 71bc
000003b0: ea09 f63a 57b8 f33b 927e 1dbb 9a7c d83b
000003c0: c288 34bc f70f 8f3b 00c2 cdbb e3b5 89bb
000003d0: cc12 9c3b 5bb7 ac3b af90 ad3c 2724 8bbc
000003e0: 3d87 533a fa73 ea3b d9d2 0ebb 0321 71bc
000003f0: 652d d2bb f323 503c d118 9fba 3f6d 0e3c

action_model._discrete_distribution.branches.2.weight f4 [2, 128]
0.0006491469 -0.0014099339 -0.011070458 -0.011930534 -0.011241089 -0.008584215 -0.0021176725 0.0117433695
0.008446676 -0.013858958 -0.004502616 0.00023309633 0.009649703 -0.0034770183 0.016364662 0.0030586214
0.0042648115 -0.010298922 0.012627049 0.022684509 -0.011141743 0.004567901 0.015479027 0.0039847507
0.013425532 -0.007839418 -0.005127655 -0.014105563 0.010217527 0.0113571985 -0.009249125 0.004114875
-0.010311733 0.0016672503 0.006382797 -0.002306941 0.011939089 -0.011526121 -0.0053534037 -0.009571895
-0.008886944 0.020044614 0.00837889 -0.0040938337 -5.2854622e-05 -0.0003547851 0.015526006 0.008077832
-0.007106176 0.018639037 0.0015507228 0.01516521 -0.010755081 -0.021430809 0.008203953 0.0020096132
-0.004031665 -0.0037602433 0.011130383 -0.008443063 -0.006360025 -0.013336307 0.0066332384 -0.0038884673
0.0034444265 0.008739231 0.0013872733 -0.0012126822 0.008223222 0.005445341 0.0006950555 0.011636882
0.0032154515 0.0042621763 -0.0036825486 0.013525101 0.001789843 0.009752425 -0.0007122269 -0.0010538215
0.0049134395 0.0014263842 -0.0026749377 0.008426064 -0.0051210257 -0.010134685 0.0010229609 -0.0021071052
-0.0016213648 -0.021688992 -0.0052458076 0.00596355 -0.018949503 -0.0017389528 0.011152746 -0.0059820977
-0.009048275 -0.0076013277 -0.0015116256 -0.0023621488 0.0015771115 0.013736821 -0.005175897 0.0086730365
-0.0065244706 -0.009098972 -0.017604802 -0.0058155255 0.00023446335 0.009272179 0.0076050484 0.00020727077
0.007088938 -0.013173001 -0.002164955 -0.0032485218 -0.008925992 -0.017093245 -0.004839439 -0.004184005
-0.005882995 0.008959611 -0.009529745 0.00020827798 0.0033969735 -0.0023593707 0.012274736 0.00025332646
0.0062073544 0.004219248 0.0037852898 0.0147198485 -0.008561441 -0.0042975144 0.02038142 -0.0008829929
0.0064362646 0.017843256 0.0027062374 0.0061674393 0.01053918 0.0056365943 0.007109505 0.00033989843
-1.2058814e-06 0.008542075 -0.008129166 0.011707192 -0.0021591268 -0.010117128 0.013535321 -0.00861036
0.007823681 -0.0036063176 -0.0038050287 0.004682907 0.010196981 -0.008978902 0.0101529155 -0.0047389898
-0.0064975093 -0.008220564 -0.007516835 -0.010058041 0.011007769 -0.015951082 0.014134395 0.004762406
-0.0036453165 0.0006633342 0.0027153692 -0.0027888757 -0.0048419028 0.006231342 -0.002565177 -0.0014481883
-0.0011186306 0.00061525695 -0.006059027 -0.011323496 0.015760755 -0.0071645156 0.0070045562 -0.018259495
0.004804155 -0.0034274391 0.011197643 0.012434733 0.0016132065 -0.003198626 -0.008025414 -0.0084754
-0.003391285 0.003083518 -0.0017046707 -0.0032219135 0.002382028 -0.0015580814 0.0012293572 0.0001486754
-0.0029373318 -0.00081342796 0.0048771542 -0.009953035 -0.0011908468 -0.010538787 -0.010639361 -0.0026130427
0.00455834 -0.0061847814 -0.0005225266 0.008510618 -0.013246909 0.016924562 0.008911314 0.010464121
0.011479575 -0.01274543 0.0010413174 0.010396436 -0.010074693 -0.025971457 -0.004417466 -0.0061493046
-0.010232921 0.00079797127 0.009153494 -0.00078965136 -0.017846657 0.0032519852 0.0015035927 0.0050382256
0.009847264 0.0017062434 -0.00871898 0.008070738 -0.016602634 0.00023102376 0.010268492 -0.011499947
-0.016036814 0.0061301105 0.0015063448 0.007484411 -0.009524658 0.0025701895 -0.0008209261 -0.013109011
0.00036085473 -0.0049790735 0.0017723171 0.008441231 -0.0026240065 -0.018443156 -0.0065536425 0.0069642263
00000000: 832b 2a3a 88cd b8ba de60 35bc 4978 43bc
00000010: 8b2c 38bc cfa4 0cbc a6c8 0abb 4367 403c
00000020: ed63 0a3c af10 63bc ae8a 93bb 526b 7439
00000030: ca19 1e3c b0de 63bb 2f0f 863c 2773 483b
00000040: d5bf 8b3b cfbc 28bc afe1 4e3c ddd4 b93c
00000050: db8b 36bc 55ae 953b bf9b 7d3c 8392 823b
00000060: c3f6 5b3c e770 00bc e305 a8bb 051b 67bc
00000070: 6a67 273c 8b13 3a3c a489 17bc 13d6 863b
00000080: 8bf2 28bc a387 da3a c826 d13b 0c30 17bb
00000090: 2b9c 433c 0ed8 3cbc 9b6b afbb 70d3 1cbc
000000a0: 8b9a 11bc 9a34 a43c 9d47 093c 9125 86bb
000000b0: 38b0 5db8 7302 bab9 ca60 7e3c e258 043c
000000c0: edda e8bb e5b0 983c 9f41 cb3a 8077 783c
000000d0: 1436 30bc aa8f afbc df69 063c b7b3 033b
000000e0: 0f1c 84bb 6a6e 76bb 365c 363c c654 0abc
000000f0: c267 d0bb 8780 5abc a35b d93b a8d5 7ebb
00000100: e3bb 613b fe2e 0f3c 2bd5 b53a ddf2 9eba
00000110: b1ba 063c d56e b23b 6334 363a 9fa8 3e3c
00000120: 53ba 523b baa9 8b3b ea56 71bb 6398 5d3c
00000130: 2a99 ea3a a3c8 1f3c bdb4 3aba 6220 8aba
00000140: eb00 a13b 83f5 ba3a 024e 2fbb 790d 0a3c
00000150: 47ce a7bb f30b 26bc df14 863a 5c17 0abb
00000160: fa83 d4ba 1dad b1bc 06e5 abbb e269 c33b
00000170: fd3b 9bbc 93ed e3ba 02ba 363c 7905 c4bb
00000180: 373f 14bc 8f14 f9bb bd21 c6ba 48ce 1abb
00000190: 15b7 ce3a 6710 613c 929a a9bb 5a19 0e3c
000001a0: 3acb d5bb db13 15bc f237 90bc 2a90 bebb
000001b0: 47da 7539 56ea 173c c533 f93b d356 5939
000001c0: 524a e83b 92d3 57bc ebe1 0dbb 27e5 54bb
000001d0: 533e 12bc 2207 8cbc 2894 9ebb fa19 89bb
000001e0: 24c6 c0bb 55cb 123c a622 1cbc 3265 5a39
000001f0: c29f 5e3b ac9f 1abb f91b 493c e7d0 8439
00000200: 1067 cb3b 9e41 8a3b a012 783b 852b 713c
00000210: 4945 0cbc 2ad2 8cbb f0f6 a63c a778 67ba
00000220: 4de7 d23b 052c 923c 215b 313b 3b18 ca3b
00000230: 86ac 2c3c 2eb3 b83b daf6 e83b 6534 b239
00000240: c5d9 a1b5 0ff4 0b3c 3230 05bc 86cf 3f3c
00000250: 2380 0dbb 4fc2 25bc 40c3 5d3c 7812 0dbc
00000260: e62e 003c f857 6cbb ca5d 79bb 1273 993b
00000270: 3d11 273c 3f1c 13bc 6a58 263c 8749 9bbb
00000280: 0fe9 d4bb 8baf 06bc c84f f6bb 7bca 24bc
00000290: ee59 343c d8ab 82bc f393 673c f50d 9c3b
000002a0: 43e6 6ebb 9be3 2d3a 56f4 313b 92c5 36bb
000002b0: d3a8 9ebb 4930 cc3b 871c 28bb 23d1 bdba
000002c0: 049f 92ba 3249 213a cd8a c6bb 2f86 39bc
000002d0: b31c 813c 50c4 eabb 7a86 e53b f094 95bc
000002e0: 2c6c 9d3b e39e 60bb 5276 373c 0dbb 4b3c
000002f0: 3a72 d33a 0aa0 51bb 077d 03bc 67dc 0abc
00000300: 5240 5ebb d914 4a3b 426f dfba bd26 53bb
00000310: cc1b 1c3b 8938 ccba 6222 a13a c0e5 1b39
00000320: 4080 40bb 3a3c 55ba 89d0 9f3b 0e12 23bc
00000330: 3016 9cba e0aa 2cbc b750 2ebc 953f 2bbb
00000340: 215e 953b b5a9 cabb 2bfa 08ba 1e70 0b3c
00000350: 9009 59bc 61a5 8a3c c300 123c b471 2b3c
00000360: d414 3c3c 35d2 50bc d07c 883a d055 2a3c
00000370: 5310 25bc 18c2 d4bc 64c0 90bb 1b80 c9bb
00000380: fba7 27bc f22e 513a 89f8 153c 9b00 4fba
00000390: 2733 92bc 421f 553b 3314 c53a b317 a53b
000003a0: 6b56 213c 07a4 df3a 0dda 0ebc 213b 043c
000003b0: 3f02 88bc f83e 7239 2d3d 283c 466a 3cbc
000003c0: a35f 83bc 18df c83b 8b70 c53a ca3f f53b
000003d0: 500d 1cbc a070 283b 6b33 57ba 2dc7 56bc
000003e0: 1a31 bd39 7f27 a3bb 184d e83a 174d 0a3c
000003f0: 86f7 2bbb 1a16 97bc f0bf d6bb 2a34 e43b

action_model._discrete_distribution.branches.3.weight f4 [2, 128]
-0.00510902 -0.0020287158 -0.013186988 -0.012188028 -0.00028800586 0.010121914 0.0028924993 0.01647769
-0.0012416453 0.007925953 -0.001461769 -0.006905651 -0.008325872 0.0006312309 -0.0011028687 -0.0007377621
-0.0053713853 -0.010036056 -0.018017035 0.012958313 -0.0008306044 0.0061152363 0.0074431174 0.01050177
0.011043095 -0.0030267541 -0.0099944575 -0.015245718 0.01309253 0.0023221641 0.0036057166 -0.011681847
0.012445999 -0.007831014 0.0038984367 -0.007896218 0.0016985573 -0.0055752243 0.009188817 -0.007043841
-0.0067510307 -0.0008591632 0.0057676593 0.0049692104 -0.0041542384 -0.00017527094 -0.006755461 0.018795455
0.0007412489 -0.013580608 0.0070455135 0.0036064372 -0.006286134 0.013755082 0.015864087 -0.0024492578
0.0027304501 -0.014370309 0.004708764 0.0078063346 -0.0023145268 0.010264999 -0.0109652225 0.014693263
0.0082973195 0.0038775464 -0.0037168001 0.0066215047 0.011244099 0.013225834 -0.0023681973 -0.0063524353
-0.013544448 0.00018087964 0.0021550406 -0.0014746339 0.0047473595 -0.0006624153 -0.0049650553 -0.017112292
0.0011387494 -0.0111843 -0.008204828 -0.002240375 -0.008082547 0.0037883115 0.004329438 -0.0025824888
-0.012800554 -0.003938485 -0.0057444028 -0.011652589 0.01272495 -0.004547712 0.0069596744 0.013182195
-0.004308809 0.007664462 -0.0077237533 -0.0043422813 -0.0020945335 0.00401615 -0.0037863683 0.0018536855
-0.0041121705 0.0033738047 0.001479354 0.006508746 -0.0015401358 0.005832755 0.013388643 0.004922382
0.00071163714 -0.001729369 0.012808901 0.0057160216 0.0004302842 -0.0030530381 -0.0024764135 -0.014673459
-0.015347733 -0.002268732 0.0033525457 0.01623536 -0.004937949 -0.018127736 0.0018839914 0.006780685
-0.0042620776 0.0067921164 0.00062113116 -0.01260334 0.006759222 0.014519383 -0.00014247485 0.00297153
-0.0024017112 -0.010676979 -0.005379339 7.746028e-05 -0.013233368 -0.011324774 -0.0031143094 -0.0060364115
0.006704606 -0.0015107808 -0.005404267 0.00799002 0.012931116 -0.0014352667 0.0029152287 0.016221022
-0.009097528 0.01980767 -0.013400981 0.0058781602 0.015239688 0.008323117 -0.016530005 -0.01442
-0.0068541258 0.007248033 -0.00089172146 0.0040337685 0.00031962246 -0.010106461 0.0037397412 0.000724754
-0.0077933143 0.01408346 -0.005338876 -0.0033931832 -0.011401779 -0.007432149 -0.008400842 -0.006773623
0.01746705 0.0052782674 0.0085364785 0.01104093 -0.0006946618 -0.0033184406 0.0014471567 0.004506154
-0.0106524 0.026378602 0.0030848975 -0.0025828506 -0.0013183961 0.0076289508 0.01795459 -0.004373026
0.016316853 0.0059749237 0.0027781955 0.011953441 0.008904955 -0.0067045065 -0.00045155254 -0.010506048
-0.010103482 -0.020752361 -0.0023163515 0.009481135 -0.0021387339 -0.005126509 -0.007710421 -0.013652697
0.012558634 0.0044453135 0.007519466 0.004047052 0.013954907 0.002220658 0.0029791528 0.0034401834
0.004741104 0.015181321 -0.0002696069 -0.0001879171 0.014042956 0.013467835 0.0013560968 -0.0011310583
-0.005644947 -0.010380673 -0.011115471 0.00524216 -0.007304217 0.004765832 -0.006807393 0.004576949
0.010164063 0.012783545 -0.011777937 -0.004862108 0.0051949685 0.0018320683 0.002218524 -0.0016846353
0.017130764 -0.015322559 0.007347022 0.0018088513 -0.014685872 0.0013786274 0.006677588 -0.0013430092
0.00878674 0.00038901405 -0.01432925 0.0042923116 0.0044153905 -0.010997012 0.00560382 -0.005753062
00000000: 9169 a7bb 34f4 04bb 3d0e 58bc 4bb0 47bc
00000010: 7eff 96b9 62d6 253c 1690 3d3b 38fc 863c
00000020: b4be a2ba dbdb 013c d498 bfba cd48 e2bb
00000030: 3d69 08bc 3079 253a 228e 90ba 6066 41ba
00000040: 7202 b0bb 456e 24bc 7698 93bc 1b4f 543c
00000050: ebbc 59ba 5262 c83b 65e5 f33b 9e0f 2c3c
00000060: 19ee 343c 825c 46bb cbbf 23bc 2dc9 79bc
00000070: 0d82 563c 732f 183b e34d 6c3b 3865 3fbc
00000080: 4eea 4b3c a74d 00bc ea7c 7f3b 245f 01bc
00000090: 20a2 de3a 5fb0 b6bb b18c 163c 05d0 e6bb
000000a0: c037 ddbb 7739 61ba a2fe bc3b c2d4 a23b
000000b0: 4720 88bb efc8 37b9 ea5c ddbb edf8 993c
000000c0: 5f50 423a 3381 5ebc 0dde e63b fa59 6c3b
000000d0: eafb cdbb ff5c 613c 67f5 813c ba83 20bb
000000e0: 5af1 323b 7271 6bbc fa4b 9a3b 48cc ff3b
000000f0: 51af 17bb 872e 283c 7aa7 33bc 03bc 703c
00000100: 7bf1 073c 6f1e 7e3b 8f95 73bb 35f9 d83b
00000110: 2b39 383c 2bb1 583c c233 1bbb 1728 d0bb
00000120: 88e9 5dbc 82aa 3d39 953b 0d3b 8148 c1ba
00000130: bd8f 9b3b f0a5 2dba e7b1 a2bb 142f 8cbc
00000140: 1742 953a 5b3e 37bc 8b6d 06bc 41d3 12bb
00000150: a96c 04bc 5245 783b f5dd 8d3b f93e 29bb
00000160: 6ab9 51bc 680e 81bb 8b3b bcbb 80ea 3ebc
00000170: 4f7c 503c f904 95bb fb0d e43b 22fa 573c
00000180: e930 8dbb 2b26 fb3b 8a17 fdbb b249 8ebb
00000190: 7144 09bb e899 833b b824 78bb 5df7 f23a
000001a0: 63bf 86bb 0d1b 5d3b e2e6 c13a 5247 d53b
000001b0: 62de c9ba b220 bf3b 0a5c 5b3c ef4b a13b
000001c0: 298d 3a3a ffab e2ba 6ddc 513c 774d bb3b
000001d0: c597 e139 7b15 48bb 534b 22bb f368 70bc
000001e0: 0f75 7bbc 02af 14bb 62b6 5b3b 0500 853c
000001f0: 85ce a1bb 9e80 94bc 43f0 f63a 8230 de3b
00000200: e6a8 8bbb 6790 de3b 68d3 223a 3d7e 4ebc
00000210: 777c dd3b b5e2 6d3c 4d65 15b9 00be 423b
00000220: 0766 1dbb 7fee 2ebc 2b45 b0bb 2c72 a238
00000230: c5d0 58bc 8b8b 39bc 7119 4cbb 17cd c5bb
00000240: 50b2 db3b 6405 c6ba 4716 b1bb 93e8 023c
00000250: 08dd 533c 8f1f bcba 6c0d 3f3b f3e1 843c
00000260: cc0d 15bc b243 a23c ca8f 5bbc 959d c03b
00000270: e2af 793c af5d 083c ef69 87bc dd41 6cbc
00000280: 9398 e0bb e880 ed3b 6ac2 69ba b42d 843b
00000290: 0093 a739 9295 25bc 7216 753b 6bfd 3d3a
000002a0: 0f5f ffbb 50be 663c bdf1 aebb 2b60 5ebb
000002b0: 87ce 3abc 6289 f3bb afa3 09bc 45f5 ddbb
000002c0: 0f17 8f3c 51f5 ac3b 96dc 0b3c 04e5 343c
000002d0: f719 36ba 327a 59bb 85ae bd3a 5ca8 933b
000002e0: 6787 2ebc f017 d83c fe2b 4a3b 0b45 29bb
000002f0: 08ce acba 47fc f93b 8115 933c 9a4b 8fbb
00000300: ecaa 853c 4bc9 c33b 6312 363b 5ed8 433c
00000310: 17e6 113c 7ab1 dbbb 5bbe ecb9 8f21 2cbc
00000320: 1389 25bc db00 aabc eecd 17bb c356 1b3c
00000330: 002a 0cbb 46fc a7bb b3a7 fcbb 90af 5fbc
00000340: bbc2 4d3c fea9 913b da65 f63b 229d 843b
00000350: 1fa3 643c 7588 113b e43d 433b b374 613b
00000360: 435b 9b3b 13bb 783c 075a 8db9 9d0b 45b9
00000370: 6d14 663c 32a8 5c3c 0fbf b13a 0540 94ba
00000380: 3ff9 b8bb b313 2abc aa1d 36bc 6dc6 ab3b
00000390: 3758 efbb b22a 9c3b 8d10 dfbb 3bfa 953b
000003a0: 2c87 263c 1372 513c 40f8 40bc 5152 9fbb
000003b0: 8e3a aa3b 0322 f03a a864 113b fbce dcba
000003c0: d155 8c3c 780b 7bbc 4abf f03b fa16 ed3a
000003d0: 039d 70bc 0fb3 b43a abcf da3b e907 b0ba
000003e0: 42f6 0f3c 95f4 cb39 3bc5 6abc 85a6 8c3b
000003f0: fbae 903b d02c 34bc 40a0 b73b 2f84 bcbb

action_model._discrete_distribution.branches.4.weight f4 [2, 128]
0.004355445 0.003973994 -0.00826989 0.0052733324 0.00072926184 -0.0010978433 0.00014933546 -0.0006629463
-0.000676657 -0.012291812 0.011145177 -0.0013342531 -0.00017076159 0.013139135 -0.004173548 -0.005514227
0.0018517048 0.011517344 0.0030890426 -0.0023508258 -0.008368364 -0.009014321 -0.0048385854 0.0019553339
0.0027977496 -0.0013804463 0.0045845993 -0.009472082 -0.0039722486 0.008958693 -0.0068009906 0.017707463
0.0056951307 0.0060311905 0.0017606652 -0.008111636 7.992395e-05 0.0048810206 0.0040606232 0.002771718
-0.0068983287 -0.0069760988 0.0023133853 0.0040841447 -0.0063394927 0.005135622 -0.0008712401 -0.002931381
0.00061417854 0.0010710045 -0.0026755743 -0.0007331658 0.00074107264 0.006135819 -0.0043617818 -0.001396477
-0.0077647427 -0.0023763317 -0.0012064817 0.00497527 0.0062487177 0.008960211 0.0028693464 0.007056307
0.0060437927 0.009617506 -0.0076930127 0.005853429 -0.0017054155 -0.012530147 -0.0027295926 0.008374362
0.030036688 -0.005313729 -0.011606722 -0.006631055 0.0031159343 -0.0050035985 -0.004928113 -0.0035410847
-0.008469556 -0.00048511295 0.0047613434 -0.00056319626 0.0062614107 -0.0010160318 -0.0032627292 -0.0023745715
0.004428304 0.0068097585 0.0062082987 -0.003179358 0.009218908 -0.006966296 0.00034211326 0.017242474
0.00929374 -0.00499477 -0.0053763217 0.0013504266 0.008583515 0.0027321205 0.007988575 -0.005661344
0.0012084945 -0.00031487536 0.0126718655 0.0034155876 -0.017545654 -0.0016392323 -0.0106256185 -0.0013144334
-0.012438252 0.0072341645 -0.0058077355 -0.006791605 -0.0025436287 0.0005163181 -0.009086923 0.0010219796
-0.010028911 -0.00049092143 -0.006840072 0.0001514529 -0.0033424322 0.007824215 0.0040971213 -0.0035630518
-0.0021760098 -0.004048285 -6.0861443e-05 0.010000322 -0.0033479724 0.0025023245 -0.0077689067 0.009625492
-0.0055248043 0.009241423 0.0066305287 -0.0007428402 -0.0065818564 0.008686612 -0.015792625 0.008263851
-0.016970847 -0.0036666307 -0.0066210786 -0.008877065 -0.0036753428 0.0066717016 0.012348156 0.0011989316
0.0036790555 -0.0018490733 -0.011079846 -0.0061293757 0.020621788 0.02059223 -0.009339375 -0.007093088
-0.012101374 0.005442517 0.005231453 -0.016091911 0.002363194 -0.019864865 0.009036436 0.0020810682
-0.0028764925 0.009823717 -0.009372841 0.015293269 0.0026785487 0.00063377846 -0.00051372586 0.004146606
0.0015300866 0.0057915184 -0.007469341 0.0051536113 0.016942808 0.0038976881 -0.010307328 0.0014823946
-0.0038854496 0.0048199366 9.104787e-07 -0.0043183225 0.0045683654 0.0031354397 0.0009356552 -0.0018727342
0.0036889573 0.005162829 -0.005821511 -0.0033465405 0.009140635 -0.01870022 0.006745988 0.005856227
-0.0053877397 0.0056566447 0.0042157727 0.015895484 0.003233141 -0.009709129 0.017743347 0.013566889
0.0122794695 -0.002804033 0.00032964052 0.0043446105 -0.0104421545 -0.002997332 0.0059518865 0.02261561
0.0001092276 0.0012426606 -0.0182458 0.006802933 -0.0064463145 -0.0011017247 0.02123275 0.013518413
0.005565231 0.0118682375 0.0021944786 0.009359232 0.0057385503 -0.002514564 0.00012298682 0.012297135
-0.0075615593 0.01197804 -0.0037229806 -0.009212761 -0.0048325397 -0.004217421 0.0043903594 0.010107099
-0.0070876232 0.009637241 0.014785188 -0.006153376 0.011970601 0.003767188 0.001744225 0.0010871098
-0.0044173994 0.00055178086 0.0066351197 -0.010572473 0.004932679 0.0010947607 0.015154386 -0.00912585
00000000: 1fb8 8e3b 4738 823b 6f7e 07bc ebcb ac3b
00000010: ef2b 3f3a 82e5 8fba ef96 1c39 93c9 2dba
00000020: af61 31ba 9963 49bc 439a 363c 1be2 aeba
00000030: 770e 33b9 8745 573c 42c2 88bb b0b0 b4bb
00000040: e7b4 f23a 3eb3 3c3c 8971 4a3b 5010 1abb
00000050: 761b 09bc cdb0 13bc ff8c 9ebb 0f25 003b
00000060: 735a 373b 17f0 b4ba 683a 963b cb30 1bbc
00000070: a329 82bb 7bc7 123c d8da debb 3e0f 913c
00000080: 389e ba3b 4ba1 c53b 1fc6 e63a abe6 04bc
00000090: d89c a738 f8f0 9f3b fa0e 853b b6a5 353b
000000a0: 600b e2bb c297 e4bb 2a9c 173b 4ad4 853b
000000b0: 85bb cfbb b848 a83b ef63 64ba 6a1c 40bb
000000c0: d300 213a f360 8c3a b058 2fbb ed31 40ba
000000d0: 8b44 423a fb0e c93b 47ed 8ebb fe09 b7ba
000000e0: 626f febb 3bbc 1bbb cf22 9eba 9707 a33b
000000f0: 0bc2 cc3b d9cd 123c a50b 3c3b 9838 e73b
00000100: 020b c63b be92 1d3c ab15 fcbb 1fce bf3b
00000110: 4088 dfba 3f4b 4dbc f7e2 32bb 9f34 093c
00000120: 800f f63c ca1e aebb 1f2a 3ebc 5249 d9bb
00000130: b434 4c3b 3af5 a3bb 027c a1bb 8b11 68bb
00000140: e5c3 0abc c256 feb9 0b05 9c3b 76a3 13ba
00000150: 852c cd3b 5f2c 85ba 83d3 55bb b39e 1bbb
00000160: 4e1b 913b 6524 df3b fc6e cb3b c75c 50bb
00000170: e70a 173c 8745 e4bb aa5d b339 1740 8d3c
00000180: c544 183c 2bab a3bb db2b b0bb cc00 b13a
00000190: dfa1 0c3c 600d 333b 83e2 023c cc82 b9bb
000001a0: 5966 9e3a db15 a5b9 a89d 4f3c 0dd8 5f3b
000001b0: e7bb 8fbc 82db d6ba 1317 2ebc 1149 acba
000001c0: cfc9 4bbc 920c ed3b d14e bebb 1d8c debb
000001d0: 02b3 26bb 8559 073a 51e1 14bc f2f3 853a
000001e0: 4d50 24bc 2eb1 00ba af22 e0bb 54cf 1e39
000001f0: b50c 5bbb 2331 003c 2541 863b 1782 69bb
00000200: 639b 0ebb 7aa7 84bb 7a45 7fb8 64d8 233c
00000210: a869 5bbb 0afe 233b 5092 febb 3db4 1d3c
00000220: 6b09 b5bb 5669 173c e844 d93b 29bb 42ba
00000230: 9dac d7bb 4b52 0e3c 895f 81bc 1a65 073c
00000240: 7206 8bbc db4b 70bb a2f5 d8bb 1c71 11bc
00000250: 05de 70bb 4a9e da3b ec4f 4a3c 7825 9d3a
00000260: 4f1c 713b 9b5c f2ba 3e88 35bc eed8 c8bb
00000270: 06ef a83c 09b1 a83c 2e04 19bc 226d e8bb
00000280: d744 46bc 2457 b23b 9c6c ab3b 2fd3 83bc
00000290: d1df 1a3b a4bb a2bc 8f0d 143c 8862 083b
000002a0: 8983 3cbb a8f3 203c 8b90 19bc 9f90 7a3c
000002b0: 978a 2f3b 2724 263a 8fab 06ba 41e0 873b
000002c0: 308d c83a c7c6 bd3b 60c1 f4bb a0df a83b
000002d0: a5cb 8a3c 5b70 7f3b 11e0 28bc e94c c23a
000002e0: 07a3 7ebb 8ff0 9d3b 9f67 7435 b780 8dbb
000002f0: 3ab2 953b f37b 4d3b c246 753a 8876 f5ba
00000300: 6fc2 713b f32c a93b 60c2 bebb a251 5bbb
00000310: 9ac2 153c 3431 99bc 730d dd3b 98e5 bf3b
00000320: a38b b0bb 605b b93b 7724 8a3b 3f37 823c
00000330: 1be3 533b 0a13 1fbc 7f5a 913c a847 5e3c
00000340: d42f 493c dec3 37bb 9ad3 ac39 3c5d 8e3b
00000350: 9215 2bbc e36e 44bb 0b08 c33b 5f44 b93c
00000360: 1f11 e538 c5e0 a23a 3778 95bc 23eb de3b
00000370: 9b3b d3bb bf67 90ba 4ef0 ad3c 557c 5d3c
00000380: 8b5c b63b ff72 423c 3ed1 0f3b 7757 193c
00000390: 730a bc3b 62cb 24bb 06f6 0039 ec79 493c
000003a0: f5c6 f7bb 8b3f 443c 40fd 73bb 1ff1 16bc
000003b0: 485a 9ebb 4b32 8abb 01dd 8f3b 3f98 253c
000003c0: 4b3f e8bb 85e5 1d3c 933d 723c 42a2 c9bb
000003d0: 5720 443c ede2 763b 7b9e e43a 5a7d 8e3a
000003e0: d5bf 90bb 63a5 103a 6b6b d93b 2a38 2dbc
000003f0: 4fa2 a13b 137e 8f3a 1a4a 783c 9784 15bc
