Assets/results/ppo/My Behavior/My Behavior-451.pt (torch, 219670 bytes, 38 tensors)

discrete_act_size_vector f4 [1, 14]
00000000: 0000 0040 0000 0040 0000 0040 0000 0040
00000010: 0000 0040 0000 0040 0000 0040 0000 2041
00000020: 0000 2041 0000 2041 0000 2041 0000 2041
00000030: 0000 2041 0000 2041
2.0 2.0 2.0 2.0 2.0 2.0 2.0 10.0
10.0 10.0 10.0 10.0 10.0 10.0

network_body._body_endoder.seq_layers.0.weight f4 [128, 24]
00000000: 734b bebd a4c9 d53d bb31 dfbd 157f 98be
00000010: 4e62 f43d ccd4 6abe e311 9f3e d0a8 93bd
00000020: 82d3 683d d4be e1bd 4fd7 cd3e c8f7 a8be
00000030: 6fde 7e3d 41d7 103e 76ed 43be bdd7 c2be
00000040: 1cf0 113e c710 a03e b085 973e 9c57 883e
00000050: 71d9 12be f0e7 543d 3215 22bd 928b 4c3e
00000060: 0ee5 b33d 6d1e 933e abe0 ea3d fae6 17be
00000070: 21c7 70be ac40 41be d96e 3a3d c278 72bd
00000080: d274 6e3e 7aa7 2c3e ef85 85bd 91e9 00bd
00000090: 9dbb b13e 477f 1d3e 175e 97be 0168 0dbe
000000a0: e0ca c53e 3f5b 9bbe 8baf 45be 09d7 68be
000000b0: 19e9 06be 8e48 87bd 18c3 93be f34c 45be
000000c0: d290 07bd c98d af3d 21dc 2fbd 6d74 d4bc
000000d0: ed19 6abd 8ef7 70be 683c 8ebe 93da 9c3d
000000e0: a815 56bd c0b3 f73e 3ece 62be 83c5 2dbe
000000f0: 041d cb3d d7da 09be 5a53 0c3e b530 28be
00000100: d7f0 803e 42bb 983e b0c8 74be cf47 b63e
00000110: d176 acbe 508d c5bd c4b7 ffbc 64eb 783c
00000120: 1b90 72ba 67fe 4bbe 2592 0ebe ded9 53be
00000130: f743 5e3e 47c2 cb3c a9ff e1bd 83be 483e
00000140: 1079 243e 4465 90bc ffee 353e 2f3e 87be
00000150: 65b5 39bc 93a6 1bbe aab6 5ebc 680d a1ba
00000160: d143 e63d 25b9 73be f79f 443e 272a 86be
00000170: 6b64 7a3e 056f 41bd c219 0e3e 3366 b83d
00000180: d016 4c3d ac9c 793e e165 a3bd b2ff 173d
00000190: 249e 90be 40c6 01be e4a0 7cbd a0be 2b3c
000001a0: cce3 ea3d 3220 9cbd e3ec 253e e2fd e33c
000001b0: 06f3 df3d 09e2 843d adb8 e23d 0788 8fbc
000001c0: 75b2 1cbe 6e98 443e eecc 2b3f 296e 85be
000001d0: 82af 98be beee 623e 955b 6b3e 4a94 6b3d
000001e0: 06df 6cbe 2e1e 35bd 8158 2b3e 2406 dc3d
000001f0: b3ea bebb aa64 833e 4443 47be 7bea acbc
00000200: f9b6 a83d 6a6e 6d3d 0191 aabd 0bbe afbd
00000210: 9974 cdbd 4df6 fbbd 3ebc 9b3e cc59 3d3e
00000220: 4d3c 9439 7c23 693d 8f97 363e 2b02 1fbe
00000230: 2efc 53be 71f0 b53e 9621 00be f463 763d
00000240: 7445 d4bd 57e0 913c 8dab a7be 5ec6 9f3c
00000250: aa48 1e3e 1baf 0abe e268 203e e388 aebe
00000260: 82d8 03bd 57d6 a9be 952b 6cbe a1f5 be3d
00000270: 0891 df3e 79df 5abd 758e 8c3e 85f4 0a3e
00000280: 442b 62be 1ef5 0f3e 5d1b 293b 69ae 3b3e
00000290: 991c e8bd 075d 69be a57f 863e 6af7 38be
000002a0: a8d7 44be 67fd 5f3e d5bb 773d f61d ad3d
000002b0: a400 debb 65d0 ccbe 111f d23c 679f c1bc
000002c0: e37e 57be ef37 a4be 20fc a03d 4180 e63c
000002d0: 24de 953d 52e3 4ebe 99df 473e 6467 4e3e
000002e0: 9b12 ac3c ea72 a33e 16b0 8c3e a8bd 253f
000002f0: ecbe f5bd ed1d 5fbe eee6 fdbe b2fe 67be
00000300: 1617 96be ee7b 203e f487 563e ae3b 483d
00000310: 7b77 ad3d c095 f03d 3d59 3d3d 732e 3ebe
00000320: c3e1 3abe cd51 9d3d f269 15be c1a3 f6be
00000330: ac37 09be ed23 c9be b6f8 153c a2c0 973b
00000340: f140 3dbe 6804 b3bd 931c 6fbd 494d 283e
00000350: 6bf4 05be 843a 8e3d 0059 0f3d 0da1 c23e
00000360: 38d6 44bd dd2f 8b3d 53a7 cbbb c9e6 8ebd
00000370: 7e98 69be 7d05 033c ae00 14be 11e0 97be
00000380: 2a7a 1a3d 9591 23be 5647 3fbe 373d 403d
00000390: 0277 b33d 6e8c d53d f2c9 7a3e 814c 6fbe
000003a0: 7814 053e d3d7 66be ff4d c9bd a7f2 2c3e
000003b0: fbeb b73e 03f5 65be 9e82 333c 8665 7ebe
000003c0: 942f 9fbd 02db 843e 07ac f6be adfd cebd
000003d0: 39fd 0f3e 8c1f 873e 98d4 423d 9d5b 6bbe
000003e0: 95fe 81be 66f0 713e d09e 533d 7b74 f1bd
000003f0: a5b8 74be fe39 42be a318 c23c b04c a2be
-0.092917345 0.104388505 -0.10898157 -0.29784456 0.11932813 -0.22932738 0.31068334 -0.07209933
0.056842335 -0.11022726 0.4020333 -0.33001542 0.062223848 0.14144613 -0.19133553 -0.3805522
0.1425175 0.312628 0.29594183 0.2662934 -0.1434076 0.051979005 -0.039570995 0.19975117
0.08783923 0.2873415 0.11468633 -0.14834204 -0.23513462 -0.18872327 0.04551587 -0.059197195
0.23286751 0.16860762 -0.065196864 -0.031472746 0.3471345 0.15380584 -0.29563972 -0.13809206
0.38631344 -0.30343053 -0.19305246 -0.2273828 -0.13174857 -0.066056356 -0.28859782 -0.19267635
-0.033097096 0.08571965 -0.04293454 -0.025934422 -0.05715363 -0.23531935 -0.2778046 0.07658877
-0.052266747 0.48379326 -0.22148988 -0.16969876 0.09917644 -0.13462387 0.13703671 -0.1642483
0.25183746 0.29830366 -0.23904681 0.3560166 -0.336844 -0.09646094 -0.031215556 0.01519284
-0.0009253041 -0.19921266 -0.13922937 -0.20688578 0.21705614 0.024872912 -0.110350914 0.19603924
0.16061807 -0.017626412 0.17766951 -0.2641463 -0.011334752 -0.15200262 -0.013593355 -0.001228732
0.11243404 -0.23801096 0.19201647 -0.26204035 0.24452369 -0.047225017 0.13877013 0.09003868
0.049826443 0.24376172 -0.07978416 0.037109084 -0.28245652 -0.12673283 -0.061676875 0.01048246
0.1146923 -0.07623328 0.16203646 0.027831022 0.10935025 0.06488425 0.1107038 -0.017520918
-0.15302451 0.19198772 0.6710957 -0.26060608 -0.29821402 0.22161385 0.22984155 0.057514466
-0.23131952 -0.044218235 0.1673298 0.10743359 -0.005826318 0.25662738 -0.19459254 -0.021107903
0.08238024 0.057966627 -0.083284386 -0.0858117 -0.10032005 -0.123028375 0.30417055 0.18491286
0.00028273687 0.056918606 0.17831253 -0.15528171 -0.20701668 0.35535005 -0.12512812 0.060153916
-0.1036481 0.017807169 -0.3274807 0.019503769 0.15457407 -0.1354336 0.1566501 -0.3408881
-0.0321889 -0.3317134 -0.230635 0.09324194 0.43665338 -0.053435776 0.27452436 0.1356984
-0.22086817 0.14058349 0.0025803663 0.18328251 -0.113335796 -0.22789393 0.2626926 -0.18063131
-0.19222891 0.21874009 0.060481865 0.0845298 -0.0067749787 -0.40002742 0.02564958 -0.02363558
-0.21044497 -0.32073924 0.07860589 0.028137328 0.073177606 -0.20203903 0.1951889 0.20156628
0.021004966 0.3192361 0.27478093 0.6474252 -0.11999306 -0.2178876 -0.49590248 -0.22655752
-0.29314488 0.15672275 0.209503 0.04888504 0.08470055 0.117473125 0.046227682 -0.18572406
-0.18250184 0.07681618 -0.14591196 -0.4817181 -0.13400143 -0.39285222 0.009153536 0.004631118
-0.18481804 -0.08741075 -0.05837686 0.16435732 -0.1308152 0.06944755 0.034996986 0.38013497
-0.048055857 0.067962386 -0.006215015 -0.069776125 -0.22812077 0.007996914 -0.14453384 -0.29663137
0.03771416 -0.15973504 -0.18679556 0.04693338 0.08762933 0.104271755 0.24491099 -0.23369028
0.1299609 -0.22543268 -0.0982933 0.1688944 0.35922226 -0.22456746 0.0109564345 -0.24843416
-0.07772747 0.2594834 -0.4817812 -0.101069786 0.1406144 0.26391256 0.047566026 -0.22984166
-0.25389543 0.23626861 0.051665127 -0.11789795 -0.23898561 -0.18967435 0.023693388 -0.31699133

network_body._body_endoder.seq_layers.0.bias f4 [128]
00000000: 0000 0000 0000 0000 0000 0000 0000 0000
00000010: 0000 0000 0000 0000 0000 0000 0000 0000
00000020: 0000 0000 0000 0000 0000 0000 0000 0000
00000030: 0000 0000 0000 0000 0000 0000 0000 0000
00000040: 0000 0000 0000 0000 0000 0000 0000 0000
00000050: 0000 0000 0000 0000 0000 0000 0000 0000
00000060: 0000 0000 0000 0000 0000 0000 0000 0000
00000070: 0000 0000 0000 0000 0000 0000 0000 0000
00000080: 0000 0000 0000 0000 0000 0000 0000 0000
00000090: 0000 0000 0000 0000 0000 0000 0000 0000
000000a0: 0000 0000 0000 0000 0000 0000 0000 0000
000000b0: 0000 0000 0000 0000 0000 0000 0000 0000
000000c0: 0000 0000 0000 0000 0000 0000 0000 0000
000000d0: 0000 0000 0000 0000 0000 0000 0000 0000
000000e0: 0000 0000 0000 0000 0000 0000 0000 0000
000000f0: 0000 0000 0000 0000 0000 0000 0000 0000
00000100: 0000 0000 0000 0000 0000 0000 0000 0000
00000110: 0000 0000 0000 0000 0000 0000 0000 0000
00000120: 0000 0000 0000 0000 0000 0000 0000 0000
00000130: 0000 0000 0000 0000 0000 0000 0000 0000
00000140: 0000 0000 0000 0000 0000 0000 0000 0000
00000150: 0000 0000 0000 0000 0000 0000 0000 0000
00000160: 0000 0000 0000 0000 0000 0000 0000 0000
00000170: 0000 0000 0000 0000 0000 0000 0000 0000
00000180: 0000 0000 0000 0000 0000 0000 0000 0000
00000190: 0000 0000 0000 0000 0000 0000 0000 0000
000001a0: 0000 0000 0000 0000 0000 0000 0000 0000
000001b0: 0000 0000 0000 0000 0000 0000 0000 0000
000001c0: 0000 0000 0000 0000 0000 0000 0000 0000
000001d0: 0000 0000 0000 0000 0000 0000 0000 0000
000001e0: 0000 0000 0000 0000 0000 0000 0000 0000
000001f0: 0000 0000 0000 0000 0000 0000 0000 0000
0.0 0.0 0.0 0.0 0.0 0.0 0.0 0.0
0.0 0.0 0.0 0.0 0.0 0.0 0.0 0.0
0.0 0.0 0.0 0.0 0.0 0.0 0.0 0.0
0.0 0.0 0.0 0.0 0.0 0.0 0.0 0.0
0.0 0.0 0.0 0.0 0.0 0.0 0.0 0.0
0.0 0.0 0.0 0.0 0.0 0.0 0.0 0.0
0.0 0.0 0.0 0.0 0.0 0.0 0.0 0.0
0.0 0.0 0.0 0.0 0.0 0.0 0.0 0.0
0.0 0.0 0.0 0.0 0.0 0.0 0.0 0.0
0.0 0.0 0.0 0.0 0.0 0.0 0.0 0.0
0.0 0.0 0.0 0.0 0.0 0.0 0.0 0.0
0.0 0.0 0.0 0.0 0.0 0.0 0.0 0.0
0.0 0.0 0.0 0.0 0.0 0.0 0.0 0.0
0.0 0.0 0.0 0.0 0.0 0.0 0.0 0.0
0.0 0.0 0.0 0.0 0.0 0.0 0.0 0.0
0.0 0.0 0.0 0.0 0.0 0.0 0.0 0.0

network_body._body_endoder.seq_layers.2.weight f4 [128, 128]
00000000: ff6e 443d 9d91 023c 5dba 2bbe 13a7 523d
00000010: 8b94 d03d b137 eaba 015e 27be 8627 fb3c
00000020: 1a56 82bd 90d3 17bd f371 b13b b36e a23d
00000030: c78d d6bd d560 42be 2bb8 00be 6f91 02be
00000040: 44cc 703d fd99 6dbd 78ca 90bd 89af 2dbe
00000050: 2a2b 06be ccc7 2fbd 2089 13be 96e0 043e
00000060: 49cd 02bc dc58 3c3c 324b b7bb 680e 243c
00000070: 9e4f 113c b51b c03d 1c9d 373e 17ee a4bc
00000080: 3db4 c93d e30c a63b 5c89 92bc 3525 833d
00000090: 0a25 1b3c 8e79 113c 3f0a 613d f0a9 babd
000000a0: 3d24 c7ba 4eb9 0c3e 74cf a93d 0eec da3d
000000b0: 10ad 0abe 970d e73d 0bc2 db3b bdb9 d4bb
000000c0: 0c5d 913c 5a2e 263e 49f9 21be c693 913c
000000d0: 2a4b fe3d 1935 ae3d 6d02 6238 b77e 1abb
000000e0: 1e19 c23d 9b66 d3bd eeb4 89bc 7657 333d
000000f0: 33b7 02bc 9216 19be c766 1cbe b41d 873d
00000100: 628d cbbc a94b 08bd a941 debd 389f e8bd
00000110: 8774 d4bd 8e0a e6bd c73f 373b 87b8 343a
00000120: 6991 ab3c 9fc8 503c 3c8d 2abc 4c88 883d
00000130: 5f34 a33b 6548 e9bd b637 0c3d 084a 38bd
00000140: 728c 093d 9302 af3c 4074 7e3d 4675 363e
00000150: cab8 d0bd ad00 86bd ca34 eabd 1a27 29be
00000160: f1a0 1cbd c36a 283d 9e3b 0dbd 6136 57bd
00000170: 2470 43bd fb14 f53c f732 94bd c93f aabd
00000180: 98d5 663d 37af 99bd 3c3e 863d 702e fa3d
00000190: 8912 8e3d b229 163c e59a e13c 3d43 afbd
000001a0: 7ff0 7f3c 5804 e3bc d94b f8bd 98d8 26bc
000001b0: f5e7 2f3c fc0a 9ebc 2096 0ebd 230e 07bc
000001c0: 315d 83bc c651 853d 0601 d03b 8b84 89bd
000001d0: fb1a a3bd de64 3abd 578c 33bc 0fee bbbc
000001e0: 0ae6 a03d 51b6 1b3d cba1 54bc 31d8 b53c
000001f0: 2e69 0cbd 8bd1 223e 1008 fd3d 3a1c 00be
00000200: 660e c1bd 97be 6d3b f529 0e3d d9f4 033e
00000210: a0ad b03a 76ba 9fbc 0753 bdbd 23af 333d
00000220: d6df f1bd 3cfb 95bd e84c ad3d cb80 f23c
00000230: 16b1 2bbd 4fc4 343d cc42 fa3c 6c8f 133e
00000240: 0d93 cbbc 8cb1 c3bd 2a67 3fbe 555e f7bd
00000250: 72b4 e83b 3647 033d ac37 a6bc 7f95 493c
00000260: 80a5 8ebd ea07 6f3c c578 093d acb9 c23d
00000270: 355f 3a3e c96d 783c 6e91 173e 785e 8dbd
00000280: 6726 59bd b178 7dbd 32d3 0abd c837 1a3c
00000290: 26bf 043b b262 a4bd 3f22 b6bd 25f7 0fbd
000002a0: 5933 d83c c8f3 0c3e 3ecb d4bc 9082 0d3e
000002b0: c857 0f3c b188 0c3d 467d 103e edf5 4cbe
000002c0: 6ed0 033e f601 c63b 6f00 a93d 92a6 65bd
000002d0: 23cc 00be 2a42 f0bd 3f99 7abd 4453 36bd
000002e0: 6d0b 853d 1e38 53bc 0e23 b53c 5ce7 1ebe
000002f0: 607a 7f3d d0a6 42be 1336 a53d 63cc 06bd
00000300: 5930 37be 7564 c2ba 2084 41bd 6895 53be
00000310: 5313 d2bd 040a b63d 6a95 47be 8109 babd
00000320: 6276 b03c b10f f93c 12d2 993d 56b1 723c
00000330: e40b ef3c e9a2 b33d 8161 8f3d 04a0 4cbd
00000340: a934 593d 8268 5dbd 87d9 92bd 0e08 2a3d
00000350: 3c96 4b3a ca7e a13c 479c 6b3d 5083 80bd
00000360: f981 bfbd 0381 10bd 3c72 0bbe c932 b33d
00000370: 3e7f f438 1b73 843e a541 8e3c e520 01bd
00000380: 1c88 fb3c b8db ec3c ebe8 e6bc d016 bbbb
00000390: 9049 00bc 35e0 8f3d dece 7abc 13a5 9fbd
000003a0: 438a 51be a3c4 cebd 6e9b 4a3c 87b8 30be
000003b0: 738b f63c 10de 703c 991d 313d 7ce3 95bd
000003c0: 25e7 d93c d5a0 bf3c 69c7 0d3e 56dd 663d
000003d0: dad2 0f3d e857 f53c 7dbb 4f3d b900 b33c
000003e0: 55f7 9ebd b3ce 0fbb 2bc0 25be 368d 3a3c
000003f0: c5a4 9d3c 08ae 3d3d 7b08 53bd c4e9 913d
0.047957417 0.007969287 -0.1677031 0.051428866 0.10184582 -0.001786938 -0.16344453 0.030658495
-0.06364079 -0.037066996 0.005415195 0.079312705 -0.10476261 -0.18982251 -0.12570255 -0.12750791
0.058788553 -0.058008183 -0.07069868 -0.16961493 -0.13102403 -0.04291515 -0.14407778 0.12976298
-0.007983514 0.011495795 -0.005593681 0.0100132 0.00886908 0.09380285 0.17931026 -0.020133061
0.09848831 0.005067454 -0.017887764 0.06403581 0.00946928 0.008879079 0.054941412 -0.09114444
-0.0015193295 0.13742563 0.08291522 0.10689555 -0.1354258 0.11281889 0.0067064813 -0.0064918683
0.017744564 0.16228619 -0.15817751 0.01777066 0.1241668 0.08506221 5.3884858e-05 -0.0023574063
0.09477447 -0.10322305 -0.016809907 0.04378458 -0.007978248 -0.14950016 -0.15273581 0.06597462
-0.02484769 -0.03327528 -0.108523674 -0.113584936 -0.10373788 -0.11232482 0.0027961598 0.0006893952
0.02094336 0.012743144 -0.010409649 0.066666216 0.0049806084 -0.11390761 0.034232818 -0.044992477
0.033581205 0.021363532 0.062122583 0.17818174 -0.10191496 -0.06543098 -0.1143585 -0.16518822
-0.038239423 0.04111744 -0.034480684 -0.052542094 -0.047714368 0.02991723 -0.07236283 -0.08312947
0.056356043 -0.07504123 0.06554839 0.122158885 0.06937129 0.009165214 0.02753968 -0.085577466
0.015621304 -0.027712032 -0.12123842 -0.010183476 0.010736455 -0.019292347 -0.03481114 -0.008243117
-0.016035648 0.06509738 0.0063477783 -0.06714734 -0.079641305 -0.04550635 -0.010958753 -0.022940664
0.078563765 0.038015667 -0.012978028 0.022197815 -0.034279995 0.15900247 0.123550534 -0.12510768
-0.094265744 0.003627693 0.034707982 0.1288637 0.0013479479 -0.019498091 -0.09244352 0.043868195
-0.118102714 -0.0732331 0.08461934 0.029602429 -0.04191693 0.044132527 0.03054943 0.1441018
-0.024850393 -0.09555349 -0.18691698 -0.12078539 0.007101589 0.032050334 -0.020290218 0.012303709
-0.0696516 0.014589289 0.03356244 0.0950807 0.18200381 0.015162894 0.14801571 -0.06902784
-0.05301514 -0.06188268 -0.033892818 0.009412713 0.0020255535 -0.08026637 -0.08893251 -0.035147805
0.026391672 0.1376487 -0.02597582 0.13819337 0.008748956 0.034310047 0.14110288 -0.20015688
0.12872478 0.006042714 0.08252036 -0.056067057 -0.12577872 -0.1173137 -0.061181303 -0.044513002
0.0649632 -0.012891797 0.022111442 -0.15517944 0.062372565 -0.19008946 0.080669545 -0.032909762
-0.17889537 -0.0014830964 -0.047245145 -0.20662463 -0.10257592 0.08888629 -0.1949059 -0.09083844
0.021540824 0.03040299 0.07510771 0.014812788 0.029180475 0.08771307 0.07001019 -0.04995729
0.053028736 -0.054054745 -0.07170396 0.041511588 0.0007766222 0.019713778 0.057522085 -0.06275046
-0.09350962 -0.035279285 -0.13617796 0.08749921 0.000116585274 0.25869069 0.017365286 -0.03152551
0.03070455 0.028913364 -0.028187236 -0.0057095066 -0.007830039 0.07025186 -0.01530811 -0.07795157
-0.20462899 -0.10096099 0.012366159 -0.17257892 0.030095791 0.014701381 0.043241117 -0.0731878
0.026599476 0.02339212 0.138456 0.056363426 0.035113193 0.029949144 0.050715912 0.02185093
-0.077620186 -0.002194327 -0.16186588 0.011386206 0.019243607 0.046308547 -0.05152176 0.071246654

network_body._body_endoder.seq_layers.2.bias f4 [128]
00000000: 0000 0000 0000 0000 0000 0000 0000 0000
00000010: 0000 0000 0000 0000 0000 0000 0000 0000
00000020: 0000 0000 0000 0000 0000 0000 0000 0000
00000030: 0000 0000 0000 0000 0000 0000 0000 0000
00000040: 0000 0000 0000 0000 0000 0000 0000 0000
00000050: 0000 0000 0000 0000 0000 0000 0000 0000
00000060: 0000 0000 0000 0000 0000 0000 0000 0000
00000070: 0000 0000 0000 0000 0000 0000 0000 0000
00000080: 0000 0000 0000 0000 0000 0000 0000 0000
00000090: 0000 0000 0000 0000 0000 0000 0000 0000
000000a0: 0000 0000 0000 0000 0000 0000 0000 0000
000000b0: 0000 0000 0000 0000 0000 0000 0000 0000
000000c0: 0000 0000 0000 0000 0000 0000 0000 0000
000000d0: 0000 0000 0000 0000 0000 0000 0000 0000
000000e0: 0000 0000 0000 0000 0000 0000 0000 0000
000000f0: 0000 0000 0000 0000 0000 0000 0000 0000
00000100: 0000 0000 0000 0000 0000 0000 0000 0000
00000110: 0000 0000 0000 0000 0000 0000 0000 0000
00000120: 0000 0000 0000 0000 0000 0000 0000 0000
00000130: 0000 0000 0000 0000 0000 0000 0000 0000
00000140: 0000 0000 0000 0000 0000 0000 0000 0000
00000150: 0000 0000 0000 0000 0000 0000 0000 0000
00000160: 0000 0000 0000 0000 0000 0000 0000 0000
00000170: 0000 0000 0000 0000 0000 0000 0000 0000
00000180: 0000 0000 0000 0000 0000 0000 0000 0000
00000190: 0000 0000 0000 0000 0000 0000 0000 0000
000001a0: 0000 0000 0000 0000 0000 0000 0000 0000
000001b0: 0000 0000 0000 0000 0000 0000 0000 0000
000001c0: 0000 0000 0000 0000 0000 0000 0000 0000
000001d0: 0000 0000 0000 0000 0000 0000 0000 0000
000001e0: 0000 0000 0000 0000 0000 0000 0000 0000
000001f0: 0000 0000 0000 0000 0000 0000 0000 0000
0.0 0.0 0.0 0.0 0.0 0.0 0.0 0.0
0.0 0.0 0.0 0.0 0.0 0.0 0.0 0.0
0.0 0.0 0.0 0.0 0.0 0.0 0.0 0.0
0.0 0.0 0.0 0.0 0.0 0.0 0.0 0.0
0.0 0.0 0.0 0.0 0.0 0.0 0.0 0.0
0.0 0.0 0.0 0.0 0.0 0.0 0.0 0.0
0.0 0.0 0.0 0.0 0.0 0.0 0.0 0.0
0.0 0.0 0.0 0.0 0.0 0.0 0.0 0.0
0.0 0.0 0.0 0.0 0.0 0.0 0.0 0.0
0.0 0.0 0.0 0.0 0.0 0.0 0.0 0.0
0.0 0.0 0.0 0.0 0.0 0.0 0.0 0.0
0.0 0.0 0.0 0.0 0.0 0.0 0.0 0.0
0.0 0.0 0.0 0.0 0.0 0.0 0.0 0.0
0.0 0.0 0.0 0.0 0.0 0.0 0.0 0.0
0.0 0.0 0.0 0.0 0.0 0.0 0.0 0.0
0.0 0.0 0.0 0.0 0.0 0.0 0.0 0.0

action_model._discrete_distribution.branches.0.weight f4 [2, 128]
00000000: 4302 f2bb 403a e0bb 3be3 173b a4da bf3c
00000010: f1d1 893b 0afa 443c 5718 e63b 178c 3ebb
00000020: 9f77 a1bb 95e9 c73a 297d a2bc 430f a2bb
00000030: 6ac4 db3a 6bb1 2a3c 3004 1cbc cd11 e3bb
00000040: 0fd7 5d3b f186 b3bb 0305 8f3c 4757 9abb
00000050: ffd8 92bb f1d3 27bb ef9a 3a3c 9793 46ba
00000060: 9bf2 09bc 6d0c 653c d17f a73b abed d7bb
00000070: f3dc 213c c901 37bb 239a 353c fe68 8bbb
00000080: fa25 64bc 8053 753b 1a54 9c3b 2a36 a53b
00000090: 7d26 163c 27de 80bb 30ee d4bb b7a5 9f3c
000000a0: 0ce3 c13a 5c74 08bc d0e2 dc3a 22cf 4fbb
000000b0: 584d 5d3b 0f3a f03a c711 27bc f09e 12bb
000000c0: 63e8 fc3b 0713 d43b 58c4 22bb 0601 933b
000000d0: d73b 3f3c 6798 9fbb 637a b1ba 7d2a d63a
000000e0: 11a4 97bb f38e ae3a b395 6ebc 11b5 3bbb
000000f0: 7a4d 55bc 7d38 09bc bcd0 43bc 60e2 6d3b
00000100: 9fa5 0a3c f3cb 9c3a e335 82bb 78a2 be3b
00000110: 1423 863a c2f0 e83b 5d5c 5abc 8bfc d83a
00000120: 29a8 aeb9 8bf3 6737 b51d 523c 7a83 56ba
00000130: 2531 3b3c eddc 9d3b 9890 613b 1f0a 91ba
00000140: c83f 7a3b 4d34 f43b 14ff 983b eed0 c9bb
00000150: ca8b 24bc 87c9 2abc 2ec4 8dbc 68ed 8b3c
00000160: a83a efbb 77c3 9ebb b7e2 39bc 5b31 003b
00000170: 633b 4fbb 72ba 42bc b5c0 773a 2c90 333c
00000180: bafc a03b 8fe1 913a c3fc 44bb 07ab a0bb
00000190: d595 63bb 9299 483b 2b90 bcbb 573c 903b
000001a0: bb4c 12bc c7a2 39bb a84d 9dbb 3b6b cbbb
000001b0: 928f aebb d8f2 5aba c8fb 17bb 8329 aebb
000001c0: 252f 8c3c b341 4c3c 57d5 203c 433d 183c
000001d0: ae03 89bb 0401 9fb8 3b8e 1dbc 43ae 00bb
000001e0: 91c3 a63c 0348 dc3b 0b52 09bc 4a87 963c
000001f0: 031d 303c dfce 823b e379 44bb 2b48 42bb
00000200: 0175 1bba 0ab3 483b ad12 bbba 8e85 163a
00000210: 354a 4d3b 8a81 5abb 7d26 9c3b 3817 223b
00000220: 9b83 3ebc d8a7 a63a db69 74bc ca94 a1bb
00000230: 4bfd b8bb 5ef6 2f3c ef20 32bc 43d9 3f3c
00000240: a4b7 353b c374 313c 5cdb 183a 5813 7d3b
00000250: 8969 0dbc 6051 283c 3078 99bb 5859 a03b
00000260: f7df 2b3b 9356 8bbc 3a69 4bba 389d f3bb
00000270: 0550 e03a 87fd ebbb c57b 4f3b aba1 85bc
00000280: 60e4 fc3b 5dec ddba 7a65 d5bb a317 bfbb
00000290: c84f c83b 9f09 54bb 4534 62bc 215a 2f3a
000002a0: cf28 1d3c fde5 c33b aa6d bbbb a72a cdbb
000002b0: 6e9e 99ba c34d 08bc 736d 8fbc 3eae 1f3c
000002c0: 77b0 f7bb 6a2c 4f3c c2f2 263c b30c 383c
000002d0: 6fc4 363c 9483 c0bc 7b38 11bb 6ba1 0f3c
000002e0: 9da2 c5b7 87b2 56bb c34f 973c 65bd 8cbb
000002f0: d211 513b b5bd 4a3b 901b d2ba cc13 23bc
00000300: e4fe 863b af54 20bc c865 efbb 3b34 64bb
00000310: 8315 70bb d3da 123a b208 a73b ebd8 33ba
00000320: f843 70bc a2e4 613a 633b 003c 1aa2 2ebc
00000330: 98db 333c a76f c8bb fd7f 2fbc a875 7fba
00000340: f73b 993a 6fc3 953b c5f8 9b3b 79a2 98bb
00000350: 8fd3 e8ba b822 2abb 80b2 2ebc f046 113b
00000360: 1f7f bb3a 2ba9 533c 8548 dc3a 2b24 25bb
00000370: 1d22 563c 5304 12bc 30eb e73b 1b0f b1bb
00000380: 1f0f 6a39 5285 84bb df04 92bc 82a6 6f3b
00000390: 4c51 c4ba 7608 9f3b 8d45 193b b7ad fdbb
000003a0: 4afb e93b a684 9c3b 1714 a0bb ccf6 90ba
000003b0: 0cd2 1e3c 195e c1ba 4098 4c3c 05b4 b2bb
000003c0: eb10 c6bb c60e 1e3b 3fda 9bba e6c8 943b
000003d0: 46e6 bbbc 570f 8e3c 9f74 1d3c 12e7 d7bb
000003e0: 1c87 0c3c 7b20 cf3b 488c 83ba 6c79 3a3c
000003f0: e125 b7bb 58bb 1ebc dd37 4fbc 473f 4f3a
-0.0073855235 -0.0068428814 0.0023176211 0.023419686 0.004205935 0.012022505 0.0070219445 -0.00290752
-0.00492759 0.0015252108 -0.019835072 -0.004945667 0.001676691 0.010418276 -0.009522483 -0.0069296123
0.0033850109 -0.0054787328 0.017458444 -0.0047101113 -0.0044814344 -0.0025608505 0.011389478 -0.0007575093
-0.008419658 0.013980013 0.0051116724 -0.0065896115 0.009879339 -0.0027924648 0.011084112 -0.0042544594
-0.01392507 0.0037433803 0.004770768 0.0050418573 0.00916445 -0.0039327326 -0.0064981207 0.019488199
0.0014792397 -0.0083285235 0.0016852263 -0.0031709154 0.0033768024 0.001832785 -0.01019711 -0.0022372566
0.0077181323 0.006471995 -0.0024836268 0.004486206 0.011671982 -0.0048704627 -0.0013540502 0.0016339567
-0.0046277125 0.0013317749 -0.014562058 -0.002864186 -0.01301896 -0.008375284 -0.011951622 0.003629826
0.008462339 0.0011962637 -0.003973709 0.0058177076 0.0010233843 0.0071087787 -0.013327685 0.0016554756
-0.00033313155 1.3825377e-05 0.0128244655 -0.00081830437 0.011425291 0.004817596 0.003441846 -0.0011065638
0.003818499 0.007452524 0.0046690796 -0.0061589396 -0.010043094 -0.010424024 -0.01730546 0.017080978
-0.0073006935 -0.0048450786 -0.011345557 0.0019560668 -0.003162109 -0.011885272 0.0009451018 0.010959666
0.00491294 0.0011129844 -0.0030057884 -0.0049032005 -0.0034726758 0.0030609113 -0.005754491 0.0044017243
-0.008929427 -0.0028325783 -0.004800517 -0.006207851 -0.0053271735 -0.00083522266 -0.0023190845 -0.005315007
0.017112324 0.012466836 0.009816489 0.00929195 -0.004181347 -7.5819e-05 -0.00961643 -0.0019635118
0.020356925 0.0067224517 -0.008381377 0.018375058 0.010749104 0.003991946 -0.0029979877 -0.0029645066
-0.00059302157 0.0030624294 -0.0014272534 0.0005741947 0.0031324748 -0.0033341371 0.0047653303 0.0024733078
-0.011628057 0.0012714816 -0.014917816 -0.004931067 -0.0056454292 0.010739891 -0.01087211 0.011709514
0.0027727867 0.010831061 0.0005831027 0.0038616266 -0.008631119 0.010273308 -0.004683517 0.004893463
0.0026226023 -0.017009055 -0.00077595154 -0.0074345134 0.0017113691 -0.0072018537 0.0031659466 -0.01631244
0.007717654 -0.0016931404 -0.006512341 -0.005831675 0.0061130263 -0.0032354367 -0.013806407 0.00066891505
0.009592249 0.0059783445 -0.00571986 -0.006261188 -0.0011720189 -0.008319321 -0.017508244 0.009746132
-0.007558878 0.0126448665 0.010189714 0.0112334965 0.011155232 -0.023500241 -0.002215891 0.008766512
-2.3559953e-05 -0.003276022 0.01847065 -0.0042950385 0.003190149 0.0030935828 -0.0016029943 -0.00995345
0.004119741 -0.009785815 -0.0073058344 -0.003482117 -0.0036633916 0.00056020654 0.005097472 -0.00068606314
-0.0146646425 0.0008617138 0.007826659 -0.010658765 0.010977648 -0.0061168256 -0.010711667 -0.000974501
0.0011690845 0.0045704166 0.0047598802 -0.00465804 -0.0017763245 -0.0025960635 -0.010662675 0.0022167526
0.0014304853 0.012918751 0.001680628 -0.002519856 0.013069657 -0.008912164 0.007077597 -0.005403412
0.00022321612 -0.0040442133 -0.017824588 0.0036567752 -0.0014977842 0.0048533035 0.0023387403 -0.0077416557
0.0071405517 0.004776555 -0.0048852074 -0.0011059879 0.009693634 -0.0014752775 0.012487471 -0.005453589
-0.0060444972 0.0024117692 -0.0011890604 0.0045405505 -0.022936951 0.017341299 0.009610324 -0.006588825
0.008577134 0.0063210106 -0.0010036314 0.011381488 -0.0055892323 -0.009688221 -0.012647596 0.00079058524

action_model._discrete_distribution.branches.0.bias f4 [2]
00000000: 0000 0000 0000 0000
0.0 0.0

action_model._discrete_distribution.branches.1.weight f4 [2, 128]
00000000: cd6d 6b3c aad6 4bbb 2545 f6bb 4f18 08bc
00000010: 509d a1bb c0fa 72bc 97b8 3639 db16 f83b
00000020: 3e7b 0abc 379c cc3c fb82 55ba 93f1 253b
00000030: bfcf f2bb 2572 b13b 47db 423c 5281 7cbb
00000040: c740 0abc 997b 9a3b 0758 afba 078c 5eba
00000050: 8748 123c 94d5 043c 4343 b1bb 674b 1bbc
00000060: 1b0a 9b3c 0df8 18bc 2e2f 13ba 5f21 443c
00000070: 2eb0 8b3a 6502 a2bb c44d 36bb 0fb9 0e3b
00000080: cf70 4a3c 531c 4b3c 5102 89bc 8257 0dbc
00000090: 3faa 3d3c b7cf 83bc d3c4 2b3b a7a5 013b
000000a0: c370 4a3c 9f87 e53b b23c 2dbb cd00 4b3c
000000b0: 3868 cb3a 892d bf3c 5fcc 20bc 0e5f 993c
000000c0: 585d fa3b e56c 713b 1d54 55bc 10b6 033c
000000d0: 026e e93b 358a eb3b 2053 fcbb 137d 383c
000000e0: 87af 2c3a f921 21bc 6b28 5bba 1f49 8fbc
000000f0: d282 583c a139 14bc 3086 b53c 7ade 9d3b
00000100: d5b4 ecba 4a3e 34bc 4604 92bc 9f5a 2939
00000110: e4d5 8ebb 08d1 b2ba 7fdd f4ba 28ae 6b3c
00000120: a73a 27bc fae4 f6bb 87cf c03b 5037 eabb
00000130: bf83 943b 6b53 17bb 8493 00b9 a5e9 df3a
00000140: 6736 09bc 8223 663a 333e 19bc 5c9e 12bc
00000150: e99e 0dbc 733a 763b e2c7 d63b 9ac9 7b3c
00000160: e4a4 113c 5202 a7bc 23fc aa3a 7c75 11bc
00000170: 2516 48bc fd26 beba e3c5 8ebb 331e f13a
00000180: 1840 a2bc 22d7 9cbb 20ee 2bba bf91 ec39
00000190: 5a3b 073c 3141 053c ef57 9e3b 6de2 5e3a
000001a0: 2889 813a 1a9d f63b 356f fd3b a75a 57ba
000001b0: 3359 ce3c 6426 1f39 9312 81bc 9d2f 373b
000001c0: f092 b7bc ff9c 223c 21ff ba3b cbb1 943b
000001d0: de3e 943c cb18 653b d88f 853b 5034 363c
000001e0: 6b9f 353c 7aa3 07bc 980b 843b 59cb 993a
000001f0: 503a cbbb 980e 763c a08b dfbb 45d4 193c
00000200: 2867 c6bb 7520 bebb 1d65 283b e0a9 dd3b
00000210: 4742 eaba cc98 3b3c d5bd e3ba a8b7 d63b
00000220: ae1d a13b 9f30 463c bf12 89bb 1d64 173b
00000230: 4e32 2a3c 125e c438 1e2e 02bb 07f9 263c
00000240: 5782 36bb 50fc 49bc 87ce 1fbc 5ec2 c139
00000250: 1f91 d53b 1531 e9bb 54df 0cbd 5f6a 5b3c
00000260: b3a1 263c 911a c23b f227 013a 45e3 d63b
00000270: 5a31 1bbb 1026 9cbb 2f54 0a3c dd64 d3bb
00000280: e752 433c 8730 cb3b 5184 303c 335b fdbb
00000290: 29fa 22bc 4a9d 803b 1267 f7bb efc4 333b
000002a0: 0feb 17bc 7d85 3fbb 4048 323c d431 873c
000002b0: e769 0b3c c9b1 23bc 1768 1ab8 e374 4bbb
000002c0: 7a8c 403b 20bc 0e3a 87ac 703b 8ffb bf39
000002d0: 01a0 883c 57f4 193c 60c4 18bb f243 043a
000002e0: 5265 5d3c 60c8 e2bb 98c6 1d3b cf44 033b
000002f0: 151a 09bb 8068 74bb b4ef a33b 1a17 563b
00000300: 93d1 a93b ffd0 15ba 0236 9dbb 7576 cfba
00000310: d70e 7b3b c136 4a3c ebdb 72bc 0d04 163c
00000320: 13a4 99b7 6852 7d3c 9ae0 4cbc 10c2 613c
00000330: e2c8 85bb 91ac bdbb fb47 b03a 2db6 203c
00000340: 558e 6e3b 62e3 403c 5565 95bb d2ba 583c
00000350: 5430 c3bb bbce 413a c2ee 60bc f273 cd3b
00000360: afd7 7c3b da69 7b39 068f c3bc 9b29 b8bb
00000370: 469c bdba 67f7 89bb a05e 773c 3a43 55bc
00000380: a570 ddba 43be 23ba f328 843b 50ba 47bc
00000390: ba00 39bc d07e 9cbb 5d36 3abc cb50 87bb
000003a0: b511 a2bb e5d7 a5bb 8b56 313c 913a cb3a
000003b0: dabd ebbb dc75 a2bc dc69 343a c7d0 5bbc
000003c0: 69d7 05bc df12 2dbc 07c5 773b 97a9 b3bc
000003d0: 627c 243c dd8f 723a b752 5d3b 7c6b 09bc
000003e0: 7288 783c 3026 b13b 3fda d6ba b54c 05bb
000003f0: 0ab6 113c 6106 0fbc b214 82bc 1f20 04bc
0.01436944 -0.0031103292 -0.007515567 -0.008306577 -0.004932083 -0.014830291 0.00017425638 0.007571084
-0.008452235 0.024976833 -0.0008144823 0.0025320991 -0.007410019 0.0054152184 0.0118931 -0.003852923
-0.008438296 0.004714441 -0.0013377675 -0.00084894936 0.008928425 0.008107562 -0.0054096295 -0.009478427
0.018925717 -0.009336484 -0.00056146353 0.011970847 0.0010657364 -0.004944133 -0.0027817348 0.0021777784
0.012355997 0.01239689 -0.016724737 -0.0086268205 0.011576234 -0.016090257 0.0026209846 0.0019782574
0.012355986 0.0070046927 -0.0026433882 0.012390328 0.001551873 0.023337143 -0.009814351 0.018722083
0.007640522 0.0036838588 -0.013020542 0.008039013 0.0071237097 0.0071881064 -0.007700339 0.011260289
0.0006587435 -0.00983476 -0.000836021 -0.017490922 0.013214784 -0.009046943 0.022158712 0.004817781
-0.0018059263 -0.011001179 -0.017824303 0.00016150855 -0.004358994 -0.0013642618 -0.0018681734 0.014384784
-0.010206855 -0.0075346204 0.005884114 -0.007147707 0.004532307 -0.0023090492 -0.00012261985 0.0017083181
-0.008374787 0.0008779095 -0.009353208 -0.008948889 -0.008643844 0.003757146 0.0065545896 0.01536789
0.008889411 -0.020386849 0.0013045113 -0.008878108 -0.012212311 -0.0014507469 -0.004357086 0.0018395841
-0.019805953 -0.004786388 -0.0006558616 0.00045122017 0.008253897 0.008133219 0.00483226 0.0008502368
0.0009882795 0.007526052 0.007734204 -0.00082151074 0.025189018 0.00015177723 -0.015755927 0.0027951964
-0.022408932 0.009925126 0.0057066833 0.004537796 0.018096384 0.0034957405 0.0040759854 0.011120871
0.0110853715 -0.008278722 0.0040297024 0.0011733576 -0.0062020198 0.015018128 -0.0068220645 0.009388988
-0.0060547777 -0.005802209 0.0025695034 0.0067646354 -0.0017872535 0.011450004 -0.00173753 0.0065526552
0.004916868 0.012096553 -0.004183143 0.0023100444 0.01038797 9.36353e-05 -0.0019863914 0.010191209
-0.0027848685 -0.012328222 -0.00975383 0.00036956643 0.006517544 -0.0071164467 -0.03439267 0.01339206
0.010170388 0.005923577 0.0004926912 0.0065578544 -0.002368054 -0.0047652796 0.0084429225 -0.006451233
0.011921621 0.0062008533 0.010773734 -0.007731819 -0.009947338 0.0039250003 -0.0075501287 0.0027430614
-0.009272351 -0.0029223852 0.010881484 0.016503252 0.008509136 -0.009991118 -3.6813402e-05 -0.0031045012
0.0029380606 0.0005444903 0.0036723928 0.00036617785 0.016677858 0.009396634 -0.0023310408 0.0005045525
0.013512926 -0.006920859 0.002407467 0.0020030027 -0.0020920087 -0.0037293732 0.00500294 0.0032667578
0.005182454 -0.0005715042 -0.004797698 -0.001582815 0.0038308406 0.012342156 -0.01482294 0.009156239
-1.8315424e-05 0.015461542 -0.012504721 0.013779178 -0.004082785 -0.005788394 0.0013449186 0.009809059
0.0036400754 0.011772962 -0.004559199 0.013228135 -0.005956689 0.0007393171 -0.013728799 0.0062699253
0.0038580706 0.00023976658 -0.02387191 -0.005620194 -0.0014466129 -0.004210401 0.015098244 -0.013016516
-0.0016894533 -0.0006246308 0.004033202 -0.012190416 -0.011291677 -0.0047758594 -0.0113655 -0.0041295043
-0.0049459585 -0.005061137 0.010823856 0.0015505125 -0.007194263 -0.01983159 0.00068822294 -0.013416476
-0.008169034 -0.010563581 0.0037806646 -0.021931453 0.010039421 0.00092530047 0.0033771226 -0.008387443
0.01516925 0.0054061636 -0.0016391947 -0.002033991 0.008893499 -0.008729548 -0.015879009 -0.008064299

action_model._discrete_distribution.branches.1.bias f4 [2]
00000000: 0000 0000 0000 0000
0.0 0.0

action_model._discrete_distribution.branches.2.weight f4 [2, 128]
00000000: d563 eb3a 3925 3cbc 6820 78bc 7108 99bb
00000010: 2fde 84bb f795 97bc 7f60 b23c f8c8 a83b
00000020: f8bb d63b d8d2 743b dda5 36bc 28aa 7c3c
00000030: f4b5 1f3c 0162 82bb fde9 51bc 5664 bfbb
00000040: 5e42 943b 7181 8dbc aa49 01bc 2b28 653b
00000050: 3afb 833c 1f99 a4bc 0bdc afba b332 a53b
00000060: 6941 4c3b a59d 873a 5587 5f3b edce 88bc
00000070: 933d cbba b01e edbb 546b bb3b c5ca f63b
00000080: 67dd 90bb 88fa 1d3c d32c c43b 0c4b 3ebb
00000090: 1fc5 3a3b b8ca 5dbc 4923 1c3c 8f14 aebb
000000a0: 9d46 4dbb 4006 3cbc be3d 333c c0d4 68bc
000000b0: 2b69 f3bb f066 e338 3616 b33b 694e 81ba
000000c0: 626a 24bc 8b54 813c 1833 42ba 5d84 85b8
000000d0: 0f2d 993c 077f f8bb c202 7cb9 7f9c 133c
000000e0: c44f 31ba c4e4 21bb ea9a 2dbb ddcd 22bb
000000f0: d573 a63c c1d9 143b 42b6 eabb 6abd f3bb
00000100: 3feb 003a e323 4cbc 5b5c 5339 586d 06bc
00000110: d729 073b a842 583c f6b0 c23b 1a56 083c
00000120: 179a 753b ba3b 103c 19c0 08bc e9c7 b2bb
00000130: f251 3fbb eb8e 1bbc a11e a9bc d246 493c
00000140: 87c4 603c 9e94 16bc 3055 faba e8ff 383c
00000150: 8149 453c 7fa4 24bb 28c2 ab39 58c8 033c
00000160: 9a2c 36b9 ed8f 643c 053d 44bc 75fb 7cba
00000170: 2356 163c b76a 943b d716 2d3b 9b61 2b3c
00000180: 25e8 403c 35dd d13b e7b2 503c 60c6 5c3c
00000190: cf97 7fbc 8121 8f3b 0861 693c 1d19 ff3b
000001a0: 5a6b f53b 05c5 b73b 4fba 193c 8354 13bc
000001b0: b8d6 663a f7cf 27bb e86f e1ba 5306 613c
000001c0: b352 34bc ec28 883c 224f 77bb 097d c83b
000001d0: df61 8a3c 88d8 603c 99ae b13b 62e7 a33b
000001e0: c80e 9139 a217 093c 2047 033c 1330 eb3b
000001f0: 175b 4e3b 8b3b 5b3c 1f3c 0fbb 9d3e e33b
00000200: 504f e9bb 23b6 e33b 7bd4 563b 7f5a d7bb
00000210: 2360 0ebb 5342 3b3b 213c 433c c7df 29bc
00000220: b5d1 0837 f48f 943b c6a9 343b db23 9c3b
00000230: c70c b6bb 6b8b 62bc 7829 5abc ad96 82ba
00000240: a6e5 8abb 2293 fb3b 438e 8d3b c512 df3b
00000250: 3d19 daba 7b1b 893a 5cdd 9fbb 453d e538
00000260: 1793 44bc 17f2 25bc 7773 20bc 10df 7fbc
00000270: b307 933a 58f7 fabb bf90 303c 7bc1 9a3a
00000280: d907 36bc 941c bcbb a2b8 8fbb 0e75 b03b
00000290: f80d 41bc 6b10 043c d3f9 17bc 0ba8 76bb
000002a0: 2205 febb 0bf7 453b 74a9 913b 7697 2d3b
000002b0: f2b7 f9bb 8673 4b3b 83cc 56bc 5002 513a
000002c0: efa6 923c 8fdb b13b 8f8c 29b9 e757 d1bb
000002d0: 6b94 47bb 6b38 2cbc f50d debb 8053 613c
000002e0: cfa5 92bc c729 a73b 1d8e 11bc e282 563c
000002f0: 1586 a03b 7835 543c 33aa 3338 dd07 7ebc
00000300: 72ac 4fbc 00c6 dabb 6b79 143b 7bb0 6fbb
00000310: 7338 49bc 92ae bbbb 25d1 11b9 d59b a83c
00000320: 2442 b43b 9ba4 743b 46cd 023b 6366 3bbb
00000330: 72d4 f1bb 9289 f33b 9308 3b3a 3afd f63a
00000340: ed02 7c3c 5ba1 21bb 6ae9 a3bb 12cb f13b
00000350: 866d 39bc 81df 0c3c d71d 693b 4351 043a
00000360: f499 083c 9fc9 1a3b 5f7e 5fbb 5b4e 9a3b
00000370: 3225 663c e861 5ebb f599 b23b c6d0 98bb
00000380: 173d 903b 0e8a a1bb 415c 1b3b 95b3 a1bb
00000390: 00a6 74bb 0037 c43b 37fb 1dbc 2895 eaba
000003a0: 0b8b cbbc b785 253a 7048 ba3b 5e1a c43b
000003b0: 9542 e1bb 8a87 843c 97f5 31b9 83dc c83b
000003c0: 0370 223b 874c d83b 1ff7 153c 93a2 bcba
000003d0: d419 2fbc 9fc5 a63b 875b 45bc f027 f43a
000003e0: ef5b 923b 9783 53bc f2e3 1cbc a5a7 4e3c
000003f0: 9bb1 913b bf62 68bc f3d3 ff3b ff2f 153c
0.0017958829 -0.011483484 -0.015144445 -0.0046701957 -0.0040548067 -0.018504126 0.021774529 0.0051509105
0.0065531693 0.0037357118 -0.011147943 0.015421428 0.009747971 -0.003978968 -0.012812135 -0.0058408184
0.004524513 -0.017273637 -0.007891098 0.003496657 0.016111005 -0.020092545 -0.0013417018 0.005041444
0.0031166917 0.0010346664 0.0034107764 -0.016700232 -0.0015506021 -0.0072363243 0.0057195816 0.007531496
-0.0044209245 0.009642251 0.005986789 -0.002903643 0.002849884 -0.013537101 0.009529897 -0.0053125094
-0.0031322606 -0.0114760995 0.010940013 -0.01421088 -0.0074283085 0.00010843377 0.0054652942 -0.0009865287
-0.010035129 0.015787384 -0.0007408126 -6.366589e-05 0.018698243 -0.007583502 -0.0002403362 0.00900948
-0.00067639 -0.0024703005 -0.002649004 -0.0024841942 0.020318905 0.00227128 -0.00716284 -0.0074383514
0.0004917867 -0.012459728 0.00020156933 -0.0082047805 0.0020624304 0.013199486 0.0059415055 0.008321309
0.0037475878 0.008803302 -0.008346581 -0.00545596 -0.002919313 -0.0094945235 -0.020644488 0.012284951
0.013718731 -0.009190707 -0.0019098874 0.011291482 0.0120414505 -0.0025122461 0.0003276032 0.008043371
-0.00017373488 0.01395033 -0.011977439 -0.0009650507 0.00917581 0.004529323 0.0026411319 0.010460283
0.011774098 0.0064045438 0.012737966 0.013475031 -0.015600159 0.0043680076 0.014244325 0.007784976
0.007489604 0.0056082034 0.009382798 -0.008992317 0.00088057993 -0.0025606134 -0.0017199488 0.013734418
-0.011006045 0.016621076 -0.0037736376 0.006118421 0.016892372 0.0137235 0.005422425 0.005001948
0.00027667568 0.008367451 0.008012563 0.0071773618 0.00314874 0.013380895 -0.0021855903 0.0069349543
-0.0071200505 0.0069492026 0.0032780457 -0.0065720673 -0.0021724782 0.0028573468 0.011916191 -0.010368294
8.155058e-06 0.004533762 0.0027567013 0.0047650165 -0.0055557224 -0.013827185 -0.013315551 -0.0009963118
-0.004238802 0.0076774517 0.0043199374 0.0068076574 -0.0016639602 0.001046046 -0.004878683 0.00010930983
-0.01199796 -0.0101285195 -0.009793154 -0.015617147 0.0011217505 -0.00765888 0.010776698 0.0011806929
-0.011110269 -0.0057407115 -0.0043860236 0.0053850478 -0.011783116 0.008060555 -0.009275871 -0.0037636783
-0.0077520767 0.0030207064 0.004445249 0.0026487983 -0.007620805 0.00310442 -0.013110283 0.0007973062
0.017901866 0.0054277848 -0.00016169458 -0.0063886526 -0.0030453454 -0.010511498 -0.006776566 0.013752818
-0.01790133 0.005101416 -0.00888398 0.013092728 0.0048987963 0.012952201 4.2835436e-05 -0.015504804
-0.0126753915 -0.0066764355 0.0022655379 -0.0036573696 -0.012281525 -0.0057275975 -0.0001390619 0.020582119
0.0055010486 0.0037329558 0.0019958778 -0.0028594963 -0.007380062 0.007432171 0.00071347615 0.0018843778
0.015381557 -0.0024662826 -0.0050021904 0.007378944 -0.011317616 0.008598209 0.0035570764 0.00050475093
0.008337487 0.002361871 -0.0034102423 0.0047090477 0.014046954 -0.0033932868 0.005450482 -0.0046635596
0.0044018137 -0.0049297875 0.002370611 -0.004934738 -0.003733039 0.005988002 -0.009642414 -0.0017897235
-0.024846574 0.00063141756 0.0056849048 0.0059845885 -0.0068743923 0.016177911 -0.00016971525 0.0061298027
0.0024786002 0.0066009196 0.009153157 -0.0014391713 -0.01068731 0.0050894762 -0.012045748 0.0018627625
0.0044665257 -0.012909791 -0.009575831 0.012613212 0.004446221 -0.014183699 0.0078072487 0.009105681

action_model._discrete_distribution.branches.2.bias f4 [2]
00000000: 0000 0000 0000 0000
0.0 0.0

action_model._discrete_distribution.branches.3.weight f4 [2, 128]
00000000: 8476 2a3a dca3 0f3c fe32 16ba cbed 12bc
00000010: 8b42 88bc 5911 a0bb 58be 553b 7df2 833c
00000020: 236b 85bb cf68 5336 a292 ed3b 39ed a83a
00000030: abaa 70bb 6f47 e5b9 3088 76bb 505a ecbb
00000040: 1720 273c 03ce f93b d8c8 a2bb c8b7 0a3c
00000050: 98ff 4ebb a180 233b 8e53 9bba 41ce 14bc
00000060: 2f02 6dbb 8197 473c 3e48 923b 2749 013c
00000070: d0b9 22bb 975f 723b d012 913b 9702 9bbc
00000080: 4ba6 5f3b 4f7c 2a3b aae9 a63b 0722 56bc
00000090: 10ce c2bb 1797 833b 2faf 21bc b1f3 1b39
000000a0: c0be 64bc e56f 1b3b f0c4 dcbb a2fd c53a
000000b0: f072 6c3c 7f05 023b 710c 433b 0163 c4bb
000000c0: 9c65 86b9 7eed b5bb 74f9 453c f311 a03b
000000d0: 7fd5 aaba a2d8 a8bb 65a0 4ebb 9e27 4a3a
000000e0: 3ff1 703c 2340 cebb ab9e 503c 359d 31bc
000000f0: 7712 1c3c 3ccb a6bb 1f70 b13c 405c 78bb
00000100: 4a6d f13b 77f5 623c e442 883a af98 083c
00000110: a5e9 5a3c b3fe 643c 4ac1 56bb e837 b239
00000120: c333 20bb 1294 c83b d291 d43a e58c c63c
00000130: 8733 77bc be83 11bb 850f b83a 18db 563c
00000140: 5073 13bc 32bb 9dbb c8e1 483a df40 d73b
00000150: 72ef 4fba 93a5 6bbb 8ded e0bb eeb5 ac3a
00000160: 8f24 253c 376e 3dbc 1fb7 263c 77ce eeba
00000170: 8282 d33b 24cb a1bc af77 3ebc 5bba 8a3b
00000180: 4717 1abc ca7f 61bc 6fa9 91bc 009c d03b
00000190: 70c8 733b b6e4 483b 4a80 60bb 7dd5 66bb
000001a0: ab3e f23a 3f15 acba 508e 413a e94a 3d3b
000001b0: 8e4f babb cda6 2bbb e797 163c 5e63 893c
000001c0: 3866 a1bb 7672 06bc 186b ecbb 947f c0bc
000001d0: 0895 3f3c 1cc9 45bb 75ef 51bb 33c2 203b
000001e0: f486 28bc a1c8 16bb b3e7 323b 46fa 203b
000001f0: 0bfb 6cbc 1ff8 0dbc f702 64bc 0fb9 8d3c
00000200: ae38 003c 8008 d13b 9b05 69bc 8ff2 14bb
00000210: 32fa f33b 28cc cdbb bfee 6abc 1cf5 aa3b
00000220: d2d7 f2bb 0b01 873c 3485 22ba 7bd4 d33b
00000230: 9b9a 8ebb 9cc1 2a3c f430 01bc 3b3d 84bb
00000240: 427a 573b a3c6 cb3b fa73 003c d272 0a3c
00000250: d3c1 95b7 f779 8bba 3dfc d2bb 7d15 80bc
00000260: 77f0 023c b8c7 023b 9d80 723b de4f 1bbc
00000270: 53d7 753c 75a3 f23b d2fe b138 7531 4f3c
00000280: 6fd0 45bc 9527 92bb abba 55bc 5def ab3a
00000290: 30da c3bb 64a3 343c b70f 7fba 5700 3dbc
000002a0: 6d19 5c39 785b 76bc 0562 7a3c 0e77 98bc
000002b0: 33da 213c a48b 39bc 26e1 213c 92f3 78bb
000002c0: 5178 34bc 6556 c6b8 a640 1b3c 6353 2e3c
000002d0: ddda cc3b 9386 09bb e837 f23b 224a 2fbc
000002e0: b3f7 6c3c 9e25 8138 7ec7 1cba b92b 85bc
000002f0: c7fc 1d3c 7023 f3bb fcf6 a53b c30c 7dbc
00000300: 2bf2 943c cbde bb3b 4dfa 7f3a 3a25 603c
00000310: 4fc2 b83b 1f58 44bc 8ffd 8c3c 0491 27bb
00000320: 7fb6 21bc faf7 f8b9 0bb1 bb3b 7209 f2bb
00000330: c755 11bc 3149 aeba 8a5e e1ba 5145 323c
00000340: 8df8 013c 7f1e 66bb db06 403c 5fe6 e23a
00000350: 53e7 f5bb 17b8 9f3b 3b8b 31bc d9ea acba
00000360: 8147 133b a8af 4cbc 31c3 183c f06f 7a3c
00000370: aec9 0bbb 3fbc 14bc 6511 68bb 9bd3 313c
00000380: ff02 e2ba 1829 d8b8 fa3a 4d3b 2a6d df3b
00000390: c251 4d3c efa5 dd3a 8885 3abc 1738 d13b
000003a0: 9d0f 643b 660d 213b 6dbc d8bb 5b48 1f3b
000003b0: a64c 223b 761d 80bb 4f6c e8bc 0d04 993b
000003c0: ea55 a1bb a836 f03b 0804 5fbc 3351 1dbc
000003d0: 7abf 0e3b 3308 a73a 604c 713c 8b66 77bc
000003e0: 405c 82bb ece0 993b 3240 3739 c7d3 b83b
000003f0: 1d53 f13a cb8f cebb 2f9c 463b 5b57 ca3b
0.00065026456 0.008767094 -0.00057296443 -0.008967827 -0.016633293 -0.0048848805 0.0032614674 0.016106838
-0.0040716096 3.1502457e-06 0.007250146 0.0012888081 -0.003672282 -0.00043731506 -0.0037617795 -0.0072129145
0.010200522 0.0076234355 -0.00496779 0.008466668 -0.0031585451 0.0024948495 -0.0011850463 -0.009082378
-0.0036164632 0.012182117 0.0044641783 0.007890976 -0.002482999 0.0036983246 0.0044272915 -0.018922133
0.0034126218 0.0026014035 0.005093773 -0.013069636 -0.0059449747 0.004015814 -0.009868427 0.00014872734
-0.013961494 0.0023717817 -0.006737344 0.0015105496 0.0144317 0.0019839702 0.0029762054 -0.0059932475
-0.00025634177 -0.005551993 0.0120834 0.004884952 -0.0013033597 -0.005152778 -0.0031528708 0.0007711592
0.014705955 -0.006294267 0.012733142 -0.010840704 0.009525887 -0.0050901454 0.021659909 -0.0037896782
0.0073677646 0.013852469 0.0010395912 0.008337184 0.013361369 0.013976741 -0.0032769018 0.0003399246
-0.0024444915 0.006121167 0.0016217774 0.024237106 -0.015087969 -0.0022203769 0.0014042711 0.013113759
-0.008999661 -0.004813575 0.00076630386 0.0065690125 -0.00079321035 -0.0035956844 -0.0068642558 0.0013176778
0.010079517 -0.011561922 0.010175495 -0.001821949 0.0064547667 -0.019750185 -0.0116252145 0.004233641
-0.009404964 -0.013763377 -0.017780988 0.006366253 0.0037198327 0.00306539 -0.0034256154 -0.0035222464
0.0018481811 -0.001312889 0.0007383572 0.0028883761 -0.005685753 -0.002619195 0.00919149 0.016771015
-0.0049255155 -0.008206001 -0.007214915 -0.023498334 0.011693247 -0.0030179685 -0.0032033597 0.0024529814
-0.010286082 -0.0023007768 0.0027298748 0.0024563237 -0.01446415 -0.008665114 -0.0139167225 0.017300157
0.0078260135 0.006379187 -0.014222528 -0.0022727584 0.007445597 -0.006280441 -0.014339148 0.0052172076
-0.0074109817 0.01647999 -0.00061996584 0.0064645386 -0.0043519265 0.010422137 -0.0078852065 -0.0040356196
0.0032879268 0.0062187477 0.007840151 0.008450227 -1.785244e-05 -0.0010641207 -0.0064387606 -0.015635246
0.007991902 0.0019955467 0.003700293 -0.009479491 0.015004951 0.0074047395 8.487482e-05 0.012646069
-0.01207362 -0.004460285 -0.013044993 0.00131176 -0.0059769377 0.0110252835 -0.000972982 -0.011535726
0.00020990307 -0.015036456 0.015282159 -0.018611457 0.009878683 -0.011324797 0.00988034 -0.0037986976
-0.011015014 -9.457468e-05 0.009475863 0.010639998 0.0062516765 -0.0020984754 0.0073919185 -0.010698827
0.014463353 6.158206e-05 -0.00059806544 -0.0162562 0.009642786 -0.007419996 0.005064843 -0.015444937
0.018181881 0.005733346 0.0009764776 0.0136807505 0.0056383978 -0.0119839 0.01721075 -0.0025568614
-0.009870171 -0.00047487003 0.0057278923 -0.00738638 -0.008870549 -0.0013296959 -0.0017194313 0.010880784
0.007932794 -0.0035113392 0.0117203845 0.0017311088 -0.0075043826 0.00487424 -0.010836418 -0.0013192549
0.002247304 -0.012493052 0.009323881 0.015285477 -0.0021329927 -0.0090780845 -0.0035410759 0.010853673
-0.0017243325 -0.00010307337 0.003131567 0.0068184333 0.0125317 0.0016910414 -0.011384375 0.0063848603
0.0034799345 0.0024574636 -0.006614259 0.0024304602 0.0024764924 -0.003909762 -0.028371958 0.0046696723
-0.004923572 0.0073307343 -0.013611801 -0.009601879 0.002178161 0.0012743532 0.014727682 -0.015100132
-0.003978282 0.004696002 0.00017476155 0.00564048 0.001841161 -0.0063037626 0.0030305495 0.0061749644

action_model._discrete_distribution.branches.3.bias f4 [2]
00000000: 0000 0000 0000 0000
0.0 0.0

action_model._discrete_distribution.branches.4.weight f4 [2, 128]
00000000: f33b 633b 451a ce3c 5077 09bc dc20 acbb
00000010: ca3c 0dbb 4f82 8cba 5a71 5c3c df94 193c
00000020: a5e1 eb3a 2bb0 173a 97cc 84bc 58a0 0f3c
00000030: c445 44bc c271 f4bb 6406 a638 75ee bb3b
00000040: ef6d 053c 3fc8 42bc 810e b2bc ac5e 21bc
00000050: 8d23 493c 6338 61bb 02d5 ca3b a0f8 dd39
00000060: 005a 3dbc 4fe1 323b 48c3 e9bc 550b 573c
00000070: b390 833c 5cba 2cbc 6a11 a539 b0dc 453b
00000080: b3e1 863b aa0d 37bc a87c 76bc 2321 083c
00000090: a157 403b be88 3ebc e80c a13b e3ef 44b9
000000a0: d314 0abc bd1d 02bc a81f 343c e23c 4ebc
000000b0: 87ca 14bc e271 21bb 4b09 863c adc6 4dbc
000000c0: 29ec b63c 6852 993a a2eb 48bb 1285 e2bb
000000d0: d9c9 b4bc d7f9 533a f5b1 f1bb d003 103c
000000e0: 07b8 14bc edb9 4a3c 000d dcbb 278b 9abb
000000f0: 678a 70bb 7e0e 20bc 2f12 86bb f510 273b
00000100: 4c2a af3b 5b82 99ba 4069 383b 6534 4dbc
00000110: 6b3d 913a 8be3 f5ba 87f5 94bb 251a eabb
00000120: 00bd 573a 0fb9 b4bb c309 693c eb44 c4bc
00000130: 9c69 9abb df3e db3b 4360 7b3b 5b70 a53b
00000140: 7335 38bc 3fab a6bb 2567 e83b ba50 afbb
00000150: e3a1 173b afd1 243c cedd 9e3a 32fd d13a
00000160: 4dcb efbb a631 21bc 19f6 2dbc 2744 ceba
00000170: 613d 0cbb d730 3c3c 7feb 50bc b628 1e3c
00000180: 9e09 35bb 47c2 e4ba 9785 84bb 97b1 05bc
00000190: 2dc2 b13b 423f 86bb e26e cebb 8011 503c
000001a0: 862c a539 59ca 843a 399c 44bc 56da 2d3c
000001b0: 1f5f 013b ec25 203c fbe1 353b 5257 a4bc
000001c0: 004f d2ba 6992 b53b d7aa a93b 2615 993b
000001d0: e2f0 5bbb a3e1 52ba d391 1fbb 785c 613b
000001e0: d8d8 9439 66c1 173b 7f8d 45bb d7f7 753c
000001f0: f890 97bc 37f4 65bc cf7f 4ebb d374 a9bb
00000200: 11ff 023c 73ee ec3b 9831 4539 a1ed 10bc
00000210: a045 ce3b 1055 e539 b302 86bc 5001 46bb
00000220: d8da 9c3c e1c5 04bc 5fda 163c 980e 273b
00000230: 601a 53bc 5f7c 13bc 0dcf 70bc 092e 06bc
00000240: fb8e cebb b529 2939 e773 17bc 816d 873b
00000250: fd69 9db8 5b31 3939 944d 0d3b fb83 24ba
00000260: 6f60 2bbc 61fc 1c3c 7ba1 023c dfbb 05ba
00000270: 3a52 d13a 73fa d0ba 5da0 b5bb 9a36 c6bb
00000280: 36d0 3ebc 7fc3 c3bb 5fbe 5f3b 10cb 143c
00000290: 0c58 963b 937c 343b 3152 883c 75a4 73ba
000002a0: d633 27bc 29b5 3c3c bb44 56bb 4f61 caba
000002b0: b39e abba d682 09bc 321d 843b 745a a23a
000002c0: e56e e43b 8e28 10bc e66d b1bc 8043 3b3b
000002d0: 3e9b 3ebb bd7c 973b 5dd1 fb3a 6270 1a3c
000002e0: 5f2d 913b 9a10 b33c dd0a 613a 652a 3abc
000002f0: 823c 0e3c bf38 d2ba e6da 9b3b 7790 1abb
00000300: 1b72 e93b 3799 dfba 93de e13b 8382 36bb
00000310: eb98 97bb f630 18bc 207c c83a e259 5f3c
00000320: 3ed3 9f3a 4b8b 30bc 2f6e 63bb 528f 5f3b
00000330: d5e5 4fbb 1bc2 8ebb 90ba 2a3b c092 a43a
00000340: c905 26ba df17 77ba 14b9 463c 1c0b 373b
00000350: 908b a13a 19bc 43bb d592 8dba c47e 47bc
00000360: 8d4e a93b d988 a1bc 7720 c2bb 4712 0c3b
00000370: 4b54 d53b 95a0 c1bb 3b43 0a3b 43c0 9b3a
00000380: 9b53 893c 177c e6ba 2a97 eabb 81d3 af3b
00000390: 416f 833b 193f a3bb d1de 80bc 62ec e43b
000003a0: abd9 623c b710 ff3b cd6e 333c 8cbe ac3a
000003b0: 739d b7bb 7803 6039 c714 1b3c de23 b83b
000003c0: d8cf 18bb b560 4abb 751b 4bbb 273a f33a
000003d0: 1dd8 f6ba 57cb ec3b 8b9e 87ba 797f 26bb
000003e0: 2f11 1a3b 33eb 3f3b 2b03 1e3c af04 eabb
000003f0: a89a 4fbc 0ada d33a 046d aebb 8c83 843b
0.0034673184 0.02515901 -0.008390263 -0.0052529406 -0.0021551126 -0.0010719987 0.0134547595 0.009373873
0.0017996324 0.0005786444 -0.016210837 0.008766256 -0.011979524 -0.00745985 7.916687e-05 0.0057352134
0.008143886 -0.011888563 -0.021735432 -0.009849232 0.012276542 -0.0034365884 0.0061899433 0.00042337645
-0.011557102 0.002729494 -0.0285355 0.01312526 0.016060209 -0.010542478 0.00031484227 0.0030191354
0.004116261 -0.011172691 -0.015044369 0.008308682 0.0029349106 -0.011629282 0.0049148686 -0.00018781381
-0.008427816 -0.0079416605 0.010993876 -0.012587758 -0.009081489 -0.002463453 0.016361853 -0.012559575
0.022329407 0.0011697533 -0.0030658026 -0.006912836 -0.022068905 0.000808624 -0.0073759505 0.0087899715
-0.009077079 0.01237343 -0.006715417 -0.0047162953 -0.0036703588 -0.00976908 -0.004091523 0.0025492285
0.0053456184 -0.0011711823 0.0028138906 -0.012524699 0.0011080926 -0.001875983 -0.0045458707 -0.00714423
0.00082297623 -0.0055152248 0.014223519 -0.023958644 -0.0047122966 0.0066908444 0.0038356937 0.005048794
-0.011243212 -0.005086332 0.007092374 -0.0053501995 0.0023137263 0.010059758 0.0012120546 0.0016020893
-0.0073179365 -0.009838497 -0.010617756 -0.0015736864 -0.002139889 0.011486254 -0.012751459 0.009653261
-0.002762414 -0.0017452919 -0.0040442455 -0.0081600165 0.005424759 -0.0040968964 -0.0062998394 0.012699485
0.00031504425 0.0010131105 -0.012000137 0.010611137 0.0019740534 0.009774666 0.0027753103 -0.020061169
-0.0016045272 0.005541135 0.0051778364 0.0046717105 -0.0033560325 -0.0008044487 -0.0024348393 0.003438739
0.0002839032 0.0023156046 -0.0030144153 0.015012703 -0.018501744 -0.014035276 -0.0031509285 -0.0051713972
0.007995383 0.007230574 0.00018805859 -0.008845718 0.006294921 0.0004374166 -0.016358709 -0.0030213185
0.019147322 -0.008103819 0.009207337 0.0025490876 -0.012884706 -0.00900182 -0.014697802 -0.008189687
-0.0063036657 0.00016132633 -0.009243942 0.004132927 -7.506085e-05 0.00017661361 0.0021561133 -0.000627577
-0.010460003 0.009581656 0.00797307 -0.00051015423 0.001596994 -0.001594378 -0.0055427984 -0.0060489895
-0.011646321 -0.0059742327 0.003414057 0.009081617 0.0045881327 0.0027540072 0.016640754 -0.00092942204
-0.01020523 0.011517801 -0.0032694775 -0.0015440377 -0.0013093561 -0.00839301 0.0040318007 0.0012386576
0.0069712275 -0.0087987315 -0.021658849 0.0028574169 -0.002908423 0.0046230243 0.0019212175 0.009426208
0.0044304575 0.021858502 0.00085846876 -0.011362647 0.008681418 -0.001603864 0.0047563193 -0.0023584643
0.007124198 -0.0017059211 0.006892988 -0.0027848787 -0.0046263835 -0.009289017 0.0015295781 0.01363227
0.0012193692 -0.0107753975 -0.0034703126 0.0034112525 -0.0031722684 -0.0043566353 0.0026051141 0.0012555942
-0.00063332595 -0.00094258593 0.012129087 0.0027930206 0.0012324918 -0.0029866754 -0.0010801206 -0.012176219
0.0051668347 -0.019718574 -0.0059242803 0.0021373199 0.0065102926 -0.0059090354 0.0021097201 0.001188286
0.016763499 -0.0017584589 -0.0071591334 0.0053657894 0.0040110652 -0.004981887 -0.015731247 0.006986187
0.013845841 0.007783975 0.01095171 0.0013179346 -0.005603486 0.00021363597 0.009465403 0.00561951
-0.0023317244 -0.0030880396 -0.0030991707 0.001855676 -0.0018832717 0.0072263884 -0.0010346932 -0.002540557
0.0023508777 0.0029284477 0.00964431 -0.0071416716 -0.01267115 0.0016163003 -0.0053230543 0.004044002

action_model._discrete_distribution.branches.4.bias f4 [2]
00000000: 0000 0000 0000 0000
0.0 0.0
