Assets/results/ppo/My Behavior/My Behavior-77.pt (torch, 219559 bytes, 38 tensors)

discrete_act_size_vector f4 [1, 14]
00000000: 0000 0040 0000 0040 0000 0040 0000 0040
00000010: 0000 0040 0000 0040 0000 0040 0000 2041
00000020: 0000 2041 0000 2041 0000 2041 0000 2041
00000030: 0000 2041 0000 2041
2.0 2.0 2.0 2.0 2.0 2.0 2.0 10.0
10.0 10.0 10.0 10.0 10.0 10.0

network_body._body_endoder.seq_layers.0.weight f4 [128, 24]
00000000: dd2d b73e 8969 553e d916 c73e 4b04 8a3e
00000010: e2c2 eabd c1e8 e63d 135b f13d f7a8 54bd
00000020: 76ef 793e 271e b5be 68dc f1bd c1c1 fd3d
00000030: dd7a 6bbc afcd 8d3e 3307 febd 5348 9e3e
00000040: 4afb 1e3c 9516 2e3e f12d 303e c143 9a3e
00000050: 7833 2e3e 84ec 963e 51fc 8f3e d730 36be
00000060: 5d9a 743e 97d5 823e d663 403d d760 2d3e
00000070: 4f07 0abe 6d05 903e 597a 783e db23 c63e
00000080: 8e22 07be 3310 0e3d b549 e23e 69ab e0bd
00000090: 2ad3 9d3e 90a9 2b3e d1d1 65bd aa03 2ebe
000000a0: a85f 103e 455e 943d e5cd 1fbf 7482 dbbe
000000b0: 6ba9 b03e 7b62 753e bf07 c33c c942 183b
000000c0: 7f2b 02be 9834 c5bd 4051 eabd f52c acbd
000000d0: 0036 84bd 7c1b 26bd d116 873c 1ca7 2cbd
000000e0: d329 c1be 4b0c 443e 5a08 103e 7ddc 4a3a
000000f0: 0bba 8f3e 96a7 08be 2990 1e3d e28d 83bd
00000100: 6bd1 153e 80dd 4fbe 0ed1 26be 41f3 df3c
00000110: 5dc6 323c 7852 91be e506 4a3e 799a b3be
00000120: 79c4 8fbc 719d 113d 4044 13be e7b6 91be
00000130: 4555 c5be 23e2 0c3e 919f 3b3e f030 023c
00000140: daca 163e b7a2 143d 86c3 6a3e d3d4 d4bd
00000150: 2520 113e e2c4 ed3b 51cb 4c3e ac72 e73d
00000160: 028c 983d 0aa8 09bf a487 693d b58f 68bd
00000170: 3742 043e b749 bdbd 4bc0 103d a309 be3d
00000180: 86b2 313c c879 6fbd 0a73 d33d afde 203e
00000190: 6c1e 98be 1793 f63c a3f4 4fbc ad0c 833c
000001a0: 0962 dcbd 3720 333e 4dd2 ab3e 7cbb 03bd
000001b0: 77ae d1bc bc10 f3bd 3156 e6bd 3221 06bf
000001c0: 6a6f cc3c a3a2 9fbd 1532 6fbe 7b01 08be
000001d0: 12d3 c03d a9de 7d3d 9065 f53e 64e7 e33b
000001e0: 0845 d5bd 3636 03be 58b0 27be 993b 023e
000001f0: 64f1 4b3e feb6 78be d26a d9bd f693 80bd
00000200: 25bf a83e c9d0 203d 5626 94bc 9c86 bc3d
00000210: f568 d93c 7bcf aabe 2abc 353d ead1 2c3e
00000220: 225c 33be c352 803e 4daf 383d a1e1 7c3e
00000230: 2488 4dbe 6d17 ee3d 3388 583e 40c5 a6bd
00000240: 42d4 37be def1 e4bd aa8e 273d 0822 123e
00000250: a521 633e 05ea 8f3d 146e c9be af69 ae3e
00000260: c89d d7bd c896 963e d9b8 13be 589e 87bd
00000270: 97b9 993d 6a3a be3e 9f5b 473e a05e 7bbd
00000280: 2de1 623e 6c20 373e cca9 853e 60df 1dbe
00000290: c57e 5d3e 99ae 8b3d 22f5 23be 0dac 77be
000002a0: 7f2c 303d 42ea a63e ac45 bc3d 4b12 92bd
000002b0: abca 113e 9964 a03d 4aa7 7a3e d9b3 5dbd
000002c0: 23ef a4be 8e4e dbbe 0c3b 09bd 1b05 b4be
000002d0: a00c 783e d40b bcbd 3d2f 5fbb 460b 4cbd
000002e0: 3c06 d5bd d84a a8be 2bbf 5e3e 3016 e33d
000002f0: 800c 773d 1501 e0be cdbe 203e 9d81 f43d
00000300: 62fb 3a3e b54a 1cbe 61dc aabc cff3 efbd
00000310: 96c5 6bbe 8dc1 c63c 1bab e03e 9370 833d
00000320: 781c ce3e 16f7 96bc 5502 3bbe 6601 973e
00000330: 9ad9 803e fafb 14be 47ec 4abd da93 74be
00000340: a786 1bbe 1a5f 34be 9437 2e3e d8c5 2dbd
00000350: 0f29 a6bd 0b88 88be 253a 563e f323 093e
00000360: 2f3b c4bc f997 87bd 8c80 e4bd 63c4 8fbe
00000370: 696d 0dbd 9ebd babe 22e0 9a3d a1f8 c5bd
00000380: 34cd 58be cef9 eb3d 5748 bdbd 0d03 093d
00000390: 136b 8c3d e5e7 a7be 5d57 b23e 6c2e 85be
000003a0: a394 ecbd 0419 fcbb e409 dc3c 5d9a 223e
000003b0: ec6f a2be 5a09 1dbe 9115 bd3e 2e16 bdbd
000003c0: ccf0 173d 77e2 4bbd c21d c83d 6c52 b2be
000003d0: 6a0e 6cbd a7bb 1cbe a79e a8be 0622 e53d
000003e0: cfc4 1bbe d358 533c 3e9c cebd b208 8c3e
000003f0: 21c4 04be b6fd c0be cc76 bf3c 6ef9 b5be
0.35777178 0.2084104 0.3888462 0.269564 -0.11462952 0.11274863 0.11784949 -0.05191895
0.24407753 -0.35374567 -0.11809617 0.12390471 -0.014372555 0.27695987 -0.12403717 0.30914554
0.009703467 0.17000802 0.17205025 0.30129817 0.17011821 0.29477322 0.2812219 -0.17792068
0.2388701 0.2555358 0.04697021 0.16931473 -0.1347935 0.2812914 0.24265422 0.3869923
-0.13196775 0.034683418 0.4419686 -0.10970194 0.30825168 0.16763902 -0.0561083 -0.16993585
0.1409899 0.07244543 -0.62423545 -0.42872965 0.34504256 0.23963349 0.023807405 0.0023233166
-0.12711905 -0.09629172 -0.114412785 -0.084070124 -0.06455612 -0.040553555 0.016490372 -0.042151555
-0.37727222 0.19145314 0.14065686 0.0007738544 0.28071627 -0.13345179 0.0387117 -0.064235464
0.14630668 -0.2029934 -0.16290686 0.027337672 0.010911551 -0.2838323 0.19729193 -0.3507879
-0.01754974 0.03555054 -0.14381504 -0.28459856 -0.38541618 0.1375814 0.18322589 0.007946238
0.14725819 0.03628799 0.22926149 -0.103921555 0.14172418 0.0072561363 0.19999434 0.11301169
0.07448579 -0.5377203 0.057014123 -0.056777675 0.12915884 -0.092425756 0.035339635 0.09279182
0.010845786 -0.05846575 0.10324676 0.15709947 -0.2971071 0.030099435 -0.012692603 0.015997255
-0.10760886 0.17492758 0.33558884 -0.03216122 -0.025595887 -0.11868426 -0.112469085 -0.523944
0.02495547 -0.07794692 -0.23358949 -0.13281815 0.094152585 0.061979923 0.4792905 0.006955074
-0.10413557 -0.12813649 -0.16375864 0.12718047 0.19916302 -0.24288556 -0.106160775 -0.06278221
0.32958332 0.039261613 -0.018084686 0.09205362 0.026539305 -0.3336142 0.0443689 0.16876951
-0.17515615 0.25063142 0.045089055 0.24695446 -0.20071465 0.11625562 0.21145706 -0.08143091
-0.17952064 -0.11178945 0.04090754 0.14270794 0.22180803 0.070270576 -0.39341795 0.34065005
-0.10528141 0.29411912 -0.14425983 -0.066219985 0.075061016 0.3715394 0.19468544 -0.06136954
0.2215621 0.17883462 0.26106107 -0.15417242 0.2163039 0.06820411 -0.1601148 -0.24186726
0.043011185 0.326006 0.09192976 -0.07132395 0.14237468 0.078316875 0.24477878 -0.054126594
-0.32213697 -0.4283337 -0.033503577 -0.35160145 0.24223566 -0.091819435 -0.0034055256 -0.04981544
-0.1040158 -0.328696 0.21752612 0.11088216 0.060314655 -0.43750826 0.15697785 0.11938784
0.18259957 -0.15262873 -0.020857038 -0.11716425 -0.23024592 0.024262214 0.43880543 0.06417956
0.40256095 -0.018428367 -0.18262608 0.29493254 0.25166017 -0.14549246 -0.049541738 -0.23884526
-0.15188085 -0.17614403 0.17013389 -0.042425007 -0.081133 -0.26666293 0.20920618 0.1339262
-0.023954002 -0.06620783 -0.11157331 -0.2807952 -0.03452817 -0.3647279 0.07562281 -0.09666563
-0.21172029 0.11522256 -0.09242313 0.033450175 0.0685636 -0.3279411 0.34832278 -0.2601198
-0.11551788 -0.007693412 0.026860185 0.15879197 -0.31726015 -0.15335599 0.36930516 -0.09232746
0.037094876 -0.04977652 0.09771301 -0.34828508 -0.057630934 -0.15305959 -0.32933542 0.1118813
-0.15211795 0.012899595 -0.100883946 0.27350384 -0.12965442 -0.37693566 0.023372076 -0.35541862

network_body._body_endoder.seq_layers.0.bias f4 [128]
00000000: 0000 0000 0000 0000 0000 0000 0000 0000
00000010: 0000 0000 0000 0000 0000 0000 0000 0000
00000020: 0000 0000 0000 0000 0000 0000 0000 0000
00000030: 0000 0000 0000 0000 0000 0000 0000 0000
00000040: 0000 0000 0000 0000 0000 0000 0000 0000
00000050: 0000 0000 0000 0000 0000 0000 0000 0000
00000060: 0000 0000 0000 0000 0000 0000 0000 0000
00000070: 0000 0000 0000 0000 0000 0000 0000 0000
00000080: 0000 0000 0000 0000 0000 0000 0000 0000
00000090: 0000 0000 0000 0000 0000 0000 0000 0000
000000a0: 0000 0000 0000 0000 0000 0000 0000 0000
000000b0: 0000 0000 0000 0000 0000 0000 0000 0000
000000c0: 0000 0000 0000 0000 0000 0000 0000 0000
000000d0: 0000 0000 0000 0000 0000 0000 0000 0000
000000e0: 0000 0000 0000 0000 0000 0000 0000 0000
000000f0: 0000 0000 0000 0000 0000 0000 0000 0000
00000100: 0000 0000 0000 0000 0000 0000 0000 0000
00000110: 0000 0000 0000 0000 0000 0000 0000 0000
00000120: 0000 0000 0000 0000 0000 0000 0000 0000
00000130: 0000 0000 0000 0000 0000 0000 0000 0000
00000140: 0000 0000 0000 0000 0000 0000 0000 0000
00000150: 0000 0000 0000 0000 0000 0000 0000 0000
00000160: 0000 0000 0000 0000 0000 0000 0000 0000
00000170: 0000 0000 0000 0000 0000 0000 0000 0000
00000180: 0000 0000 0000 0000 0000 0000 0000 0000
00000190: 0000 0000 0000 0000 0000 0000 0000 0000
000001a0: 0000 0000 0000 0000 0000 0000 0000 0000
000001b0: 0000 0000 0000 0000 0000 0000 0000 0000
000001c0: 0000 0000 0000 0000 0000 0000 0000 0000
000001d0: 0000 0000 0000 0000 0000 0000 0000 0000
000001e0: 0000 0000 0000 0000 0000 0000 0000 0000
000001f0: 0000 0000 0000 0000 0000 0000 0000 0000
0.0 0.0 0.0 0.0 0.0 0.0 0.0 0.0
0.0 0.0 0.0 0.0 0.0 0.0 0.0 0.0
0.0 0.0 0.0 0.0 0.0 0.0 0.0 0.0
0.0 0.0 0.0 0.0 0.0 0.0 0.0 0.0
0.0 0.0 0.0 0.0 0.0 0.0 0.0 0.0
0.0 0.0 0.0 0.0 0.0 0.0 0.0 0.0
0.0 0.0 0.0 0.0 0.0 0.0 0.0 0.0
0.0 0.0 0.0 0.0 0.0 0.0 0.0 0.0
0.0 0.0 0.0 0.0 0.0 0.0 0.0 0.0
0.0 0.0 0.0 0.0 0.0 0.0 0.0 0.0
0.0 0.0 0.0 0.0 0.0 0.0 0.0 0.0
0.0 0.0 0.0 0.0 0.0 0.0 0.0 0.0
0.0 0.0 0.0 0.0 0.0 0.0 0.0 0.0
0.0 0.0 0.0 0.0 0.0 0.0 0.0 0.0
0.0 0.0 0.0 0.0 0.0 0.0 0.0 0.0
0.0 0.0 0.0 0.0 0.0 0.0 0.0 0.0

network_body._body_endoder.seq_layers.2.weight f4 [128, 128]
00000000: bc0f f8bd 550b 61bd 04a9 5fbd 1fd1 5ebc
00000010: fc58 f4bd 9c5b af3d c7e3 fabd 512c 2e3e
00000020: 5005 8cbd b932 6d3d a739 993c f489 c8bd
00000030: 65cb 403d 69cf 163e e69c 1dbe 2dfd 83bc
00000040: 77ff 8cbd bfde ae3d 6b98 b5bd b27d 18be
00000050: 92bf b53d 7e07 6bbe c9da 99bd 10a5 af3c
00000060: 7d27 7bbd 29ad 6dbd 9c38 9bbd 1b09 d53c
00000070: ff63 7fbd abdb 603c 3b3d ebba 09b5 dfbd
00000080: c07d 2bbd 3e31 04bd f685 da3c f178 9bbd
00000090: ca60 3fbc 5679 673d 299f 723d b7fc f9bd
000000a0: c971 60bd 9ef7 6b3c e5c8 9abd adbd 363b
000000b0: 7054 f7bd 9f3e c13d 9d63 65bd 62c4 a83c
000000c0: 8436 b03c dc42 a03c 8d8d 023d 6152 7d3d
000000d0: c6f6 8abc 8a53 80bd 8a4b 943d be70 133e
000000e0: f3a2 df3c f7dc e3bd 4d98 3cbd d6fd 05bd
000000f0: 7566 34be bf73 00bd 2be2 5cbd 9032 5cbd
00000100: 0bda 1b3d 073e 62bb 8e47 a53d 28f4 1d3e
00000110: 5657 e4bb f8d0 ba39 9e37 06be d42c 96bd
00000120: acbc b83d 0517 90bd 3090 963c d4fc b43d
00000130: 3710 f23d 8876 a63d 958a 93bc 5928 e73d
00000140: 1372 01bd e9a7 26bd 438b 7b3c 3cc0 b4bd
00000150: 8420 a83d 043f 51bd 5ab6 16bc f9c4 8d3d
00000160: 23db f23d 7ad1 af3d be60 0fbb 630b 19bc
00000170: dc80 cc3d fd25 55be 109d 923d 564c 833d
00000180: f151 d83c a477 78bd a328 783d 9ffc 22be
00000190: b17f dc3c 5d25 3ebe f64a 94bd 6a71 533d
000001a0: 4db9 9ebd 9dc3 00bc 1e03 0dbe 72e8 bf3d
000001b0: c92f c83c 0f6d 813c 43a7 573d 5406 443d
000001c0: 016f e33d d17f 7f3c dae2 eb3d 27a1 a3bc
000001d0: f67f 6d3d cd19 d1bd a1a1 483b 0876 30be
000001e0: f143 973d 96f9 ab3d fbec 6ebd ba4b b6bd
000001f0: 6017 8e3d e796 b13c 6c5e e23d f77c 913d
00000200: a368 913d 7992 273c 2aaa 643d c510 bd3b
00000210: c7fe d4bc 681f a93d 606d debc e351 5cbd
00000220: 78ae bdbd e593 dcbd e8c7 ab3c 4876 87bd
00000230: e755 6fbd e1ba 023c 0eca 9bbd 0f5d 2fbd
00000240: fd3c 7abd 9d5d c5bb 6af8 dc3d d22b a8bd
00000250: 08df 06bd 1937 57bd fd60 c53d 6530 ffbd
00000260: af09 023b 3dd9 a23d c7fa 693b d3b8 a73c
00000270: e3c5 1b3e c47f 02be 9e6f d83c 4ece 533d
00000280: 0ef3 bebb dc86 f3bd 63a1 dd3d 91c1 a6bd
00000290: 4d9e adba aff5 86bd 39c4 353d c2aa b23d
000002a0: 5799 e9bd 9381 16be fc6f fabd 878c 5cbc
000002b0: b29b babd 90af cf3d b1e2 e7bd ff8b 7a3e
000002c0: 0a8a 083d ba8c 393e 13e8 bb3d ece3 a13c
000002d0: 8661 9ebd dbf7 49bd 0a31 a73d cd1a 403e
000002e0: 5fb0 2c3d 01c3 113e d1ee 303c be96 2c3d
000002f0: a8c2 563c 6f8d f93d e69c bf3d 31e4 f3ba
00000300: b065 ae3d f458 143e b63b 44be 4658 cb3c
00000310: ffff e9bd 4a10 733e f511 5cbd d056 a13c
00000320: 6886 4a3d ff1d b93d 7bb3 ecbc 2019 06be
00000330: aeee b3bc affe 3e3d 27c6 27bd 08ca b53d
00000340: 3772 03be bd9a 663d 0b17 fb3d 6238 383e
00000350: a4ee 6dbb c636 20be f3e8 37bd 06fd dd3d
00000360: 903f d23c f1c4 b53d f589 b1bc cba2 5c3d
00000370: 8dfd 6bbd eb85 96bb 1b0a fa3d a314 b4bd
00000380: d247 083e a7bf 343d 401d 863d 302d c73c
00000390: 1a97 ad3a 2956 26bd 3c77 a03d 8612 a13c
000003a0: e392 e53d 0cf2 23bc 9d5b 463d 2b39 923c
000003b0: c9d9 963c 9bc4 f5bd 5f20 0f3e bd81 4ebd
000003c0: 763d 543b 4380 2fbd 4122 4a3c 6438 2f3c
000003d0: bfe6 90bd 5c17 d53c 1eb8 08bc 4a47 453c
000003e0: 10b3 b53d 5231 893d b691 3bbd 6969 853d
000003f0: 1f48 863d c6ae 9abd 9ae9 1b3e 8759 8c3d
-0.12112376 -0.054942448 -0.054604545 -0.013599663 -0.11931035 0.08562395 -0.12250476 0.17009093
-0.06836951 0.0579097 0.018704249 -0.097919375 0.047068972 0.14727558 -0.15391883 -0.016111935
-0.068846636 0.08538579 -0.08866962 -0.14891699 0.0887443 -0.22952077 -0.07512433 0.021441013
-0.061316956 -0.058026467 -0.07579157 0.026005318 -0.062351223 0.013724248 -0.0017947325 -0.109232016
-0.04186797 -0.032273524 0.026675206 -0.07591427 -0.011680791 0.0565122 0.05923382 -0.12206405
-0.054796014 0.014402298 -0.07557849 0.0027884052 -0.12076652 0.09435772 -0.0560032 0.020601455
0.02151037 0.019563131 0.031873275 0.06184614 -0.016963374 -0.06265934 0.072409704 0.14398476
0.02729938 -0.1112613 -0.046043683 -0.03271278 -0.1761721 -0.031360384 -0.053926628 -0.053759158
0.03804974 -0.0034521834 0.080702886 0.1542517 -0.006968419 0.00035632378 -0.13107154 -0.07332769
0.09020361 -0.070356406 0.0183793 0.08837286 0.11819499 0.08128077 -0.018010417 0.112869926
-0.03160293 -0.040687475 0.015353027 -0.08825728 0.08209327 -0.051085487 -0.009198749 0.06922335
0.11858203 0.08584876 -0.0021877731 -0.009341094 0.099855155 -0.20815273 0.071588635 0.06411044
0.02640626 -0.060660973 0.06058563 -0.1591668 0.026916357 -0.1856894 -0.0724086 0.051621832
-0.07750187 -0.007859138 -0.1377072 0.09370507 0.024436848 0.015799074 0.052649748 0.047857597
0.11105157 0.015594439 0.11517878 -0.019974304 0.05798336 -0.10209999 0.0030613916 -0.17232525
0.07386006 0.08397214 -0.05833147 -0.089011624 0.06938052 0.021678401 0.11053166 0.07103913
0.07100036 0.010227793 0.055826344 0.0057698213 -0.026000394 0.082579434 -0.027151763 -0.05378903
-0.09261793 -0.10770396 0.020969346 -0.06614357 -0.058431532 0.007979126 -0.07606898 -0.042813357
-0.06109332 -0.0060231225 0.10789569 -0.08211483 -0.032927543 -0.05254278 0.0963764 -0.124604024
0.0019842198 0.07951591 0.0035702453 0.020473873 0.15212207 -0.12744051 0.02642041 0.05171042
-0.005827314 -0.11890957 0.10821798 -0.081423886 -0.001324603 -0.06589829 0.044376586 0.08723976
-0.114062004 -0.14697866 -0.122283906 -0.013461239 -0.09111728 0.10140908 -0.11322535 0.24467467
0.03333477 0.18120089 0.09175124 0.019762002 -0.07733445 -0.04930864 0.0816365 0.18760224
0.042160388 0.14234544 0.010799126 0.042135946 0.013107933 0.121851794 0.09356098 -0.0018607435
0.08515489 0.14487058 -0.19163403 0.024822365 -0.114257805 0.23736683 -0.053728063 0.019694716
0.049444586 0.090389244 -0.028894177 -0.13095522 -0.021964397 0.046629604 -0.040960457 0.08876425
-0.12836538 0.056299914 0.122602545 0.17990258 -0.003630557 -0.15645894 -0.044899892 0.10839276
0.025665075 0.08875454 -0.021672228 0.05386619 -0.05761485 -0.004593601 0.12208959 -0.08792999
0.13308647 0.044128086 0.06548548 0.02431354 0.0013243884 -0.040609512 0.07835242 0.019662153
0.11209657 -0.010006439 0.048427213 0.017849525 0.018414395 -0.1200039 0.13977192 -0.050416697
0.0032385266 -0.04284693 0.012337268 0.010694597 -0.07075261 0.026012115 -0.008344678 0.012040922
0.08872044 0.0669886 -0.045793258 0.06514246 0.06556725 -0.07552867 0.1522583 0.068530135

network_body._body_endoder.seq_layers.2.bias f4 [128]
00000000: 0000 0000 0000 0000 0000 0000 0000 0000
00000010: 0000 0000 0000 0000 0000 0000 0000 0000
00000020: 0000 0000 0000 0000 0000 0000 0000 0000
00000030: 0000 0000 0000 0000 0000 0000 0000 0000
00000040: 0000 0000 0000 0000 0000 0000 0000 0000
00000050: 0000 0000 0000 0000 0000 0000 0000 0000
00000060: 0000 0000 0000 0000 0000 0000 0000 0000
00000070: 0000 0000 0000 0000 0000 0000 0000 0000
00000080: 0000 0000 0000 0000 0000 0000 0000 0000
00000090: 0000 0000 0000 0000 0000 0000 0000 0000
000000a0: 0000 0000 0000 0000 0000 0000 0000 0000
000000b0: 0000 0000 0000 0000 0000 0000 0000 0000
000000c0: 0000 0000 0000 0000 0000 0000 0000 0000
000000d0: 0000 0000 0000 0000 0000 0000 0000 0000
000000e0: 0000 0000 0000 0000 0000 0000 0000 0000
000000f0: 0000 0000 0000 0000 0000 0000 0000 0000
00000100: 0000 0000 0000 0000 0000 0000 0000 0000
00000110: 0000 0000 0000 0000 0000 0000 0000 0000
00000120: 0000 0000 0000 0000 0000 0000 0000 0000
00000130: 0000 0000 0000 0000 0000 0000 0000 0000
00000140: 0000 0000 0000 0000 0000 0000 0000 0000
00000150: 0000 0000 0000 0000 0000 0000 0000 0000
00000160: 0000 0000 0000 0000 0000 0000 0000 0000
00000170: 0000 0000 0000 0000 0000 0000 0000 0000
00000180: 0000 0000 0000 0000 0000 0000 0000 0000
00000190: 0000 0000 0000 0000 0000 0000 0000 0000
000001a0: 0000 0000 0000 0000 0000 0000 0000 0000
000001b0: 0000 0000 0000 0000 0000 0000 0000 0000
000001c0: 0000 0000 0000 0000 0000 0000 0000 0000
000001d0: 0000 0000 0000 0000 0000 0000 0000 0000
000001e0: 0000 0000 0000 0000 0000 0000 0000 0000
000001f0: 0000 0000 0000 0000 0000 0000 0000 0000
0.0 0.0 0.0 0.0 0.0 0.0 0.0 0.0
0.0 0.0 0.0 0.0 0.0 0.0 0.0 0.0
0.0 0.0 0.0 0.0 0.0 0.0 0.0 0.0
0.0 0.0 0.0 0.0 0.0 0.0 0.0 0.0
0.0 0.0 0.0 0.0 0.0 0.0 0.0 0.0
0.0 0.0 0.0 0.0 0.0 0.0 0.0 0.0
0.0 0.0 0.0 0.0 0.0 0.0 0.0 0.0
0.0 0.0 0.0 0.0 0.0 0.0 0.0 0.0
0.0 0.0 0.0 0.0 0.0 0.0 0.0 0.0
0.0 0.0 0.0 0.0 0.0 0.0 0.0 0.0
0.0 0.0 0.0 0.0 0.0 0.0 0.0 0.0
0.0 0.0 0.0 0.0 0.0 0.0 0.0 0.0
0.0 0.0 0.0 0.0 0.0 0.0 0.0 0.0
0.0 0.0 0.0 0.0 0.0 0.0 0.0 0.0
0.0 0.0 0.0 0.0 0.0 0.0 0.0 0.0
0.0 0.0 0.0 0.0 0.0 0.0 0.0 0.0

action_model._discrete_distribution.branches.0.weight f4 [2, 128]
00000000: 08a8 443b aed4 2c3c 27ad b439 63ea c93b
00000010: 2bb3 423c 6b51 da3b f537 c9bc dffa 85bb
00000020: 353d 603c f904 303b 8c1c a93b 1b38 18bc
00000030: a70f 6e3c 862c 10bb c35a 71bb 3c12 1f3c
00000040: 9133 233c 6b71 0ebb 9df6 393c 6271 433c
00000050: a7a6 0a3c da76 a53a 7e09 bd3b 6285 213c
00000060: 9098 6f3c bf16 c5ba fdb4 e7ba 693c 3aba
00000070: 0ee7 c93b d5dd 253c 6b49 8f3c e165 2cbc
00000080: 1388 8eba a7dc ffb8 7eb1 33bb a1d1 963c
00000090: 5be8 66bb d206 d5bb da07 efb9 ba7b 4ebb
000000a0: f2b6 7dbc 2246 d7bb 9c6c ab3a 62b7 33bc
000000b0: 4081 fdbb d82f 53bb 2fee 2f3c 7fb6 f93b
000000c0: 2ef9 26bc f66f b1ba 82fb dbba 96c7 25bb
000000d0: 6c29 c63b 3336 94bc bfa4 87bb b403 85bc
000000e0: 27dc 1fbc 5719 2e3c 7ba8 2a3c f06e 9839
000000f0: e808 6f3c e979 033b a057 ad3b dfb5 7bbc
00000100: c341 a5bb 5c5e 823c 275d 493c 122f 9d39
00000110: 787e a8bb 98a0 5b3c 03c1 5d3b 1f72 6aba
00000120: d1eb b4bb 43d0 17bb 95cc 12bc fb68 253b
00000130: 707d bdba 42ff 2abc 23e6 1ebc 55c0 ecba
00000140: 6b7a 0dbc 58e2 92bb 0133 35bb f0d1 823a
00000150: e6b6 b6bb afc2 eeb9 5b93 9e3b ccf6 bc3b
00000160: 2b59 3e3c 13b2 793b ae4c 3d3c bb42 bfbb
00000170: ba46 a53b cd79 7f3c 31c8 b13b eac1 6cba
00000180: 6ba2 38bc 207e 703c f315 2a3b bbc4 c239
00000190: 3e5e a43a 5b6d 12bc bdc8 c7ba 2ad3 1abc
000001a0: 6f23 e8bb 5134 8e3b 860e 8abb 5753 c7bb
000001b0: ffe4 7f3b eab9 efbb 9ba1 e63b c8a5 75ba
000001c0: d851 b0bb ef62 be3b 23f3 f2ba 86f6 12bb
000001d0: 727c c2ba b5a2 29bc dd50 683c 2fab abbb
000001e0: 3718 f9ba d7ac c3bb 6505 ec3b 4c5b 8c3a
000001f0: 2f44 9d3c 932b 58bb a957 a83b 73b5 6d3a
00000200: 13e6 613c d8bd fe3a fb3f 973b 57ce 893b
00000210: 406e 80bb eb2b 4bbc 9d8b e73a 94fb 213c
00000220: f4c3 803c 4f4d c63a e26b eebb 4d59 5bbb
00000230: 2bc0 fd3a 5bef 03bc 607a 943b 1f98 a23a
00000240: 3056 5ebb f148 233b faaf 313c a2e4 92bb
00000250: 101c 203b 69df 013c cbf1 98bc 0a4e cebb
00000260: 2bf6 213b 3f83 bbbc 9412 9a3a 3d74 17bc
00000270: 0264 bcbb 3d14 f53b 0f52 173c 0fc3 503b
00000280: 9387 d4ba a0dc bc3c 9b68 593c 9f89 acbb
00000290: 87e2 5c3c 651b a0bb e53d f23b bcb8 8c38
000002a0: 70c6 c4bb ebcb 353c 2f14 543c d5e4 56bb
000002b0: 6327 b5bb fb7c 2e3c 823b e33b 07e4 01bc
000002c0: aa03 f13b bdd2 f4bb 6871 563b 820a 2ebb
000002d0: e444 44bc 0240 663c 9bb9 f83a 5a8f b23b
000002e0: a940 c4bb 3517 a13b c7cb 613a 72af 59bc
000002f0: 17d8 0e3b a58f 2f3c 5771 a83b 35ec 073c
00000300: dbe0 403b 8801 36bb 47ae 0e3c 0821 1d3a
00000310: b29f 853b 53a0 263c 1861 87bc 8f23 8eba
00000320: 836a 7f3b 0add ec39 3d18 003c 2cd6 96ba
00000330: 3862 543c fafd df3a a722 26bb e13e 013c
00000340: d75c 5b3b 7393 23bc 58dc 9b3c 4843 483b
00000350: 5812 5a3b aac7 8b3b ef45 50bc 178e 6b3b
00000360: 4f53 3f3a 33e2 fd3b 47b7 aebb 1326 a6bb
00000370: acab 493c 4b21 9c3a cef5 c0ba 1bec 21bc
00000380: 0335 e73b 0d74 d3b9 5f14 13bc 197f 0fbc
00000390: 6a18 02bc 99e0 c6bb aa9a 583c f7f3 133a
000003a0: b361 16bc 6546 04bc a6f0 473c 65bf 85bb
000003b0: 180d 6ebc 5042 11bc f31a 29b9 7be5 303c
000003c0: bdf4 a73b 8766 3fbc f2fb 49bb f73c 40bb
000003d0: 009c 8c3c 956c 0bbc 70cc babb 8288 f7bb
000003e0: a281 9f3b 38cd 1b3c 8ff2 0d3b 43f7 28bc
000003f0: 59c9 c73b 6898 583c 7440 abbb 43c9 cabb
0.003000738 0.010548754 0.00034461284 0.0061619743 0.011883537 0.006662538 -0.024562815 -0.004088744
0.013686468 0.0026858433 0.0051608738 -0.00929072 0.014530099 -0.0021999194 -0.003682778 0.009708937
0.009961025 -0.0021735083 0.011350301 0.011928888 0.008462585 0.0012623922 0.005768954 0.009858461
0.014623776 -0.0015036686 -0.001767784 -0.0007104339 0.006161577 0.01012369 0.017491063 -0.010522337
-0.0010874294 -0.00012200447 -0.0027419026 0.018410506 -0.003523371 -0.006501057 -0.00045591482 -0.0031506852
-0.015485512 -0.00656964 0.0013078633 -0.010969015 -0.007736355 -0.0032224562 0.01073794 0.007620632
-0.010191245 -0.0013537395 -0.0016783329 -0.0025295964 0.0060474183 -0.01809225 -0.0041395123 -0.016237117
-0.009757078 0.010626159 0.010416145 0.00029074354 0.014589526 0.0020061678 0.0052899867 -0.015363186
-0.00504324 0.015914135 0.012290276 0.00029980444 -0.0051420294 0.013404988 0.0033836968 -0.0008943397
-0.0055212756 -0.0023164905 -0.008959909 0.0025239575 -0.0014456939 -0.010436835 -0.009698424 -0.001806269
-0.008635144 -0.0044825487 -0.002764881 0.0009980779 -0.0055760024 -0.00045539948 0.0048393435 0.005766725
0.011617939 0.0038100525 0.011553926 -0.0058368123 0.0050438317 0.015593004 0.005425476 -0.0009031581
-0.011269192 0.014678508 0.0025953024 0.0003714914 0.0012540293 -0.008937205 -0.001524232 -0.0094497595
-0.007084302 0.0043397327 -0.004213157 -0.006082933 0.0039046404 -0.007315864 0.007038308 -0.00093707116
-0.0053808503 0.0058101336 -0.0018535595 -0.0022424771 -0.0014838113 -0.010353734 0.014179436 -0.0052389125
-0.0019004409 -0.005971532 0.0072027915 0.0010708361 0.019197552 -0.0032984957 0.005137403 0.00090678706
0.013787764 0.001943524 0.0046157814 0.004205506 -0.003919393 -0.012400608 0.0017665509 0.009886641
0.015718438 0.0015129241 -0.007276044 -0.0033469975 0.0019359639 -0.008052672 0.00453119 0.0012404955
-0.0033925883 0.0024915303 0.010845179 -0.0044828216 0.002443079 0.0079268 -0.018669983 -0.006295924
0.0024713378 -0.022889731 0.0011754804 -0.009244022 -0.0057492265 0.007479219 0.009235873 0.0031854545
-0.0016214721 0.023054421 0.013269569 -0.005265429 0.013481743 -0.004886078 0.0073926323 6.71013e-05
-0.006005101 0.011095981 0.012944265 -0.0032790203 -0.005528377 0.010649915 0.006934584 -0.007927901
0.007355173 -0.007471411 0.0032721404 -0.0026556556 -0.011979315 0.014053347 0.0018976213 0.0054492177
-0.0059891534 0.0049160966 0.0008613434 -0.013286458 0.002179628 0.0107154 0.0051404643 0.008296062
0.00294309 -0.0027771909 0.008708543 0.0005993997 0.004077875 0.01017006 -0.01652579 -0.0010844338
0.0038973398 0.00045178115 0.007818279 -0.001150792 0.01296287 0.0017089241 -0.0025350244 0.007888527
0.0033472085 -0.009983885 0.019025967 0.003055768 0.0033275094 0.004265745 -0.012711986 0.0035942846
0.0007298486 0.0077479123 -0.005331907 -0.005070457 0.012308996 0.0011911778 -0.0014721693 -0.009882952
0.00705588 -0.0004033152 -0.008977025 -0.00875833 -0.007940391 -0.0060692546 0.013220469 0.00056439586
-0.009178567 -0.008073424 0.012203371 -0.004081654 -0.014529489 -0.008865908 -0.00016127135 0.0107969
0.0051256106 -0.011682159 -0.0030820337 -0.0029333213 0.01716423 -0.008509775 -0.0057006404 -0.007554115
0.0048677484 0.009509377 0.0021659469 -0.010312858 0.0060970006 0.01321993 -0.0052261893 -0.006188543

action_model._discrete_distribution.branches.0.bias f4 [2]
00000000: 0000 0000 0000 0000
0.0 0.0

action_model._discrete_distribution.branches.1.weight f4 [2, 128]
00000000: 66e4 8fbc a63b 163c bfe2 0e3c fea8 2ebc
00000010: 534a 7dba 11a9 983c 6e11 83bb f992 2a3c
00000020: fb7f 19bb af80 2bbb 670b 8d3c 001b 22bc
00000030: 5637 a63b eef7 823b cff6 243b aace 283b
00000040: b394 893b 0632 afb5 6081 933b 72f4 3f3b
00000050: 9897 6e3b 4041 48bc ad91 50bc 3b35 5ebc
00000060: 2bf5 a6bc 3f27 573b 248c 86bc d80e 8a3b
00000070: 4532 c2bb 843b 1f3c e602 003c ef9d 123c
00000080: d317 8e3b 7e44 4b3b 9da2 d83b b506 36bb
00000090: a64b 953c 5758 b2b9 9a3e 0d3b d3b1 2ebc
000000a0: 8c8e 82bc 9859 febb 402a 283c 2462 3cbc
000000b0: c006 603a 6ba7 4bbc 92a9 0a3c d301 333c
000000c0: b054 e93b eb8a 8f3c dfa7 a1bc 3231 1a3b
000000d0: 4cf2 373b 5c5e b8bb 035d cf3b d014 ecbb
000000e0: ef03 b4bb da8b 17bc ec50 3eba b4a2 1b3c
000000f0: a7b8 433c be01 9b3c 02e9 6e3b 8528 13ba
00000100: d8d2 a73b 1f6c 8e3b 3b30 2bbc b978 0c39
00000110: c3da 99bb 263e 1e39 f8ef d1bb f2fb 0639
00000120: e7bb 3a3c e623 1bbc f7d9 b2ba 9dd2 9939
00000130: df22 02bc 0f8f abbb 3355 cdba 632a 8e3b
00000140: fa9f a5ba 1a98 e83c b3f0 223c 89d1 0dbc
00000150: dfdb 7f3c c177 9b3b 64ea c5bb fb93 94ba
00000160: 9e10 323b 07d8 d53b 47f5 9339 d811 58bb
00000170: ede5 d53c 27be 3c3c a8df 54bc 4f43 3d3b
00000180: 8036 74bb a3fe 56bc 17c1 7b3b d42b 28bc
00000190: ef51 4d3c 9343 fc3b 3ac5 e43b ed0d 2abb
000001a0: e1e8 b3bc c31f afbb bf87 cbba 89d1 ca3b
000001b0: d881 08bc 512b 12bc c96e 173c e9b0 b0b9
000001c0: 3719 7d3b 5f42 693b 04ed 18bc 8d35 763b
000001d0: b835 513b a0f2 693c 729b 8fbc ff48 133b
000001e0: fa15 5bb8 d907 13bc 0b92 9dba 7c08 37bc
000001f0: 7b0f 093c 79d2 b8bb 53ca 27bc 7a82 fc36
00000200: f5dc a23a bce3 3ebb 0530 fab9 1f15 e23b
00000210: 53ef 7cbc 0f20 b83b 3d92 fcbb 87a0 6abb
00000220: 183e 873c 275b 2b3b e9d5 0d3b 2169 073c
00000230: ffb0 063a 4d11 82ba 4804 53bc 43a5 35bb
00000240: 0b22 ad3a 97b5 e2b9 0ba3 693b bc04 3c3c
00000250: 7198 323c 626e 243c cfb8 103c 3044 6b3b
00000260: 760c a93c 0f6e a1bc 1709 903a f726 ca3a
00000270: f7d1 7cba 2aac 6dbb 8b96 8dbc 90a4 3ebc
00000280: 3f13 48bb 3e74 173c 4f06 0abc affa 8c39
00000290: b3b4 8dbb 05e9 d3ba 8754 5cbb 55d5 beba
000002a0: 47c8 4fbc 52fb 783b a450 3a3b 4156 813b
000002b0: a050 22bc ad1b ee39 3004 743c 2fbe 9bbc
000002c0: b250 00bc 7c38 c3bb 0b00 783b 5708 2f3c
000002d0: 86d6 873c ea5b 67bc bbfb 4dbc 82a7 f5bb
000002e0: 9ab3 9abb cdaa adbb f617 ac3b 827c 23bb
000002f0: 849f 2ebc f795 efbb 07ea 2f3c 28d3 5cbb
00000300: eb5c c6bc bdb4 b9bb 47d6 e7ba 7fa3 273a
00000310: 6fe9 5ebc 20d0 5c3a cfa6 fcbb ff01 fc3b
00000320: 4dbf 1f3a 2400 96bb 755c 363c db45 053c
00000330: 0ea9 2d39 d71c ca3b b7a1 123c 4f0b 1c3b
00000340: d784 533c 0ffb 1f3c 9574 0c3c 1f89 33ba
00000350: bdb0 94ba 865e a0bc be1c 87ba 2ff4 6f3c
00000360: 8717 f4bb 5baa 973a 2d96 fa3b 4891 3c3c
00000370: 4789 82bc 8f34 b43a 7a57 e53b 8854 2dbc
00000380: 7473 adbb 2ba9 873a 47d4 193c 77a3 d3ba
00000390: ebf2 2e3c 809c 61bb e39f b3bb 09ce b7ba
000003a0: e92c 1f3c e261 cdbb d4eb 36bc 7960 14bc
000003b0: 0b09 6a3c ebc4 ff39 2f29 913c cc8a c53b
000003c0: 16fb 363c 7dff 7b3b 4f7d b6bb 9148 043a
000003d0: 5551 a43a f929 923b 1b7a acbc 6fd9 1fbc
000003e0: faf1 37ba 1f84 d1bb b07b 9fbb 3399 cfba
000003f0: 7501 323b 98fb 633b 885e 24bc 5c10 b13b
-0.017564964 0.009169495 0.008721053 -0.010660408 -0.0009662259 0.018635305 -0.0039998805 0.010411018
-0.002342223 -0.002616923 0.017217351 -0.009894133 0.0050725145 0.0039968407 0.0025171523 0.0025757947
0.0041986345 -1.3053075e-06 0.0045015067 0.0029289988 0.0036406275 -0.012222588 -0.012730044 -0.013562496
-0.020380577 0.003282979 -0.016424246 0.0042131953 -0.0059264028 0.0097187795 0.007813191 0.008948787
0.004336336 0.0031016166 0.006611182 -0.0027774994 0.018224549 -0.00034016624 0.0021552206 -0.010662514
-0.015937112 -0.0077621453 0.010263979 -0.011498008 0.00085459277 -0.012430052 0.00846328 0.010925728
0.0071206912 0.017522296 -0.019733367 0.0023527858 0.0028068004 -0.005626483 0.0063282265 -0.0072046295
-0.005493633 -0.009249652 -0.0007259983 0.009499241 0.01194588 0.01892173 0.0036454801 -0.0005613643
0.00512157 0.004346385 -0.010448511 0.00013396413 -0.004695268 0.00015091206 -0.0064067803 0.00012873093
0.0113973385 -0.009469008 -0.0013645281 0.00029339353 -0.007942884 -0.00523556 -0.001566565 0.004338549
-0.0012636178 0.02839284 0.0099450825 -0.008655914 0.015616386 0.0047445004 -0.0060399044 -0.0011335606
0.002717055 0.0065259966 0.0002822077 -0.003296962 0.026110614 0.011519945 -0.012992777 0.002887923
-0.003726393 -0.013122234 0.003841465 -0.010264356 0.0125317415 0.007698485 0.006981519 -0.0025948242
-0.021961631 -0.0053443625 -0.0015528126 0.0061895293 -0.008331738 -0.00892146 0.009242722 -0.00033701144
0.0038619766 0.0035592539 -0.009333853 0.003756854 0.0031922888 0.014279038 -0.017530177 0.002247393
-5.2234136e-05 -0.008974039 -0.0012021674 -0.011171456 0.008365507 -0.0056403247 -0.010241109 7.5253747e-06
0.001242547 -0.002912744 -0.00047719493 0.0068994905 -0.015437919 0.005619056 -0.0077078626 -0.0035801248
0.0165091 0.002614686 0.0021642393 0.008264811 0.0005138069 -0.0009923369 -0.012879439 -0.0027716912
0.0013208998 -0.00043241374 0.003565016 0.011475738 0.010900603 0.010036083 0.008833124 0.0035898797
0.020635825 -0.0197058 0.0010989037 0.0015422989 -0.00096443243 -0.0036265948 -0.017283699 -0.011635914
-0.003052905 0.009244023 -0.008424356 0.00026889655 -0.0043245195 -0.0016167468 -0.0033619718 -0.0014559428
-0.012682027 0.0037991595 0.0028429413 0.00394705 -0.009906918 0.00045415518 0.0148935765 -0.019011585
-0.007831739 -0.005957661 0.0037841822 0.010683141 0.016581785 -0.014121035 -0.012572224 -0.007496775
-0.004721117 -0.005299902 0.00525188 -0.0024946039 -0.010658149 -0.0073115784 0.010736949 -0.0033695195
-0.024214229 -0.0056672976 -0.0017687761 0.0006394907 -0.01360546 0.0008423347 -0.007710315 0.0076906676
0.00060938747 -0.0045776535 0.011130442 0.008134331 0.00016561543 0.0061679888 0.008949689 0.0023810451
0.012910089 0.009764447 0.008572717 -0.0006848741 -0.0011344176 -0.019576322 -0.0010308248 0.01464562
-0.0074490937 0.0011571156 0.007647297 0.011509247 -0.0159346 0.0013748574 0.0069989534 -0.010579236
-0.005293304 0.0010350099 0.00938899 -0.0016146739 0.010678033 -0.0034425557 -0.0054817065 -0.0014023195
0.009715297 -0.006267772 -0.011164624 -0.009056204 0.014284383 0.00048784105 0.017719833 0.006028509
0.011168262 0.0038451843 -0.005569137 0.00050462136 0.0012536446 0.00446057 -0.021054318 -0.00975643
-0.00070169533 -0.006393924 -0.0048670396 -0.0015838504 0.0027161513 0.0034787413 -0.010032304 0.0054035615

action_model._discrete_distribution.branches.1.bias f4 [2]
00000000: 0000 0000 0000 0000
0.0 0.0

action_model._discrete_distribution.branches.2.weight f4 [2, 128]
00000000: d539 63bc 2f77 fa3b 6cd3 9dbc 8b88 92bc
00000010: f14b 9e3a f399 203b 270e 363c 5797 19bc
00000020: bdac 8bbb ed6c 063c ca37 74b9 9244 4f3c
00000030: d723 52bc 57be bd3b b990 bfba aa0c d03b
00000040: 6b70 2f3c bdfb e839 0fc2 583c 14f4 203c
00000050: 6b99 f2bb f537 0bbc 3f1d 1ebc b52b 83bc
00000060: 4385 573b 9f15 52bb 8f9f 2fba 8ccb 47bc
00000070: 2fcc 2d3c dbc4 c03a 8ac1 e6b9 688d ef3a
00000080: 3751 beba 4eff a33a 53d0 873b c25c 38bc
00000090: 9a58 703b 4f98 a8b9 6d15 26bc 860b 253c
000000a0: 587c b03c c059 7bbc 1a67 6d39 9b5b b3bb
000000b0: 67d3 91bc 771c 9f3a cbf0 5d3b 4d29 5abc
000000c0: 4bd0 90bb 0cd0 15bb 833e 47bb f111 46bb
000000d0: 35c5 973c 3322 ac3b 9b0a 8f3b a5f8 ed3b
000000e0: 038e ceba f730 b13b 6728 143c e339 bbbb
000000f0: 91bd b03b 8f8f 42bb 795b 0fbc a0e9 f639
00000100: c774 523b ea67 03bb acb2 b13b 0ac3 a1bb
00000110: 5a76 16bc 6ffb 24bb 2103 8a3c efec 36bc
00000120: 5bde 313c e986 c23b 5f8c 483c dbc2 f3bb
00000130: 27d1 1fbc d4ad 943c 1af1 2bbb cc02 a73b
00000140: 9206 5d3c e354 53bb caa6 10bb 2b57 62bc
00000150: 8870 2f3c 5f4c 61ba 8a38 29bc b7f4 1cbb
00000160: 1ec4 1b3c d2e6 da3b 1283 26bb 2db8 f53b
00000170: 43b0 fa3b c69c 033c 9bad e0bb 3b7e 80bb
00000180: 21ed 05bc ada7 ad3a 3bbd c7bc b081 72bb
00000190: 8bc8 4d3b 64a4 2f3b 8bb3 87bc b719 833b
000001a0: f593 7ebb b297 dd3b e461 81bc 2e32 cb3b
000001b0: f226 963b f794 9d39 77f5 8f3b c68e 11bc
000001c0: 5f2f 3c3b 7d5b 3c3c 8fd3 d33b ef3b 90ba
000001d0: 2399 d13b ea40 78bc 81d5 843b 04dd 2d3c
000001e0: 8cca 013b 7992 96bb 2fac b4b9 edf8 fb3b
000001f0: 0868 41bb b3cf 98bb 32ab 89bc e724 0dbc
00000200: 5903 9e3b 52e6 383c a1e3 b33b 75cf 5239
00000210: 5b49 d4b9 4bd7 22bc af23 ab3a ea5f 0abc
00000220: ccb5 163c 303e 84bc 77e7 0a3c df10 eb3a
00000230: 1f2e 543c 3893 173b 86c9 c73a 7d2e 6d3b
00000240: 7fcb 443a c34f 94bb 40f2 c13b 9ace 9e3a
00000250: 2244 9e3a b3c7 e2bb d714 8dbb c228 54ba
00000260: a39f 4fbc 4fc2 b33c f7d9 c63b 1835 733c
00000270: 7a04 0f3b 4515 733b 9880 6fbb 9905 123b
00000280: 132a cebb 7133 053c 69c4 a93b 30f9 3fbc
00000290: 63fb 933b 4a84 d63a fbf3 2d3c 550a 7e3c
000002a0: 2079 0b3c fd5e 99bc fcce 943a e7ec b5bb
000002b0: 0789 e13b ac8f 98bb 4fe2 0ebb 8db3 fe3b
000002c0: e3a9 a8ba 6428 813b 8546 0f3a c14a acbb
000002d0: d3c8 3bbb 5dcb 3abc d930 31bb 0381 a8bb
000002e0: 1485 8bba ef4f 6f3b a5e8 7cbc b7d4 69bb
000002f0: fbd4 e2bb dcc0 ae3b 0f0e 4139 756e 13bb
00000300: bb09 253c 04c7 933b 47d2 12bc 796f 2d3c
00000310: bf0d 0cba d5a2 f5bb 3b6f baba 3df2 b43c
00000320: 1d8b b5bb 5235 d8bb d00d 52bb 70f0 a2bb
00000330: 9b42 093b 7f71 a9ba 7951 153c 1ff5 55bb
00000340: 7f72 773b eb2a 3c3b b583 84bb 53c2 363c
00000350: 738f 18bb bb7d 01bc 2fc0 163c 10b4 fe3b
00000360: 1740 943b 972e 69bc 8224 b83b 5195 8fbb
00000370: 1710 e9bb 9fdf 6c3b 5fd5 6ebc dbc2 b33b
00000380: a6a4 413b 63ba 84bb a124 283c 0791 e9bc
00000390: 0bdc 06bc bf89 ccbb 3e02 853a e745 4cbc
000003a0: bf92 f5bb 9dbb 703c 7bc4 d13b 8dd6 3fbc
000003b0: d05a a1bb 043f 4cba 384c dfba 6e46 443c
000003c0: 4728 003c 40ef 833c a32e 0bbc 6f47 d0bb
000003d0: 7d1b f13b 4a46 e7bb 63e8 063b 8f06 563b
000003e0: 6f15 293c 13e8 783b f6b4 b1ba 8638 843b
000003f0: b778 77bc 0a2c 54bb 3af9 10bc a1d9 aabc
-0.013868769 0.0076436023 -0.019265853 -0.017887374 0.0012077076 0.0024505823 0.011111773 -0.009374461
-0.0042625354 0.008204681 -0.00023290436 0.012650626 -0.012825928 0.0057905125 -0.0014615274 0.006349166
0.010707955 0.00044438048 0.013229861 0.009823818 -0.0074035428 -0.008497228 -0.0096505275 -0.016012052
0.0032885827 -0.0032056344 -0.00066994963 -0.012194525 0.010607763 0.0014707105 -0.00044013216 0.0018276395
-0.0014520054 0.0012512 0.004144707 -0.011252584 0.0036673904 -0.00032156936 -0.010136944 0.010073548
0.021543667 -0.015341222 0.0002264049 -0.0054735667 -0.017801 0.001213922 0.0033865448 -0.013315511
-0.0044193617 -0.0022859601 -0.003040225 -0.0030223096 0.018526653 0.0052531003 0.004365278 0.0072623068
-0.0015758876 0.0054074484 0.009042836 -0.0057136877 0.005393692 -0.0029687618 -0.008749836 0.0004709484
0.0032113062 -0.0020050951 0.0054229107 -0.0049365805 -0.009183491 -0.002517428 0.016847195 -0.011164888
0.010856236 0.0059364927 0.012240498 -0.007439 -0.009754456 0.018149294 -0.0026236237 0.005096769
0.013490336 -0.0032246641 -0.002207207 -0.013814728 0.010707982 -0.0008594449 -0.010328421 -0.0023949572
0.009507207 0.006680348 -0.0025407714 0.007498762 0.0076504066 0.008032983 -0.006856633 -0.003921298
-0.008174212 0.0013248824 -0.024382224 -0.003700357 0.003140005 0.0026800865 -0.016565105 0.004000868
-0.0038845513 0.0067624683 -0.015793748 0.0062010502 0.0045822794 0.0003005636 0.0043932754 -0.0088841375
0.0028714759 0.011496422 0.0064644287 -0.001100419 0.006396429 -0.0151521955 0.004053772 0.010611776
0.0019804565 -0.0045950976 -0.00034460562 0.0076895864 -0.002951147 -0.0046634316 -0.016805265 -0.008614755
0.0048221764 0.011285381 0.005489782 0.00020104444 -0.00040490445 -0.009939025 0.0013056899 -0.008445719
0.009198617 -0.016142935 0.008478037 0.0017934105 0.012950449 0.002312852 0.0015242554 0.003619104
0.000750713 -0.00452611 0.005918771 0.0012116015 0.0012074749 -0.0069207787 -0.004305463 -0.00080932316
-0.012672338 0.02194324 0.006068464 0.0148442015 0.0021822737 0.0037091535 -0.0036545154 0.0022281168
-0.0062916367 0.00812994 0.0051808846 -0.011717126 0.0045160516 0.001636633 0.0106172515 0.015505393
0.008512765 -0.018722052 0.001135319 -0.0055519226 0.00688279 -0.004655799 -0.002180237 0.007772869
-0.0012868013 0.0039415825 0.00054655253 -0.005257935 -0.0028653636 -0.011401025 -0.0027037172 -0.0051423325
-0.0010644519 0.003651615 -0.015436326 -0.0035679766 -0.006922362 0.005333049 0.00018411152 -0.0022496257
0.010073121 0.0045098085 -0.008961267 0.010585659 -0.00053426245 -0.0074962177 -0.0014223823 0.022088164
-0.0055402652 -0.006598153 -0.003205169 -0.00497251 0.002094424 -0.0012927501 0.009113663 -0.0032647324
0.0037757454 0.0028712105 -0.004044021 0.011154729 -0.0023278862 -0.007903512 0.009201094 0.00777293
0.0045242417 -0.014232299 0.0056195864 -0.0043818136 -0.0071125138 0.003614403 -0.014577239 0.005485875
0.00295476 -0.0040505393 0.010262639 -0.028511537 -0.008231173 -0.0062420066 0.0010147763 -0.012467838
-0.0074943 0.014693168 0.006401596 -0.011708868 -0.004924156 -0.00077913725 -0.0017036265 0.011979682
0.007822103 0.016105294 -0.008495006 -0.006356172 0.007358013 -0.0070579397 0.002058529 0.0032657718
0.010320052 0.0037980124 -0.0013557959 0.0040350584 -0.015104464 -0.0032374882 -0.008848483 -0.020855727

action_model._discrete_distribution.branches.2.bias f4 [2]
00000000: 0000 0000 0000 0000
0.0 0.0

action_model._discrete_distribution.branches.3.weight f4 [2, 128]
00000000: ecee 1bbc 7f43 243c 32a0 083b abda 82bc
00000010: 4b7e 52bc 5e3d c1bb 5608 a93b b44f 373b
00000020: 47d7 c53b 79bc 85ba bf98 bc3c 7708 edbb
00000030: 2748 473a 30f0 56bc 27b2 87bb 86ab 86bb
00000040: 724e d73a 0f85 a93c a56e 723b 098b 2cbc
00000050: 98e4 733c 7c1c a8bb 37d7 6fbb 2820 baba
00000060: fdeb f23b 4f7a 32bc b321 02bc f872 8cbb
00000070: 50cf 84bc a00e c7ba cbef 8bbb 4283 573c
00000080: 2f44 4ebb 33ac 00bc 2ae7 db3b f932 1d3c
00000090: 6894 10bc f0ce 7c3b ede5 ecbb 4ebd 283c
000000a0: 3394 0ebb aea3 23bc 33d1 f3bb c59f 80bc
000000b0: 401f 143c f5c5 b73b 82b7 c73b 93d7 9d3b
000000c0: 67cf 853c ef9d 1c3c 877f ec3b 2f7b 63bb
000000d0: a85c 6d3a d961 1fba d2e8 453c 43d0 813b
000000e0: c332 3cbb d221 53bc b067 59bc 4b3f 09bb
000000f0: d8c1 2f3a dbea 153c 7ae7 ba3b 24ef 183a
00000100: e398 efbb b60b 063b 480b 03ba e510 e63b
00000110: 69f5 30bc f78d 5a3b 0791 e2bb ff96 073b
00000120: fb8a aa3b c747 47bb 3b4b 99bb d7df 0dbc
00000130: e5ea adbb 4ee2 ad3b 8f50 f7bb adf5 3bbc
00000140: 3a87 f7bb d9c6 3c3c 4b5b b23b c5ff a739
00000150: 2760 473b 49e0 87bb 5605 15bc 8f5d 6bbb
00000160: d404 0a3c f809 d5bb e870 ff3b 7036 b5ba
00000170: 1c99 353b b74a 4cbc 8f73 ee3b 637c aa39
00000180: af5b 81bc 270e 78bb 2390 543c 9e2c 0dbc
00000190: da0d 153c f5ad 963c 1ff3 82bb 7364 5dbb
000001a0: 9b66 42bc 42fa df3b 4110 cc3a 4260 573b
000001b0: d953 1e3b 432a 293c 0ad5 0f3b 6f4c 183c
000001c0: 24e8 bdbc 4dd7 e7bb 4f7c 4d3b 5297 96bb
000001d0: e8af 24ba 9b41 edbb a67f 12bc 9fd6 fdbb
000001e0: 7419 293c a75e 03bc b231 773b b107 3e3c
000001f0: 82dc abbb 0f53 103c 2703 1f3b 9de1 f2ba
00000200: e02d 703c d0d8 693b 6df5 8d3c 1778 49bc
00000210: 1364 bd3b 4033 d9b9 51d3 a9bb a33a 5bbc
00000220: cb79 783c 1e52 9b3b 7682 c03b 3aa5 9eba
00000230: 72b6 62bb c662 273c 8fca ef3a b8b9 993b
00000240: 7cc4 3db9 bb6b 42bc d6e1 b3ba 78a3 053c
00000250: a75a e5bb c968 03bb 75be ef3b 3815 a73c
00000260: efcc e139 87d3 88bb 10df fc39 d334 d83a
00000270: e507 83bc 0968 a83b 5ba8 b33b 2b14 0f3c
00000280: 79ed 35bc 3f01 943c 8950 393c 2abf 7abc
00000290: 0535 3b3c e1b8 203c cbed e7ba b7f8 5ebc
000002a0: c842 73ba 4823 bcbb cffd b33c 6309 9e3b
000002b0: 77dd dabc 0f8a 1aba f442 82bc 70c6 df3b
000002c0: eae3 563c 1671 a5bc ade6 64bc 1757 6e3c
000002d0: 0a87 c3bb c308 8dbb 0a7e f83b 9b0f bb3a
000002e0: 2fa6 ccbb d8d4 0d3b 0475 413c 6e16 c1bb
000002f0: ef4b f3bb 74fb 073c 95cd b5bb 2814 093c
00000300: 0761 963c be14 ae3b d8a8 5b3b 931e 473c
00000310: df05 4b3c e7a0 1abc cd16 79bc 078a dfbb
00000320: f75d 2e3b 687a ddbc 147c 4039 c72d 083c
00000330: a3af d9bb 9f3e 91bb f5e9 da3b a732 94bc
00000340: bb1d 623c eb0f 43bb 9335 4739 1714 3c3c
00000350: 605a 5fbc 777c 2f3c 0cfe 98bc 039f 79bb
00000360: 9751 2a3c a289 b13b f062 9aba c43c b0bc
00000370: c8eb 7d3b 0b23 b1bb 20a8 82bc 233a 9abc
00000380: d79f b8bb 6569 b4bb 37ee fa3b 82a8 d43b
00000390: 6f37 ba3a ef62 103c 8c3f 09b9 7dac 98bb
000003a0: 10a8 883b adda f23a 533d e73b 64d5 03bb
000003b0: 2b3a 85bc 4989 0cbc 59f4 3cbc d0f0 3c3b
000003c0: 101f 513b 7d82 6abc 1bc0 903c 58a5 bebb
000003d0: fbc1 72bc 6308 653a 3b2e d1bb ed61 46bb
000003e0: 73d3 203c a837 e53b 2d57 36bc 126f aeb8
000003f0: f6fd 0d3c c376 a6bb ff24 623a ab8b 203c
-0.009517413 0.010025858 0.0020847437 -0.01597341 -0.012847493 -0.005897208 0.0051584644 0.002797109
0.006037626 -0.0010203264 0.023022054 -0.007233675 0.0007601999 -0.013118789 -0.0041411105 -0.0041098027
0.0016426577 0.02069333 0.0036992219 -0.010531195 0.014886044 -0.0051303487 -0.0036596784 -0.0014200257
0.007413386 -0.010893418 -0.007942605 -0.0042861663 -0.016212136 -0.0015186854 -0.004270529 0.013153853
-0.0031473746 -0.0078535555 0.0067109065 0.009594672 -0.008824445 0.0038575493 -0.0072295577 0.01029904
-0.0021755814 -0.009987755 -0.00744071 -0.015701184 0.009040654 0.005608315 0.006094874 0.004816958
0.016334249 0.009559139 0.007217351 -0.0034710874 0.00090546394 -0.0006079949 0.0120794345 0.0039615943
-0.002871678 -0.012886481 -0.01326935 -0.0020942267 0.0006704605 0.009150232 0.0057038637 0.00058339746
-0.0073119267 0.0020453758 -0.00049989345 0.007021057 -0.010800698 0.0033348778 -0.0069142613 0.0020689366
0.005204556 -0.0030407773 -0.0046781576 -0.008659325 -0.0053075426 0.0053065186 -0.007547445 -0.011472148
-0.007553962 0.011522018 0.005443012 0.00032043285 0.0030422301 -0.00414661 -0.0090955105 -0.003591392
0.008424003 -0.0065014325 0.007795442 -0.0013825428 0.0027709669 -0.012468985 0.0072769593 0.00032517602
-0.015790788 -0.0037850232 0.012973818 -0.008616595 0.009097541 0.018393496 -0.0039962674 -0.0033781796
-0.011865283 0.006835253 0.0015568809 0.003286377 0.0024158864 0.010325017 0.002194705 0.009295567
-0.023181982 -0.0070752264 0.0031354611 -0.0045956755 -0.00062823156 -0.007240487 -0.008941567 -0.007746532
0.01032101 -0.008018172 0.003771883 0.011598513 -0.0052447924 0.008808865 0.0024263354 -0.0018530373
0.014659375 0.003568221 0.017328942 -0.012296698 0.005779752 -0.0004142765 -0.0051826616 -0.013380679
0.015165756 0.0047400137 0.005874927 -0.0012103685 -0.003459361 0.0102164205 0.001829462 0.004691329
-0.0001809764 -0.011866505 -0.001372392 0.00815665 -0.006999332 -0.002005147 0.0073164054 0.02039586
0.00043068032 -0.0041756066 0.0004823138 0.0016495235 -0.015994975 0.005139355 0.005482716 0.008732836
-0.011103981 0.018067 0.011310705 -0.015304366 0.011426215 0.009809704 -0.0017694769 -0.013609103
-0.00092796655 -0.0057415105 0.021971611 0.0048228963 -0.02671693 -0.0005895206 -0.015901066 0.0068290755
0.013115862 -0.020195525 -0.013971013 0.014547131 -0.0059670256 -0.004304023 0.0075833844 0.0014271619
-0.0062453966 0.0021641757 0.011807684 -0.0058925664 -0.0074248235 0.008299697 -0.005548189 0.008366622
0.018356813 0.0053125313 0.0033517387 0.012153286 0.0123915365 -0.009437776 -0.01520319 -0.006821874
0.00266063 -0.027035907 0.0001835677 0.008311695 -0.006643252 -0.004432514 0.006680722 -0.01809056
0.013801034 -0.0029764127 0.00018998077 0.011479399 -0.013632387 0.010710827 -0.018675826 -0.0038089163
0.010395429 0.0054180184 -0.0011778753 -0.02151335 0.0038745273 -0.005405789 -0.015949309 -0.01882655
-0.005634289 -0.005505728 0.007657792 0.0064898143 0.0014207194 0.00881265 -0.00013089011 -0.004659234
0.0041704252 0.0018528305 0.007056871 -0.0020116204 -0.016263088 -0.008577653 -0.011532866 0.002883006
0.0031909384 -0.014313337 0.017669728 -0.0058180504 -0.014816756 0.00087369065 -0.006383685 -0.003027077
0.009816038 0.00699516 -0.011129183 -8.317655e-05 0.008666506 -0.0050800755 0.00086267287 0.009798924

action_model._discrete_distribution.branches.3.bias f4 [2]
00000000: 0000 0000 0000 0000
0.0 0.0

action_model._discrete_distribution.branches.4.weight f4 [2, 128]
00000000: 84ca 9ebb ed08 a73b ad4b 69bc 4a4d ec3b
00000010: f304 5f3b bb84 493b 657a 703c b3ea 01bc
00000020: 5055 2e3c c388 83ba 32ad cf3b 4366 90bb
00000030: 1714 8fba 23c9 80bb a71c 463c a2be 8ebb
00000040: 975a 593b e7ed dfbb 2d00 083b b748 163b
00000050: a3d1 1b3b 816e 033c b32b 37bb 0d41 2a3c
00000060: 155a 00bc 2f6e f73b 0509 15bc a51a 8a3c
00000070: c197 2a3c 9728 ce3b fecc ab3b c82b 663c
00000080: af02 6e3c 7d9c 833c 8d23 f1bb e04d 20bc
00000090: 31be 1fbc 809d 66bb ed3b 473a dcb4 8a3b
000000a0: 9f3a 3e3c 4a4b 3bbc d6f2 0ebc c78a 32bb
000000b0: 13d8 53bc af4c 8aba e3c6 b1bb a85a e23a
000000c0: 32ba 83bb df6a 823a c039 1d3c 206c c33a
000000d0: df47 403c 77a1 cdbc 719c 16bb e2db 5a3b
000000e0: f488 8c3b 774e e93b 68f5 9fbb 5313 d8bb
000000f0: ed77 b4bb 513b 86bb 149f 2a3c d518 d2bb
00000100: 27bd 55bc 1bd7 9539 93ac b33b 77bb 763c
00000110: e811 cc3b a877 1b3c 724e d2bb 267f c3bb
00000120: 60ec e93b 05e8 3cbc daef f33a 459e aa3b
00000130: 0bc9 b9bb 688c 52bb b77d 893c b573 173c
00000140: e071 a0bb 1af4 d6bb bd36 b7b9 56e2 263c
00000150: 338f 0cbc 3b57 9bbb 7536 673c abae afbb
00000160: 9251 77bb 5bea 9aba a5b3 0abc 18e4 9b3b
00000170: 883a fd3b 0da7 9bbb 7f72 95bb d75b 983b
00000180: b4e2 203c a2c4 fe3b 2e8a 253c e2b4 a63b
00000190: dbfd 9dbb cfd4 ce3b c2dc 70bc 292c 233c
000001a0: dbfa 04bc ef5b f6ba 2587 503b bcd2 b4ba
000001b0: 53ec a6bb 1845 e13a d1af c8bb 2fa3 ccbb
000001c0: 8bfd eabb 64c6 913c b7a1 8f3c bf0d de3b
000001d0: 3764 123c ad71 0a3c 2eca 8a39 3655 893b
000001e0: 9491 27bc 515b 84bb 8a56 7cbc 5d60 2fbc
000001f0: 05c9 ea3b 82ca 09bc 144e 283b 5bbb 3a3c
00000200: 027b 673b 265c 1dba 3fb8 883c 3866 ce3a
00000210: 524c 95bb c81c f4bb 2511 0d3c 7bdb 21bc
00000220: 8b94 3bbc 1e43 403b 7b9e 47bc 830c 033c
00000230: e05d ffbb 9777 65bc 0764 643b 74e6 c83a
00000240: 2d92 6e3b 1e9c 303c f519 e93b 39fa 09bc
00000250: 3153 8f3c 03e0 ee3b 6b30 71bc 1ae2 d33b
00000260: 8024 0d3a 1bbe 8cbb f3df 1c3b 1f51 bdbb
00000270: 0d47 e43b 0a1e 80bb d8c0 72b9 485b fa3b
00000280: c76a 69bc a74d 14bc 8f46 1f3c 5bc9 9f3b
00000290: 512d 843b ae46 8fbc e85f ad3b 18b2 a03a
000002a0: 87fd 683b 8ec3 263b 8e1e 0fbb 1f80 1cbc
000002b0: ab8a a1ba 5215 39bc 55e6 a33b 73e3 823b
000002c0: 1b02 0dbb 9212 e3ba 514a a1bb 8337 913a
000002d0: dc76 313c ad32 e73b 66e9 8fbb 2ffa a1bb
000002e0: d5f5 cd3b 5d9f 933b eb32 b53b 8ba1 7c3c
000002f0: 57f2 df3b 0f59 bebb 23ae 89bb 77e4 60bc
00000300: d7dd 8d3b 5847 2e3b e1d1 cabb 625c ee39
00000310: 6843 58bb 23d9 e638 6f45 f43b 5763 713b
00000320: 0f4a e83b c579 1a3a 98be 213c 7852 fb3b
00000330: d1d1 2a3c 98fb f6bb dafe e2bb 1e40 923b
00000340: 62a8 923b 27dd e63a 57b1 ae3b 29ce 9cbb
00000350: 8330 883b a475 393c d336 aa3a 349e 863b
00000360: 126a f93b bdd3 b2bb c5f6 8e3c a7c4 443b
00000370: 5b37 173c 4330 15bc 2ae6 78bb 712a 22bc
00000380: 8d9b cfbb 39fc 8fbb 7eca 393c 8ac7 703b
00000390: d84f b5bb c029 613c 2f02 1c3c 88d3 1abc
000003a0: b82e 3c3b 2f21 8abc f640 2c3c 5b05 23bc
000003b0: a771 26bc 52f2 e43b 7283 2ebc 0480 cbb8
000003c0: 34d4 093b c277 363c 37ba 08bc f72a 433c
000003d0: 3fb8 bebb 652f c9ba 79af 25ba 70dd b33a
000003e0: 8ad8 573c dacb 86bb d51c 6f3b aff3 143c
000003f0: 8af6 433c 8a7a 03bc d242 7dbb 5146 a639
-0.004845919 0.0050974996 -0.014239234 0.007211362 0.003403005 0.003074928 0.014677619 -0.007929492
0.010640457 -0.0010035265 0.006337785 -0.004406722 -0.0010916021 -0.0039302274 0.012091792 -0.0043562213
0.0033165568 -0.00683378 0.0020752058 0.0022931525 0.0023776076 0.008021952 -0.002794963 0.010391486
-0.007833977 0.0075509767 -0.009096389 0.016858408 0.0104121575 0.00629146 0.005242943 0.014048524
0.014527007 0.01606583 -0.0073589743 -0.009784192 -0.009749935 -0.0035189092 0.0007600177 0.004232986
0.011610656 -0.0114315245 -0.008724889 -0.0027243362 -0.012929934 -0.0010551418 -0.0054253205 0.0017269449
-0.004019999 0.0009950063 0.009596288 0.0014909543 0.011735885 -0.025101406 -0.002298143 0.003339522
0.004288787 0.0071199494 -0.0048815496 -0.0065941005 -0.0055074603 -0.0040964265 0.010413904 -0.0064116516
-0.013045586 0.0002857976 0.005483219 0.015059344 0.0062277205 0.0094889775 -0.006418043 -0.005966085
0.007138774 -0.011529927 0.001861091 0.0052068555 -0.005669718 -0.0032127146 0.016783578 0.009243895
-0.0048963875 -0.006559861 -0.00034945263 0.010185799 -0.008579063 -0.0047406233 0.014112105 -0.005361398
-0.0037737829 -0.0011819111 -0.008465682 0.0047574155 0.0077279247 -0.0047501386 -0.004560768 0.00464962
0.009819675 0.0077749053 0.010103745 0.005087481 -0.0048215217 0.00631199 -0.01470107 0.009959259
-0.008116449 -0.0018795709 0.0031818834 -0.0013795714 -0.00509409 0.0017186729 -0.0061244746 -0.006245039
-0.007171338 0.017794795 0.017533166 0.006776541 0.008935026 0.008449954 0.00026472047 0.004191066
-0.01022758 -0.004039206 -0.015401492 -0.010704127 0.0071650767 -0.008410098 0.0025681304 0.011397208
0.003532112 -0.0006002806 0.016689418 0.0015747016 -0.004556217 -0.00744972 0.008610045 -0.009878988
-0.01144899 0.002933688 -0.012183781 0.0079985885 -0.007793173 -0.014005563 0.003484966 0.001532747
0.0036403046 0.010779409 0.00711369 -0.008421474 0.017495723 0.007289888 -0.014721016 0.0064661624
0.0005384162 -0.0042951233 0.0023937195 -0.0057774927 0.0069664777 -0.003909831 -0.00023150758 0.007640276
-0.014246649 -0.009051717 0.009721412 0.0048762984 0.0040337224 -0.017489757 0.005290974 0.0012260107
0.0035551505 0.002544615 -0.002183828 -0.009552031 -0.0012324651 -0.011296587 0.005001823 0.003994399
-0.0021516148 -0.001732426 -0.0049221893 0.0011079166 0.010831561 0.0070556016 -0.004391837 -0.0049431543
0.006285409 0.0045050816 0.0055297515 0.015419374 0.006834309 -0.0058089565 -0.004201667 -0.013726345
0.004329424 0.0026592817 -0.0061895703 0.00045463728 -0.0032999162 0.000110076995 0.007454566 0.0036832893
0.0070889066 0.0005892779 0.009872101 0.007669743 0.010426001 -0.0075373165 -0.0069273533 0.00446321
0.004475639 0.0017613516 0.005331199 -0.0047853184 0.0041561737 0.011319552 0.001298631 0.0041082148
0.0076115215 -0.00545737 0.017451653 0.003002444 0.009229506 -0.009105745 -0.0037978985 -0.009897814
-0.006335682 -0.004394081 0.011339782 0.0036740028 -0.0055331998 0.013742864 0.009522005 -0.009449847
0.002871437 -0.016861526 0.010513535 -0.009950007 -0.010158933 0.0069868946 -0.010651456 -9.703639e-05
0.0021031024 0.011136951 -0.008345178 0.011912099 -0.0058203037 -0.0015349208 -0.0006320398 0.001372261
0.0131741855 -0.0041136565 0.003648569 0.009091302 0.011960635 -0.008024821 -0.0038644564 0.00031714377

action_model._discrete_distribution.branches.4.bias f4 [2]
00000000: 0000 0000 0000 0000
0.0 0.0
