Assets/results/ppo/My Behavior/My Behavior-43.onnx (onnx, 156809 bytes, 20 tensors)

discrete_act_size_vector f4 [1, 14]
00000000: 0000 0040 0000 0040 0000 0040 0000 0040
00000010: 0000 0040 0000 0040 0000 0040 0000 2041
00000020: 0000 2041 0000 2041 0000 2041 0000 2041
00000030: 0000 2041 0000 2041
2.0 2.0 2.0 2.0 2.0 2.0 2.0 10.0
10.0 10.0 10.0 10.0 10.0 10.0

network_body._body_endoder.seq_layers.0.weight f4 [128, 24]
00000000: 1911 bfbe 8cbe c4bd e221 633a 6aba 00be
00000010: 6d16 b9bd a76e 62be c7c9 92bd e513 3c3e
00000020: 5ffd dd3d 12f9 17bd 35aa 07be d443 1dbe
00000030: 33d8 a93c 57b2 8fbb 0456 f3bd 49e0 a73d
00000040: 8176 85be 3b64 febb c1f9 00bf 8871 84bc
00000050: 6843 013f f0d7 003d 584f 3fbe 9b09 b7be
00000060: a02e 9bbd 41bc ba3e a166 04be 921f 08be
00000070: d0e7 e53d c1d8 c9be f075 f2bd ab80 b9be
00000080: 003a 86be a862 71be ae39 84be ffac 313d
00000090: 8999 30be 0563 5bbe 5444 463d 3b8b b1be
000000a0: ad5c 50be ac64 a2bc d269 783b b0e1 913e
000000b0: 9a9b 9c3e 731c 153c b290 8fbd c0e0 25be
000000c0: f175 6c3d c732 153e eebf 1c3d a0de c53d
000000d0: 7fcd 87be 8921 9abe c0ca 1cbe fbe2 16bd
000000e0: a416 453e 007b a63d df2f 0cbd c614 b43e
000000f0: e307 6e3d 6eb7 6e3d 294c 0ebf 3b48 023e
00000100: f329 9fbe bb5a 69bd 5e52 083e 4d96 82be
00000110: 0d0e 4a3d 1447 923e bff5 143e fa22 123e
00000120: 6178 14bd ea9a 183f 89c3 b7bd 8b78 9bbd
00000130: 3089 223e 92d2 84bd 8b78 e3bd 0557 433d
00000140: 65a1 0c3e 535d 8dbd 0043 4d3c d949 a33e
00000150: 8ebd 91bd 40b2 49bc 4827 6fbe be63 33bf
00000160: 6c6b 933d e065 f2bd 8908 40be 34a9 0f3f
00000170: d6d0 a23e 0c40 b3be a6b9 443d b348 0439
00000180: 53d1 d8bd df15 6ebd d32b 613e 7694 d9be
00000190: eb74 853d c18b a83d 5917 4b3e 6573 10bd
000001a0: d537 4abe f163 2c3e da1d c7bd 685f 72be
000001b0: a3d1 5b3e 98fc cebc 7773 ed3d 5cff bf3e
000001c0: f0cc 8abe a8e5 8cbe 8d7e 58be 479a ecbc
000001d0: 981a a53d fd14 e8bd 4106 34bc b913 02be
000001e0: 50e0 bdbd 3aef e93c fc42 15be 4c90 e0bd
000001f0: 3018 9bbd 18ae 8d3d b1d2 373e be0a c5bd
00000200: f60e 243d 6779 05bf f687 a73d 61e2 17bf
00000210: 2b64 3fbd 0734 8d3e 584b 5cbe bab0 90be
00000220: d82c ccbd 725a d5bc c776 8d3d 6090 233d
00000230: 236b 953e 80f0 b23e fbb3 d8bb 8db8 403d
00000240: d15d d8bd f881 2e3e 873f 23be 55f7 1dbe
00000250: 97be a4bd fd4d a03d 4fa7 c13e e08e 2d3e
00000260: 8863 aabd a50e 873c 57b9 0f3e e57f 523d
00000270: 9069 f33c 507e 41be 1f5b 1a3e 0528 aabc
00000280: 3036 87be b3d3 dfbb bfa3 dd3e 34bb 3c3b
00000290: abb0 9fbd a11a 203f 34a3 563e bbf9 4e3e
000002a0: c922 ac3d d8af a53e 9139 d03c 02fb 983e
000002b0: 754e 3f3e 4d16 263d 2c56 b7bd e945 96bd
000002c0: 3768 4fbe 0873 083e 6895 8abe 3432 33be
000002d0: 4f09 54be 452b fd3d f648 043a cc2a 013b
000002e0: c325 bb3e d783 54be d3e9 edbc 7019 a33d
000002f0: d9e3 c03e 79a9 ccbd bf43 97bd f6da ef3c
00000300: 9561 f33e b84c af3d 3f6f bebe 4f9b a5be
00000310: 1624 c93d d384 d83d 2cd9 4f3d aa0c d13d
00000320: 82d8 a13e 235c a13d d79d a83d 1dbd 063e
00000330: 3b59 833e e9f8 f4be 513e 31be c4f4 293e
00000340: a859 df3d 4afe 01be 6acd c4bd b0e9 8fbd
00000350: 0dd3 b63d 795a dfbe 43fc 823e f93e 48be
00000360: 40ef 713e dd88 05be 50dc b2be fe52 833e
00000370: 6d66 96bd 0d92 0a3d 7fc8 0d3e 74a0 8cbc
00000380: babe 623e 62df 51bd 7248 6fbe ce1f f03d
00000390: ba53 04bf 0d25 3abe febf c1be df51 d93d
000003a0: 6494 ac3c fa51 a33e 5f46 95bd 20f8 173d
000003b0: e174 89bd d3fd 83be 059d c7bc c85c 3d3d
000003c0: ab44 bdbd 3fa1 22be 552f 5dbe 597f 723d
000003d0: 5019 e6bd 3724 8dbd 8f2e adbe f247 d9bc
000003e0: 0a65 6cb9 2158 0f3e fdfc 4d3b 915e b1be
000003f0: 4fca 9dbd 38ea 823b d190 16be 9586 903c
-0.37317732 -0.096066564 0.0008664412 -0.12571111 -0.090374805 -0.22112523 -0.07167392 0.18366964
0.10839342 -0.037102766 -0.13248523 -0.15357906 0.020732975 -0.0043852734 -0.118816406 0.08197076
-0.26066974 -0.0077634132 -0.50381094 -0.016167417 0.5049348 0.031455934 -0.18682611 -0.35749516
-0.075772524 0.3647175 -0.12929775 -0.13293293 0.11225855 -0.39423183 -0.11838901 -0.36230978
-0.26216125 -0.2357279 -0.25825256 0.043377873 -0.17246069 -0.21424492 0.048405007 -0.34676537
-0.20347853 -0.019823395 0.003790487 0.28492498 0.30587465 0.009101021 -0.0701002 -0.16199017
0.057729665 0.14570151 0.038268976 0.09661603 -0.2652397 -0.3010371 -0.15311718 -0.03683756
0.19246918 0.08128929 -0.03422534 0.351721 0.05811299 0.0582804 -0.5558496 0.12722866
-0.31086692 -0.056971293 0.1331267 -0.25505295 0.049329806 0.28569853 0.1454687 0.14271155
-0.036247615 0.5961138 -0.08972842 -0.07591351 0.15872645 -0.064854756 -0.11106976 0.04769041
0.13733442 -0.06902566 0.012528181 0.3189228 -0.07116233 -0.0123105645 -0.23354828 -0.7007407
0.071982235 -0.11835837 -0.18753256 0.5611756 0.31799954 -0.350098 0.04802861 0.00012615584
-0.105868004 -0.058126327 0.21989374 -0.4249608 0.06516441 0.08229781 0.19833125 -0.0352663
-0.1974786 0.16835 -0.097224906 -0.23669207 0.21466689 -0.02526693 0.11594289 0.3749951
-0.2710948 -0.27518964 -0.21142025 -0.028882159 0.08061713 -0.11332128 -0.010987819 -0.12702836
-0.092713 0.028556455 -0.14576334 -0.109650224 -0.07572973 0.069179714 0.17951466 -0.096211895
0.04005333 -0.5213837 0.08180229 -0.593298 -0.046726387 0.27578756 -0.21513116 -0.28259832
-0.09969491 -0.026044104 0.069074206 0.03993261 0.291833 0.34949112 -0.006613252 0.047051
-0.10564769 0.17041767 -0.15942203 -0.15426381 -0.08044165 0.07827375 0.3782296 0.16949034
-0.08319765 0.016486475 0.14035545 0.0513915 0.029713422 -0.1889584 0.15073822 -0.020771036
-0.2640853 -0.0068306564 0.4328899 0.0028798105 -0.077973686 0.6254063 0.20960695 0.20212452
0.08405072 0.3236072 0.025418075 0.29879004 0.18682273 0.04054861 -0.08951983 -0.07337553
-0.20254599 0.13325131 -0.27067113 -0.1749962 -0.20706676 0.12361769 0.00050462724 0.0019709347
0.36552247 -0.20753418 -0.02904216 0.07963836 0.37673834 -0.09993262 -0.073859684 0.029279213
0.47535387 0.08559555 -0.3719425 -0.32345054 0.09821336 0.10572209 0.05074422 0.102074936
0.31610495 0.07878902 0.082332306 0.13158078 0.25654015 -0.47846153 -0.17308928 0.16597277
0.109057724 -0.1269466 -0.09609492 -0.07026994 0.089269735 -0.43623713 0.25583085 -0.19555272
0.23626423 -0.1304049 -0.3493371 0.25649256 -0.07343755 0.03383069 0.13846014 -0.017166354
0.22143069 -0.051238425 -0.2336748 0.11724816 -0.51690257 -0.18178196 -0.3784179 0.10611319
0.021066852 0.3189848 -0.07288813 0.037101865 -0.06711746 -0.2577959 -0.024366865 0.04623106
-0.09241613 -0.15881823 -0.21600087 0.05920348 -0.11235297 -0.06891673 -0.33824584 -0.026523564
-0.00022544354 0.13998462 0.003143131 -0.3464246 -0.07704603 0.003995206 -0.1470368 0.017642299

network_body._body_endoder.seq_layers.0.bias f4 [128]
00000000: 0000 0000 0000 0000 0000 0000 0000 0000
00000010: 0000 0000 0000 0000 0000 0000 0000 0000
00000020: 0000 0000 0000 0000 0000 0000 0000 0000
00000030: 0000 0000 0000 0000 0000 0000 0000 0000
00000040: 0000 0000 0000 0000 0000 0000 0000 0000
00000050: 0000 0000 0000 0000 0000 0000 0000 0000
00000060: 0000 0000 0000 0000 0000 0000 0000 0000
00000070: 0000 0000 0000 0000 0000 0000 0000 0000
00000080: 0000 0000 0000 0000 0000 0000 0000 0000
00000090: 0000 0000 0000 0000 0000 0000 0000 0000
000000a0: 0000 0000 0000 0000 0000 0000 0000 0000
000000b0: 0000 0000 0000 0000 0000 0000 0000 0000
000000c0: 0000 0000 0000 0000 0000 0000 0000 0000
000000d0: 0000 0000 0000 0000 0000 0000 0000 0000
000000e0: 0000 0000 0000 0000 0000 0000 0000 0000
000000f0: 0000 0000 0000 0000 0000 0000 0000 0000
00000100: 0000 0000 0000 0000 0000 0000 0000 0000
00000110: 0000 0000 0000 0000 0000 0000 0000 0000
00000120: 0000 0000 0000 0000 0000 0000 0000 0000
00000130: 0000 0000 0000 0000 0000 0000 0000 0000
00000140: 0000 0000 0000 0000 0000 0000 0000 0000
00000150: 0000 0000 0000 0000 0000 0000 0000 0000
00000160: 0000 0000 0000 0000 0000 0000 0000 0000
00000170: 0000 0000 0000 0000 0000 0000 0000 0000
00000180: 0000 0000 0000 0000 0000 0000 0000 0000
00000190: 0000 0000 0000 0000 0000 0000 0000 0000
000001a0: 0000 0000 0000 0000 0000 0000 0000 0000
000001b0: 0000 0000 0000 0000 0000 0000 0000 0000
000001c0: 0000 0000 0000 0000 0000 0000 0000 0000
000001d0: 0000 0000 0000 0000 0000 0000 0000 0000
000001e0: 0000 0000 0000 0000 0000 0000 0000 0000
000001f0: 0000 0000 0000 0000 0000 0000 0000 0000
0.0 0.0 0.0 0.0 0.0 0.0 0.0 0.0
0.0 0.0 0.0 0.0 0.0 0.0 0.0 0.0
0.0 0.0 0.0 0.0 0.0 0.0 0.0 0.0
0.0 0.0 0.0 0.0 0.0 0.0 0.0 0.0
0.0 0.0 0.0 0.0 0.0 0.0 0.0 0.0
0.0 0.0 0.0 0.0 0.0 0.0 0.0 0.0
0.0 0.0 0.0 0.0 0.0 0.0 0.0 0.0
0.0 0.0 0.0 0.0 0.0 0.0 0.0 0.0
0.0 0.0 0.0 0.0 0.0 0.0 0.0 0.0
0.0 0.0 0.0 0.0 0.0 0.0 0.0 0.0
0.0 0.0 0.0 0.0 0.0 0.0 0.0 0.0
0.0 0.0 0.0 0.0 0.0 0.0 0.0 0.0
0.0 0.0 0.0 0.0 0.0 0.0 0.0 0.0
0.0 0.0 0.0 0.0 0.0 0.0 0.0 0.0
0.0 0.0 0.0 0.0 0.0 0.0 0.0 0.0
0.0 0.0 0.0 0.0 0.0 0.0 0.0 0.0

network_body._body_endoder.seq_layers.2.weight f4 [128, 128]
00000000: 63f2 84bc 812c dcbd cf7b 2e3d 6cbb d0bd
00000010: b0a6 bfbc 2e5a 263d f44f 883d 46da f23b
00000020: 6226 aabd 550a d43c 8e33 a6bd b442 88bd
00000030: 8109 f9bd dd7b 593c 7206 b0bb cc60 0c3d
00000040: 1d97 ef3c 12c8 a1bc 7046 83bd 35ff 65bd
00000050: 9a42 8cbd 83e4 173e 51ef 753d e5a9 033e
00000060: 1456 5dbd 176e 92bd 6e14 41be 9a97 473d
00000070: 3629 4bbd babe f53d 306d a8bb 1284 8dbb
00000080: a2c5 afbd a24f ccbd 3e1d fb3d 5248 af3d
00000090: 54ef b0bc d061 a3bd 012d 49bd 480c 83bb
000000a0: 1ec2 2abd f30f f0bd 2ae5 63bd c5b7 703d
000000b0: d1e0 dd3d 0e6e c73d 94b3 e5bd 08af 4a3d
000000c0: 9595 0e3d e789 933b ee12 863d bb82 b03b
000000d0: 2537 ce3c 3ae7 d03c 4792 45bd 1b6a 8bbd
000000e0: d8a0 ddbd 8a1e b13b 0031 083d 3712 16be
000000f0: 5183 e2bd e32b 863d 97bd eabd 96b6 8b3d
00000100: cc35 bbbd d2db 45bd 9ce4 54bd 688a 9dbc
00000110: ddb7 09be fe75 a5bd 66b3 8e3d ccd7 2dbd
00000120: 551c 663d f10b fbbd 1b86 19be c5d5 20bd
00000130: e78c 0dbd a855 083e ad44 c1bd e0c4 16bc
00000140: 4845 c0bd b457 a6bd f3a7 973d 9b2d 0f3d
00000150: 3943 0abb 2f50 1f3e 0cc3 0d3e e32a 043d
00000160: 5cd6 3cbc a432 4b3d 90ac b03d 0e75 2fbe
00000170: 3273 9fbd a1f5 e73c 5930 4fbb d530 533d
00000180: c704 133c edef 02bd f034 40bd 2061 923d
00000190: aaf9 cbbc 2b27 bc3d e34e 0ebe d190 d33c
000001a0: e048 f23d 9828 55be 1e03 d0bb da7f f03c
000001b0: 0d39 92bd 3141 f93d 56e8 92bd 7f74 88bd
000001c0: 8a61 1b3e 5b27 a33c cd12 e33d cdeb 413d
000001d0: f6ac 123c 2f0a 803d 2237 ef3d d4f0 29bd
000001e0: 60a2 b03d 94c0 66bd cdf1 d73b 7a45 8abd
000001f0: 57fd 3fbe 5859 bc3d f67a e3bc 8508 7e3d
00000200: a257 bebd c27d 03bc f04f 94bd 7638 2fbc
00000210: 07a2 47bd cfb5 b93c f365 283c 2605 82bd
00000220: f781 e93d 386a 173e e693 133e 62c8 813d
00000230: c8e7 3a3c c8e3 8cbc 2014 9e3c fbfa 04be
00000240: 8e61 7ebc 17a4 7c3d 2919 d8bb dbdd 0d3d
00000250: 453e 8b3d 9c5f 863c 58c5 f4bd f4f1 fcbb
00000260: 97e6 cdbd 1e5b 91bd a6fd d73d 610a 9bbd
00000270: 2ce9 47bc f25f f53c e980 b3bc c34b 103e
00000280: 9350 57be 7e01 9e3d 4a1c 06bd ea8f d73c
00000290: 818c 4dbe ae85 8bbd 13e2 2abe b610 f6bc
000002a0: 125d ebbd 1ee4 b63d 6cc4 103e 12d7 e3bd
000002b0: 1176 173c 8f49 3cbd ff5e bcbd 47a8 ebbc
000002c0: 2ec2 d8bd 947c a93b 1104 0cbc 0cd9 f03c
000002d0: 28ab 29be fe92 05bc 37c1 fd3c 39af 7ebc
000002e0: df8e bb3b db67 d73d b0cc e1bd e8c5 cfbd
000002f0: fa23 0c3e 686c 003e 8429 9e3d 327a 05bd
00000300: 2bcd 05bc 6cde 8dbd 11c4 843d 01b2 96bd
00000310: a501 adbd f567 4c3d f688 9a3d b73d 01be
00000320: 4d74 a53d 83ee c2b9 6760 71be 27e6 4a3e
00000330: d749 2cbc 0eab 11be 0836 cc3d b2fc 59bd
00000340: 013b 17be 552f 163e d8ca e63c 0045 863d
00000350: 11d2 b5bd 02f6 71bd bb4a 9f3d 9f37 7a3d
00000360: 584e 5a3d 41e7 54bd 21ed a83d f656 ef3c
00000370: 1ab4 e3bd 59ef 1fbe a0f2 913d dda1 07be
00000380: 5116 4bb9 c8f8 53bd c2f5 263d 2c8d a6bd
00000390: 022c 653c bc65 4ebd c49d 91bc 7710 893d
000003a0: 2397 bfbd 42af 063e 4822 8c3d 46d1 083c
000003b0: a1b5 d2ba f659 883d c228 a5bd 3249 dd3d
000003c0: 269d 26be 6f09 663d 2ee3 743d 0bd8 18be
000003d0: 241b c7bb bfc4 8ebd 766b 20bd bac8 1dbe
000003e0: 969d a9bc 08df 3bbd 9354 5c3d 87d7 293d
000003f0: e1c0 1a3c 505d c33d f372 d13d a869 6f3d
-0.01622886 -0.10750676 0.04259854 -0.10191998 -0.023394912 0.040613346 0.06655875 0.007411274
-0.08308102 0.025883833 -0.08115302 -0.066533476 -0.12160016 0.01327416 -0.005371862 0.034272
0.029246861 -0.019748721 -0.06409919 -0.056151588 -0.06848641 0.14833264 0.060042683 0.12857778
-0.05403717 -0.07149904 -0.1885545 0.048728563 -0.04959985 0.11999269 -0.0051399693 -0.0043187225
-0.08582617 -0.09976126 0.12261437 0.08558716 -0.021598496 -0.07977641 -0.049115185 -0.003999267
-0.04168903 -0.11721792 -0.05563847 0.058769006 0.10833896 0.09737788 -0.112158924 0.04948333
0.03481062 0.004502523 0.06546579 0.005386678 0.02517278 0.025500882 -0.048235204 -0.068073474
-0.10821694 0.005405252 0.033249855 -0.14655386 -0.11060203 0.065513395 -0.11461943 0.06821935
-0.0914112 -0.04830534 -0.05197583 -0.019231036 -0.13449045 -0.08079146 0.06967811 -0.042442128
0.056179363 -0.12258137 -0.14992563 -0.039266367 -0.034558203 0.13313925 -0.09436927 -0.009202212
-0.09388214 -0.08122197 0.07405081 0.034955602 -0.0021097197 0.15557931 0.13843936 0.032267462
-0.011525717 0.04960884 0.08626664 -0.17134497 -0.07785644 0.028315367 -0.003161451 0.05156024
0.008973307 -0.031967092 -0.046925485 0.071474314 -0.024899323 0.09187158 -0.1389728 0.02582589
0.11830306 -0.20816267 -0.006348028 0.02935784 -0.07139788 0.121706374 -0.07173221 -0.06662845
0.15173927 0.019916227 0.1108757 0.047344018 0.00895237 0.06251942 0.116804376 -0.041489437
0.086247206 -0.056336 0.006590104 -0.06751533 -0.18748985 0.091967285 -0.027768593 0.062019844
-0.092940584 -0.0080255885 -0.07241809 -0.010694614 -0.048738506 0.0226697 0.010278213 -0.06348638
0.11401742 0.14786613 0.14411888 0.06337048 0.0114078 -0.017198458 0.019296706 -0.12986366
-0.015526189 0.061679926 -0.006594796 0.034635406 0.06798986 0.016403012 -0.11951703 -0.0077192727
-0.10053747 -0.07097457 0.105464265 -0.07570339 -0.012201589 0.029952977 -0.021912055 0.14091401
-0.2102683 0.07715128 -0.032741822 0.02631374 -0.20073129 -0.06812607 -0.16687803 -0.030037265
-0.11492361 0.08930229 0.14137429 -0.11125006 0.009244458 -0.04596859 -0.091978066 -0.028766764
-0.10583912 0.0051723216 -0.008545891 0.029400371 -0.16569197 -0.008152721 0.030975921 -0.015544706
0.0057238187 0.10517856 -0.11025369 -0.101451695 0.13685599 0.12541354 0.07722762 -0.032587238
-0.008166592 -0.06927189 0.06482709 -0.0735817 -0.08447579 0.04990383 0.075456545 -0.12621199
0.08078823 -0.0003718027 -0.23571931 0.19814359 -0.010515652 -0.14225408 0.09971243 -0.053219505
-0.14768602 0.14666493 0.028172895 0.065561295 -0.088779576 -0.059072502 0.077779256 0.0610882
0.05329737 -0.051978353 0.08248354 0.02921627 -0.11118336 -0.15618648 0.07126355 -0.1324534
-0.00019367902 -0.05175093 0.040761717 -0.08132395 0.013987543 -0.05038999 -0.017775424 0.066925935
-0.09354999 0.13152793 0.06842476 0.008350676 -0.0016075858 0.06657784 -0.080644146 0.108049765
-0.16270885 0.05616134 0.059786968 -0.14926164 -0.0060762335 -0.0697112 -0.039164983 -0.15408602
-0.020705026 -0.045866996 0.053791594 0.04146531 0.0094454 0.09539282 0.10227003 0.05845037

action_model._discrete_distribution.branches.0.weight f4 [2, 128]
00000000: eb3a bfbc bbf1 a5ba f714 e63b 40c6 803b
00000010: 0a8d 8bbb 10f6 963a 0738 a03c 61aa b0ba
00000020: a80f 6b3c 8764 44b9 03e0 be3a 55fe 253c
00000030: a1f1 0a3c 0f6d 1bbc 6550 efbb 28d7 0fba
00000040: 8865 fd3a 25f0 893c 9afa ef3b 5f50 32bb
00000050: e85f c0bb f071 aa3b 0806 fcba 5886 3ebc
00000060: df89 17bc af0a abbb 5ec8 43bc 62fd f23b
00000070: 11ff 1a3b 0fc4 fe3a d3d3 8fbc 8ffa 09bb
00000080: 4076 7d3b 9873 febb b4b8 353c 6b62 9abb
00000090: 1385 f4ba dfba adbb cab8 163c 3770 5f3a
000000a0: 178e 0a3b 8ba0 d2b9 bf98 173a 99a5 bfbb
000000b0: 0827 89bb 2944 af3b 1783 ee3a 6daa 103c
000000c0: 0d9e 6b3c 614c 8c3a 6754 41bb 3df0 37ba
000000d0: ed83 ddbb 70aa 22bc 4b0b 163c 2f7f 2bba
000000e0: 8f7c 283c 9586 07bc 95cb 29bb 24aa 18bb
000000f0: cb65 4d3b 2740 9d3a 53bc a4bb 1fab 4ebc
00000100: 9211 eabb 8dbe bc3a 82b9 afbb 333e 02bc
00000110: 02ef f63b 4b36 053c e75d 9e3b 13bf 17ba
00000120: d7b1 06bc 732e cf3a 00f5 4ebc 80fc d33b
00000130: 830a 593a 1b47 edba e8b9 7dba 9292 4dbc
00000140: 93f5 193c c0f7 d4b9 1789 99ba fd10 a63c
00000150: 1e3f c1bb 562a 3eba 077b bebb 455e 7a3b
00000160: 66fe 2bbc 12bb 8dbb 3a85 f43b 231c 06bc
00000170: a567 313b 77b9 a83b aa92 5cbc 4ee9 48bc
00000180: d00c 7ebc 3c33 9fba 2d48 ddbb 8b7e ee3a
00000190: fbf6 c23b 08a3 5e3c 8770 fe3b 12aa 8d3b
000001a0: c0aa bdb9 8648 08bc 9565 d23b 9d54 5cbc
000001b0: daa3 69bc 70a6 d8bb 4c27 4abc e155 103c
000001c0: ef69 8d3c 9b92 d13a a682 3bbb 4b50 053c
000001d0: 8a2e 5cbc f0e3 a7ba 9b83 39bc bb00 aabb
000001e0: 185f 393c de1b 853c e6f5 a83c ded9 293c
000001f0: 18af 053c 0f52 7d3b 7287 0e3b 9eba 133c
00000200: 9f1c a1bb 370b 67bc bd32 3b3c 45de 113c
00000210: 3d88 9e3a 7e44 05bc 91fb 34bb 0827 463b
00000220: d8f8 b93b 1361 34bc abcc 803b 828b 4ebb
00000230: 6b46 45ba bb02 fb3b 2009 0a3c 9d6e 323c
00000240: 9783 dfba 6e43 853c 2b27 56bb e70f 283c
00000250: f528 853c e30c 0d3c d46d b7bb 2f6a cabb
00000260: 2b8f 83bb c887 bc39 72cd e3bb adca 333b
00000270: 08b9 af3b 0fce 68bc ae8e 96bb b446 3abc
00000280: 536f a33b 59d2 3dba 90c4 beba 801f ffbb
00000290: ded4 483c e393 37ba 4366 9239 ba63 4fbb
000002a0: 50b4 fb39 af7d 9bbc 46a9 8fb7 f2b1 f8bb
000002b0: 2f56 9a3c 9ae1 efbb 024a 8e3c 9d11 cabb
000002c0: 643e 3dbc 205d c239 ed9a 0cbb 4b17 4dbc
000002d0: 0574 333b 8070 7cba bb99 0d3c 9bb3 6b3c
000002e0: 1285 aa3b 8f77 573b de46 bdbb 0b8f 563c
000002f0: ff34 b03b 2720 f6ba 8c17 95bb 3fb3 763b
00000300: 4b69 8ebc f468 153b 4d31 f63b cb92 6b3c
00000310: a399 973a d9b0 8c3b a836 9a3b 7a7f f43b
00000320: eccc 9e3a b131 3fbc c717 ccbb 0d8a aebb
00000330: 7f55 0fba 2df6 e0bb 6535 64bc fcb1 8c3b
00000340: 38d8 b6bb 0520 6d3a cce4 0fbc 56d0 85bb
00000350: 0a37 74bb 575a 6bbb 2fb1 c6b9 6025 debb
00000360: 8135 42bb bdda ea3a 72e0 cfbb 3f83 3f3c
00000370: 96f3 11bc 51ee 8dbc 9b3c 2a3b 20b4 653c
00000380: d762 813a 8cbb 08ba eaac 69bc 3d42 553b
00000390: bb0a 8ebb 8e40 8bbb bb1d 87bb 8e67 073c
000003a0: 27ac 5c3b 50ce 483c 0dc7 fdba d05e d9bb
000003b0: 4b08 6d3b 6ac2 bb3b 00d2 98bb da93 483c
000003c0: 1138 183c 5364 5c3c 27ea d73b 4fc3 043c
000003d0: c7c0 40bc 4af2 2d3b c724 d7bb 8873 7f3b
000003e0: e27a 043c 9dc7 57bb b463 863b ddda 35bc
000003f0: 1024 68bc f2fc 65bc ef7f 63bb 8ddc 583c
-0.023343524 -0.0012660542 0.007021542 0.0039298832 -0.0042587565 0.0011517424 0.019557966 -0.0013478511
0.014346994 -0.00018729466 0.001456261 0.010131438 0.00848046 -0.009486451 -0.007303285 -0.0005487078
0.0019332627 0.016838143 0.007323575 -0.002720855 -0.005870808 0.0052015707 -0.0019227872 -0.01162871
-0.00924918 -0.0052197794 -0.011949627 0.0074154595 0.0023650567 0.0019437092 -0.01755706 -0.0021053886
0.0038675219 -0.0077652447 0.0110914 -0.0047114394 -0.0018655382 -0.005301818 0.009199331 0.0008523496
0.002114182 -0.00040173935 0.0005782954 -0.005848598 -0.004185561 0.0053487015 0.0018197027 0.008829695
0.014380944 0.0010703915 -0.002949977 -0.0007016694 -0.0067601115 -0.009928331 0.009157966 -0.0006542084
0.010283603 -0.008271833 -0.0025908698 -0.002329477 0.003134119 0.0011997268 -0.005027333 -0.012614041
-0.007143208 0.001440005 -0.0053626904 -0.0079494 0.007535816 0.00813062 0.0048329714 -0.0005788665
-0.008221111 0.001580669 -0.012631655 0.0064693093 0.00082794594 -0.0018102856 -0.0009678886 -0.012547152
0.009396928 -0.0004062038 -0.001171383 0.020271773 -0.0058974167 -0.00072542334 -0.005813006 0.0038203162
-0.010497665 -0.004325279 0.007462171 -0.008185419 0.0027069834 0.0051490623 -0.013462702 -0.012262655
-0.015505984 -0.0012146006 -0.006752989 0.0018195672 0.0059498525 0.013588674 0.007764879 0.0043232525
-0.00036176108 -0.008318072 0.006420801 -0.013447908 -0.014260257 -0.006611638 -0.012338471 0.008809538
0.017262427 0.0015989126 -0.0028611808 0.008136819 -0.01343883 -0.001280902 -0.011322881 -0.0051880754
0.011314176 0.01624864 0.020625066 0.010366885 0.008159421 0.0038653647 0.0021748212 0.009016661
-0.004916742 -0.014101795 0.011425671 0.008903091 0.0012095046 -0.008134006 -0.0027615766 0.0030235667
0.0056754164 -0.011009472 0.0039306483 -0.0031516259 -0.00075254467 0.0076602376 0.008425027 0.01089063
-0.0017052767 0.016267505 -0.0032677155 0.010257698 0.016254881 0.008609029 -0.0055978093 -0.006177209
-0.0040148697 0.0003595932 -0.006951981 0.0027434037 0.0053626336 -0.014209284 -0.0045946455 -0.011369396
0.004987636 -0.0007241122 -0.001455443 -0.0077857375 0.012257783 -0.0007002933 0.0002792348 -0.0031645135
0.00048008794 -0.018980829 -1.7125752e-05 -0.007589572 0.018839924 -0.007320595 0.017369274 -0.0061666504
-0.01155052 0.00037071947 -0.0021454648 -0.0125177605 0.0027382385 -0.0009629801 0.008642609 0.014386083
0.0052038515 0.003287766 -0.0057762703 0.013095628 0.0053774114 -0.0018777893 -0.004549926 0.003764346
-0.017384192 0.0022798153 0.0075132013 0.01437826 0.0011566173 0.004293543 0.0047062226 0.0074614855
0.0012115515 -0.011669562 -0.0062284204 -0.0053265155 -0.0005467757 -0.006865284 -0.013928746 0.0042936783
-0.0055799745 0.0009045604 -0.008782577 -0.0040836735 -0.003726425 -0.0035912 -0.00037897515 -0.006779358
-0.0029633942 0.0017917972 -0.0063438946 0.011689006 -0.008908173 -0.017325552 0.0025976065 0.014019996
0.0009871376 -0.0005215935 -0.014262417 0.0032540702 -0.0043347753 -0.004249639 -0.004123417 0.008264435
0.0033671947 0.01225622 -0.001936169 -0.006633617 0.0036168273 0.005729963 -0.004663706 0.012242282
0.009290711 0.0134516535 0.0065891924 0.008103206 -0.011764712 0.002654212 -0.0065656635 0.0038978774
0.008085938 -0.0032925375 0.004101241 -0.011099544 -0.014168754 -0.014037358 -0.0034713706 0.013236177

action_model._discrete_distribution.branches.0.bias f4 [2]
00000000: 0000 0000 0000 0000
0.0 0.0

action_model._discrete_distribution.branches.1.weight f4 [2, 128]
00000000: 5eb2 8e3c 71e0 23bc 3fba 003b 49a1 bdbb
00000010: d5a4 35bc cae9 933b 472b 8d3a 18ba d8bb
00000020: 2bc1 a8ba 1c6e 253a 4b6a 17bc a83b 50bc
00000030: 4e53 c4bb 2ffb 0a3c ccde 1f3a 95f6 e1bc
00000040: b179 36bc 9146 143c 5fd0 ee3b 3c42 c4bb
00000050: 4f86 c0bb db4a 293b 4a01 ccbb 90cd 7ebc
00000060: 5127 a0bc efa2 953a caed 3f3b 2d14 69bc
00000070: 1fd3 e83b 5b48 c3bc 3b4d 70bc b193 0abc
00000080: 94d6 8ebc 4f3e 0d3b faf3 8a3b 8a38 3a3c
00000090: 773d cfbb 2bd7 2b3a fb6a 303b a32d de3b
000000a0: 5f84 6ebc 006d cf3b 1993 253c 086f 613b
000000b0: 33ae 05bb e37c fc3b 9c37 b53a c97f 9dbb
000000c0: ab4a a03a 04e5 82bb edcd 703c 8ae4 eebb
000000d0: 59e7 a0ba 6090 a8bb 7705 dc3b c764 9cbc
000000e0: 90b9 513c d0da e1b9 f3f0 3e3b 9f18 f5bb
000000f0: 6d66 693b 0722 623c c82e 0a3c b7cf 36bb
00000100: 5e4c 08bc 89a9 123b fb44 c5ba 2266 ff3b
00000110: c7ec 243b f021 9a3c ff5a df3b 3347 e43b
00000120: acf2 b3bb 6335 7b3b 1ae3 1fbc 7fe5 22bc
00000130: 38f2 e43b d0c7 87bb 2f28 2e3c f294 283c
00000140: 6169 87bb df29 1e3c 40e1 2c3c c586 b13a
00000150: c736 b23b 98f0 d8bb 8799 903a 6a0c e43b
00000160: 6d04 a93b dc9d c23a cb4f 20bb 9328 a7bc
00000170: 7245 f6bb 2f96 30bb f7e1 ebbb 67bf 87bb
00000180: dce5 3f3a 798c 143c 2bc2 24bc 55ce e53b
00000190: c86c 293c 975b cdbb 7fd5 4a3b 8716 1cbb
000001a0: 3be4 2d3c 8762 173b 308a 97bb c0da 4dbc
000001b0: 0f27 99bc 3476 1fbc 2f7a 16bb cc46 8a3b
000001c0: b782 a0ba 871b 45bb 2711 563b ab18 5e3b
000001d0: 30c3 8f3c f3b3 edbb 030e 0c3c 4041 003c
000001e0: 2392 bd3b b78a 7bbb 0b20 15bc 1f64 663c
000001f0: 99f8 1abb 531f 49bc b7f4 8dbb 32b2 a23b
00000200: d1df b7bb bf2d cfba 52c7 573b 6bfa 6a3b
00000210: 73b6 fdba 1f8a 27bc 4074 59bc 485e 7c3b
00000220: 77e5 74bc bfef 073c b308 ce3b 9782 483c
00000230: 808a 44bb ea82 a43b 383d 0bbc da1c 76bb
00000240: e387 913b 5063 9b3b e521 6d3c 17b2 d2bb
00000250: 7573 b4bb bc0b c33b 669f 94bb 5565 d4bb
00000260: fa5e 79bc 7797 22bc 5fab 953c 1fd1 dfba
00000270: abe9 d53b 3b58 cf38 4866 5fbb 110a 21bb
00000280: 3d88 3dbc 60c6 f7bb c605 cbbb d60c 133c
00000290: 99c4 11bb b1e8 90bc 8bdb 83bc f2c3 7339
000002a0: 1c91 90bb 45aa 4bbc 1f20 593c a0f5 69bc
000002b0: 1b47 643b b07e a0ba f8b5 0fbb ef8d babb
000002c0: 52c0 7fbc 9f85 48b9 4713 c73c c57c 0abc
000002d0: afcf e33b 07c7 59bb cf65 fc3a f514 1abb
000002e0: 78c6 62ba d495 923b d793 a0bb 437f e8bb
000002f0: 2f76 ef3a 5fbd f6ba f8b8 a83b eb5f 28bb
00000300: 065f 0ebb cbf3 c7bb 7d29 983b 58e2 423b
00000310: 6db9 683c 4aee f0bc 26f3 3ebc caa9 f33b
00000320: 844e c0bb 9ca4 a63b 7a0e a7bb 93b3 7cbc
00000330: d3f9 57ba 53d5 a9bb 3a54 033b aa10 73bb
00000340: a620 853b 8f32 7e3b 829a 5c3c 9348 f1bb
00000350: 1d39 8b3b 03e8 b33c 1ac5 63bb 27bf 383c
00000360: 8be0 a7ba d782 05bc 912e 213c 3670 0dbc
00000370: c76f ddbb ef62 4abc 7f49 3cbc cb0d 8abb
00000380: adc2 163c 1d0c fb3b b770 603c 1247 ba3b
00000390: 30cc 0f3c 75f5 873b 203d 0b3c a78b 493a
000003a0: 5677 843a 5fac cf3b 028c cfbb fd71 16bc
000003b0: d2c8 5cbc 90e0 cd3b d5fd 4dbc 8fd1 75bc
000003c0: 223c 713c dc0f 9cbc 57bf 81bb 4afb 17b4
000003d0: f312 09bb b46e bebb d80f c3bb eb54 0d3c
000003e0: 6da2 bcbb 5717 5535 47e8 b0ba 48d8 a7bb
000003f0: 33f2 b03b 2f9f ccbb 99b0 293c fb19 243b
0.017419036 -0.0100022415 0.0019642261 -0.005787049 -0.011086662 0.004513954 0.0010770344 -0.006613981
-0.0012874951 0.0006310658 -0.009241651 -0.012709536 -0.005991376 0.008482738 0.0006098568 -0.0275834
-0.011137412 0.0090500275 0.0072880234 -0.005989341 -0.005875386 0.002583197 -0.0062257396 -0.01555194
-0.019549998 0.0011416356 0.002928602 -0.014226002 0.0071052457 -0.023838213 -0.014666851 -0.008458064
-0.017436303 0.0021552031 0.00424051 0.011366019 -0.006324466 0.0006555195 0.0026919234 0.0067803427
-0.014557927 0.0063301325 0.010105872 0.0034398455 -0.002039802 0.0077053173 0.0013825777 -0.004806493
0.0012229284 -0.003994586 0.014697534 -0.0072904276 -0.0012275978 -0.005144164 0.0067145186 -0.019091023
0.012800589 -0.00043078372 0.0029135316 -0.0074797417 0.003561403 0.013802058 0.008434005 -0.0027894804
-0.008318989 0.0022378883 -0.0015050465 0.0077941576 0.0025165544 0.01881501 0.0068162675 0.0069664954
-0.005491575 0.0038331382 -0.009758735 -0.009942411 0.0069868825 -0.0041436926 0.010629698 0.010289418
-0.004132435 0.0096535375 0.010551751 0.0013544193 0.005438659 -0.006620478 0.0011032083 0.0069594877
0.0051579983 0.0014848071 -0.0024461623 -0.02040509 -0.0075156027 -0.0026944985 -0.007198568 -0.00414269
0.00073203235 0.009066694 -0.010056059 0.007013122 0.010340877 -0.006267022 0.0030950007 -0.0023817138
0.010613496 0.0023099498 -0.0046246275 -0.012564361 -0.018695382 -0.009732772 -0.002296101 0.0042198654
-0.0012245987 -0.0030076222 0.0032664032 0.0033889215 0.017549127 -0.0072541176 0.0085482625 0.007828057
0.005785243 -0.003838224 -0.009101878 0.014061957 -0.002364671 -0.012275535 -0.004332151 0.00496509
-0.005611398 -0.001580648 0.00329252 0.0035854827 -0.0019356742 -0.010225802 -0.013272345 0.0038508344
-0.014947287 0.008296906 0.006287658 0.012238166 -0.002998978 0.005020489 -0.008498482 -0.0037553818
0.004441248 0.0047420636 0.014473413 -0.0064299214 -0.0055069276 0.0059523266 -0.0045356033 -0.0064818063
-0.015220398 -0.009923807 0.018270193 -0.0017075873 0.0065280995 9.8869634e-05 -0.0034088064 -0.002457265
-0.011568126 -0.00756149 -0.0061957566 0.008975228 -0.0022242425 -0.01768908 -0.016095897 0.00023247281
-0.0044118296 -0.012430732 0.013252287 -0.014279753 0.0034832421 -0.0012244787 -0.002192853 -0.0056931893
-0.015609818 -0.00019123264 0.024301184 -0.008452599 0.006952248 -0.0033230202 0.0019256416 -0.0023511027
-0.000865079 0.0044734273 -0.0049004364 -0.007095249 0.0018269474 -0.0018824748 0.005149003 -0.0025691937
-0.002172412 -0.0061020604 0.0046436177 0.0029736962 0.014204365 -0.0294105 -0.011654651 0.007436012
-0.005868735 0.005085541 -0.0050981613 -0.015423673 -0.0008238826 -0.005182901 0.0020039217 -0.003708879
0.00406273 0.003878746 0.013464572 -0.007363388 0.004248752 0.021961218 -0.0034754933 0.011276043
-0.0012808008 -0.00814887 0.009837762 -0.00863271 -0.0067577097 -0.012352689 -0.011492132 -0.00421307
0.009201688 0.007661356 0.013698748 0.005684742 0.008776709 0.004149134 0.00849846 0.00076883513
0.0010106366 0.006337687 -0.006333829 -0.00918245 -0.013475614 0.0062828735 -0.012572725 -0.015003576
0.014723809 -0.019050531 -0.003959577 -1.415439e-07 -0.0020915836 -0.0058115367 -0.0059528165 0.008626203
-0.0057566673 7.938265e-07 -0.0013496958 -0.0051222183 0.005399966 -0.006244562 0.010357046 0.00250399

action_model._discrete_distribution.branches.2.weight f4 [2, 128]
00000000: 6d31 76bc 8388 213b e50d c43a 228a 6b3c
00000010: a216 2a3b 4d50 c439 bd5c 35bb ba4a 7b3c
00000020: 63bb fdbb 4c9b 9b3a 9fa6 33bc baca e9bb
00000030: 821d 43bc aa01 6c3b 5433 3d3c e46f 9e3c
00000040: 2167 2e3b 195b 1bbc 429c 263b 2a8c 70bb
00000050: d935 a2bb 0937 04bc bfb6 2fbc 728f 26bc
00000060: cb52 90ba 0fae 65bc 3011 f23b 0a18 433c
00000070: 45f2 0abc d5a2 dd3a 4ffc 1eba 4722 3ebc
00000080: e58d 753c 9d73 fbbb 0f3b 3cba 8858 1fbb
00000090: f713 31bb 6f51 1e3c 30ec 56ba eb07 75bc
000000a0: 6500 8dbb e8be 4fbc 8d10 263c c770 0e3c
000000b0: a8eb c63b c024 95bb b2ca ccbb a720 7c3c
000000c0: 5722 273c 6d1a 9e3c 97b9 3d3c b215 46bc
000000d0: 4c7f 01bb 9a41 6cbb ca60 0d3b f541 51bc
000000e0: a739 59bb dc3d 3f3c cd26 e1ba c56b 723a
000000f0: c20e 893c a960 3d3b 8750 24bb 7df7 06bb
00000100: f724 cf3b 6b5f c7bb 1c35 323c ab5a 06bb
00000110: bf01 b43b 3450 0b3c 7f19 0abb e5f2 33bb
00000120: a0e9 50bc 9d90 62ba 25ab 56bc a736 0dbc
00000130: 129d bcbb 43a5 0a3c 0b19 963b 6ebc 18bc
00000140: 8725 9abc 8ba2 653c 6b97 913a 6f00 4cbb
00000150: 1f7a 663b 4d2a 463c 526d 4dbc 3f31 d1bb
00000160: 5d31 1b3b 337a 913b 37e4 1c3c d3f5 89bb
00000170: d94d 9cbb 5399 4bbc dc08 8bbb 2cf3 a03a
00000180: b74b c8bb 43f0 873c bf06 36bc 3c09 183c
00000190: c304 c9bc 3bad 963b df94 f93b 689b cf3b
000001a0: 5336 6bbb b7af 8abb 4769 883b 8726 043c
000001b0: 428b 68bb 17cb 04bc d316 4cbc 42e3 afba
000001c0: 4775 cb38 9225 e0bb ed26 e9ba 8dae 14bb
000001d0: 3a70 6d3c 4f49 29bc 9004 deba e7d8 ec39
000001e0: 5052 ee3b d290 623b c742 6a3c e0d0 5ebb
000001f0: 081f 1b3c 7d5c 2e3c 2d2a b3bb 7020 16bc
00000200: eda5 903b dd28 953b 4af1 6b3c b9c9 053c
00000210: b706 3a3b eb83 e03b b159 903c b4ed bf3b
00000220: d667 b43b bb24 a8bc f63d a13b 8209 a0ba
00000230: 4455 83bb 20a2 7ebc 5e73 043b 8702 ef3b
00000240: ed65 96bb df76 38bb bc93 12bc e3c8 b53b
00000250: 92f9 753c 97c6 333b a92e 343c cd86 f13b
00000260: c126 8c3b 8e4f abbb 4391 ecba 8339 8d3a
00000270: dfd8 673b 37d3 b8bb 2a26 903b 5b2c 6ebc
00000280: f3f7 4c3c 6d73 e7bb ebb4 133a ac73 413c
00000290: 3dbb eabb 6bc6 38bc 1d2c 31ba 3b03 e43b
000002a0: cb45 133c 5302 333a eaca 903b aa0a 9d3c
000002b0: 238a b53b 28e5 713c 9f56 6c3b f7bb dcbb
000002c0: 851b 023b fad4 f2bb f956 303c 0db0 233b
000002d0: 978b 63bc 3a1e fbbb a05f 29bc 226c 7dbb
000002e0: 3bc3 bc3b 6615 2cbb affc 133c d3fd e03a
000002f0: 2f7d beb9 d318 b2bb cbbb 503c 533a bbbb
00000300: c060 b639 a288 423c d704 8b3a 82e1 8fbb
00000310: 09e7 8bbc 0f86 0b3b f07c a53b 77b1 143b
00000320: 0283 5abc 31ad 97bc fb22 09bc 9762 f8bb
00000330: 5fed 5b3b 0220 6cbc 1529 533b 0b63 82bb
00000340: 9335 153c 732a 3cbb c4d6 3ebc fb4b 9cbb
00000350: 342e 8fba 2fe5 913b 7f14 21bb cfb9 3a3a
00000360: 7f12 c53b cf09 48bb 2b7e f9ba 0645 1eba
00000370: 9a6f 023c bb99 35bb 77db 8a3b bb06 d13b
00000380: b781 b03b 9338 873a 8821 b33c 5ddc 373c
00000390: 2ae0 98bb 615e 343b 95dd 69b9 0bc4 e93a
000003a0: 20fb 9a3c efba 5dbc e3ce 603b 77d9 03bc
000003b0: 61a8 853c 7fc2 ae3b 0eff 10bc 1a55 d03a
000003c0: e923 343c 6ecc 2939 52db 05bc 7a3f f23b
000003d0: 377d 25bc c522 ff3a b3cc 693c 434f 43bb
000003e0: cc0f 863c b847 fbbb 27d9 31bc 80cd 6bbb
000003f0: 7be6 36bc 1fb5 ec39 61a7 1e3c 381c 79b9
-0.015026432 0.0024648018 0.0014957754 0.014376195 0.0025953432 0.00037443862 -0.0027673685 0.01533764
-0.0077432855 0.0011871844 -0.0109650185 -0.0071347626 -0.011908891 0.0036011734 0.011547882 0.019340463
0.0026611763 -0.009482169 0.0025422727 -0.0036704638 -0.004950267 -0.008069762 -0.010724722 -0.010166036
-0.0011011002 -0.01401855 0.007387303 0.011907587 -0.008480613 0.001690949 -0.00060648186 -0.011604852
0.014987444 -0.0076736943 -0.0007180431 -0.0024314243 -0.0027019957 0.00966297 -0.0008198647 -0.014955501
-0.0043030255 -0.012679793 0.010135782 0.00869388 0.006070573 -0.0045515 -0.006249749 0.015388644
0.010201058 0.01929971 0.011579893 -0.0120901335 -0.0019759713 -0.0036049844 0.0021572583 -0.012772073
-0.0033145936 0.011672463 -0.0017177701 0.00092476263 0.01673067 0.0028896725 -0.0025072412 -0.0020594292
0.006321545 -0.0060843728 0.01087692 -0.002050082 0.005493372 0.008503009 -0.0021072326 -0.002745801
-0.012751013 -0.0008642765 -0.0131023275 -0.008618987 -0.005756029 0.008462253 0.004580622 -0.009322269
-0.018816723 0.014015804 0.0011107748 -0.0031128188 0.0035168005 0.012095046 -0.012538271 -0.0063840444
0.0023680546 0.004439616 0.009575895 -0.0042102127 -0.0047700224 -0.012426692 -0.0042429995 0.0012279502
-0.0061125415 0.016594058 -0.011110007 0.009279545 -0.024538403 0.0045982874 0.007616624 0.0063356645
-0.0035890534 -0.0042323726 0.0041629407 0.008065826 -0.0035483395 -0.008105061 -0.012456614 -0.0013419169
9.701639e-05 -0.006840416 -0.001778809 -0.0022687048 0.014492089 -0.01033242 -0.0016938616 0.00045175033
0.007272996 0.0034571183 0.0142981475 -0.003399901 0.009467848 0.010642168 -0.005467674 -0.009163007
0.004414311 0.0045519904 0.0144007895 0.00816577 0.002838535 0.0068516633 0.017620893 0.005857194
0.0055055423 -0.020525327 0.0049207164 -0.0012209865 -0.004007967 -0.015541583 0.0020210366 0.0072940025
-0.004589787 -0.0028147025 -0.008946355 0.005547629 0.0150131155 0.0027431601 0.010997453 0.007370806
0.0042770808 -0.0052279895 -0.0018048662 0.0010774586 0.0035377068 -0.005640413 0.0043990808 -0.014536942
0.012510288 -0.0070633204 0.0005634564 0.0118073635 -0.007163434 -0.011277775 -0.00067585876 0.006958393
0.008988808 0.00068286544 0.0044187205 0.019170124 0.005540149 0.014764108 0.0036062372 -0.0067362743
0.0019852829 -0.0074106427 0.010762923 0.002497676 -0.013888261 -0.0076635154 -0.01033774 -0.0038669189
0.005760578 -0.0026257872 0.009032412 0.0017165489 -0.00036332893 -0.005435088 0.012740086 -0.00571374
0.0003478583 0.011873396 0.0010606301 -0.0043908963 -0.01707794 0.0021289622 0.005050294 0.0022688785
-0.013336899 -0.018515201 -0.008370156 -0.007580112 0.0033558232 -0.014411928 0.0032220532 -0.003979092
0.009107011 -0.0028711825 -0.011647884 -0.0047697998 -0.0010923804 0.0044523696 -0.0024578867 0.00071230246
0.006014168 -0.0030523425 -0.0019034793 -0.0006037507 0.007961178 -0.0027710039 0.004237588 0.006378976
0.005386557 0.0010316543 0.021866575 0.011221972 -0.0046653943 0.0027522075 -0.00022303157 0.0017834915
0.018918574 -0.013533338 0.0034303002 -0.008047453 0.01631564 0.0053332443 -0.008849872 0.0015894503
0.01099489 0.00016193252 -0.008169966 0.007392821 -0.010100654 0.0019465318 0.0142699955 -0.0029801882
0.016364954 -0.0076684617 -0.010854996 -0.0035980642 -0.011163349 0.00045148373 0.009683461 -0.00023757003

action_model._discrete_distribution.branches.3.weight f4 [2, 128]
00000000: ffff 13bb 83ed 0cbc 478d 653c b5f2 043c
00000010: fc9f 1e3c 238d b3bb 237e 9cbc b1ce 95bb
00000020: e948 1ebc 2bc4 8a3c 0bb4 5bbc 1716 b83c
00000030: ab5a bcbb 1366 253c 47ec 133a db67 a9bc
00000040: bc1e 413b d363 a9bc d670 333b fca6 b73b
00000050: c5a0 f6bb 1e17 113b f3a3 b53b 6775 4d3c
00000060: 5cd9 10bb 1abb 5c3b f481 943b 7164 c0bb
00000070: 78ab b63a 0863 9fbb 421b 5dbb e8c3 203b
00000080: f1ee 9e3b eccc 81bb b876 7abb fd27 18bc
00000090: 76a3 223b 27e2 b6bb 1315 d9bb dbd0 963a
000000a0: ca9d 6c3c fafb 01bc d3d8 9fbb 2e48 163c
000000b0: 7a7c f5bb c61f 0dbc 27ca 2fbb 474f 3c3b
000000c0: a507 a239 e71b e1bb 0833 193c 214c a1bb
000000d0: 087d 7e3c 36a3 28bc 786e 42bc a33a a2bb
000000e0: 132b d73b b8a8 f43b 7b6f 5ebb e78b 793b
000000f0: 156f 57bc cdc0 acbb bed6 123a 6fed 373c
00000100: b8c6 7b3c 5d9c 61ba 7703 3dbb 40d0 fbbb
00000110: 77a4 42bc fd0a a2bb ffdd feba 5422 4b3b
00000120: ef75 c9bb d952 a33b 516c b93b 08c5 453c
00000130: 7775 04bc 2bbd e0ba a194 9b3b d788 473b
00000140: 2fbb 0d3c 6728 7cbc aca1 85ba aa21 203c
00000150: 1395 68bb 479b c9bb 675a 943b 1603 b1bb
00000160: cd5d 123c 855a 83ba eebd 85bc 644a 9fba
00000170: 1541 813b 46f1 a73c 122b 813b 0d9c 39bb
00000180: 2694 0ebc 57c8 0a3c ba2e 78bc a736 3b3c
00000190: 66f9 49bc f7c9 f8b9 6b05 73bb 93a5 92bb
000001a0: 1300 2e3b 05ba 1d3c c74e debb 9b8b 0f3a
000001b0: 75de a8bb af7d 1dba 6227 453c 4b32 1eba
000001c0: 93c1 413b 5fe7 c5bb 7911 973b 1546 a33b
000001d0: 05d4 5ebb 7bcb f83a 0cc9 453c 0752 86bc
000001e0: 3e5a 18bb 1fe7 c23b 2765 34bc 30c5 6abb
000001f0: 2d34 ce3b 5d55 1f3c d709 883b 1571 f8ba
00000200: c9b4 083a 02c6 32bc ffbe a6bb e967 0bbb
00000210: 0e6b 22bc 3532 d2ba 8da1 783a eba5 32bc
00000220: 1852 643c 9321 8c3c 939a 27bc 3047 2c3c
00000230: 46cf 48ba 3567 c339 618d 82bc f946 1a3c
00000240: d337 a23b d07b 003a 90b1 e33b ef09 0f3c
00000250: 97cc 633c 37ef 813c 7503 e53b eb20 3a3c
00000260: 0eaf 8b3b 5d51 dc3b dbbc 9d3b 78fb bc3b
00000270: 1948 1a3c 6394 b4b9 e7b0 5d3b 959c 533c
00000280: 3fde 17bc 8ab1 49bb 6d50 d7bb 2a36 d4b8
00000290: 65a7 1ebc b0c2 173b bd7a b439 320b a03b
000002a0: ebd4 483b db98 573c 9e72 103c 33c4 8cbb
000002b0: 830c 89ba da57 613b bb5c 2ebc 6763 193c
000002c0: 11d9 be3b fc7e 243c 9d38 333b 2da6 b93c
000002d0: bb8d 2c3c 116a 3bba df95 75b9 3fe5 b33c
000002e0: 958e 86bb c85a e2bb 6599 e0ba 4073 f7bb
000002f0: 3e78 473c db9d d93b 1b0d deb9 6742 05bb
00000300: 58e6 993b fb00 8fbb e52b 133c 2f5d 8438
00000310: 054a 563b ad8e b7bb c353 32bc a5f3 0a3b
00000320: 0fc3 05bb ee65 073c 1f5b 45bc 2257 623b
00000330: 6d0c c63b 172b 003c b063 443b 5222 793c
00000340: cb77 403c 9d72 b0bb 0137 473c 7569 d2ba
00000350: 6f24 b83b 7385 6f3b a716 ac39 fec7 4bb9
00000360: 0a54 91bb 2942 8d3b 801c 4139 db88 1ebc
00000370: 198e c6bb d367 f9ba 1021 193c 1bca 6cbc
00000380: 23d0 f03b 29e1 00bc 2abb 0bbc 74e7 b5ba
00000390: 7d36 fc3b 443f 24bc 2b57 a0bb 23ab 02bc
000003a0: 6b02 e03a 4c51 41bc 3f2d 6b3a 0d20 f33b
000003b0: 6a88 723c 1580 633c 7c84 02bb 1030 d63b
000003c0: 93e7 17bc d56b c73a 7f7d 113c 0ec7 42bb
000003d0: 9a33 bfbb fba5 833c 2b8f 86ba a241 513c
000003e0: ff47 f83b b3a9 1a3c df35 08bc 5bd5 1c3c
000003f0: 6c8f 28bc 1aee 6cbb 7acf 513b f8b7 4f3b
-0.0022583005 -0.008601549 0.014010734 0.0081145065 0.009681698 -0.0054794713 -0.019103115 -0.0045717587
-0.009660938 0.016939243 -0.013409625 0.02247147 -0.005748113 0.010095137 0.0005642813 -0.020679405
0.0029467782 -0.020677483 0.0027380488 0.005604623 -0.0075264894 0.0022139023 0.005543226 0.012540198
-0.0022102213 0.0033680857 0.004532093 -0.0058713485 0.00139366 -0.0048641004 -0.003373817 0.0024530832
0.0048502614 -0.003961196 -0.0038217735 -0.009286878 0.0024816669 -0.0055811587 -0.0066248267 0.0011506336
0.014441917 -0.007933611 -0.0048781424 0.009172482 -0.0074916454 -0.008613532 -0.0026823373 0.0028733776
0.00030904743 -0.0068697813 0.009350546 -0.0049224054 0.015532739 -0.010292819 -0.011867158 -0.0049508377
0.006566414 0.007466402 -0.003394096 0.0038077773 -0.013149043 -0.005272007 0.0005601457 0.011226042
0.015367202 -0.0008606369 -0.0028841177 -0.0076847374 -0.011880032 -0.0049451576 -0.0019444822 0.0030995803
-0.006148092 0.0049842414 0.0056586643 0.012070902 -0.008084646 -0.001714622 0.0047479426 0.0030446553
0.008650585 -0.015390492 -0.0010195277 0.009773651 -0.0035489246 -0.0061525437 0.0045273784 -0.005401979
0.008933497 -0.0010021484 -0.016325917 -0.0012152907 0.003944526 0.02050079 0.003941902 -0.0028321773
-0.0087023135 0.008470616 -0.015147859 0.011426604 -0.012327528 -0.00047452722 -0.0037082087 -0.0044753044
0.0026550337 0.00962687 -0.0067842933 0.000547582 -0.005153472 -0.0006007803 0.012033315 -0.0006034716
0.0029564842 -0.0060395445 0.004610237 0.0049827197 -0.0034000885 0.001898154 0.012071859 -0.016396536
-0.0023247148 0.005947962 -0.011010445 -0.00358231 0.006292841 0.009724942 0.0041515636 -0.00189546
0.00052149274 -0.010911467 -0.0050886865 -0.0021271652 -0.009913219 -0.0016036691 0.0009484522 -0.010903816
0.013935588 0.017105853 -0.010229724 0.010515019 -0.00076602807 0.00037270194 -0.015936555 0.009416335
0.0049505024 0.0004901262 0.0069486573 0.008730396 0.0139037585 0.015861137 0.0069889375 0.011360387
0.0042628115 0.0067235664 0.004813773 0.005767282 0.0094166035 -0.00034442832 0.0033827366 0.01291575
-0.009269296 -0.0030775988 -0.006570867 -0.000101190366 -0.009683465 0.0023156814 0.00034423723 0.004884147
0.0030644487 0.013159002 0.008816389 -0.0042958497 -0.0010455999 0.003438464 -0.010642226 0.009362078
0.005824216 0.010040041 0.0027346977 0.022662247 0.010531838 -0.0007149289 -0.00023420852 0.021959899
-0.0041063526 -0.0069077946 -0.0017135559 -0.0075515807 0.012174664 0.0066411323 -0.00042352904 -0.0020333768
0.0046966486 -0.0043641306 0.008982633 6.311607e-05 0.0032697928 -0.005601725 -0.010884228 0.0021202352
-0.0020410453 0.008264048 -0.012045651 0.0034536798 0.0060439617 0.007822773 0.0029966645 0.0152059365
0.011747311 -0.0053847567 0.01215911 -0.0016053157 0.0056195776 0.0036548048 0.00032823274 -0.00019434092
-0.004435067 0.0043108654 0.00018416531 -0.009676184 -0.00605942 -0.0019028134 0.009346262 -0.014452483
0.0073490306 -0.007866182 -0.00852851 -0.0013878183 0.007696925 -0.010024849 -0.0048932037 -0.0079753725
0.0017090564 -0.011799168 0.0008971281 0.0074195922 0.014803031 0.013885518 -0.0019915393 0.006536491
-0.00927152 0.0015214632 0.008880018 -0.0029720697 -0.005835009 0.016070357 -0.0010266056 0.012771996
0.007576942 0.0094398735 -0.008313625 0.009572352 -0.010288101 -0.0036152662 0.0032014535 0.0031695347

action_model._discrete_distribution.branches.4.weight f4 [2, 128]
00000000: 9bb1 303c c5a3 27bc 2d29 91bc 256c 723c
00000010: 849d 32bb e3bd 133c 5831 753c adb0 19bc
00000020: c7a9 09bc f389 6dbc 3930 afbb b770 25b9
00000030: dd98 8bbb f9a1 c4bb 3591 643c 516a 06bb
00000040: 4b81 86bb 2fad 5cbc af91 ad3a 5519 efbb
00000050: ab7c 103c 6d8e 2dbc 9aa9 5a3b 77f1 7dbb
00000060: d3a9 50bc a17d 16bc d5fa 4eba 2bbc 90bb
00000070: 3a1d d13b 7ded 043c cfb6 bb3b 2fe7 3d3a
00000080: 1b31 4b3c 0fda 8b3b 7f39 56bb 4bfa f23b
00000090: 3efc 1e3c b399 fa3b 7e7c 99ba 6f63 93bb
000000a0: d8ed f33b f3fb 63bc 86dc 2d3c 6e03 c53b
000000b0: 05ee 7e3b 1c30 993c 95f6 57bb f833 053b
000000c0: 67f6 d73b d8a8 263a 4871 74bb cbaa 8a3b
000000d0: 1d5d 843c b4b7 37ba 9f6d 9dbb 5fc3 d8bb
000000e0: 30fc e33b 6330 103c 5a90 1d3c 9bff 903b
000000f0: dd9b 903b ab04 db3b 7d63 98bc d3a9 88bc
00000100: ae43 39ba 1e2e cc3b ee47 97bc d23a ebbb
00000110: 1b94 f8bb 652f 40bc aaae d83a e42d 883b
00000120: 6f28 483c 0673 cbbb 0790 39bc 1e15 9ebb
00000130: 078e debb 8aab f93a 451e 8b39 5c4e 9abb
00000140: 73eb dcbb 37b4 adbc e500 92b7 7708 8e39
00000150: 87d5 f339 30b0 cb3b 3762 b53c a3e8 393c
00000160: 2539 3a3c b7c2 32bc e5d1 e63a a4f5 40bc
00000170: c73b 90bb 9200 8cbb 7550 6dbc e7ff 43bc
00000180: dff6 963b 843e c13b d43e 2ebc 3596 d83a
00000190: 772d b13b 84c4 c13c e4b5 0a3c 191d a63c
000001a0: 5363 c0bb 6f66 923b 37b9 873b 6558 a2bc
000001b0: 794d 403c 91a4 84ba f8ea 1d3b 3bdf d23a
000001c0: 98d0 19bc 0251 5eba 8094 68bb b3f2 57ba
000001d0: 514b 03bc f323 34bb 5af9 123b f3e7 1539
000001e0: 8f8a 79bc e2c6 e4bb 8c5f 32bb 92df 953c
000001f0: bb65 67bb 2b0d 4b3c d5a3 e1bb 9d65 3fbb
00000200: b842 abbc 8af2 0ebb b780 243c 3c4a 22b9
00000210: baaa 52bc a374 55bc 17ab 503c e79f d13b
00000220: d511 763a 091e afbb 71c2 a4bb 0fe5 0bbb
00000230: 5f4b 7e3c 7b56 413b b4d4 acba a34e e03a
00000240: cbb3 87bb fb9f 9fb9 38cd 403c e3ae b0ba
00000250: 1f48 12bc eb5e 99bc f762 963a a5b2 da3b
00000260: 900d 1a3c 7de8 4dbc 4e5c 883c bb79 09bc
00000270: 35c8 32bc 5dd9 ccbb ade1 a13c 0044 543c
00000280: d2c3 2c3b 659d 40bc 6273 7d3c e003 883a
00000290: 3be1 633c dff1 56bc 832f e73b 7fbf fbbb
000002a0: 1feb 0dbc c70a 3b3b 3b30 2bbb 62be d23b
000002b0: 37bd f1bb 66cc 243c f32b 0bba bc8b 8d3a
000002c0: a313 85bc 50f1 ce3b 9897 c5ba 581a a53b
000002d0: 5bdf 6dbb 2269 bebb 5a77 eeba 5433 843b
000002e0: c44c aa3b 8ec9 a43b ef31 d3bb cf04 f9b9
000002f0: c31e 1bbc df18 a2bb 8fa2 243c 5260 46bc
00000300: 624a 033b 23cc d13b fb1b 24bc 6d45 f73b
00000310: ecf2 09bc 9f08 49bc f52f dbbb 45f1 0dbc
00000320: f7ac fd3a 138b d63b 93e8 a6bb 5cd9 04bc
00000330: 3595 d7bc 83e1 c1bb 130b 22bc 73e5 1a3c
00000340: e257 f1bb c396 a7ba 835d 403c 097a 333c
00000350: 052c ea3b 144a 353c 10cc 66bb 0d72 80bc
00000360: c917 823a 35b9 36bb 0764 303c 935d 21bc
00000370: 4ff5 423b 6be0 063c 2f99 003b bfaa cdbb
00000380: 6993 9f3b e853 b7bb 2db3 1d3c 59db 1ebc
00000390: ba62 61bc 17ed 243c 1a3f 9abb 0695 173c
000003a0: 93e4 72bc 40ef a5b9 9cda cabb 539c efbb
000003b0: 5a14 4d3a 75cf e6bb b967 8dbb 7b2c f03b
000003c0: 9834 913b a12d cbbb 0795 9e3b 672d 1c3c
000003d0: 08f4 143c 5ffb 153c cf16 ad3a 06fe 18bb
000003e0: 9267 e3bc 6fb0 0fbb 230c 9cbc da17 d83b
000003f0: 9dcc fc3b d6b8 97bb cd9e 9d3b 9756 0f3b
0.010784532 -0.010231917 -0.01771983 0.0147962915 -0.002725453 0.0090174405 0.014965378 -0.009380502
-0.0084022945 -0.014498222 -0.0053463248 -0.00015777616 -0.004260166 -0.006000754 0.013950636 -0.0020510147
-0.0041047684 -0.013469025 0.001324227 -0.007296721 0.008818786 -0.010593039 0.003336525 -0.003874866
-0.012735802 -0.009185226 -0.0007895653 -0.0044169626 0.006381658 0.008113262 0.0057285796 0.0007244227
0.012401844 0.004267938 -0.003268808 0.007415091 0.009703694 0.007647717 -0.0011710075 -0.0044979374
0.0074441247 -0.01391505 0.010611659 0.0060123717 0.0038899195 0.018699698 -0.003295337 0.0020325165
0.0065906527 0.0006357557 -0.0037298966 0.004231786 0.016157681 -0.000700827 -0.0048043276 -0.006615087
0.0069575533 0.008800599 0.009616936 0.004425002 0.0044131116 0.006683906 -0.018602127 -0.016682541
-0.0007067275 0.0062310835 -0.018466916 -0.007178643 -0.007586015 -0.01173005 0.0016531546 0.004155861
0.012216671 -0.00620878 -0.011325843 -0.0048242947 -0.0067918333 0.0019048315 0.000265347 -0.004709048
-0.006741935 -0.021204097 -1.7404973e-05 0.00027090657 0.00046507662 0.0062160715 0.022141559 0.011346969
0.011366163 -0.010910681 0.0017610161 -0.011777315 -0.0044016573 -0.004272529 -0.0144845145 -0.011962867
0.004607066 0.005897345 -0.010635097 0.0016524257 0.005407031 0.023653276 0.008466218 0.020277547
-0.0058712154 0.0044677774 0.0041419524 -0.01981754 0.011737221 -0.0010119845 0.002409635 0.0016088256
-0.0093881115 -0.0008480699 -0.0035488904 -0.0008237764 -0.008013562 -0.0027487248 0.0022426457 0.00014296155
-0.015230789 -0.0069817165 -0.0027217595 0.018295083 -0.0035308439 0.012393276 -0.0068859854 -0.0029204853
-0.020905837 -0.0021812045 0.010040454 -0.00015477178 -0.012858087 -0.013028297 0.0127361035 0.0063972357
0.00093868125 -0.0053441566 -0.005028062 -0.0021346246 0.0155209 0.002950101 -0.0013185949 0.0017113279
-0.004141306 -0.00030446038 0.011767678 -0.0013479855 -0.008928328 -0.018722018 0.0011473586 0.006674128
0.009402648 -0.012567637 0.016645577 -0.008390839 -0.010911991 -0.0062514977 0.01976093 0.012955666
0.0026361835 -0.011756276 0.015469404 0.0010377131 0.01390868 -0.01311919 0.0070552244 -0.00768274
-0.008662014 0.002854036 -0.0026121277 0.006431387 -0.0073772925 0.010058498 -0.0005308978 0.001079909
-0.016244715 0.006315388 -0.0015075086 0.005038541 -0.003629646 -0.0058108727 -0.0018193529 0.004034439
0.0051971395 0.00502891 -0.0064451615 -0.00047496564 -0.009467783 -0.0049468125 0.010048523 -0.0121079255
0.002003335 0.006402509 -0.010016437 0.007546118 -0.0084197335 -0.012270122 -0.0066890665 -0.00866348
0.0019353916 0.0065473407 -0.005093643 -0.008108463 -0.026316265 -0.0059167757 -0.009890336 0.009454119
-0.007365213 -0.0012786019 0.011741045 0.010954388 0.007146361 0.011065025 -0.0035216846 -0.015679384
0.0009925301 -0.0027881388 0.010766036 -0.00984897 0.0029748266 0.008232216 0.0019622555 -0.006276458
0.0048698676 -0.005594719 0.009625238 -0.009695851 -0.013756448 0.010066292 -0.0047072293 0.009251839
-0.014825004 -0.00031649508 -0.006190611 -0.0073123365 0.0007823162 -0.007043774 -0.004315343 0.0073295212
0.0044313185 -0.0062005077 0.004839543 0.009532309 0.009091385 0.00915417 0.001320565 -0.002334477
-0.027759347 -0.002192523 -0.019048756 0.00659464 0.0077148215 -0.0046301885 0.0048101903 0.002187168
