Assets/results/ppo/My Behavior/My Behavior-0.pt (torch, 219512 bytes, 38 tensors)

discrete_act_size_vector f4 [1, 14]
000000 00 00 00 40 00 00 00 40 00 00 00 40 00 00 00 40
       2.0 2.0 2.0 2.0
000010 00 00 00 40 00 00 00 40 00 00 00 40 00 00 20 41
       2.0 2.0 2.0 10.0
000020 00 00 20 41 00 00 20 41 00 00 20 41 00 00 20 41
       10.0 10.0 10.0 10.0
000030 00 00 20 41 00 00 20 41
       10.0 10.0

network_body._body_endoder.seq_layers.0.weight f4 [128, 24]
000000 c6 c7 70 be 5f 58 53 3e 13 77 ae 3d 5a 12 1d 3d
       -0.23513708 0.2063918 0.08518805 0.03834758
000010 7a b2 ab bc f0 f9 74 be 2a 72 63 be f5 a7 fb bd
       -0.020959128 -0.23923469 -0.22211519 -0.12287895
000020 6e 09 97 bd 83 45 aa 3d 5d 9b 98 be 1d c0 32 be
       -0.073748454 0.083140396 -0.29806033 -0.17456098
000030 f9 29 3d be 59 8a 03 3a a2 a6 23 3e af 73 df 3d
       -0.18473043 0.0005017869 0.15981534 0.10910737
000040 64 9c c0 be 92 fc 33 3d 49 e5 ce 3c 94 5f 94 be
       -0.37619317 0.04394204 0.025255816 -0.2897917
000050 8f 26 c3 3e dd 28 b8 3d 48 09 8e be 7d 29 40 3e
       0.38115355 0.08992169 -0.27741456 0.18765827
000060 e9 6c a7 3e c6 ec 89 3d da e9 4b be f6 17 46 be
       0.3270028 0.06734614 -0.19913426 -0.19345078
000070 06 d5 ad bd da 78 80 bd b6 c4 bc 3e ec 0d 93 3e
       -0.084878966 -0.062730506 0.3686883 0.2872156
000080 a6 12 ee be 8b 7d f1 3e 0a 7d 0f 3e 54 78 96 bc
       -0.46498603 0.47166094 0.14012542 -0.018367924
000090 33 01 66 be 5b df 8c 3e ec cc a8 bd 74 41 8a 3e
       -0.22461395 0.27514157 -0.08242211 0.27003062
0000a0 a8 87 04 3d d7 66 8c bd 82 1e bb bc 70 1e 17 3d
       0.032355934 -0.06855553 -0.022841696 0.03689426
0000b0 87 9e 06 be 93 7d c7 bd ed 29 51 3d e6 a2 3f 3d
       -0.13146411 -0.09740748 0.051065374 0.04678621
0000c0 2f 25 19 3e de 54 94 3d d1 84 d6 bd 40 cf 7d 3e
       0.1495559 0.0724275 -0.104745515 0.24786091
0000d0 a1 0b 8a be 93 3f fe bd 84 b8 66 bd 7c 8d 83 3e
       -0.26961997 -0.124144696 -0.05632831 0.25693882
0000e0 d9 10 9b 3b f2 3a 8d bd fe 08 69 be 95 f4 8d 3e
       0.004732233 -0.068960086 -0.22757336 0.27725664
0000f0 37 d9 88 3e 91 25 c5 3e 51 8d 8d 3e bb 5a ca be
       0.26728222 0.38505223 0.27646878 -0.39522347
000100 a5 49 3c be 1c 1c 32 be 6f 8d 8c be 39 b8 d6 be
       -0.18387468 -0.17393535 -0.27451655 -0.41937426
000110 6f 86 84 bd cd 05 11 3e 08 d4 e8 bd 19 01 0f 3e
       -0.06470954 0.14162369 -0.11368567 0.13965262
000120 a9 0d 93 3c b6 46 91 3b 78 d8 08 be 85 d4 5a 3e
       0.01795085 0.004433478 -0.13363826 0.21370132
000130 f4 44 85 be 61 2e 0a 3e e5 cc 9b be 30 ac 45 3d
       -0.2602917 0.13494255 -0.3042976 0.048259914
000140 7d 5f ee be 9c 7a 94 3c 72 c2 e9 3b 11 51 e3 be
       -0.46557227 0.018124871 0.0071337754 -0.44397786
000150 f0 9a fb 3d 2e ec af 3d 13 aa 56 3e 7b 9f 98 3d
       0.12285411 0.085899696 0.20963316 0.074522935
000160 4f 79 c4 3e d3 eb da 3b 7b d0 6b 3e 52 0d df bc
       0.383738 0.0066809445 0.23028748 -0.027228031
000170 09 c6 32 3d fa 19 53 3d 2a 6b 84 bd cd 59 3b 3d
       0.043645892 0.051538445 -0.064657524 0.045739938
000180 99 21 bf 3e 10 97 97 be 6d fd 54 3e a5 8b 93 bd
       0.3733032 -0.2960744 0.207998 -0.072043695
000190 1b 44 1d 3e e6 50 a3 3e 90 be e6 bc c7 bc 15 3e
       0.15358011 0.31897658 -0.02816704 0.14622794
0001a0 ec 9c 0c bd ff 00 a6 3e 6f d9 f7 bd 2d 19 64 ba
       -0.03432934 0.32422635 -0.12102019 -0.0008701261
0001b0 31 98 b6 3d e9 55 59 bd af 2e af 3e 14 a8 a9 be
       0.08915747 -0.053060446 0.34215304 -0.33136046
0001c0 82 e6 18 3e de 11 14 be 52 43 06 3d ce cb 10 be
       0.14931682 -0.14459941 0.032779045 -0.14140245
0001d0 2e 55 27 3e 8a 15 e5 3d ff 23 76 3e ec 7f ce be
       0.16341087 0.11185749 0.24037169 -0.40331972
0001e0 98 65 85 3c 5d 73 27 3e 93 a4 0c be 7c 08 61 bd
       0.016283795 0.16352601 -0.13734655 -0.054939732
0001f0 7f fd 84 3e 40 50 97 bd da af 8e be 77 6f 88 be
       0.25974652 -0.07388353 -0.2786854 -0.2664754
000200 47 c7 3e 3d c3 e8 32 be f2 ce c6 3d 77 5b 37 3e
       0.046576764 -0.17471604 0.097074404 0.17905985
000210 2e 83 60 3e 1b c7 a3 bd 44 4a 6c be 8d 63 36 be
       0.21925041 -0.07996961 -0.23075205 -0.17811413
000220 0c 65 3c 3d 3a 81 e0 3d 8b 83 26 3e a1 cf 1e 3e
       0.045994803 0.10962148 0.16261117 0.15508892
000230 c2 5b aa bd 52 2e 8a be ec 7e d2 3d 9a 78 41 bd
       -0.08318283 -0.26988465 0.10278115 -0.047234155
000240 ed 4d b4 3d 7a 91 2a be 90 80 94 bc 1f 8f a0 be
       0.08803926 -0.16657057 -0.01812771 -0.31359193
000250 79 11 42 be d6 a3 8f 3e f7 9b f6 be 49 73 00 3f
       -0.18951978 0.28054684 -0.48165867 0.5017591
000260 7d 7a 38 bd b2 12 55 be b8 6f c3 bc 46 29 68 bd
       -0.04503869 -0.20807913 -0.023856983 -0.056679986
000270 90 7c 8c 3e f9 3a 69 3e c0 84 04 3d 87 b4 4c be
       0.27438784 0.22776403 0.032353163 -0.1999074
000280 fb 76 8d 3e 28 ad 88 3d 0f e8 e4 3d 0e 29 8f 3e
       0.27629837 0.06673652 0.11177074 0.2796101
000290 d3 22 bd bd 07 88 72 be b8 9b 9a 3e 8d 62 e7 3d
       -0.09235158 -0.23684703 0.3019693 0.11298094
0002a0 54 1d d3 3e a3 9d e6 bc d9 74 62 3c a2 ef 5c be
       0.41233313 -0.028151339 0.013821804 -0.21575788
0002b0 2f 83 ab 3e f8 eb 73 3e 3a 8f b6 bc a1 1c 10 3e
       0.33498523 0.23820484 -0.022285093 0.14073421
0002c0 5c d8 3b 3d a6 4b 6f be b4 ea b4 3d 55 c9 dc bd
       0.045860633 -0.23368701 0.088338286 -0.107805885
0002d0 d8 29 89 3c fc 82 1c 3e 7c ad b1 3e 6d 30 85 bb
       0.016743585 0.15284342 0.3470267 -0.0040646107
0002e0 3f ce 12 be 1f d6 40 3e c3 76 3f bd 85 37 c8 be
       -0.14336489 0.1883168 -0.04674412 -0.39104858
0002f0 dc e9 b3 3d df a0 63 3e e0 4c 5f be f0 9f 23 be
       0.087848395 0.22229336 -0.21806669 -0.1597898
000300 7b 1a 35 3e f9 c7 2d 3d 72 19 33 3e 49 03 52 be
       0.17685883 0.042427037 0.17490175 -0.20509066
000310 72 eb e4 3d da 36 a5 3e f6 2a 2d 3e f5 30 f5 bd
       0.1117772 0.3226841 0.1691092 -0.119722284
000320 d4 60 58 3d 72 93 32 bd 45 ca 0b 3d ad 36 13 bd
       0.052826717 -0.043597646 0.034128446 -0.035940815
000330 a7 34 80 bc 3a 1d 4c 3c e1 c3 04 bd db a2 53 bd
       -0.015650107 0.01245814 -0.032413367 -0.051668983
000340 01 bc 80 be 30 7b 4b bd a6 16 46 3d f4 69 64 be
       -0.25143436 -0.049678028 0.048361443 -0.22306043
000350 f9 df b4 3e 67 03 ba be 45 fb a2 bd 5c fd 1c 3e
       0.35327128 -0.3633072 -0.07958082 0.15331024
000360 63 4f 46 3e c1 ce 3b 3e fe d9 8e 3d bf 0e 37 3e
       0.19366221 0.18340589 0.069751725 0.17876719
000370 cc c0 64 3e 6f ce 30 bd 51 a2 7b bd e9 87 25 3e
       0.22339171 -0.04316562 -0.061434094 0.16165127
000380 37 17 07 be 32 db dc bc 5c 76 ed 3e c7 5e 2d 3e
       -0.1319245 -0.02695999 0.46379364 0.16930686
000390 b2 d7 28 bc cf 76 1f 3d 59 8e e1 3c 38 db 90 be
       -0.010305332 0.038931664 0.027533697 -0.2829225
0003a0 78 f6 a0 be 4d cf 2c be 0f d2 7a 3e 6c 71 4a be
       -0.3143804 -0.16875954 0.24494193 -0.1976983
0003b0 43 ea 96 be 95 df 36 bd 96 23 a9 3d ff d6 a7 3e
       -0.29475603 -0.04464682 0.082587406 0.32781217
0003c0 34 9c cf 3d 4c 7b 81 bd 19 eb a9 be b5 8c 47 3e
       0.10137215 -0.06322345 -0.33187178 0.19487269
0003d0 5d e1 18 be 15 bf ce be 6e 55 c1 3c e6 44 2f 3e
       -0.1492972 -0.4038016 0.023600306 0.17116126
0003e0 ba 0f 19 be 99 ec 1e 3e 5b bc d2 3c 27 a3 4c 3e
       -0.14947405 0.15519942 0.02572458 0.19984113
0003f0 de 34 ed 3d 30 69 e6 3d 32 f1 8a be 29 ba 9b be
       0.11582349 0.11250532 -0.27137142 -0.30415466

network_body._body_endoder.seq_layers.0.bias f4 [128]
000000 00 00 00 00 00 00 00 00 00 00 00 00 00 00 00 00
       0.0 0.0 0.0 0.0
000010 00 00 00 00 00 00 00 00 00 00 00 00 00 00 00 00
       0.0 0.0 0.0 0.0
000020 00 00 00 00 00 00 00 00 00 00 00 00 00 00 00 00
       0.0 0.0 0.0 0.0
000030 00 00 00 00 00 00 00 00 00 00 00 00 00 00 00 00
       0.0 0.0 0.0 0.0
000040 00 00 00 00 00 00 00 00 00 00 00 00 00 00 00 00
       0.0 0.0 0.0 0.0
000050 00 00 00 00 00 00 00 00 00 00 00 00 00 00 00 00
       0.0 0.0 0.0 0.0
000060 00 00 00 00 00 00 00 00 00 00 00 00 00 00 00 00
       0.0 0.0 0.0 0.0
000070 00 00 00 00 00 00 00 00 00 00 00 00 00 00 00 00
       0.0 0.0 0.0 0.0
000080 00 00 00 00 00 00 00 00 00 00 00 00 00 00 00 00
       0.0 0.0 0.0 0.0
000090 00 00 00 00 00 00 00 00 00 00 00 00 00 00 00 00
       0.0 0.0 0.0 0.0
0000a0 00 00 00 00 00 00 00 00 00 00 00 00 00 00 00 00
       0.0 0.0 0.0 0.0
0000b0 00 00 00 00 00 00 00 00 00 00 00 00 00 00 00 00
       0.0 0.0 0.0 0.0
0000c0 00 00 00 00 00 00 00 00 00 00 00 00 00 00 00 00
       0.0 0.0 0.0 0.0
0000d0 00 00 00 00 00 00 00 00 00 00 00 00 00 00 00 00
       0.0 0.0 0.0 0.0
0000e0 00 00 00 00 00 00 00 00 00 00 00 00 00 00 00 00
       0.0 0.0 0.0 0.0
0000f0 00 00 00 00 00 00 00 00 00 00 00 00 00 00 00 00
       0.0 0.0 0.0 0.0
000100 00 00 00 00 00 00 00 00 00 00 00 00 00 00 00 00
       0.0 0.0 0.0 0.0
000110 00 00 00 00 00 00 00 00 00 00 00 00 00 00 00 00
       0.0 0.0 0.0 0.0
000120 00 00 00 00 00 00 00 00 00 00 00 00 00 00 00 00
       0.0 0.0 0.0 0.0
000130 00 00 00 00 00 00 00 00 00 00 00 00 00 00 00 00
       0.0 0.0 0.0 0.0
000140 00 00 00 00 00 00 00 00 00 00 00 00 00 00 00 00
       0.0 0.0 0.0 0.0
000150 00 00 00 00 00 00 00 00 00 00 00 00 00 00 00 00
       0.0 0.0 0.0 0.0
000160 00 00 00 00 00 00 00 00 00 00 00 00 00 00 00 00
       0.0 0.0 0.0 0.0
000170 00 00 00 00 00 00 00 00 00 00 00 00 00 00 00 00
       0.0 0.0 0.0 0.0
000180 00 00 00 00 00 00 00 00 00 00 00 00 00 00 00 00
       0.0 0.0 0.0 0.0
000190 00 00 00 00 00 00 00 00 00 00 00 00 00 00 00 00
       0.0 0.0 0.0 0.0
0001a0 00 00 00 00 00 00 00 00 00 00 00 00 00 00 00 00
       0.0 0.0 0.0 0.0
0001b0 00 00 00 00 00 00 00 00 00 00 00 00 00 00 00 00
       0.0 0.0 0.0 0.0
0001c0 00 00 00 00 00 00 00 00 00 00 00 00 00 00 00 00
       0.0 0.0 0.0 0.0
0001d0 00 00 00 00 00 00 00 00 00 00 00 00 00 00 00 00
       0.0 0.0 0.0 0.0
0001e0 00 00 00 00 00 00 00 00 00 00 00 00 00 00 00 00
       0.0 0.0 0.0 0.0
0001f0 00 00 00 00 00 00 00 00 00 00 00 00 00 00 00 00
       0.0 0.0 0.0 0.0

network_body._body_endoder.seq_layers.2.weight f4 [128, 128]
000000 de 46 7f bd 63 9a 07 3d 6c 26 34 3e 61 1a d1 bc
       -0.062323444 0.03310622 0.17592782 -0.025525274
000010 de 8e c6 bd 32 85 0f be ad 34 64 bc 5d 53 85 bd
       -0.096952185 -0.14015654 -0.0139285745 -0.06510041
000020 80 07 03 bd 18 b9 02 be 75 b0 4c 3b 32 21 93 bc
       -0.031989574 -0.1276592 0.0031233106 -0.017960165
000030 34 15 fd bd ed 52 7c bd fc dc c0 3d e0 b6 09 be
       -0.1235756 -0.06160252 0.094171494 -0.13448668
000040 b4 0a 52 3e 38 c6 64 3d dd d5 26 be c2 c6 52 bd
       0.20511895 0.0558531 -0.1629252 -0.05145908
000050 57 93 19 3e f7 12 8a bc c5 2a fd bd 19 64 7f bd
       0.14997612 -0.016854746 -0.12361673 -0.06235132
000060 a5 12 86 3c 07 c9 df 3d 51 c8 1f ba 12 ef c3 bc
       0.016366312 0.10927015 -0.0006095218 -0.023917709
000070 cb 31 d7 3d f3 92 04 3d a8 ba e6 3d 68 13 a5 bd
       0.10507544 0.032366704 0.112660706 -0.08060342
000080 e4 16 0c 3e 57 f2 b3 3d 26 41 e5 3d b6 bd 3d be
       0.13680607 0.08786457 0.11194067 -0.185294
000090 93 e1 14 be b2 26 db 3d d4 82 2a bd ca d3 f0 3d
       -0.14539175 0.1070074 -0.041628674 0.117591456
0000a0 44 69 fb 3d b8 38 d0 3d 29 4d 33 be 08 34 33 bc
       0.12275937 0.10167068 -0.17509903 -0.010937698
0000b0 a7 6d d4 3d 10 2f 2c 3c 16 8a b0 bd 8e 5c 9c 3d
       0.10372477 0.010509267 -0.08620088 0.07634841
0000c0 06 e3 5b bb a8 e6 2d 3d 64 08 27 be b0 4f bd 3a
       -0.0033552065 0.0424563 -0.16311795 0.0014443304
0000d0 23 b2 11 bb 42 cd fa bd ad 2e 60 bd 43 7f 10 bd
       -0.0022231422 -0.12246181 -0.054732013 -0.035277616
0000e0 f5 d8 b0 3d f5 51 ae bc 47 57 89 bd 5b cd 92 3d
       0.08635131 -0.021279315 -0.067061 0.07168075
0000f0 c6 86 91 3c fa e2 f3 3d a8 13 1f 3e 13 81 91 3b
       0.01776446 0.11908527 0.15534842 0.0044404357
000100 39 6b 4c bd 07 74 42 be fd 4c a3 bc 26 83 e7 3c
       -0.049906943 -0.18989573 -0.019934172 0.028260779
000110 76 63 d9 bd aa e7 d9 3a 3f ba 25 bd 4d 7d 5a 3c
       -0.10614674 0.0016624827 -0.04046082 0.013335538
000120 5e 78 8e 3d 0c ee a0 bb 39 39 9a bc 48 23 9c 3c
       0.06956552 -0.00491119 -0.018826114 0.019059792
000130 bb 00 10 3e c9 d6 d2 3c b4 d5 b2 3d d7 d5 85 bd
       0.14062779 0.025737183 0.08732167 -0.06534927
000140 d6 77 0d 3d 82 25 81 3d e2 c5 6b be 41 9b 1c 3e
       0.034538113 0.06305982 -0.23024705 0.152936
000150 da 96 94 3d 09 c0 c8 3c 79 33 71 3d 28 5f a0 bd
       0.07255335 0.024505632 0.05888698 -0.078306496
000160 b5 93 0c bd e5 ad d2 ba 06 1e 36 3d 7b 2a 6d 3d
       -0.034320552 -0.0016073553 0.044462226 0.05790184
000170 55 ff 5a bd 32 b9 74 3d 78 40 37 3e 28 84 5c be
       -0.05346616 0.05974693 0.17895687 -0.21534789
000180 97 5d ae bd 3f da b5 3d 71 23 01 be 77 66 78 3d
       -0.085139446 0.08879518 -0.12611176 0.060644593
000190 53 5c 1b be b0 a1 05 3e 17 f8 dd 3d a7 9b bc bc
       -0.15171938 0.1304996 0.10838335 -0.02302344
0001a0 e4 9f be bc 6e eb 19 3d 0d 41 00 be 2b 6f 90 3e
       -0.023269601 0.03757804 -0.12524815 0.28209814
0001b0 74 2c b6 3d ad 7c 2d 3e f9 7c 4e 3d 82 b5 39 be
       0.088951975 0.16942091 0.050412152 -0.18135646
0001c0 5c 09 bd 3b e3 ba 8a 3e 09 66 60 3e 1b 4a 8d 3d
       0.005768938 0.27095708 0.21913923 0.068989
0001d0 de aa 7e be 75 cd 58 bc 45 ee e1 bd 7b be 9f 3c
       -0.24869868 -0.0132325785 -0.110317744 0.019500008
0001e0 d6 66 03 be d0 5d a1 bc e8 c3 6a bc 34 88 52 3d
       -0.12832198 -0.019698054 -0.014328934 0.051399425
0001f0 78 c1 25 3e f5 77 3f bd 36 1c c7 bc 3f e0 b2 3d
       0.16187084 -0.04674526 -0.024305444 0.08734178
000200 f2 fb 23 3e 95 06 30 3d 70 8d f8 3b 14 95 ca 3c
       0.16014078 0.042975027 0.00758522 0.02472929
000210 b3 50 3b bd 58 cc fa 3d 5a ed df 3d 8d aa 08 be
       -0.045731258 0.12246007 0.10933943 -0.1334631
000220 d6 d1 c4 bd 97 0a ed 3d aa db 22 be 50 79 47 3e
       -0.096103355 0.115742855 -0.15904108 0.19479871
000230 de cc dd b8 4a 37 1e 3c 48 b8 01 bb 43 95 aa bd
       -0.00010576261 0.009656737 -0.0019793678 -0.08329251
000240 fb d0 ec 3c 55 ed 0f 3e d1 32 ac bd 0b dc 98 ba
       0.028908243 0.14055379 -0.0840813 -0.0011662258
000250 7c fa 94 3d ce 78 c4 3d 73 e0 b5 bc 13 f5 2d bc
       0.072743386 0.09593354 -0.022201752 -0.010617512
000260 f6 fc b5 3d 1e c8 e8 3d 11 f6 33 bc 62 3a 3c 3d
       0.08886139 0.11366294 -0.01098396 0.045954116
000270 1f f8 e8 3d 96 2f c7 3c c8 2d b7 3d 43 8a aa bc
       0.1137545 0.024314683 0.08944279 -0.020817881
000280 1b 2b 93 3d 24 e8 dd 3d 41 f1 5e 3e fe 80 20 3c
       0.07185956 0.10835293 0.21771719 0.009796379
000290 3d 7c 59 3d f8 d5 32 be 90 66 ed 3d 50 fc 41 3d
       0.053097 -0.17464435 0.11591828 0.047359765
0002a0 f5 04 e1 bc 82 48 e1 3c dd 06 57 3c 57 ed cf ba
       -0.027468184 0.027500395 0.013124195 -0.001586358
0002b0 a7 81 be 3c 3c f9 68 bd e2 35 dd 3b d1 5b ab 3c
       0.023255182 -0.056878313 0.006750808 0.020917805
0002c0 26 76 be bc 4d 39 16 be 42 6d 6a bd 1b 95 0e 3e
       -0.023249697 -0.14670296 -0.057233103 0.13924067
0002d0 6f bd 08 3e a7 59 f3 3d f9 84 47 be 73 e0 44 be
       0.13353513 0.11882334 -0.19484319 -0.19226246
0002e0 5e 7e a5 3c 32 88 9a bd 56 ce 1a be 1c 0d cd 3c
       0.020201858 -0.075455084 -0.15117773 0.025030665
0002f0 09 c0 d0 3d f6 80 65 3d ee 0a e9 3c 5d 73 a8 3d
       0.10192878 0.05603119 0.028447594 0.08225129
000300 a6 f6 dd bd 22 59 55 3d 80 73 24 be 74 a6 37 be
       -0.1083806 0.052086957 -0.16059685 -0.1793459
000310 41 f1 db bd 1e 14 31 3c 7a 7a 45 bd cc 4e 8e 3b
       -0.10739375 0.010808019 -0.048212506 0.0043428894
000320 00 c2 cd bd 14 bb 21 3d 32 81 2f 3d 15 5a 8e bc
       -0.10046768 0.039485052 0.04284782 -0.017376939
000330 28 6f 0d 3e 9d d0 60 3d 2e ab a4 bd 23 35 ea bd
       0.13811934 0.05488645 -0.080404624 -0.11435916
000340 07 95 92 bc 8d a9 b1 3d 91 3c 6a 3d a1 3e 25 3d
       -0.017893327 0.08674917 0.057186667 0.04034293
000350 bf 47 0c 3c d9 3a fb bd de e9 66 be cc e0 95 bc
       0.0085620275 -0.12267084 -0.22550151 -0.018295668
000360 1d 53 97 3c 83 e0 51 bd 6e 07 c9 bc c8 8d 29 3d
       0.018472249 -0.0512395 -0.024539676 0.04139498
000370 4b 2c ab bd c0 50 19 bc 26 f0 b4 3b 47 93 35 bd
       -0.083580576 -0.009357631 0.005521792 -0.044329908
000380 db df 21 bd 16 b1 bc 3d 49 c0 12 bd 69 2d 64 bc
       -0.039520126 0.09213464 -0.03582791 -0.013926842
000390 b2 5a 53 3d a4 fd 6d 3e 58 66 ad bd cf 91 f2 3b
       0.051600166 0.23241287 -0.08466786 0.0074026356
0003a0 be cf 90 bc 04 49 e7 bd 9e 0a 31 bc 9c 48 85 3d
       -0.017677184 -0.112932235 -0.010805754 0.0650799
0003b0 4d fb 56 bd a6 d9 41 bc c0 fc 5d be 8d 59 52 3d
       -0.052485753 -0.011831677 -0.21678448 0.051354934
0003c0 dc cc cf 3d b6 81 fa bb 71 2d 87 3d ac 48 1d 3d
       0.10146496 -0.0076448573 0.06600464 0.038399383
0003d0 5c a9 24 3e 97 1d bb bd fc c2 cd bd c0 64 44 3d
       0.1608023 -0.09136503 -0.10046956 0.047947645
0003e0 7d e3 e2 3d 78 3f 46 bc 85 4d 9f 3c 69 75 f1 3d
       0.11078546 -0.012100093 0.019446144 0.11789972
0003f0 d2 24 20 3e 05 5e cc 3d cb a5 85 bd c7 6e 42 3d
       0.15639046 0.0997887 -0.06525763 0.047468927

network_body._body_endoder.seq_layers.2.bias f4 [128]
000000 00 00 00 00 00 00 00 00 00 00 00 00 00 00 00 00
       0.0 0.0 0.0 0.0
000010 00 00 00 00 00 00 00 00 00 00 00 00 00 00 00 00
       0.0 0.0 0.0 0.0
000020 00 00 00 00 00 00 00 00 00 00 00 00 00 00 00 00
       0.0 0.0 0.0 0.0
000030 00 00 00 00 00 00 00 00 00 00 00 00 00 00 00 00
       0.0 0.0 0.0 0.0
000040 00 00 00 00 00 00 00 00 00 00 00 00 00 00 00 00
       0.0 0.0 0.0 0.0
000050 00 00 00 00 00 00 00 00 00 00 00 00 00 00 00 00
       0.0 0.0 0.0 0.0
000060 00 00 00 00 00 00 00 00 00 00 00 00 00 00 00 00
       0.0 0.0 0.0 0.0
000070 00 00 00 00 00 00 00 00 00 00 00 00 00 00 00 00
       0.0 0.0 0.0 0.0
000080 00 00 00 00 00 00 00 00 00 00 00 00 00 00 00 00
       0.0 0.0 0.0 0.0
000090 00 00 00 00 00 00 00 00 00 00 00 00 00 00 00 00
       0.0 0.0 0.0 0.0
0000a0 00 00 00 00 00 00 00 00 00 00 00 00 00 00 00 00
       0.0 0.0 0.0 0.0
0000b0 00 00 00 00 00 00 00 00 00 00 00 00 00 00 00 00
       0.0 0.0 0.0 0.0
0000c0 00 00 00 00 00 00 00 00 00 00 00 00 00 00 00 00
       0.0 0.0 0.0 0.0
0000d0 00 00 00 00 00 00 00 00 00 00 00 00 00 00 00 00
       0.0 0.0 0.0 0.0
0000e0 00 00 00 00 00 00 00 00 00 00 00 00 00 00 00 00
       0.0 0.0 0.0 0.0
0000f0 00 00 00 00 00 00 00 00 00 00 00 00 00 00 00 00
       0.0 0.0 0.0 0.0
000100 00 00 00 00 00 00 00 00 00 00 00 00 00 00 00 00
       0.0 0.0 0.0 0.0
000110 00 00 00 00 00 00 00 00 00 00 00 00 00 00 00 00
       0.0 0.0 0.0 0.0
000120 00 00 00 00 00 00 00 00 00 00 00 00 00 00 00 00
       0.0 0.0 0.0 0.0
000130 00 00 00 00 00 00 00 00 00 00 00 00 00 00 00 00
       0.0 0.0 0.0 0.0
000140 00 00 00 00 00 00 00 00 00 00 00 00 00 00 00 00
       0.0 0.0 0.0 0.0
000150 00 00 00 00 00 00 00 00 00 00 00 00 00 00 00 00
       0.0 0.0 0.0 0.0
000160 00 00 00 00 00 00 00 00 00 00 00 00 00 00 00 00
       0.0 0.0 0.0 0.0
000170 00 00 00 00 00 00 00 00 00 00 00 00 00 00 00 00
       0.0 0.0 0.0 0.0
000180 00 00 00 00 00 00 00 00 00 00 00 00 00 00 00 00
       0.0 0.0 0.0 0.0
000190 00 00 00 00 00 00 00 00 00 00 00 00 00 00 00 00
       0.0 0.0 0.0 0.0
0001a0 00 00 00 00 00 00 00 00 00 00 00 00 00 00 00 00
       0.0 0.0 0.0 0.0
0001b0 00 00 00 00 00 00 00 00 00 00 00 00 00 00 00 00
       0.0 0.0 0.0 0.0
0001c0 00 00 00 00 00 00 00 00 00 00 00 00 00 00 00 00
       0.0 0.0 0.0 0.0
0001d0 00 00 00 00 00 00 00 00 00 00 00 00 00 00 00 00
       0.0 0.0 0.0 0.0
0001e0 00 00 00 00 00 00 00 00 00 00 00 00 00 00 00 00
       0.0 0.0 0.0 0.0
0001f0 00 00 00 00 00 00 00 00 00 00 00 00 00 00 00 00
       0.0 0.0 0.0 0.0

action_model._discrete_distribution.branches.0.weight f4 [2, 128]
000000 33 35 01 bb f0 a9 a2 3a 8d 1b 58 3c 97 3c 09 ba
       -0.0019715547 0.0012410264 0.013190162 -0.0005235164
000010 cf a5 8b ba 0e 6f 07 bb 6a 27 29 bc 67 72 39 bc
       -0.0010654273 -0.002066556 -0.010324338 -0.01131878
000020 33 94 a5 bb cf 19 df bb c0 7c 74 bc 0f f6 07 3c
       -0.005053067 -0.0068084965 -0.014922321 0.008298411
000030 37 ff 76 3b 18 e0 d2 3a b8 4e 62 3a c5 fe 00 3c
       0.003768874 0.0016088514 0.0008632946 0.007873242
000040 7d b0 0e 3b 20 c1 72 bc 0e 09 43 3b 8e 4c 3a bc
       0.0021772676 -0.014816552 0.0029760036 -0.011370791
000050 b3 9d a7 bb e0 3c 7f ba 03 7b 8a 3a c9 23 93 3b
       -0.0051152348 -0.0009736549 0.0010565225 0.00449035
000060 93 23 0d 3c c2 4c d1 bb 77 a2 a4 38 3b 47 ee 3b
       0.008614439 -0.006387324 7.850391e-05 0.007271675
000070 87 a7 18 3c 3b 4b 9e 3a 20 3f f9 3a 97 c5 61 3a
       0.009317285 0.0012076864 0.0019016005 0.0008612512
000080 cc e2 ae 3b 3e 73 aa 3a 7f e6 40 3c 32 25 52 bc
       0.005337095 0.0013004316 0.011773705 -0.012826251
000090 74 d7 42 bb 9b 4a 07 3c e3 85 23 bc b2 20 ac 3b
       -0.002973047 0.008257533 -0.009980652 0.005252921
0000a0 35 95 f3 3a 18 11 03 bb fb 21 32 3c fc 98 bc bb
       0.0018583896 -0.0019999202 0.010872359 -0.005755542
0000b0 12 a3 89 bc 8e f4 9b 3a 7b 1d 03 bc 7a ef ca 3a
       -0.01680139 0.0011898444 -0.008002634 0.0015482747
0000c0 dd ef 58 3b 12 9e 11 bc 79 58 31 3b 59 3e 85 3c
       0.0033101954 -0.008887785 0.002706079 0.016265081
0000d0 84 e1 22 3b 5d 1b 8c bc 7c a8 c2 3b 94 b9 a8 bc
       0.0024853656 -0.017102892 0.005940495 -0.020596303
0000e0 de 5a 8e bb 27 90 8d 3c 7c d7 92 3b b4 6f 84 b9
       -0.0043443283 0.017280651 0.004481254 -0.00025260227
0000f0 85 2a 34 3b 07 17 f2 3b 66 0e 46 bb 9a 93 89 3b
       0.0027491164 0.007387999 -0.0030220984 0.0041985037
000100 da a9 5e 3c 2e 1f 4b b9 0a 33 9b bb 1b 0d b5 ba
       0.0135903 -0.00019371204 -0.004736309 -0.001381311
000110 00 4f c7 bb 3b 71 a7 3b 53 c6 9e 3c dc 52 0d 3c
       -0.0060824156 0.0051099337 0.019381678 0.008625712
000120 0e f4 89 3b 1a 3d 69 bc 0b 5a da 3b 45 c2 c6 3b
       0.004210002 -0.014235759 0.006663566 0.006065639
000130 ae 68 1b 3b 55 61 d6 3b 20 95 18 3c d2 3c 89 b8
       0.0023713517 0.0065423646 0.009312898 -6.543998e-05
000140 93 80 5f ba 12 2e 51 3c bf 30 10 3c 9b a7 94 ba
       -0.0008525934 0.012767332 0.0088006845 -0.0011341454
000150 c0 89 f1 3b 43 a3 1f 3c 37 7e 95 3b ed 21 b7 3b
       0.0073711574 0.0097435145 0.004562165 0.005588761
000160 8f 25 6e bb ea cc b4 bb 7c ce 90 3b ca d1 ed ba
       -0.0036338305 -0.0055175917 0.004419146 -0.0018144187
000170 3e 81 b4 ba 00 63 13 3b b5 9d d5 bb 17 52 57 bb
       -0.0013771427 0.0022489429 -0.0065190443 -0.0032855326
000180 5b 7c 07 3b 85 38 7a 3a f7 b4 07 bb ef 33 25 3c
       0.0020673487 0.0009545165 -0.0020707229 0.010083183
000190 79 81 a3 bb ed 03 f2 3a dd 2f d0 3b ab 6c ba ba
       -0.0049897996 0.0018464305 0.006353362 -0.0014223059
0001a0 39 dd 87 3b cb 46 25 bb b3 3b 00 3c 67 1f 70 bb
       0.004146245 -0.0025219198 0.007826733 -0.003663981
0001b0 b1 13 07 bc 25 cc 60 3c 43 1c 7b 3b cd 53 ee 3b
       -0.008244441 0.013720547 0.0038316406 0.0072731734
0001c0 d3 ee f4 ba f2 52 4b ba c0 61 04 3c fb 14 1a 3c
       -0.0018686898 -0.0007756195 0.008079946 0.009404416
0001d0 73 44 6b 3c d7 b7 91 3b 78 f4 4c 3c 82 3e 6d 3c
       0.014359581 0.0044469642 0.012509458 0.014480235
0001e0 d4 bb 0c 3c 6d 17 67 ba 63 ca 49 3b 63 ad c8 bb
       0.008589704 -0.00088154414 0.0030790798 -0.006124185
0001f0 f8 e6 0d 3b 5c 2f 22 3c 33 89 2a 3c cd ce 40 3b
       0.002165256 0.009898987 0.010408687 0.0029420138
000200 a1 2b ac 3b 07 e2 00 bc 9d 50 d5 3b 59 fc 1d bc
       0.0052542244 -0.007866389 0.006509854 -0.009642684
000210 80 04 7f 3b 1a a8 4a 3c 09 ee 20 bc ef 99 8c bc
       0.0038912594 0.01236918 -0.009822377 -0.017163245
000220 44 8b b3 3b 60 e5 f0 3a ef 27 7f bb a3 ad 18 bc
       0.0054792482 0.0018378906 -0.0038933714 -0.009318742
000230 72 cc 13 bc 4e 8f b4 3b 3b 84 de bb b5 ec cf bb
       -0.0090209115 0.0055102473 -0.0067906654 -0.0063453563
000240 15 9d f5 bb 1a 01 84 bb 5f d0 0e 3c b4 01 98 3b
       -0.0074955323 -0.0040284516 0.008716672 0.004638875
000250 b5 4d 94 bc 22 05 56 3c 56 66 85 3b e0 a1 0a bc
       -0.01810346 0.013062747 0.0040710373 -0.008461446
000260 f3 e9 61 3a 56 25 12 3c eb a8 3c bb ff 2e 60 3c
       0.000861793 0.008920034 -0.0028787206 0.01368308
000270 57 43 99 bb 87 80 03 b9 80 9e d3 39 66 18 43 3c
       -0.004677217 -0.00012541014 0.00040363148 0.0119076725
000280 a2 84 3d 3c 2f 4a be b8 3f 03 f1 bb 3f a0 2e bb
       0.011567267 -9.073724e-05 -0.0073551233 -0.0026645807
000290 52 c1 dc 3b ff 62 86 bc c2 7f 4d 3c ca 11 fa bb
       0.0067369128 -0.016404627 0.012542667 -0.007631515
0002a0 e2 2e 61 bb 2f f6 6f bb a1 de a4 bb 03 61 54 3c
       -0.003436022 -0.0036615243 -0.0050314222 0.0129625825
0002b0 ee 1c 91 bc 66 c9 af 3c 2a 24 98 bb 5f ba a3 3b
       -0.01771399 0.021458339 -0.004642983 0.0049965824
0002c0 93 91 ce bb 8d e4 e4 3b 97 37 00 3b a0 05 e1 38
       -0.006303975 0.006985253 0.0019564384 0.00010729884
0002d0 77 9d 72 3b b7 f4 a7 3c a0 b9 5b 3b b4 be b4 3a
       0.0037020126 0.020502431 0.003352739 0.0013789744
0002e0 78 7a 52 bc 5c e9 33 3a 83 da 20 3b a3 18 0c 3c
       -0.012846582 0.00068630814 0.0024544306 0.008550796
0002f0 e3 d8 33 bc b0 7b 3c bb ff 96 91 3c 0a cb 7c 3b
       -0.010977003 -0.0028760247 0.017772196 0.003857317
000300 71 e5 a8 3a cb f8 ca bb 6f 2e a4 3b 0d ae b5 3b
       0.0012885762 -0.006194209 0.005010418 0.00554443
000310 aa 56 10 bc 2d 1a 7d bb 63 aa 18 3b f6 80 98 3c
       -0.008809725 -0.0038620338 0.0023294918 0.01861618
000320 ca 3e 08 3c 3a 33 de 3a ad 95 59 3a ac c5 88 3a
       0.008315751 0.0016952523 0.00083001965 0.0010434887
000330 f7 c7 6a ba a2 65 7f bc 13 5e 17 3c a8 0b 1e ba
       -0.00089561887 -0.015588196 0.009238738 -0.00060289586
000340 e0 3b 61 bb f9 cf 88 3b 83 ad ed 38 85 44 70 3c
       -0.0034367964 0.004175183 0.0001133336 0.014664774
000350 22 59 7c 3c 46 41 c6 3a 7d b4 e5 b9 1f 5c 81 bc
       0.01540211 0.0015125654 -0.00043812758 -0.015790997
000360 eb 41 a1 bb 99 cb 1b bc 99 b3 92 3a 58 18 d0 33
       -0.004921188 -0.009508991 0.001119244 9.690183e-08
000370 da 5f 97 bb 20 2a 97 bb 17 c9 8c 3c aa ee 5e 3c
       -0.0046195807 -0.004613176 0.01718573 0.013606707
000380 71 e4 28 ba ab a9 88 bc a6 29 41 bb c4 a6 0a b9
       -0.0006442732 -0.016682466 -0.0029474287 -0.0001322283
000390 7e 74 95 ba 1a 4f af 3b 4b ee 93 3b cb b5 c2 bb
       -0.0011402515 0.005350006 0.0045144907 -0.0059420816
0003a0 73 99 3a bc 71 78 28 bc 22 fd 72 bc ef a3 a1 3b
       -0.011389124 -0.010282622 -0.014830859 0.0049328725
0003b0 88 09 6b 3c 73 7d 88 3a f1 3d 1e bc cf 7d d8 bb
       0.014345534 0.0010413363 -0.009658323 -0.0066067944
0003c0 6e cf 20 bc 22 3e 18 3c 88 50 1e bb 8e 78 16 bc
       -0.00981508 0.009292157 -0.0024156887 -0.009184016
0003d0 1f 3c fa 3b 0e db 3f 3b 3c 92 40 3b 24 2a a9 3b
       0.0076365615 0.0029274854 0.0029384037 0.0051624943
0003e0 e9 30 14 bc 18 c9 34 bc 91 05 2e 3c 16 6a 13 3c
       -0.009044864 -0.011034273 0.010621444 0.008997461
0003f0 fa 24 29 bc 75 f5 47 3c 74 7d 25 3b d5 a6 ff 3b
       -0.010323757 0.012204518 0.0025251778 0.0078018703

action_model._discrete_distribution.branches.0.bias f4 [2]
000000 00 00 00 00 00 00 00 00
       0.0 0.0

action_model._discrete_distribution.branches.1.weight f4 [2, 128]
000000 92 c5 72 3b c9 7b 0b 3c 44 ad 21 ba 07 e7 08 3c
       0.003704403 0.008513399 -0.0006167481 0.008355862
000010 7b 03 bc bb c0 e7 3a 3b f8 ad 63 3b f7 a8 35 bc
       -0.0057377196 0.0028519481 0.0034741145 -0.011087648
000020 8c e2 bd 3a 75 36 0e 3c 30 aa 80 3a 14 25 9c bc
       0.0014487072 0.008679976 0.0009816345 -0.019060649
000030 35 13 6d 3b 73 a4 19 3b cb 48 18 3c 95 5b bb 3b
       0.0036174778 0.0023443967 0.009294699 0.0057177045
000040 43 3b 68 39 7a 21 70 bb 35 56 fc 3a d6 cd 11 bc
       0.00022147321 -0.0036641047 0.0019251766 -0.008899173
000050 32 f1 cd bb 47 ab 24 bc 7a a4 54 bc 1a cd 44 ba
       -0.0062848562 -0.010050601 -0.012978667 -0.0007507369
000060 ef c6 a5 3a 0e ea 39 bc 62 3e 6b ba 9f a1 c7 3b
       0.0012647788 -0.011347307 -0.00089738343 0.006092265
000070 f6 f3 01 3b 42 0c 03 bc e7 d3 9d bb f2 96 62 bc
       0.001982925 -0.007998528 -0.0048165205 -0.0138299335
000080 0f 09 15 bc cd 7f 64 bc 60 97 bd 3a 4b 1b 63 3c
       -0.009096398 -0.013946486 0.0014464669 0.013861488
000090 c7 34 2e 3c d0 1a e2 ba 25 8f 56 bc af fe b0 b9
       0.0106327 -0.0017250422 -0.013095652 -0.0003375909
0000a0 2a c4 e1 bb d3 f1 2e 3c 0a ca 4f bc ef be 41 3c
       -0.0068898397 0.010677773 -0.012682447 0.011825307
0000b0 90 82 82 bb 44 f3 8f bb cb 79 05 3c 63 54 64 bb
       -0.0039828494 -0.004393013 0.0081467135 -0.0034840337
0000c0 ff 44 04 bc 0b ec 16 3c ba 54 fb bb 98 d3 c8 ba
       -0.008073091 0.0092115505 -0.0076700123 -0.0015321849
0000d0 da 3f ef bb 7b f8 35 3c b8 97 29 3c 37 a6 e8 3b
       -0.007301313 0.011106606 0.010351114 0.0070998925
0000e0 2b ec 1b 3c 5f d6 8b ba 03 db ed 3b 40 01 88 3b
       0.009516756 -0.0010668746 0.0072587742 0.0041505396
0000f0 d3 05 fb 3b f3 24 35 3b 32 44 5c 3c 2f 17 b3 39
       0.0076606064 0.0027640432 0.013443993 0.00034158814
000100 20 c1 ed 3a 50 d1 16 bc cd 71 ca ba 10 ee c2 bb
       0.0018139221 -0.009205177 -0.0015445292 -0.0059487894
000110 32 91 e6 38 27 7a 29 bc 66 b9 16 39 f7 9f 44 3c
       0.000109942994 -0.010344065 0.00014374181 0.012001029
000120 7d 52 d5 3b 92 c3 c3 bb 0a ef c3 3a f6 13 b8 ba
       0.0065100775 -0.0059742415 0.0014948559 -0.0014044035
000130 5b 08 31 bc bb 8e 10 3b 5d 01 33 bc 82 5d 93 bb
       -0.010805215 0.002205773 -0.010925618 -0.004497231
000140 12 6e d4 ba 34 63 8e 3b 53 0f 0c 3b e7 e3 b0 3b
       -0.001620712 0.004345322 0.0021371439 0.005398262
000150 00 7d 00 3c cf c6 b1 3c 71 d1 94 3b cb 95 fe bb
       0.007842302 0.021701245 0.004541569 -0.0077693216
000160 57 ea 64 3c ab 64 b5 3b 30 56 0b bc 31 a3 a5 bb
       0.013971887 0.005535682 -0.008504435 -0.0050548543
000170 c2 6f 58 bc 93 b0 56 bc 9f 67 e2 3b 88 9e 31 bc
       -0.013210239 -0.013103622 0.0069093253 -0.010841019
000180 35 58 53 bb c3 1b dc 3c 33 03 29 3c 8f 21 c6 3b
       -0.003224862 0.026868707 0.010315704 0.006046481
000190 3d 35 13 bb 61 9c 89 bc 4f 2a 27 3c c2 6d 99 bb
       -0.0022462152 -0.0167982 0.010202958 -0.0046822736
0001a0 3f fa 29 3c 8a 58 0a bb a0 44 ca 3b c6 aa 0a bd
       0.010374605 -0.0021109902 0.0061727315 -0.03385427
0001b0 4f 04 e9 bb df c7 85 bc 55 e3 69 bc ca b8 20 bc
       -0.0071111093 -0.016330658 -0.014275392 -0.009809682
0001c0 2f d4 0a 3b f7 6c 93 3c d1 fc 3a 3c 95 c1 80 3c
       0.00211836 0.017996294 0.011412815 0.015717307
0001d0 0f b5 ac 3c ca 62 a8 bb 2f e9 3e bc f5 43 eb 3b
       0.02108243 -0.0051387297 -0.011652275 0.007179732
0001e0 f4 ee b9 bb 75 22 42 bb e1 8e 82 3b b3 7c 70 bc
       -0.0056742374 -0.0029622589 0.0039843176 -0.014678168
0001f0 9d c6 5f bc b8 b5 f3 b8 83 6c e8 3b 8d e4 64 bc
       -0.013658193 -0.00011620991 0.0070930137 -0.013970506
000200 0d d2 01 3c d0 a0 b1 bb 68 23 8d bb 61 c7 85 39
       0.007923615 -0.0054207817 -0.0043071993 0.00025516286
000210 67 91 81 bc b8 d4 0b 3c c2 6c 2d 3a d0 15 48 3a
       -0.015816404 0.008534603 0.00066156324 0.0007632645
000220 36 b8 95 ba 90 d6 46 bb 50 c7 90 3b 3b 76 9f bb
       -0.0011422697 -0.0030340292 0.004418291 -0.004866389
000230 48 b2 75 3c e7 91 81 3b 71 6d 9d bc 7d 26 05 bc
       0.014996119 0.0039541605 -0.019217225 -0.008126852
000240 e2 f4 72 bb 5e 60 c0 bb e0 87 7c 3b e7 53 2d bb
       -0.003707223 -0.005870863 0.0038533136 -0.0026447715
000250 8d 2a 11 bb a5 30 fe 3a 5f 91 4e 39 a3 28 34 3c
       -0.0022150606 0.0019393159 0.00019699846 0.010996017
000260 2c a5 aa bc 94 b2 83 bc fb d2 41 3a 13 64 33 bc
       -0.020830713 -0.016076364 0.0007393804 -0.0109491525
000270 c2 50 57 bc 3b 69 00 bc 25 5b a8 3b 81 83 c2 bb
       -0.013141813 -0.007837589 0.0051378184 -0.0059360866
000280 f7 65 ee 3b 56 a4 12 3c 2b 61 c4 bb 1b a9 01 3c
       0.0072753388 0.008950314 -0.0059930286 0.007913853
000290 ef f8 96 3c b3 b4 d7 39 63 73 cc bb 4c e8 92 bb
       0.018429248 0.00041142627 -0.006239341 -0.0044832584
0002a0 e5 ed 4c bc 53 40 ee bb c5 40 06 3a d1 b2 9f b8
       -0.01250789 -0.0072708516 0.0005121346 -7.615018e-05
0002b0 13 1c 15 bc 43 ea 36 bc b0 e3 1b bc 07 fc ae bc
       -0.009100932 -0.011164251 -0.009514734 -0.02136041
0002c0 65 de 35 bc ca d4 e0 bb cf 29 43 3c 00 70 7d bb
       -0.011100386 -0.006861304 0.011911823 -0.0038671494
0002d0 8b c8 cd bb b0 db cf bb 2a be 79 3b 82 1f 1a bc
       -0.00628001 -0.0063433275 0.0038107731 -0.009406926
0002e0 a1 db bf ba 40 9e 04 bc f9 7a 49 3c 7d e4 2c ba
       -0.0014637598 -0.00809437 0.012297385 -0.00065953267
0002f0 e7 fb 86 bb 54 a9 86 3b 45 8a 4e 3b 3e 45 0f bb
       -0.0041193846 0.004109541 0.003151552 -0.002186134
000300 1a c6 aa bb 2d 0d 07 3c 50 f9 4c 3b 8d 61 a9 bb
       -0.005211604 0.008242887 0.0031276532 -0.0051690997
000310 cf 71 bd 3b 52 f9 ee bb d4 f8 07 bc 27 6f 94 bb
       0.0057813893 -0.007292905 -0.008299071 -0.004529852
000320 a7 cc 27 bc 90 89 9a bb c5 e8 93 bc d8 ca 8b bb
       -0.010241664 -0.0047161058 -0.01805533 -0.004266124
000330 8f a7 9d 3a c2 54 e5 ba 4b 78 b8 3b 10 ec 09 bb
       0.0012028086 -0.0017496573 0.0056295744 -0.0021045245
000340 b2 c3 69 3c fd a7 3f bb bf 29 4e ba 35 c0 44 3a
       0.014267849 -0.0029244416 -0.0007864497 0.0007505448
000350 c1 f1 a8 bb 90 32 70 3c fe 64 0e bc 8a ce 2a bc
       -0.0051557724 0.014660493 -0.008691071 -0.010425219
000360 4a 51 06 3c 1e a7 96 bc b8 90 ee ba 4e f4 2e 3b
       0.008198092 -0.018390235 -0.0018201089 0.002669591
000370 c7 0d 0d bb 9f 6a 0b 3c 15 e4 f1 ba 32 a2 ef bb
       -0.0021523105 0.008509307 -0.0018454815 -0.0073130364
000380 e8 9f 4f 3c bf e4 f5 bb f3 c0 94 3a 59 72 af 3a
       0.012672402 -0.0075040753 0.0011349007 0.0013385519
000390 63 a3 3c 3c 9f d5 85 39 13 79 77 bb 37 65 52 bc
       0.011513564 0.00025526897 -0.0037761375 -0.012841514
0003a0 1d 0c da 3b 91 68 19 3b 7d ea 1c bc e7 5c b6 3b
       0.006654276 0.0023408274 -0.009577391 0.005565274
0003b0 c3 20 9f 3b 62 8c 4e bb 45 38 63 3b 08 5d ff 3b
       0.0048562004 -0.003151678 0.003467099 0.0077930726
0003c0 14 61 34 bc e3 4b bd 3b 9a 2a db 3a 78 0b 6b 3b
       -0.011009473 0.0057768687 0.001672107 0.003586499
0003d0 45 2c 02 3b 93 2f 95 3c d2 21 65 3c bf cc 34 b9
       0.0019862812 0.018211162 0.013985114 -0.00017242412
0003e0 1d 66 b4 3c cf 89 09 3b ff 74 11 bc d7 f7 71 bc
       0.022021348 0.0020986681 -0.008877992 -0.014768562
0003f0 a8 1f 0a bc b7 57 84 bc 3e 52 1e bc af 01 09 bc
       -0.008430399 -0.016155107 -0.009663163 -0.008362218

action_model._discrete_distribution.branches.1.bias f4 [2]
000000 00 00 00 00 00 00 00 00
       0.0 0.0

action_model._discrete_distribution.branches.2.weight f4 [2, 128]
000000 b7 6b cf ba fb 72 f5 bb df e1 02 bc b5 c4 2e 3c
       -0.0015824948 -0.0074905134 -0.007988422 0.010667016
000010 ed e0 6e bb 68 ec de 3b 3e 27 1f ba 3e b8 c3 bb
       -0.0036449984 0.006803084 -0.0006071216 -0.005972891
000020 9d c7 7c bc 59 7f 14 3c fb 38 3d 3c b3 cf 22 bb
       -0.015428451 0.009063565 0.01154923 -0.0024843037
000030 e0 54 08 3c 0a 21 7a ba c5 23 5e 3b 2b 2b f0 3b
       0.008321017 -0.00095416664 0.0033895832 0.007329365
000040 e3 60 7a bb 5b a5 24 bc 35 69 49 bc 3c d2 05 3c
       -0.0038204722 -0.010049189 -0.01229315 0.0081678
000050 3d 39 f9 3b fc 97 99 3c ff cf 0c 3b 74 d1 29 bb
       0.0076057003 0.01874923 0.002148628 -0.0025912197
000060 cd 24 1b 3c 8f 12 77 3c 87 1b 11 3c 1d b9 1d bc
       0.009469223 0.015080108 0.008856661 -0.009626654
000070 55 56 12 bc 2b 26 73 3b d9 98 1e bc 97 ad 17 3c
       -0.008931716 0.0037101607 -0.009679996 0.009257696
000080 67 7d 18 3b ff bd 8f bb 90 8a 4a bb 07 75 77 3c
       0.0023268105 -0.004386663 -0.0030905344 0.015103585
000090 f7 84 bb bc 7d d4 17 3c 73 1a ad 3c ea 94 54 3b
       -0.022890551 0.00926697 0.021130776 0.0032437393
0000a0 64 8e 94 3c fa 28 46 bc 3a 5e 32 3a 3c b6 86 3c
       0.018134303 -0.0120947305 0.0006804202 0.016444318
0000b0 5b da 87 bb 11 0d 28 3c 65 e8 31 3c 5b e5 c4 bb
       -0.004145903 0.0102570215 0.01085863 -0.0060087866
0000c0 e4 62 c2 bb b8 33 7f 3b e3 5c fc bb 90 76 79 3b
       -0.005932199 0.003894074 -0.0077015026 0.0038065054
0000d0 67 27 8a 3b 3f af bd 3b 1d ee 32 bc cf 28 50 ba
       0.004216123 0.005788713 -0.010921028 -0.0007940651
0000e0 03 10 07 bc 34 d4 33 bc 75 cd 0b bc 58 32 d4 b9
       -0.008243564 -0.010975886 -0.0085328715 -0.000404733
0000f0 37 c6 50 bb c4 dc 1c bc e4 57 b6 bb 5b 02 83 3c
       -0.0031856427 -0.009574119 -0.0055646766 0.015992334
000100 06 dc bc bb 70 35 b3 bb 92 16 b5 3b 45 c8 68 3a
       -0.0057635335 -0.0054690167 0.005526372 0.000887994
000110 42 80 a9 3c 7b d2 8a bb df 17 3b bc 0e ae a5 ba
       0.02069104 -0.004236517 -0.0114192655 -0.0012640373
000120 4c 7b 95 3c 8d 3e 2c bb 69 94 84 bc 74 3c 24 bc
       0.01824727 -0.00262824 -0.016184049 -0.010024179
000130 af cc 66 3b 38 2d be 3b c5 37 66 b9 1f c6 0a 3c
       0.0035217216 0.0058037303 -0.00021955285 0.008470087
000140 ea c4 7f bb ab 0d ad 3b 46 dc 34 3c a3 d3 42 bc
       -0.0039027282 0.0052811704 0.011038845 -0.011891278
000150 83 16 b9 bb 22 23 98 3b 58 51 b8 bb f4 99 00 3c
       -0.0056484356 0.00464286 -0.0056249313 0.007849205
000160 13 b4 f0 bb d6 b8 8e 3a d3 bb 45 bc 2f f4 75 bb
       -0.0073456853 0.0010888826 -0.012068707 -0.0037529578
000170 75 b5 c1 b9 b7 1b 38 3c 67 d7 e1 3b 36 f0 4a ba
       -0.00036947025 0.0112370765 0.006892133 -0.00077414827
000180 b6 e1 a4 bb 63 56 cd bb 88 0d fd 3b 5f d3 8b bc
       -0.0050317897 -0.0062664016 0.0077225603 -0.017068563
000190 13 6f 85 3c 65 d8 a7 bc a5 c7 85 3b 8b 9e 30 bc
       0.016288316 -0.020488927 0.0040826374 -0.010779987
0001a0 d8 56 18 3c 3e 78 9e bb 27 35 27 3c 72 10 17 3c
       0.009298049 -0.0048361113 0.010205544 0.009220229
0001b0 9d 15 6a 3c c7 bf 6e 3c 2b f8 11 bb 91 81 14 bc
       0.01428738 0.0145720905 -0.0022273164 -0.009064094
0001c0 5b 0a 0f 3c ad b3 36 bb d5 f9 24 bc f3 ee 4b ba
       0.008730496 -0.0027878091 -0.01006933 -0.00077794417
0001d0 ab 59 01 3b 4d 1f 91 3a 95 c4 07 3c 28 88 45 3c
       0.0019737284 0.001107195 0.008286615 0.012056388
0001e0 37 4d 99 bb 4b 11 53 3a 46 9f 2a 3c 85 9d fe 3a
       -0.004678394 0.0008051588 0.01041395 0.0019425607
0001f0 ab 7f ad 3b e5 e3 9d 3b 63 c6 e6 bb 50 5c d0 bc
       0.00529476 0.004818427 -0.0070426925 -0.025434643
000200 f0 3e 9e ba 3b e2 28 3c 3c 21 4a 3a 73 40 c6 b9
       -0.00120732 0.010307844 0.0007710641 -0.0003781352
000210 da ac ad bc b0 79 d9 3c ec a2 ab bb 9a 22 f5 3a
       -0.021200586 0.026547283 -0.0052379277 0.0018702329
000220 cf e8 d9 3a 6b 13 ef 3a 8c 77 a8 bb b3 55 9f 3a
       0.0016625169 0.001824004 -0.005141204 0.0012156278
000230 87 6a 35 3c 44 c9 8f bb cf 96 5a 3c 0a 8c 2b bc
       0.011072761 -0.0043880064 0.01334162 -0.0104704
000240 db 15 22 bb 27 e6 ba 3b e7 99 18 bc 73 0e 18 bb
       -0.0024732265 0.005703706 -0.009314037 -0.0023201972
000250 9b b7 c6 3b dd cc 63 bb 19 2e b1 bb 6a 24 f5 bb
       0.006064368 -0.003475956 -0.0054071066 -0.0074811475
000260 d0 4a 30 3c 71 82 21 bc 7d 98 8f bc c3 bd 97 bb
       0.010760024 -0.00985776 -0.017528767 -0.0046307757
000270 a7 17 df bb 17 87 2b bc 01 5e 22 ba c5 86 31 b8
       -0.0068082395 -0.01046922 -0.0006193817 -4.2325602e-05
000280 7f 3a 0c 3c 32 22 8f bb 16 23 07 3b 58 bc 3c bc
       0.008558868 -0.00436809 0.0020620278 -0.011519514
000290 6d a9 ff 3b 58 7b 07 3c ef f7 13 bc 6b 29 35 bb
       0.0078021795 0.008269154 -0.00903128 -0.0027643095
0002a0 ab 07 56 3a 41 cd b6 bb 07 cd f9 3b 1e 12 2b 3c
       0.0008164595 -0.0055786674 0.007623318 0.010441331
0002b0 63 d1 05 3c 99 5b 3f 3c 93 64 52 3b 35 44 9f 3c
       0.008167597 0.011679553 0.0032103404 0.019441703
0002c0 64 dd 0b bc 67 2f 0e b9 eb b5 11 bc 0a bb d3 3b
       -0.00853667 -0.00013559834 -0.00889347 0.006461506
0002d0 17 0e 5f 3c 5c 32 a4 ba eb f6 70 3b 12 37 eb 3a
       0.013614199 -0.0012527215 0.0036768268 0.0017945489
0002e0 88 ed 1d 3c a5 6b ea 3b a2 7a 2c 3c 92 29 02 bb
       0.009639151 0.0071539455 0.010527285 -0.0019861204
0002f0 fb d2 bd ba c5 67 58 bb 37 89 22 bb 33 98 55 bb
       -0.0014482433 -0.0033020836 -0.0024801025 -0.0032591939
000300 64 20 3e 3c 6f 54 fb ba 21 fa 86 3c b8 d9 2f bc
       0.011604402 -0.0019174943 0.016476693 -0.010733061
000310 66 f0 25 3c b6 f1 8b bb cb e5 21 3c 14 5a a8 3b
       0.010128116 -0.0042707575 0.009881447 0.0051376913
000320 71 d9 9f 3c eb 32 ea 3a dc 4e 91 3c d5 1b 8b 3b
       0.019512864 0.0017867958 0.017737798 0.004245261
000330 62 e4 94 bb e3 dc 3b bc f2 cb 2f bb 8f d5 bf bb
       -0.004543827 -0.011466238 -0.0026824442 -0.0058543156
000340 b7 09 a5 bc 7a 07 4d 3a 9d c7 14 bc 9a 92 f0 3b
       -0.020146234 0.00078212435 -0.009080795 0.007341695
000350 30 43 56 3a 8d 93 97 3b 83 fd 21 3c 0d d1 98 bc
       0.0008173464 0.0046257437 0.009887102 -0.01865437
000360 17 e4 c2 ba 10 33 25 3c 69 d5 99 3b 32 7b c3 3b
       -0.0014869001 0.010082975 0.00469463 0.0059656138
000370 8a 55 79 bc 71 90 93 3a 9b 11 4d bc 47 65 b6 bb
       -0.015218148 0.0011258257 -0.0125164045 -0.0055662724
000380 eb 17 86 bc a9 f9 3c 3b 8d 76 3f 3c a0 e0 a0 3b
       -0.016368827 0.0028835332 0.01168598 0.00490959
000390 af 78 cb bb 6d a1 e3 ba 2f f7 8a ba 2d 1d fe bb
       -0.006209455 -0.0017366834 -0.0010602231 -0.007754943
0003a0 03 dc f1 ba 85 34 26 bb f5 6a 19 ba 45 38 c7 3b
       -0.001845241 -0.0025360894 -0.00058524247 0.006079706
0003b0 0c ff 40 bc 28 96 0e 3c 5b 6d 9d 3b 37 a0 55 3b
       -0.011779558 0.008702792 0.004804296 0.0032596716
0003c0 67 ff 74 3b b9 83 33 3b 47 80 0c bb ec 36 19 3c
       0.0037383677 0.0027391745 -0.0021438764 0.009351473
0003d0 38 c1 88 bb 92 9a 5c 3c 6f 39 b6 3b ec 85 8a 3b
       -0.004173424 0.013464587 0.005561046 0.0042273905
0003e0 37 5d 41 bc f6 2a b3 bb 3f 0c 07 bc 48 e2 62 bb
       -0.011802009 -0.005467768 -0.008242666 -0.0034619737
0003f0 f3 d7 b5 bb 76 63 9b 39 68 46 42 3c be 72 01 bc
       -0.005549425 0.00029638008 0.0118576065 -0.007900892

action_model._discrete_distribution.branches.2.bias f4 [2]
000000 00 00 00 00 00 00 00 00
       0.0 0.0

action_model._discrete_distribution.branches.3.weight f4 [2, 128]
000000 4f 52 af 3b 6b 5b e3 3a 7b 1b 39 ba 2d f3 57 3c
       0.005350388 0.001734597 -0.0007061285 0.013180536
000010 1f ae 64 bc e7 5a 4f 3c 2a 5d 8b 3c 78 c1 ee 3b
       -0.013957529 0.01265595 0.017012198 0.007286247
000020 e8 b9 f1 ba 08 09 28 bc aa 55 e8 3b 3d 5e f2 3a
       -0.0018442245 -0.0102560595 0.00709029 0.001849122
000030 48 05 b8 bb d3 74 93 3b 95 86 a9 bb e2 a4 14 3c
       -0.005615864 0.0045000105 -0.005173514 0.009072514
000040 85 88 ed bb e2 48 1d bb ce 15 18 bc 2b a1 0a bc
       -0.0072489404 -0.002399974 -0.009282542 -0.008461277
000050 6a 21 cd 3b 05 ba 8c 3b eb 30 13 3c 36 d0 8b 3c
       0.006260087 0.004294636 0.008983831 0.017067056
000060 6f 19 80 bb aa fd 75 bb 0c 06 8a ba e5 3d 30 bb
       -0.003909282 -0.0037535229 -0.0010530367 -0.002689236
000070 92 dc 6c 3b 49 10 b2 3c 97 c9 36 3c 17 e7 ab 3b
       0.0036142212 0.021736281 0.011156461 0.005246054
000080 c0 a1 3c bc ea cb 0b ba 72 f6 d7 bb 45 32 da bb
       -0.011513174 -0.0005332815 -0.006590658 -0.0066588246
000090 c4 84 85 bc c7 d6 d4 bb 77 4b 2f bb a1 97 21 3b
       -0.01629866 -0.00649533 -0.0026747861 0.0024657028
0000a0 db ff 6b 3c a8 1f 26 3c 41 44 05 3c 72 d4 3b 39
       0.014404262 0.010139383 0.008133949 0.00017912852
0000b0 87 71 29 bc 2f da b0 bb 5f 87 82 3a 98 d0 dd bb
       -0.010342008 -0.0053971033 0.0009958557 -0.006769251
0000c0 80 17 62 bb 79 33 85 3c 80 18 72 bb 15 c5 79 bb
       -0.003449887 0.016259896 -0.0036940873 -0.0038111855
0000d0 46 40 8b bb c6 fc bb 3a e7 2d 25 3c 65 1a 1a 3a
       -0.0042496054 0.00143423 0.010081745 0.0005878567
0000e0 2f d6 19 bc dd 7a e4 3b 83 db 70 3c ad 2c 04 3c
       -0.009389444 0.0069726543 0.014700773 0.008067292
0000f0 24 2d be bb 20 b1 70 bc 57 84 08 3c c3 b9 5a 3b
       -0.005803721 -0.014690667 0.0083323335 0.0033374883
000100 07 66 a4 ba 5f a6 2e 3a b3 81 a6 bb 95 8f df bb
       -0.0012542614 0.00066623645 -0.0050813793 -0.0068225362
000110 13 0d 57 bc 63 09 9c 3b 42 bc ff 3b d8 f9 b7 3b
       -0.013125676 0.004761861 0.0078044245 0.0056145005
000120 30 09 cc 3b 13 b5 0f 3c 1b 5c 6d bb 94 39 89 bc
       0.006226681 0.008771199 -0.003621823 -0.016751088
000130 d4 58 1e ba 48 6f eb 3a b8 9f ed bb 9d 0a 69 3b
       -0.0006040458 0.0017962242 -0.007251706 0.0035559305
000140 b6 ce 21 bb 66 23 44 3b e0 dc b2 bb ed c3 6c ba
       -0.002468986 0.0029928326 -0.0054584593 -0.0009031881
000150 fd bc 48 39 c4 fb 89 3c e8 26 6b 3b 43 4c 77 3b
       0.0001914389 0.016843684 0.0035881344 0.0037734665
000160 b8 17 af 3b e4 96 ac bb 33 4f 66 bc df 0a 77 bb
       0.0053434037 -0.005267011 -0.0140569685 -0.0037695689
000170 c7 50 3b 3c 0a ac fb 3b 63 4d a8 bb 73 16 0e 3c
       0.011432833 0.0076804208 -0.0051361783 0.0086723445
000180 f9 e9 1b 3b 08 47 ce bc 0d 27 cb bb 7b 7e e1 bb
       0.0023790582 -0.025180355 -0.0061997236 -0.0068815327
000190 75 03 4f bc 42 56 e4 bb e8 a6 01 3c 33 cf 9a ba
       -0.012635102 -0.0069682905 0.007913329 -0.0011811018
0001a0 5b df 9f ba c5 76 5f 3b a8 c9 12 bc c7 3a 3a bc
       -0.0012197302 0.0034097892 -0.008959211 -0.011366553
0001b0 02 3e a6 3b 9f a3 0a bc 02 5d 6f 3c c8 ae b1 3b
       0.00507331 -0.008461862 0.014609577 0.005422447
0001c0 8e 6b a7 3b e7 0c 8d 3b 0d 26 9b bb 7d 2b 0b 3c
       0.005109257 0.0043045166 -0.0047347606 0.008494255
0001d0 f1 42 80 bc cb f9 1e bb 92 0e bd ba 23 b5 65 3c
       -0.01565692 -0.0024257775 -0.0014423898 0.014020237
0001e0 3f 06 97 bb a8 de df 3c 10 f2 7c bc cd 0a e6 3b
       -0.004608899 0.02732785 -0.015438572 0.0070203305
0001f0 62 67 73 3b aa ef 47 3b 03 c1 6e ba bb 63 78 3c
       0.0037140478 0.003050784 -0.00091077405 0.015160496
000200 e0 3e 90 3b 33 41 9c bb 7b 7e d5 3b 4a 2b 63 3b
       0.0044020265 -0.0047685145 0.006515322 0.0034663253
000210 ba 4b a2 bb f1 f0 ac 3b a9 2d b1 39 63 28 83 3c
       -0.004952875 0.005277746 0.0003379409 0.016010469
000220 31 b4 bc 3a 20 d6 ed 3b b0 76 c0 bc 21 34 89 3a
       0.0014396963 0.0072581917 -0.023494095 0.0010467806
000230 b3 15 0a 3c 27 fa 75 3b 62 bc d1 3c 92 48 28 3b
       0.008428025 0.0037533136 0.025602523 0.002567802
000240 02 c8 d0 3c b5 d5 0b bc 33 9e ef bb c3 95 17 3b
       0.025485996 -0.008534838 -0.00731256 0.0023130036
000250 d1 aa 0b bc 72 d0 65 3c f4 27 28 bc ff c4 9b bb
       -0.0085246125 0.014026748 -0.010263432 -0.0047537084
000260 02 01 80 bb 5f ef 67 bc 8a 9d 7b bc f0 5f e0 b8
       -0.00390637 -0.014156192 -0.015357384 -0.00010699022
000270 d7 8f 47 3c b3 4f ff bb 4f c2 32 bc 80 83 2b ba
       0.01218029 -0.0077914833 -0.010910585 -0.00065427274
000280 e2 70 d0 ba 05 7b d1 3b e7 10 82 3b 0c 31 40 ba
       -0.0015902782 0.006392839 0.0039693 -0.00073315273
000290 03 fc 53 bb 6b 64 ad bb 5e 29 2b bc f7 38 94 bb
       -0.0032346256 -0.005291512 -0.010446874 -0.0045233923
0002a0 a3 26 8a bb 2b df 74 bc 47 06 9b 3b 7b 71 a6 b9
       -0.0042160316 -0.0149457855 0.004730973 -0.00031746537
0002b0 98 cd ec 3b 8a 7c 35 3b 3d 45 11 3c 52 f3 dd 3a
       0.007226657 0.002769264 0.008866605 0.0016933477
0002c0 53 a3 b2 bb 5f 7e 0e bc f0 0c d2 bb 2f 50 9a bb
       -0.0054515987 -0.008697121 -0.0064102337 -0.0047092657
0002d0 7b c9 c5 bb 23 42 0c 39 47 77 3f 3c 3a 47 f1 bb
       -0.0060359812 0.00013376078 0.011686153 -0.007363227
0002e0 8e 97 3c bc 85 5c f1 3b 72 e3 73 bc 2a 35 6d bb
       -0.011510743 0.0073657655 -0.01488577 -0.0036195018
0002f0 38 60 ed 3b e3 31 0c bc 73 b1 83 bb eb 89 3d 3c
       0.007244136 -0.008556816 -0.0040189563 0.011568527
000300 0f 30 d3 3b ca 6f 6a bc 78 5f 8b 3b a3 36 7d 3c
       0.006444938 -0.014308879 0.004253324 0.015454921
000310 bd e6 78 bc 7c eb 88 39 ef ea fd 3b 57 c5 98 ba
       -0.015191731 0.0002611539 0.0077489535 -0.0011655492
000320 f1 1a 4a bc b8 37 4d 3c ab 8f 89 bc f8 3b 99 ba
       -0.012335525 0.012525491 -0.016792139 -0.0011690846
000330 93 cc 23 3b 56 30 91 ba c8 b8 2c 3c ab 6f 6d bb
       0.0024993762 -0.0011077027 0.010542102 -0.003622989
000340 c7 ea 87 bb 57 06 86 bc 8e 64 b1 3b 27 1f 86 3b
       -0.0041478607 -0.016360445 0.0054135984 0.004093069
000350 44 4c 99 bc 9e f8 18 bb 57 46 cb bb c8 9e f5 3b
       -0.018713124 -0.0023341547 -0.0062034535 0.007495735
000360 07 03 08 bc 27 7a 59 bc 5a 7f 99 bc 4a 7f ce bb
       -0.008301503 -0.013273752 -0.018737484 -0.006301795
000370 d5 46 5a bc 42 02 a7 bb 25 e7 67 bc 5f 49 d6 bb
       -0.013322552 -0.0050967047 -0.01415423 -0.0065395082
000380 d9 3b 17 ba c0 31 90 bb f9 de ac 39 d0 db 3c 3c
       -0.0005769111 -0.004400462 0.00032972524 0.011527017
000390 fe e8 8d 3b 56 0d 15 bc 94 92 11 3c 2b 3e b3 bb
       0.0043307533 -0.009097418 0.008885045 -0.0054700575
0003a0 cd 3c bc 3b b5 32 b8 3b e4 cb 29 3c 53 9d 17 bc
       0.0057445527 0.005621279 0.010363553 -0.009253818
0003b0 3f 0a 2e bc 87 08 e7 3b 83 03 19 3a 69 c5 85 bb
       -0.01062256 0.007050577 0.000583701 -0.004082371
0003c0 b6 44 be 3a ab 72 73 bb 6c 92 26 bb 26 84 33 bc
       0.0014516327 -0.0037147205 -0.0025416864 -0.0109568
0003d0 1d e3 65 3c e9 83 8d bc 47 06 1d bb 0c e2 1d 3c
       0.014031199 -0.017274814 -0.002396004 0.009636413
0003e0 40 db 0a bc 8b 81 cc bb 65 d6 68 bc 2b 50 0a bc
       -0.008475125 -0.0062410287 -0.014211272 -0.008441965
0003f0 88 10 48 3c 67 d0 54 bb a7 9e 81 bb 92 78 80 bb
       0.012210973 -0.003247285 -0.0039556804 -0.003920623

action_model._discrete_distribution.branches.3.bias f4 [2]
000000 00 00 00 00 00 00 00 00
       0.0 0.0
