Assets/results/ppo/My Behavior/My Behavior-64.onnx (onnx, 156809 bytes, 20 tensors)

discrete_act_size_vector f4 [1, 14]
0	0x40000000	2.0
1	0x40000000	2.0
2	0x40000000	2.0
3	0x40000000	2.0
4	0x40000000	2.0
5	0x40000000	2.0
6	0x40000000	2.0
7	0x41200000	10.0
8	0x41200000	10.0
9	0x41200000	10.0
10	0x41200000	10.0
11	0x41200000	10.0
12	0x41200000	10.0
13	0x41200000	10.0

network_body._body_endoder.seq_layers.0.weight f4 [128, 24]
0	0xbd9d4b6e	-0.07680403
1	0x3e7c874e	0.2466099
2	0xbeaac75a	-0.33355218
3	0x3e000df1	0.12505318
4	0xbdcdf28e	-0.10056029
5	0x3e95a3d8	0.29226565
6	0xbdb43fe8	-0.08801252
7	0x3e4020a5	0.18762453
8	0x3eb36268	0.35036016
9	0x3e331788	0.17489445
10	0x3e8c7a37	0.27436993
11	0xbe11a5db	-0.14223425
12	0xbe8fd583	-0.28092584
13	0xbd82523b	-0.063633405
14	0xbd86b6e3	-0.065778516
15	0xbe31338b	-0.17304818
16	0x3dcc5b13	0.099783085
17	0xbe75c7e0	-0.24002028
18	0xbee2b745	-0.4428045
19	0x3d7daa87	0.061930206
20	0x3e47d6cb	0.19515531
21	0x3e4ec03b	0.20190518
22	0x3e1f7f07	0.15575801
23	0xbe902140	-0.28150368
24	0x3e88a4e5	0.26688305
25	0xbef3cd27	-0.47617456
26	0xbc6c4d19	-0.014422678
27	0x3d682622	0.05667699
28	0xbe714f4c	-0.23565406
29	0xbd899ab7	-0.06718963
30	0x3e13a19a	0.14417115
31	0xbb691449	-0.003556507
32	0xbdbed946	-0.09318785
33	0x3c2e726d	0.010647398
34	0xbcdd29d7	-0.02699749
35	0xbe085af5	-0.13315947
36	0xbe79335d	-0.24336
37	0xbe3972d7	-0.18110214
38	0x3dd2dabb	0.10295626
39	0x3e64d1fb	0.22345726
40	0x3caa0f54	0.020759262
41	0x3e288370	0.1645639
42	0xbe288aec	-0.16459244
43	0x3e673560	0.22578955
44	0xbeb130b0	-0.34607458
45	0xbca543fe	-0.020174023
46	0xbcc44bdc	-0.023961954
47	0x3cf672ba	0.030084003
48	0xbe5589fc	-0.20853418
49	0x3dcc3fae	0.099730834
50	0x3b5ceb36	0.0033709533
51	0x3e019bb4	0.12657052
52	0x3b997445	0.00468305
53	0xbe977202	-0.2957917
54	0x3e92a7b0	0.2864356
55	0xbd1581a1	-0.036500577
56	0x3e50d33a	0.20393077
57	0xbdb5fe08	-0.08886343
58	0x3d2cf852	0.042229004
59	0x3e7c2387	0.24622928
60	0xbe0be391	-0.13661028
61	0x3dae571d	0.08512709
62	0x3d02dcc8	0.031948835
63	0x3ea98c2e	0.3311476
64	0xbe162a10	-0.14664483
65	0x3b0b0f96	0.0021219007
66	0xbe665e4b	-0.22496907
67	0xbc878b1a	-0.016545821
68	0x3e9664e9	0.29373863
69	0x3d7c0903	0.06153203
70	0x3dc472fb	0.09592243
71	0x3e173ee4	0.14770085
72	0xbdd00c8e	-0.101586446
73	0xbeb42110	-0.35181475
74	0x3e764e70	0.24053359
75	0x3e91bf29	0.28466156
76	0x3e8aa1df	0.27076623
77	0xbd377077	-0.04478499
78	0xbe9689cd	-0.2940201
79	0xbe020b64	-0.12699658
80	0x3e8b17d4	0.27166617
81	0xbe3dc9a6	-0.18533954
82	0xbc87b188	-0.016564146
83	0x3e5ef3c4	0.21772677
84	0x3e9a4ae0	0.3013525
85	0xbddb59f4	-0.107105166
86	0xbd68e165	-0.056855578
87	0xbd94dd78	-0.07268804
88	0xbe9b70cb	-0.30359492
89	0xbe1e4a8f	-0.1545813
90	0xbd637508	-0.05553153
91	0x3e3aab80	0.18229485
92	0x3ea6e464	0.32596123
93	0x3e8a930e	0.2706532
94	0xbec360b3	-0.38159713
95	0x3d8eb722	0.069685236
96	0xbe4e62af	-0.20154832
97	0xbe227cdf	-0.15867947
98	0xbd020f88	-0.031753093
99	0x3e9421a5	0.2893192
100	0x3e09e612	0.13466671
101	0xbe1cdeee	-0.15319416
102	0x3dcb78ca	0.09935148
103	0x3c2d9f9e	0.010597138
104	0x3e1b5e58	0.15172708
105	0x3e25e61a	0.16201058
106	0x3d8dae5f	0.06918024
107	0xbe57c361	-0.21070625
108	0x3e315bdc	0.17320198
109	0xbe5710ca	-0.21002498
110	0x3e3f48bf	0.18680094
111	0x3e23658f	0.1595671
112	0xbe251756	-0.16122183
113	0xbe887cdb	-0.26657757
114	0xbe63cd1e	-0.22246215
115	0x3c71a42b	0.014748613
116	0x3da37333	0.07980957
117	0xbe0d9e73	-0.13829975
118	0xbf04d260	-0.51883507
119	0x3d99d875	0.07511989
120	0xbd974f45	-0.07388166
121	0xbe027d04	-0.12743002
122	0x3e0def84	0.13860899
123	0x3e91b23f	0.28456303
124	0x3e2068d8	0.15664995
125	0x3cc95a29	0.024579125
126	0xbe8ab632	-0.2709213
127	0x3e0293ba	0.12751666
128	0xbe2c7446	-0.1684123
129	0x3dd4bfdf	0.10388159
130	0x3dcda4ed	0.10041223
131	0xbdf916ba	-0.12162538
132	0x3ea55e3c	0.32298458
133	0xbea9a105	-0.3313066
134	0x3dd9c5b5	0.10633413
135	0x3f0e64fb	0.55622834
136	0x3dc01c32	0.09380378
137	0xbd56a715	-0.052405436
138	0x3dd1b794	0.10240093
139	0xbd3eb333	-0.046557616
140	0xbdd173c7	-0.10227161
141	0xbdf5a9b0	-0.11995256
142	0x3e7bf35f	0.24604557
143	0x3e8abe46	0.27098292
144	0x3ce5e8cb	0.028065106
145	0xbdddd8fe	-0.108324036
146	0xbda0374f	-0.07823049
147	0x3eadbbba	0.33932287
148	0x3f4fa15a	0.8110558
149	0x3b0504af	0.002029698
150	0x3ed174f9	0.40909556
151	0xbd841b90	-0.0645057
152	0x3e2a6d8c	0.16643351
153	0x3eac8bba	0.33700353
154	0x3ce97f68	0.028503135
155	0x3e696d86	0.22795686
156	0xbdd55dea	-0.10418303
157	0x3dac3664	0.08408812
158	0xbcd39bf7	-0.025831206
159	0x3d4d0931	0.050057594
160	0x3e9752dc	0.29555404
161	0x3de2811a	0.110597804
162	0xbe33db57	-0.1756414
163	0xbe81bb2d	-0.25338116
164	0xbe1b3080	-0.1515522
165	0x3cdf5643	0.027262812
166	0x3e92413a	0.2856539
167	0x3e2440db	0.16040365
168	0x3ec2a2cc	0.3801483
169	0xbd90f86f	-0.07078635
170	0xbe908203	-0.2822419
171	0xbe135d29	-0.14391007
172	0xb79aa4cc	-1.843497e-05
173	0x3e208a48	0.1567775
174	0xbe9cc65a	-0.3062008
175	0x3d806ae7	0.0627039
176	0x3e8b5071	0.2720981
177	0x3b1dd0a3	0.0024080656
178	0x3e830923	0.25592908
179	0xbe2e963b	-0.17049496
180	0xbd3ecd31	-0.046582405
181	0xbd74deb1	-0.059782688
182	0x3eb4d071	0.35315278
183	0xbe9b8d31	-0.30381158
184	0xbede3198	-0.43397212
185	0xbd158b12	-0.03650958
186	0x3db13edb	0.08654567
187	0x3d3739d3	0.04473288
188	0x3d89b88a	0.06724651
189	0x3eaac688	0.33354592
190	0x3de058c9	0.109544344
191	0xbe2de246	-0.16980848
192	0x3e708115	0.23486741
193	0xbec49d96	-0.3840148
194	0x3e65784c	0.22409171
195	0x3e2a76fb	0.1664695
196	0xbdcc43a9	-0.09973843
197	0x3e824d3c	0.2544955
198	0xbd3184a0	-0.04333937
199	0xbde9ea69	-0.11421663
200	0xbd86fe69	-0.06591494
201	0xbe3a7a74	-0.18210775
202	0x3cd3e8f4	0.025867917
203	0x3e4ed716	0.20199236
204	0x3e8ca94d	0.27472916
205	0xbe7996a9	-0.24373879
206	0x3d40cbc5	0.04706933
207	0x3e6d6289	0.2318212
208	0xbf54b91a	-0.8309494
209	0x3dfc7747	0.12327438
210	0x3d9eac4b	0.07747706
211	0x3e5094d9	0.20369281
212	0x3eb0a858	0.34503436
213	0x3cbe90a6	0.023262333
214	0xbd904e2f	-0.07046162
215	0x3e841ccf	0.2580323
216	0x3dc31254	0.0952498
217	0x3e426e4e	0.1898739
218	0xbea43e3f	-0.3207874
219	0xbeb871a8	-0.36024213
220	0x3dfa9cd9	0.122369476
221	0xbed9fd75	-0.42576185
222	0x3d92fcfa	0.07177158
223	0x3d2fee4f	0.04295188
224	0xbe902f8a	-0.2816127
225	0x3e758e73	0.23980121
226	0xbe2967a6	-0.16543445
227	0x3e89bf75	0.26903883
228	0x3d206a42	0.039163835
229	0x3c1861c6	0.009300655
230	0xbe4d76a3	-0.20064788
231	0x3e7a9dde	0.24474284
232	0xbcdb069c	-0.02673655
233	0xbe35dbc0	-0.17759609
234	0xbde01e86	-0.10943322
235	0x3e058bd3	0.1304162
236	0x3e1fe7e6	0.15615806
237	0x3a25499b	0.00063052186
238	0xbf13eacb	-0.5778014
239	0xbe54d165	-0.20783003
240	0xbcb9aaf3	-0.022664523
241	0x3d8a8a6b	0.067646824
242	0xbdd284a9	-0.10279209
243	0x3bb27a06	0.0054466752
244	0xbe20aaca	-0.15690151
245	0xbe4a7c55	-0.19773991
246	0x3e2282dc	0.15870231
247	0xbcc7d2aa	-0.024392445
248	0xbebc4dbe	-0.36778063
249	0xbed73b9a	-0.4203766
250	0x3eb56e4a	0.35435706
251	0x3d8b2f2b	0.06796106
252	0xbdedcc56	-0.116112396
253	0xbe3a85ae	-0.18215057
254	0xbe2c7ca9	-0.16844429
255	0xbde25c76	-0.11052792

network_body._body_endoder.seq_layers.0.bias f4 [128]
0	0x00000000	0.0
1	0x00000000	0.0
2	0x00000000	0.0
3	0x00000000	0.0
4	0x00000000	0.0
5	0x00000000	0.0
6	0x00000000	0.0
7	0x00000000	0.0
8	0x00000000	0.0
9	0x00000000	0.0
10	0x00000000	0.0
11	0x00000000	0.0
12	0x00000000	0.0
13	0x00000000	0.0
14	0x00000000	0.0
15	0x00000000	0.0
16	0x00000000	0.0
17	0x00000000	0.0
18	0x00000000	0.0
19	0x00000000	0.0
20	0x00000000	0.0
21	0x00000000	0.0
22	0x00000000	0.0
23	0x00000000	0.0
24	0x00000000	0.0
25	0x00000000	0.0
26	0x00000000	0.0
27	0x00000000	0.0
28	0x00000000	0.0
29	0x00000000	0.0
30	0x00000000	0.0
31	0x00000000	0.0
32	0x00000000	0.0
33	0x00000000	0.0
34	0x00000000	0.0
35	0x00000000	0.0
36	0x00000000	0.0
37	0x00000000	0.0
38	0x00000000	0.0
39	0x00000000	0.0
40	0x00000000	0.0
41	0x00000000	0.0
42	0x00000000	0.0
43	0x00000000	0.0
44	0x00000000	0.0
45	0x00000000	0.0
46	0x00000000	0.0
47	0x00000000	0.0
48	0x00000000	0.0
49	0x00000000	0.0
50	0x00000000	0.0
51	0x00000000	0.0
52	0x00000000	0.0
53	0x00000000	0.0
54	0x00000000	0.0
55	0x00000000	0.0
56	0x00000000	0.0
57	0x00000000	0.0
58	0x00000000	0.0
59	0x00000000	0.0
60	0x00000000	0.0
61	0x00000000	0.0
62	0x00000000	0.0
63	0x00000000	0.0
64	0x00000000	0.0
65	0x00000000	0.0
66	0x00000000	0.0
67	0x00000000	0.0
68	0x00000000	0.0
69	0x00000000	0.0
70	0x00000000	0.0
71	0x00000000	0.0
72	0x00000000	0.0
73	0x00000000	0.0
74	0x00000000	0.0
75	0x00000000	0.0
76	0x00000000	0.0
77	0x00000000	0.0
78	0x00000000	0.0
79	0x00000000	0.0
80	0x00000000	0.0
81	0x00000000	0.0
82	0x00000000	0.0
83	0x00000000	0.0
84	0x00000000	0.0
85	0x00000000	0.0
86	0x00000000	0.0
87	0x00000000	0.0
88	0x00000000	0.0
89	0x00000000	0.0
90	0x00000000	0.0
91	0x00000000	0.0
92	0x00000000	0.0
93	0x00000000	0.0
94	0x00000000	0.0
95	0x00000000	0.0
96	0x00000000	0.0
97	0x00000000	0.0
98	0x00000000	0.0
99	0x00000000	0.0
100	0x00000000	0.0
101	0x00000000	0.0
102	0x00000000	0.0
103	0x00000000	0.0
104	0x00000000	0.0
105	0x00000000	0.0
106	0x00000000	0.0
107	0x00000000	0.0
108	0x00000000	0.0
109	0x00000000	0.0
110	0x00000000	0.0
111	0x00000000	0.0
112	0x00000000	0.0
113	0x00000000	0.0
114	0x00000000	0.0
115	0x00000000	0.0
116	0x00000000	0.0
117	0x00000000	0.0
118	0x00000000	0.0
119	0x00000000	0.0
120	0x00000000	0.0
121	0x00000000	0.0
122	0x00000000	0.0
123	0x00000000	0.0
124	0x00000000	0.0
125	0x00000000	0.0
126	0x00000000	0.0
127	0x00000000	0.0

network_body._body_endoder.seq_layers.2.weight f4 [128, 128]
0	0xbdab00d5	-0.08349768
1	0xbd65e4af	-0.056126293
2	0x3d5bad19	0.053631876
3	0x3e0c4308	0.13697445
4	0xbd7ba503	-0.061436664
5	0x3d85af35	0.06527559
6	0xbd950373	-0.072760485
7	0x3cd8e259	0.026475118
8	0x3bdb731a	0.006697071
9	0x3b2786ad	0.002556245
10	0xbddc9b41	-0.107718
11	0xbd8b6731	-0.068067916
12	0x3d2cd6a5	0.04219689
13	0x3d184a47	0.03718021
14	0x3d84e67a	0.064892724
15	0x3d32becc	0.04363899
16	0xbcf6a3f6	-0.03010748
17	0xbbde0a26	-0.006776112
18	0xbcf7a966	-0.030232143
19	0xbd4162bc	-0.0472133
20	0x3cd01853	0.025402224
21	0x3cee62ca	0.02909984
22	0xbe00e9b3	-0.12589149
23	0xbd5c2ee9	-0.053755675
24	0xbd38c2bf	-0.0451076
25	0x3c14fa79	0.00909292
26	0x3d81a046	0.06329398
27	0x3e231f90	0.15930009
28	0xbd95d79c	-0.07316515
29	0xbc53286e	-0.012888057
30	0xbdd1a901	-0.10237313
31	0x3e35ecb0	0.1776607
32	0x3daf2b67	0.085532
33	0x3d78aa9a	0.060709573
34	0x3da13a33	0.07872429
35	0x3d4e7ad8	0.05041012
36	0x3c83bf81	0.016082527
37	0xbd3ea4d7	-0.046543922
38	0xbc81af52	-0.01583067
39	0xbb3d8db4	-0.0028923573
40	0x3d11add7	0.035566177
41	0xbcf6d5a5	-0.03013117
42	0xbb252b5c	-0.0025202846
43	0xbd0fc6fd	-0.03510188
44	0x3ea36c29	0.31918457
45	0x3dc9a567	0.09846001
46	0xbd6c3828	-0.057670742
47	0xbd4131c4	-0.0471666
48	0x3c739b22	0.0148685295
49	0x3d226ba4	0.039653435
50	0xbe40d6ba	-0.18831912
51	0xbd268b83	-0.040660392
52	0x3db8df6e	0.09026991
53	0xbd228979	-0.039681885
54	0x3ce764f7	0.028246386
55	0xbc92a738	-0.017902002
56	0x3da0e6da	0.078565314
57	0xbca66cfa	-0.020315636
58	0x3c95842a	0.018251497
59	0xbd020718	-0.031745046
60	0x3db4d0e1	0.08828903
61	0xbdf0f862	-0.11766125
62	0x3d5305aa	0.051519074
63	0xbba6e8f9	-0.0050936905
64	0x3dcc1bfc	0.09966275
65	0x3d755557	0.05989584
66	0xbe187c54	-0.14891177
67	0x3dbd3822	0.09239222
68	0xbd799b38	-0.060939044
69	0xbdaad845	-0.083420314
70	0xbe03cbb6	-0.12870678
71	0x3d8611fb	0.06546398
72	0x3d93812f	0.07202374
73	0xbb965f13	-0.0045889704
74	0x3d151bbe	0.03640341
75	0xbdb3f2ab	-0.087865196
76	0x3d2082f5	0.03918739
77	0xb99b7560	-0.00029651355
78	0xbd821147	-0.06350952
79	0x3dc8a0e8	0.097963154
80	0x3dd4e273	0.10394754
81	0xbd9fe00d	-0.07806406
82	0xbd96d4e3	-0.07364824
83	0xbde36ab4	-0.111043364
84	0xbe7414a8	-0.23836005
85	0xbde4ea5a	-0.111775115
86	0xbe3d626c	-0.18494576
87	0x3e80f829	0.2518933
88	0x3d122f4b	0.035689633
89	0x3d199d94	0.037503794
90	0xbdd7f81c	-0.1054537
91	0x3e051748	0.12997162
92	0xbd558df6	-0.052137338
93	0x3bc05ae6	0.005870211
94	0x3c7cd6e0	0.01543209
95	0xbe16bcc2	-0.14720443
96	0x3d163d50	0.036679566
97	0xbe0efe97	-0.13964306
98	0xbdc62814	-0.09675613
99	0x3ca6d2f1	0.020364257
100	0x3de0469a	0.10950966
101	0xbde060ec	-0.109559864
102	0xbdc194e2	-0.09452225
103	0xbd96d6f1	-0.073652156
104	0x3df03be0	0.1173017
105	0x3e220ea3	0.15825896
106	0x3e15b690	0.14620423
107	0x3c573578	0.013135307
108	0x3d482244	0.048860803
109	0x3dfa9b55	0.122366585
110	0xbe1d2a5e	-0.15348193
111	0x3e3f0880	0.18655586
112	0x3e0aaf53	0.13543443
113	0x3d050c5d	0.032482494
114	0xbd5fe5a9	-0.05466238
115	0xbc3d6c9c	-0.011561539
116	0x3c9bce1c	0.019019179
117	0x3d855384	0.0651007
118	0xbcd336cc	-0.025782965
119	0x3de4499a	0.11146851
120	0xbd1a8bbb	-0.037730914
121	0x3dfaae69	0.12240297
122	0x3ccab835	0.02474604
123	0xbb053a21	-0.0020328837
124	0xbcf8b287	-0.030358566
125	0xbc65014d	-0.013977361
126	0xbae4767b	-0.001743033
127	0x3d11c807	0.03559115
128	0x3c6186c8	0.0137650445
129	0xbd72accc	-0.059246823
130	0xbcd89d90	-0.02644232
131	0xbc196250	-0.009361818
132	0x3d4872f3	0.04893775
133	0x3d39fc70	0.04540676
134	0x3df2921b	0.11844274
135	0xbd4bcbf1	-0.04975504
136	0xbbf5c2ff	-0.007500052
137	0xbcecfb2b	-0.02892836
138	0x3e17daab	0.14829509
139	0x3cf62c55	0.030050436
140	0x3df1b195	0.11801449
141	0x3d86fc7c	0.06591126
142	0x3c393539	0.011304193
143	0xbdb4060a	-0.08790214
144	0x3d28de01	0.041227344
145	0x3d5b5b56	0.0535539
146	0xbdd38e48	-0.10329872
147	0xbcbfa95c	-0.023396187
148	0x3d872916	0.065996334
149	0xbe60dea4	-0.2195993
150	0xbc62b6ce	-0.013837529
151	0x3e11c61f	0.14235733
152	0xbe32e1b5	-0.17468913
153	0x3ce60b34	0.028081514
154	0xbc93957f	-0.018015621
155	0xbc49fc9c	-0.012328293
156	0x3dbbd4b7	0.091714315
157	0x3e0dc3e1	0.13844253
158	0xbe14c3f0	-0.14527869
159	0xbd3f3125	-0.046677727
160	0x3cd7d798	0.02634792
161	0x3c419946	0.011816328
162	0xbc8a6d97	-0.01689796
163	0xbd2cb240	-0.04216218
164	0xbdaebb85	-0.0853186
165	0xbc30fa9a	-0.010801936
166	0x3d1e017e	0.03857564
167	0x3d095c9f	0.033535596
168	0x3d48a24d	0.048982907
169	0xbda6002e	-0.08105503
170	0x3d05884d	0.03260069
171	0xbbe7461f	-0.0070579196
172	0xbdcff310	-0.10153782
173	0xbd0ac75a	-0.033881523
174	0x3c873f94	0.016509809
175	0x3cab6795	0.020923415
176	0xbe148061	-0.14502098
177	0x3d9eb5df	0.07749533
178	0x3e048457	0.12941109
179	0x3db59e2a	0.08868058
180	0xba9c7218	-0.0011935858
181	0x3d1b0484	0.037846103
182	0xbd890756	-0.06690852
183	0x3e22079d	0.15823217
184	0x3cbf56fe	0.02335691
185	0xbd24d2f4	-0.040240243
186	0xbc1d025a	-0.00958308
187	0xbd39985c	-0.045311317
188	0xbbcade7d	-0.0061910735
189	0x3e595699	0.2122444
190	0x3dff3c4d	0.12462673
191	0x3d90601f	0.07049584
192	0x3d184360	0.03717363
193	0x3e478624	0.19484764
194	0xbd2623de	-0.04056155
195	0x3e1eec2c	0.1551978
196	0x3de276f2	0.11057843
197	0x3de27e90	0.11059296
198	0x3c820f5d	0.015876466
199	0x3cceaf4d	0.025230074
200	0xbe464e65	-0.19365843
201	0xbd462d74	-0.04838319
202	0x3ca9a4ef	0.02070853
203	0xbde63a7a	-0.11241622
204	0xbdc18b05	-0.09450344
205	0x3cac69e3	0.021046584
206	0xbc933860	-0.017971218
207	0xbbca964f	-0.006182469
208	0xbd6f93b9	-0.05849049
209	0x3d639f3e	0.055571787
210	0x3d3388ca	0.043831624
211	0x3d30fa6f	0.043207582
212	0xbd8d31fb	-0.06894299
213	0x3cf1d616	0.02952103
214	0xbd9e5f9e	-0.07733081
215	0x3d8a1c48	0.067436755
216	0xbc74b2cf	-0.014935209
217	0xbd0c36e6	-0.034232043
218	0x3cb79a92	0.022412572
219	0x3d1f2e2f	0.038862403
220	0x3d9d3067	0.07675248
221	0x3ccce991	0.025013717
222	0xbdd12516	-0.10212152
223	0x3e22ef96	0.15911707
224	0xbd9571d1	-0.072970994
225	0x3dcf7be1	0.1013105
226	0xbca403e6	-0.02002139
227	0xbd67425d	-0.056459773
228	0x3dea8e91	0.11452974
229	0x3d6d171a	0.05788336
230	0xbdb9cf0b	-0.090726934
231	0x3cb7480e	0.022373226
232	0x3cac5e29	0.021040993
233	0xbd5bfc11	-0.053707186
234	0xbdca3fca	-0.09875448
235	0xbe8090ce	-0.25110477
236	0x3d14613c	0.036225542
237	0xbd8f4c23	-0.06996944
238	0xbd2e8cc3	-0.04261471
239	0x3c5f4d32	0.013629245
240	0x3e2a927c	0.16657442
241	0xbdbd6fb2	-0.0924982
242	0x3df40cfd	0.1191654
243	0x3d8bbb7a	0.06822868
244	0xbd0f3b92	-0.03496892
245	0xbe0b251c	-0.13588375
246	0xbc9e1379	-0.019296395
247	0xbd4ae4fc	-0.049534783
248	0x3c785cdf	0.015158861
249	0x3cf2a4a1	0.029619517
250	0x3e043a45	0.12912853
251	0xbd9db550	-0.07700598
252	0xbd559207	-0.052141216
253	0x3d35c3c5	0.044376153
254	0x3cca61de	0.02470487
255	0xbe172852	-0.14761475

action_model._discrete_distribution.branches.0.weight f4 [2, 128]
0	0xbc1a87fc	-0.009431835
1	0x3bf77ada	0.007552487
2	0x39d568c5	0.00040704585
3	0x3b0b222b	0.0021230082
4	0xbc7b0caa	-0.015322844
5	0xbb398b57	-0.0028311813
6	0xbb7c1920	-0.0038467124
7	0xbc0c079f	-0.008546739
8	0xbca8af77	-0.02059148
9	0xbb082e8a	-0.0020779693
10	0xbc3127cd	-0.010812712
11	0x3b7d0615	0.0038608362
12	0x3c616900	0.013757944
13	0x3c4511af	0.012028142
14	0xbb15575e	-0.002278767
15	0x3be89da2	0.0070988694
16	0xbc700b27	-0.014651096
17	0xbb0912d1	-0.0020915756
18	0xbc1551d7	-0.00911375
19	0xbc03f919	-0.008054995
20	0xbcaac1c0	-0.02084434
21	0x3c7f623f	0.015587389
22	0x3b19e882	0.0023484533
23	0x3bb2060b	0.0054328493
24	0x3c049827	0.008092917
25	0x3b92753b	0.0044695414
26	0x3c42060b	0.011842261
27	0x3c11c0e3	0.008896085
28	0x3c275258	0.010212503
29	0x3b5c9db5	0.0033663337
30	0x3a6d3bd3	0.0009049747
31	0xbb4a99eb	-0.0030914496
32	0x3a30c431	0.0006743102
33	0xbb4946af	-0.0030712297
34	0x3c0ecc4b	0.008715699
35	0x39c8b1d3	0.00038279462
36	0xbb415845	-0.0029502076
37	0x38bb06b1	8.918101e-05
38	0x3c138fff	0.009006499
39	0xbca30693	-0.019900596
40	0x3c8a7bd7	0.016904755
41	0xbbd2e9b8	-0.006436553
42	0x3c1f18cb	0.009710501
43	0x3c375ff7	0.011192313
44	0xbc0bbee7	-0.008529401
45	0x3c25561d	0.010091332
46	0xbc4edc88	-0.012625821
47	0xbb9b60fe	-0.004741787
48	0xbc5e2a12	-0.013559835
49	0xbc41f0db	-0.01183721
50	0x3c05dc4b	0.008170198
51	0x3bfefc22	0.0077815214
52	0xbbf54585	-0.007485094
53	0x3c109da1	0.008826644
54	0x3b909eda	0.004413468
55	0xbbc5cd15	-0.0060364106
56	0xbc18db91	-0.009329692
57	0xbb9e0b6f	-0.0048231403
58	0xba40a47f	-0.00073487306
59	0xbb55b6e7	-0.003261024
60	0x3b0d0d2b	0.0021522741
61	0xbbfbb755	-0.007681767
62	0xbbf9fe77	-0.0076292115
63	0x3b7872fa	0.0037910328
64	0xbb9ac9bc	-0.0047237556
65	0xbc518aeb	-0.012789468
66	0xbb362fac	-0.002779941
67	0x398f02f3	0.00027277283
68	0x3b73f8f0	0.0037227236
69	0xbb0d05b9	-0.0021518304
70	0x3bfa1690	0.007632084
71	0xbb9e6d0d	-0.004834777
72	0xbbee3deb	-0.007270565
73	0x3ba25701	0.0049542193
74	0xbb427c02	-0.0029675965
75	0x3be16f97	0.0068797576
76	0x3c8f2f95	0.017478744
77	0x3a8da492	0.0010806492
78	0xbb330775	-0.0027317677
79	0xbbf5c965	-0.0075008147
80	0xbc03296f	-0.008005484
81	0xb9d60ebb	-0.00040828236
82	0xbb42853d	-0.0029681467
83	0x3ab13d4c	0.0013522296
84	0x3c7778b8	0.015104465
85	0xbba45ec9	-0.005016182
86	0x3c02a6c0	0.007974327
87	0xbace9540	-0.0015761033
88	0xbc508028	-0.012725867
89	0xbb421c94	-0.0029619085
90	0xbc803887	-0.015651954
91	0x3b1345b7	0.0022471973
92	0xbc83bff8	-0.016082749
93	0x3b839782	0.004015864
94	0xbb4b95db	-0.0031064663
95	0x3c07204f	0.008247449
96	0xbbad7531	-0.0052935113
97	0xbca9fe39	-0.020751106
98	0xbc1fef3e	-0.00976163
99	0x3aee06a8	0.0018159943
100	0xbc3d2f38	-0.011546902
101	0xbbed1302	-0.007234932
102	0xbcb3bf40	-0.021941781
103	0xb9b1c8cf	-0.00033909685
104	0xbb39b3ab	-0.002833585
105	0xbc1ba18f	-0.009498968
106	0xbc0d416c	-0.008621555
107	0x3b9609bf	0.0045787985
108	0x3c07c4bd	0.008286652
109	0xbc2caeff	-0.010539769
110	0x3bc07532	0.005873346
111	0xbc62ab75	-0.013834824
112	0xbb0b3b93	-0.0021245226
113	0x3afbc5aa	0.0019208689
114	0x3c010677	0.0078750765
115	0x3c3257e7	0.010885215
116	0x3bf83be5	0.0075754994
117	0x3b916ce8	0.0044380315
118	0xbcb10c3b	-0.021612277
119	0xbbce694b	-0.006299173
120	0x3c396dc9	0.011317679
121	0xbc21adaf	-0.00986807
122	0x3c9d68cf	0.019215016
123	0xbb610392	-0.0034334403
124	0xbc1c1e25	-0.009528671
125	0xbc41b82c	-0.011823695
126	0x3c70eac5	0.014704411
127	0x3b71ab3a	0.003687574
128	0xb9c83721	-0.00038188047
129	0x3c0f9f26	0.008765971
130	0x3bd65f83	0.0065421476
131	0xbc175c99	-0.009238386
132	0xba384d7a	-0.0007030588
133	0x3bdc99bb	0.0067321933
134	0xbbd76e8a	-0.0065744566
135	0xbba43b5b	-0.0050119585
136	0x3c07714b	0.008266757
137	0xba7f0d28	-0.00097294385
138	0x3bba9155	0.0056935945
139	0x3a3cf1a3	0.00072076375
140	0xbafe5c23	-0.0019406121
141	0xbb458fa4	-0.003014543
142	0x3c486d01	0.01223302
143	0x3c4a2cd3	0.0123397885
144	0x3a9f3621	0.0012146869
145	0xbc11e586	-0.00890482
146	0xbae0a495	-0.0017138893
147	0x3959a858	0.00020757446
148	0x3b956ead	0.0045603127
149	0x3ae2b6e8	0.0017296942
150	0xbc760e20	-0.015018016
151	0xbc2e1bba	-0.010626728
152	0x3b8f790b	0.004378443
153	0x3b4f596d	0.0031638995
154	0x3b8dd86c	0.004328778
155	0x3b8b7ba1	0.004256681
156	0x3b8fac0d	0.0043845237
157	0x3af48f18	0.0018658368
158	0x3c0aa0ee	0.00846122
159	0xbb827c38	-0.003982093
160	0x3a413bb8	0.00073712645
161	0xbb60af28	-0.0034284089
162	0xb9b80c6a	-0.00035104464
163	0xbb6e32b0	-0.003634613
164	0xb938358b	-0.00017567554
165	0xbc1bb25a	-0.009502972
166	0x3715489b	8.897997e-06
167	0x3c17bab7	0.009260825
168	0xbbc0e785	-0.0058869743
169	0xbc0b8236	-0.008514931
170	0x3c89b8fb	0.016811838
171	0x3c1c27d5	0.009530981
172	0xbc3d98fb	-0.011572118
173	0x3bf02c22	0.00732948
174	0xbc00e580	-0.007867217
175	0xbbda407f	-0.0066605206
176	0xbb90dcdf	-0.004420861
177	0x3c23345f	0.009961217
178	0x3ca6c04f	0.020355372
179	0xbc65b8e7	-0.014021135
180	0x3bda7e9a	0.006667924
181	0xbc9cf5b3	-0.019160127
182	0x3baa99d3	0.0052063256
183	0xbc33629f	-0.010948806
184	0xbc7cf0eb	-0.015438299
185	0x3c1399bc	0.009008821
186	0xbd064bfb	-0.032787304
187	0xbbc144ee	-0.0058981096
188	0xbc78324f	-0.015148713
189	0xbb8f6af6	-0.0043767644
190	0x3bf4a527	0.0074659768
191	0xbb8af7fa	-0.004240987
192	0xbbc05b4b	-0.005870258
193	0x3b0e17fc	0.0021681776
194	0x3bbf208b	0.005832737
195	0x3bcb4774	0.0062035862
196	0xbc0ed6f7	-0.008718244
197	0xbbc8e25f	-0.006130501
198	0xbb5a6ea7	-0.0033330114
199	0xbbf41295	-0.007448504
200	0xbad35bc0	-0.0016125366
201	0x3bade981	0.005307377
202	0x3bce9867	0.006304789
203	0xbb107a43	-0.002204553
204	0xbb51335a	-0.0031921477
205	0xbc59473d	-0.013261613
206	0xbb199f87	-0.0023441033
207	0x3aa7e26e	0.001280857
208	0x3c06a991	0.008219139
209	0x3b9a976c	0.004717758
210	0xbc85549b	-0.016275695
211	0x3aeab5b0	0.001790693
212	0xbbe99180	-0.0071279407
213	0x3cb42d94	0.02199439
214	0x3b95d48a	0.004572456
215	0xbc340b81	-0.010989071
216	0x3be40b1d	0.0069593326
217	0xbc3a4240	-0.011368334
218	0x3c21ec5b	0.009883012
219	0x3ba93615	0.005163918
220	0xbacb3f20	-0.0015506484
221	0xbbbf81b3	-0.005844319
222	0x3c101f84	0.008796576
223	0x3cd9551d	0.026529843
224	0xbbac1839	-0.005251911
225	0xbae48348	-0.0017434144
226	0x3b0cc183	0.0021477647
227	0xbae469d8	-0.0017426563
228	0xbb7afe65	-0.0038298604
229	0xbbb34407	-0.005470756
230	0xbc7710c2	-0.015079679
231	0x3a59d673	0.00083098485
232	0x3ba8af7b	0.005147872
233	0xbc2c372a	-0.010511199
234	0xbbc69c78	-0.006061133
235	0xbaf06ac7	-0.0018342369
236	0x383655b7	4.347201e-05
237	0xb7a4cf72	-1.9646923e-05
238	0xbc09d4f6	-0.00841259
239	0x3b20318b	0.0024443592
240	0x3a456036	0.000752929
241	0xbc167933	-0.00918417
242	0x3c1edb54	0.009695847
243	0xbbdd1053	-0.0067463308
244	0xbc36d688	-0.011159547
245	0x3bb57cd6	0.0055385632
246	0xbc4087e4	-0.011751149
247	0xbb62a6a3	-0.0034584187
248	0x3bc54783	0.0060204878
249	0xbb920ec9	-0.004457329
250	0xbac9b3a2	-0.0015388618
251	0xbbc24b80	-0.0059294105
252	0x3ba81ac9	0.005130146
253	0x3c1f4ff8	0.009723656
254	0xb9fd2870	-0.0004828605
255	0x3c1ab47a	0.009442443

action_model._discrete_distribution.branches.0.bias f4 [2]
0	0x00000000	0.0
1	0x00000000	0.0

action_model._discrete_distribution.branches.1.weight f4 [2, 128]
0	0x3c443db1	0.011977599
1	0xbabdaf43	-0.0014471788
2	0xbcca21ce	-0.024674322
3	0xbb5b359f	-0.0033448709
4	0x3c3a5e00	0.01137495
5	0x3ad85af7	0.0016506602
6	0xbbe075ab	-0.0068499646
7	0xbc8fa0c1	-0.017532708
8	0x3b42289a	0.0029626251
9	0x3c398713	0.011323708
10	0x3a2cedce	0.0006596715
11	0x3ae2cdb7	0.001730374
12	0xbc462061	-0.012092681
13	0x3a8e9987	0.0010879495
14	0x3bde9c25	0.006793516
15	0x3b85f49c	0.0040879976
16	0xbbf5f47d	-0.007505952
17	0x3b88383f	0.0041570957
18	0x3ae5094a	0.0017474082
19	0xbc6454f5	-0.013936271
20	0xbc600638	-0.013673358
21	0x3c297289	0.010342249
22	0x3ba987d2	0.0051736617
23	0xbc031648	-0.008000918
24	0x3bd4ff33	0.0065001487
25	0x3c3893cb	0.011265705
26	0xbcaaa993	-0.020832812
27	0xbadde5ea	-0.0016929482
28	0x3c28f5c2	0.0103124995
29	0x3c01abf2	0.00791453
30	0x3c90c284	0.017670877
31	0x3c306557	0.010766349
32	0xbb834884	-0.0040064473
33	0xbbf16efa	-0.0073679658
34	0x3c805429	0.01566513
35	0xbc111b6a	-0.008856634
36	0xbbb563c1	-0.0055355732
37	0xbc146b07	-0.00905872
38	0xbbfec073	-0.0077744066
39	0xbcbd13fd	-0.02308082
40	0x3b89344c	0.0041871425
41	0xbb1c5bfa	-0.0023858533
42	0x3bbff53a	0.0058580907
43	0xb988420e	-0.00025989156
44	0x3c6ab90b	0.014326344
45	0x3b7b34dd	0.003833107
46	0x3c047a2a	0.008085767
47	0x3c10a4be	0.00882834
48	0xbc8e558a	-0.017374773
49	0xbc819eb6	-0.01582275
50	0x3cae3ea6	0.021270107
51	0xbb936343	-0.004497917
52	0xbbc6b967	-0.006064582
53	0x3c266c75	0.010157694
54	0x3cbaf41b	0.022821477
55	0xbae27190	-0.0017276276
56	0x3c19a723	0.009378227
57	0xbc4a165b	-0.0123344315
58	0xbb484843	-0.003056065
59	0xbc157dc8	-0.009124227
60	0xbca002ca	-0.01953258
61	0xbba6a693	-0.005085775
62	0xbc498d1f	-0.012301712
63	0xbbb230bf	-0.00543794
64	0x3b2049ea	0.0024458119
65	0x3ba5d78a	0.0050610946
66	0xbbe5c52b	-0.0070120296
67	0x3b849292	0.004045793
68	0x3b5b4748	0.0033459235
69	0xbb38e7a9	-0.0028214252
70	0x3bf35cff	0.0074268575
71	0xbb647513	-0.003485982
72	0xbb2c5679	-0.002629666
73	0x3b13536b	0.002248014
74	0xba77c46d	-0.0009451572
75	0x3b6f1bba	0.0036485032
76	0x3c020a2c	0.0079369955
77	0x3ab87b38	0.0014074808
78	0x3b1d91a0	0.0024043098
79	0xbc3162fd	-0.010826823
80	0x3a3f519d	0.0007298233
81	0xbc08177a	-0.0083063785
82	0x3c1d6b63	0.0096081225
83	0xba32a1f0	-0.00068142917
84	0x3beb665a	0.007183832
85	0xb8a01395	-7.633042e-05
86	0xbb26978b	-0.0025419916
87	0xbc2bd9cb	-0.010488938
88	0xbc8c24a8	-0.017107323
89	0x3b09d71d	0.0021032759
90	0x3b940b68	0.0045179613
91	0xbc36a1ef	-0.011147006
92	0x3a16d017	0.00057530537
93	0x3b26ae45	0.0025433463
94	0x39cdf24b	0.0003928117
95	0xbc2e0f66	-0.010623788
96	0xba094bff	-0.00052374596
97	0x3c5ea202	0.01358843
98	0xbb7f5b0a	-0.0038964176
99	0xba5f8a9a	-0.0008527428
100	0x3c199edf	0.009376257
101	0x3c00c296	0.007858893
102	0x3c95201f	0.018203793
103	0xbb8f5f03	-0.00437534
104	0x3c883e31	0.016631218
105	0x3bdb2fd3	0.0066890507
106	0x3c0fc571	0.008775101
107	0x3c39e344	0.011345688
108	0x3988082b	0.00025946027
109	0x39d90fc3	0.0004140121
110	0x3a3b3f1c	0.0007142888
111	0x3b0183dc	0.0019762432
112	0xba88afe8	-0.0010428401
113	0xbbd1b8bb	-0.0064001954
114	0x3b074dc7	0.0020645724
115	0x3afe8502	0.0019418302
116	0xbb916723	-0.0044373437
117	0x3bb88f0f	0.0056322883
118	0xbb2149fa	-0.0024610744
119	0x3bd47088	0.0064831413
120	0xbb738e6b	-0.0037163745
121	0xbb877c11	-0.004134663
122	0xbc71f1c8	-0.014767118
123	0xbc83aee7	-0.01607461
124	0xbba75ed3	-0.0051077395
125	0xbc12163b	-0.008916433
126	0x3b62703b	0.0034551758
127	0x3afc00b8	0.0019226288
128	0x3be3a24b	0.006946837
129	0xbbac5b8f	-0.005259938
130	0x3c31818d	0.01083411
131	0xbbd52a43	-0.006505282
132	0xbba4e934	-0.005032683
133	0xbbd23365	-0.006414818
134	0x3c2741ff	0.010208606
135	0x3bab6f3c	0.005231766
136	0x3ae1040f	0.0017167347
137	0x3c568ba5	0.013094817
138	0x3be42a50	0.006963052
139	0x3bd4d813	0.0064954846
140	0x3c837793	0.016048228
141	0xbc164a26	-0.009172952
142	0xbbaf2fdf	-0.005346283
143	0xbc34d787	-0.011037714
144	0x3ba70247	0.005096707
145	0xbc296203	-0.010338309
146	0xbc1ce7af	-0.009576722
147	0x3bba71d6	0.00568984
148	0xbc16b188	-0.0091976
149	0x3b94177e	0.004519402
150	0xbc40dc5a	-0.011771286
151	0xb9e9ec55	-0.00044617304
152	0x3b5400bd	0.0032349073
153	0xbbef9f8b	-0.00731272
154	0xbc2ae12d	-0.010429663
155	0x3b9478ee	0.0045310175
156	0xbbfe06aa	-0.0077522593
157	0xbb650d1f	-0.0034950448
158	0x3a1473d7	0.00056630134
159	0xbc55271a	-0.013009811
160	0x3c28a9d5	0.010294397
161	0x3b26cb3b	0.0025450725
162	0xbbca102a	-0.0061664777
163	0xbb3347ee	-0.0027356106
164	0xbbe17ded	-0.0068814666
165	0xbb0fb70a	-0.0021929168
166	0x3c2d72d7	0.010586462
167	0xbbd7d230	-0.0065863356
168	0xb9dccdd8	-0.00042115035
169	0xbbb18a09	-0.0054180664
170	0xbbc2420a	-0.0059282826
171	0xbc9cef68	-0.019157127
172	0x3c51646d	0.012780291
173	0x3b85be03	0.004081489
174	0x3c97973b	0.01850473
175	0x3b6d7ee2	0.0036238958
176	0x3c567535	0.013089468
177	0x3c4e338f	0.012585535
178	0xbac3983b	-0.0014922688
179	0x3b1d004e	0.002395648
180	0x3b29d1c7	0.002591239
181	0x3b8746c7	0.0041283104
182	0xbba956f7	-0.0051678377
183	0x3c4d48f7	0.012529603
184	0x3c3f80b0	0.011688396
185	0xb776c692	-1.4708976e-05
186	0x3c029a42	0.007971348
187	0xbb4b7b32	-0.0031048772
188	0x3b47fe0f	0.003051642
189	0x3a71fb2d	0.00092308485
190	0xbbe5336b	-0.006994655
191	0xbbac2d2f	-0.0052544097
192	0x3b9c1fd0	0.0047645345
193	0xbc1f1713	-0.009710091
194	0x3b2a836b	0.0026018273
195	0x3c23ea47	0.010004587
196	0x3bcdd218	0.0062811486
197	0x3c6c62d7	0.014427862
198	0xbbba1fad	-0.0056800456
199	0x39cbf0d6	0.00038898614
200	0xbbc8091e	-0.0061046025
201	0x3c11b75c	0.008893814
202	0x3cb708a9	0.022342997
203	0xba9c9dec	-0.001194892
204	0xbc03e0e1	-0.008049221
205	0xbc18090f	-0.0092795035
206	0x3c488d50	0.012240723
207	0x3bd2d5ef	0.0064341943
208	0xbbb068b9	-0.0053835777
209	0x3c33fd37	0.010985664
210	0xbc259acb	-0.010107706
211	0xbc294768	-0.010331966
212	0x38b3e987	8.578883e-05
213	0xbc31ecf3	-0.010859716
214	0xbb7c6fc7	-0.0038518773
215	0x3c1033d7	0.008801422
216	0x3c5d6203	0.013512137
217	0x3c06a993	0.008219141
218	0x3c7675eb	0.015042762
219	0xbb568348	-0.0032732058
220	0x3be5e2d2	0.0070155645
221	0xbc417285	-0.011807089
222	0x3befa9cd	0.007313943
223	0xbc07973f	-0.008275806
224	0xbc03d769	-0.008046963
225	0x3bea34ab	0.007147392
226	0x3a81640e	0.0009871738
227	0xb9c3aa4b	-0.00037320176
228	0xbb2c10f0	-0.0026255213
229	0xbbc47d55	-0.005996386
230	0xbafc2bbd	-0.0019239109
231	0xba86b04b	-0.0010275928
232	0xbbf169ff	-0.007367372
233	0xbc4bdee3	-0.012443277
234	0xbb86ce99	-0.004113984
235	0xbb301f13	-0.002687399
236	0x3bb3d638	0.0054881833
237	0xbc1604fd	-0.009156463
238	0x3a40bb93	0.00073521695
239	0xbb8758f8	-0.004130479
240	0x3b4306c5	0.0029758674
241	0x3b22d06a	0.0024843463
242	0xbbe72d07	-0.007054928
243	0x3ac73ece	0.0015201212
244	0xbca4b6bd	-0.020106668
245	0x3b9272e8	0.0044692643
246	0xbc402c69	-0.011729338
247	0x3c2e4c75	0.010638346
248	0x3c3a1b50	0.011359051
249	0xbb63ce62	-0.0034760465
250	0x3cabe6e9	0.02098413
251	0xba2e218e	-0.0006642573
252	0x3bcd8a22	0.00627257
253	0x3c6b6d6a	0.014369348
254	0xbbed2842	-0.007237465
255	0xbae36e95	-0.0017351682

action_model._discrete_distribution.branches.2.weight f4 [2, 128]
0	0xbbf5c1d7	-0.007499914
1	0xbc06c599	-0.008225822
2	0x3bcba623	0.0062148734
3	0x3c14f93a	0.009092623
4	0x39a5eef9	0.000316493
5	0x3baa97cb	0.0052060834
6	0xbb565bb7	-0.0032708475
7	0x3c85c507	0.016329302
8	0xba6508bd	-0.0008736959
9	0xbc0c8763	-0.008577201
10	0xbc99ee3a	-0.018790353
11	0xbbd16fd2	-0.006391504
12	0xb8d07b2d	-9.941156e-05
13	0x3c47651d	0.012170103
14	0x3bf83473	0.007574612
15	0xbb9a9dad	-0.0047185034
16	0xbb1eeebb	-0.0024251181
17	0x3bb64abf	0.0055631096
18	0xbc1db6d3	-0.009626108
19	0xba1f8f25	-0.0006086699
20	0x3bcab383	0.0061859502
21	0x3a91a8c6	0.001111292
22	0xbb267a99	-0.0025402664
23	0xbb66463f	-0.0035137085
24	0x3b108d23	0.002205678
25	0xbbb17aaf	-0.0054162364
26	0x3b038d87	0.002007337
27	0xbbde62e0	-0.006786689
28	0xbc3a831f	-0.011383801
29	0xbaf2a7cf	-0.0018513146
30	0xbbae01f3	-0.005310291
31	0xbbcca633	-0.0062453984
32	0xbbfefd90	-0.007781692
33	0x3bc5740b	0.0060257963
34	0x3aa61dfc	0.0012673731
35	0x3b82ace0	0.0039878935
36	0xbba6d698	-0.0050914995
37	0xbb912e63	-0.0044305786
38	0xbcdc4fcb	-0.026893517
39	0x3c234eb7	0.009967498
40	0x3c219f15	0.009864588
41	0xbb89148d	-0.004183358
42	0xbb3760ca	-0.0027981275
43	0xbb4f8323	-0.0031663857
44	0xbc371f31	-0.01117687
45	0x3c4071c0	0.01174587
46	0xba14073c	-0.000564683
47	0xbc8066e8	-0.01567407
48	0x3c7048b3	0.01466577
49	0x394ee320	0.00019730302
50	0x3b89df47	0.004207525
51	0xbc208973	-0.009798395
52	0x3c074b81	0.008257748
53	0x3c965a0b	0.018353483
54	0x3acf2647	0.0015804254
55	0x3c59eb2a	0.013300696
56	0xbbd2855f	-0.0064245905
57	0x3a975888	0.001154677
58	0xbb388b6f	-0.002815928
59	0xbba02720	-0.0048874766
60	0x3ca5ba7f	0.02023053
61	0x3ba38fb9	0.0049914983
62	0xbb324b9f	-0.0027205718
63	0xbc83518f	-0.016030101
64	0x3c1227b6	0.008920601
65	0x3c842e96	0.016135495
66	0xbc4974b7	-0.012295893
67	0xbb62dc7f	-0.003461629
68	0xbc1fafe9	-0.00974653
69	0xbb9c9bfe	-0.004779338
70	0xba26e453	-0.00063664204
71	0x3b81078a	0.0039376663
72	0x3b125987	0.0022331194
73	0x3b987053	0.004652062
74	0x3ba9aab0	0.0051778182
75	0xbb90fa77	-0.004424389
76	0xbc026f72	-0.007961141
77	0xbc23fd39	-0.010009103
78	0x3b85f7aa	0.0040883617
79	0x3b550d67	0.003250921
80	0xbb974d2b	-0.0046173534
81	0xbc8a352a	-0.016871054
82	0xbac5d77b	-0.0015094125
83	0xbc1f632f	-0.009728237
84	0x3c6806ad	0.014161748
85	0xb88ca308	-6.706087e-05
86	0x3c3e77a8	0.011625208
87	0xbb0118f3	-0.0019698709
88	0xbb80363f	-0.0039127166
89	0x3accca13	0.0015624188
90	0xbbe6961b	-0.007036937
91	0xbbc605b4	-0.0060431603
92	0xbbc397d0	-0.005969025
93	0xbbcaeda2	-0.006192879
94	0x3c2ed552	0.010670977
95	0x3c82f489	0.015985744
96	0x3bc4a1dd	0.006000741
97	0x39465b53	0.00018916772
98	0xbc415355	-0.011799653
99	0xbc5eedc2	-0.013606491
100	0xbc0e6224	-0.008690391
101	0xbc0cef30	-0.008601949
102	0xbb9ff687	-0.0048816833
103	0xbb1edb2b	-0.002423952
104	0x3ca72c15	0.020406762
105	0x3c169a53	0.009192067
106	0x3b991091	0.0046711643
107	0xbc21275a	-0.009836042
108	0xbc1c9406	-0.009556776
109	0x39c2e33c	0.00037171866
110	0xb9734217	-0.00023198906
111	0x3a8133ac	0.0009857318
112	0xbca6199a	-0.02027588
113	0x39a3cd0b	0.00031242552
114	0xba503560	-0.0007942524
115	0x3c181e8b	0.009284626
116	0xbb2dce27	-0.0026520581
117	0xb9d0891a	-0.00039775
118	0xbb405d15	-0.0029352356
119	0x3a827f1e	0.0009956097
120	0xbc84a27e	-0.016190764
121	0xbc40f6a6	-0.011777556
122	0xbbe3c5b5	-0.0069510587
123	0x3b6df59f	0.0036309732
124	0x39189ec3	0.00014554993
125	0x3bcdd5da	0.0062815966
126	0x3c035b22	0.008017333
127	0xbc1b774f	-0.009488895
128	0xba6814e8	-0.0008853213
129	0xb9b7ea84	-0.00035079208
130	0x3c78358a	0.015149483
131	0x3c05afa6	0.008159554
132	0x3a955197	0.0011392114
133	0x3c1ab939	0.009443575
134	0xbc97457a	-0.018465746
135	0xbbddd048	-0.006769214
136	0xbc041805	-0.008062367
137	0x3c71ae43	0.01475102
138	0xba4dae62	-0.00078461145
139	0xbac002df	-0.0014649293
140	0xbb1565dc	-0.0022796309
141	0xbc7aafbf	-0.01530069
142	0x3c64ef7a	0.013973111
143	0xbafb3a05	-0.0019167071
144	0xbc02918d	-0.007969272
145	0x3c8428c5	0.016132722
146	0xbc94b145	-0.018150935
147	0x3c753e98	0.014968537
148	0x3b85b116	0.004079948
149	0xbabf37f6	-0.0014588821
150	0x3bc7488c	0.0060816463
151	0xba55887b	-0.00081456424
152	0xbc0fe93b	-0.008783634
153	0xbb65de40	-0.0035075098
154	0xbc038a3b	-0.008028562
155	0x3bb44dd5	0.0055024424
156	0xb9abc37a	-0.00032761303
157	0xbb844f9b	-0.00403781
158	0xbbe2af17	-0.006917845
159	0xbba3833b	-0.004990009
160	0x3ba2b0e2	0.0049649337
161	0x3b8396d3	0.0040157824
162	0xbb9c3f20	-0.0047682673
163	0xb9851d53	-0.00025389585
164	0x3be72c17	0.0070548165
165	0xbb41754b	-0.0029519375
166	0x3b7456f3	0.003728327
167	0x3b01b201	0.0019789936
168	0x3c266a89	0.010157236
169	0xbb9388b7	-0.0045023817
170	0x3c053c31	0.0081320265
171	0xbad8e7a3	-0.0016548525
172	0x3a236323	0.0006232729
173	0xbcb27a05	-0.0217867
174	0xbc24a447	-0.010048932
175	0xbbeff49f	-0.0073228623
176	0xb99fa8af	-0.00030452522
177	0xbb0dd1df	-0.0021639985
178	0x3bf17668	0.0073688515
179	0xbc425ff8	-0.011863701
180	0xbc59c49b	-0.013291503
181	0xbbb71a4a	-0.0055878507
182	0xbc01a24a	-0.007912228
183	0x3bf34f9f	0.007425263
184	0xbbe6694d	-0.007031596
185	0x3cc3519b	0.023842623
186	0x3c0d9726	0.008641994
187	0xbc2ca456	-0.010537228
188	0xbbf55c58	-0.007487815
189	0xbbabbdef	-0.0052411477
190	0x3a9c86b0	0.0011941995
191	0xbb1a7658	-0.0023569074
192	0x3c1e49a8	0.009661116
193	0x3b2c6aae	0.0026308703
194	0x3c3efa1c	0.01165631
195	0x3c2fdb92	0.010733502
196	0x39ed9f5d	0.00045322897
197	0xb8617ead	-5.3762156e-05
198	0xb9d59032	-0.0004073396
199	0x39caf6bf	0.00038712283
200	0xbb28f85a	-0.0025782795
201	0x3c8824d8	0.016619131
202	0x3b9386e7	0.0045021656
203	0xbb9e5000	-0.004831314
204	0xbb83ea6b	-0.0040257475
205	0x3b4bb563	0.0031083457
206	0x3c1d7f15	0.009612818
207	0xbc582e7d	-0.013194677
208	0xbc19bb55	-0.009383042
209	0xbc292217	-0.010323069
210	0xb9d34702	-0.0004029796
211	0xbb52d615	-0.003217106
212	0xbc8fbcb7	-0.017546041
213	0x3b2d3d24	0.0026434148
214	0xbb714127	-0.0036812515
215	0xbbd20fca	-0.0064105736
216	0xbc2177dd	-0.009855238
217	0xbaccb6c7	-0.0015618437
218	0x3b1594b0	0.002282422
219	0x3c2883d5	0.010285337
220	0x3c1c283b	0.009531076
221	0xbc3f7f4f	-0.011688068
222	0x3aaa66fb	0.0013000661
223	0x3b59799b	0.0033184055
224	0xbbffa565	-0.007801699
225	0xbc25eda7	-0.0101274615
226	0xbbafcf7d	-0.0053653107
227	0x3c19c3f1	0.009385095
228	0xbb52f635	-0.0032190208
229	0xbb00f607	-0.0019677894
230	0x3cbc04d2	0.022951517
231	0xbbbe068f	-0.0057991217
232	0x39067fd0	0.0001282685
233	0x3b6f5440	0.0036518723
234	0x3beabdea	0.007163753
235	0xbb90f3cd	-0.0044235946
236	0xbc90a313	-0.017655885
237	0x3c228c0b	0.009921084
238	0xbb9934d9	-0.0046754894
239	0x3c04bff9	0.0081024105
240	0x3c62b402	0.0138368625
241	0xbbea79bb	-0.0071556247
242	0xbcae6bb0	-0.021291584
243	0xbb466f5d	-0.003027878
244	0x3bb41f2c	0.00549688
245	0x3a411d01	0.00073666876
246	0xbc078c28	-0.008273162
247	0x3bf2e242	0.007412226
248	0x3ba3c98e	0.0049983924
249	0xbbf53947	-0.0074836346
250	0xbb00e805	-0.0019669544
251	0x3c2cc228	0.010544337
252	0x3b2b3a01	0.0026127102
253	0xbc2ea738	-0.010659985
254	0x3b8be9a4	0.0042697955
255	0x3c355ce6	0.011069512

action_model._discrete_distribution.branches.3.weight f4 [2, 128]
0	0xbae06748	-0.0017120624
1	0x3bb16242	0.0054133246
2	0x3b3c2031	0.002870571
3	0xbc7f850b	-0.015595685
4	0xbb82ba6b	-0.003989508
5	0x3c9e7e87	0.019347442
6	0x3c9b063e	0.018923875
7	0x3861aa08	5.3802534e-05
8	0xbb9c0e4d	-0.004762447
9	0x3b060075	0.002044705
10	0xbba95841	-0.0051679914
11	0x3beb2e4b	0.0071771494
12	0x3bd7471d	0.0065697567
13	0xbbf0e1e0	-0.007351145
14	0xbc312bb4	-0.010813642
15	0x3cb1dadb	0.021710804
16	0x3b983ff9	0.004646298
17	0x3b360d0b	0.002777877
18	0xbbf290c0	-0.0074025095
19	0x3bb2fc98	0.0054622404
20	0xbc1d8dc0	-0.009616315
21	0xbb407d26	-0.002937147
22	0x3bd211fb	0.006410835
23	0x3c29bca7	0.01035992
24	0xb9f4dc85	-0.00046703606
25	0xbc7ed8f0	-0.015554652
26	0xbc3c6f34	-0.011501122
27	0xbb9ba5b8	-0.00474998
28	0xbc175947	-0.009237594
29	0x3b0fa81a	0.0021920265
30	0x3b5058ed	0.0031791285
31	0xbc6f3cca	-0.014601896
32	0x3c1d6a3b	0.009607847
33	0x3a105dc3	0.00055071356
34	0xbb5bd152	-0.0033541513
35	0xbca6ff2c	-0.020385347
36	0xbbffc6e8	-0.007805694
37	0x3bf44e4d	0.0074556232
38	0x3b0d8443	0.0021593727
39	0x3b93f3b5	0.004515136
40	0xbb9cc42d	-0.004784128
41	0xbc8f52ea	-0.017495591
42	0x3c1c035f	0.009522288
43	0xbb9d4f92	-0.0048007453
44	0xbac42498	-0.0014964519
45	0x3c894dc5	0.016760716
46	0xbba213d7	-0.0049462127
47	0xbbc54b64	-0.00602095
48	0xbb4a51d7	-0.0030871534
49	0xbbcaf181	-0.0061933403
50	0xbba3216d	-0.00497835
51	0xbbb8d99a	-0.0056411745
52	0x39543d35	0.00020240697
53	0xb8df3cf0	-0.00010644819
54	0x3c06f233	0.008236456
55	0xbc1b1219	-0.009464764
56	0x3b629fa3	0.0034580014
57	0x3cbc01b7	0.022950036
58	0x3b6746eb	0.0035290073
59	0x3b75d593	0.0037511333
60	0x3c059f7a	0.008155698
61	0xbb246a6b	-0.0025087844
62	0xbc2d1ab7	-0.010565451
63	0x3b9c6c44	0.0047736485
64	0x3b4b5714	0.0031027244
65	0xba50f530	-0.0007971106
66	0xbb951886	-0.0045500426
67	0xbc12aa86	-0.008951789
68	0xbbd56608	-0.006512407
69	0x3bab82c4	0.0052340943
70	0x3b14206f	0.002260234
71	0xbb6c5860	-0.0036063418
72	0x3b5b08bf	0.003342196
73	0xb968e9af	-0.00022212298
74	0xb9d54ff7	-0.00040686104
75	0xbb7c3abb	-0.0038487155
76	0xbc238d24	-0.009982381
77	0xbc99b689	-0.018763797
78	0xb96d9b0d	-0.00022659842
79	0x3b5ad892	0.0033393246
80	0xbb9511eb	-0.004549255
81	0x3b51824a	0.0031968527
82	0xbc08ccf1	-0.008349643
83	0x3bc3a852	0.005970993
84	0x3ba4a476	0.005024488
85	0xbc0cf1e7	-0.008602596
86	0x3b469c4f	0.003030557
87	0x3ba9b016	0.005178462
88	0x3a73110a	0.00092722534
89	0xbc56fa5b	-0.013121213
90	0xbbb6bdb8	-0.0055768155
91	0xbb8badd7	-0.0042626667
92	0x3a74aa4d	0.0009333238
93	0x3c456f9b	0.012050535
94	0x3b97e6bf	0.0046356614
95	0x3bcb26f5	0.0061997124
96	0x3ab3fdee	0.0013732293
97	0x3c63b3a5	0.013897811
98	0x3aeef143	0.001822986
99	0x3b8cdecb	0.00429902
100	0xbc0dff09	-0.008666762
101	0xbc7163ba	-0.014733249
102	0x3c8013de	0.015634473
103	0x3cb3d630	0.021952718
104	0x3c35558f	0.011067762
105	0xbc84f109	-0.016228216
106	0x3b3e93c5	0.0029079777
107	0xbb7a1670	-0.0038160346
108	0xbc52f7b3	-0.012876439
109	0xbb2105bf	-0.0024570075
110	0xbb375706	-0.0027975454
111	0x3c7fd19b	0.015613939
112	0xbc1fdbdb	-0.0097570075
113	0x3c144d29	0.0090516
114	0xbc5c268d	-0.013436926
115	0x3b46756f	0.0030282398
116	0xbac5f039	-0.0015101499
117	0xba257d97	-0.0006312965
118	0x3bf2532f	0.00739517
119	0xbbc96f07	-0.0061472687
120	0xbc5b01c2	-0.013367118
121	0x3b35f466	0.002776408
122	0x3b4473e3	0.00299763
123	0xbb10c376	-0.002208916
124	0xbc2509e1	-0.010073156
125	0x38cf4d50	9.88493e-05
126	0x3b55b28a	0.0032607638
127	0x3b8f372f	0.004370592
128	0xbad97e52	-0.0016593433
129	0xbbc89b5e	-0.006122037
130	0x3c81af1b	0.015830567
131	0x3b21736d	0.002463545
132	0x3adef5bb	0.0017010489
133	0xbb2e8682	-0.0026630466
134	0x3b650ee7	0.003495151
135	0xbc6a5d70	-0.014304504
136	0x3aad74b3	0.0013233632
137	0x39dd1cfa	0.00042173994
138	0xbca3388b	-0.019924423
139	0x3b3da001	0.002893448
140	0x3b86025f	0.004089638
141	0xbc207aae	-0.009794874
142	0x3a9f5839	0.001215703
143	0x3c0d859e	0.008637814
144	0x3b8dc630	0.0043266043
145	0xbbca7ee5	-0.006179678
146	0xba8bb7d3	-0.0010659642
147	0x3c6a8e0a	0.014316091
148	0xbb6c66a8	-0.003607193
149	0xba90b70e	-0.0011040883
150	0x3c847fb4	0.016174175
151	0xbc7af933	-0.015318203
152	0xbbc69106	-0.0060597686
153	0x3ccd2830	0.025043577
154	0x3bdf7138	0.0068189166
155	0x3b4bad8f	0.003107879
156	0xbbaa3a54	-0.0051949415
157	0xbc7107ba	-0.014711315
158	0x3c8c2d2c	0.017111383
159	0x3bd82402	0.0065960893
160	0xbc3be046	-0.011467045
161	0x3c601b55	0.013678391
162	0xbc32e715	-0.010919352
163	0x3a8f1ebe	0.0010919196
164	0x3b6891c0	0.0035487264
165	0xbb98e62e	-0.0046661114
166	0xbb66261a	-0.0035117925
167	0xbc27a907	-0.01023317
168	0xbbd0031f	-0.0063480283
169	0x3c14515b	0.0090526
170	0xbc20239b	-0.009774114
171	0x3a7aab07	0.0009562228
172	0xbc8063c1	-0.015672566
173	0xbc1ef082	-0.009700896
174	0x3bcf1f0f	0.006320841
175	0x3c1bc58f	0.009507551
176	0xbbb943bf	-0.005653828
177	0xbc0fea04	-0.008783821
178	0xbc35e96b	-0.011103014
179	0xbc53f3a7	-0.012936509
180	0x3c2f6bd3	0.01070686
181	0x3bd1ee2a	0.006406565
182	0x3c0e389b	0.008680488
183	0x3c5793dd	0.013157812
184	0x3c6797c2	0.014135303
185	0x3b8ddfc1	0.004329652
186	0x3bc4cf1f	0.006006136
187	0xbaf7f9d7	-0.0018919063
188	0x3cbb33de	0.02285188
189	0xbb97d42e	-0.004633448
190	0x3b6b69a3	0.0035921119
191	0xbaff36c0	-0.0019471273
192	0x3bb50f12	0.005525478
193	0xbba43197	-0.0050107944
194	0xbc5d91d5	-0.013523539
195	0xbc5e823f	-0.013580858
196	0xbbb80da0	-0.0056168586
197	0x3b14424c	0.0022622524
198	0x3bb6a329	0.0055736494
199	0x3a864887	0.0010245004
200	0xbbae712f	-0.005323551
201	0x3af85365	0.0018945752
202	0x3bf1a8a2	0.007374839
203	0xbbd58437	-0.0065160054
204	0x3af94dc3	0.0019020367
205	0x39c2d008	0.0003715756
206	0xbb23a80d	-0.0024971992
207	0x3ac7497d	0.0015204396
208	0xbb2ec420	-0.0026667193
209	0x3a02d5a6	0.00049909425
210	0x3c593bb7	0.013258866
211	0x3c213d2c	0.009841245
212	0xba227cd9	-0.00061984133
213	0xbbb76e6d	-0.0055978806
214	0x3bfbdb2d	0.00768604
215	0xbc54a6df	-0.012979238
216	0xbb017dff	-0.0019758937
217	0x3994051d	0.0002823257
218	0xbc5a9720	-0.013341695
219	0xbb856443	-0.00407079
220	0xbbe5b202	-0.0070097456
221	0x3bab35bb	0.005224911
222	0xba8a00d6	-0.0010528814
223	0xb8b4466b	-8.596185e-05
224	0xbba4f7db	-0.0050344295
225	0xba9efd89	-0.0012130003
226	0xbb04f701	-0.0020288827
227	0xbc2fd87c	-0.010732766
228	0xbb14a946	-0.0022683903
229	0xba40aa0d	-0.0007349558
230	0x3c1c0ff3	0.009525287
231	0x3b2eae3f	0.0026654152
232	0xbbd1ae33	-0.00639894
233	0x3ad218a8	0.0016029077
234	0x3c411643	0.011785093
235	0x3b09f853	0.0021052554
236	0xbc4cc732	-0.012498664
237	0x3b0c817b	0.002143948
238	0xbbee6a52	-0.007275858
239	0xbb6230f2	-0.0034514037
240	0xbb80ccd3	-0.003930667
241	0x3aea5f77	0.0017881234
242	0xbbb6e671	-0.00558167
243	0xbc029b8c	-0.007971656
244	0x3c62fa2b	0.01385359
245	0x3b0a295b	0.0021081779
246	0xba3daeb7	-0.00072358124
247	0xbc048e79	-0.008090609
248	0x3c574062	0.013137909
249	0x39ca528b	0.00038589942
250	0xbc70c1c3	-0.014694634
251	0x3c7984ca	0.015229413
252	0x3b68af33	0.0035504817
253	0xbc41021c	-0.011780288
254	0xbc1fcb1d	-0.009753016
255	0xba2576ce	-0.0006311954
