Assets/results/ppo/My Behavior/My Behavior-343.pt (torch, 219670 bytes, 38 tensors)

discrete_act_size_vector f4 [1, 14]
2.0 2.0 2.0 2.0 2.0 2.0 2.0 10.0
10.0 10.0 10.0 10.0 10.0 10.0
00000000: 0000 0040 0000 0040 0000 0040 0000 0040
00000010: 0000 0040 0000 0040 0000 0040 0000 2041
00000020: 0000 2041 0000 2041 0000 2041 0000 2041
00000030: 0000 2041 0000 2041

network_body._body_endoder.seq_layers.0.weight f4 [128, 24]
-0.3174622 -0.39412573 -0.23033488 -0.07224402 0.24447826 0.46303752 0.049828958 0.3027309
0.06812059 0.100921236 0.10871146 0.08088323 -0.026195047 0.27418926 -0.12175589 -0.14049558
0.028666096 0.07829475 -0.5660979 0.03705133 -0.23989724 0.1439378 -0.12680444 0.12942922
-0.26480016 -0.05727208 0.116631135 0.23336737 0.0024724882 -0.28703964 0.11603834 -0.23725042
-0.03754595 0.0457183 0.17168663 0.04894599 -0.07151073 -0.34390265 0.24093448 0.105875455
-0.19999069 0.17937912 -0.035313997 0.28940064 0.39356145 0.040341966 -0.038339622 -0.09540183
-0.21035697 0.34822783 -0.055193387 -0.0711106 -0.046383377 0.19768812 -0.07566478 -0.40729222
-0.17096235 0.28163144 0.2811504 -0.058443196 -0.054730106 0.41435513 0.021946086 0.013735787
-0.24460265 -0.087617315 0.36237484 -0.19400243 -0.0970664 0.3513834 0.011624565 -0.21829696
-0.008105802 0.059852235 0.17403418 0.22213766 0.15342702 0.044386927 -0.058583535 -0.051875807
-0.098303065 -0.090514325 0.0076300283 -0.32635498 0.060911447 -0.0668541 -0.11444387 -0.039579645
-0.21634322 -0.10914362 0.05462237 0.13645713 -0.054833695 0.38092974 0.16720496 -0.0005267797
-0.123278 0.04825191 -0.07152051 -0.26985514 -0.24807902 0.11998796 -0.24297093 -0.1665169
-0.16267665 -0.21971355 -0.13663013 0.09670428 -0.13441753 -0.3828749 0.14030291 -0.14478308
0.00086615083 0.21602036 0.003709762 -0.017686833 0.16108175 0.07799684 0.06688183 0.03749935
-0.22284311 0.31846964 0.12234966 -0.14556435 -0.41284168 -0.05109784 0.16971679 -0.11074316
0.17561147 0.086214766 -0.0047593806 -0.4328153 0.02501322 -0.19413169 0.20828514 -0.3251054
-0.09398155 -0.2992075 -0.13939808 0.043769535 0.121887095 0.038784117 0.07031945 -0.039223365
-0.21270005 0.32366627 0.016131274 0.0076082954 0.082315296 0.50260735 -0.10327415 -0.040849384
0.18423006 -0.23573309 0.34550545 -0.035478614 0.4501419 0.14766228 0.100288495 -0.21381555
0.32508823 -0.23677605 -0.08831637 -0.08713192 -0.3042958 -0.31090292 0.20535098 -0.093796186
-0.06091139 0.29479814 0.2481305 0.16461359 0.06680393 0.2828185 -0.14619392 -0.0055219303
0.3090552 -0.27506083 0.09532926 0.23427944 0.0381403 -0.29776824 -0.12173832 -0.114332944
-0.12951054 0.110422276 -0.35033655 -0.11437277 -0.14187495 -0.14781372 0.2619554 0.09214893
-0.06749349 0.22865212 0.31804147 0.301035 -0.1920719 0.22275096 -0.002871028 -0.053394306
-0.24817303 -0.29086813 -0.08117451 0.14285378 0.002807938 0.13958873 0.13885897 0.19856048
-0.26989403 0.16028886 -0.235585 -0.18985982 0.06544172 0.059025668 -0.057489708 -0.048274234
-0.08901886 -0.19218922 0.05610125 0.17021094 -0.13923438 0.015206185 0.03283832 -0.0030929418
0.2564471 -0.060271274 0.06379 -0.040518574 -0.005223412 0.21810253 0.20078877 0.093426794
-0.18535547 -0.0130494805 0.21392389 0.22113445 0.061010253 -0.02028154 -0.13847043 0.19404587
0.14993118 -0.23567592 -0.27660474 0.18754937 -0.12568796 -0.061898 0.094150536 -0.075500466
-0.29770994 -0.12955622 0.0047718207 -0.20427696 -0.009196172 0.14296974 -0.08323707 0.22615196
00000000: 688a a2be d9ca c9be e8dc 6bbe acf4 93bd
00000010: 8258 7a3e 4113 ed3e 7319 4c3d 8bff 9a3e
00000020: cf82 8b3d cbaf ce3d 1da4 de3d 1ba6 a53d
00000030: ff96 d6bc 8962 8c3e 275b f9bd 13de 0fbe
00000040: 29d5 ea3c ff58 a03d cbeb 10bf 23c3 173d
00000050: 9fa7 75be 6e64 133e 06d9 01be 1889 043e
00000060: e393 87be 2196 6abd 4edc ee3d dbf7 6e3e
00000070: 7809 223b dcf6 92be 82a5 ed3d c6f1 72be
00000080: c8c9 19bd 1d43 3b3d 9fce 2f3e 977b 483d
00000090: 3874 92bd 0214 b0be 87b7 763e 3bd5 d83d
000000a0: 5cca 4cbe 29af 373e 69a5 10bd 522c 943e
000000b0: e380 c93e 9e3d 253d 020a 1dbd 0962 c3bd
000000c0: d167 57be eb4a b23e 7612 62bd 6fa2 91bd
000000d0: 7ffc 3dbd c16e 4a3e 23f6 9abd 9b88 d0be
000000e0: c110 2fbe ff31 903e f2f2 8f3e 2262 6fbd
000000f0: ad2c 60bd 5b26 d43e 47c8 b33c 110c 613c
00000100: 1e79 7abe b570 b3bd 3289 b93e 93a8 46be
00000110: c0ca c6bd 86e8 b33e f674 3e3c 3d89 5fbe
00000120: 33ce 04bc 9e27 753d 0436 323e 0e78 633e
00000130: f91b 1d3e 11cf 353d 4af5 6fbd ba7b 54bd
00000140: 1e53 c9bd 935f b9bd 5105 fa3b 0018 a7be
00000150: 487e 793d cdea 88bd 8c61 eabd 441e 22bd
00000160: 1489 5dbe b186 dfbd b5bb 5f3d 6bbb 0b3e
00000170: 4c99 60bd 3909 c33e c737 2b3e 9617 0aba
00000180: 2d79 fcbd cba3 453d 5879 92bd 742a 8abe
00000190: 6d08 7ebe 3fbc f53d 5fcd 78be 6883 2abe
000001a0: b594 26be 97fc 60be c5e8 0bbe e50c c63d
000001b0: c0a4 09be 2e08 c4be 91ab 0f3e 0442 14be
000001c0: 660e 633a 7134 5d3e 7a1f 733b fae3 90bc
000001d0: 9df2 243e cfbc 9f3d 57f9 883d eb98 193d
000001e0: fc30 64be 740e a33e 7592 fa3d d20e 15be
000001f0: fc5f d3be f84b 51bd 3dca 2d3e 4fcd e2bd
00000200: 7ed3 333e 5e91 b03d 94f4 9bbb f899 ddbe
00000210: 86e8 cc3c 75ca 46be b348 553e 3774 a6be
00000220: 6679 c0bd ba31 99be 5fbe 0ebe af47 333d
00000230: f19f f93d 18dc 1e3d a503 903d aea8 20bd
00000240: 0bce 59be 96b7 a53e bc25 843c 024f f93b
00000250: ec94 a83d e0aa 003f 6681 d3bd af51 27bd
00000260: cea6 3c3e 0464 71be 17e6 b03e 0652 11bd
00000270: 0079 e63e c834 173e 0e64 cd3d 77f2 5abe
00000280: f771 a63e 6c75 72be 37df b4bd 3872 b2bd
00000290: a9cc 9bbe ab2e 9fbe 8747 523e 3718 c0bd
000002a0: 397e 79bd c8ef 963e ec15 7e3e 7790 283e
000002b0: 80d0 883d 96cd 903e dcb3 15be 4ff1 b4bb
000002c0: 7c3c 9e3e c6d4 8cbe fd3b c33d f3e6 6f3e
000002d0: 0139 1c3d 1475 98be f151 f9bd 6427 eabd
000002e0: 699e 04be 1325 e23d 505f b3be 453c eabd
000002f0: ab47 11be 7b5c 17be 051f 863e 94b8 bc3d
00000300: 073a 8abd c823 6a3e 55d6 a23e 4221 9a3e
00000310: 7fae 44be d418 643e db27 3cbb fdb3 5abd
00000320: 1221 7ebe abec 94be d23e a6bd 4348 123e
00000330: 6205 383b 59f0 0e3e 0c31 0e3e 7053 4b3e
00000340: 8d2f 8abe c322 243e 323d 71be 9d6a 42be
00000350: 4f06 863d e6c4 713d 547a 6bbd 34bb 45bd
00000360: 854f b6bd 40cd 44be 6dca 653d c74b 2e3e
00000370: 7593 0ebe 5d23 793c 7981 063d f4b2 4abb
00000380: 094d 833e 03df 76bd 55a4 823d cef6 25bd
00000390: 2829 abbb 4556 5f3e 929b 4d3e 8c56 bf3d
000003a0: d3cd 3dbe 7dcd 55bc dd0e 5b3e 1271 623e
000003b0: e3e5 793d 7925 a6bc 31cb 0dbe f6b3 463e
000003c0: 8f87 193e 0755 71be 239f 8dbe f10c 403e
000003d0: 58b4 00be c288 7dbd ffd1 c03d fd9f 9abd
000003e0: 706d 98be 63aa 04be ef5c 9c3b fb2d 51be
000003f0: 8aab 16bc a966 123e 3278 aabd 6194 673e

network_body._body_endoder.seq_layers.0.bias f4 [128]
0.0 0.0 0.0 0.0 0.0 0.0 0.0 0.0
0.0 0.0 0.0 0.0 0.0 0.0 0.0 0.0
0.0 0.0 0.0 0.0 0.0 0.0 0.0 0.0
0.0 0.0 0.0 0.0 0.0 0.0 0.0 0.0
0.0 0.0 0.0 0.0 0.0 0.0 0.0 0.0
0.0 0.0 0.0 0.0 0.0 0.0 0.0 0.0
0.0 0.0 0.0 0.0 0.0 0.0 0.0 0.0
0.0 0.0 0.0 0.0 0.0 0.0 0.0 0.0
0.0 0.0 0.0 0.0 0.0 0.0 0.0 0.0
0.0 0.0 0.0 0.0 0.0 0.0 0.0 0.0
0.0 0.0 0.0 0.0 0.0 0.0 0.0 0.0
0.0 0.0 0.0 0.0 0.0 0.0 0.0 0.0
0.0 0.0 0.0 0.0 0.0 0.0 0.0 0.0
0.0 0.0 0.0 0.0 0.0 0.0 0.0 0.0
0.0 0.0 0.0 0.0 0.0 0.0 0.0 0.0
0.0 0.0 0.0 0.0 0.0 0.0 0.0 0.0
00000000: 0000 0000 0000 0000 0000 0000 0000 0000
00000010: 0000 0000 0000 0000 0000 0000 0000 0000
00000020: 0000 0000 0000 0000 0000 0000 0000 0000
00000030: 0000 0000 0000 0000 0000 0000 0000 0000
00000040: 0000 0000 0000 0000 0000 0000 0000 0000
00000050: 0000 0000 0000 0000 0000 0000 0000 0000
00000060: 0000 0000 0000 0000 0000 0000 0000 0000
00000070: 0000 0000 0000 0000 0000 0000 0000 0000
00000080: 0000 0000 0000 0000 0000 0000 0000 0000
00000090: 0000 0000 0000 0000 0000 0000 0000 0000
000000a0: 0000 0000 0000 0000 0000 0000 0000 0000
000000b0: 0000 0000 0000 0000 0000 0000 0000 0000
000000c0: 0000 0000 0000 0000 0000 0000 0000 0000
000000d0: 0000 0000 0000 0000 0000 0000 0000 0000
000000e0: 0000 0000 0000 0000 0000 0000 0000 0000
000000f0: 0000 0000 0000 0000 0000 0000 0000 0000
00000100: 0000 0000 0000 0000 0000 0000 0000 0000
00000110: 0000 0000 0000 0000 0000 0000 0000 0000
00000120: 0000 0000 0000 0000 0000 0000 0000 0000
00000130: 0000 0000 0000 0000 0000 0000 0000 0000
00000140: 0000 0000 0000 0000 0000 0000 0000 0000
00000150: 0000 0000 0000 0000 0000 0000 0000 0000
00000160: 0000 0000 0000 0000 0000 0000 0000 0000
00000170: 0000 0000 0000 0000 0000 0000 0000 0000
00000180: 0000 0000 0000 0000 0000 0000 0000 0000
00000190: 0000 0000 0000 0000 0000 0000 0000 0000
000001a0: 0000 0000 0000 0000 0000 0000 0000 0000
000001b0: 0000 0000 0000 0000 0000 0000 0000 0000
000001c0: 0000 0000 0000 0000 0000 0000 0000 0000
000001d0: 0000 0000 0000 0000 0000 0000 0000 0000
000001e0: 0000 0000 0000 0000 0000 0000 0000 0000
000001f0: 0000 0000 0000 0000 0000 0000 0000 0000

network_body._body_endoder.seq_layers.2.weight f4 [128, 128]
-0.08050875 -0.11429979 -0.095866546 0.07307176 0.20394099 0.003148503 -0.14367798 0.005807173
0.03658674 -0.09293378 0.03632589 0.04309993 0.0118494835 0.11685715 0.1298961 0.072955474
0.00613366 0.15935194 0.13236523 -0.26954034 -0.03797382 0.0888561 -0.0174247 -0.055618167
0.10273533 0.09692618 0.11198068 -0.02684674 0.014803116 0.060228057 0.079530515 -0.1472051
0.11062689 -0.11671438 -0.09541353 -0.06026529 -0.06267009 0.015265154 -0.11230816 -0.17670201
-0.045454394 0.12586239 -0.12792045 -0.08205955 0.10338294 0.020467477 0.10008569 0.21577153
-0.041918375 0.13203609 0.0072290977 0.25036 0.18073097 0.062391046 0.10398326 0.013934737
-0.04061557 0.018613167 0.061593678 -0.17463693 0.065698355 -0.08154146 0.060992293 0.07819314
0.057516556 -0.1321661 -0.1066287 0.044821918 -0.16454913 0.01905673 -0.054357365 0.019182969
-0.047971517 0.14098641 0.050914023 0.14216639 -0.12350319 0.11860897 -0.052993312 0.12704368
0.15067999 -0.16541483 -0.115420975 0.08995442 -0.04867806 0.021280093 -0.09021369 0.023080101
-0.027708307 0.07739219 -0.0773214 0.09174012 -0.039480638 -0.052310906 -0.12112744 -0.016923197
-0.096367575 -0.18660226 -0.121061794 -0.2125103 0.10750825 -0.013352807 -0.022919348 0.02250551
0.10265538 -0.043938752 0.18492489 -0.079159886 0.0402404 -0.006553316 -0.2115124 -0.023268705
0.06786027 0.0050146594 -0.052048966 -0.08462751 0.08424954 0.103625864 0.097021274 -0.08414456
-0.13584886 -0.096593946 0.10029846 -0.00051845465 -0.08196727 -0.059122134 0.004226424 -0.16978185
-0.0785429 -0.021511411 0.0061263414 0.07954247 0.012257174 -0.09387362 0.14540102 -0.082626514
-0.23247862 -0.09550559 -0.056133427 -0.00018811348 -0.16140613 0.06546535 -0.12989071 0.069925636
0.009579895 0.05653737 -0.0058190175 -0.013551408 0.06357842 -0.15722226 -0.086034566 -0.16681951
-0.03544355 0.042909015 -0.0087721795 0.023159683 0.048233178 -0.14193265 0.041375875 0.050101012
-0.08011196 -0.14722016 0.11505642 0.10574237 0.06622346 -0.13980792 -0.09320328 -0.030237962
0.050745834 -0.12389453 0.18450099 0.005518465 -0.09137536 -0.0071604787 0.08139682 0.090791486
0.09229771 0.030480085 0.006560763 -0.16172168 0.07681343 0.040740315 0.1934649 0.046238795
0.057119183 0.0057019303 0.042401917 0.057114005 -0.077504694 -0.03266989 -0.122260936 -0.08640758
-0.026334101 -0.2778958 0.082901224 -0.022618474 0.02377191 0.021022446 -0.13914575 -0.18603608
0.034553897 0.055010702 0.078931436 0.058295883 -0.14955068 -0.027108753 -0.0098594995 -0.13224284
0.06496374 0.030341484 -0.09478528 0.025318833 -0.087983064 -0.1474368 -0.124137774 0.011313531
-0.02559887 0.0036595538 0.047784254 -0.03910047 0.15949374 0.04306956 -0.0592676 -0.119611606
-0.008425195 0.02416734 -0.034620184 0.0397775 -0.017080149 -0.0013307624 -0.063413486 0.1650643
-0.011625747 -0.13267784 0.15971796 0.04048716 0.07332609 -0.009836904 -0.08368717 0.13246946
0.093431614 0.0629838 0.1809283 -0.15912168 -0.06042555 0.04211648 0.03895993 0.072026916
0.10353194 0.12345985 -0.09000971 -0.1291337 0.19109373 -0.21401611 -0.12622634 -0.047072053
00000000: c6e1 a4bd 0216 eabd ae55 c4bd a6a6 953d
00000010: e8d5 503e 1d57 4e3b 5220 13be 194a be3b
00000020: fadb 153d 1154 bebd 75ca 143d 8d89 303d
00000030: 5624 423c cd52 ef3d 7c03 053e ae69 953d
00000040: dffc c83b 282d 233e c08a 073e 3101 8abe
00000050: 708a 1bbd 30fa b53d 3fbe 8ebc e0cf 63bd
00000060: e766 d23d 3c81 c63d 2056 e53d b2ed dbbc
00000070: c588 723c b2b1 763d e5e0 a23d efbc 16be
00000080: 5a90 e23d f307 efbd 2b68 c3bd bdd8 76bd
00000090: 2d59 80bd b21a 7a3c d201 e6bd 5ff1 34be
000000a0: 632e 3abd 12e2 003e 94fd 02be d60e a8bd
000000b0: 6fba d33d 69ab a73c baf9 cc3d 36f3 5c3e
000000c0: 9ab2 2bbd 7834 073e 11e2 ec3b 302f 803e
000000d0: 8a11 393e c18d 7f3d 2df5 d43d 864e 643c
000000e0: 835c 26bd a47a 983c a749 7c3d 06d4 32be
000000f0: dc8c 863d 35ff a6bd 0ed3 793d ba23 a03d
00000100: 7b96 6b3d 8d56 07be 2660 dabd 3097 373d
00000110: 917f 28be dc1c 9c3c d4a5 5ebd 9a25 9d3c
00000120: c87d 44bd be5e 103e 398b 503d 1194 113e
00000130: 3eef fcbd 42e9 f23d 840f 59bd bd17 023e
00000140: db4b 1a3e 8162 29be d561 ecbd 063a b83d
00000150: a562 47bd 9753 ae3c f5c1 b8bd 7b12 bd3c
00000160: 88fc e2bc cc7f 9e3d af5a 9ebd 3ee2 bb3d
00000170: 73b6 21bd f643 56bd aa11 f8bd 84a2 8abc
00000180: 5d5c c5bd aa14 3fbe 3fef f7bd 4d9c 59be
00000190: 492d dc3d bbc5 5abc 5bc1 bbbc 7a5d b83c
000001a0: fc3c d23d 1ff9 33bd f35c 3d3e 941e a2bd
000001b0: 1ed3 243d 33bd d6bb b596 58be 039e bebc
000001c0: 53fa 8a3d 0352 a43b 4c31 55bd 3051 adbd
000001d0: 068b ac3d cc39 d43d 17b3 c63d fc53 acbd
000001e0: f71b 0bbe 0cd3 c5bd 4769 cd3d e7e8 07ba
000001f0: 75de a7bd 0d2a 72bd d07d 8a3b 4bdb 2dbe
00000200: 1adb a0bd b338 b0bc 7abf c83b 2ae7 a23d
00000210: 50d2 483c d040 c0bd 01e4 143e 1738 a9bd
00000220: e00e 6ebe 6f98 c3bd 2aec 65bd 5440 45b9
00000230: a647 25be b312 863d 1202 05be 2c35 8f3d
00000240: fef4 1c3c bb93 673d 75ad bebb ba06 5ebc
00000250: 6735 823d dffe 20be e432 b0bd bcd2 2abe
00000260: 422d 11bd 5dc1 2f3d 30b9 0fbc 60b9 bd3c
00000270: 2790 453d cb56 11be c079 293d b836 4d3d
00000280: bd11 a4bd e2c0 16be b3a2 eb3d 758f d83d
00000290: 2aa0 873d cf29 0fbe 5ce1 bebd 9ab5 f7bc
000002a0: ddda 4f3d 6abc fdbd d4ed 3c3e 3dd4 b43b
000002b0: 0123 bbbd 73a2 eabb 60b3 a63d e3f0 b93d
000002c0: 9506 bd3d 5fb1 f93c abfb d63b 5e9a 25be
000002d0: 5c50 9d3d 51df 263d aa1b 463e e464 3d3d
000002e0: cef5 693d 42d7 ba3b a2ad 2d3d 60f0 693d
000002f0: c8ba 9ebd ddd0 05bd f163 fabd 75f6 b0bd
00000300: 9dba d7bc 5c48 8ebe 1ec8 a93d 614a b9bc
00000310: 4fbd c23c 4437 ac3c 397c 0ebe 3e80 3ebe
00000320: 6388 0d3d e752 613d cea6 a13d aac7 6e3d
00000330: d023 19be 2d13 debc bd89 21bc ab6a 07be
00000340: b60b 853d b48e f83c c91e c2bd 7169 cf3c
00000350: 7730 b4bd acf9 16be f23b febd 635c 393c
00000360: b9b4 d1bc 20d5 6f3b 6cb9 433d d027 20bd
00000370: 5452 233e b569 303d 95c2 72bd eef6 f4bd
00000380: d409 0abc 96fa c53c e5cd 0dbd bbed 223d
00000390: abeb 8bbc fa6c aeba eede 81bd 9e06 293e
000003a0: eb79 3ebc b3dc 07be 1b8d 233e ddd5 253d
000003b0: fd2b 963d f72a 21bc 2e64 abbd 13a6 073e
000003c0: 1359 bf3d a7fd 803d 4545 393e cbf0 22be
000003d0: c880 77bd 5582 2c3d 7394 1f3d d982 933d
000003e0: 8e08 d43d 85d8 fc3d 0357 b8bd a03b 04be
000003f0: 13ae 433e 0a27 5bbe 7a41 01be a0ce 40bd

network_body._body_endoder.seq_layers.2.bias f4 [128]
0.0 0.0 0.0 0.0 0.0 0.0 0.0 0.0
0.0 0.0 0.0 0.0 0.0 0.0 0.0 0.0
0.0 0.0 0.0 0.0 0.0 0.0 0.0 0.0
0.0 0.0 0.0 0.0 0.0 0.0 0.0 0.0
0.0 0.0 0.0 0.0 0.0 0.0 0.0 0.0
0.0 0.0 0.0 0.0 0.0 0.0 0.0 0.0
0.0 0.0 0.0 0.0 0.0 0.0 0.0 0.0
0.0 0.0 0.0 0.0 0.0 0.0 0.0 0.0
0.0 0.0 0.0 0.0 0.0 0.0 0.0 0.0
0.0 0.0 0.0 0.0 0.0 0.0 0.0 0.0
0.0 0.0 0.0 0.0 0.0 0.0 0.0 0.0
0.0 0.0 0.0 0.0 0.0 0.0 0.0 0.0
0.0 0.0 0.0 0.0 0.0 0.0 0.0 0.0
0.0 0.0 0.0 0.0 0.0 0.0 0.0 0.0
0.0 0.0 0.0 0.0 0.0 0.0 0.0 0.0
0.0 0.0 0.0 0.0 0.0 0.0 0.0 0.0
00000000: 0000 0000 0000 0000 0000 0000 0000 0000
00000010: 0000 0000 0000 0000 0000 0000 0000 0000
00000020: 0000 0000 0000 0000 0000 0000 0000 0000
00000030: 0000 0000 0000 0000 0000 0000 0000 0000
00000040: 0000 0000 0000 0000 0000 0000 0000 0000
00000050: 0000 0000 0000 0000 0000 0000 0000 0000
00000060: 0000 0000 0000 0000 0000 0000 0000 0000
00000070: 0000 0000 0000 0000 0000 0000 0000 0000
00000080: 0000 0000 0000 0000 0000 0000 0000 0000
00000090: 0000 0000 0000 0000 0000 0000 0000 0000
000000a0: 0000 0000 0000 0000 0000 0000 0000 0000
000000b0: 0000 0000 0000 0000 0000 0000 0000 0000
000000c0: 0000 0000 0000 0000 0000 0000 0000 0000
000000d0: 0000 0000 0000 0000 0000 0000 0000 0000
000000e0: 0000 0000 0000 0000 0000 0000 0000 0000
000000f0: 0000 0000 0000 0000 0000 0000 0000 0000
00000100: 0000 0000 0000 0000 0000 0000 0000 0000
00000110: 0000 0000 0000 0000 0000 0000 0000 0000
00000120: 0000 0000 0000 0000 0000 0000 0000 0000
00000130: 0000 0000 0000 0000 0000 0000 0000 0000
00000140: 0000 0000 0000 0000 0000 0000 0000 0000
00000150: 0000 0000 0000 0000 0000 0000 0000 0000
00000160: 0000 0000 0000 0000 0000 0000 0000 0000
00000170: 0000 0000 0000 0000 0000 0000 0000 0000
00000180: 0000 0000 0000 0000 0000 0000 0000 0000
00000190: 0000 0000 0000 0000 0000 0000 0000 0000
000001a0: 0000 0000 0000 0000 0000 0000 0000 0000
000001b0: 0000 0000 0000 0000 0000 0000 0000 0000
000001c0: 0000 0000 0000 0000 0000 0000 0000 0000
000001d0: 0000 0000 0000 0000 0000 0000 0000 0000
000001e0: 0000 0000 0000 0000 0000 0000 0000 0000
000001f0: 0000 0000 0000 0000 0000 0000 0000 0000

action_model._discrete_distribution.branches.0.weight f4 [2, 128]
-0.004328226 0.013816051 0.00023153458 -0.0064810044 0.019616116 -0.0136022195 0.006290657 0.00010964367
-0.00033600428 -0.009751636 0.009739308 0.010097399 0.0071381414 -0.011231753 -0.0059997374 0.002623025
-0.003521657 -0.008466218 0.0070742234 -0.0046055294 -0.019034056 -0.0012412351 -0.0017260419 0.009153608
0.011953007 0.02035456 0.005307456 -0.022747235 -0.010444916 -0.0011008048 -0.0037103076 -0.002668711
0.004440524 0.007883405 -0.019763626 -0.009778703 0.0102298055 -0.009085811 -0.009713162 0.003032154
-0.0016298592 -0.0019488794 0.013384516 -0.01270438 -0.007707721 0.0031677687 0.004588423 -0.0077606477
-0.011251203 -0.0028974898 0.0005769382 0.022044642 0.007483443 0.011531617 -0.02115759 0.0013854764
-0.017594984 -0.0022838868 0.0031445504 0.008365202 0.010094359 0.0032573943 -0.0014943022 -0.008937684
-0.007509626 -0.010656907 0.006223891 -0.020947635 -0.01733514 0.0022471289 0.001461314 -0.00037350444
0.00081497006 -0.006229842 0.0016829607 0.008455325 -0.0042628734 0.0006249388 0.009648151 -0.0144508425
-0.02245857 0.0153212715 0.003317703 -0.0015528828 -0.0021083679 -0.008514251 0.00084002287 0.0025725763
0.012472522 0.0015452695 -0.010862275 -0.019544434 0.0021486226 0.008459985 0.0051370184 -0.016742328
-0.003016872 -0.0038351181 0.0029037672 0.014233217 -0.0033878894 0.003044918 0.011188074 0.00016684996
-0.000869448 -0.00086382014 0.004546707 0.0020561118 -0.0008391486 0.0003095252 -0.0029349634 -0.00937825
-0.0042119506 -0.0113780415 -0.010201552 -0.008688491 -0.0071658953 0.008984836 0.0063036927 -0.0063520633
0.006571336 -0.0129028335 0.00966996 -0.001774519 -0.005792973 -0.0077192187 0.017240053 0.00975663
-0.002954276 0.0016218977 0.0020239933 0.016607022 -0.007728893 0.00032962844 -0.008086274 -0.0022671944
0.010855051 -0.014314587 0.0073085227 -0.00017780844 -0.0011925843 -0.0011384587 0.00055640965 -0.008655775
-0.009782992 0.0028000802 0.01609593 0.0005618382 0.0138551835 -0.010107898 -0.0009212416 0.003495747
0.0030468144 -0.0051207445 0.02003489 -0.01135654 0.0009171506 0.008040352 0.0022781703 0.006182917
-0.0070085335 -0.014447845 -0.0017435268 0.019722927 0.006560508 0.0024446172 0.0024903908 0.004807653
4.857436e-06 0.0029898535 -0.007977217 -0.011675911 0.011788384 -0.012723158 -0.00046965433 -0.0147149265
-0.0019196738 -0.016611496 -0.0026820295 -0.00021516757 0.0019634333 -0.014130342 0.0009838023 0.00972731
-0.01529901 0.0053550196 -0.006064293 0.010081342 0.013949861 0.0009024039 -0.009234015 -0.008763223
-0.008146539 0.025064064 0.00066589564 -0.014834018 -0.007871289 0.0050511337 -0.00048361323 -0.0069765947
-0.0036519484 -0.006376018 0.0032480892 0.0035977145 -0.0014097815 -0.0031964206 -0.014305388 0.007348664
0.0033813368 -0.006345039 0.017656201 0.004983327 -5.5030257e-05 0.007970537 0.0026366592 -0.01003243
0.00036042763 0.0095318975 0.0013165271 0.0047699534 -0.004993556 -0.012899664 0.01021722 0.0013290355
0.00062331435 -0.003541488 0.015323514 0.0060681403 -0.01841715 0.014737821 0.006028313 0.0008708768
0.014592352 -0.002263421 0.009659497 -0.0018643712 0.011818077 -0.012654527 0.010680485 0.009084188
0.00060154713 0.011861221 0.012429533 -0.010530388 0.0039161164 -0.0032840047 -0.008091547 -0.012362842
0.017675636 -0.012296383 0.010257405 0.00032898286 0.0067055672 0.008071798 -0.009190142 -0.0058235107
00000000: cbd3 8dbb b85c 623c 17c8 7239 9b5e d4bb
00000010: fab1 a03c d8db 5ebc db21 ce3b 7ff0 e538
00000020: bb29 b0b9 53c5 1fbc 9e91 1f3c 906f 253c
00000030: 12e7 e93b 6305 38bc 7299 c4bb 0fe7 2b3b
00000040: 9acb 66bb e4b5 0abc e3ce e73b fbe9 96bb
00000050: 4fed 9bbc f0b0 a2ba 5b3c e2ba 04f9 153c
00000060: 8cd6 433c 9bbe a63c 2bea ad3b 6958 babc
00000070: 2721 2bbc e148 90ba a228 73bb 8ae5 2ebb
00000080: d181 913b 6629 013c 54e7 a1bc da36 20bc
00000090: ea9a 273c a7dc 14bc f423 1fbc 1ab7 463b
000000a0: 00a1 d5ba 8b71 ffba bb4a 5b3c 0826 50bc
000000b0: 0d91 fcbb 579a 4f3b 7b5a 963b 084d febb
000000c0: f756 38bc d0e3 3dbb ab3d 173a f796 b43c
000000d0: ab37 f53b 1bef 3c3c af52 adbc e098 b53a
000000e0: 5b23 90bc 43ad 15bb cd14 4e3b 330e 093c
000000f0: cf62 253c 027a 553b 76dc c3ba 5d6f 12bc
00000100: 4f13 f6bb 4f9a 2ebc c8f1 cb3b 609a abbc
00000110: 6c02 8ebc 9144 133b 9089 bf3a ebd2 c3b9
00000120: b7a3 553a b423 ccbb ca96 dc3a 3488 0a3c
00000130: 93af 8bbb efd2 233a 4713 1e3c 3ac3 6cbc
00000140: 09fb b7bc 1206 7b3c d26d 593b 1a8a cbba
00000150: 8b2c 0abb 5b7f 0bbc fb34 5c3a ab98 283b
00000160: 8d59 4c3c a48a ca3a aff7 31bc a61b a0bc
00000170: e8cf 0c3b c09b 0a3c 6f54 a83b 3527 89bc
00000180: b7b6 45bb 9b56 7bbb 214d 3e3b 7032 693c
00000190: 5a07 5ebb 3f8d 473b 2f4e 373c 72f4 2e39
000001a0: abeb 63ba fd71 62ba 8bfc 943b d5bf 063b
000001b0: 4ffa 5bba c547 a239 8458 40bb 3ba7 19bc
000001c0: 6704 8abb f76a 3abc 6924 27bc 2c5a 0ebc
000001d0: e3cf eabb 2235 133c 358f ce3b f824 d0bb
000001e0: 5d54 d73b 6866 53bc c06e 1e3c fa96 e8ba
000001f0: fbd2 bdbb 80f1 fcbb 033b 8d3c 46da 1f3c
00000200: 879c 41bb db95 d43a f9a4 043b 730b 883c
00000210: a742 fdbb fbd1 ac39 4b7c 04bc 3695 14bb
00000220: 62d9 313c bb87 6abc 557c ef3b 1772 3ab9
00000230: 7d50 9cba 5638 95ba 05dc 113a f4d0 0dbc
00000240: d848 20bc 8d81 373b 9ddb 833c 5348 133a
00000250: da00 633c 999b 25bc 7a7f 71ba e718 653b
00000260: 10ad 473b ebcb a7bb 3620 a43c c810 3abc
00000270: ef6c 703a aebb 033c 5b4d 153b 119a ca3b
00000280: d7a7 e5bb a7b6 6cbc 0d87 e4ba fa91 a13c
00000290: 88f9 d63b df35 203b d335 233b 8489 9d3b
000002a0: 0ffd a236 6bf1 433b e0b2 02bc 524c 3fbc
000002b0: 1124 413c cb74 50bc f03b f6b9 e016 71bc
000002c0: 909d fbba d514 88bc fdc4 2fbb 9b9e 61b9
000002d0: f2ac 003b f382 67bc edf2 803a 4c5f 1f3c
000002e0: b3a8 7abc 2979 af3b fab6 c6bb 372c 253c
000002f0: f58d 643c 4d8f 6c3a 444a 17bc 9f93 0fbc
00000300: 1079 05bc 2753 cd3c 808f 2e3a 620a 73bc
00000310: 94f6 00bc fb83 a53b 788d fdb9 eb9b e4bb
00000320: 8755 6fbb eaed d0bb e5dd 543b a2c7 6b3b
00000330: 6bc8 b8ba 0a7b 51bb 2561 6abc 10cd f03b
00000340: 6b99 5d3b 0bea cfbb bda3 903c 2d4b a33b
00000350: 4ad0 66b8 db96 023c cdcb 2c3b 105f 24bc
00000360: c7f7 bc39 ad2b 1c3c 528f ac3a 454d 9c3b
00000370: fca0 a3bb 1d59 53bc 2066 273c 0833 ae3a
00000380: eb65 233a 4f18 68bb 7a0f 7b3c 40d7 c63b
00000390: 90df 96bc e776 713c 2889 c53b 8d4b 643a
000003a0: c314 6f3c e755 14bb de42 1e3c eb5d f4ba
000003b0: 9ca0 413c ef54 4fbc 33fd 2e3c d9d5 143c
000003c0: 25b1 1d3a 9155 423c 3da5 4b3c a687 2cbc
000003d0: c452 803b 7538 57bb 6892 04bc 858d 4abc
000003e0: 7fcc 903c c576 49bc ad0e 283c 557b ac39
000003f0: 60ba db3b 933f 043c 4092 16bc 26d3 bebb

action_model._discrete_distribution.branches.0.bias f4 [2]
0.0 0.0
00000000: 0000 0000 0000 0000

action_model._discrete_distribution.branches.1.weight f4 [2, 128]
-0.005109354 -0.010673589 -0.006295954 0.00626355 -0.0032124885 0.015174671 0.011213607 0.0117345145
0.00073686475 -0.012510453 0.002079473 0.01010381 0.0043803514 -0.00050239183 -0.001371519 0.0010016045
-0.003994967 -0.008872134 0.0006724011 -0.0010092402 0.004247359 0.01494799 -0.020146681 -0.002210374
0.0029792574 -0.003690235 -0.0011321298 0.00775684 -0.0007152075 -0.00831156 0.007891186 -0.01607551
-0.0016402177 -0.0048067207 0.0014016944 0.00028897004 -0.011660722 0.012363654 0.016696123 -0.001137422
0.010788849 -0.0029052026 0.01770234 0.004291899 0.009899109 -0.0057378854 0.014110378 -0.0033792306
0.0017514153 0.015296032 0.0052568833 -0.0032683692 0.00828573 -0.0021343527 -0.015344015 0.00014950878
-0.014158969 -6.282183e-05 0.0054282486 0.0029760627 -0.0039394344 0.00095295964 0.00049393176 0.0057345475
-0.010605447 0.007455479 -0.001604033 0.01143743 -0.0005656283 0.004432744 0.007769824 -0.003249141
0.008354201 -0.0002138414 -0.00495637 -0.0038908243 -0.008859268 0.013775264 0.0015246802 -0.009861394
0.0029830022 -0.00059061043 0.004546857 -0.001292195 0.01169967 -0.0035158333 0.005550272 -0.0021148303
0.0022294344 0.018076204 -0.018144585 -0.0017630944 0.00060745183 0.009260297 0.00819202 0.0061030253
-0.002717415 -0.011050067 -0.0063249017 -0.0011330007 0.004174899 0.005329271 -0.0001227568 -0.008101588
0.0019037792 0.005279205 -0.003894088 -0.005659155 0.00089283346 0.009788813 -0.0068070083 -0.0050394163
0.0062560416 0.009516207 -0.009479511 -0.0063373 -0.0022215766 -0.00125059 -0.01425369 -0.00805474
-0.0019975246 -0.0008002505 0.0009995599 0.00707639 -0.00089864706 0.00046871076 0.008943565 0.003722685
0.015487286 -0.00045655473 -0.01966938 -0.0073370175 -0.014133736 -0.0068439306 0.009377569 0.012395482
0.00017549761 0.007328346 0.003251179 0.001017549 -0.0126735335 0.0072260103 -0.0010708909 -0.0007942048
0.0007559941 -0.010245191 -0.0029567748 -0.0061439252 0.008835309 -0.010070849 0.003962938 -0.0044799238
-0.0068802275 -0.008400203 0.0051413355 -0.0048296424 -0.01842627 -0.0024018914 -0.0034489408 0.00061180926
-0.012325335 0.02131932 -0.009695875 -0.011055815 -0.0013252604 -0.0020701594 -0.0010368744 0.002599389
0.000530879 -0.001922351 -0.006935201 -0.010730746 0.008000283 -0.0087631615 -0.0012695722 -0.0022486306
-0.018726783 0.004091296 0.010814337 -0.0037321493 0.0019064781 -0.00048334894 0.00055980514 0.0018068356
0.0006343943 0.010939973 -0.011449303 -0.0017698355 -0.01488899 0.0040297615 0.012584883 0.0010071923
0.013083952 0.0026127147 0.0056304955 0.0037297327 0.002121734 -0.005653584 0.0075956658 -0.006966769
-0.0013598644 -0.00591799 0.007912396 0.0035077613 0.007816097 0.011652188 -0.00849308 0.0013411163
-0.0070479126 0.003514317 -0.00932587 -0.0026691332 -0.014347248 -0.0032388528 -0.0030964578 -0.005991141
0.0059980196 0.0009312406 0.0065682307 -0.007698537 0.007302768 -0.0040440573 -0.0074134343 -0.004956501
-0.0020527153 -0.0023242475 -0.0025053185 0.011640516 -0.0006199181 -0.004170687 0.0013649644 -0.0033198134
0.003046036 -0.008561697 0.015189973 -0.0070111207 -0.0041485983 3.9001516e-05 -0.019600213 -0.010408466
0.01568242 -0.004283403 -0.006478322 0.0057591996 -0.0032686691 -0.0052658985 0.013639805 -0.0015921483
-0.002058999 -0.0040033637 -0.002607159 0.0040457337 -0.0012589381 -0.0014755217 -0.010229605 -0.014075818
00000000: 5e6c a7bb 47e0 2ebc 4a4e cebb 773e cd3b
00000010: 9d88 52bb 2f9f 783c 47b9 373c 1f42 403c
00000020: 282a 413a a5f8 4cbc c547 083b 738a 253c
00000030: 0d89 8f3b f2b2 03ba 8bc4 b3ba 4548 833a
00000040: 36e8 82bb 6d5c 11bc 1344 303a 7b48 84ba
00000050: 6e2d 8b3b 6ae8 743c a70a a5bc ecdb 10bb
00000060: a53f 433b dfd7 71bb f963 94ba 172d fe3b
00000070: c37c 3bba 362d 08bc 084a 013c cab0 83bc
00000080: 93fc d6ba b281 9dbb 0fb9 b73a e780 9739
00000090: 9d0c 3fbc ec90 4a3c 4fc6 883c 8d15 95ba
000000a0: b6c3 303c 3665 3ebb 7f04 913c 0fa3 8c3b
000000b0: df2f 223c df04 bcbb 372f 673c 1576 5dbb
000000c0: bf8f e53a 359c 7a3c ef41 ac3b 2332 56bb
000000d0: dfc0 073c 7fe0 0bbb 7765 7bbc 75c5 1c39
000000e0: 05fb 67bc 37bf 83b8 73df b13b 0c0a 433b
000000f0: 5f16 81bb 0ad0 793a 337b 013a dfe8 bb3b
00000100: 78c2 2dbc 174d f43b 6b3e d2ba 0f64 3b3c
00000110: ac46 14ba 8d40 913b 029a fe3b 8aef 54bb
00000120: 0fe0 083c 9d3a 60b9 0c69 a2bb 33fd 7ebb
00000130: 7726 11bc a5b1 613c c7d7 c73a af91 21bc
00000140: 797e 433b 32d3 1aba cdfd 943b df5e a9ba
00000150: f9af 3f3c e569 66bb 0edf b53b f798 0abb
00000160: b41b 123b 8c14 943c f4a3 94bc a217 e7ba
00000170: 673d 1f3a 80b8 173c d237 063c e3fb c73b
00000180: a916 32bb 570b 35bc 1f41 cfbb 3281 94ba
00000190: 97cd 883b 2aa1 ae3b 47b8 00b9 86bc 04bc
000001a0: 3b88 f93a 2efd ac3b f533 7fbb 6f70 b9bb
000001b0: 0a0d 6a3a 4261 203c 530d dfbb b021 a5bb
000001c0: 7bff cc3b dde9 1b3c f34f 1bbc 20a9 cfbb
000001d0: df97 11bb d6ea a3ba 4f88 69bc 07f8 03bc
000001e0: e7e8 02bb e7c7 51ba aa03 833a 10e1 e73b
000001f0: 2f93 6bba 4bbd f539 0888 123c 4af8 733b
00000200: 63be 7d3c bd5d efb9 ae21 a1bc 5d6b f0bb
00000210: 2f91 67bc 0d43 e0bb 60a4 193c 6b16 4b3c
00000220: c805 3839 9f22 f03b bb11 553b 475f 853a
00000230: a7a4 4fbc 2bc8 ec3b 235d 8cba 2f32 50ba
00000240: e82d 463a 72db 27bc 73c6 41bb fb52 c9bb
00000250: f9c1 103c 3400 25bc 89db 813b 53cc 92bb
00000260: 8873 e1bb 01a1 09bc a678 a83b fa41 9ebb
00000270: b0f2 96bc 0d69 1dbb a007 62bb d361 203a
00000280: 34f0 49bc dba5 ae3c 73db 1ebc 7323 35bc
00000290: 5cb4 adba 83ab 07bb bbe7 87ba 835a 2a3b
000002a0: b02a 0b3a 65f7 fbba af40 e3bb 03d0 2fbc
000002b0: 9e13 033c 5d93 0fbc c667 a6ba c35d 13bb
000002c0: e968 99bc 4710 863b 9e2e 313c 1397 74bb
000002d0: cae2 f93a ff69 fdb9 e3bf 123a 58d3 ec3a
000002e0: 7b4d 263a 933d 333c db95 3bbc d3f9 e7ba
000002f0: f3f0 73bc 170c 843b d330 4e3c c403 843a
00000300: 125e 563c 143a 2b3b 0580 b83b 886e 743b
00000310: ca0c 0b3b b341 b9bb 10e5 f83b 7f49 e4bb
00000320: 7a3d b2ba b3eb c1bb ffa2 013c 78e2 653b
00000330: 160f 003c d2e8 3e3c 8f26 0bbc 65c8 af3a
00000340: 2df2 e6bb 7550 663b 89cb 18bc a0ec 2ebb
00000350: b810 6bbc ef42 54bb f1ed 4abb 5551 c4bb
00000360: 098b c43b 801e 743a 503a d73b 0244 fcbb
00000370: 0f4c ef3b 0384 84bb 65ec f2bb 256a a2bb
00000380: d986 06bb 6752 18bb 4530 24bb ddb7 3e3c
00000390: 0082 22ba 42aa 88bb 9be8 b23a 3a91 59bb
000003a0: 01a0 473b 5c46 0cbc 5ddf 783c 8bbd e5bb
000003b0: f7f0 87bb 8f95 2338 a090 a0bc 4588 2abc
000003c0: 6b78 803c ca5b 8cbb 1b48 d4bb abb7 bc3b
000003d0: 2b37 56bb 8f8d acbb 7d79 5f3c a2af d0ba
000003e0: 45f0 06bb a62e 83bb dfdc 2abb 1392 843b
000003f0: f402 a5ba 4b66 c1ba 139a 27bc 429e 66bc

action_model._discrete_distribution.branches.1.bias f4 [2]
0.0 0.0
00000000: 0000 0000 0000 0000

action_model._discrete_distribution.branches.2.weight f4 [2, 128]
-0.0066065066 -0.0037423167 -0.0024489213 0.021490712 0.013500665 0.009752459 -0.0032667022 -0.009013915
0.0017647233 0.0021337788 -0.016993456 0.009479569 -0.007998933 0.012946199 0.0058983746 0.013692926
-0.0064514834 -0.007320273 -0.0045466656 -0.009816529 0.008752133 0.0058080126 -0.012043838 0.004913598
-0.018723305 -0.0058862534 0.012134361 0.005443805 0.0034728162 -0.014381349 -0.010095548 0.009236576
-0.00246645 -0.001942959 0.00026686655 0.005200768 0.0019702825 -0.0005648133 -0.0017634052 0.004234709
-0.00578263 0.021019077 0.005513243 -0.0067423466 -0.0065751537 -0.008679899 0.008820183 -0.008420816
-0.0037158884 -0.0028708556 0.011676352 -0.0070803794 -0.0015563637 0.003957422 -0.00036411037 0.012654907
-0.013240615 -0.013777315 -0.00084460824 -0.009159582 0.004630598 -0.005131024 0.009281393 0.0032809812
0.000824104 -0.00018350528 -0.006698981 -0.0008807452 0.0029270947 -0.0057938765 0.00057673466 -0.008302781
-0.002316758 -0.0035241176 -0.0058793183 -0.004974958 0.003601471 0.004345948 0.013997586 0.013760273
0.00055340416 -0.010941543 0.0002685828 0.009574409 -0.0055153957 0.021517923 0.011917973 -0.0061477683
-0.010049357 -0.0014556131 -0.0034676604 0.0053840876 -0.0032367487 0.004113815 -0.0063819275 0.003141449
-0.0064399145 -0.020553714 0.0022270426 -0.007586699 -0.010684795 -0.0038043426 -0.0064293793 -0.015348296
0.0037851525 -0.0040275403 0.007900061 -0.024881085 -0.0012042207 -0.0009158033 -0.005218445 0.005981914
-0.0002074542 0.002805048 -0.01851946 0.012131506 -0.005318343 0.0025766732 -0.012970236 0.01793116
-0.010002387 0.00024185306 0.007201202 0.0040994016 0.0043285834 -0.00056201435 0.0069113798 0.0077253217
-0.012208256 0.008549132 -0.008432525 0.0052455994 0.008906512 -0.007378199 -0.011734736 0.0011646473
0.0024594238 -0.0033716825 0.0042818924 0.010805078 -0.0013590837 0.013198149 -0.011531268 0.008676476
9.9995406e-05 0.0033922542 0.0032514513 0.01444488 0.01170762 -0.0031317973 -0.008268491 -0.0010172159
0.016074702 -0.0084631285 0.005660468 -0.006197094 0.0077637616 -0.0079755355 -0.0013380818 0.016424881
-0.0001318088 -0.0010996953 0.019063031 -0.0013726706 0.006382432 -0.003430945 0.0022772534 0.012531677
0.0074619907 0.003981595 0.0024279223 0.020714646 -0.0007468002 0.0017123952 -0.010317867 -0.0010894486
0.011919143 0.0009419319 0.005460408 0.002773876 -0.0066436864 -0.006193708 0.0048768646 0.008301369
-0.008969857 1.29671635e-05 0.0001431966 0.0010353088 -0.015101773 -0.017354593 -0.008903874 0.0047929385
-0.003244172 0.011790926 0.016878078 -0.008088012 0.0077729463 0.0017486466 -0.0030874703 -0.009612354
0.00033619528 -0.005386054 0.0014297529 0.005218645 0.013894116 -0.0065787504 0.0033151563 -0.0014133548
-0.0010853389 0.008851058 -0.0034232803 0.012987511 -0.0041695302 -0.004211362 0.0089477 -0.015527126
0.005691839 0.008567861 0.0030803639 0.010179311 -0.0012748658 0.013536795 0.005036851 -0.015066007
0.009571097 0.015746951 0.0025492494 0.00029208118 -0.022388816 -0.013382037 -0.004095034 -0.0087079
-0.0001828092 -0.007176868 -0.01322531 -0.0006547225 -0.0025903666 0.0040906304 0.015826935 0.011284612
-0.009273711 0.007242841 0.011330794 0.0033294957 -0.0016696235 -0.00076716865 -0.001426858 -0.008195288
0.0007756531 0.0005754367 -0.014679067 0.006864661 0.0004734017 0.002119567 0.00066804147 0.0077984645
00000000: 657b d8bb a841 75bb 157e 20bb 4a0d b03c
00000010: e531 5d3c c7c8 1f3c 2b16 56bb 1aaf 13bc
00000020: 4a4e e73a ded6 0b3b dc35 8bbc 3250 1b3c
00000030: f50d 03bc 4b1c 543c 2747 c13b 4b58 603c
00000040: f766 d3bb e7de efbb 32fc 94bb 82d5 20bc
00000050: 1b65 0f3c 2451 be3b 8553 45bc 3f02 a13b
00000060: 9e61 99bc 79e1 c0bb 33cf 463c f261 b23b
00000070: 3098 633b c09f 6bbc cc67 25bc 0255 173c
00000080: 2aa4 21bb e3aa feba 39ea 8b39 346b aa3b
00000090: db1f 013b fb0f 14ba 0f22 e7ba 50c3 8a3b
000000a0: 377c bdbb 3330 ac3c 6fa8 b43b e7ee dcbb
000000b0: 6374 d7bb 2336 0ebc 8782 103c 76f7 09bc
000000c0: 4386 73bb f724 3cbb 2b4e 3f3c 8702 e8bb
000000d0: e6fe cbba 43ad 813b 11e6 beb9 8756 4f3c
000000e0: 2aef 58bc 3fba 61bc b368 5dba 1212 16bc
000000f0: 45bc 973b 2622 a8bb fc10 183c bb05 573b
00000100: af08 583a 536b 40b9 2083 dbbb cfe1 66ba
00000110: 80d4 3f3b 8fda bdbb 0230 173a 6308 08bc
00000120: c0d4 17bb e2f4 66bb 4ca7 c0bb f904 a3bb
00000130: a806 6c3b 7468 8e3b 2256 653c c572 613c
00000140: 5312 113a 2844 33bc 93d0 8c39 fbdd 1c3c
00000150: 7eba b4bb 5b46 b03c 9a43 433c 3873 c9bb
00000160: 0fa6 24bc 45ca beba b041 63bb 006d b03b
00000170: a21f 54bb 2ecd 863b 7d1f d1bb c5e0 4d3b
00000180: eb05 d3bb 4360 a8bc 93f3 113b d899 f8bb
00000190: 470f 2fbc 4752 79bb 8bad d2bb 6b77 7bbc
000001a0: 5210 783b 75f9 83bb 426f 013c 6bd3 cbbc
000001b0: f1d6 9dba 8512 70ba 7dff aabb ee03 c43b
000001c0: 1088 59b9 e5d4 373b 1fb6 97bc 39c3 463c
000001d0: 7f45 aebb 67dd 283b 1d81 54bc 5ee4 923c
000001e0: 0de1 23bc f099 7d39 10f8 eb3b 4654 863b
000001f0: cad6 8d3b 2554 13ba db78 e23b b224 fd3b
00000200: 2305 48bc a911 0c3c 9328 0abc 47e3 ab3b
00000210: 9eec 113c d2c4 f1bb 0d43 40bc 14a7 983a
00000220: 492e 213b 72f7 5cbb 1e4f 8c3b c807 313c
00000230: 4823 b2ba 0d3d 583c a5ed 3cbc c727 0e3c
00000240: a0b4 d138 9550 5e3b 4d16 553b 38aa 6c3c
00000250: 51d1 3f3c d73e 4dbb 9178 07bc 1a54 85ba
00000260: 18af 833c efa8 0abc 727b b93b fe10 cbbb
00000270: 2767 fe3b d2ab 02bc 9362 afba 798d 863c
00000280: 2836 0ab9 a723 90ba 132a 9c3c 2feb b3ba
00000290: b823 d13b b5d9 60bb f93d 153b aa51 4d3c
000002a0: b783 f43b 0a78 823b c71d 1f3b c3b1 a93c
000002b0: eac4 43ba 7372 e03a 450c 29bc d4cb 8eba
000002c0: 8248 433c fbeb 763a 39ed b23b ebc9 353b
000002d0: 48b3 d9bb 97f4 cabb 1bce 9f3b 7702 083c
000002e0: 4ff6 12bc 8b8d 5937 0b27 1639 33b3 873a
000002f0: 6d6d 77bc 382b 8ebc 8ee1 11bc 150e 9d3b
00000300: 2d9c 54bb ba2e 413c e543 8a3c 9583 04bc
00000310: 33b4 fe3b d832 e53a 2857 4abb 237d 1dbc
00000320: 5e43 b039 7f7d b0bb 8c66 bb3a 2b01 ab3b
00000330: 25a4 633c 8f92 d7bb 1843 593b 5140 b9ba
00000340: ee41 8eba 0704 113c 1d59 60bb 92c9 543c
00000350: 8ea0 88bb 77ff 89bb 6099 123c 7d65 7ebc
00000360: 9b82 ba3b 3760 0c3c eedf 493b 20c7 263c
00000370: 6619 a7ba 6fc9 5d3c 2b0c a53b 6ad7 76bc
00000380: 17d0 1c3c c0ff 803c 4f11 273b 7922 9939
00000390: c068 b7bc 5540 5bbc a32f 86bb 94ab 0ebc
000003a0: 79b0 3fb9 ef2b ebbb f8ae 58bc afa1 2bba
000003b0: 24c3 29bb b20a 863b 7da7 813c 18e3 383c
000003c0: c3f0 17bc 5b55 ed3b cba4 393c ab33 5a3b
000003d0: 45d7 daba d11b 49ba 6905 bbba 8745 06bc
000003e0: 3355 4b3a e7d8 163a 7880 70bc f3f0 e03b
000003f0: e732 f839 6fe8 0a3b 811f 2f3a 438a ff3b

action_model._discrete_distribution.branches.2.bias f4 [2]
0.0 0.0
00000000: 0000 0000 0000 0000

action_model._discrete_distribution.branches.3.weight f4 [2, 128]
0.0029142099 0.0070210816 -0.020607252 0.024110917 -0.004780276 0.0008920133 -0.0068272413 0.0019107474
0.00026710963 -0.0017293189 -0.0010146298 -0.008660468 0.012347701 -0.013268772 0.015707122 0.010082472
0.015532781 0.0047962386 -0.00026440978 -0.005775818 0.0034353565 -0.00859735 0.0062059434 0.0039343173
-0.011282391 -0.008115216 0.0036970042 -0.003467669 0.0021598209 -0.011360066 0.01414932 -0.015162393
-0.0097381575 0.0012733022 0.009113846 -0.004284826 0.013329242 -0.000206112 -0.0017211406 -0.006153173
-0.007349141 -0.00402779 -0.0032383334 -0.0063199583 -0.0123203695 0.011940984 -0.009446148 0.0033618156
-0.008216148 -0.013398619 -0.007491777 -0.0020114053 -0.0004809227 0.007106525 -0.0097027505 0.005703858
0.001055658 0.007611183 0.0053293984 0.00061910256 0.002707104 -0.0054714996 0.011646151 -0.0076705427
0.0020981363 0.0064379023 -0.008517492 0.004880073 -0.004633968 -0.0095523195 0.020132374 0.0023184258
0.017402899 0.016673362 -0.0077744573 0.004788473 -0.00082695344 0.0070741624 0.0010895432 0.003748522
-0.011648089 -0.007822852 -0.020447621 0.002782708 0.0027981407 -0.007564912 0.003344308 -0.006369603
-0.00024352768 0.0075482735 -0.0025471072 0.02268323 -0.01054687 0.016012114 -0.0017174043 -0.0032280018
0.0059877955 0.013226136 0.010854988 0.013802417 -0.0034573998 0.0058841906 -0.008584776 -0.017425327
-0.0077738813 0.0024565074 -0.003090027 -0.0028817176 0.0055253045 0.0033901301 0.0075661303 0.0029588954
-0.02192073 0.00014050344 0.012949561 0.0024504513 0.005917175 -0.0036864025 -0.011935375 -0.0007594565
-0.007540166 -0.010842827 -0.0024855544 0.00878258 -0.011274098 -0.0073863836 -0.0090188235 0.0111721335
0.0026899287 0.0122238 -0.013609481 0.0035315875 0.015348233 0.013860146 -0.0199425 -0.00708433
0.0029905739 -0.015051876 -0.0010055107 0.0021257882 -0.0078105987 -0.0008714075 0.0075859013 0.0034045738
0.0015645076 0.0007618273 0.0077428566 0.0010816066 -0.0039911564 -0.010405482 -0.00069885066 -0.0049439995
0.008109721 -0.0039185537 -0.0010429006 0.005033951 -0.0078120874 -0.008129951 -0.0035374367 -0.0006525381
0.0023390613 -0.01902744 -0.0069744154 -0.00414863 0.0046827365 -0.012866079 0.023233412 0.004835771
-0.0072331205 -0.0056828256 -0.015403308 0.0061231325 -0.011618098 0.012557953 -0.003845723 0.007001838
0.010984464 0.012001238 -0.008085386 0.0015311632 -0.0025684524 -0.010144377 0.008656606 0.0066566314
0.013594806 0.011225279 -0.009857973 0.017399332 0.014440991 0.0009985097 -0.002817061 0.00052827556
0.0039111017 0.005472211 0.00568138 0.00571579 -0.00076740107 0.0118543655 -0.0006174423 -0.006429712
-0.0027404018 0.0015587776 0.018764522 -0.004203269 -0.001366281 0.000948923 0.011689622 0.0011825291
-0.012595843 -0.002056096 0.0070412303 0.0010593485 0.012485166 -0.006594977 -0.002697111 0.018840222
-0.0068981755 -0.005851355 -0.004979011 -0.0028708004 0.009273954 0.011013142 -0.009772376 -0.010332335
0.010674412 -0.013311841 -0.0037702613 -0.0087485695 0.00064922957 0.008014422 0.00668214 -0.0014962963
-0.0038265586 -0.013111371 0.00446636 -0.011339338 -0.006069121 0.007783239 -0.009684355 -0.009772952
0.00675545 0.0011544643 0.012914294 -0.004983555 0.006063507 -0.0065780217 0.0066108988 -0.01757353
0.011561303 -0.0024466065 0.010169401 -0.00143646 0.0015957941 -0.021043016 0.015524833 -0.0011723627
00000000: 54fc 3e3b 1a11 e63b 8ad0 a8bc 4284 c53c
00000010: dda3 9cbb 00d6 693a 0db7 dfbb 0b72 fa3a
00000020: d90a 8c39 50aa e2ba 54fd 84ba a3e4 0dbc
00000030: 034e 4a3c 4365 59bc 39ac 803c f430 253c
00000040: 357d 7e3c c429 9d3b 7ba0 8ab9 1343 bdbb
00000050: b823 613b e6db 0cbc 3a5b cb3b 72eb 803b
00000060: c7d9 38bc aff5 04bc 7049 723b d541 63bb
00000070: c88b 0d3b 921f 3abc 8dd2 673c b06b 78bc
00000080: cb8c 1fbc efe4 a63a 3e52 153c ba67 8cbb
00000090: e562 5a3c c51f 58b9 e597 e1ba 8ea0 c9bb
000000a0: 10d1 f0bb 8dfb 83bb 383a 54bb a717 cfbb
000000b0: 60db 49bc 1ea4 433c 04c4 1abc e851 5c3b
000000c0: 069d 06bc e285 5bbc 957d f5bb c8d1 03bb
000000d0: 5a24 fcb9 dadd e83b 49f8 1ebc 6ee7 ba3b
000000e0: 015e 8a3a 3b67 f93b 3ca2 ae3b 454b 223a
000000f0: ab69 313b 444a b3bb 7fcf 3e3c 2d59 fbbb
00000100: e380 093b 0af5 d23b f38c 0bbc 05e9 9f3b
00000110: 8bd8 97bb 5581 1cbc a6ec a43c bbf0 173b
00000120: 8690 8e3c 9396 883c e0c0 febb 9fe8 9c3b
00000130: e8c7 58ba 60ce e73b 01cf 8e3a c3a9 753b
00000140: a0d7 3ebc 6b2b 00bc c581 a7bc 185e 363b
00000150: 0361 373b 15e3 f7bb 2d2c 5b3b 1ab8 d0bb
00000160: 775b 7fb9 8257 f73b 5eed 26bb 2ed2 b93c
00000170: c7cc 2cbc d62b 833c 871a e1ba e28c 53bb
00000180: 4535 c43b 6fb2 583c 1fd9 313c 8823 623c
00000190: 8b95 62bb 2bd0 c03b 29a7 0cbc 8fbf 8ebc
000001a0: 0bbc febb 5bfd 203b 0d82 4abb 33db 3cbb
000001b0: 9d0d b53b f22c 5e3b 4ded f73b 07ea 413b
000001c0: 1a93 b3bc 1b54 1339 652a 543c c097 203b
000001d0: dde4 c13b 9297 71bb 978c 43bc 4316 47ba
000001e0: 7f13 f7bb 1da6 31bc afe4 22bb cfe4 0f3c
000001f0: ffb6 38bc 7a09 f2bb b0c3 13bc 530b 373c
00000200: 8449 303b 5546 483c 4dfa 5ebc 3572 673b
00000210: 2877 7b3c aa15 633c 745e a3bc ab23 e8bb
00000220: 81fd 433b 259c 76bc 57cb 83ba cf50 0b3b
00000230: 0df0 ffbb 2b6f 64ba 2793 f83b 451f 5f3b
00000240: 2a10 cd3a 5db5 473a cab7 fd3b b2c4 8d3a
00000250: 3fc8 82bb c17b 2abc 1333 37ba 4601 a2bb
00000260: a3de 043c 3667 80bb f0b1 88ba d7f3 a43b
00000270: 8afc ffbb 7c33 05bc 57d4 67bb 170f 2bba
00000280: f04a 193b 6fdf 9bbc a389 e4bb 3bf1 87bb
00000290: a471 993b 3fcc 52bc ff53 be3c 6375 9e3b
000002a0: d003 edbb ff36 babb 285e 7cbc 8fa4 c83b
000002b0: d659 3ebc dfbf 4d3c 8708 7cbb ad6f e53b
000002c0: 2ef8 333c d7a0 443c 9178 04bc 50b1 c83a
000002d0: 7b53 28bb 9a34 26bc 70d4 0d3c df1f da3b
000002e0: c0bc 5e3c 3cea 373c 5683 21bc 0b89 8e3c
000002f0: e899 6c3c 6de0 823a 719e 38bb f97b 0a3a
00000300: b328 803b 3c50 b33b df2a ba3b 864b bb3b
00000310: 6a2b 49ba d038 423c dadb 21ba 55b0 d2bb
00000320: 5098 33bb e64f cc3a 0eb8 993c 93bb 89bb
00000330: c814 b3ba 25c1 783a d485 3f3c 18ff 9a3a
00000340: cb5e 4ebc 91bf 06bb 1fba e63b d6d9 8a3a
00000350: 958e 4c3c ad1a d8bb 04c2 30bb cf56 9a3c
00000360: 170a e2bb b9bc bfbb f926 a3bb 0a24 3cbb
00000370: c8f1 173c 7770 343c 511c 20bc f448 29bc
00000380: bbe3 2e3c e819 5abc 7d16 77bb 2956 0fbc
00000390: 0f31 2a3a ec4e 033c daf5 da3b 5f1f c4ba
000003a0: 00c7 7abb 13d1 56bc 8b5a 923b a1c8 39bc
000003b0: 7adf c6bb 8a0a ff3b 21ab 1ebc bb1e 20bc
000003c0: d25c dd3b 6551 973a 7a96 533c 174d a3bb
000003d0: 62b0 c63b 728c d7bb 3da0 d83b 5df6 8fbc
000003e0: 9f6b 3d3c 3f57 20bb 8f9d 263c 9947 bcba
000003f0: f729 d13a 6762 acbc df5b 7e3c f7a9 99ba

action_model._discrete_distribution.branches.3.bias f4 [2]
0.0 0.0
00000000: 0000 0000 0000 0000

action_model._discrete_distribution.branches.4.weight f4 [2, 128]
0.007526534 0.0061553335 0.0009281709 -0.002075604 -0.009356179 0.009013773 0.006765554 -0.007961677
0.0023947363 -0.0010854556 0.011096625 -0.0053317263 -0.0021927492 0.015508703 -0.01689912 -0.0032706147
0.01143192 -0.004876906 -0.009939199 0.005831701 -0.0007031831 -0.0099598495 -0.0042045806 -0.013284464
0.008193794 0.004951721 0.015347341 -0.0032910467 0.0014838644 -0.0019892154 -0.015868682 0.024747482
-0.011775529 0.0058498546 0.0038623007 0.015041393 -0.0025298211 -0.013007017 -0.002431604 0.0024614616
-0.003201702 -0.00017615173 0.009449947 -0.008441489 -0.011096108 -0.0010207961 0.00033157223 -0.005742643
0.0041637253 0.0066253445 -0.0015610661 0.00537597 0.002702352 0.01808249 0.00018842335 -0.010737556
0.0066113747 -0.009594998 -0.007499728 -0.008483371 0.008214697 0.0065378295 0.0084401425 -0.011863422
0.0010550732 0.0043704 0.010541076 0.0067762504 -0.00796171 -0.0047479123 0.0068114297 0.014266479
-0.00505083 0.0012811302 0.0065900097 -0.0057283957 -0.009228471 -0.0060322224 -6.9536494e-05 -0.010411414
-0.008764131 -0.0009809096 0.0030170046 -0.006033301 0.016358221 -0.014134635 0.0027757043 0.008998244
0.010307536 -0.01815762 -0.013347805 0.004533749 -0.015036381 -0.0045283893 0.023339946 0.008063277
-0.003906135 0.004006434 -0.0023499874 0.0063762353 0.00562979 -0.014661983 0.0160928 -0.017933406
-0.0029004533 -0.00074367895 0.006006689 0.004771835 -0.007432557 0.012290805 0.0034593937 -0.0074020387
0.0037854842 0.014720035 0.0059373784 0.009315941 0.00046991752 0.0094407005 -0.018904408 -0.005454895
0.0008198822 0.0055866735 0.001957585 -0.00785623 0.013383663 -0.006341131 0.0044605094 -0.008005016
-0.0039049753 0.010618131 -0.005019202 -0.0035921067 -0.00950852 0.0075457254 1.0996152e-05 0.013222197
0.0021586923 -0.008626866 -0.009061292 -0.004025008 -0.0023557595 0.0011010726 -0.006894858 -0.007312798
-0.010885286 -0.011964318 -0.003414831 -0.023681102 -0.00078793196 -0.021854935 -0.00052242255 -0.004048348
-0.0046534794 0.0012532332 0.007512536 -0.0065681385 -0.0049386895 -0.009041219 0.00315133 -0.012022964
-0.0025933802 0.0023023367 -0.0059776898 0.0028641764 0.018090513 -0.0008800079 0.0008337462 -0.014317435
-0.013805809 0.0016653218 0.00878616 -0.006815055 -0.010185037 -0.0040495726 0.0012429048 0.016307717
-0.0035325985 0.003648317 -0.007035561 -0.0050004334 -0.011524604 0.005868892 0.003817925 -0.0040684077
-0.007859441 0.007849006 -0.01817322 -0.014354738 -0.0051220404 0.012145034 0.0022513014 0.0021053646
0.0018028831 0.012952575 -0.009141806 0.0063489913 0.0061739096 0.011956806 -0.008454626 0.0033120778
-0.001956891 -0.005843231 0.0059966943 -0.0048574517 -0.001303935 -0.008911104 -0.000577124 -0.00046498686
0.009014669 0.014475155 -0.021267584 -0.015237281 -0.0070486083 -0.005654643 -0.015526903 0.014292176
0.0048925052 -0.009370916 0.0028275796 0.01429415 0.0026612475 0.009475965 -0.0016881637 0.023205457
0.0057040337 0.009563153 0.004154708 0.0022433286 -0.011494033 -0.013840891 -0.00093561533 -0.00031757177
0.0070030363 -0.0018289492 -0.0026547515 -0.0068837786 0.004733074 0.013443212 -0.004978711 -0.011992149
0.0056680976 0.009723672 -0.01227666 0.00015670642 -0.0115757575 0.012663074 0.010412681 0.007374845
0.012691385 -0.0011058598 0.008067091 0.009903575 0.024592519 0.0013760325 0.0015341297 -0.013508061
00000000: 25a1 f63b aeb2 c93b 7f50 733a db06 08bb
00000010: a94a 19bc 81ae 133c 95b1 dd3b b271 02bc
00000020: 02f1 1c3b d945 8eba 9ece 353c c3b5 aebb
00000030: 3ab4 0fbb 3718 7e3c 0670 8abc cf57 56bb
00000040: f34c 3b3c 74ce 9fbb 06d8 22bc db17 bf3b
00000050: d255 38ba a32e 23bc 94c6 89bb 15a7 59bc
00000060: 433f 063c 0c42 a23b 6a73 7b3c 9aae 57bb
00000070: 3a7e c23a 7f5d 02bb 0aff 81bc 3bbb ca3c
00000080: 26ee 40bc 23b0 bf3b a71e 7d3b 2d70 763c
00000090: 5bcb 25bb 621b 55bc 8c5b 1fbb 7950 213b
000000a0: a5d3 51bb 5fb5 38b9 f3d3 1a3c 2c4e 0abc
000000b0: 73cc 35bc 3ccc 85ba dfd6 ad39 c82c bcbb
000000c0: dc6f 883b 6b19 d93b b09c ccba e828 b03b
000000d0: f119 313b bb21 943c 8293 4539 93ec 2fbc
000000e0: 3ba4 d83b 5734 1dbc 47c0 f5bb d6fd 0abc
000000f0: f096 063c 4a3b d63b 8648 0a3c cc5e 42bc
00000100: 624a 8a3a 9335 8f3b 7ab4 2c3c 4f0b de3b
00000110: d571 02bc 6094 9bbb 6a32 df3b f3bd 693c
00000120: 6f81 a5bb 99eb a73a 02f1 d73b 44b5 bbbb
00000130: 0333 17bc f3a9 c5bb 1fd4 91b8 a394 2abc
00000140: 6e97 0fbc dd91 80ba f0b8 453b ffb2 c5bb
00000150: ad01 863c f594 67bc 97e8 353b 5f6d 133c
00000160: f1e0 283c 4abf 94bc c0b0 5abc d88f 943b
00000170: 275b 76bc e262 94bb 6a33 bf3c d61b 043c
00000180: 12fe 7fbb 6848 833b 3f02 1abb bdef d03b
00000190: 1a7a b83b d038 70bc 0cd5 833c 14e9 92bc
000001a0: 8815 3ebb 73f3 42ba c2d3 c43b 0e5d 9c3b
000001b0: cf8c f3bb 5f5f 493c ffb6 623b cd8c f2bb
000001c0: e315 783b 4d2c 713c 578e c23b e3a1 183c
000001d0: 435f f639 2bad 1a3c 6bdd 9abc fabe b2bb
000001e0: 5ded 563a 6a10 b73b d44a 003b 6bb7 00bc
000001f0: 2747 5b3c 43c9 cfbb 7729 923b 7827 03bc
00000200: 9dea 7fbb abf7 2d3c 1e78 a4bb 8d69 6bbb
00000210: a0c9 1bbc 2242 f73b 1d7c 3837 eaa1 583c
00000220: d978 0d3b b357 0dbc d075 14bc 37e4 83bb
00000230: 1663 1abb de51 903a 43ee e1bb 32a0 efbb
00000240: 3358 32bc fd05 44bc 5bcb 5fbb dffe c1bc
00000250: 388d 4eba 1f09 b3bc 2ff3 08ba 01a8 84bb
00000260: 377c 98bb 8743 a43a b82b f63b 8a39 d7bb
00000270: bbd4 a1bb 9f21 14bc 8b86 4e3b f7fb 44bc
00000280: b3f5 29bb cde2 163b 7fe0 c3bb e8b4 3b3b
00000290: 8e32 943c 55b0 66ba c38f 5a3a ad93 6abc
000002a0: c331 62bc ed46 da3a d3f3 0f3c d350 dfbb
000002b0: 24df 26bc 47b2 84bb f7e8 a23a c397 853c
000002c0: 2b83 67bb 9a18 6f3b 908a e6bb adda a3bb
000002d0: b1d1 3cbc d64f c03b 2736 7a3b 4750 85bb
000002e0: e3c4 00bc 1e99 003c 01e0 94bc 2330 6bbc
000002f0: cad6 a7bb f7fb 463c 928a 133b 28fa 093b
00000300: b84e ec3a 0a37 543c 83c7 15bc 330b d03b
00000310: 824e ca3b 7be6 433c 4685 0abc 720f 593b
00000320: 2f3f 00bb 9378 bfbb eb7f c43b 422b 9fbb
00000330: cce8 aaba e1ff 11bc 234a 17ba 7bc9 f3b9
00000340: 43b2 133c 3329 6d3c 5b39 aebc caa5 79bc
00000350: 03f8 e6bb 954a b9bb 8d64 7ebc bb29 6a3c
00000360: 4f51 a03b 7888 19bc ea4e 393b 0332 6a3c
00000370: 5368 2e3b 1441 1b3c 6045 ddba 5f19 be3c
00000380: e7e8 ba3b c5ae 1c3c 3724 883b cf04 133b
00000390: 7851 3cbc e8c4 62bc 1544 75ba c37f a6b9
000003a0: ba79 e53b 5ab9 efba 57fb 2dbb 5291 e1bb
000003b0: e717 9b3b eb40 5c3c 7424 a3bb b87a 44bc
000003c0: 73bb b93b 0950 1f3c 0b24 49bc 8f51 2439
000003d0: 3fa8 3dbc c878 4f3c f399 2a3c afa8 f13b
000003e0: 87ef 4f3c 7ff2 90ba d52b 043c 9b42 223c
000003f0: 4076 c93c fd5b b43a da14 c93a ea50 5dbc

action_model._discrete_distribution.branches.4.bias f4 [2]
0.0 0.0
00000000: 0000 0000 0000 0000
