Assets/results/ppo/My Behavior/My Behavior-182.pt (torch, 219670 bytes, 38 tensors)

discrete_act_size_vector f4 [1, 14]
0	0x40000000	2.0
1	0x40000000	2.0
2	0x40000000	2.0
3	0x40000000	2.0
4	0x40000000	2.0
5	0x40000000	2.0
6	0x40000000	2.0
7	0x41200000	10.0
8	0x41200000	10.0
9	0x41200000	10.0
10	0x41200000	10.0
11	0x41200000	10.0
12	0x41200000	10.0
13	0x41200000	10.0

network_body._body_endoder.seq_layers.0.weight f4 [128, 24]
0	0xbca5cdc9	-0.020239728
1	0xbe9a2a61	-0.30110458
2	0xbe4ef1f9	-0.20209493
3	0x3e953544	0.291422
4	0xbe1a008c	-0.15039271
5	0x3e7ec27f	0.24878882
6	0x3d831be3	0.06401803
7	0xbd94f5a7	-0.07273417
8	0xbea1c032	-0.31591946
9	0x3e8ef435	0.2792069
10	0xbe993270	-0.29921293
11	0x3e31983e	0.17343232
12	0x3eca3602	0.3949433
13	0xbe79cafd	-0.2439384
14	0xbe469201	-0.19391634
15	0xbda7e2e4	-0.08197573
16	0x3d6bf91a	0.05761061
17	0x3e40116d	0.18756647
18	0x3de9ebb9	0.11421914
19	0xbd69dff8	-0.05709836
20	0xbcf7ea34	-0.030263044
21	0xbdaf30c3	-0.085542224
22	0x3e7ec447	0.24879561
23	0xbe5b2819	-0.21402015
24	0xbe17588e	-0.14779875
25	0x3ed4ffac	0.41601312
26	0xbcc67763	-0.02422685
27	0xbe8b3f89	-0.2719691
28	0xbe3e5584	-0.18587309
29	0xbe9106cf	-0.28325507
30	0xbe1d9f16	-0.15392718
31	0xbe1561ba	-0.14588061
32	0x3b136591	0.0022490958
33	0x3e7801a9	0.24219383
34	0xbcf5fe15	-0.030028382
35	0xbd092cb2	-0.03348989
36	0xbc5d7857	-0.013517461
37	0xbd98e4c1	-0.07465506
38	0xbd128918	-0.035775274
39	0xbf00c2c2	-0.50297177
40	0xbe16230c	-0.14661807
41	0x3e3fe064	0.18737942
42	0x3d74f614	0.05980499
43	0xbe8dfd6f	-0.27732417
44	0xbe73ae22	-0.23796895
45	0x3ea13cff	0.3149185
46	0xbe89835a	-0.26858026
47	0xbe0cebca	-0.13761821
48	0xbe9c53a2	-0.30532557
49	0xbd135abb	-0.0359752
50	0xbdf87eb8	-0.12133545
51	0x3d39a316	0.045321546
52	0x3e0a7d30	0.13524318
53	0xbe0e5db5	-0.13902934
54	0xbe8e4c86	-0.27792758
55	0x3f09d2a3	0.5383703
56	0x3ed626bd	0.4182643
57	0x394a5683	0.0001929645
58	0x3d1c380c	0.038139388
59	0xbd65291e	-0.055947416
60	0xbe3c82ea	-0.18409315
61	0x3e36fab1	0.17869069
62	0x3d51ad4a	0.051190652
63	0xbb854a91	-0.004067727
64	0x3d95a093	0.07306018
65	0x3e15ef36	0.14642033
66	0x3e61c604	0.22048193
67	0xbd9449fc	-0.07240674
68	0xbd80a86c	-0.06282124
69	0x3e6cd2c0	0.2312727
70	0x3e9bd4d2	0.30435807
71	0xbe948d32	-0.29013973
72	0xbeff411b	-0.4985436
73	0xbe152b30	-0.14567256
74	0x3e01589d	0.1263146
75	0x3e9a2ab1	0.30110696
76	0xbe4f11c7	-0.20221625
77	0x3dd2d122	0.10293795
78	0xbe560cf3	-0.20903377
79	0x3d7bdb34	0.061488345
80	0x3eb38c84	0.35068142
81	0xbc55ba17	-0.013044856
82	0xbbeaabc8	-0.007161591
83	0xbe6de872	-0.23233202
84	0xbcd86460	-0.02641505
85	0x3e2c38c7	0.16818534
86	0x3e229f0b	0.15880983
87	0xbdac268a	-0.08405788
88	0x3e79601a	0.24353066
89	0xbe707cab	-0.23485057
90	0x3ee70e74	0.45128214
91	0xbdc0b69d	-0.09409831
92	0xbca1236e	-0.019670215
93	0x3dc6b555	0.09702555
94	0xbeb5038f	-0.35354277
95	0xbea0d3ca	-0.31411582
96	0x3e9f1e7d	0.31077948
97	0xbcaae0a5	-0.020859072
98	0x3e75d6b3	0.24007683
99	0xbd91d226	-0.07120161
100	0x3ca19666	0.019725036
101	0x3d2b5d18	0.041836828
102	0x3e8f33eb	0.27969298
103	0xbbd27753	-0.006422916
104	0xbe4ada06	-0.19809732
105	0x3e864a14	0.26228392
106	0xbdc3ff7e	-0.09570216
107	0x3cdb3b8e	0.026761796
108	0xbe7a0838	-0.24417198
109	0x3d6d46d2	0.057928868
110	0x3ecc95a5	0.3995792
111	0x3f0d71c9	0.5525175
112	0xbe8ac36a	-0.27102214
113	0x3e202021	0.15637256
114	0x3e444275	0.19165976
115	0xbe06fb6a	-0.13181844
116	0x3e3f605a	0.18689099
117	0x3db923cd	0.090400316
118	0xbc0e8930	-0.0086997
119	0x3e893ac0	0.26802635
120	0x3aade220	0.0013266243
121	0xbca96f3a	-0.02068292
122	0x3e6c2b83	0.23063473
123	0xbe1f3cb6	-0.15550503
124	0xbd3a345c	-0.04546009
125	0x3c36fe68	0.011169054
126	0xbdb3ce6f	-0.087796085
127	0xbbaf1278	-0.005342778
128	0xbe28973c	-0.16463941
129	0x3d608a43	0.054819357
130	0xbea4caf1	-0.32186082
131	0x3ec01f8f	0.37524077
132	0x3ed41c4f	0.41427848
133	0x3e3ef2c1	0.18647291
134	0xbd6ba387	-0.057529
135	0x3e1c972e	0.15292045
136	0x3e36b82c	0.17843693
137	0xbdf80327	-0.12109976
138	0x3f0b5f78	0.5444255
139	0xbe8169f0	-0.25276136
140	0x3d3884b9	0.04504845
141	0x3e28d51c	0.16487545
142	0x3dc51725	0.09623555
143	0xbd943e11	-0.07238401
144	0xbbd4682e	-0.0064821457
145	0xbdf3a6aa	-0.11897023
146	0x3d6fd6a7	0.058554318
147	0xbe38a85e	-0.18032977
148	0xbd5a7392	-0.053332873
149	0x3d53fec5	0.05175664
150	0xbc82b8cb	-0.015957257
151	0xbe6f8c31	-0.23393323
152	0x3d48c526	0.04901614
153	0xbd9e3e4d	-0.07726727
154	0x3e049080	0.12945747
155	0xbdcea3d5	-0.10089842
156	0x3ebfc452	0.37454468
157	0xbe8c45d5	-0.27397028
158	0xbeec2edd	-0.46129504
159	0xbc4abe4e	-0.012374474
160	0xbf034569	-0.51277786
161	0x3e2b946c	0.16755837
162	0x3d735f14	0.059416845
163	0x3ec2bad5	0.38033167
164	0x3e0d5a1a	0.13803902
165	0xbecd9acd	-0.40157166
166	0xbe5db327	-0.21650372
167	0xbd88b09c	-0.066743106
168	0x3e14c0a2	0.14526609
169	0x3e0e6cb9	0.13908662
170	0x3c35d82c	0.011098903
171	0xbe935a36	-0.28779763
172	0x3d33f101	0.04393101
173	0xbcfa704c	-0.030571125
174	0x3db73704	0.0894604
175	0x3e201520	0.15633059
176	0xbe132353	-0.14368944
177	0x3e09ca80	0.13456154
178	0xbe3cee2c	-0.1845023
179	0xbefb2da1	-0.4905825
180	0x3d66fb9a	0.05639229
181	0x3eab11d2	0.33412033
182	0x3dc2c946	0.09511046
183	0x3e58c385	0.21168335
184	0xbe644268	-0.22290957
185	0xbed72759	-0.42022207
186	0xbead17fd	-0.33807364
187	0x3dbb2583	0.09138014
188	0x3e33152a	0.17488542
189	0x3e88ac93	0.26694164
190	0xbf1bd5db	-0.6087319
191	0x3e46b39e	0.19404456
192	0xbd5e3880	-0.0542531
193	0xbe9d9cd9	-0.30783728
194	0x3e8ef549	0.27921513
195	0xbdbf587a	-0.093430474
196	0x3e63cda4	0.22246414
197	0xbe4dcf99	-0.20098723
198	0xbeb51e4c	-0.35374677
199	0xbdaebde3	-0.08532312
200	0xbe5fd2f0	-0.2185781
201	0xbd08f329	-0.03343502
202	0x3c38cccd	0.011279297
203	0xbe414c12	-0.18876675
204	0xbcf627a9	-0.030048208
205	0xbd03d809	-0.03218845
206	0x3dd23b5e	0.1026523
207	0xbe765795	-0.24056847
208	0xbdf96d8b	-0.12179097
209	0xbe445c85	-0.19175918
210	0xbe11c586	-0.14235505
211	0xbbb59d1a	-0.0055424096
212	0xbe252f46	-0.16131315
213	0xbe16b152	-0.1471608
214	0x3d82bad0	0.06383288
215	0x3e985c5d	0.29757968
216	0x3d8359ca	0.0641361
217	0xbe1d1dea	-0.15343443
218	0xbdf26580	-0.11835766
219	0x3e661b47	0.22471343
220	0xbcc0d409	-0.023538606
221	0xbdf91fe6	-0.12164287
222	0xbc71f1f9	-0.014767163
223	0xbdfee899	-0.12446708
224	0x3e7f20fb	0.24914925
225	0x3e2790e9	0.16363873
226	0x3ca55dff	0.020186422
227	0xbeb35ec2	-0.35033232
228	0xbb815dba	-0.0039479407
229	0x3ca9c6c8	0.02072467
230	0xbd44ee84	-0.04807903
231	0xbde667db	-0.112502776
232	0x3e8254a2	0.25455195
233	0x3cea78ae	0.028621998
234	0x3e01fb50	0.12693524
235	0xbce70ed4	-0.028205313
236	0x3dffdfc2	0.1249385
237	0x3d02d04f	0.03193694
238	0xbe3e4bfd	-0.18583675
239	0xbb09024d	-0.0020905912
240	0x3dd55a28	0.104175866
241	0xbdaba2a9	-0.08380634
242	0xbe275b0a	-0.16343322
243	0x3d167097	0.036728468
244	0xbe750d91	-0.23930956
245	0x3e4bd7fa	0.19906607
246	0xbef8802e	-0.48535293
247	0xbc4359de	-0.0119232815
248	0x3dedacdd	0.11605237
249	0xba2b4c06	-0.00065344607
250	0x3dedba45	0.11607794
251	0xbe317e57	-0.17333351
252	0x3df3b57a	0.11899848
253	0x3dd9ea5c	0.10640404
254	0x3e4290b2	0.1900051
255	0xbe1c9fa7	-0.15295278

network_body._body_endoder.seq_layers.0.bias f4 [128]
0	0x00000000	0.0
1	0x00000000	0.0
2	0x00000000	0.0
3	0x00000000	0.0
4	0x00000000	0.0
5	0x00000000	0.0
6	0x00000000	0.0
7	0x00000000	0.0
8	0x00000000	0.0
9	0x00000000	0.0
10	0x00000000	0.0
11	0x00000000	0.0
12	0x00000000	0.0
13	0x00000000	0.0
14	0x00000000	0.0
15	0x00000000	0.0
16	0x00000000	0.0
17	0x00000000	0.0
18	0x00000000	0.0
19	0x00000000	0.0
20	0x00000000	0.0
21	0x00000000	0.0
22	0x00000000	0.0
23	0x00000000	0.0
24	0x00000000	0.0
25	0x00000000	0.0
26	0x00000000	0.0
27	0x00000000	0.0
28	0x00000000	0.0
29	0x00000000	0.0
30	0x00000000	0.0
31	0x00000000	0.0
32	0x00000000	0.0
33	0x00000000	0.0
34	0x00000000	0.0
35	0x00000000	0.0
36	0x00000000	0.0
37	0x00000000	0.0
38	0x00000000	0.0
39	0x00000000	0.0
40	0x00000000	0.0
41	0x00000000	0.0
42	0x00000000	0.0
43	0x00000000	0.0
44	0x00000000	0.0
45	0x00000000	0.0
46	0x00000000	0.0
47	0x00000000	0.0
48	0x00000000	0.0
49	0x00000000	0.0
50	0x00000000	0.0
51	0x00000000	0.0
52	0x00000000	0.0
53	0x00000000	0.0
54	0x00000000	0.0
55	0x00000000	0.0
56	0x00000000	0.0
57	0x00000000	0.0
58	0x00000000	0.0
59	0x00000000	0.0
60	0x00000000	0.0
61	0x00000000	0.0
62	0x00000000	0.0
63	0x00000000	0.0
64	0x00000000	0.0
65	0x00000000	0.0
66	0x00000000	0.0
67	0x00000000	0.0
68	0x00000000	0.0
69	0x00000000	0.0
70	0x00000000	0.0
71	0x00000000	0.0
72	0x00000000	0.0
73	0x00000000	0.0
74	0x00000000	0.0
75	0x00000000	0.0
76	0x00000000	0.0
77	0x00000000	0.0
78	0x00000000	0.0
79	0x00000000	0.0
80	0x00000000	0.0
81	0x00000000	0.0
82	0x00000000	0.0
83	0x00000000	0.0
84	0x00000000	0.0
85	0x00000000	0.0
86	0x00000000	0.0
87	0x00000000	0.0
88	0x00000000	0.0
89	0x00000000	0.0
90	0x00000000	0.0
91	0x00000000	0.0
92	0x00000000	0.0
93	0x00000000	0.0
94	0x00000000	0.0
95	0x00000000	0.0
96	0x00000000	0.0
97	0x00000000	0.0
98	0x00000000	0.0
99	0x00000000	0.0
100	0x00000000	0.0
101	0x00000000	0.0
102	0x00000000	0.0
103	0x00000000	0.0
104	0x00000000	0.0
105	0x00000000	0.0
106	0x00000000	0.0
107	0x00000000	0.0
108	0x00000000	0.0
109	0x00000000	0.0
110	0x00000000	0.0
111	0x00000000	0.0
112	0x00000000	0.0
113	0x00000000	0.0
114	0x00000000	0.0
115	0x00000000	0.0
116	0x00000000	0.0
117	0x00000000	0.0
118	0x00000000	0.0
119	0x00000000	0.0
120	0x00000000	0.0
121	0x00000000	0.0
122	0x00000000	0.0
123	0x00000000	0.0
124	0x00000000	0.0
125	0x00000000	0.0
126	0x00000000	0.0
127	0x00000000	0.0

network_body._body_endoder.seq_layers.2.weight f4 [128, 128]
0	0x3d3ebc9e	0.046566598
1	0x3dc37db0	0.09545457
2	0x3d9688a9	0.073502846
3	0xbdc7320e	-0.09726344
4	0xbe13127b	-0.14362518
5	0x3d91665f	0.07099604
6	0x3d59d17c	0.053178295
7	0xbd2e3335	-0.042529304
8	0xbb661e18	-0.0035113152
9	0xbda6e17e	-0.08148478
10	0xbde2fbd6	-0.1108319
11	0x3e050205	0.12989052
12	0x3d22f83d	0.03978752
13	0xbe08c5f9	-0.1335677
14	0xbe50c3ff	-0.20387267
15	0xbca2f098	-0.019890115
16	0xbd66cf9d	-0.05635034
17	0xbda50eb3	-0.08059444
18	0x3c827a15	0.015927354
19	0xbc0d74c4	-0.008633796
20	0x3c82c055	0.015960852
21	0x3e0b999b	0.13632815
22	0x3d17e3c6	0.037082456
23	0x3ca8371e	0.020534094
24	0x3d067cc3	0.032833826
25	0x3c3a0eca	0.011356065
26	0x3bb2f147	0.0054608914
27	0xbca7f927	-0.020504547
28	0x3d1dad87	0.038495567
29	0xbe281a6e	-0.16416332
30	0xbe00b59c	-0.12569278
31	0x3c24e10e	0.010063423
32	0x3cae4365	0.02127237
33	0x3d5bff9d	0.05371057
34	0xbd70eb1a	-0.05881796
35	0xbd77158c	-0.060323283
36	0x3bf374e8	0.007429708
37	0xbe0d7cc3	-0.13817124
38	0x3e043eea	0.12914625
39	0x3da74d7b	0.08169075
40	0xbcf76b86	-0.030202638
41	0x3b13c216	0.0022546104
42	0xbd18d87d	-0.037315834
43	0xbd271ca9	-0.040798817
44	0x3c885fa0	0.01664716
45	0xbdb01277	-0.08597272
46	0xbda00a60	-0.07814479
47	0x3b23cafa	0.002499281
48	0x3c381686	0.011235839
49	0x3d2715fb	0.040792447
50	0xbd107c3b	-0.035274725
51	0xbd477bcf	-0.048702057
52	0xbd0f1677	-0.034933534
53	0xbdb33ed4	-0.08752218
54	0x3e25d9cc	0.16196364
55	0x3e216bdf	0.15763806
56	0x3dda35a9	0.10654766
57	0xbcef24ec	-0.02919241
58	0xbd9ecbbc	-0.07753703
59	0x3d33b39c	0.04387246
60	0x3caaee4b	0.02086558
61	0x3d6b5104	0.05745031
62	0xbbfb91fb	-0.0076773143
63	0x3d63ccbc	0.05561517
64	0x3e051217	0.12995182
65	0x3d36f084	0.044662967
66	0xbdc00eea	-0.09377845
67	0x3d71f2cd	0.059069443
68	0xbe0f4c89	-0.1399404
69	0xbcec14e0	-0.028818548
70	0x3d7461f2	0.05966372
71	0xbdbb3351	-0.09140647
72	0xbc903cca	-0.017607111
73	0xbd790dc0	-0.06080413
74	0x3dadcdfa	0.084865525
75	0x3ddb446f	0.10706412
76	0xbe056d4d	-0.13029976
77	0x3da38e18	0.079860866
78	0xbbde4b75	-0.0067838975
79	0x3d9ff2e7	0.07810002
80	0x3c316063	0.010826203
81	0x3d9e1be6	0.07720165
82	0x3cd9482c	0.026523672
83	0x3d7d4e01	0.06184197
84	0x399d1f39	0.00029968636
85	0xbd94cdfd	-0.07265852
86	0xbe3c8313	-0.18409376
87	0x3bef8e99	0.0073107
88	0xbc1bfb3e	-0.00952035
89	0xba49f982	-0.0007704721
90	0x3cd47d4b	0.02593865
91	0x3d4bc48f	0.049748
92	0x3cf290ab	0.029609999
93	0x3d72aa87	0.05924466
94	0x3daa3c8f	0.08312332
95	0xbdfdf8f3	-0.12400999
96	0xbcd0ab2f	-0.025472252
97	0xbba2b854	-0.0049658213
98	0xbe069a3e	-0.13144776
99	0x3e262dee	0.16228458
100	0xbd85c0bf	-0.06530904
101	0xbddc7f6d	-0.10766492
102	0xbcac7728	-0.021052912
103	0x3d843154	0.06454721
104	0xbcc4e784	-0.024036177
105	0x3e085571	0.13313843
106	0x3cc4dc22	0.024030749
107	0x3df155e1	0.11783958
108	0xbdc9815e	-0.09839128
109	0x3c6fa8ea	0.014627675
110	0xbd9e6676	-0.077343866
111	0x3dd6c149	0.10486085
112	0x3cfef396	0.03112201
113	0xbcbe68ea	-0.023243386
114	0x3e17d5e4	0.14827687
115	0xbd8c1b03	-0.068410896
116	0xbdcf1153	-0.10110726
117	0x3e31cdfd	0.17363735
118	0xbda3a472	-0.0799035
119	0x3df04670	0.11732185
120	0xbbf85cd0	-0.0075794235
121	0xbbf417c3	-0.0074491217
122	0xbd9b78c9	-0.07591397
123	0xbe0ede0c	-0.13951892
124	0xbdbcd366	-0.092200086
125	0xbce57baf	-0.028013078
126	0xbd515b53	-0.051112484
127	0x3dc90bf0	0.0981673
128	0xbda2dfa2	-0.07952811
129	0x3e2a7c74	0.16649038
130	0xbdfca96c	-0.12337002
131	0x3cab7a10	0.020932227
132	0x3dbac266	0.0911911
133	0xbdcf9511	-0.10135854
134	0xbd676de4	-0.056501284
135	0x3d768156	0.060181938
136	0x3dc50a19	0.096210666
137	0xbd0ebc12	-0.034847327
138	0x3e5464be	0.20741555
139	0xbe09e665	-0.13466795
140	0x3d9b4967	0.0758236
141	0xbc219416	-0.009861967
142	0x3ca41419	0.020029115
143	0xbc8617d2	-0.01636878
144	0x3d5d0be2	0.05396641
145	0xbda1b966	-0.0789669
146	0xbc26b61c	-0.010175254
147	0x3caf4467	0.021394921
148	0x3d8c3fee	0.06848131
149	0xbd36db87	-0.04464295
150	0x3d06150e	0.032734923
151	0xbd5084dc	-0.050907955
152	0xbd6b2240	-0.05740571
153	0xbd06a00a	-0.03286747
154	0xbd8239c8	-0.06358677
155	0xbd8cb73c	-0.06870887
156	0x3de367c8	0.11103779
157	0xbd77a4e9	-0.060460005
158	0xbd6d0560	-0.057866454
159	0xbd8a8aa4	-0.06764725
160	0xbd4fe10b	-0.050751727
161	0xbda965da	-0.0827138
162	0x3ca90c68	0.020635799
163	0xbd68472c	-0.0567085
164	0x3c45ed7d	0.012080547
165	0xbd03b8eb	-0.032158773
166	0xbddad712	-0.10685553
167	0xbd3fc6ec	-0.046820566
168	0x3c90bd4c	0.017668389
169	0x3e1e0c42	0.15434363
170	0xbd2c9330	-0.042132556
171	0xbd400896	-0.04688319
172	0x3dc03cb8	0.09386581
173	0xbdff88d5	-0.124772705
174	0xbdaa1a81	-0.083058365
175	0xbdde1834	-0.1084446
176	0xbc1faaf0	-0.0097453445
177	0xbdb5f6f1	-0.08884991
178	0xbdd98e94	-0.10622898
179	0x3c48dbbc	0.01225942
180	0x3c6483d5	0.013947447
181	0xbba70c5a	-0.005097908
182	0xbd493927	-0.04912677
183	0x3d55738e	0.052112155
184	0xbca8159e	-0.02051812
185	0xbd0edaac	-0.03487651
186	0xbe34dbd9	-0.1766199
187	0x3d124fa6	0.03572049
188	0xbdcbadc3	-0.09945252
189	0x3d7e3ec4	0.062071577
190	0xbd60f0c4	-0.054917112
191	0x3ded1d5c	0.115778655
192	0xbdf20e15	-0.11819092
193	0x3ca27f19	0.019835996
194	0x3da11062	0.07864453
195	0xbd860907	-0.065446906
196	0x3c242ee5	0.010020946
197	0xbc65106b	-0.013980965
198	0xbdaa51ca	-0.08316381
199	0xbe052c6d	-0.13005228
200	0xbcef5435	-0.029214958
201	0xbe6f777c	-0.23385423
202	0x3e059dbb	0.1304845
203	0xbd0109ef	-0.031503614
204	0xbd61b956	-0.05510839
205	0x3d23a21c	0.03994952
206	0x3d930994	0.07179561
207	0x3c7e4911	0.01552035
208	0xbe309a44	-0.17246348
209	0x3dd29644	0.10282567
210	0x3dc2eb2d	0.095175125
211	0xbe002a62	-0.12516168
212	0xbd9c594f	-0.07634222
213	0x3cf8024a	0.030274529
214	0x3e1460e0	0.1449008
215	0x3d84d353	0.064856194
216	0xbd2e758c	-0.04259257
217	0xbd1b6233	-0.037935447
218	0xbb33b5b5	-0.0027421538
219	0xbd3f38ed	-0.046685148
220	0x3d11f9fa	0.035638787
221	0xbe3f1a48	-0.18662369
222	0x3d8ef84c	0.069809526
223	0x3d173dab	0.036924046
224	0x3c4bae4f	0.012431695
225	0x3d631c80	0.0554471
226	0x3d3c0960	0.04590738
227	0xbde19ef9	-0.1101665
228	0xbc399f0b	-0.011329423
229	0xbdbd0ab1	-0.09230555
230	0x3e005abe	0.12534615
231	0x3cfe3642	0.031031732
232	0xbe1a2f37	-0.15057074
233	0x3c92f646	0.017939698
234	0x3d89f977	0.06737035
235	0xbcf8fcc4	-0.030393966
236	0xbe0cc634	-0.13747483
237	0xbd99f078	-0.07516569
238	0x3d7d4fdf	0.06184375
239	0x3e2987fc	0.1655578
240	0xbdf89aee	-0.121389255
241	0x3e2dfb47	0.16990386
242	0x3de38e5e	0.11111139
243	0xbd91905a	-0.07107611
244	0x3ca2a7a7	0.019855333
245	0x3b0a48eb	0.0021100591
246	0xbb29cf96	-0.0025911084
247	0x3da137e4	0.078719884
248	0xbddbb142	-0.107271686
249	0xbd7b5219	-0.06135759
250	0x3c8c0d09	0.01709606
251	0xbc5109a8	-0.01275865
252	0xbdc21c0a	-0.09478004
253	0xbd879d39	-0.06621785
254	0xbd21834a	-0.039431848
255	0xbd476991	-0.04868466

network_body._body_endoder.seq_layers.2.bias f4 [128]
0	0x00000000	0.0
1	0x00000000	0.0
2	0x00000000	0.0
3	0x00000000	0.0
4	0x00000000	0.0
5	0x00000000	0.0
6	0x00000000	0.0
7	0x00000000	0.0
8	0x00000000	0.0
9	0x00000000	0.0
10	0x00000000	0.0
11	0x00000000	0.0
12	0x00000000	0.0
13	0x00000000	0.0
14	0x00000000	0.0
15	0x00000000	0.0
16	0x00000000	0.0
17	0x00000000	0.0
18	0x00000000	0.0
19	0x00000000	0.0
20	0x00000000	0.0
21	0x00000000	0.0
22	0x00000000	0.0
23	0x00000000	0.0
24	0x00000000	0.0
25	0x00000000	0.0
26	0x00000000	0.0
27	0x00000000	0.0
28	0x00000000	0.0
29	0x00000000	0.0
30	0x00000000	0.0
31	0x00000000	0.0
32	0x00000000	0.0
33	0x00000000	0.0
34	0x00000000	0.0
35	0x00000000	0.0
36	0x00000000	0.0
37	0x00000000	0.0
38	0x00000000	0.0
39	0x00000000	0.0
40	0x00000000	0.0
41	0x00000000	0.0
42	0x00000000	0.0
43	0x00000000	0.0
44	0x00000000	0.0
45	0x00000000	0.0
46	0x00000000	0.0
47	0x00000000	0.0
48	0x00000000	0.0
49	0x00000000	0.0
50	0x00000000	0.0
51	0x00000000	0.0
52	0x00000000	0.0
53	0x00000000	0.0
54	0x00000000	0.0
55	0x00000000	0.0
56	0x00000000	0.0
57	0x00000000	0.0
58	0x00000000	0.0
59	0x00000000	0.0
60	0x00000000	0.0
61	0x00000000	0.0
62	0x00000000	0.0
63	0x00000000	0.0
64	0x00000000	0.0
65	0x00000000	0.0
66	0x00000000	0.0
67	0x00000000	0.0
68	0x00000000	0.0
69	0x00000000	0.0
70	0x00000000	0.0
71	0x00000000	0.0
72	0x00000000	0.0
73	0x00000000	0.0
74	0x00000000	0.0
75	0x00000000	0.0
76	0x00000000	0.0
77	0x00000000	0.0
78	0x00000000	0.0
79	0x00000000	0.0
80	0x00000000	0.0
81	0x00000000	0.0
82	0x00000000	0.0
83	0x00000000	0.0
84	0x00000000	0.0
85	0x00000000	0.0
86	0x00000000	0.0
87	0x00000000	0.0
88	0x00000000	0.0
89	0x00000000	0.0
90	0x00000000	0.0
91	0x00000000	0.0
92	0x00000000	0.0
93	0x00000000	0.0
94	0x00000000	0.0
95	0x00000000	0.0
96	0x00000000	0.0
97	0x00000000	0.0
98	0x00000000	0.0
99	0x00000000	0.0
100	0x00000000	0.0
101	0x00000000	0.0
102	0x00000000	0.0
103	0x00000000	0.0
104	0x00000000	0.0
105	0x00000000	0.0
106	0x00000000	0.0
107	0x00000000	0.0
108	0x00000000	0.0
109	0x00000000	0.0
110	0x00000000	0.0
111	0x00000000	0.0
112	0x00000000	0.0
113	0x00000000	0.0
114	0x00000000	0.0
115	0x00000000	0.0
116	0x00000000	0.0
117	0x00000000	0.0
118	0x00000000	0.0
119	0x00000000	0.0
120	0x00000000	0.0
121	0x00000000	0.0
122	0x00000000	0.0
123	0x00000000	0.0
124	0x00000000	0.0
125	0x00000000	0.0
126	0x00000000	0.0
127	0x00000000	0.0

action_model._discrete_distribution.branches.0.weight f4 [2, 128]
0	0x3c9dfdca	0.019286055
1	0xbc612615	-0.01374199
2	0xbbae5baa	-0.005320986
3	0x3c1a2bb7	0.0094098365
4	0xbaebde67	-0.0017995358
5	0x3c98d95b	0.01865833
6	0x37a79bf1	1.9980567e-05
7	0xbb79306f	-0.0038023253
8	0x3bd5f88a	0.0065298723
9	0xbb56fb02	-0.003280342
10	0xbbe5e7c7	-0.0070161554
11	0xbc416da7	-0.011805928
12	0xbbf4b38f	-0.007467694
13	0xbc62984a	-0.013830254
14	0xbc156931	-0.009119318
15	0x3c214bd8	0.009844743
16	0xbbb92b86	-0.0056509404
17	0x3b807017	0.003919612
18	0x3bb2df8b	0.0054587773
19	0xbc3f0c5e	-0.011660663
20	0x3b6c50a5	0.003605881
21	0x3b79e9ad	0.0038133666
22	0xbcaf1c8f	-0.021375922
23	0x3ae0912d	0.001713311
24	0xbacbe65f	-0.0015556327
25	0x3b2dd97c	0.0026527336
26	0x3c06a00f	0.008216872
27	0x3b6d051d	0.0036166378
28	0xbb12f913	-0.0022426292
29	0x3c1e1bf2	0.009650217
30	0xbb28d452	-0.0025761318
31	0x3c224aeb	0.009905557
32	0x3b931e17	0.004489671
33	0xbb11b5c3	-0.0022233583
34	0x3cd3ab52	0.025838528
35	0x3c256d79	0.010096901
36	0xbbad23fa	-0.0052838298
37	0xbc65363b	-0.01398998
38	0xbbce7ea3	-0.0063017174
39	0x3b2108dd	0.0024571933
40	0x3c3a9205	0.011387353
41	0xbc595de0	-0.01326701
42	0xbc4af738	-0.012388043
43	0xbc3c16a5	-0.011480008
44	0xbbaa9963	-0.0052062734
45	0xbbffb7d2	-0.0078038955
46	0x3c2235d8	0.009900533
47	0xbc48321d	-0.012218979
48	0xba105a51	-0.0005506622
49	0x3c8259ef	0.015912024
50	0x3af7cb87	0.001890526
51	0xb992b2ee	-0.00027980603
52	0x3c3e5d32	0.011618899
53	0x3c1f54c7	0.009724802
54	0xbcd75d0b	-0.026289484
55	0xbc51b678	-0.012799852
56	0xbc99c6eb	-0.01877161
57	0xbbb61ad2	-0.0055573964
58	0xbbd08c2a	-0.006364365
59	0x3ca875df	0.020564018
60	0x3bc42faa	0.0059871273
61	0x3c4f8fe0	0.01266858
62	0x3a2deaa3	0.000663439
63	0x3a738f1a	0.0009291038
64	0xbbe3f18a	-0.006956284
65	0xbc44e306	-0.012017017
66	0x3b7f6a15	0.0038973142
67	0xbb70898b	-0.0036703076
68	0xbc576882	-0.013147475
69	0xbac413ef	-0.0014959554
70	0xbb93472f	-0.0044945697
71	0xbbc35ad0	-0.0059617534
72	0xbb6a13f8	-0.0035717469
73	0xbc3934d1	-0.011304096
74	0x3a174509	0.000577048
75	0xb99f71da	-0.0003041167
76	0xbc2fd4bb	-0.010731871
77	0xbbd5ae60	-0.0065210313
78	0x3af8f39a	0.0018993497
79	0xbbec0877	-0.0072031575
80	0xbb3334f3	-0.0027344793
81	0xbbd97447	-0.006636176
82	0x3a5a787b	0.0008333993
83	0x3c8575b3	0.016291475
84	0xbbe7b67f	-0.007071316
85	0x3b923977	0.0044624167
86	0xbb96a15b	-0.004596872
87	0x3ab255a8	0.001360585
88	0x3c2e5833	0.0106411455
89	0x3c21036b	0.009827475
90	0xbc2a78e8	-0.010404803
91	0x3b39d571	0.002835598
92	0xbc1f1acd	-0.00971098
93	0x3c1a4f9f	0.009418397
94	0xbc582673	-0.013192761
95	0x3b4f636a	0.0031644949
96	0x3a7ea16f	0.00097133865
97	0xbc5563aa	-0.01302425
98	0x3b3e420e	0.002903107
99	0x3b029f99	0.0019931553
100	0xba7bff7f	-0.0009612962
101	0x3be66d98	0.0070321076
102	0xbc034206	-0.008011347
103	0xbb9a0736	-0.0047005666
104	0xbc263957	-0.010145507
105	0x3c54ab55	0.012980302
106	0x3b7d142b	0.0038616757
107	0x3c0e82cb	0.008698176
108	0x3c26537b	0.010151739
109	0xbce27b57	-0.027646704
110	0x3c3440ca	0.011001775
111	0xbc3cfe27	-0.011535204
112	0xbbba5b57	-0.005687158
113	0xb98fc385	-0.0002742076
114	0x3bd2e493	0.0064359396
115	0x3be268b2	0.0069094533
116	0xbbdfe9cd	-0.006833291
117	0xbc4410c6	-0.01196689
118	0xbc91ea7f	-0.017812012
119	0xbc0e15c0	-0.008672178
120	0x3bcf2f92	0.0063228095
121	0xbbfc5267	-0.007700253
122	0x3a12d0a5	0.00056005485
123	0x3b7fdec3	0.0039042688
124	0x3c6d4245	0.014481132
125	0xbbc80e0b	-0.0061051897
126	0x3ab99fbf	0.0014161988
127	0x3c11293d	0.00885993
128	0xbc36449f	-0.011124759
129	0xbafbeaff	-0.0019219815
130	0xbaf5bf2a	-0.0018748988
131	0x3c093d91	0.008376495
132	0x3be649e2	0.0070278505
133	0x3c00fa63	0.007872197
134	0x3c3d20df	0.011543482
135	0x3c691753	0.014226752
136	0x3ba90ec4	0.005159231
137	0xbba18cbf	-0.0049301083
138	0xbb35bbcb	-0.0027730342
139	0x3c66629a	0.014061594
140	0x3c0ce8a0	0.008600384
141	0xbb8a23f8	-0.0042157136
142	0xb9abec86	-0.00032791885
143	0xbc12128f	-0.0089155575
144	0x3c07e855	0.008295138
145	0xb94b1b3c	-0.00019369734
146	0xb98f4143	-0.0002732371
147	0x3be05a5d	0.0068467096
148	0x3c6b3ae3	0.014357301
149	0xbb7f1b9b	-0.0038926366
150	0x3bab7e82	0.0052335868
151	0x3c0925bb	0.008370812
152	0x3b5c8f00	0.003365457
153	0xbbd85bc5	-0.0066027367
154	0xbb3373f1	-0.002738234
155	0xbc03f5a1	-0.008054168
156	0xba0cb25d	-0.00053671544
157	0xbb446422	-0.002996691
158	0xbb681e78	-0.0035418551
159	0x3c013c13	0.007887858
160	0x3bf290b3	0.0074025034
161	0xbbdd0123	-0.0067445203
162	0xbc315923	-0.0108244745
163	0xbbb61263	-0.005556391
164	0xbc0dd7c7	-0.008657402
165	0xbbd61c85	-0.0065341615
166	0xbbbf9d97	-0.0058476436
167	0x3c122d5b	0.008921946
168	0xbbc539a4	-0.006018834
169	0x3c26389d	0.010145334
170	0xbbe12508	-0.0068708695
171	0x3b89874b	0.0041970364
172	0xbbd834c3	-0.0065980866
173	0xbad444cd	-0.0016194821
174	0xbb3fee9f	-0.0029286516
175	0x3c5161c7	0.01277966
176	0x3b4dc542	0.0031398092
177	0x3b175d62	0.0023096432
178	0xbba0b4e4	-0.0049043763
179	0x3aa1c601	0.0012342335
180	0x3b1eeef3	0.0024251312
181	0xbba94fe4	-0.0051669944
182	0xbc3756c3	-0.011190119
183	0x3c04f8e4	0.008115981
184	0x3c495dd4	0.012290437
185	0x3be3b1d5	0.0069486895
186	0xbae03a1b	-0.001710716
187	0xbc69b4a0	-0.014264256
188	0x3b683422	0.0035431464
189	0xbacbbc96	-0.0015543874
190	0xbc3d5d31	-0.011557863
191	0xbb93ee0b	-0.004514461
192	0x3bbd2873	0.005772644
193	0x3b8fa788	0.004383985
194	0xbc040135	-0.008056928
195	0xba63523a	-0.00086716155
196	0x3b440d51	0.0029915164
197	0xbc83e07a	-0.01609825
198	0x3b222195	0.0024739255
199	0xbc14dd8c	-0.009086024
200	0x3bf2bd27	0.0074078026
201	0xbc140177	-0.009033552
202	0x3b8e5bf7	0.004344459
203	0x3b2d7c57	0.0026471817
204	0xbbd2b4ef	-0.0064302604
205	0xbca9c840	-0.02072537
206	0xbc501dbf	-0.0127024045
207	0x3bd7536d	0.0065712244
208	0x3b98b8b0	0.0046606883
209	0xbb82bcd7	-0.0039897966
210	0x39118abd	0.00013879962
211	0xbb480697	-0.0030521506
212	0xbc139bef	-0.009009345
213	0x3b7ea075	0.0038852964
214	0xbc8e1aae	-0.017346706
215	0xbc089f0f	-0.008338704
216	0x3b329f45	0.0027255577
217	0xbc081599	-0.0083059305
218	0x3b0f2db0	0.00218473
219	0xbc31ccdb	-0.010852064
220	0x3c00ea33	0.007868337
221	0xbb97fa94	-0.0046380255
222	0x39c38367	0.000372912
223	0x3c0a1d67	0.008429862
224	0xbc384267	-0.0112463
225	0xbbb8e4dc	-0.0056425165
226	0xbb81f0ce	-0.0039654737
227	0xbabc88fa	-0.0014384084
228	0x3b1b4716	0.0023693494
229	0x3be4a1c3	0.0069772913
230	0xba7f1f53	-0.00097321457
231	0xbc8a5be1	-0.016889514
232	0x3b864aa8	0.004098255
233	0x3b7df345	0.0038749736
234	0x3bcdc3d5	0.0062794485
235	0x3c1f19df	0.009710758
236	0xbb5f7138	-0.0034094583
237	0xba13d5ff	-0.0005639493
238	0x3bd5d7cb	0.0065259687
239	0x3af76467	0.0018874527
240	0x39bed59a	0.0003639877
241	0xbadc5603	-0.0016810301
242	0x3bf47fc7	0.0074615213
243	0xb6892efb	-4.0883874e-06
244	0xbbcdd670	-0.0062816665
245	0xbb10c3da	-0.0022089393
246	0x3ba50a27	0.0050366106
247	0xbbcdea63	-0.0062840446
248	0x3c9f0ce1	0.01941532
249	0x3cb4ba52	0.0220615
250	0xbb213168	-0.0024596099
251	0xbc0b94ae	-0.008519335
252	0x3afb7137	0.0019183521
253	0x3bc4f287	0.006010357
254	0xbb09d44f	-0.0021031087
255	0xbb90dd3c	-0.0044209044

action_model._discrete_distribution.branches.0.bias f4 [2]
0	0x00000000	0.0
1	0x00000000	0.0

action_model._discrete_distribution.branches.1.weight f4 [2, 128]
0	0xbb4bb722	-0.0031084497
1	0xbc140aac	-0.0090357475
2	0xbbfa4cbb	-0.0076385415
3	0x3bc74290	0.006080933
4	0x3c4ec447	0.012620038
5	0x3b1d68ff	0.0024018881
6	0x3c7ee733	0.015558052
7	0x3c6fbd67	0.014632559
8	0xbbbeac36	-0.005818869
9	0x3b5bdb90	0.0033547617
10	0x3c7470ca	0.014919469
11	0xbc4f0dbf	-0.012637555
12	0x3c117b0c	0.008879434
13	0x3c0f1e17	0.008735201
14	0x3b2fb055	0.0026807983
15	0x3b5728d2	0.0032830727
16	0x39a02a0a	0.000305489
17	0xb91ef81b	-0.0001516048
18	0x3c5306fb	0.012880082
19	0xbb9092b3	-0.004412019
20	0x3acc3e3b	0.0015582511
21	0x3acab5f7	0.0015465607
22	0x3c387db7	0.0112604415
23	0x3cc3b7d5	0.023891369
24	0xbc6c75b0	-0.014432356
25	0xbc004cf7	-0.00783085
26	0xbbd74152	-0.006569066
27	0xbc35cc2a	-0.01109604
28	0xbb684fc3	-0.0035447932
29	0xbb960b64	-0.0045789946
30	0x3b9a567d	0.0047100172
31	0x3b7f3340	0.003894046
32	0xba814c8f	-0.0009864735
33	0x3bb69b11	0.0055726846
34	0x3b9db081	0.0048123007
35	0xbbb28937	-0.005448486
36	0xbb95657d	-0.0045592175
37	0xbbc44d0e	-0.005990631
38	0xbcaea203	-0.021317488
39	0x3bbdc417	0.005791198
40	0x3c5f0e32	0.013614224
41	0x3bc01957	0.0058623957
42	0x3bb4188d	0.0054960907
43	0xba9d78b5	-0.0012014123
44	0xbc150d0e	-0.009097351
45	0x3be2b0bb	0.0069180406
46	0xbab3cf25	-0.001371835
47	0x3c496208	0.012291439
48	0xbb28db55	-0.0025765498
49	0xbc12eb49	-0.008967229
50	0xbc354dfa	-0.011065954
51	0xbc3407bf	-0.010988175
52	0x3b8e8656	0.00434951
53	0xbbae0232	-0.0053103203
54	0x3bfecfe5	0.007776248
55	0xbacacea6	-0.0015472963
56	0x3bacd051	0.0052738567
57	0x3bfd5b08	0.007731799
58	0xbada15ea	-0.0016638611
59	0x3b3ca239	0.0028783216
60	0xbbcb3697	-0.006201576
61	0xbb38287d	-0.0028100305
62	0xbc307bbc	-0.010771688
63	0xbbd6b303	-0.0065521016
64	0xbb28c3cd	-0.0025751472
65	0xbc859b6c	-0.016309462
66	0x3c9cda66	0.01914711
67	0xba8d63ff	-0.0010787247
68	0xbba9afd4	-0.005178431
69	0x3c0f6257	0.008751473
70	0x3bb2dd22	0.00545849
71	0xbb8de40c	-0.004330164
72	0x3b5ff28a	0.0034171664
73	0x3ba45a1d	0.005015625
74	0x3c5e582b	0.013570826
75	0xbc057c90	-0.008147374
76	0x3bb17b2d	0.005416295
77	0xbaef3e0a	-0.0018252742
78	0xbba88ee8	-0.005143989
79	0x3ccefb15	0.02526621
80	0xbc10c57d	-0.008836147
81	0xbbbb9a01	-0.005725146
82	0xbbd37897	-0.0064535844
83	0x3b99e207	0.004696134
84	0xbba1dd9e	-0.004939749
85	0x3b08acf3	0.002085504
86	0xbbac5352	-0.005258956
87	0xbbe61e7d	-0.0070226775
88	0xbc859fc3	-0.016311532
89	0x3982108c	0.0002480786
90	0x3a9ea57d	0.0012103763
91	0x39950dc3	0.00028429748
92	0x3bea76c5	0.0071552717
93	0xbbc7acd7	-0.006093602
94	0xbb4a6e38	-0.003088845
95	0xbc38f818	-0.011289619
96	0xbb4a1d27	-0.003084013
97	0x3c546e3b	0.012965734
98	0xbb887beb	-0.004165163
99	0xbac0b40d	-0.0014702097
100	0x3b706977	0.0036683956
101	0xbba6af8c	-0.005086845
102	0x3b8f80d7	0.0043793726
103	0x3b34ab76	0.002756802
104	0xbc84fa42	-0.016232613
105	0x3be51f38	0.006992247
106	0x3afd60bf	0.0019331201
107	0x3b5ef300	0.003401935
108	0xbc56f837	-0.0131207025
109	0x3bb9cd2c	0.0056702103
110	0xbbcd5da8	-0.006267268
111	0x3b44bc43	0.003001944
112	0x3ca6b7ae	0.020351257
113	0x3bcde65b	0.006283564
114	0x3c306100	0.010765314
115	0xbbd20417	-0.006409179
116	0x3caee587	0.021349682
117	0x3b98d70f	0.004664309
118	0x3c9a8e43	0.018866664
119	0xbc39124b	-0.011295865
120	0x3c10d5df	0.008840053
121	0xbc0ed7e3	-0.008718464
122	0xbbf68bd7	-0.0075239944
123	0xbc253afc	-0.010084864
124	0xbb00789d	-0.001960314
125	0x3bf23b63	0.0073923334
126	0x3b8e8af1	0.004350059
127	0x3aa4ea4c	0.0012582033
128	0x3c353f17	0.011062405
129	0x3c057b59	0.008147084
130	0x3c03d2fb	0.008045907
131	0x3ac8e056	0.0015325646
132	0xbbcea50a	-0.0063062953
133	0x3c101477	0.008793942
134	0xbadf4ea3	-0.0017036985
135	0x3c008e1f	0.007846384
136	0x3c679268	0.014134027
137	0x3c7b9c18	0.01535704
138	0xbba07dc3	-0.0048978045
139	0xbb16ad1f	-0.0022991372
140	0x3a0f47ee	0.00054657354
141	0x3ad310bf	0.0016103013
142	0x3c205b56	0.009787401
143	0x3bbfd205	0.0058538937
144	0xba57886f	-0.00082219293
145	0x3be24f68	0.0069064386
146	0x3b5fd030	0.003415119
147	0x3be9f8a8	0.007140238
148	0xbc19d98d	-0.009390247
149	0xba721a7b	-0.0009235513
150	0xbb1b85b1	-0.002373081
151	0x3c1e323f	0.009655534
152	0xbc953bb7	-0.01821695
153	0x3b0593bc	0.0020382246
154	0xbb00110e	-0.0019541415
155	0x3c3954ba	0.011311704
156	0xbb6b0ecd	-0.0035866976
157	0x3be709fd	0.0070507512
158	0x3c38a0f3	0.011268842
159	0xbb6b3d5b	-0.0035894725
160	0xbc73e343	-0.014885726
161	0xbcab9aaf	-0.020947782
162	0xbc2994ad	-0.0103503885
163	0x3b9ff0ca	0.004880999
164	0xbb9dd4df	-0.004816636
165	0xbbcc13e5	-0.0062279576
166	0x3b2d9b0e	0.0026490125
167	0x3bf4faea	0.0074762003
168	0xbbe8fe2b	-0.0071103773
169	0x3b4b63d6	0.0031034849
170	0xbc1f7aa8	-0.009733833
171	0xbbaab49c	-0.0052095186
172	0x3c6ca780	0.014444232
173	0xbbabe467	-0.0052457335
174	0x3c0c5bbf	0.008566796
175	0xbbde7a0f	-0.006789453
176	0x3bc02772	0.0058640772
177	0xbaf3e7ff	-0.0018608569
178	0x3b92ac72	0.0044761235
179	0x3bae182f	0.0053129415
180	0x3b5f66c7	0.003408836
181	0xbc27b2cb	-0.010235499
182	0xbc31539f	-0.0108231595
183	0x3bd5604d	0.006511724
184	0x3c5576cd	0.013028813
185	0x3a5bfac3	0.00083915534
186	0xbbf3d74b	-0.0074414364
187	0x3c3b8732	0.011445807
188	0x3ae958b3	0.0017802924
189	0x3c09d6d0	0.008413032
190	0x3ab19ee3	0.001355138
191	0x3c3dc861	0.011583419
192	0x3995f07b	0.00028598667
193	0x3c0889ad	0.008333606
194	0xbc6f0575	-0.014588703
195	0x3c6d16a5	0.014470731
196	0x39a55a2e	0.00031538442
197	0xbad171a3	-0.0015979301
198	0xbb413d13	-0.0029485866
199	0xbaf6e6d5	-0.0018837104
200	0xbb8c203f	-0.004276305
201	0x3a6708ed	0.0008813281
202	0x3c427533	0.011868763
203	0xbad33db2	-0.0016116409
204	0xbb9c2575	-0.0047652074
205	0xbc2799a8	-0.010229506
206	0x3c5bcced	0.013415557
207	0xbc31d7c6	-0.010854667
208	0x3bf5dce5	0.0075031393
209	0x3c0525fd	0.008126733
210	0x3babd50c	0.005243903
211	0x3c025f7b	0.007957335
212	0x3be4f2fa	0.006986973
213	0x3c319bba	0.010840351
214	0x3c456ec8	0.012050338
215	0x3c0acfa1	0.008472354
216	0xbc8803e4	-0.016603418
217	0x3c4f012f	0.01263456
218	0xbbf5e958	-0.0075046234
219	0xbbcf22a2	-0.006321267
220	0xbc5bd217	-0.013416789
221	0xbb5207d0	-0.0032048114
222	0x3cb0175f	0.02149552
223	0x3a5e3fbf	0.0008478127
224	0xbc92037c	-0.017823927
225	0x3c12156b	0.008916239
226	0x3abeb9f7	0.0014551271
227	0x3c7c73fd	0.015408513
228	0xbb073f25	-0.0020637002
229	0xb9bec32b	-0.00036385035
230	0xbc0249ff	-0.007952212
231	0xbc08aa31	-0.008341358
232	0xbb544092	-0.003238712
233	0xbbe49cdf	-0.0069767083
234	0xbc553ebb	-0.013015444
235	0x3c4f2363	0.012642714
236	0xba913b1e	-0.001108024
237	0xbc4c2f63	-0.01246247
238	0xba6ecff0	-0.00091099646
239	0xb991e6b5	-0.00027828445
240	0xba955237	-0.00113923
241	0xbbcf9362	-0.006334708
242	0xbbda715f	-0.006666347
243	0x3c6fd2b0	0.014637634
244	0xbbeca1d8	-0.0072214417
245	0x39833ee3	0.0002503312
246	0xbc7b8a87	-0.015352852
247	0x3c835118	0.01602988
248	0x3c2a39d3	0.010389763
249	0xbbe01f9a	-0.0068397047
250	0x3c0dfd17	0.008666298
251	0xbb40ae7b	-0.0029400873
252	0xbcba9537	-0.02277623
253	0x3c543ddf	0.012954204
254	0x3b1cd49a	0.0023930431
255	0x3b9ae0dc	0.0047265124

action_model._discrete_distribution.branches.1.bias f4 [2]
0	0x00000000	0.0
1	0x00000000	0.0

action_model._discrete_distribution.branches.2.weight f4 [2, 128]
0	0x3c992fb7	0.01869951
1	0x3bd9ae0b	0.006643062
2	0xbc305282	-0.010761859
3	0xb9d7a4d2	-0.00041130796
4	0x3ac3ae75	0.0014929312
5	0x3ac3d0ef	0.0014939586
6	0xbc485e90	-0.012229577
7	0xbbf6b16b	-0.007528474
8	0x3beb9485	0.007189336
9	0xbb35d6cf	-0.0027746444
10	0xbae55e40	-0.0017499402
11	0xbc951adb	-0.018201282
12	0xbb898524	-0.00419678
13	0xbc0789b7	-0.00827258
14	0x3c0bb5dc	0.008527245
15	0xbca6b5de	-0.020350393
16	0x3b5bd0d2	0.0033541215
17	0x3c56e7b2	0.013116764
18	0x3b5f03a7	0.0034029277
19	0xbc276973	-0.010218012
20	0x3bdeea0f	0.0068028043
21	0x3cb3593b	0.021893134
22	0xbc684333	-0.014176178
23	0x3c09f31b	0.008419777
24	0x3bcb56db	0.0062054223
25	0x3b0242d3	0.0019876256
26	0x3c647973	0.013944971
27	0xbc7e5e13	-0.015525359
28	0x3bac9aed	0.005267492
29	0xbbba9faf	-0.0056953053
30	0x3af8b4a0	0.0018974729
31	0x3c23fd79	0.010009163
32	0x3b22a97b	0.0024820257
33	0x3afce797	0.0019295093
34	0xbc077b3e	-0.008269129
35	0xbb5fe5d7	-0.0034164095
36	0xbca996cd	-0.02070179
37	0x399edebb	0.00030302056
38	0x3a24dc33	0.0006288916
39	0xbb4cefdd	-0.00312709
40	0xbcaae979	-0.020863282
41	0xbc9f66bf	-0.019458173
42	0xbad4a067	-0.001622212
43	0x3b46a773	0.003031221
44	0xbc1a64ef	-0.0094234785
45	0x3c390eb8	0.011295013
46	0xbbfd8d7d	-0.007737814
47	0xbc0158e5	-0.007894729
48	0x3bbed8e5	0.0058241957
49	0x3c8c5303	0.017129427
50	0x3c91359c	0.017725758
51	0x3bc007d8	0.00586031
52	0xbb5e9628	-0.0033964012
53	0x3b5fdb47	0.00341578
54	0xbc0fc34f	-0.008774593
55	0x3b62fb03	0.0034634478
56	0x3be324f3	0.006931895
57	0x3a710b55	0.0009195109
58	0x3bb7af17	0.005605589
59	0xba9be19b	-0.0011892797
60	0xb968271b	-0.00022139812
61	0x3bf51652	0.0074794674
62	0xbc728922	-0.014803203
63	0xbb68bb5f	-0.0035512072
64	0x3ba0821e	0.0048983237
65	0x3c335fa7	0.010948098
66	0x3b0f6364	0.002187931
67	0xbb3bd97d	-0.0028663569
68	0x3bda5708	0.006663207
69	0xbb8f8740	-0.0043801367
70	0x3b00d70e	0.0019659433
71	0xbbbe2327	-0.0058025303
72	0xbb858615	-0.0040748217
73	0x3c139f34	0.009010125
74	0x3c88dc62	0.01670665
75	0xb8ffefe5	-0.000122040314
76	0x3bbfb8b8	0.0058508776
77	0x3b81b6a9	0.0039585424
78	0x3b58de40	0.0033091456
79	0xbbc5cdf7	-0.006036516
80	0xbc8459dd	-0.016156131
81	0x3b20aa43	0.0024515546
82	0x3b190889	0.0023351035
83	0xbc61f06d	-0.013790232
84	0x39a60929	0.00031668812
85	0xbc2b5fff	-0.010459899
86	0xbc1b0d64	-0.009463642
87	0x3a8f308b	0.0010924501
88	0x3ca23a8c	0.019803308
89	0x3c32b0f5	0.010906448
90	0x3b1add27	0.0023630352
91	0xbc09fec5	-0.008422558
92	0x3c1f1d8f	0.009711637
93	0xbb904b69	-0.004403521
94	0xbac9b052	-0.001538763
95	0xbb6dbe12	-0.003627662
96	0xbb8ad82f	-0.004237197
97	0xbaf2f282	-0.0018535408
98	0x3bfbffba	0.007690397
99	0xbca18b6e	-0.019719806
100	0xbc19546e	-0.0093585085
101	0x3a639b78	0.00086825294
102	0x3b52d5d3	0.0032170906
103	0xbc082903	-0.008310559
104	0x3c429b43	0.011877838
105	0xbb91ed77	-0.004453357
106	0x3b88e219	0.0041773436
107	0x3aafca11	0.0013411661
108	0x3af14130	0.0018406268
109	0xbc0cfa50	-0.008604601
110	0xbba461b9	-0.0050165323
111	0xbbff1faa	-0.007785757
112	0xbb279184	-0.0025568912
113	0xbc35447e	-0.011063693
114	0xbc1a1b25	-0.009405886
115	0x3bf00c8f	0.007325716
116	0xbbbbbb22	-0.005729095
117	0xbc4e8f62	-0.012607427
118	0x3c57f07d	0.0131798955
119	0x3aac258b	0.0013133747
120	0xbb1c485e	-0.0023846845
121	0x3b805749	0.003916655
122	0x3bbf74d3	0.005842784
123	0x3b702aa8	0.003664652
124	0xbbfdeed3	-0.0077494173
125	0xbc0e1a79	-0.008673304
126	0x3b9d6e12	0.004804381
127	0x3c1491e5	0.009067987
128	0xbbbaaafd	-0.005696653
129	0x3c2d74ff	0.010586976
130	0xbbd8fd52	-0.006621995
131	0x3c57fe3a	0.013183171
132	0x3babe733	0.005246067
133	0x3bec9a4d	0.0072205425
134	0x3ab8454e	0.001405874
135	0x3c875635	0.016520599
136	0xbbb8b99b	-0.0056373603
137	0x3c259a46	0.010107582
138	0x3bb8444f	0.0056233774
139	0xbb4e58a2	-0.0031485935
140	0x3c9081d7	0.017640037
141	0x3bf0a17f	0.0073434706
142	0xbc00be03	-0.007857802
143	0x3af2fb68	0.001853806
144	0xbc2e450c	-0.010636579
145	0x3bc20377	0.005920823
146	0xbadb43cd	-0.001672858
147	0xbae19928	-0.0017211782
148	0x3bdd463d	0.006752758
149	0x3ae45013	0.0017418884
150	0xbb418297	-0.00295273
151	0xbb2e75d6	-0.0026620529
152	0x3c538a5f	0.012911408
153	0x3bd16f88	0.0063914694
154	0xbab632de	-0.0013900658
155	0x3b2cba69	0.0026356226
156	0xbcc9829f	-0.024598418
157	0xbc03510c	-0.008014929
158	0xbbd14658	-0.0063865595
159	0xb998de23	-0.00029157204
160	0xbc577ff3	-0.013153064
161	0xbbea3b35	-0.0071481713
162	0xbc832447	-0.01600851
163	0xbc6710b0	-0.0141031
164	0x3bc79dfe	0.006091832
165	0xb9f37cca	-0.00046441547
166	0x3b2bdd11	0.0026224295
167	0x3bd7a6f8	0.0065811835
168	0x3ba5c279	0.0050585833
169	0x3b6f71af	0.0036536267
170	0xbbcf8637	-0.0063331383
171	0xbbd57e8a	-0.006515329
172	0xbc1cdc49	-0.009574004
173	0x3bd80b22	0.006593124
174	0x3b80e5d4	0.0039336476
175	0x3bc1b673	0.005911642
176	0xba73c2ff	-0.0009298771
177	0xbae17da0	-0.0017203577
178	0xba489683	-0.00076518225
179	0xbc2347f4	-0.009965885
180	0x3c903ae7	0.017606212
181	0x3bea7f9f	0.007156327
182	0xbc57eb63	-0.013178679
183	0x3c4aa2af	0.012367888
184	0xbcac8031	-0.02105722
185	0xbc285c4b	-0.010275911
186	0xbc497531	-0.012296007
187	0x3c443c2d	0.011977238
188	0x39f75ec5	0.0004718212
189	0x3c2e46b1	0.010636971
190	0x3be3392f	0.006934307
191	0x3b8099e6	0.003924596
192	0x3b354ab3	0.0027662932
193	0x3aad7ec3	0.001323663
194	0xbba1d676	-0.004938896
195	0xbb9a3a90	-0.004706688
196	0x3a80444b	0.0009785978
197	0x3bb65253	0.005564013
198	0x3b02beb4	0.0019950094
199	0x3b8e434d	0.004341519
200	0xbc3e6917	-0.011621735
201	0x3afe43ef	0.0019398908
202	0xbc10658f	-0.008813276
203	0x3c716635	0.014733841
204	0xbbe8cbc5	-0.0071043693
205	0xbb2935fb	-0.0025819528
206	0xbb9b92e3	-0.004747735
207	0xbb822a20	-0.003972307
208	0xbb3b0544	-0.0028537074
209	0x3c8273ac	0.015924297
210	0x3a000b02	0.0004884453
211	0x3c034b3a	0.008013541
212	0xba4f5808	-0.0007909541
213	0x3c3ee6bb	0.01165169
214	0x3b9e7e7e	0.0048368564
215	0xbb7c4018	-0.0038490351
216	0x3a4557b4	0.00075280224
217	0xbc532d1a	-0.012889171
218	0x3bf3929b	0.007433248
219	0xba22aaa4	-0.0006205237
220	0x3c1959ab	0.009359757
221	0xbb0061e6	-0.0019589602
222	0x3c0473aa	0.008084217
223	0x3b900769	0.0043954146
224	0x3b9f58f0	0.004862897
225	0x3c15c4ca	0.009141156
226	0x3bbbdeb7	0.005733337
227	0xba5006d8	-0.000793559
228	0xbbdabdf8	-0.006675478
229	0xbbb5f68d	-0.005553073
230	0x3c388ab8	0.011263542
231	0xba2b3f3d	-0.00065325556
232	0xbbfb3bf2	-0.007667058
233	0x3c5d1623	0.013494047
234	0x3c44db77	0.012015215
235	0xbc11ebe7	-0.008906341
236	0x3c33a1b7	0.010963849
237	0xbbad9084	-0.0052967686
238	0x3c0a21ec	0.008430939
239	0x3bc0c057	0.0058823037
240	0xbc264b6d	-0.010149819
241	0xbbed3d08	-0.0072399415
242	0xbb8289dd	-0.0039837197
243	0x3bd1200f	0.0063819955
244	0xbb45a571	-0.0030158425
245	0xbbfcd4d5	-0.0077158012
246	0x3c47212e	0.012153907
247	0xbc3c9313	-0.011509675
248	0xbb81b2d1	-0.003958084
249	0x3beb00a2	0.0071717063
250	0xbbcee7d2	-0.006314256
251	0xb9fb90d8	-0.00047982368
252	0xbcf17cd8	-0.029478475
253	0x3aa7ca2b	0.001280134
254	0x3aeab70a	0.0017907333
255	0xbc02392b	-0.0079482

action_model._discrete_distribution.branches.2.bias f4 [2]
0	0x00000000	0.0
1	0x00000000	0.0

action_model._discrete_distribution.branches.3.weight f4 [2, 128]
0	0x3b7b07f3	0.0038304299
1	0xbb6270fd	-0.003455221
2	0xbc39f1cf	-0.011349156
3	0x3c076f30	0.008266255
4	0xbc408059	-0.0117493505
5	0x3c82360b	0.01589491
6	0xbb21b338	-0.0024673473
7	0x3c072e3f	0.008250772
8	0xbc0afebc	-0.008483585
9	0xb9a2ce48	-0.0003105274
10	0x3ab483af	0.0013772155
11	0xbb9224c9	-0.0044599515
12	0xbac1d2b5	-0.0014787527
13	0xbc065221	-0.008198292
14	0xbbadd6a0	-0.0053051263
15	0x3beaed10	0.0071693733
16	0x39f6949d	0.00047031502
17	0x3b8cfe5c	0.004302783
18	0xbc912cd4	-0.017721571
19	0x3ca07547	0.019587172
20	0x3ba015b2	0.004885399
21	0xbb912ff1	-0.004430764
22	0xbbfc883d	-0.0077066706
23	0xbc51517d	-0.012775776
24	0xbc4e96fa	-0.012609238
25	0xbb3ea0c9	-0.0029087535
26	0x3c2966da	0.010339463
27	0x3b4dc715	0.003139918
28	0xba53741a	-0.0008066312
29	0xbc059d47	-0.008155174
30	0x3c418ade	0.011812894
31	0x3c669cff	0.014075517
32	0xbafb5262	-0.0019174332
33	0x3bfa27e2	0.007634149
34	0x3a19939c	0.00058584823
35	0x3c0edcd9	0.008719646
36	0x3c5a1d40	0.013312638
37	0x3c14e9da	0.009088958
38	0x3c8a0962	0.016850177
39	0xbb30bbd7	-0.002696743
40	0xbc1cc15b	-0.009567584
41	0xbb07c09f	-0.0020714176
42	0xbab2b9f7	-0.0013635744
43	0x3b96510b	0.004587298
44	0x3c547ee5	0.012969707
45	0xbc673308	-0.014111288
46	0x3bb58c11	0.005540379
47	0xbc3a31c3	-0.011364403
48	0xbb626002	-0.0034542088
49	0x3b85e85e	0.004086538
50	0xbb3e1897	-0.0029006356
51	0x3c022b4e	0.007944895
52	0xbc05c3a5	-0.008164321
53	0xbc70bd0f	-0.014693513
54	0xbc3ee22e	-0.011650605
55	0x3b1b9cc5	0.0023744565
56	0xbaf1efb0	-0.0018458273
57	0xbbab5b6b	-0.0052294037
58	0x3b9bc960	0.0047542304
59	0x3b438ea3	0.0029839657
60	0xbb43d663	-0.0029882423
61	0x3c39c88d	0.011339319
62	0xbb7891f2	-0.0037928787
63	0x3bae8c40	0.0053267777
64	0xbbb399d7	-0.0054809856
65	0x3c1da73d	0.009622392
66	0xbc35493f	-0.0110648265
67	0xbccd132d	-0.025033558
68	0xbbc5a673	-0.006031805
69	0x3c131783	0.008977774
70	0x3c2adef3	0.010429132
71	0xbaf76f23	-0.0018877726
72	0x3b3a7bb6	0.0028455085
73	0x3becddab	0.0072285733
74	0x3aa351de	0.0012460311
75	0x3c09c97f	0.008409857
76	0x3ba088fd	0.004899143
77	0x3bb7a8a8	0.005604822
78	0x3c06cb61	0.0082272
79	0x3c16a66b	0.009194951
80	0xba3973ad	-0.0007074427
81	0xbbe43eba	-0.0069654854
82	0x3b6e07c8	0.0036320556
83	0xbb8af5c8	-0.004240725
84	0x3b2293e6	0.0024807393
85	0x3b4c0d83	0.0031135983
86	0x3b8b5a1f	0.0042526866
87	0x3c18f02e	0.009334607
88	0xbaf0a7f8	-0.0018360605
89	0xbbe5060f	-0.0069892476
90	0xbb8a740b	-0.004225259
91	0x3b2b255b	0.0026114795
92	0xbb531e02	-0.003221393
93	0x3be093ab	0.006853541
94	0x3bc3e1c0	0.005977839
95	0xba27c156	-0.0006399354
96	0x3ca4c627	0.020114018
97	0x3a9d442d	0.0011998467
98	0x3c078753	0.00827201
99	0xbc083827	-0.008314169
100	0x3c1ce667	0.009576417
101	0xbc397c80	-0.011321187
102	0x3b415c28	0.0029504392
103	0xbaba600b	-0.0014219297
104	0xbb8c8074	-0.0042877737
105	0x3bfc097d	0.007691561
106	0xbb84c620	-0.0040519387
107	0x3be15083	0.006876053
108	0x3be0ac33	0.0068564652
109	0x3c1993c5	0.00937361
110	0xbbaff580	-0.005369842
111	0xbbf8aa9b	-0.007588697
112	0x3c01b7db	0.00791737
113	0xbaf1b192	-0.0018439761
114	0xba887bd8	-0.0010412885
115	0xbc0e3960	-0.008680671
116	0xbbfb0690	-0.0076606944
117	0xbb56b9d5	-0.0032764573
118	0x3ba1da63	0.004939364
119	0xbb2d3542	-0.002642945
120	0x3bf5e1d3	0.007503727
121	0x3b879c78	0.0041385256
122	0xbb94050a	-0.0045172023
123	0x3acdade2	0.001569208
124	0x3c1a1a1f	0.009405642
125	0x3c211aaf	0.009833022
126	0x3be6702f	0.0070324163
127	0x3c020f61	0.007938237
128	0x3c884aaf	0.016637174
129	0xbbaa71e0	-0.0052015632
130	0xbc27a5ab	-0.010232369
131	0xbbbb9006	-0.005723956
132	0x3a7b3fc7	0.00095843937
133	0x3b9e9d0b	0.0048404983
134	0x3b466cef	0.0030277332
135	0xbbbcf49c	-0.0057664644
136	0xbc53cb47	-0.012926883
137	0x3ba43e3c	0.0050123017
138	0x3957848a	0.00020553372
139	0x3b851ee5	0.004062521
140	0xbcc4890f	-0.023991136
141	0x3c183c05	0.0092916535
142	0x3b009a3a	0.0019623176
143	0x3c019854	0.007909853
144	0xbac74a54	-0.0015204647
145	0x3c131824	0.008977924
146	0x3c0bfb05	0.008543734
147	0xbcb7a5af	-0.022417871
148	0xbb1f0e7d	-0.002427011
149	0xbb3dcb48	-0.0028960276
150	0xbc00dad4	-0.007864673
151	0xba768b1b	-0.00094048836
152	0xbc0c61b5	-0.008568217
153	0x3ba90649	0.00515822
154	0x3c41a1fc	0.011818405
155	0x3aae40f7	0.0013294508
156	0xbc16f7e3	-0.009214374
157	0x3b79ba93	0.0038105592
158	0xbc9d00b7	-0.01916538
159	0x3c063943	0.008192363
160	0xbc2bd57e	-0.010487912
161	0x3c80b56b	0.015711507
162	0x3bd9afc0	0.0066432655
163	0xbbad95ca	-0.0052973973
164	0x3b463b26	0.0030247658
165	0xbad18080	-0.001598373
166	0x3b8ae213	0.004238376
167	0xbbe6c433	-0.0070424317
168	0xbc1ca74e	-0.009561373
169	0x3bc1eea3	0.0059183403
170	0xbbad794f	-0.005294002
171	0xbc1006c9	-0.00879068
172	0xbbe81c2a	-0.0070834355
173	0x3b865cbd	0.0041004107
174	0xbc39def7	-0.011344663
175	0xbb19017e	-0.0023346837
176	0xbaa25945	-0.0012386224
177	0x3af154d8	0.0018412126
178	0xbc9e2bdb	-0.019308021
179	0x3c267447	0.010159559
180	0xbc684922	-0.0141775925
181	0xbbf9db1d	-0.0076249973
182	0x3bd6e4bf	0.0065580304
183	0xbc86c807	-0.016452802
184	0xbc3ace77	-0.011401764
185	0xbb4d8edd	-0.003136567
186	0xbad6c210	-0.001638474
187	0x3c56bf80	0.013107181
188	0xba885c4f	-0.0010403487
189	0x3b40d1d1	0.0029421935
190	0x3c1c945d	0.009556857
191	0xba954dc9	-0.001139098
192	0xb92a3898	-0.00016233546
193	0x3b979f57	0.004627149
194	0xbc662e6a	-0.014049152
195	0xbb653dbd	-0.0034979426
196	0x3c3ccb58	0.01152309
197	0xbc22c82c	-0.00993542
198	0x3c20c8fe	0.009813545
199	0x3c682985	0.014170055
200	0xba2423dc	-0.0006261447
201	0xbd09fb4d	-0.033686925
202	0x3aa5d619	0.0012652307
203	0xbc1ad173	-0.009449351
204	0x3c4f55a2	0.012654694
205	0xbc034f5f	-0.008014529
206	0xbc80054c	-0.015627526
207	0x3c169857	0.009191594
208	0x3c74ed7d	0.0149492
209	0x3c3e7041	0.011623443
210	0xbc4db0ab	-0.012554328
211	0x3bd90fd2	0.0066242004
212	0x3c74a5b3	0.014932084
213	0x3c52a6f8	0.012857191
214	0x3b837793	0.004012057
215	0xbc8b7c68	-0.017027095
216	0xbc2edd09	-0.010672816
217	0x3b9ab628	0.0047214217
218	0xbb8f198e	-0.00436706
219	0x3bb08bdb	0.005387766
220	0xbad22023	-0.0016031306
221	0x3c3cfab3	0.011534381
222	0xbb7613fa	-0.0037548528
223	0x3b713a90	0.0036808588
224	0x3c3df2ce	0.011593534
225	0x3ca56a7f	0.020192383
226	0xbc78165a	-0.015142048
227	0x3c2b6aa6	0.010462439
228	0x3c088491	0.008332388
229	0xbc466086	-0.012107974
230	0x3b84a255	0.004047672
231	0x3c7152fb	0.014729257
232	0x3c49aafc	0.012308832
233	0x3b36b005	0.0027875912
234	0x3ba98703	0.0051735654
235	0xbb4675d9	-0.0030282645
236	0xba6fc040	-0.0009145774
237	0x3c11eac4	0.00890607
238	0x3c89024d	0.01672473
239	0xbb031c63	-0.0020005933
240	0xbc103e61	-0.008803935
241	0x3c083f6c	0.008315902
242	0x3b814037	0.0039444226
243	0x3c2caa4f	0.010538652
244	0xbb88cabf	-0.00417456
245	0xbc533eef	-0.0128934225
246	0x3cb0a905	0.02156497
247	0xbbf3a6ca	-0.0074356543
248	0xbc4c0923	-0.01245335
249	0xb9aa8cb8	-0.0003252977
250	0x3c60724f	0.013699128
251	0xbca0fe6d	-0.01965257
252	0xbb3c41e4	-0.0028725797
253	0xbc44772a	-0.011991302
254	0x3b44c01b	0.003002173
255	0x3c124b5b	0.008929099

action_model._discrete_distribution.branches.3.bias f4 [2]
0	0x00000000	0.0
1	0x00000000	0.0
