Assets/results/ppo/My Behavior/My Behavior-133.pt (torch, 219670 bytes, 38 tensors)

discrete_act_size_vector f4 [1, 14]
00000000: 0000 0040 0000 0040 0000 0040 0000 0040
00000010: 0000 0040 0000 0040 0000 0040 0000 2041
00000020: 0000 2041 0000 2041 0000 2041 0000 2041
00000030: 0000 2041 0000 2041
2.0 2.0 2.0 2.0 2.0 2.0 2.0 10.0
10.0 10.0 10.0 10.0 10.0 10.0

network_body._body_endoder.seq_layers.0.weight f4 [128, 24]
00000000: 0c52 a2bc 5a9a cfbc 5309 2dbd 9c37 4ebd
00000010: 93b4 513d 9206 143e 307f b43e 5d38 a0be
00000020: 01a5 8b3e f869 3f3e 2f8f 12be ff57 74be
00000030: 53ed 32be e7ef 36be 1b89 59be 3a9b c53e
00000040: 34c6 d73b 0573 1a3e 3fe3 12be aaa6 893e
00000050: 2336 f7bd 732f 4fbe 596f 193d 1754 9fbd
00000060: 9db8 2abe 4fe7 973d 78ef 8a3e 44be 6ebe
00000070: f538 f43d 5cd1 5abe 0f5c 753e 0e87 1a3e
00000080: 1ecb b3bd d674 30be 8dfa 29be 34b2 9cbe
00000090: 3373 c6be 052e 04bf f86c 9cbe d735 d53d
000000a0: 80f8 7b3e 0e58 4e3e a121 0f3e 5ccb 813e
000000b0: 1ad1 4a3e 497b 863e 633b 09be 5d13 97be
000000c0: 45a1 9c3e 026b 113d 2583 fdbd 133e fdbd
000000d0: 283b 84bc 2317 14bc fff0 b4be 1bef db3d
000000e0: 6e94 1a3e 1aa9 cebe f42f 653d ddcf 9e3d
000000f0: 9757 14be 5da4 db3b 2263 9e3e 326a 25be
00000100: 5795 9a3e 649b 953e bdce 843c b015 233e
00000110: 2dbf f1bd 044b 903d 1cfa 313e d8a4 4bbe
00000120: da8c 5b3e 6235 2b3e 000d a5bc 247b c3bd
00000130: 70eb 46be 2ef8 8dbe cb6c 37be b9aa a73d
00000140: 7aca b03c a2ae 913e 80e1 433e cdcf a53d
00000150: fa47 9abe da4b 98bc 4759 6ebd e702 16be
00000160: d63b 81be b832 e93d 5bdf 4dbd 9371 2a3e
00000170: 551f 75bd 758a b13e 5af4 0a3e a9eb a2bb
00000180: a926 88be e3c8 5cbb 0106 9e3e 25b0 9c3d
00000190: 4709 68ba 76f9 d4bd 9134 a13d 45a5 643e
000001a0: f50a 59be 2e74 8ebe 5750 2abe 354a 33be
000001b0: 37a5 47bd e42d 83be d822 bd3e ab3b 8dbb
000001c0: febf 493d 7b00 a83c 36d1 eabc 2077 0a3e
000001d0: 9b64 55bd 2438 48be e109 c13d f0b6 0d3d
000001e0: 642c 903d c615 0f3c c86e 23bd 711a f4bd
000001f0: baf4 49be 81b1 debe 610c 00be ef01 ed3c
00000200: bde5 873e 2833 2e3c 6779 b03e d0ea 5ebe
00000210: e6b0 9fbd 6e8e bbbd 1787 2abe 4904 46be
00000220: 4743 9abe c282 8e3d baba 2d3e f38e 15be
00000230: 43be 3d3e a060 253e f8fc d8bd bec8 773c
00000240: f502 bbbd bc35 493e 8c49 10be b15c eb3d
00000250: d174 4e3e 1d68 9abd 6ba2 9cbd 5b1e 42bc
00000260: 4cb7 30be e87c 253e d088 2b3d b134 023e
00000270: 8ec0 2ebe 6500 a5be e840 f2bb 4f39 15bd
00000280: cf9c 81bd d8e5 343e 02e3 8c3d a23f c23e
00000290: b7a3 a53d 715e ae3e 4b33 15be 40e5 a23e
000002a0: 8627 a7bd 30bd 4ebd dd8d d5bd b5ab 38be
000002b0: ec8e 573e ac98 a13d c561 d0be 59d3 3f3d
000002c0: cb2c eb3e c765 e13c 956d 6ebe d7e3 40bd
000002d0: f9c7 943d 4bb4 ad3e 14b6 193e 1373 44be
000002e0: aa56 a8be c725 833d 57b3 cabd 1369 e4bd
000002f0: 8384 37bd 5a30 ad3d 8cb3 2f3e 6d0f dabd
00000300: 603b bcbd 71eb de3d bbd1 05be ad98 f13e
00000310: b72d c8bc 6055 b3bd 73ad 5fbe 9bfe 04bd
00000320: 6f5b 9c3e 622e 2b3e 6559 a0be 3709 60bb
00000330: 81d8 3bbe f550 1cbe d6bd fb3d 207b 443e
00000340: e8ea 90be c558 fbbd ee8c b1be 1e61 993c
00000350: 3c9d ff3d 99e9 413e 9488 89bc 23d4 7f3e
00000360: e515 8a3d b72d 75bd f51c 863d 3c1e c73e
00000370: fec5 22be e081 1abd 258d 1ebe de80 6bbe
00000380: 8073 34be 338e cabd 4e7a febe c399 72be
00000390: b3af be3d 28ca b4be 5078 69bd 0b38 22bd
000003a0: 3cb2 3fbd 0cd3 7abe 1681 bdbb ce0c e6bd
000003b0: d4f1 653e af65 e5bd 33ae 2cbe 6f4a a23e
000003c0: c5b2 0a3e 2169 4c3e 9ae4 273e 623d f9bd
000003d0: 95a9 f73c 10f8 b33d 9a93 c83c 7fec 2dbc
000003e0: 59d2 04bd b8be fc3d e707 f5bd 34fa 70be
000003f0: 58a7 b03d 3e8b 62be 7c34 ce3d ac33 613d
-0.019814514 -0.025342155 -0.04224522 -0.050346002 0.0511976 0.14455631 0.35253286 -0.31293002
0.27274325 0.18692768 -0.14312433 -0.23861693 -0.17473345 -0.17864953 -0.21243708 0.3859499
0.006584907 0.15082939 -0.143445 0.26884967 -0.12070873 -0.20232944 0.037459705 -0.07779711
-0.16671987 0.074171655 0.27135825 -0.23314768 0.11924926 -0.21368927 0.23960899 0.15090582
-0.08778976 -0.1723207 -0.16599484 -0.30604708 -0.38759765 -0.5163272 -0.30551887 0.1041066
0.24606514 0.20150778 0.13977672 0.25350463 0.19806328 0.26265934 -0.1340156 -0.2950696
0.3059179 0.03550244 -0.123785295 -0.12365355 -0.01614149 -0.009038719 -0.35340115 0.10738965
0.15095684 -0.4036339 0.055953935 0.077544905 -0.14486538 0.0067029432 0.30935007 -0.16153792
0.30192062 0.29220116 0.016211862 0.15926242 -0.11804042 0.07045558 0.17380565 -0.19887102
0.2144045 0.16719583 -0.0201478 -0.095449716 -0.1942575 -0.2772841 -0.17912595 0.0818686
0.021580923 0.28453547 0.1912899 0.080962755 -0.3013304 -0.018590856 -0.05819061 -0.14649545
-0.25240964 0.11386627 -0.050261836 0.16644888 -0.059844334 0.34675947 0.13569775 -0.0049719405
-0.26591995 -0.0033689074 0.30863956 0.076507844 -0.000885148 -0.103991434 0.07871354 0.2232867
-0.21195586 -0.27823013 -0.1663221 -0.17508776 -0.048741546 -0.2562095 0.36940646 -0.0043100915
0.049255364 0.020508042 -0.028664213 0.13522005 -0.052097898 -0.19552666 0.094257124 0.03459829
0.07039717 0.008733219 -0.03990057 -0.11919106 -0.19722262 -0.434948 -0.12504722 0.028931586
0.26542464 0.010632314 0.34467623 -0.21769261 -0.077974126 -0.09158026 -0.16653095 -0.19337572
-0.30129454 0.06958534 0.16965762 -0.14605312 0.1852961 0.16150141 -0.10595125 0.015123544
-0.091314234 0.19649404 -0.14090556 0.11492289 0.2016175 -0.07539389 -0.07648166 -0.011848058
-0.17257422 0.16160929 0.04187852 0.12715413 -0.17065641 -0.32226864 -0.0073929913 -0.036431607
-0.06328737 0.17665803 0.06879236 0.37939173 0.08087867 0.34056428 -0.14570348 0.3181553
-0.08161835 -0.050473392 -0.10427449 -0.18034251 0.21050614 0.07890448 -0.40699592 0.046832416
0.45932612 0.027514352 -0.2328399 -0.047092285 0.07264704 0.33926615 0.15010864 -0.19184522
-0.3287862 0.0640369 -0.098974876 -0.11152854 -0.044804107 0.08456488 0.17158335 -0.106474735
-0.091910124 0.10884751 -0.13068287 0.47186795 -0.024435861 -0.08756518 -0.2184351 -0.032469373
0.30538508 0.16716912 -0.31318203 -0.003418518 -0.18344308 -0.15265258 0.12292068 0.19187593
-0.2830422 -0.12272791 -0.34677833 0.018723067 0.12481162 0.18936767 -0.016788758 0.24983267
0.06742457 -0.05985805 0.06548492 0.38890254 -0.1589584 -0.037721515 -0.1548353 -0.22998378
-0.17622185 -0.098904036 -0.49702686 -0.23691468 0.09310856 -0.35310483 -0.056999505 -0.039604228
-0.046800837 -0.2449457 -0.0057832105 -0.11232911 0.22455531 -0.11201035 -0.16863327 0.31697413
0.13544758 0.19961978 0.16395798 -0.12169911 0.03023223 0.087875485 0.024484444 -0.010615467
-0.032427166 0.12341064 -0.11964398 -0.23532945 0.08625668 -0.22123429 0.10068604 0.05498092

network_body._body_endoder.seq_layers.0.bias f4 [128]
00000000: 0000 0000 0000 0000 0000 0000 0000 0000
00000010: 0000 0000 0000 0000 0000 0000 0000 0000
00000020: 0000 0000 0000 0000 0000 0000 0000 0000
00000030: 0000 0000 0000 0000 0000 0000 0000 0000
00000040: 0000 0000 0000 0000 0000 0000 0000 0000
00000050: 0000 0000 0000 0000 0000 0000 0000 0000
00000060: 0000 0000 0000 0000 0000 0000 0000 0000
00000070: 0000 0000 0000 0000 0000 0000 0000 0000
00000080: 0000 0000 0000 0000 0000 0000 0000 0000
00000090: 0000 0000 0000 0000 0000 0000 0000 0000
000000a0: 0000 0000 0000 0000 0000 0000 0000 0000
000000b0: 0000 0000 0000 0000 0000 0000 0000 0000
000000c0: 0000 0000 0000 0000 0000 0000 0000 0000
000000d0: 0000 0000 0000 0000 0000 0000 0000 0000
000000e0: 0000 0000 0000 0000 0000 0000 0000 0000
000000f0: 0000 0000 0000 0000 0000 0000 0000 0000
00000100: 0000 0000 0000 0000 0000 0000 0000 0000
00000110: 0000 0000 0000 0000 0000 0000 0000 0000
00000120: 0000 0000 0000 0000 0000 0000 0000 0000
00000130: 0000 0000 0000 0000 0000 0000 0000 0000
00000140: 0000 0000 0000 0000 0000 0000 0000 0000
00000150: 0000 0000 0000 0000 0000 0000 0000 0000
00000160: 0000 0000 0000 0000 0000 0000 0000 0000
00000170: 0000 0000 0000 0000 0000 0000 0000 0000
00000180: 0000 0000 0000 0000 0000 0000 0000 0000
00000190: 0000 0000 0000 0000 0000 0000 0000 0000
000001a0: 0000 0000 0000 0000 0000 0000 0000 0000
000001b0: 0000 0000 0000 0000 0000 0000 0000 0000
000001c0: 0000 0000 0000 0000 0000 0000 0000 0000
000001d0: 0000 0000 0000 0000 0000 0000 0000 0000
000001e0: 0000 0000 0000 0000 0000 0000 0000 0000
000001f0: 0000 0000 0000 0000 0000 0000 0000 0000
0.0 0.0 0.0 0.0 0.0 0.0 0.0 0.0
0.0 0.0 0.0 0.0 0.0 0.0 0.0 0.0
0.0 0.0 0.0 0.0 0.0 0.0 0.0 0.0
0.0 0.0 0.0 0.0 0.0 0.0 0.0 0.0
0.0 0.0 0.0 0.0 0.0 0.0 0.0 0.0
0.0 0.0 0.0 0.0 0.0 0.0 0.0 0.0
0.0 0.0 0.0 0.0 0.0 0.0 0.0 0.0
0.0 0.0 0.0 0.0 0.0 0.0 0.0 0.0
0.0 0.0 0.0 0.0 0.0 0.0 0.0 0.0
0.0 0.0 0.0 0.0 0.0 0.0 0.0 0.0
0.0 0.0 0.0 0.0 0.0 0.0 0.0 0.0
0.0 0.0 0.0 0.0 0.0 0.0 0.0 0.0
0.0 0.0 0.0 0.0 0.0 0.0 0.0 0.0
0.0 0.0 0.0 0.0 0.0 0.0 0.0 0.0
0.0 0.0 0.0 0.0 0.0 0.0 0.0 0.0
0.0 0.0 0.0 0.0 0.0 0.0 0.0 0.0

network_body._body_endoder.seq_layers.2.weight f4 [128, 128]
00000000: 0347 093c c710 bdbc 932e 1e3d 6625 ccbd
00000010: 2f39 41bc 122c 1cbd 90d9 bbbc 0f97 f0bd
00000020: 4db1 cbbd 0717 063e 4b38 04be 14be 083d
00000030: c107 713d c0c5 a0bd 798f 0fbc 1945 1bbd
00000040: 5c13 f8bd 9e97 2d3e af1a 0dbe da3b 05bd
00000050: b7bf f53d 609e 08be 8a1a 85bd 28f8 213e
00000060: a441 b33d 3750 26bd cbbf 623e 817c 423c
00000070: 4070 92bd fc43 013d 8c46 e5bd bf0a a23b
00000080: b23e 87bd c5d7 05be 5f5b 173e 6f06 3d3d
00000090: f95d c33c df7e 8ebd 10b4 1c3d 5084 fc3d
000000a0: 3b3b 38bd 19a9 25bd c764 a9bd f96b 003e
000000b0: 1f62 1dbd 8c3a e4bd 19a0 9c3c 9e92 96bc
000000c0: b09b cebd cd62 c83c 354e 09be 725e 0b3c
000000d0: c0b2 e73c 5e13 383c 2e88 ddbc 1116 5bbd
000000e0: f16d 16bc 4cb7 16be 8c1b c3bd dd42 913b
000000f0: 493d 08bd 2019 aebd 90d0 20bc c881 32bd
00000100: e10c f53d d337 37bd 2114 d93a 337a 583d
00000110: 05d9 b4bd 8639 b13d 97cd 7cbc e4f5 1bbb
00000120: b517 3c3e 3d13 d6bb a7dd 89bd b506 333c
00000130: 15d9 80bd 4c32 3f3d 0dc9 84bd 5564 13bb
00000140: f565 0b3d 8615 e63d 10d3 393c 0417 08bd
00000150: af5e 003d 8f2f 8a3c a3c1 34be 4cc5 2a3d
00000160: fddf c0bc fbb8 3abc a7dd c4bb 0979 ac3d
00000170: be3e 6bbd 5ecc 62bd c0f6 7d3d 51a2 0dbe
00000180: 57e0 47bb b427 3cbd 3577 2ebe 3257 0bbd
00000190: 2a69 1abe 60d5 10bd fc2b 8bbd 8dce f13c
000001a0: d3e1 da3b 0eed f0bd 8275 363d dfbe afbd
000001b0: f16c d9bd 7836 45bd e0e3 10bd 9232 723d
000001c0: 103a ab3c df62 65bd 7077 7f3d 2cdf 2c3e
000001d0: a76d d53d 9d26 71bd 9b64 123d 4d26 b7bd
000001e0: b2de 01bd 4415 933c 1e68 16be e251 3dbc
000001f0: ebf2 ea3d 7d8d 28be 222b a13d f1c1 a1bd
00000200: 8b34 813d 55d8 3d3d 2f2c b33d ef58 dabd
00000210: 0b97 dfbd 4de8 b7bc 8f35 b53c 67d1 f23c
00000220: 088f a6bb c27b 28bc 3b5f 0abe fbe2 1bbb
00000230: 4765 0d3e a10b 33bd 3dbe 1f3c 52e7 bd3c
00000240: 5946 b83c ba67 13be 4d61 273d b380 df3c
00000250: 48db 023e f113 9b3d 5167 503e c77f 023e
00000260: c01a 74bc 511e 91bc 9a8e 29bd ade1 bf3d
00000270: b143 123d eefb 52bd 6b9f efbc c831 1d3c
00000280: cf25 e63d 5667 863d e088 22bd bd5f e73d
00000290: 71e5 26bd 0b88 8d3d aaf0 12be 92b0 eb3c
000002a0: c6d2 f23d ed50 d1bd fa06 dfb8 ad8e e2bc
000002b0: 31c9 113d 866f 93bd 3f62 c7bd 9873 c6bd
000002c0: 0f01 543e cb85 c0bc a389 45be 21d7 33bc
000002d0: 5337 85bd f710 1a3d 58c4 8a3d 492f 863d
000002e0: 3fbc 4c3d 3e1c 203d 6e37 60be 25c5 823d
000002f0: 9772 b9bc ecdf f7bb ff45 a53d 0e10 e13d
00000300: c956 cd3d efc5 7e3d f521 efbc 55eb 7cbd
00000310: 25bc d73d c77f f43c 9610 543e d8a3 023e
00000320: 5a02 c43d 4a57 9cbc 2b70 bebd f19d 923d
00000330: 28a4 86bd 828e a03c 142a f63d c5b0 84bc
00000340: 1c48 bd3d 79a2 693d 65c9 063c 1428 5ebb
00000350: 8080 cf3d 9245 c83d 482f 43bd 8192 9539
00000360: 9aeb a83d f714 063e b669 dd3d 99af 933e
00000370: 398a 1cbe 693b 093d 6337 0e3e b038 343e
00000380: 5d93 d43d 5dd6 b0bd 6aab 98bd ff3c 70bb
00000390: 5eee 3d3d 4521 f73c 433d e6bb e838 2bbd
000003a0: 925a 143d 182b 033e 497a 12bd bdd3 41be
000003b0: 6d1d 1d3d 09f7 3e3e 869c 1a3e 35c3 20bd
000003c0: b45f c83c c54d cabd 9c57 f2bd 3750 ecbd
000003d0: 7037 3ebd 5566 0a3e 749a f43d b325 983d
000003e0: 9263 81bd 9997 1c3d b22c 173e 26c5 84bd
000003f0: c4f7 95bd c96c bb3d 2270 bc3d 31bd d13c
0.008378747 -0.02307929 0.038618635 -0.09968071 -0.011793419 -0.038127966 -0.02293089 -0.11747562
-0.09945927 0.13094722 -0.12912099 0.033384398 0.058845285 -0.07850218 -0.008762234 -0.037907694
-0.121130675 0.16952369 -0.1377971 -0.032527782 0.11999457 -0.13341665 -0.064992025 0.1581732
0.08752754 -0.040603843 0.22143476 0.011870504 -0.07150316 0.031558976 -0.111950964 0.0049451287
-0.06603755 -0.13070591 0.14780949 0.046148714 0.02384852 -0.069577925 0.03825766 0.12329924
-0.04497836 -0.040444467 -0.08271175 0.12541188 -0.038423654 -0.111439794 0.01911931 -0.01838046
-0.10088289 0.024461174 -0.1340874 0.008506404 0.028283477 0.011235086 -0.027042475 -0.05348784
-0.0091814855 -0.1471836 -0.095267385 0.0044330196 -0.03326157 -0.08500886 -0.00981535 -0.0435808
0.11965347 -0.044730972 0.0016561785 0.052850913 -0.08830456 0.0865355 -0.015429876 -0.0023797685
0.18368419 -0.006533055 -0.0673173 0.010926892 -0.06291405 0.046678826 -0.0648366 -0.0022490222
0.03403278 0.11234574 0.011341825 -0.033225074 0.031340297 0.01686838 -0.17651992 0.041692063
-0.023544306 -0.011396642 -0.0060078683 0.08421523 -0.057432882 -0.05537068 0.062002897 -0.1383145
-0.0030498707 -0.0459363 -0.17037661 -0.034018703 -0.1507918 -0.03535974 -0.06795499 0.029517436
0.0066797524 -0.117639646 0.044545658 -0.08581328 -0.10616482 -0.04814765 -0.03537357 0.05913026
0.02090171 -0.056002494 0.062369764 0.16882008 0.10421305 -0.058874715 0.035740476 -0.08942852
-0.03170652 0.017954476 -0.14688155 -0.011555167 0.11472114 -0.16460223 0.07869555 -0.078983195
0.0630885 0.04634889 0.08748662 -0.10661494 -0.10917481 -0.022449637 0.022120265 0.029640866
-0.0050829686 -0.010283412 -0.1351289 -0.0023786414 0.13808165 -0.043712262 0.009749946 0.023181591
0.022494482 -0.14395037 0.040864278 0.027283048 0.12778962 0.07572163 0.20351912 0.12744056
-0.014898956 -0.017714651 -0.04139576 0.09369216 0.035709087 -0.05150979 -0.029250821 0.009594388
0.1123768 0.065626785 -0.039681315 0.112975575 -0.040746156 0.06910714 -0.14349619 0.028770719
0.11856608 -0.102205135 -0.00010634768 -0.027655924 0.03559226 -0.07199006 -0.09735536 -0.096900165
0.20703529 -0.023501297 -0.19290785 -0.010976584 -0.06504693 0.037613835 0.06775731 0.06551988
0.049984213 0.039089434 -0.21896145 0.063852586 -0.022637649 -0.0075645354 0.08069991 0.1098939
0.100263186 0.062200483 -0.029190997 -0.061747868 0.105339326 0.029846085 0.20709452 0.12757814
0.09570761 -0.019084591 -0.09298738 0.07159031 -0.06574279 0.019599203 0.120197445 -0.016197572
0.092422694 0.05703971 0.008226727 -0.00338984 0.10131931 0.097788945 -0.047652513 0.0002852865
0.082480624 0.13093935 0.108111784 0.28844908 -0.15287103 0.033503924 0.13888316 0.1759975
0.1037967 -0.086346366 -0.0745457 -0.003665745 0.046369903 0.030167231 -0.007026346 -0.041802317
0.036219187 0.12809408 -0.03576115 -0.18928428 0.03835814 0.18648924 0.15098771 -0.039248664
0.024459697 -0.098781146 -0.118331164 -0.11538737 -0.046439588 0.13515599 0.11943522 0.074290656
-0.0631782 0.038230512 0.14763144 -0.064829156 -0.07322648 0.091516085 0.09201075 0.025602909

network_body._body_endoder.seq_layers.2.bias f4 [128]
00000000: 0000 0000 0000 0000 0000 0000 0000 0000
00000010: 0000 0000 0000 0000 0000 0000 0000 0000
00000020: 0000 0000 0000 0000 0000 0000 0000 0000
00000030: 0000 0000 0000 0000 0000 0000 0000 0000
00000040: 0000 0000 0000 0000 0000 0000 0000 0000
00000050: 0000 0000 0000 0000 0000 0000 0000 0000
00000060: 0000 0000 0000 0000 0000 0000 0000 0000
00000070: 0000 0000 0000 0000 0000 0000 0000 0000
00000080: 0000 0000 0000 0000 0000 0000 0000 0000
00000090: 0000 0000 0000 0000 0000 0000 0000 0000
000000a0: 0000 0000 0000 0000 0000 0000 0000 0000
000000b0: 0000 0000 0000 0000 0000 0000 0000 0000
000000c0: 0000 0000 0000 0000 0000 0000 0000 0000
000000d0: 0000 0000 0000 0000 0000 0000 0000 0000
000000e0: 0000 0000 0000 0000 0000 0000 0000 0000
000000f0: 0000 0000 0000 0000 0000 0000 0000 0000
00000100: 0000 0000 0000 0000 0000 0000 0000 0000
00000110: 0000 0000 0000 0000 0000 0000 0000 0000
00000120: 0000 0000 0000 0000 0000 0000 0000 0000
00000130: 0000 0000 0000 0000 0000 0000 0000 0000
00000140: 0000 0000 0000 0000 0000 0000 0000 0000
00000150: 0000 0000 0000 0000 0000 0000 0000 0000
00000160: 0000 0000 0000 0000 0000 0000 0000 0000
00000170: 0000 0000 0000 0000 0000 0000 0000 0000
00000180: 0000 0000 0000 0000 0000 0000 0000 0000
00000190: 0000 0000 0000 0000 0000 0000 0000 0000
000001a0: 0000 0000 0000 0000 0000 0000 0000 0000
000001b0: 0000 0000 0000 0000 0000 0000 0000 0000
000001c0: 0000 0000 0000 0000 0000 0000 0000 0000
000001d0: 0000 0000 0000 0000 0000 0000 0000 0000
000001e0: 0000 0000 0000 0000 0000 0000 0000 0000
000001f0: 0000 0000 0000 0000 0000 0000 0000 0000
0.0 0.0 0.0 0.0 0.0 0.0 0.0 0.0
0.0 0.0 0.0 0.0 0.0 0.0 0.0 0.0
0.0 0.0 0.0 0.0 0.0 0.0 0.0 0.0
0.0 0.0 0.0 0.0 0.0 0.0 0.0 0.0
0.0 0.0 0.0 0.0 0.0 0.0 0.0 0.0
0.0 0.0 0.0 0.0 0.0 0.0 0.0 0.0
0.0 0.0 0.0 0.0 0.0 0.0 0.0 0.0
0.0 0.0 0.0 0.0 0.0 0.0 0.0 0.0
0.0 0.0 0.0 0.0 0.0 0.0 0.0 0.0
0.0 0.0 0.0 0.0 0.0 0.0 0.0 0.0
0.0 0.0 0.0 0.0 0.0 0.0 0.0 0.0
0.0 0.0 0.0 0.0 0.0 0.0 0.0 0.0
0.0 0.0 0.0 0.0 0.0 0.0 0.0 0.0
0.0 0.0 0.0 0.0 0.0 0.0 0.0 0.0
0.0 0.0 0.0 0.0 0.0 0.0 0.0 0.0
0.0 0.0 0.0 0.0 0.0 0.0 0.0 0.0

action_model._discrete_distribution.branches.0.weight f4 [2, 128]
00000000: e74a 69bb 4083 a63b 88be 813b 4302 94bc
00000010: 0723 1aba 2289 77bc cddf 57bb f682 08bb
00000020: 6a96 76bc b5c3 43ba 9810 e9bb 594a 393c
00000030: 908f 1bbc ab36 34bc c4d3 293c 600c 02bc
00000040: b241 163a db90 ad3b b2e8 823b 9760 273c
00000050: cda5 61bc 6b4f 8c3b f37e 413c 25f9 f13b
00000060: 375b 44bb f18b c03a 9de1 b2ba cc4f c93b
00000070: 236a 89bb e5d6 11b8 08f6 c13a fa4c 8eba
00000080: 9235 ffbb a169 24bc 2aba 553b 7253 8aba
00000090: e1e1 343c 8a9b 223c 0fb4 e23b 9fb6 26bc
000000a0: 7f54 d3bb 68f2 bc3c 506e 003c b788 c23b
000000b0: 3305 973b b06b 5b3c 9b3d 0f3c 4ec9 21bc
000000c0: 2f76 0abc 2592 1ebc a8d0 0bbc 4303 b33b
000000d0: 809d ecba 2508 2c3c 76ea 9b3b 7d0a 083c
000000e0: 1bb5 eabb c8e4 eabb 23cb 4d3b ba96 4fbc
000000f0: 8024 49bc 1101 c5bb 986c 7dbb ccc0 813b
00000100: 42eb 283c 22c0 d4bb 5422 2bba 7ddf 2cbc
00000110: a26a 03bc a38e 1f3b 880a a3bb a20a 6abc
00000120: 1397 acbc 9dcd 583a e556 e0bb f365 0d3c
00000130: 3da9 5abb 332a b8bb f4ed 323c 3f76 333c
00000140: 2f31 eeba aa79 143c c192 2bbc 7f07 b2bb
00000150: cb13 503b 6b1e 29bb 3e40 133c 3b65 c7b9
00000160: a6cd 93bb 4cf1 803b de2c 0bbc eb83 1ebc
00000170: 0395 5bbb fed8 b8bb 5df1 b43c 8204 633b
00000180: 3357 1ebc eddb 61ba f8ab 4f3c ea5e f73b
00000190: 2f1e 07bb 8ee2 333c 92ba aabc d4d9 363b
000001a0: 2e16 c9ba e512 c83b bc29 3c3c 9060 fe3a
000001b0: c6b5 2d3b 0357 50bc df99 873a bfd1 adbb
000001c0: 6311 55bc 0918 073c 95d9 6b3c af34 60ba
000001d0: 2419 893b 1dd0 d2b9 aa46 81bb 10eb d4ba
000001e0: 8cf1 41bc 57fb d139 8bad b73b 3840 fe3b
000001f0: 2b23 4e3b 9a45 ed3b 3862 423b b72b bebb
00000200: 1688 c1bb 4d8b 093c 04ee 8c3c d653 4bbc
00000210: fe2d a0bb d765 fe3b 6a69 e23b e291 943b
00000220: c805 d73a 2ad2 ce3a 0f1e 97ba 5b28 ecbc
00000230: ff7c 8c3c 0758 80bc 5d9e 17bb 763d 02bc
00000240: 653e 8d3b a7fe bdba 2ec6 8bbb a29c 5b3c
00000250: 0b67 adbb 93b9 18ba 8539 e53b 7183 13bc
00000260: 6a85 9bbb 0011 3cbc 6568 8dbb 155d 21bb
00000270: efe4 703b 5d5f 0a3c 8fd5 aebc 586e 04bc
00000280: 524e 7a3c a344 a5bc b2dd b73b b2d4 b53a
00000290: 9839 b1bb 35cb 1cba dd69 dcba 1d5e 8dba
000002a0: a7f5 aaba 6a8e 57bc 877e a0bc cd90 053c
000002b0: 377c 57bc 753b d5bb 66f7 03bc d0bf 6abc
000002c0: d159 4aba 815e b73c 635b 783b 5d8a 0fbc
000002d0: bf52 05bc 3b44 e63b 7bdd b5ba ba61 573a
000002e0: 43b8 81bb 552d 583b 4b15 70bb 03a2 67bb
000002f0: 52b9 793c 5f53 5c3c 07e0 88bc e6ec 8d3b
00000300: e1d5 b0ba 1cfa 443c ae88 003a 2ad2 783b
00000310: 1293 e63a 51a4 8339 150b 373a 0b22 273c
00000320: 2a4c 313b 9a78 92ba f05a 5dbc e74e 76bc
00000330: 27db a6bb 1934 a73b e3e5 80bb d700 313b
00000340: 52f6 3b3c 3d3e 9b3c 05f6 0d3b 8f50 e239
00000350: 3cf8 433c b525 193b 6fb7 613c b07a 1bbc
00000360: 14c6 c6ba 6d78 cb39 bb9e 20bc cfb0 113b
00000370: 72e0 91bb d4ab 443c 02fe 90ba b64e 0b3c
00000380: fc13 153b 7251 5fbb 1d68 69bc b3fa 25bc
00000390: 2883 663c c119 92bc b939 a63b 5a85 3b3c
000003a0: 2be6 823c 8078 10bc 7115 27bc e765 bf3b
000003b0: 4f30 03bc 6186 02bc 950b 07bc 3820 6a3c
000003c0: 9bfc 703c 6301 38bc 6a19 a53a b9e6 9e3c
000003d0: 9e90 a4bb fbe3 62bc b7f2 033c cda3 6c3a
000003e0: d22a 0abb 8f18 093c c03a f83b ebd3 88ba
000003f0: 1776 993b 8744 6c3b 024f 73bc 88af d9bb
-0.0035597624 0.005081564 0.0039594807 -0.018067485 -0.0005879853 -0.015108379 -0.0032939792 -0.0020830012
-0.01505051 -0.0007467822 -0.007112574 0.01130923 -0.009494677 -0.010999362 0.01036543 -0.007937521
0.0005731835 0.005296809 0.0039950246 0.0102159 -0.01377244 0.0042819283 0.011810052 0.0073844367
-0.0029961595 0.0014690143 -0.001364756 0.0061435457 -0.0041935607 -3.477083e-05 0.0014798054 -0.0010856681
-0.0077883685 -0.0100349495 0.0032612183 -0.0010553433 0.011040182 0.009924779 0.0069184373 -0.010175376
-0.0064492817 0.023064807 0.007838801 0.005936708 0.004608774 0.013392374 0.008742715 -0.009874655
-0.008451029 -0.009678398 -0.008533634 0.0054630353 -0.001805231 0.010499989 0.0047581745 0.008303282
-0.0071627027 -0.007168386 0.0031401596 -0.012670213 -0.012276769 -0.00601209 -0.0038669463 0.0039597508
0.010309996 -0.0064926306 -0.00065282476 -0.010551331 -0.008021029 0.0024346493 -0.0049756207 -0.014284762
-0.021068132 0.0008270385 -0.006846296 0.008630264 -0.0033365034 -0.005620265 0.01092099 0.010953485
-0.0018172617 0.00906221 -0.010472001 -0.0054330225 0.0031750079 -0.0025805484 0.0089874845 -0.0003803166
-0.004510599 0.003935015 -0.008494584 -0.009675006 -0.0033505566 -0.005641102 0.022087747 0.0034640138
-0.009664345 -0.00086158403 0.012675278 0.0075491564 -0.0020617356 0.010979308 -0.020840917 0.0027900832
-0.0015341693 0.006105768 0.01148456 0.001940744 0.002650605 -0.012716058 0.001034554 -0.0053045447
-0.013004634 0.0082454765 0.014395137 -0.00085527723 0.004183905 -0.00040209378 -0.0039451914 -0.001624437
-0.011837374 0.0004005085 0.0056054047 0.0077591203 0.0031454067 0.007240963 0.0029660594 -0.005803551
-0.0059061153 0.008395028 0.017203338 -0.012410125 -0.004888295 0.007763605 0.006909539 0.004533992
0.0016404921 0.0015779187 -0.0011529344 -0.028827837 0.017149447 -0.015666975 -0.0023135163 -0.007949224
0.0043104165 -0.0014495448 -0.004265568 0.013404043 -0.0052918247 -0.00058259926 0.0069953823 -0.009003506
-0.004746129 -0.0114786625 -0.0043154233 -0.0024622132 0.0036757549 0.008445588 -0.021342067 -0.008082949
0.015277462 -0.02017433 0.005611145 0.0013872592 -0.005408477 -0.0005981208 -0.0016816218 -0.0010785494
-0.0013043181 -0.013156513 -0.019591583 0.008152199 -0.013152174 -0.006507332 -0.00805459 -0.014327958
-0.0007719072 0.02238393 0.0037896268 -0.008761016 -0.008137404 0.0070271767 -0.001387521 0.00082161615
-0.0039587333 0.0032986004 -0.0036633785 -0.003534437 0.015241938 0.013447612 -0.016708387 0.004331219
-0.0013491475 0.012022521 0.00049031794 0.0037967064 0.0017591438 0.00025108692 0.00069825473 0.010200988
0.0027053454 -0.0011174858 -0.013510451 -0.01503346 -0.005092043 0.005102646 -0.0039336546 0.0027008557
0.011472302 0.018950576 0.0021661532 0.000431661 0.011961039 0.0023368422 0.013776644 -0.0094897
-0.0015165233 0.000388089 -0.009803469 0.002223063 -0.004451805 0.012003858 -0.0011062028 0.008502653
0.0022747507 -0.0034075645 -0.014246014 -0.010130572 0.014069356 -0.017834546 0.005072799 0.011445368
0.015978893 -0.008817792 -0.010197983 0.005841005 -0.008007123 -0.007966609 -0.008242507 0.014289908
0.014708663 -0.011230799 0.0012596075 0.019397127 -0.0050221225 -0.0138483 0.008053473 0.0009027094
-0.0021082652 0.008367672 0.007575363 -0.0010439133 0.004683267 0.0036051588 -0.01485038 -0.0066432394

action_model._discrete_distribution.branches.0.bias f4 [2]
00000000: 0000 0000 0000 0000
0.0 0.0

action_model._discrete_distribution.branches.1.weight f4 [2, 128]
00000000: a824 4fba bcba 433c 4d61 c23b 278b 983b
00000010: 7107 173c afd4 a4bb 020b f63b c7da ba3b
00000020: 55e6 d7bb 7b4b c7bb 0825 ff3b 651f 403c
00000030: a30c 54ba f332 5bbb dc60 04bc 75b2 5f3c
00000040: 14b2 273b 6748 8eba ca0e 163c 5364 66bc
00000050: 189c 73bb 5896 eebb 398c 013c c40d 963a
00000060: df62 91bc 3a6d 75ba 76ed 2e3b 9575 ffbb
00000070: 9124 b538 3f9f 4cbc 6134 8b3c da53 6c3b
00000080: d28c 37bb 1465 33bc 2ee1 9b3c 8f0c fa3b
00000090: df6c 203c 0f51 833b 3511 5fbc 6028 52bc
000000a0: 45a4 edbb 28be 033c 5ded e3ba b63d 1d3b
000000b0: 3790 db3b d681 14bc b6ec bd3b addd b73b
000000c0: 7fee 07bc 956c 343a 11aa b9bb 72b5 86bb
000000d0: 01e9 303b d593 5a3b 29cc 933b 0af0 8fbb
000000e0: 1b5e bf38 3b98 623b cd7d 61bc 0389 06bc
000000f0: fa23 453c 98ee 60ba 6b13 d73b 2ba8 36bc
00000100: 8d8a 58bb 71c4 a23b c85c e0bb fca9 90b9
00000110: 08fd ef3b dbfc a93c 773b 0fbb 5dbc b73a
00000120: 2423 0ebc b5f0 e9bb 3fcf 103a 8b36 8bbb
00000130: 8b22 4fbb df55 263c 10f8 50bc e80c d4bb
00000140: 0ef3 3a3a fda3 d03b 6bbf 9d3b ef74 b8bb
00000150: 3003 1d3b 3fe3 9c3c f2b6 e03a 6ea4 16bc
00000160: 0b4d 68bb 3761 8abb 55ef 19bb c51f 473b
00000170: c7ce bbbb d0d7 d43b b3c4 d83a 7b2b f9bc
00000180: 95b1 583a e0ab 733c a6c4 083c efa8 97bb
00000190: 35dc 933a e30d 16bc b56d 37bc df8c 723c
000001a0: 0226 723b 9057 fd3b bd80 9fbb 6963 373b
000001b0: 919b b63a b3ca 933c 70c6 cc3a 0f13 1c3c
000001c0: 273a bb3b 1510 08bc 9ba6 a63a af76 5a3b
000001d0: 2546 953b b809 e73a eb3e 6dbc 81b4 b43b
000001e0: b391 8b3b 8be5 8dbb c749 183b 072e f5ba
000001f0: b3c1 3fbb e96e 96ba 0624 89bb e308 fe3b
00000200: fbb5 82bb 41b2 bfba 9658 213c cbb6 133c
00000210: 43a7 c4bb f304 423b 51d4 1d39 4406 21bb
00000220: 2201 f1bb afc4 0b3c f814 11bc a687 943a
00000230: 1fbd 3d3c 727d 32bc 3794 17bb 5515 e6ba
00000240: f358 c93b f316 d7bb 34ba ae39 a0f6 973b
00000250: b7b9 18bc 99c4 8a3c 733c 77bb f576 52bc
00000260: 7099 0bbc a7a4 023c 75e3 ae3a ffc3 6bbb
00000270: f3c2 14bc c7d9 673c 159f f6bb 7a8e 5fbc
00000280: 13c6 c63b 2fb9 66bb 84ef 473b e7b7 a13b
00000290: 7240 e63a a793 043c 32ae 903c ea9f 3a3b
000002a0: 43e3 7cbb 15a5 93bb 70d2 90bb 77d2 ddba
000002b0: cce1 993c dcf8 26bc 3ab0 b93b 2aae 5d3c
000002c0: 88f7 d2bb fdbc d8bb 57d2 05bc 24ce 023c
000002d0: d4cd a33c 4b0f 25bc 355f 803c f142 843b
000002e0: cad1 1dbb 538d 33bc 05d4 c6bb 5ab8 55ba
000002f0: a704 3abc cf20 a5bb aad5 483c d52f 9a39
00000300: ae4b 243c 082e 463c d8ab 68bc d27f 6cbb
00000310: 3ef1 30b8 c369 c9ba 773b 3cba 52b4 eb3a
00000320: 838a d43b 4fa3 453c 15aa 6b3b 709b c8bc
00000330: 1cf6 083c cbbc 293b 9be7 9cb9 87be 863c
00000340: 6a60 88bb 2b37 33bc c8a7 593b 12b7 bc3b
00000350: a6f1 943a 5082 d43b 43c8 123c 6e1c 4137
00000360: f759 223a 8d5c 59ba 9db6 be3a ab8e 773b
00000370: 35a0 563c 1b66 fabb f377 ab3b 908d 493c
00000380: ad93 9fbb 3092 393c 5bde d93b be47 043a
00000390: 5886 13bb a3c5 5fbb 2be4 013c fd02 013b
000003a0: 3d47 59bc b5ea 7ebc e2f8 80bc ddcb 633b
000003b0: 0fc3 a7bb 8dc3 31bb fb21 2dbb 3704 333c
000003c0: 4096 b03b ab0e 133c 7b4e e93b 9727 023c
000003d0: 8a75 bdba 15a9 e7bb 0ae6 53bb abc7 c1bb
000003e0: 142c 4439 c9dd 3a3b cfa9 303b fe12 af3c
000003f0: 223b 093b 859c b53c f218 e73b 0a60 78bc
-0.00079018855 0.011946376 0.0059320093 0.00465526 0.009218083 -0.0050302367 0.0075086365 0.00570235
-0.006588737 -0.006081996 0.007786397 0.011726235 -0.0008089041 -0.0033447116 -0.008079734 0.013653387
0.002558832 -0.0010855318 0.009158799 -0.014062005 -0.0037171897 -0.007281106 0.007906967 0.0011448194
-0.01774734 -0.00093622843 0.002669183 -0.0077959993 8.6375636e-05 -0.012489139 0.01699275 0.0036060722
-0.002800752 -0.010949392 0.019028272 0.0076308916 0.009791582 0.0040074657 -0.013614942 -0.012827009
-0.0072522485 0.008040942 -0.0017389465 0.0023993081 0.0067005414 -0.009064158 0.0057960404 0.0056111426
-0.008296608 0.0006882635 -0.0056660254 -0.0041109854 0.002699435 0.0033352275 0.004510422 -0.0043926286
9.125118e-05 0.00345756 -0.013762903 -0.008211377 0.012032503 -0.0008580475 0.006563594 -0.011148493
-0.0033041567 0.0049672653 -0.006846998 -0.00027592469 0.007323865 0.020750454 -0.0021855512 0.0014017929
-0.00867537 -0.00713929 0.0005524046 -0.0042484454 -0.0031606283 0.010152309 -0.012754455 -0.006471265
0.0007131555 0.006367205 0.0048140786 -0.005629174 0.0023958199 0.019151328 0.0017144366 -0.0091944765
-0.0035446312 -0.0042230147 -0.00234886 0.0030383926 -0.005731437 0.0064954534 0.0016538113 -0.03041624
0.0008266208 0.014872521 0.008347666 -0.0046282928 0.0011280837 -0.009158584 -0.01119559 0.014804094
0.0036948924 0.0077313855 -0.0048676417 0.0027982837 0.001393186 0.01804099 0.0015623104 0.009526028
0.0057137194 -0.0083046155 0.0012714447 0.00333349 0.004555481 0.0017626798 -0.014480333 0.005514682
0.004259312 -0.004330342 0.0023237334 -0.0018705734 -0.002925974 -0.0011477146 -0.0041852025 0.007752524
-0.003988979 -0.0014625267 0.009847781 0.009015749 -0.0060013845 0.0029605 0.00015051781 -0.0024570385
-0.0073548714 0.00853078 -0.008855097 0.001133193 0.0115807345 -0.010894166 -0.0023129114 -0.0017553965
0.006144637 -0.006564015 0.00033326598 0.0046375543 -0.009321622 0.016939448 -0.003772524 -0.012845744
-0.008520469 0.0079738265 0.0013342934 -0.0035974977 -0.009079683 0.014151043 -0.0075262883 -0.013644809
0.0060660928 -0.0035205593 0.0030507753 0.004935253 0.0017566814 0.008091844 0.017661188 0.0028476664
-0.0038587607 -0.0045057633 -0.0044196174 -0.0016923685 0.018784426 -0.010191169 0.00566676 0.0135302935
-0.0064381994 -0.006614326 -0.008167825 0.007983718 0.019995607 -0.010074447 0.015670398 0.0040363003
-0.0024081343 -0.010958987 -0.006067755 -0.00081527757 -0.011353648 -0.0050393115 0.012257973 0.00029408807
0.010027809 0.012095936 -0.014201127 -0.003608693 -4.2186344e-05 -0.0015366602 -0.0007180492 0.0017982817
0.0064862384 0.012062862 0.003595953 -0.02448818 0.008359458 0.0025899883 -0.00029927198 0.016448272
-0.004161884 -0.010938446 0.0033211578 0.0057591284 0.0011363521 0.006485261 0.008958879 1.1510316e-05
0.00061932154 -0.0008291684 0.0014550273 0.0037774246 0.01309972 -0.0076415665 0.005232805 0.012301818
-0.0048698992 0.011326358 0.0066488213 0.0005046091 -0.0022510495 -0.00341449 0.007927935 0.001968562
-0.013261613 -0.015558888 -0.015743677 0.0034758963 -0.0051196883 -0.0027124614 -0.002641796 0.010926298
0.005389005 0.008975665 0.0071199513 0.007944009 -0.0014454585 -0.0070697167 -0.003233316 -0.005913695
0.00018708437 0.0028513542 0.0026956683 0.02137136 0.0020939787 0.02216936 0.0070525343 -0.015159616

action_model._discrete_distribution.branches.1.bias f4 [2]
00000000: 0000 0000 0000 0000
0.0 0.0

action_model._discrete_distribution.branches.2.weight f4 [2, 128]
00000000: d804 c0ba 51f3 103c a34b d0bc f097 8eba
00000010: c358 5ebc 81bb b0bb 31ae c6b9 d5de 1bbc
00000020: 2b5d f73a 46db 863c 0310 83bb dea7 cc3c
00000030: 4cea c93b 88c9 133c 15b8 073c 93c0 81bc
00000040: e2a1 e53b 05bf cebb b1f6 ab3b dfec 13bc
00000050: a3a3 17bc bdfd d1bb 178d 0d3b bb1b 483c
00000060: 9fd8 8dba 2da3 79bb a9f1 3abb 6b36 25bc
00000070: 3082 4b39 a105 113c d0ba 04bc a506 a13b
00000080: 447c 133c ccd9 b5bb c895 3d3b 1c14 9f3c
00000090: c871 cdb9 4f29 2eb9 0d41 dbbb cb50 213b
000000a0: 8d10 1b3b 1fd9 b0b8 30c7 d7b9 cbb5 033c
000000b0: c8e0 3ebc 67c4 68bb b3b6 a3bc ffd1 feb9
000000c0: 6b7e 21bb 30a1 3dbc 5273 5c3a 4e99 833a
000000d0: c717 1f3c e5ba 2fbc 1d32 553b 5333 bc3c
000000e0: afc7 e0bb b5ba 56ba c575 cab9 83f7 d7bb
000000f0: 4b77 183c f1d3 0bbc 330d 9439 efd3 793c
00000100: b8c0 a9bb 154f 64bb ca20 a33b 8ab9 8f3a
00000110: 5564 c83b 9d1b 6fbb d7fb 44bc 595c 06bc
00000120: ffb0 6c3c 1d94 343b bca0 bbbb 78f7 a73b
00000130: f75a 57ba 937c 443a 92ea e33b 4b86 cabc
00000140: 4560 aebb d72e e13b 9abc 59bb db2b e13b
00000150: bfc6 3fbc 7a06 9ebc dd8d e8bb c024 ce3b
00000160: 560c 163c cbeb 48bc d53e 763b d8f0 45bc
00000170: fb7e ff3b d0cc 843b 82f4 56bc fd27 bebb
00000180: bb64 523c af1d e73b 9ff2 193b d042 f739
00000190: ab80 25bc 481b 65bb eb3a 54bb c892 593c
000001a0: b337 99bb a60a 1fbc b428 203b 02ec 7bbb
000001b0: 232d 93bb ae12 b93a 60ac 4dbc 0341 353c
000001c0: c2bf f4ba 1b5a 36bb d10c 15bb 7afb e6bb
000001d0: 69b4 0b3c e80f 293c 12ff 783b 0061 caba
000001e0: 0a69 bd3b faac 9f3c 88bb 013c 9a90 94bc
000001f0: e3f7 9b3b 6bdd 8a3b 558c c8bb 9ab6 6dba
00000200: 4ab1 37bc aadd c23b 670c 903a 9e5a 4b3c
00000210: 0f0b efb7 ebc3 7ebb a1e6 b43b 03bb 863c
00000220: 6471 183c 6b69 b63a 7d1e 36bc e3b0 f6bb
00000230: f172 1b3c 3009 36bb b0fa b23b a736 62bc
00000240: 7b64 c63a 37bf 133c 232d f03b c54d 39bc
00000250: 2f62 72bc 0bef 72bb f5a2 153c 95d3 433c
00000260: bf7c 633c bf2a 02bc edf6 843c f7b9 e33c
00000270: 2959 a33b adf1 89bc 6858 9aba c6cc 3c3c
00000280: e1da 933b 5d37 a5bb e8df e5bb 562b c3bb
00000290: 2364 b93b 32ac 6f3a ec47 353c e0e7 e0bb
000002a0: af87 a03a 0fc0 13bc 6312 0dbc 82ac 643c
000002b0: 0220 5bba 139c 09bb 2e44 9abb 5408 813c
000002c0: 57ad 03bb 1dfa ec3b adda 4f3c bb37 64bb
000002d0: 8aed a03c 940a 473a 1c19 8d3c 87ee 1fbc
000002e0: 5b62 973b f299 20bc 6b69 503c ddb9 cd3b
000002f0: 2776 0ebc 7b83 4dbb dbd0 debb 222c f73a
00000300: 3f1d 20bb cbf3 d9bb 6a4c 10bc 79e1 2d3c
00000310: 63da 4c3c 80fe 4c3b 73bf 943a 4751 b3ba
00000320: 8f01 39bc 6220 b03b 3ce7 c33b dd23 ee3a
00000330: 5b47 3239 177a 13ba 0046 64bc a2cc cebb
00000340: 3bba 043b 0d12 443a 75da 8d3c 75d2 d63a
00000350: b2b4 5abc dd03 d73b 0329 b53c 5a8b 97b9
00000360: 4b41 42bc 332b 0e3c cff3 c53b 30b4 0b3c
00000370: cd77 ddbb af4e 9bbc 737a 85bb 15ba 643a
00000380: 6fb9 f63b 601c f1bb 0f15 a2bb c465 043c
00000390: a5cd 453b fff2 393b 9fd5 f93a 573e b83b
000003a0: 2f58 9bbb 9560 31bc 854d a9bb e8ba 8839
000003b0: b853 7d3a 17fc 993b 3fe1 0cba 00ed d93a
000003c0: c4d6 453c fb6a a6bc bbc0 093c bb4e cf3b
000003d0: a849 d939 226e 453b d58c 59bc 7096 d33b
000003e0: 1b6a 28bc 7022 75bb 26e9 3339 0fa4 d7ba
000003f0: ba35 3c3c 2df9 623c 5bd9 c93b 87fb 68bb
-0.0014649881 0.008847074 -0.025426691 -0.0010879021 -0.013570967 -0.005393446 -0.00037895286 -0.0095135765
0.0018872371 0.01646198 -0.0039997115 0.024982389 0.0061619636 0.009020217 0.008283635 -0.015838897
0.0070078233 -0.0063093924 0.0052479138 -0.009028642 -0.009255323 -0.006408422 0.0021598989 0.012213643
-0.0010822004 -0.0038091645 -0.0028525388 -0.010083775 0.00019408087 0.00885144 -0.00810118 0.004914122
0.009001795 -0.005549645 0.0028928388 0.019418769 -0.0003918542 -0.00016609322 -0.0066911043 0.0024614807
0.0023660988 -8.432776e-05 -0.00041156402 0.008038948 -0.011650272 -0.0035517456 -0.019984579 -0.00048603115
-0.0024642001 -0.011574075 0.0008409518 0.0010040195 0.009710259 -0.0107257115 0.003253109 0.022973692
-0.0068597416 -0.00081912737 -0.00038616188 -0.006590785 0.009305785 -0.0085344175 0.00028238594 0.015248283
-0.0051804446 -0.0034837176 0.004978274 0.0010965329 0.006115476 -0.0036484965 -0.012022934 -0.008200728
0.014446496 0.0027554103 -0.005725948 0.005125936 -0.0008215154 0.00074953696 0.006955453 -0.024722239
-0.005321535 0.006872039 -0.0033223988 0.006871683 -0.0117051 -0.019290198 -0.0070969895 0.006291002
0.009158215 -0.012263249 0.0037574072 -0.012081347 0.0077971197 0.004052736 -0.013119819 -0.005803107
0.012841399 0.007053099 0.002349056 0.0004716129 -0.010101478 -0.0034958888 -0.003238375 0.013279624
-0.0046758293 -0.009707129 0.0024438323 -0.0038440232 -0.0044914647 0.0014119947 -0.012553304 0.011062863
-0.0018672871 -0.0027824703 -0.0022743235 -0.0070490213 0.0085269 0.010318734 0.003799383 -0.0015440285
0.005780344 0.019491661 0.007918246 -0.018135358 0.004759775 0.004237821 -0.0061202445 -0.0009068042
-0.011211703 0.0059468346 0.0010990024 0.012411742 -2.849617e-05 -0.00388741 0.005520657 0.016446596
0.009304378 0.0013916915 -0.011115667 -0.0075284108 0.009487853 -0.0027776472 0.005462013 -0.013806975
0.0015136147 0.009017757 0.0073295995 -0.011310046 -0.014793917 -0.003706875 0.00913309 0.011952301
0.013884722 -0.007944762 0.016231025 0.027798636 0.004984994 -0.016838873 -0.0011775615 0.011523431
0.0045121764 -0.005042 -0.007015217 -0.005956094 0.005657689 0.00091427856 0.011064511 -0.006863579
0.0012247468 -0.009017958 -0.008610341 0.013957145 -0.00083589565 -0.0020997568 -0.0047078347 0.015751041
-0.0020092332 0.0072319643 0.012686414 -0.0034823257 0.019644517 0.0007592824 0.017223887 -0.009761459
0.004619879 -0.009802328 0.012720446 0.00627826 -0.008695162 -0.0031358886 -0.0067998 0.0018857757
-0.0024431495 -0.006651377 -0.008807281 0.010612839 0.012503239 0.0031279624 0.001134856 -0.0013680839
-0.0112918755 0.005374954 0.005978493 0.0018168647 0.00017001985 -0.0005625798 -0.013932705 -0.006311015
0.0020252604 0.00074794964 0.017316082 0.0016389625 -0.013348745 0.00656174 0.022114282 -0.0002890479
-0.011856387 0.008677292 0.006041027 0.008526847 -0.006758666 -0.018958418 -0.004073435 0.0008725238
0.0075294296 -0.007358119 -0.004946358 0.008080903 0.0030182388 0.0028373597 0.0019060856 0.005622666
-0.004740737 -0.01082625 -0.0051667118 0.00026079197 0.0009663659 0.004699241 -0.00053741405 0.0016626418
0.01207513 -0.020314684 0.008407767 0.006326524 0.00041444344 0.0030125459 -0.013278206 0.0064571425
-0.010279204 -0.003740456 0.00017157625 -0.0016452092 0.011487419 0.013853353 0.006159944 -0.0035550313

action_model._discrete_distribution.branches.2.bias f4 [2]
00000000: 0000 0000 0000 0000
0.0 0.0

action_model._discrete_distribution.branches.3.weight f4 [2, 128]
00000000: c626 c9bb 0921 2cbc 3af8 d93a b0d1 ef38
00000010: f25f eabc b59a d13a 63a6 27bc 7839 50bc
00000020: 6d22 5ebb 733a cb3a 24c2 2f38 c302 f1ba
00000030: 1aee 7dbc af5c 473c f3db 46bc 07c7 193c
00000040: ea09 b6bb f80a 1bbc 6b0c 2f3c b8e3 a9bb
00000050: e8df 753c dc61 b0bb dae7 ebbb c91b 2fbb
00000060: 417f 9eba 44f5 9d3c 7588 2e3c 8b36 823c
00000070: 73e2 103c cf90 783b 53ac 24bc 8fed 90bb
00000080: 33b1 8d3b 93d6 7f3a ed6f 65bc da98 efba
00000090: d6b9 36b5 5d95 5d3b 7243 963b cffb ef3b
000000a0: 213c 36bc 4b15 7ebc d721 83bc cdf9 803c
000000b0: e29c 76ba 2907 0b3c 0aab d13b c7c9 b73c
000000c0: 8dd0 c0bc 5337 aa3b 3fd2 3b3c 8a24 4ebc
000000d0: a73b 143c f63b 973a 703b 3ebb 0580 4f3b
000000e0: 6811 b33b 47f3 6e3b 4706 5c3c cdee edbb
000000f0: 83eb 2cbc 75d5 9d3b 54c5 4abb 2241 463c
00000100: c592 19b8 0ffa bb3a 1c4c b8ba e812 1abc
00000110: ac27 41bb 95ca 71bc 92c2 e03b e65f 8d3b
00000120: 7e7e 073c 35c4 a43c 770d a53b 3d68 d3bb
00000130: 1b04 c3bb a2db 5339 7b4d 49bc 4bb4 6c3b
00000140: 4a7e 17ba 8295 2cbc 8b1d 61bb cd3d 42bc
00000150: 4568 f3bb 7b2f b93b e3ba 8f3b 61b9 003a
00000160: 9a7d 6fba ad0e 753c e0bf 42bb 6726 b9bb
00000170: 0264 e0b9 8d82 a9bb 7b65 b93c 6162 9d3b
00000180: 7f50 8a3c 6a08 da3b 23ce 30bc e707 b43c
00000190: 4fa9 e8bb e8fb 583c 145a a93c 932c 77ba
000001a0: 8379 dc3b 7f90 c93b ab7f 25bc 990b 9fbb
000001b0: ae09 953b 933a 283b 6a9d c2bb fb3a 76ba
000001c0: 6de6 873b d512 0ebb 7424 84ba 08e8 023b
000001d0: d8bf bebb bc74 cbbb ee57 3abc f68f 983b
000001e0: df1b 323a 9bb2 2abc 5d68 28bc 4abf 773c
000001f0: 05e8 e2bb ca62 3abb 0a45 dfbb b69d 273c
00000200: 279d e2bb fa45 033c 3931 97bb 0b87 71bc
00000210: 5bf3 f4bb 1491 2cbb 655f 683c b03e 103c
00000220: 3698 293c 8f56 19bb 7b62 1f3c 28e8 003a
00000230: 0865 53bc e70f 98bb ec7d 91bb e800 f7b9
00000240: c590 d03b 2766 b83b 12f5 36bc 3037 a6bb
00000250: 1da7 ef3b 924c 3c3b c227 3f3b feeb c63b
00000260: 0f1f 243b bf23 45ba 7b3a fe3b 27ec a63b
00000270: 5f19 78bc 5cca 0b3c 079a 11bc 0fda b8bb
00000280: 93fa 093c 2194 81bb e92a a9bb 8f70 43bb
00000290: e38b 823b f39e bd3b 61f0 013a 7299 003b
000002a0: 3b9d 113c 5a76 693c 8301 5d3b ca84 f4bb
000002b0: 88d5 58bc 93e0 93ba 3350 15bc 2d0f 623b
000002c0: d2a2 2f3c 7854 50bb 4661 aabb d71d 183c
000002d0: a3bc 013b 8bee eebb f8f4 1d3b fb29 24bc
000002e0: 84e7 2a3c 5741 6cbb bf80 fa3a 485c 523a
000002f0: 720b d53a 182d 9ebc d2c8 233b 538c a03b
00000300: 1b7f 0fbb 0bd8 a63b ff41 7fbc f32d 8f3c
00000310: 9f8b b83b a351 eebb c818 74bc 1b2f 77bc
00000320: 483c c43a 5f62 43bc df58 573c c1d4 0ebc
00000330: 7f0f 2e3c 3337 603c 3349 5a3b cb2a 77bb
00000340: 271e 8bbc 3b8d 0bbc c0fa d5ba 4d3e fd3b
00000350: e8f6 42bc 1f49 953c 36f0 08bc 985b 7dbc
00000360: d558 b3bb cdf3 ad3c 07f5 c23a 8aa6 a339
00000370: 9d73 38bc 8148 413c f29e cdba 768d 3dbc
00000380: 81f4 36bc 4e2f 1b3b 675a f03b ced8 093c
00000390: 6f48 17bc ca9a 6e3c cd25 e3bb 6eb0 a9bb
000003a0: 3f5c b6bb 4d9e 483c 40ae fb3b 3957 083a
000003b0: cb2c a63b 675c 193c 22a4 e23c 7596 a1bb
000003c0: 67a2 c53a 331e 523c bba0 163b f9c2 193c
000003d0: 8f94 06bc 9280 66bc 60c9 8e3b d3df 1bbc
000003e0: 9d7b 483c 0057 3b3c 981c e63b a651 90bb
000003f0: 175a 043c 48ff 203b a907 b23a fa88 523a
-0.0061386554 -0.010505923 0.0016629763 0.000114354654 -0.028610203 0.0015991541 -0.010232541 -0.012709014
-0.003389503 0.001550509 4.190406e-05 -0.0018387664 -0.015498662 0.012168094 -0.012137401 0.009385831
-0.005555381 -0.009463064 0.010684113 -0.005184617 0.015006997 -0.0053827595 -0.0071992697 -0.0026719442
-0.0012092368 0.01928199 0.010652651 0.015895149 0.008843052 0.003792811 -0.010050851 -0.0044228504
0.0043241023 0.0009759452 -0.014003736 -0.0018279806 -6.807071e-07 0.0033810951 0.004585677 0.007323719
-0.011122734 -0.015508006 -0.016007347 0.015744114 -0.00094075326 0.008485594 0.0063985633 0.022435082
-0.023536945 0.0051945834 0.011463701 -0.012581954 0.009047425 0.0011538255 -0.0029027127 0.0031662
0.0054647215 0.0036460923 0.013429231 -0.0072611333 -0.010554197 0.004816706 -0.003094037 0.01210049
-3.6614732e-05 0.0014341491 -0.0014060768 -0.009403922 -0.002947311 -0.014757772 0.006859132 0.0043144105
0.008269904 0.02011309 0.0050370055 -0.006451635 -0.005951417 0.00020204348 -0.012286539 0.0036118205
-0.00057790114 -0.010533692 -0.0034349884 -0.011855555 -0.0074282014 0.005651412 0.0043862923 0.0004910436
-0.00091358426 0.014957112 -0.0029716417 -0.00565033 -0.0004279912 -0.0051730336 0.022631397 0.0048029874
0.016884087 0.006653835 -0.010791334 0.021976424 -0.0071002613 0.013243653 0.020672835 -0.00094289443
0.0067283525 0.0061512585 -0.010101239 -0.0048536775 0.004548273 0.0025669679 -0.0059391754 -0.0009392944
0.004147342 -0.0021678705 -0.0010081665 0.0019974727 -0.0058212094 -0.006208984 -0.011373503 0.0046558334
0.0006794314 -0.010418559 -0.010278788 0.01512129 -0.0069246315 -0.002844023 -0.00681365 0.010230472
-0.0069157067 0.008012289 -0.004614022 -0.014741669 -0.0074752993 -0.002633159 0.0141829 0.008804008
0.010351231 -0.002339754 0.009728069 0.00049174065 -0.012902506 -0.0046405676 -0.00444006 -0.00047112186
0.006364914 0.005627412 -0.011166828 -0.005072497 0.0073136226 0.0028732163 0.0029167985 0.006070613
0.0025042926 -0.000752028 0.0077584363 0.0050940695 -0.015142768 0.008532133 -0.008886821 -0.005641229
0.008421558 -0.003954426 -0.005162586 -0.0029821729 0.003983961 0.0057867705 0.0004956779 0.001962271
0.008887584 0.014249409 0.0033722825 -0.0074621188 -0.013234504 -0.0011282138 -0.009113359 0.0034493909
0.010719972 -0.0031788629 -0.005199584 0.009284458 0.0019796274 -0.00729162 0.0024102312 -0.010019775
0.010431174 -0.0036049688 0.0019111856 0.0008024615 0.0016254021 -0.019308612 0.0024991524 0.0048995405
-0.002189583 0.0050916723 -0.0155797 0.017477965 0.0056318785 -0.0072729154 -0.014898486 -0.015086914
0.0014971578 -0.011925309 0.013143747 -0.008717717 0.010623812 0.0136850355 0.003330779 -0.0037714716
-0.016982151 -0.008517559 -0.001632534 0.007728374 -0.011899687 0.018223343 -0.008358052 -0.015463732
-0.005473236 0.021234417 0.0014874049 0.00031213864 -0.011258033 0.011797071 -0.0015687628 -0.011569371
-0.011166693 0.002367932 0.0073349955 0.008413507 -0.009233578 0.014563272 -0.0069319964 -0.0051785028
-0.005565196 0.012244773 0.0076806843 0.00052009855 0.0050712577 0.009360409 0.027666155 -0.004931266
0.0015078307 0.012824583 0.0022983986 0.009384864 -0.00821413 -0.0140687395 0.004357502 -0.009513813
0.012236503 0.011434317 0.0070224516 -0.0044042645 0.00807812 0.0024566222 0.0013582605 0.00080312754

action_model._discrete_distribution.branches.3.bias f4 [2]
00000000: 0000 0000 0000 0000
0.0 0.0

action_model._discrete_distribution.branches.4.weight f4 [2, 128]
00000000: dd0b 2d3c 73b1 053b ab54 c9ba 1ef3 3cbb
00000010: 613a ad3b 75ca 7bba dbff 733c 6216 d0bb
00000020: a3db 18bb e690 09bc 38bc a9bb 4b02 18ba
00000030: 8b32 063c 6aa2 6839 dd0b 76bc 12b4 ddbb
00000040: 5f81 353c abc8 3d3c aacf 823b d1de c7bb
00000050: dff2 e4ba b8da 523c 610f 263c 3d02 c4bb
00000060: fbb5 89bc 1dba 59bc 6fa2 9b3b 1002 2a3c
00000070: 4fa5 89bb c048 64bb 9a32 2d3c b94a 033c
00000080: a835 753b b8f6 3a3b 0a9e 84bb 828b cf3a
00000090: a71d 62bc b796 a03b fde8 e6bb 1312 4d3c
000000a0: 1b63 60bc 9b0a a33b df09 f8bb c60b 16bc
000000b0: 5a40 c5bb f0c8 813a e6f4 1bbc b76f e13b
000000c0: c0d1 4cba baf0 6d3c ffc4 823b 63fd 76bb
000000d0: 9d49 cbba ff2e 083c a04f 99bb 6569 073c
000000e0: 0b39 08bc 5a28 75bb 2f85 f2bb f56e 743b
000000f0: ca6c 26bc 4d28 d23b 02fc 1e3c ed53 99ba
00000100: 8060 56bc e1b6 1c3c e7fd bebb 6541 d038
00000110: f2eb 31bb f30f 70bc e185 ba3b ad66 e13b
00000120: 2fb8 de3b 77df f8bb 4587 a13b 3df8 b2b7
00000130: d44d a73a 6f4d c2bb 279a e2bc 6861 74ba
00000140: 100e d63b 2677 953b 158c 463c 1a6f 8b3b
00000150: 3f86 ff3b 0dec abba 4216 8e39 c744 d6ba
00000160: 04ed bc3a c7f0 f83b 63a4 b6bb 55b7 c33a
00000170: 96a1 b33b abd9 46bb e76b f93b 72ea 31bc
00000180: f78a 9ebb bc75 03bb df12 34bc 679f 18bb
00000190: 698d 8c3b 1fbd 893b 4bf6 3bbb a22e 6bbb
000001a0: bd07 da3b 8a16 98bb b598 d13b 87d8 bf3a
000001b0: b398 b3bc bb7a ceba 9d18 303c 5fd3 0ebc
000001c0: ff3e 63bb 83bc b7bb 3a19 7ebb ff72 d2bb
000001d0: d869 c1bb 11c0 84bb d8c6 c83b 9f23 183b
000001e0: 3d41 30bc f33b a93b 97a9 353c 1f02 503b
000001f0: 249e 14bc 97d0 83bc e547 a53b 4b33 59bc
00000200: a19e 043c d476 c53c b417 923b 6594 64ba
00000210: 413c 21bb dfe2 9c3b 71b9 33bc 935d 26bc
00000220: 9370 953b c7c6 2d3c 6b7a 3a3b e7bd e5ba
00000230: 5094 283c 9b44 a5ba cadb c8bb 1235 90ba
00000240: 6fbf 8f3a 4b3a a5bb 4a69 d7bb fbc9 14bc
00000250: 9089 0ebc 20eb 4c3b 9736 27bb 64ca 49bb
00000260: 72ed 233c 4540 80bc c011 443a aa08 28bb
00000270: 9b47 c53b 332a 84bb 5f19 1ebb 95af 16bc
00000280: 97a4 d2ba cf9d d83c 0a73 dbbb 9854 feba
00000290: 7751 4bbb cb4a 51bc 04b0 8fbc 77b9 cc3b
000002a0: af84 843c fd6e 66bc 1ada 7c3b 6c38 2fbb
000002b0: a2c8 6dbc b08c 15bc e33d 653b e090 f0bb
000002c0: e6a2 acbb 291e 1dbb 1f94 39bb e3d1 293c
000002d0: 989e 263b cbf8 88bc d9d7 3c3c bffb 193b
000002e0: d062 5d3b 9711 94bb 5b57 37bb cdf0 b53b
000002f0: 3b19 0e3c b1c8 813c ab45 ff3b 4769 063c
00000300: 38a8 d5ba 6cbd 183c 18a6 f93b 17a4 13bc
00000310: 206d d93a 33d1 0fbc ce3f c03a 7df3 5b3b
00000320: 37a6 513c 686d ab3b 1bec 343b f7e1 b13b
00000330: 08d4 dbba c8af d9bb c7fa d83a e0cd 82bc
00000340: d341 4b3a 09e3 2ebb bf31 763c 9b80 6e3c
00000350: d8be 4e3b 9711 a93b 2769 0d3c 68d8 9a3a
00000360: f4c3 a53b ea7a 5e3c 2621 813c fa85 083c
00000370: 7078 3ebb c0ea f8ba 33ca ce3b 25fb 873b
00000380: daff 7b38 578b 08bc 9364 e3ba d391 57bc
00000390: c7d0 293b 3439 12bc bc61 953c 80ed 343c
000003a0: 071d 523b dd02 6e3b 9ab7 853b 87f8 573b
000003b0: 40ae e33a e6c1 44bb b743 2a3c 9adf d2ba
000003c0: a6e2 873b 9628 b2bb 6a85 f7bb 1740 183c
000003d0: 4fc2 053c ea0c 54bb e0ee 2d3c 2b40 63bc
000003e0: 9b83 403c 27aa 0e3c b6ac 02bc 7fab adbb
000003f0: 6478 b7ba 93f0 bebc 894f 373c 430e f53b
0.01056191 0.0020399957 -0.0015360316 -0.0028831433 0.0052865003 -0.00096050586 0.014892544 -0.0063503245
-0.0023324273 -0.008396363 -0.005179908 -0.00057986815 0.008190761 0.00022185748 -0.015017477 -0.006765851
0.011078208 0.0115834875 0.0039920406 -0.00609956 -0.0017467401 0.012869529 0.010135503 -0.005981712
-0.016810408 -0.013289002 0.004749588 0.010376468 -0.0042006145 -0.0034833401 0.010571146 0.008013421
0.0037416015 0.0028528403 -0.00404716 0.0015834423 -0.013801015 0.004900779 -0.0070468173 0.012516516
-0.013695504 0.0049756295 -0.007569536 -0.00915808 -0.006019634 0.0009901803 -0.009518838 0.0068797725
-0.00078132376 0.014522726 0.003990769 -0.0037687651 -0.0015509609 0.008311986 -0.0046786815 0.008264874
-0.008314381 -0.0037408085 -0.0074011306 0.003729758 -0.010157773 0.0064134956 0.009703638 -0.0011697985
-0.013084531 0.009565086 -0.0058286074 9.9303936e-05 -0.002714869 -0.01465224 0.005692229 0.006878695
0.0067968587 -0.0075949985 0.0049294555 -2.1334848e-05 0.0012764283 -0.005929641 -0.027661396 -0.0009322376
0.006532438 0.0045613227 0.012118359 0.0042551877 0.007797986 -0.0013116613 0.00027100934 -0.0016347402
0.0014413898 0.0075970623 -0.0055737956 0.0014931957 0.005481909 -0.0030342143 0.00761174 -0.010859119
-0.0048383432 -0.0020059189 -0.010990827 -0.002328837 0.0042893183 0.004203453 -0.0028680738 -0.003588595
0.0066537545 -0.0046413587 0.006396378 0.0014636674 -0.021923399 -0.0015753129 0.010748056 -0.008717387
-0.0034675 -0.005607189 -0.003877236 -0.0064224 -0.00590251 -0.0040512164 0.0061272196 0.0023214591
-0.0107577415 0.005164617 0.011087797 0.0031739546 -0.009070907 -0.016090674 0.005043971 -0.013256858
0.008094461 0.024104513 0.004458392 -0.0008719622 -0.0024602565 0.0047877873 -0.010969506 -0.010154146
0.004560539 0.010606474 0.0028454314 -0.0017527909 0.010289267 -0.0012608947 -0.0061297165 -0.0011002144
0.0010967086 -0.0050423495 -0.0065738307 -0.009081359 -0.00869979 0.0031268075 -0.0025514716 -0.00307908
0.010005342 -0.015655646 0.00074794516 -0.002563993 0.006020499 -0.004033351 -0.002412401 -0.009197135
-0.001607078 0.026442437 -0.0066970633 -0.0019403873 -0.0031023899 -0.01277418 -0.017539985 0.006247695
0.01617655 -0.014064548 0.0038582147 -0.002673651 -0.014513167 -0.009127781 0.0034979514 -0.007341489
-0.0052684424 -0.0023974276 -0.0028317047 0.010364982 0.002542412 -0.016720196 0.0115260715 0.0023496
0.003378082 -0.0045186984 -0.0027975652 0.0055523873 0.008673008 0.015842767 0.0077902875 0.008203811
-0.0016300743 0.009322505 0.007618677 -0.00901129 0.0016588308 -0.008777904 0.0014667453 0.0033561878
0.012795976 0.005231548 0.002760655 0.0054285484 -0.0016771564 -0.006643269 0.001655423 -0.01596731
0.0007753644 -0.0026685616 0.015026509 0.014557029 0.0031546857 0.0051595676 0.008631027 0.0011813762
0.00505876 0.01357911 0.015762877 0.008332724 -0.0029063486 -0.0018990859 0.006310725 0.004149812
6.0081344e-05 -0.008334002 -0.0017348699 -0.013157326 0.0025911795 -0.008924771 0.01823508 0.011042953
0.0032060759 0.0036317625 0.004080725 0.003295453 0.0017370656 -0.00300228 0.010392121 -0.0016088367
0.0041468916 -0.005436967 -0.007553746 0.009292624 0.008164003 -0.003235633 0.010616034 -0.013870279
0.011750127 0.00870756 -0.007975748 -0.005299985 -0.0013997671 -0.023308074 0.011188396 0.007478507

action_model._discrete_distribution.branches.4.bias f4 [2]
00000000: 0000 0000 0000 0000
0.0 0.0
