Assets/results/ppo/My Behavior/My Behavior-752.onnx (onnx, 156809 bytes, 20 tensors)

discrete_act_size_vector f4 [1, 14]
0	0x40000000	2.0
1	0x40000000	2.0
2	0x40000000	2.0
3	0x40000000	2.0
4	0x40000000	2.0
5	0x40000000	2.0
6	0x40000000	2.0
7	0x41200000	10.0
8	0x41200000	10.0
9	0x41200000	10.0
10	0x41200000	10.0
11	0x41200000	10.0
12	0x41200000	10.0
13	0x41200000	10.0

network_body._body_endoder.seq_layers.0.weight f4 [128, 24]
0	0x3ea6c910	0.32575274
1	0x3dcbf90b	0.099596106
2	0xbdadc6e4	-0.08485201
3	0x3e90377c	0.2816733
4	0xbe70e5a5	-0.23525102
5	0xbee6bfe7	-0.45068285
6	0x3e764389	0.240492
7	0x3e1b9146	0.15192136
8	0xbe83c6d4	-0.2573763
9	0x3eb30e9f	0.34972093
10	0x3e6bb201	0.23017122
11	0x3e027089	0.12738241
12	0x3e5b0c15	0.21391328
13	0xbeedbe4d	-0.4643425
14	0xbe2b675e	-0.1673865
15	0x3e873aaf	0.2641196
16	0xbc655fbf	-0.013999878
17	0x3e040a3c	0.12894529
18	0x3d68796c	0.056756422
19	0xbe0e5c02	-0.13902286
20	0x3ed00048	0.40625215
21	0xbdd04e9b	-0.10171243
22	0x3e376c70	0.1791246
23	0xbdaf2eaf	-0.08553826
24	0x3df9b58e	0.12192832
25	0xbe193ffc	-0.14965814
26	0xbedb1a7f	-0.42793652
27	0xbd055cbf	-0.032559153
28	0x3ea3a693	0.31963024
29	0x3e84def7	0.2595136
30	0xbe8ffca2	-0.2812243
31	0x3e16e49c	0.14735645
32	0xbdecf768	-0.115706265
33	0xbd22b898	-0.039726824
34	0x3e5eec63	0.21769862
35	0xbdd3e649	-0.10346658
36	0x3e29b11a	0.16571465
37	0xbed5f01e	-0.41784757
38	0x3dc282be	0.09497593
39	0xbe3d48ad	-0.18484755
40	0xbd86d77d	-0.0658407
41	0x3eb3514b	0.3502296
42	0xbe4a9018	-0.1978153
43	0xbe089fc7	-0.133422
44	0x3e81c06c	0.2534212
45	0x3e62bd32	0.22142485
46	0x3bd3ee8c	0.006467646
47	0xbe276064	-0.16345364
48	0x3d3dae41	0.04630876
49	0xbe9e7693	-0.3094984
50	0x3e95da19	0.29267958
51	0xbdd77e5a	-0.105221465
52	0xbe51cc8c	-0.20488185
53	0x3df9f5d6	0.122050926
54	0x3e8954e9	0.26822594
55	0xbe90fd9e	-0.28318495
56	0x3cbc0407	0.02295114
57	0x3dfb4108	0.12268263
58	0xbe02ea8c	-0.12784785
59	0xbec87b5f	-0.39156625
60	0x3e2051bb	0.15656178
61	0xbf2ef12c	-0.6833675
62	0xbdf8c7dd	-0.12147496
63	0xbf00eb14	-0.503587
64	0xbd90e251	-0.070744164
65	0xbda6ad32	-0.08138503
66	0x3e87bb23	0.2650996
67	0x3d8d80c6	0.06909327
68	0x3e581735	0.21102603
69	0xbe1efc03	-0.15525822
70	0xbc703772	-0.014661657
71	0x3e7ab10b	0.24481599
72	0xbdffa850	-0.12483275
73	0xbda4baf4	-0.08043471
74	0xbf0577e8	-0.5213609
75	0x3c66eedd	0.014095035
76	0xbaa9304f	-0.0012908074
77	0x3ec309c7	0.38093397
78	0x3bab2ff9	0.0052242246
79	0x3eae1950	0.34003687
80	0x3e36d5d6	0.1785501
81	0x3e741766	0.23837051
82	0x3e855e65	0.2604858
83	0x3b0a73a0	0.0021126047
84	0xbdc54dea	-0.096340016
85	0xbac68f0f	-0.0015148836
86	0x3c89e213	0.016831433
87	0x3d4f29ad	0.050576854
88	0xbd110408	-0.035404235
89	0xbe896ab9	-0.26839235
90	0xbb8009fc	-0.00390744
91	0x3a2dcb1e	0.0006629693
92	0x3d55be6f	0.052183565
93	0x3f0611ae	0.5237073
94	0x3db7e41c	0.08979055
95	0xbc9fe113	-0.019516503
96	0x3efe7d0d	0.4970478
97	0xbf07aad4	-0.5299504
98	0xbd9b7ef1	-0.075925715
99	0xbe38cf60	-0.18047857
100	0x3e27eba0	0.16398478
101	0x3e4262f8	0.18983066
102	0xbe405d4a	-0.18785587
103	0xbe574068	-0.21020663
104	0xbd61a5b8	-0.055089682
105	0x3d9daeab	0.07699331
106	0x3e62772b	0.22115771
107	0x3dae778a	0.08518894
108	0x3d8c394f	0.06846868
109	0xbe79bcc3	-0.24388413
110	0xbe24f116	-0.16107592
111	0xbe5d771f	-0.21627472
112	0x3d254010	0.040344298
113	0xbd49d1b0	-0.04927224
114	0xbe6a3910	-0.2287333
115	0x3cd102af	0.025513975
116	0xbe8b9923	-0.27265272
117	0x3e1dafff	0.15399168
118	0x3e281e71	0.16417862
119	0xbe39f741	-0.18160726
120	0x3e29da92	0.16587284
121	0xbc4f7034	-0.012661029
122	0xbd791c70	-0.060818136
123	0xbe85ff90	-0.2617154
124	0x3d6e03e8	0.058109194
125	0x3e4c6584	0.199606
126	0x3d722f4b	0.059127133
127	0xbdcc2694	-0.09968296
128	0xbe56a355	-0.20960744
129	0xbdb552ae	-0.088536605
130	0xbe25f658	-0.16207254
131	0x3e7260bf	0.23669718
132	0x3e8792bb	0.26479134
133	0x3e974144	0.2954198
134	0x3e678e37	0.22612844
135	0xbda819da	-0.08208056
136	0x3d50f66e	0.051016264
137	0x3e38fb0d	0.18064518
138	0x3ed5bfac	0.41747797
139	0xbe729234	-0.23688585
140	0xbdfe8e01	-0.12429429
141	0x3d95e8ca	0.073197916
142	0x3e9a457b	0.30131134
143	0xbe6956b8	-0.22786987
144	0x3e25627b	0.16150849
145	0x3ce887e7	0.028385116
146	0xbd9a68ad	-0.075394966
147	0xbb964d2b	-0.004586836
148	0xbeebdee9	-0.46068504
149	0x3ec783e1	0.38967803
150	0x3e148d2e	0.14506981
151	0x3eb20473	0.3476902
152	0xbe3813a3	-0.17976241
153	0xbdad5bd6	-0.08464782
154	0x3e26392d	0.16232748
155	0xbe8c027b	-0.27345642
156	0x3ded3913	0.11583152
157	0x3d7a379f	0.0610882
158	0xbe6e7008	-0.23284924
159	0xbe3d889d	-0.18509145
160	0xbdec8b22	-0.11549975
161	0x3eab6bf6	0.33480805
162	0x3ddae978	0.10689062
163	0xbe6c6124	-0.23083931
164	0xbdd36645	-0.10322241
165	0xbdfce62f	-0.123485915
166	0xbd1127c2	-0.035438307
167	0xbc82bb89	-0.015958564
168	0x3e4df365	0.20112379
169	0x3eb2df3b	0.34935936
170	0xbeaad712	-0.3336721
171	0xbe673c44	-0.22581583
172	0xbdad540a	-0.08463295
173	0x3f0e68e0	0.55628777
174	0x3e112346	0.14173612
175	0x3d0a63a9	0.03378645
176	0xbe45f562	-0.19331887
177	0xbdd1a51f	-0.102365725
178	0xbda41ee2	-0.08013703
179	0xbe33c637	-0.17556082
180	0x3eac249e	0.33621687
181	0xbc73bdd5	-0.014876802
182	0xbdb7140a	-0.08939369
183	0x3e07a589	0.1324674
184	0xbd923827	-0.071396165
185	0xbeaa2dbc	-0.33238018
186	0x3e083062	0.13299707
187	0xbd14b894	-0.03630884
188	0xbd29ef0f	-0.04148775
189	0x3ea11a42	0.31465346
190	0xbdd90dcc	-0.10598335
191	0xbc93fd32	-0.018065069
192	0x3dc1482e	0.09437595
193	0xbe3b74a9	-0.18306221
194	0x3f0e4837	0.5557894
195	0xbe0ac116	-0.13550219
196	0xbeb474d1	-0.35245374
197	0xbdc6fd08	-0.09716231
198	0xbe029e5e	-0.12755725
199	0xbe4c5370	-0.19953704
200	0x3b4e9ce4	0.003152662
201	0xbd494786	-0.049140476
202	0xbd4531b1	-0.048143093
203	0x3de5444d	0.11194668
204	0x3e2e34b9	0.170123
205	0x3c4d2250	0.012520388
206	0x3bab7eed	0.0052336366
207	0x3e171d53	0.1475728
208	0x3eae21a6	0.34010047
209	0x3e3ab1d7	0.18231903
210	0x3d966f44	0.07345441
211	0xbe83d6ed	-0.25749913
212	0xbd167c3d	-0.036739577
213	0x3da97363	0.082739614
214	0x3e2d5532	0.1692703
215	0x3dd6ac0f	0.10482036
216	0xbd881770	-0.06645095
217	0xbc2f98ee	-0.010717614
218	0xbca521d0	-0.020157725
219	0xbe866e07	-0.2625582
220	0xbd9314b0	-0.0718168
221	0x3d545d3a	0.05184672
222	0x3e2679ef	0.16257451
223	0x3e52517c	0.20538896
224	0xbe0fe714	-0.14052993
225	0xbdcbf583	-0.09958937
226	0xbd0f30c0	-0.0349586
227	0xbcfffedf	-0.031249462
228	0x3e1f9dd9	0.15587558
229	0xbe8f7042	-0.28015333
230	0x3ec2b68c	0.38029897
231	0x3daa31a5	0.0831025
232	0x3d4e1b71	0.05031914
233	0x3e3b2a30	0.18277812
234	0x3d8f3358	0.06992215
235	0x3d82c548	0.06385285
236	0x3e3aee69	0.18255009
237	0x3e9eea97	0.31038353
238	0x3ec0791a	0.37592393
239	0xbe4ec142	-0.2019091
240	0x3d8f41bb	0.06994959
241	0x3e338cbd	0.17534156
242	0x3eaa64b5	0.33279958
243	0xbbe68394	-0.0070347283
244	0x3cb620b9	0.0222324
245	0xbdcf9cd2	-0.10137333
246	0x3b04987f	0.0020232496
247	0xbe54239d	-0.2071671
248	0x3e6adb8a	0.2293531
249	0xbd60c918	-0.054879278
250	0x3ebc48a0	0.36774158
251	0xbed347e8	-0.41265798
252	0xbe9189e3	-0.28425512
253	0x3ead475d	0.33843508
254	0x3e25a691	0.16176821
255	0x3e589257	0.21149574

network_body._body_endoder.seq_layers.0.bias f4 [128]
0	0x00000000	0.0
1	0x00000000	0.0
2	0x00000000	0.0
3	0x00000000	0.0
4	0x00000000	0.0
5	0x00000000	0.0
6	0x00000000	0.0
7	0x00000000	0.0
8	0x00000000	0.0
9	0x00000000	0.0
10	0x00000000	0.0
11	0x00000000	0.0
12	0x00000000	0.0
13	0x00000000	0.0
14	0x00000000	0.0
15	0x00000000	0.0
16	0x00000000	0.0
17	0x00000000	0.0
18	0x00000000	0.0
19	0x00000000	0.0
20	0x00000000	0.0
21	0x00000000	0.0
22	0x00000000	0.0
23	0x00000000	0.0
24	0x00000000	0.0
25	0x00000000	0.0
26	0x00000000	0.0
27	0x00000000	0.0
28	0x00000000	0.0
29	0x00000000	0.0
30	0x00000000	0.0
31	0x00000000	0.0
32	0x00000000	0.0
33	0x00000000	0.0
34	0x00000000	0.0
35	0x00000000	0.0
36	0x00000000	0.0
37	0x00000000	0.0
38	0x00000000	0.0
39	0x00000000	0.0
40	0x00000000	0.0
41	0x00000000	0.0
42	0x00000000	0.0
43	0x00000000	0.0
44	0x00000000	0.0
45	0x00000000	0.0
46	0x00000000	0.0
47	0x00000000	0.0
48	0x00000000	0.0
49	0x00000000	0.0
50	0x00000000	0.0
51	0x00000000	0.0
52	0x00000000	0.0
53	0x00000000	0.0
54	0x00000000	0.0
55	0x00000000	0.0
56	0x00000000	0.0
57	0x00000000	0.0
58	0x00000000	0.0
59	0x00000000	0.0
60	0x00000000	0.0
61	0x00000000	0.0
62	0x00000000	0.0
63	0x00000000	0.0
64	0x00000000	0.0
65	0x00000000	0.0
66	0x00000000	0.0
67	0x00000000	0.0
68	0x00000000	0.0
69	0x00000000	0.0
70	0x00000000	0.0
71	0x00000000	0.0
72	0x00000000	0.0
73	0x00000000	0.0
74	0x00000000	0.0
75	0x00000000	0.0
76	0x00000000	0.0
77	0x00000000	0.0
78	0x00000000	0.0
79	0x00000000	0.0
80	0x00000000	0.0
81	0x00000000	0.0
82	0x00000000	0.0
83	0x00000000	0.0
84	0x00000000	0.0
85	0x00000000	0.0
86	0x00000000	0.0
87	0x00000000	0.0
88	0x00000000	0.0
89	0x00000000	0.0
90	0x00000000	0.0
91	0x00000000	0.0
92	0x00000000	0.0
93	0x00000000	0.0
94	0x00000000	0.0
95	0x00000000	0.0
96	0x00000000	0.0
97	0x00000000	0.0
98	0x00000000	0.0
99	0x00000000	0.0
100	0x00000000	0.0
101	0x00000000	0.0
102	0x00000000	0.0
103	0x00000000	0.0
104	0x00000000	0.0
105	0x00000000	0.0
106	0x00000000	0.0
107	0x00000000	0.0
108	0x00000000	0.0
109	0x00000000	0.0
110	0x00000000	0.0
111	0x00000000	0.0
112	0x00000000	0.0
113	0x00000000	0.0
114	0x00000000	0.0
115	0x00000000	0.0
116	0x00000000	0.0
117	0x00000000	0.0
118	0x00000000	0.0
119	0x00000000	0.0
120	0x00000000	0.0
121	0x00000000	0.0
122	0x00000000	0.0
123	0x00000000	0.0
124	0x00000000	0.0
125	0x00000000	0.0
126	0x00000000	0.0
127	0x00000000	0.0

network_body._body_endoder.seq_layers.2.weight f4 [128, 128]
0	0x3db11b6f	0.08647811
1	0x3cef154b	0.029184958
2	0x3e27d2ab	0.16388957
3	0x3e321fd9	0.17394961
4	0xbe2a5f09	-0.16637816
5	0x3afce411	0.0019294043
6	0xbe1c67e0	-0.15274
7	0x3ce770be	0.028252002
8	0xbe380493	-0.17970495
9	0xbd8b7738	-0.068098485
10	0x3dd643c6	0.104621455
11	0x3c99d725	0.018779347
12	0xbde92cd6	-0.11385505
13	0x3e08db9c	0.13365024
14	0xbdc00f7a	-0.09377952
15	0xbb33ba3c	-0.0027424237
16	0x3dcf7c19	0.101310916
17	0x3d0a3e56	0.033750854
18	0xbd257b35	-0.040400703
19	0xbe00047d	-0.12501712
20	0xbe0e007a	-0.1386737
21	0x3ca9b917	0.02071814
22	0x3c3d6b57	0.011561236
23	0x3ce42a23	0.027852124
24	0x3cb3c64a	0.021945138
25	0xbd749a3d	-0.059717406
26	0x3dcb9b8c	0.099417776
27	0xbb369a78	-0.0027863067
28	0xbda43cd8	-0.080194175
29	0xbd8d6588	-0.06904131
30	0xbd382836	-0.044960223
31	0xbd3cf2ea	-0.0461301
32	0x3e0f8ffa	0.14019766
33	0x3ca1a261	0.019730749
34	0xbd68e55d	-0.056859363
35	0xbd6c62b6	-0.057711326
36	0xbd5bd046	-0.053665422
37	0xbde1c646	-0.11024146
38	0x3df1b1a5	0.11801461
39	0x3d16b508	0.03679374
40	0x3cf30f93	0.029670512
41	0xbd03662e	-0.032079868
42	0x3d45e1ea	0.04831115
43	0xbe3aa59e	-0.1822724
44	0xbdbafd98	-0.091304004
45	0xbe35c074	-0.17749196
46	0xbe03f8ef	-0.1288793
47	0xba710720	-0.0009194482
48	0x3d33739c	0.043811426
49	0x3d6c731a	0.057726957
50	0x3db1c34e	0.086798295
51	0x3e241961	0.16025306
52	0x3e132f1c	0.1437344
53	0x3b9a9015	0.004716883
54	0xbd232cfe	-0.03983783
55	0x3d16ef4a	0.036849298
56	0xbd4bc90b	-0.049752276
57	0xbdb483df	-0.08814215
58	0xbe0e2982	-0.13883021
59	0x3d57e8bc	0.052712187
60	0xbd7dd035	-0.06196614
61	0xbc877dbc	-0.016539447
62	0x3dad4249	0.084599085
63	0xbde097da	-0.109664634
64	0xbe26cff0	-0.1629026
65	0xbd3b7ea9	-0.04577509
66	0x3d08e4d2	0.033421345
67	0x3c9246d8	0.017856047
68	0xbd0d547e	-0.034504406
69	0xbcc177bb	-0.023616662
70	0xbd893a28	-0.067005455
71	0x3ca177a0	0.019710362
72	0xbe46bdd8	-0.19408357
73	0x3e413e32	0.18871382
74	0x3ae2fee4	0.0017318395
75	0xbdb81c4a	-0.08989771
76	0x3d4241eb	0.047426146
77	0x3e00f61b	0.12593882
78	0xbd82496a	-0.06361659
79	0xbe19f61b	-0.15035288
80	0x3e03e52a	0.12880388
81	0xbe205c57	-0.15660225
82	0x3d5da879	0.054115746
83	0x3b8c09c3	0.0042736246
84	0x3db50bd1	0.088401444
85	0x3c488711	0.012239234
86	0x3e6e1b02	0.2325249
87	0x3c1a807d	0.009430048
88	0x3d056f89	0.03257707
89	0x3dd9ead9	0.10640497
90	0x3cdcc611	0.026949914
91	0x3dc48741	0.0959611
92	0xbbb1aaa1	-0.005421952
93	0x3e1f64cb	0.15565793
94	0xbd45d5a8	-0.04829946
95	0x3d50f093	0.05101068
96	0xbd89470c	-0.06703004
97	0x3d137cfe	0.036007874
98	0x3d91c905	0.071184196
99	0x3d39163c	0.04518722
100	0xbcd5c4a1	-0.026094737
101	0x3c41ca94	0.011828084
102	0xbda808aa	-0.082047775
103	0x3d8fcfa4	0.07022026
104	0xbd87947d	-0.06620119
105	0x3dff8025	0.124756135
106	0x3c216be3	0.009852382
107	0x3e1fc721	0.15603305
108	0xbc71063b	-0.014710958
109	0x3e06728a	0.1312963
110	0x3e1408c4	0.14456469
111	0x3ca320fe	0.019913193
112	0x3dbfe499	0.093697734
113	0x3e06ced0	0.1316483
114	0x3cdb6650	0.026782185
115	0xbdaca001	-0.08428956
116	0x3e137a1b	0.14402048
117	0x3ca38f87	0.0199659
118	0xbd8d3596	-0.06894986
119	0xbdff71d0	-0.1247288
120	0x3e04111f	0.12897156
121	0xbd521ed4	-0.05129893
122	0xbd5818b2	-0.052757926
123	0xbc9e1360	-0.019296348
124	0xbde7dde2	-0.11321618
125	0x3e989d36	0.29807442
126	0x3e0d0c18	0.13774145
127	0x3dd31790	0.103072286
128	0xbe05bf56	-0.1306127
129	0x3e260af0	0.1621511
130	0x3d1cb752	0.038260765
131	0x3e1ec98e	0.15506575
132	0x3db2b161	0.087252386
133	0xb9df9c20	-0.00042650197
134	0x3e3d1aed	0.18467303
135	0xbd957425	-0.072975434
136	0x3dc46579	0.09589667
137	0x3ceccca1	0.028906168
138	0x3d8f09dc	0.069843024
139	0x3bf77444	0.0075517017
140	0x3d938e88	0.0720492
141	0x3dbc1368	0.09183389
142	0xbdb467bf	-0.088088505
143	0x3d2e7e75	0.042601068
144	0x3d8ba006	0.068176314
145	0xbddc5080	-0.10757542
146	0x3cc556e2	0.02408928
147	0x3d854e10	0.0650903
148	0xbc95b82e	-0.0182763
149	0x3de0c46c	0.109749645
150	0x3e0f2363	0.13978343
151	0x3e1eece3	0.15520053
152	0xbcc05676	-0.023478728
153	0xbc71cd77	-0.014758459
154	0x3d759125	0.059952874
155	0xbd818fc5	-0.0632625
156	0x3d9cde08	0.076595366
157	0xbe220acd	-0.15824433
158	0x3d3f6646	0.046728395
159	0x3e56a7c1	0.2096243
160	0x3da5b7c0	0.08091688
161	0xbe3759cd	-0.1790535
162	0xbd2fa462	-0.042881377
163	0xbcd43c84	-0.025907762
164	0x3ddf8bb3	0.109153174
165	0x3dd6bad3	0.10484853
166	0xbda00d0a	-0.07814987
167	0xbe149da4	-0.1451326
168	0xbd4d6ed0	-0.050154507
169	0x3d54744f	0.051868733
170	0xbe48d107	-0.19610988
171	0x3cb7e8f1	0.022449942
172	0x3d4f9c59	0.050686214
173	0xbe228da9	-0.15874352
174	0x3db2e7d2	0.087356225
175	0xbdd18e97	-0.10232275
176	0xbdec2472	-0.11530389
177	0xbd378501	-0.044804577
178	0x3ba911f3	0.0051596104
179	0x3d32053a	0.043462016
180	0xbd8c423b	-0.0684857
181	0x3b6d1ca1	0.0036180394
182	0xbe0c6144	-0.13708979
183	0x3d2903ca	0.04126338
184	0xbdccec95	-0.10006062
185	0xbde01b40	-0.109426975
186	0xbd47e2b0	-0.04880017
187	0xbe29c8f7	-0.16580568
188	0x3d367dad	0.044553448
189	0xbd64a265	-0.055818934
190	0xbd8b15af	-0.06791245
191	0x3df6968c	0.12040433
192	0xbe0c4cfe	-0.13701245
193	0xbd903f38	-0.07043308
194	0x3d0d52fe	0.034502976
195	0x3dac909c	0.084260195
196	0xbd18f42d	-0.03734224
197	0x3dbdafd3	0.092620514
198	0xbe18e60f	-0.1493151
199	0x3deadedc	0.11468288
200	0xbd9e8858	-0.07740849
201	0xbdc1de52	-0.09466232
202	0x3e6ad522	0.22932866
203	0x3df2b1e9	0.1185034
204	0xbb79f4e6	-0.0038140356
205	0x3e30d64e	0.17269251
206	0xbd6390f1	-0.05555815
207	0xbc6781ef	-0.0141301
208	0x3e035958	0.1282705
209	0x3d22d4ba	0.039753653
210	0xbd1819ac	-0.037133858
211	0xbca162f1	-0.0197005
212	0xbe4a978c	-0.19784373
213	0xbe31c908	-0.17361844
214	0x3cb34772	0.021884654
215	0x3dcd93a9	0.100379296
216	0xbd37ff2b	-0.04492108
217	0xbd336d6f	-0.043805536
218	0xbd98096d	-0.07423673
219	0x3dc8e00c	0.098083586
220	0xbe077ffe	-0.13232419
221	0xbc4a51a5	-0.012348567
222	0xbd503f77	-0.050841775
223	0xbd04b109	-0.032395396
224	0x3d66e708	0.056372672
225	0x3c9a389a	0.018825818
226	0xbccc57d6	-0.024944227
227	0xbdee7a81	-0.116444595
228	0x3d77aa93	0.060465407
229	0xbd98b994	-0.07457271
230	0xbb0cd634	-0.002148998
231	0x3d08aa71	0.03336567
232	0x3e258995	0.16165765
233	0xbcd32545	-0.025774607
234	0x3c31f87e	0.010862468
235	0x3d221558	0.039571136
236	0x3e4e7f23	0.20165686
237	0xbd53deb7	-0.05172607
238	0xbda3ad29	-0.07992012
239	0xbd530429	-0.05151764
240	0x3dd5d14e	0.10440312
241	0xbd7d534b	-0.061847012
242	0xbe0881ea	-0.13330808
243	0x3e4a5ed0	0.1976273
244	0xbdd96d9b	-0.10616609
245	0xbcef8e69	-0.029242711
246	0x3c8529fd	0.016255373
247	0xbdb9dc1c	-0.09075186
248	0x3d86aca5	0.06575898
249	0xbd7625f9	-0.060094807
250	0xbe0e8f03	-0.13921742
251	0xb9a5ada9	-0.0003160064
252	0xbd113164	-0.035447493
253	0xb9baaf0e	-0.0003560711
254	0xbcf328bb	-0.029682508
255	0xbe1ed940	-0.15512562

action_model._discrete_distribution.branches.0.weight f4 [2, 128]
0	0xbb4146ae	-0.0029491591
1	0x3b923f7e	0.0044631353
2	0x3b29c97f	0.0025907455
3	0x3bd538a7	0.0065069976
4	0xbc024b91	-0.007952587
5	0xbc4a2193	-0.012337106
6	0x3be4112a	0.006960054
7	0x3bec6580	0.007214248
8	0x3c1e353e	0.009656249
9	0x3c685a75	0.014181723
10	0x3c0e6194	0.008690257
11	0x3b5f2807	0.0034050958
12	0x3b0d4235	0.0021554355
13	0xbc1124ad	-0.008858842
14	0xbb384283	-0.0028115816
15	0x3bcd6580	0.0062682033
16	0xbc0f0650	-0.008729532
17	0xbb7b789b	-0.0038371447
18	0xbc78059b	-0.015138055
19	0xbc9aa29c	-0.018876366
20	0x3b92bf3b	0.004478363
21	0x3b8f8461	0.0043797945
22	0xbb5e7f73	-0.0033950477
23	0xb9f02537	-0.00045804094
24	0xba7742dd	-0.00094322657
25	0xbcd1ebda	-0.025625158
26	0xbc5458e5	-0.012960647
27	0x3c274f1b	0.010211731
28	0xbc592e13	-0.013255614
29	0xbb9c4fc5	-0.0047702515
30	0xbca0af1e	-0.019614752
31	0xbba9d4c5	-0.005182835
32	0x3b977a47	0.004622731
33	0x3c13a713	0.009012002
34	0x3b384498	0.0028117057
35	0x3ab006f0	0.0013429802
36	0xba811e1d	-0.0009850893
37	0xbb869f9b	-0.004108382
38	0xbb1e051e	-0.0024111937
39	0xbc205ff0	-0.009788498
40	0xba1a4fa3	-0.00058865006
41	0x3c461aa5	0.0120913135
42	0x3be01f52	0.006839671
43	0xbc36497c	-0.0111259185
44	0x3bd5d84a	0.006526028
45	0xbc26066a	-0.010133365
46	0xbbcc5ffc	-0.006237028
47	0x3ae28b87	0.0017284014
48	0x3c11a98a	0.008890519
49	0x3a26b4df	0.00063593494
50	0xbbc82991	-0.0061084707
51	0x3c11561e	0.00887063
52	0xbbe8ca6d	-0.007104209
53	0x3ae95cb0	0.0017804112
54	0x3b134f8c	0.0022477834
55	0x3af7dd9f	0.0018910653
56	0x3b49eabf	0.0030810086
57	0xba6d3bc3	-0.0009049738
58	0xbc7b523d	-0.015339431
59	0xbac8b7b7	-0.001531354
60	0x3c0e5f76	0.008689752
61	0x3bdc6505	0.0067259097
62	0x3c1708d9	0.009218418
63	0xb741e569	-1.155711e-05
64	0x3bc8bf16	0.006126295
65	0x3a33bb0f	0.0006856182
66	0xbc003966	-0.007826185
67	0x3bc369a5	0.0059635215
68	0xbb90cc1f	-0.0044188644
69	0xbbb6ba48	-0.0055764057
70	0xbc73a2cd	-0.014870358
71	0xbbeb5145	-0.007181319
72	0xbbc63997	-0.0060493457
73	0xbb3d3816	-0.002887254
74	0x3b146a34	0.002264631
75	0x3b9b3b1b	0.0047372705
76	0xbb9bd043	-0.0047550513
77	0xbb80f6ff	-0.003935694
78	0xbc202293	-0.009773868
79	0x3c2aa822	0.010416063
80	0xbb9635eb	-0.0045840642
81	0x3c899ada	0.016797472
82	0x3becba12	0.0072243297
83	0xba83b39b	-0.0010048033
84	0xbcaae997	-0.020863337
85	0x3b8fc7ea	0.0043878453
86	0xbc6e117b	-0.014530535
87	0x3b004c4b	0.0019576724
88	0x3c9512aa	0.018197376
89	0x3b6b32e2	0.0035888483
90	0x3b7db7da	0.003871432
91	0xbad96deb	-0.0016588544
92	0x3cc4044a	0.023927826
93	0x3bfae1f8	0.007656332
94	0x3ab0fd92	0.0013503304
95	0x3bcca910	0.0062457398
96	0xbc379f7c	-0.011207458
97	0xbc0ee093	-0.008720535
98	0xbbea7f9b	-0.007156325
99	0xbb3fece2	-0.002928548
100	0x3a988e2e	0.0011639053
101	0x393c90d3	0.00017983028
102	0xbbfb7835	-0.007674242
103	0xbc76f3a0	-0.015072733
104	0xbb5a4422	-0.003330477
105	0x3c29c040	0.010360777
106	0xbc0fbe63	-0.008773419
107	0xbb586ee2	-0.0033025076
108	0xbb938560	-0.0045019835
109	0xbc5bc83b	-0.013414438
110	0x3943979a	0.00018653125
111	0xbb686007	-0.0035457627
112	0x3b888b2f	0.0041669826
113	0x3bff448a	0.007790153
114	0xbc59657f	-0.013268827
115	0xb9d9eb7b	-0.00041564912
116	0xbc341f6f	-0.0109938225
117	0x3b2dc828	0.0026517007
118	0x3b30145f	0.002686761
119	0x3b460377	0.0030214468
120	0xbafc1f23	-0.0019235354
121	0xbc4d6a3a	-0.012537533
122	0x3b17b8b2	0.0023150858
123	0x3c8ae365	0.016954133
124	0x3c381afb	0.011236901
125	0x3bfc70fd	0.007703899
126	0xbba79489	-0.0051141423
127	0x3a83a1cd	0.0010042727
128	0x3aac7243	0.0013156611
129	0x3bf7a10f	0.0075570415
130	0x3baabc53	0.0052104383
131	0x3ad7694f	0.0016434583
132	0xbc421325	-0.011845385
133	0x3b3ac4ea	0.0028498718
134	0x3a453ac0	0.0007523708
135	0xbc4eee82	-0.012630107
136	0xb9f09fcd	-0.00045895428
137	0x38335e9d	4.276504e-05
138	0xba63a4c0	-0.00086839125
139	0x3bde3f27	0.0067824307
140	0xbbcdb93d	-0.0062781856
141	0x3b02f5de	0.0019982974
142	0x3af57d25	0.0018729313
143	0xbba4ba0f	-0.0050270627
144	0xbb91b2bb	-0.004446355
145	0x3c215de8	0.009849049
146	0xbc20aa5a	-0.00980624
147	0x3c14794c	0.009062123
148	0xbbde06c2	-0.006775708
149	0xbb813e0b	-0.0039441637
150	0x3be47073	0.006971413
151	0xbc328415	-0.010895749
152	0x3bfbe953	0.0076877265
153	0x3bf75d0d	0.0075489343
154	0x3b0fe90d	0.0021958977
155	0xbbbba507	-0.00572646
156	0x3c2c1cee	0.010504944
157	0xbc5698d0	-0.013097957
158	0xbb86a96c	-0.004109552
159	0xbc47fc77	-0.012206188
160	0x3c0d4fa3	0.008624944
161	0x3c41dfcf	0.011833145
162	0xbc620bd0	-0.013796762
163	0xbaa30259	-0.0012436613
164	0xb7dca408	-2.6302427e-05
165	0xbcbd36c9	-0.023097413
166	0x39c98672	0.00038437877
167	0xbc28e962	-0.010309549
168	0xbbbe64cd	-0.0058103562
169	0x3b18a8e5	0.0023294028
170	0x3ba35347	0.0049842927
171	0x3b79d6d2	0.0038122428
172	0xba65f3db	-0.0008771994
173	0xbc0a729c	-0.008450177
174	0x39f5764a	0.00046818174
175	0x3b632e4d	0.0034665049
176	0x3ad81bdd	0.0016487796
177	0xb9b9576f	-0.00035351093
178	0x39a8c49a	0.00032189937
179	0x3c030594	0.007996935
180	0x3cc7701a	0.024345446
181	0xbb14d207	-0.0022708194
182	0xba9099c6	-0.0011032156
183	0xb9b316ed	-0.00034158622
184	0xbb4cea1a	-0.0031267465
185	0xbba97e64	-0.0051725376
186	0x3c42fa63	0.011900517
187	0xbb9cc652	-0.004784384
188	0xb9f78fc7	-0.00047218634
189	0xbc76b5ab	-0.015057961
190	0x3c4930bb	0.012279685
191	0xbc448a53	-0.01199587
192	0xbbd2e95a	-0.006436509
193	0xbb67fa3b	-0.0035396952
194	0xb8dc63ef	-0.000105090316
195	0xbbeab1cb	-0.007162308
196	0xbc4805b4	-0.012208391
197	0x3b8581df	0.0040743197
198	0x3cbe740a	0.023248691
199	0xbc808137	-0.015686614
200	0x3bbf3f50	0.005836405
201	0x3ba8cad3	0.0051511317
202	0x3b986243	0.0046503856
203	0xbbc35fb7	-0.005962338
204	0x3b5c026a	0.0033570775
205	0x3b5d630d	0.0033780963
206	0xbc4969a0	-0.012293249
207	0xb9c30c97	-0.00037202679
208	0xbc76bbff	-0.01505947
209	0x3c56597f	0.013082861
210	0x39cb76f2	0.00038807798
211	0x3b8b5edb	0.004253251
212	0x3b148a4b	0.0022665437
213	0xba6f958b	-0.000913941
214	0xbc500f32	-0.012698935
215	0xbc07299c	-0.008249667
216	0x3bc928db	0.0061389036
217	0x39068dae	0.00012832016
218	0x3b9b85db	0.0047461814
219	0x3c2b51c9	0.010456511
220	0xbb7ec740	-0.0038876086
221	0x3b5a833a	0.0033342377
222	0xbb31b2bd	-0.0027114593
223	0x3b37c1ff	0.0028039215
224	0x3c2af942	0.010435404
225	0x3c807699	0.015681552
226	0xbbdbbea7	-0.006706077
227	0x3abdcfc6	0.0014481477
228	0xbc35c51f	-0.011094361
229	0x39891af1	0.0002615075
230	0xbb99c717	-0.004692923
231	0x3b5cb270	0.0033675693
232	0x3c13c001	0.009017945
233	0x3bc203ef	0.005920879
234	0xbaaa68e3	-0.0013001229
235	0x3c7f34af	0.015576526
236	0x39def7b5	0.00042527696
237	0xbbcdba45	-0.0062783086
238	0xba950ca6	-0.0011371567
239	0xbc17a5a0	-0.009255797
240	0xbc57e86a	-0.01317797
241	0xbbcd5cc3	-0.0062671616
242	0x3c47476f	0.012163027
243	0xbbd410ba	-0.0064717205
244	0x3adea1f7	0.0016985525
245	0xbbef35eb	-0.0073001287
246	0x3bf71113	0.007539877
247	0x3c3853cc	0.0112504475
248	0x3c33c126	0.010971343
249	0x3beff7df	0.0073232497
250	0x3c1e8197	0.009674451
251	0xbaff4735	-0.0019476177
252	0xbc0e38e6	-0.008680558
253	0xbc642107	-0.01392389
254	0x3b5a7a3b	0.0033337015
255	0xbc66c1f8	-0.014084332

action_model._discrete_distribution.branches.0.bias f4 [2]
0	0x00000000	0.0
1	0x00000000	0.0

action_model._discrete_distribution.branches.1.weight f4 [2, 128]
0	0xbca871a3	-0.020561999
1	0xbc1948ff	-0.0093557825
2	0x3c5b43f2	0.013382899
3	0x3c94cf54	0.018165268
4	0xbc0b8ee3	-0.008517954
5	0xbbb9c6d7	-0.0056694555
6	0xbc1e9535	-0.009679128
7	0x3b9064df	0.004406556
8	0x3bef3f1b	0.007301224
9	0x3b24754b	0.0025094326
10	0x3b8dd23e	0.0043280413
11	0xbb1f00de	-0.0024261991
12	0xba9161e2	-0.0011091793
13	0xbaf3c01f	-0.0018596685
14	0x3bfc2b12	0.007695564
15	0x3b1906fb	0.0023350108
16	0x3be49160	0.006975338
17	0xbc3b50ff	-0.011432885
18	0xbc7024fb	-0.014657254
19	0xbc41c0bc	-0.011825737
20	0x3b1cd4e4	0.0023930604
21	0xbb3d3a0c	-0.002887371
22	0x3c2734a0	0.010205418
23	0x3bac141c	0.0052514207
24	0xba6771bd	-0.0008828899
25	0xbbe8760d	-0.007094151
26	0xbba79b37	-0.0051149386
27	0x3c5688cd	0.013094139
28	0xbb15ccf6	-0.0022857762
29	0x3c1e6984	0.009668712
30	0x3c211844	0.0098324455
31	0x3ca65dba	0.020308364
32	0x3c8b1db6	0.01698194
33	0x3c8a4001	0.016876223
34	0x3b8824b5	0.0041547664
35	0xbbfa57cb	-0.0076398603
36	0x3c5dce1d	0.013537911
37	0xbbf32567	-0.00742023
38	0x3ac3a2a8	0.0014925795
39	0xbc8ed1df	-0.017434059
40	0xbc477347	-0.01217348
41	0x3ae69e6f	0.0017594824
42	0x3b64ef38	0.0034932625
43	0x3b7eccc7	0.003887938
44	0x3b5dc335	0.0033838276
45	0x3ae5fba7	0.0017546312
46	0x3b8695df	0.0041072215
47	0x3c53a28a	0.01291717
48	0xbb92b979	-0.0044776765
49	0x3b066b14	0.00205106
50	0xbcafffc2	-0.02148426
51	0xbcc30767	-0.02380724
52	0xbc2c491d	-0.010515478
53	0xbacaa501	-0.0015460552
54	0xbac6be02	-0.0015162828
55	0x3b5f3e03	0.0034064061
56	0xbc68d4d7	-0.014210901
57	0xbbc78b04	-0.00608957
58	0xbb8e6a73	-0.004346186
59	0x3a814932	0.0009863733
60	0x3c0de3e7	0.008660293
61	0xbb7a0caf	-0.0038154533
62	0xbc290e5f	-0.010318368
63	0xba528c92	-0.0008031811
64	0xbc46d278	-0.012135141
65	0xbb2c58e4	-0.00262981
66	0x3bae2a92	0.0053151334
67	0x3c34e63f	0.011041223
68	0x3aace967	0.0013192118
69	0xbb930fd3	-0.0044879704
70	0xbbcc729e	-0.0062392494
71	0x3b8063a7	0.0039181295
72	0x3c0f3edb	0.008743013
73	0xbb9b01d2	-0.0047304416
74	0xbaebf9cf	-0.0018003526
75	0xbbb6f22f	-0.0055830698
76	0x3c1e91c3	0.009678307
77	0x3b637f7d	0.003471344
78	0x3c6826bf	0.014169394
79	0xbbde160b	-0.00677753
80	0xbc7231d5	-0.014782389
81	0x3c083647	0.008313722
82	0xbb8a5113	-0.0042210906
83	0xbc336940	-0.0109503865
84	0xbb0a876a	-0.0021137842
85	0xbc271a41	-0.0101991305
86	0xbc017185	-0.0079006
87	0xbb9de0db	-0.0048180646
88	0xb9d158bf	-0.00039929707
89	0xbc6234c0	-0.013806522
90	0xbc6171c2	-0.013760032
91	0x3ba8bc38	0.0051493905
92	0xbb848c86	-0.004045072
93	0xbbff7fdb	-0.007797224
94	0xbbbe73d8	-0.0058121495
95	0xbc616d02	-0.0137589
96	0x3b8067e3	0.0039186343
97	0x3adc6af0	0.0016816538
98	0x3c175f27	0.009238995
99	0x3b718337	0.0036851892
100	0x3c4571c2	0.012051048
101	0x3c7ff037	0.0156212365
102	0xbc6c1e90	-0.014411584
103	0x3b865030	0.0040989146
104	0x3bcc4f2a	0.006235023
105	0xbb5f2a42	-0.0034052287
106	0xbabed7fb	-0.0014560217
107	0x3bb4f697	0.00552256
108	0x3c148568	0.00906501
109	0x3bf02e45	0.0073297345
110	0x3999a1e3	0.0002930305
111	0xbb91e769	-0.004452635
112	0xbc38e8af	-0.011285945
113	0xbbc5a747	-0.006031904
114	0x3b3c655e	0.0028746943
115	0x3a5cc027	0.0008420967
116	0xbbb9e04d	-0.0056724907
117	0xba7ffd88	-0.0009765257
118	0x3cbf6471	0.023363324
119	0xbb11eaab	-0.0022265117
120	0x3a57482a	0.00082123524
121	0x3b0fa694	0.0021919357
122	0x3c3ac7bc	0.011400159
123	0x3c78d8c0	0.015188396
124	0x3b4273d7	0.0029671097
125	0x3b15a055	0.002283116
126	0xbc156598	-0.00911846
127	0xbc6d930f	-0.0145003935
128	0xbbec7a50	-0.007216729
129	0xbb8f4f43	-0.0043734624
130	0x3a952866	0.0011379838
131	0xbc224901	-0.009905101
132	0x3b2c17d4	0.002625932
133	0xbc11bb3b	-0.008894737
134	0x3c3477d9	0.011014902
135	0x3bc7d1f8	0.0060980283
136	0xbb8ecb2c	-0.004357716
137	0x3c3ad011	0.011402146
138	0x3bbd9a2e	0.005786202
139	0xbaad97a7	-0.0013244048
140	0xbb394990	-0.0028272606
141	0x3bbe54da	0.005808455
142	0x3c414917	0.011797211
143	0x3be312fa	0.0069297524
144	0xbb309ba5	-0.002694824
145	0x3b862463	0.004093693
146	0xbb7d98da	-0.0038695843
147	0xba5a5362	-0.0008328465
148	0xbc4db8da	-0.012556279
149	0x3b36af74	0.0027875574
150	0xbbd2af12	-0.0064295614
151	0x3b201f51	0.0024432729
152	0x3bce8343	0.0063022687
153	0xbabc3af5	-0.0014360832
154	0x3b80d08f	0.003931112
155	0xbb073f99	-0.0020637272
156	0xbba2bd7d	-0.0049664364
157	0x3b98e0d6	0.0046654744
158	0x3c5199df	0.012793033
159	0xbcbb0f5f	-0.022834478
160	0xbc0989ab	-0.008394639
161	0x3b620f1b	0.0034493867
162	0x3a2208e5	0.0006181135
163	0x3a1fd10a	0.0006096518
164	0x3c926884	0.017872103
165	0xbc1def2f	-0.009639545
166	0xbc12fbc1	-0.008971156
167	0x3acf4d95	0.0015815968
168	0xbbf9b1eb	-0.0076200864
169	0x3b6909c0	0.003555879
170	0xbbbb7597	-0.005720805
171	0x3c1f207a	0.009712333
172	0xbaf92628	-0.0019008564
173	0x3c656c7a	0.014002914
174	0x3aeeff58	0.0018234057
175	0x3bd30d63	0.006440805
176	0xbb55bf0b	-0.0032615091
177	0x3bb65f8c	0.0055655893
178	0x3beea66b	0.007283022
179	0x38ae9da1	8.326327e-05
180	0x3b012543	0.0019706048
181	0xbc81daca	-0.015851397
182	0xbbf7b598	-0.0075594895
183	0x3b3086fc	0.0026935926
184	0xbc19c16b	-0.009384493
185	0x3b081ec3	0.0020770289
186	0x3c0c01d1	0.008545355
187	0x3aea82bd	0.0017891746
188	0x3bd8aa58	0.0066121034
189	0x3a9234ed	0.0011154689
190	0xbc8c08b1	-0.017093988
191	0x3b60f77d	0.0034327202
192	0xbbfe7117	-0.007764946
193	0xbbb524e3	-0.005528079
194	0x3c32a330	0.010903165
195	0xbb96363f	-0.0045841034
196	0x3baf2c69	0.0053458703
197	0xbb7cdded	-0.0038584427
198	0x3b81060f	0.00393749
199	0x3c2eda87	0.010672218
200	0x3c95bd0e	0.018278625
201	0x3b597872	0.0033183363
202	0x3c0153b7	0.007893494
203	0x3a6c338f	0.00090103684
204	0x3b81ce33	0.0039613484
205	0xbbd0744d	-0.0063615204
206	0xbc1a43a6	-0.009415543
207	0xb8d99af5	-0.00010376229
208	0x3c01aea6	0.007915175
209	0xbbdcc028	-0.006736774
210	0xba0ba9da	-0.0005327739
211	0xbbb1933c	-0.005419163
212	0x3c3c9889	0.011510977
213	0x3b849f8f	0.004047341
214	0x3b8ac4ed	0.004234901
215	0xbb9370f3	-0.0044995486
216	0xbb66dcd8	-0.0035226848
217	0x3b524ac3	0.0032088018
218	0xbbeaa130	-0.0071603283
219	0xba63ecf0	-0.0008694669
220	0xbaeeaff8	-0.0018210402
221	0xbc04babb	-0.008101161
222	0xbbba7e69	-0.005691339
223	0xbc68526b	-0.014179806
224	0x3c3bd193	0.011463541
225	0xbc28d5be	-0.010304866
226	0xbbf87f1f	-0.0075835134
227	0x3a31aa81	0.0006777421
228	0x3ad9237a	0.0016566359
229	0x3a1debe3	0.00060242246
230	0xbc6ca6ed	-0.014444095
231	0xbc95fb02	-0.018308166
232	0x3b63701b	0.0034704271
233	0xbad5d760	-0.0016314797
234	0xbacd5267	-0.0015664817
235	0xbafb9f1f	-0.0019197202
236	0x3a44969c	0.0007499249
237	0xba387f04	-0.000703797
238	0x3b6a4a3b	0.0035749811
239	0xbb5cf66b	-0.0033716212
240	0xbab4007e	-0.0013733057
241	0xbbdce62f	-0.006741307
242	0xbcb7aa92	-0.022420201
243	0xbb777232	-0.0037757275
244	0xbb84dbf4	-0.004054541
245	0xbb81997f	-0.0039550657
246	0x3c33c988	0.010973342
247	0xbaabce73	-0.0013107791
248	0x3bc00ee6	0.005861151
249	0x3c08da33	0.008352804
250	0xbc8b31d9	-0.016991543
251	0x3c189e39	0.009315067
252	0xbba47d84	-0.0050198454
253	0x3be7b3d7	0.007070999
254	0xbc3e2b3b	-0.011606987
255	0xbaa6a8ef	-0.0012715141

action_model._discrete_distribution.branches.2.weight f4 [2, 128]
0	0xbbd7ce2d	-0.0065858574
1	0xba0d7cdd	-0.0005397329
2	0xbb468905	-0.0030294072
3	0xbc38a813	-0.011270541
4	0xbb80b81f	-0.003928199
5	0x3cad2505	0.021135816
6	0x3b5f4d7a	0.003407328
7	0xbc253b53	-0.010084945
8	0xbc909c17	-0.017652554
9	0xbb8da597	-0.0043227184
10	0x3ba99048	0.0051746704
11	0xbb7d14c8	-0.0038617123
12	0x39276049	0.0001596223
13	0x3a804ae7	0.0009787948
14	0xbc247ac9	-0.01003904
15	0x3b321224	0.0027171457
16	0x3c17bcf9	0.009261363
17	0xbc151ac3	-0.009100619
18	0xbc0cdece	-0.008598043
19	0xbc967aa7	-0.018369032
20	0xbc0c23b0	-0.00855343
21	0xbc4aee12	-0.012385862
22	0xbb813500	-0.0039430857
23	0x39355bb1	0.00017295663
24	0xbc28e6c9	-0.01030893
25	0xbb0bc69b	-0.0021328095
26	0x3a5e3862	0.00084770296
27	0x3bc70950	0.006074108
28	0xbc019f3a	-0.007911498
29	0xbc8918e5	-0.016735503
30	0x3a67376a	0.0008820208
31	0xbb6a15a0	-0.0035718456
32	0xbc8b4946	-0.017002713
33	0xbb9b8db9	-0.0047471193
34	0x3b459cfe	0.003015339
35	0x3bd25b37	0.006419565
36	0x3c34e6f0	0.011041388
37	0x3b0325c3	0.0020011521
38	0x3c6bfec2	0.014404001
39	0x3afbec3a	0.0019220181
40	0x3c1a6a8f	0.00942482
41	0xbcb8466d	-0.02249452
42	0x3a30af9c	0.0006740035
43	0xb9eeee9d	-0.00045572678
44	0xbc97b8a3	-0.018520659
45	0xbcb79f70	-0.022414893
46	0xbbc4167f	-0.005984127
47	0xbcac117e	-0.021004435
48	0x3c089a70	0.008337602
49	0x3a56628d	0.00081781374
50	0x3ba5e4ec	0.00506269
51	0xbb89c98e	-0.0042049354
52	0x3b9c42c4	0.0047687013
53	0x3bfd1bef	0.007724277
54	0x3ca2e87f	0.019886253
55	0x3bd6664d	0.006542957
56	0xbc1c2894	-0.009531159
57	0x3b0b71af	0.0021277477
58	0x3c4650e2	0.012104245
59	0x3bcddc77	0.006282385
60	0xbc3c040c	-0.011475574
61	0x3b4961f2	0.0030728546
62	0xbc28c830	-0.010301635
63	0x3a774a6f	0.0009433394
64	0xbc571c65	-0.013129328
65	0x3c81036b	0.0157487
66	0xb9edbf62	-0.00045346754
67	0xbc241b3b	-0.010016258
68	0xbbcb19db	-0.0061981506
69	0xb85cc7cf	-5.2638174e-05
70	0xbbe64e9a	-0.007028413
71	0x3b560d82	0.003266186
72	0xbb0601e0	-0.0020447895
73	0x3bbed53d	0.00582376
74	0x3b8548f7	0.004067536
75	0xbb76a25a	-0.003763339
76	0xbc3c4629	-0.011491337
77	0x3af07eda	0.0018348352
78	0xbba4e999	-0.00503273
79	0x38abb3ad	8.1873826e-05
80	0x3c6bf1ca	0.014400909
81	0xbbfab92d	-0.007651469
82	0xbc97d697	-0.018534942
83	0xbc135216	-0.008991739
84	0xbca300dc	-0.01989787
85	0xb9117ec2	-0.00013875499
86	0x3c00c063	0.007858369
87	0xba3976d3	-0.0007074896
88	0x3b1c0743	0.002380804
89	0x3c43bbc4	0.011946622
90	0xbb44a0c7	-0.0030003057
91	0x3c2444cb	0.010026167
92	0xbb7f312a	-0.0038939216
93	0x3bb92123	0.005649702
94	0x3a474a8d	0.00076023565
95	0x3be18a9d	0.006882979
96	0x3ad13f6b	0.0015964335
97	0x3c81261b	0.01576524
98	0x3a9451e3	0.0011315908
99	0xbc7a6fd8	-0.015285455
100	0xbb88f7bf	-0.0041799243
101	0x3b6b9055	0.0035944183
102	0x3c54d898	0.012991093
103	0x3ab736fb	0.0013978177
104	0x3c6e5d77	0.014548651
105	0xbca9e70f	-0.02074006
106	0x3c31c02a	0.010849038
107	0xbb83acd7	-0.004018407
108	0x3bfb7d9b	0.0076748854
109	0x3bd2825f	0.006424233
110	0xbb88e981	-0.0041782265
111	0xbb120e46	-0.002228634
112	0x3c4670c7	0.012111849
113	0x3b2b856a	0.002617205
114	0x3bf04787	0.0073327455
115	0x3a4f71df	0.00079133915
116	0xbb828d25	-0.003984111
117	0x3be073ef	0.006849758
118	0xbc748d90	-0.014926329
119	0x3c80ccc4	0.01572264
120	0x3c67a1e7	0.014137722
121	0x3bd903b5	0.0066227564
122	0x3af9520b	0.0019021643
123	0x3a381163	0.0007021634
124	0x3b0cb1b1	0.0021468217
125	0x3bfcfaf8	0.0077203475
126	0x3c7887ed	0.015169126
127	0x3bf92070	0.007602744
128	0xbc9a9420	-0.01886946
129	0xb9cc6fbf	-0.0003899317
130	0x3814246c	3.531987e-05
131	0x3c4bbd2b	0.012435238
132	0xbb5b29c2	-0.0033441638
133	0xb971864f	-0.00023033585
134	0x3c18333b	0.009289558
135	0x3c00b06e	0.007854564
136	0xbb340189	-0.0027466735
137	0xb9a4198b	-0.0003129955
138	0xbc47ed82	-0.012202622
139	0xbb99108b	-0.0046711615
140	0x3be5b637	0.007010247
141	0xbc6ea39b	-0.014565374
142	0x3ba98a83	0.0051739826
143	0x3c0443ab	0.008072774
144	0x3ce2e937	0.027699096
145	0xbaa65814	-0.0012691044
146	0xbb24d869	-0.0025153405
147	0xbbb7cf53	-0.005609432
148	0x3bef3c3b	0.007300881
149	0x3c21e721	0.009881766
150	0x3b99a54d	0.004688895
151	0x3a816cb7	0.0009874318
152	0x3adc8235	0.0016823473
153	0x3aff1840	0.0019462183
154	0x3c1a86ef	0.009431585
155	0x3be7e77d	0.007077156
156	0xbbc4029b	-0.005981756
157	0xbc854b8a	-0.016271371
158	0xbb3a8959	-0.0028463213
159	0xbc1a5fc8	-0.00942225
160	0x3b29425e	0.0025826911
161	0x3c0beab5	0.008539845
162	0xbc2add5f	-0.010428756
163	0xba569f4d	-0.000818719
164	0x3c191c2b	0.009345095
165	0x3c237b85	0.00997818
166	0x3c0a920f	0.008457675
167	0x3b95e217	0.004574071
168	0x399ede6d	0.00030301829
169	0xbb6c802f	-0.0036087146
170	0x3b0686b5	0.002052707
171	0xbc91fc68	-0.017820552
172	0x3c8d23ec	0.017229043
173	0xbc0a6140	-0.008446038
174	0x3a0020ab	0.00048876804
175	0xbb7c8110	-0.0038529076
176	0x3c71ea42	0.014765324
177	0xbcd6b2f8	-0.026208386
178	0xbaafb70f	-0.0013405996
179	0xbbd9b2fa	-0.00664365
180	0xbbcd00f0	-0.0062562153
181	0xbb89fb36	-0.004210855
182	0xbbc6facf	-0.006072379
183	0x3c43e4e2	0.011956425
184	0xbc8e3380	-0.017358541
185	0xbb82caec	-0.0039914753
186	0xbb3a3293	-0.0028411492
187	0x3c0a8776	0.008455148
188	0x3c5fedf7	0.013667575
189	0xbbc8588b	-0.006114071
190	0x3ba47ad9	0.0050195274
191	0xbb93b994	-0.0045082066
192	0xb9c6bd13	-0.00037906374
193	0x3aa35ff7	0.0012464513
194	0x3c15581a	0.009115243
195	0xbcb39d63	-0.021925634
196	0x3b5b56e7	0.0033468546
197	0x3c29a5f9	0.010354512
198	0xbc75d1e2	-0.015003653
199	0xbc71f2d8	-0.014767371
200	0x3bedac02	0.007253171
201	0xbc106c93	-0.008814949
202	0xbb8a2763	-0.004216121
203	0xbbded742	-0.006800563
204	0xbb9bdc4e	-0.004756487
205	0xbb9dab83	-0.0048117056
206	0x3ac95bae	0.0015362406
207	0x394ae8e4	0.0001935098
208	0x3c7cd875	0.015432467
209	0xbb3f04f4	-0.002914724
210	0x3bd8f6b8	0.006621208
211	0xbc728c7a	-0.014804
212	0xbb8e0b7b	-0.0043348647
213	0xbc2136e9	-0.009839752
214	0x3adff67b	0.0017087007
215	0x3aa60cbc	0.001266859
216	0xbc42285b	-0.011850442
217	0xbba2fb56	-0.0049738092
218	0xbb33386f	-0.002734687
219	0x3b14a632	0.0022682068
220	0xbc636cf0	-0.013880953
221	0xbbea006f	-0.007141165
222	0xbb992794	-0.0046739075
223	0x3c8346cf	0.016024975
224	0x3bc61d9d	0.0060460106
225	0xbb8bc6d2	-0.0042656446
226	0xbb2706d7	-0.0025486255
227	0x3b907eae	0.0044096326
228	0x3bc627a5	0.0060472065
229	0x3c48c32f	0.012253567
230	0xbaa8d877	-0.0012881894
231	0x3aa4c49f	0.0012570805
232	0xbc1c15c3	-0.009526673
233	0x3b027f1a	0.0019912184
234	0xbc41c97f	-0.011827826
235	0xbc20f591	-0.009824173
236	0x3bf3e280	0.0074427724
237	0x3c3c802b	0.011505167
238	0x3bb6a502	0.0055738697
239	0x3c3aa751	0.01139243
240	0xbc19d873	-0.009389984
241	0xbc0c22df	-0.008553236
242	0xbbb8e320	-0.00564231
243	0x3bc2ff50	0.005950846
244	0x3b8ab892	0.0042334283
245	0x3c18cb37	0.009325794
246	0x3a21d903	0.0006174
247	0x3c164602	0.009171965
248	0xba327556	-0.00068076455
249	0xbc8e9e52	-0.017409477
250	0xba4edf6a	-0.00078915677
251	0xbb096438	-0.0020964276
252	0xbbb975b5	-0.0056597837
253	0x38b4d9a3	8.623607e-05
254	0xba322440	-0.0006795563
255	0xbc392534	-0.011300374

action_model._discrete_distribution.branches.3.weight f4 [2, 128]
0	0xbb4eba82	-0.0031544273
1	0xbbfee99b	-0.007779313
2	0xbc449641	-0.011998714
3	0xbc68c5e8	-0.014207341
4	0xb98317ce	-0.00025004003
5	0x3c00e7de	0.007867781
6	0xbc211793	-0.009832281
7	0xbb5b49fb	-0.0033460844
8	0x3bed462a	0.00724103
9	0xbc9b100f	-0.018928556
10	0x39bda1c7	0.00036169423
11	0xba7f9dc5	-0.00097509875
12	0xb9c378a7	-0.0003728319
13	0x3c3507e3	0.011049244
14	0x3bb39f7e	0.0054816594
15	0x3a097bb7	0.000524457
16	0x3bd921e0	0.0066263527
17	0x3b1b666b	0.002371217
18	0x3c349f36	0.011024287
19	0x3b954e98	0.0045564882
20	0x3c2122d2	0.009834962
21	0xbc8d4f76	-0.017249804
22	0x3cc94284	0.02456785
23	0x3c17c2cb	0.009262751
24	0x3bf820eb	0.0075722835
25	0xbb0afcd1	-0.002120782
26	0x3c81c202	0.01583958
27	0x3b307602	0.0026925807
28	0x3c1bb243	0.00950295
29	0x3c36a7c5	0.011148398
30	0xbbf57877	-0.007491167
31	0x3b8fea16	0.004391919
32	0xbb067f6b	-0.0020522724
33	0x3be62edf	0.0070246304
34	0x3c2024de	0.009774415
35	0xbb9b7ad9	-0.004744869
36	0x3b4241f5	0.0029641364
37	0xbb724c67	-0.003697181
38	0xba1b2c82	-0.0005919413
39	0x3be2c9d5	0.006921033
40	0x3bcd201f	0.0062599326
41	0xbbbcd61e	-0.0057628294
42	0x3be28a7f	0.0069134827
43	0x3b4f594d	0.003163892
44	0xbb58cdbf	-0.0033081619
45	0xbc22b0ab	-0.009929816
46	0xbc7fc8a3	-0.0156118
47	0x3b2aadf8	0.0026043635
48	0x3859473f	5.1803185e-05
49	0x3b1d91d1	0.0024043212
50	0x3b354c13	0.0027663752
51	0x3bc92701	0.006138683
52	0xbb32b8f1	-0.0027270878
53	0x3b676eba	0.00353138
54	0x3c14e515	0.009087821
55	0xba8f0451	-0.001091132
56	0xbac87a2d	-0.00152952
57	0xbc1b8cfe	-0.009494064
58	0xbaf4045b	-0.0018617021
59	0xbbe22c00	-0.006902218
60	0xbc8db15a	-0.017296482
61	0xb9c8988f	-0.00038260638
62	0x3cbb5ccc	0.022871397
63	0xbc2f53b2	-0.010701107
64	0x39b55f55	0.00034594038
65	0xbc2f616b	-0.010704379
66	0xbb1fe555	-0.0024398167
67	0x3c31b24a	0.01084573
68	0x3bb67166	0.0055677174
69	0xbbc4857f	-0.0059973593
70	0x3bad706b	0.0052929423
71	0x3c26e74a	0.01018698
72	0xbc4be27c	-0.012444135
73	0xbb644e00	-0.003483653
74	0x3c63c8d8	0.013902865
75	0xbb9b492f	-0.004738949
76	0x3c0a45c2	0.008439483
77	0x3b8cc5a3	0.004296021
78	0xba085608	-0.0005200808
79	0x3c3a6493	0.011376518
80	0x3c36a550	0.011147812
81	0x3bd04228	0.0063555427
82	0x3c4e4feb	0.012592296
83	0xbbe6f9df	-0.00704883
84	0xbb2598ed	-0.0025268153
85	0xb8fc17fa	-0.000120207624
86	0xba04b05e	-0.0005061681
87	0xbc82f81b	-0.015987447
88	0x3bf4f54b	0.0074755303
89	0x3bb78617	0.0056007016
90	0xbc219158	-0.009861313
91	0xbb02958f	-0.001992557
92	0xbb19b00b	-0.0023450877
93	0x3b8c617f	0.0042840834
94	0x3bb58dc7	0.005540583
95	0xbbc32ad8	-0.005956035
96	0x3a637320	0.0008676518
97	0xbc4b9199	-0.01242485
98	0x3a9a541f	0.0011774338
99	0x3c07f023	0.008296999
100	0x3c35fdad	0.011107844
101	0x3aea925f	0.0017896405
102	0xbba2ab0d	-0.0049642385
103	0x3b40d117	0.0029421502
104	0xbb178e4b	-0.0023125585
105	0x3ae639d7	0.0017564845
106	0x3c02b643	0.007978025
107	0xbb82b354	-0.0039886627
108	0x3b3f54cf	0.0029194837
109	0xbc87aa31	-0.016560646
110	0x3c1a9b4b	0.009436439
111	0xbc243bd3	-0.010024029
112	0x3bd850c0	0.006601423
113	0xbbf1278d	-0.007359451
114	0xbbf49d87	-0.007465068
115	0xbc2bd6eb	-0.010488252
116	0xbb9a7ee2	-0.0047148326
117	0x3c1fd179	0.009754532
118	0xbcc051d2	-0.023476515
119	0xbc8768cc	-0.016529463
120	0xbb1de8d3	-0.0024095073
121	0x3a90dde8	0.0011052461
122	0xbc58b4d5	-0.0132267075
123	0x3c04518f	0.008076086
124	0x3c2b68f0	0.010462031
125	0x3c36d58d	0.011159313
126	0xbc5b526b	-0.013386349
127	0x3a47a407	0.00076156895
128	0x3cbee963	0.023304647
129	0xbb234c8b	-0.002491745
130	0x3bca4eaf	0.0061739306
131	0xbae6202d	-0.0017557197
132	0x3b6e6ee2	0.003638201
133	0x3aac06db	0.0013124602
134	0xbba57c77	-0.0050502378
135	0x3b04f5e2	0.002028816
136	0xbc872c80	-0.016500711
137	0xbc09fbdb	-0.008421863
138	0x3a8d3bff	0.0010775327
139	0xbc5d7b57	-0.013518176
140	0x3c1b52c5	0.009480183
141	0x3a2cdb6e	0.0006593977
142	0x3b2f476e	0.0026745456
143	0xbbc742db	-0.006080968
144	0x398e36ce	0.00027125183
145	0x3bbc3bc1	0.005744428
146	0xb905bf4d	-0.00012755134
147	0xbc05b82e	-0.008161588
148	0x3c39cfc2	0.011341037
149	0x3b92ceeb	0.004480233
150	0xb94428da	-0.00018707235
151	0x3bc22714	0.0059250686
152	0xbcebc165	-0.028778741
153	0x3b9a9614	0.0047175977
154	0xbb2e3fb2	-0.0026588258
155	0x3c9315c3	0.017954713
156	0xb9dd219b	-0.00042177443
157	0x3c05dfe2	0.008171054
158	0xbb799f00	-0.0038089156
159	0xbc6d8ffd	-0.0144996615
160	0x3b3c42f8	0.002872644
161	0x3c6123cb	0.013741444
162	0xbb2e140f	-0.0026562249
163	0xbc94dda9	-0.018172102
164	0x3bb66975	0.0055667707
165	0xbbfad0e5	-0.0076542967
166	0x3b9ca833	0.004780793
167	0xbc070ff4	-0.00824355
168	0xbbcf483b	-0.006325749
169	0xbb64360b	-0.0034822251
170	0xbb4f2c92	-0.003161226
171	0x3b9e6339	0.0048336056
172	0x3b66da38	0.0035225283
173	0x3b7d909f	0.0038690937
174	0xbad5f8c7	-0.0016324752
175	0x3b6ff3fa	0.0036613927
176	0xbc8075c7	-0.01568116
177	0xbb3ef21e	-0.0029136012
178	0xbc41d072	-0.011829482
179	0xb94ad66b	-0.00019344098
180	0xbc441cbb	-0.0119697405
181	0xbbe1f848	-0.0068960525
182	0xbc774c97	-0.015093944
183	0x3b991873	0.004672104
184	0xbc6467f5	-0.013940801
185	0xbb94ad34	-0.004537249
186	0x3bc6ad37	0.0060631293
187	0x3b3028cf	0.0026879793
188	0x3c890b46	0.016729008
189	0x3c5f1673	0.013616192
190	0x3a7d2f28	0.0009658211
191	0x3c9d7c0d	0.019224191
192	0x3c3355c4	0.010945741
193	0x3b01217c	0.0019703796
194	0x3b9d5bfd	0.0048022256
195	0xbc26d564	-0.010182712
196	0x3ae17088	0.0017199675
197	0x3c03c219	0.008041882
198	0x3b9da55f	0.0048109735
199	0x3be99b5d	0.0071291164
200	0xbbba5e8b	-0.00568754
201	0xbc1ea407	-0.009682662
202	0xbc16a695	-0.00919499
203	0x39cbba6b	0.0003885807
204	0x3c1c54f7	0.009541742
205	0xbc89c456	-0.016817253
206	0x3bd6a82b	0.006550809
207	0x3acd6e50	0.0015673134
208	0x3b79ce4d	0.003811735
209	0x3b0e4475	0.0021708284
210	0x3bd71435	0.006563688
211	0x3c7c10a5	0.015384828
212	0xbc0e2c74	-0.008677591
213	0xbc1637d3	-0.009168583
214	0x3c2fe797	0.010736368
215	0xbc2ab5c9	-0.0104193175
216	0xbc2d513c	-0.01057845
217	0xbc6e92eb	-0.014561395
218	0x3bd01850	0.0063505545
219	0xba91dd89	-0.0011128645
220	0xbc476283	-0.012169483
221	0xbb8cc4a4	-0.0042959023
222	0xbbd24dd3	-0.006417969
223	0xbc8edcfc	-0.017439358
224	0xbbcad699	-0.006190133
225	0x3b98fe8c	0.004669016
226	0x3c09e273	0.008415806
227	0x3b34d5d7	0.0027593279
228	0xbc3e5b8e	-0.011618508
229	0xbc1b60d9	-0.0094835395
230	0x3c984366	0.018586826
231	0xbcbcd9fb	-0.02305316
232	0xbc097afd	-0.008391139
233	0x3c0db1a3	0.008648309
234	0x3ba7ae0a	0.0051171826
235	0x38f7fdd3	0.00011825156
236	0x3cbc6f6f	0.023002354
237	0x3c686e02	0.014186384
238	0x3c885fc2	0.016647223
239	0xbbd3ac97	-0.0064597833
240	0xbc5b5d3f	-0.013388931
241	0x3b775b23	0.003774353
242	0x3b700717	0.003662532
243	0x3b1e6481	0.0024168792
244	0x3bf74d42	0.0075470516
245	0xbb8988b6	-0.0041972054
246	0xbba1b4b6	-0.0049348725
247	0xbc5df98b	-0.013548265
248	0xbc0f8d35	-0.008761694
249	0x3a6233b8	0.00086289225
250	0x3bbaeec3	0.005704732
251	0xbc46dc3e	-0.012137471
252	0x3ab90759	0.001411657
253	0x3c182438	0.009285979
254	0xbc0b2aeb	-0.008494119
255	0x3b0d9579	0.0021603985
