Assets/results/ppo/My Behavior/My Behavior-256.onnx (onnx, 156809 bytes, 20 tensors)

discrete_act_size_vector f4 [1, 14]
000000 00 00 00 40 00 00 00 40 00 00 00 40 00 00 00 40
       2.0 2.0 2.0 2.0
000010 00 00 00 40 00 00 00 40 00 00 00 40 00 00 20 41
       2.0 2.0 2.0 10.0
000020 00 00 20 41 00 00 20 41 00 00 20 41 00 00 20 41
       10.0 10.0 10.0 10.0
000030 00 00 20 41 00 00 20 41
       10.0 10.0

network_body._body_endoder.seq_layers.0.weight f4 [128, 24]
000000 2b 41 d6 bd dc f4 c6 3d a5 aa 32 be 6d 8d 7f 3e
       -0.104616486 0.09714672 -0.17447908 0.24956293
000010 4e 3a 7c 3d 6c ed 02 bd 4b 56 a6 3e 09 7a a0 3d
       0.06157904 -0.031964704 0.3248771 0.07835776
000020 9b a6 0d be c6 48 55 3e b4 0f 06 3e f3 9a 05 3e
       -0.13833086 0.20828542 0.13091928 0.1304739
000030 82 6d b4 3e b0 b8 7f 3e 2e 90 5a 3e af 23 85 3d
       0.35239798 0.24972796 0.21344063 0.06500947
000040 ea 2f a6 3d 4f 32 11 3e 25 58 98 bd 0e 04 3d be
       0.08114608 0.14179347 -0.07438687 -0.18458578
000050 44 04 37 3d 7a 02 29 3d 9d b8 bd bc 0d bb ce be
       0.044681802 0.041262127 -0.02315932 -0.40377083
000060 04 dc f8 bd 49 20 0a 3e bc cc da bd 5f 8d ff bd
       -0.1215134 0.13488878 -0.10683581 -0.12478136
000070 81 0c 05 3e 7f 57 57 3d ca 6a 27 bd 46 69 8f be
       0.12993051 0.052573677 -0.040873326 -0.28010005
000080 f4 83 5d be 3b 3a 55 be 58 dc c3 3d 10 85 19 3e
       -0.21632367 -0.20822994 0.095635116 0.14992166
000090 8a 58 b0 be 7a fc 38 be dd 11 bd be 6e f6 98 3c
       -0.3444255 -0.18065062 -0.3692769 0.018672194
0000a0 d7 13 82 be 0e 8d fb bd 3d 00 18 3e 33 be 10 3e
       -0.25405762 -0.122827634 0.14843841 0.14135055
0000b0 7f 83 00 3e 5e 03 fb 3b af b4 8c 3e f3 0e 9f bd
       0.12550162 0.0076603135 0.274816 -0.07766523
0000c0 83 18 b1 3e e6 75 8e be e2 ba 7d bd 89 89 92 be
       0.34589013 -0.27824324 -0.061945803 -0.28620556
0000d0 93 46 fe 3b 2a f5 33 3f 91 77 b8 3e 9c 6a 1a be
       0.007759878 0.70295966 0.36028722 -0.15079731
0000e0 da b2 9f be 7b 94 1a 3e ad 76 75 3c d8 da 90 bd
       -0.3119114 0.15095703 0.014981908 -0.07072991
0000f0 90 f6 9d bd b8 1b dc 3d 48 4a 35 bd fa a0 42 3d
       -0.07713044 0.107474744 -0.044260293 0.0475168
000100 83 45 c6 3e 0f 62 ff bd 15 85 c3 be 81 31 26 3e
       0.38724908 -0.12469875 -0.3818747 0.16229822
000110 8b fe 6d 3e 82 15 50 3e 03 ec 33 be 91 bc f8 bd
       0.23241632 0.20320705 -0.175705 -0.12145341
000120 78 3c 68 bc c9 25 44 3e 7d 18 66 be 6d 2c 97 3e
       -0.014174573 0.19155039 -0.22470279 0.29526082
000130 9a 68 03 3e 17 9a 0f be 8a 1a 0d bd a0 37 c0 3d
       0.12832871 -0.14023624 -0.034449138 0.093856096
000140 e1 c8 87 3d eb 10 f1 3c 75 66 a5 3e dc d2 cc 3d
       0.066301115 0.029427012 0.3230473 0.10001156
000150 c4 74 60 be 83 94 2b 3d 1b 9f 5e 3e d5 e7 b0 bd
       -0.21919543 0.04188968 0.21740381 -0.086379685
000160 a1 8e 46 3e 1d b7 2d bc 4d dc 1c bd de 3b 2a 3d
       0.19390346 -0.01060274 -0.038296033 0.041561
000170 5e 54 62 bd 77 fe aa bc f9 96 bc be 33 e6 e3 bb
       -0.05525624 -0.020873291 -0.36833933 -0.006954932
000180 3d e7 c1 be 6a 49 9d be 67 6e a0 3d 13 74 51 bc
       -0.37871733 -0.30720073 0.078335576 -0.012784022
000190 60 1c ec 3c 0b 0a 81 be b8 fb d8 bd a5 53 fe 3c
       0.028822124 -0.25202975 -0.105948865 0.031045744
0001a0 e3 bf f3 bc ad 8a fb bd 8c 18 97 3e 8d d2 9e 3e
       -0.029754585 -0.1228231 0.29510915 0.31020012
0001b0 e4 8b 1b be 9d e2 44 be d9 7b 93 3e 0b da 28 3e
       -0.15190083 -0.19227071 0.28805426 0.16489427
0001c0 6b 11 55 be 64 94 3c be a1 38 b4 3d e2 66 99 3e
       -0.20807426 -0.18415982 0.087998636 0.29961306
0001d0 65 7a 3a be ff 25 6c bc 27 0c e9 3d 8d 43 92 be
       -0.18210752 -0.014413356 0.11379271 -0.28567162
0001e0 34 90 81 bd 2f 42 ce 3c 25 64 dc 3d e5 0d 9c 3b
       -0.06326333 0.025178043 0.107612886 0.0047623985
0001f0 34 a4 f9 39 2d 56 71 3c af 21 37 3e cf f0 ad bb
       0.00047615322 0.014730019 0.17883943 -0.0053082476
000200 2c 34 60 3e 9e ad 75 be 40 25 87 3d 5c 8a f8 bc
       0.21894902 -0.23992011 0.06598902 -0.030339412
000210 4c ff 01 bf 22 21 a9 3e 40 b7 d9 be d7 a8 48 3e
       -0.5078018 0.3303309 -0.4252262 0.19595657
000220 de f5 38 3e 53 d9 f5 be 3b 72 63 3d d2 59 be 3e
       0.18062541 -0.48017368 0.05552886 0.37177902
000230 82 fa 00 3e 03 c6 1d be a3 ce a5 be 17 e1 3b be
       0.12595561 -0.15407567 -0.32384214 -0.18347584
000240 3b 3d 36 bd e1 a7 1e be 29 53 59 3e 50 71 c5 3d
       -0.044491988 -0.15493728 0.2122313 0.09640753
000250 63 52 a2 bd 6e 38 d4 bc b9 2b f3 3d 53 1f ee bd
       -0.0792587 -0.025905814 0.11873574 -0.11627068
000260 18 16 ee 3e a6 c5 29 3d 9a e9 a0 be e0 f6 4b be
       0.4650123 0.041448258 -0.31428224 -0.19918394
000270 a5 95 df be ca e5 8d be 01 4f 9a 3d 13 94 22 3e
       -0.43668857 -0.27714378 0.075346 0.15876798
000280 25 63 d1 3d 6d 39 e8 3d bf e6 ef 3e 63 ad 80 be
       0.102239884 0.11339078 0.46855733 -0.25132284
000290 46 94 48 3e 99 2f c3 3d 4a ac 9b be e9 bc 8c 3e
       0.19587812 0.09530563 -0.30404884 0.27487877
0002a0 ed c0 28 be ca 59 9f 3e de f6 bf 3e 87 57 bc 3e
       -0.16479845 0.3112319 0.37493032 0.36785528
0002b0 13 27 14 3e 75 8e a4 bd cb 6b a1 3e c3 9c 3c be
       0.1446803 -0.08034984 0.31527552 -0.18419175
0002c0 82 68 a4 3c 45 0a 8d be 41 59 c4 bd b8 b3 a0 3e
       0.020069364 -0.27546898 -0.09587336 0.31387115
0002d0 49 40 96 be a7 e7 79 3e 28 20 f6 be 3b d4 87 be
       -0.2934592 0.24404775 -0.48071408 -0.26529106
0002e0 22 6a b6 be bd 4c 40 be e4 97 e8 3d de 57 a0 be
       -0.35627848 -0.18779273 0.11357096 -0.31317037
0002f0 0a 99 b5 be 97 39 63 3d c4 df 1e be 50 a3 af 3e
       -0.35468322 0.055474844 -0.15515047 0.34304285
000300 17 21 ec be 45 bf 6e bd 38 3f e9 3d 69 86 12 3d
       -0.46118996 -0.058287878 0.11389011 0.035772715
000310 35 51 1e 3c 17 c4 ea bd 76 fd 0c be 08 64 88 be
       0.009662916 -0.114631824 -0.13768563 -0.26638818
000320 87 c1 c3 be 74 79 9c 3d da c7 dd 3d f0 6e e3 bd
       -0.38233587 0.07640353 0.10829134 -0.11105144
000330 9d 45 9b 3d 1a 17 21 3d d9 25 43 be 5c f2 d6 bd
       0.07581637 0.039328672 -0.19057406 -0.10495445
000340 47 42 da 3e 22 a9 86 3e 1f 20 51 bd ed e3 54 be
       0.4262869 0.26300913 -0.051056024 -0.20790072
000350 f7 99 57 be 76 68 91 be 25 a1 0d bd 38 81 04 3e
       -0.21054827 -0.2840001 -0.034577508 0.12939918
000360 dc c2 5c bd 56 d3 e8 bd 2f cb 0f bc 75 0b 4e be
       -0.05389677 -0.11368434 -0.00877647 -0.20121558
000370 67 50 ef 3d 32 a3 9d bd 31 42 fc 3e 1a c9 d1 bd
       0.116852574 -0.07697143 0.4926925 -0.10243435
000380 3a 4d 26 be 56 08 24 be 74 ca 18 be 2e fb f9 bd
       -0.16240397 -0.16018805 -0.1492098 -0.12206112
000390 88 22 4e bd f4 3a 41 be b3 ed 5e 3e 31 fa be 3e
       -0.0503259 -0.18870145 0.21770363 0.37300256
0003a0 73 fc eb bd 61 d7 19 3e 71 ce 8a 3d 98 39 01 3e
       -0.1152276 0.15023567 0.06777657 0.12619627
0003b0 9d c0 91 bd b1 d4 81 3e 83 25 d1 bc 2a 00 91 be
       -0.07116816 0.25357583 -0.025530582 -0.28320438
0003c0 b7 c5 13 3e 7e 0a 52 bc 90 af 85 3e e7 9f 67 3e
       0.14430891 -0.012819884 0.26110506 0.22619592
0003d0 bb 66 83 bc f7 e7 8b bd 54 1f da 3e ad 7a 63 3d
       -0.016040197 -0.06831353 0.42602026 0.055536915
0003e0 2d 6b e3 bd 40 62 2e 3e 2f 04 0b be 41 bf 66 be
       -0.111044265 0.17029667 -0.13575815 -0.22533895
0003f0 f8 42 ab be 92 4d 5c 3e fb a3 83 be aa 9e 14 be
       -0.3344953 0.21513966 -0.25711045 -0.1451365

network_body._body_endoder.seq_layers.0.bias f4 [128]
000000 00 00 00 00 00 00 00 00 00 00 00 00 00 00 00 00
       0.0 0.0 0.0 0.0
000010 00 00 00 00 00 00 00 00 00 00 00 00 00 00 00 00
       0.0 0.0 0.0 0.0
000020 00 00 00 00 00 00 00 00 00 00 00 00 00 00 00 00
       0.0 0.0 0.0 0.0
000030 00 00 00 00 00 00 00 00 00 00 00 00 00 00 00 00
       0.0 0.0 0.0 0.0
000040 00 00 00 00 00 00 00 00 00 00 00 00 00 00 00 00
       0.0 0.0 0.0 0.0
000050 00 00 00 00 00 00 00 00 00 00 00 00 00 00 00 00
       0.0 0.0 0.0 0.0
000060 00 00 00 00 00 00 00 00 00 00 00 00 00 00 00 00
       0.0 0.0 0.0 0.0
000070 00 00 00 00 00 00 00 00 00 00 00 00 00 00 00 00
       0.0 0.0 0.0 0.0
000080 00 00 00 00 00 00 00 00 00 00 00 00 00 00 00 00
       0.0 0.0 0.0 0.0
000090 00 00 00 00 00 00 00 00 00 00 00 00 00 00 00 00
       0.0 0.0 0.0 0.0
0000a0 00 00 00 00 00 00 00 00 00 00 00 00 00 00 00 00
       0.0 0.0 0.0 0.0
0000b0 00 00 00 00 00 00 00 00 00 00 00 00 00 00 00 00
       0.0 0.0 0.0 0.0
0000c0 00 00 00 00 00 00 00 00 00 00 00 00 00 00 00 00
       0.0 0.0 0.0 0.0
0000d0 00 00 00 00 00 00 00 00 00 00 00 00 00 00 00 00
       0.0 0.0 0.0 0.0
0000e0 00 00 00 00 00 00 00 00 00 00 00 00 00 00 00 00
       0.0 0.0 0.0 0.0
0000f0 00 00 00 00 00 00 00 00 00 00 00 00 00 00 00 00
       0.0 0.0 0.0 0.0
000100 00 00 00 00 00 00 00 00 00 00 00 00 00 00 00 00
       0.0 0.0 0.0 0.0
000110 00 00 00 00 00 00 00 00 00 00 00 00 00 00 00 00
       0.0 0.0 0.0 0.0
000120 00 00 00 00 00 00 00 00 00 00 00 00 00 00 00 00
       0.0 0.0 0.0 0.0
000130 00 00 00 00 00 00 00 00 00 00 00 00 00 00 00 00
       0.0 0.0 0.0 0.0
000140 00 00 00 00 00 00 00 00 00 00 00 00 00 00 00 00
       0.0 0.0 0.0 0.0
000150 00 00 00 00 00 00 00 00 00 00 00 00 00 00 00 00
       0.0 0.0 0.0 0.0
000160 00 00 00 00 00 00 00 00 00 00 00 00 00 00 00 00
       0.0 0.0 0.0 0.0
000170 00 00 00 00 00 00 00 00 00 00 00 00 00 00 00 00
       0.0 0.0 0.0 0.0
000180 00 00 00 00 00 00 00 00 00 00 00 00 00 00 00 00
       0.0 0.0 0.0 0.0
000190 00 00 00 00 00 00 00 00 00 00 00 00 00 00 00 00
       0.0 0.0 0.0 0.0
0001a0 00 00 00 00 00 00 00 00 00 00 00 00 00 00 00 00
       0.0 0.0 0.0 0.0
0001b0 00 00 00 00 00 00 00 00 00 00 00 00 00 00 00 00
       0.0 0.0 0.0 0.0
0001c0 00 00 00 00 00 00 00 00 00 00 00 00 00 00 00 00
       0.0 0.0 0.0 0.0
0001d0 00 00 00 00 00 00 00 00 00 00 00 00 00 00 00 00
       0.0 0.0 0.0 0.0
0001e0 00 00 00 00 00 00 00 00 00 00 00 00 00 00 00 00
       0.0 0.0 0.0 0.0
0001f0 00 00 00 00 00 00 00 00 00 00 00 00 00 00 00 00
       0.0 0.0 0.0 0.0

network_body._body_endoder.seq_layers.2.weight f4 [128, 128]
000000 db 6b d8 3d 0c d6 90 3b 01 92 ed bd ae b3 5c bd
       0.10567447 0.0044200476 -0.11600114 -0.053882293
000010 fc 88 f5 3b 6f fd b2 3c 93 7f 11 3e c8 3a c6 bd
       0.0074931365 0.021849362 0.14208822 -0.096791804
000020 b9 d0 b6 bd 6f 72 36 3c d4 6c 99 bd 1e aa 10 be
       -0.089265294 0.0111356815 -0.074914604 -0.14127395
000030 b7 f5 e5 3c 91 6d 48 3d cd 27 80 bd 4e 58 b7 bd
       0.028071268 0.048932616 -0.062575914 -0.0895239
000040 1d c9 7b bd bd 99 55 bd 86 c9 80 bd 79 67 96 3c
       -0.061471093 -0.05214857 -0.062884375 0.018359886
000050 e5 39 be 3d d6 21 c9 bc 84 f7 bc bc 01 6e a0 bd
       0.09288386 -0.024552267 -0.023067243 -0.078334816
000060 3c e1 74 bd b5 e4 f5 3d 12 a3 6d be 66 d7 25 3e
       -0.059785113 0.12006513 -0.23206738 0.16195449
000070 96 f0 c3 bd d7 40 43 bd 55 71 ce bd fa a1 cd 3c
       -0.095673725 -0.047669258 -0.1008021 0.02510165
000080 ed 87 a3 3d b4 6e 77 3c 64 63 98 3d a4 20 21 bb
       0.0798491 0.015102077 0.07440832 -0.0024586106
000090 46 77 1c 3d 55 15 70 bd fd d0 e4 3d 9f db 8a 3d
       0.038199686 -0.058614094 0.11172674 0.06780171
0000a0 70 9e 91 3d 5d 7e d6 3d ee 0f 19 be 58 be 2f 3e
       0.07110298 0.10473321 -0.14947483 0.17162454
0000b0 2a e2 e1 3c a3 ba 1d bd ea 6e 9e 3a 01 e1 bb 3d
       0.027573664 -0.03850807 0.0012087498 0.091737755
0000c0 d6 97 57 be 0e 5f 7d 3d e0 28 b7 bb bf 7a 25 3d
       -0.21054015 0.06185823 -0.0055895895 0.040400263
0000d0 04 1c d0 bd 75 9f 61 bd 1a ff 13 bd 58 62 2a 3e
       -0.101615936 -0.05508371 -0.036131956 0.16639078
0000e0 85 d8 4d bc b9 f5 51 3c bf 9f 90 3c e2 ca 83 3c
       -0.012563829 0.0128149325 0.017654298 0.016087953
0000f0 ae 0d 20 3e db 12 b7 bd f4 b7 9d bc 23 14 cc 3d
       0.15630218 -0.08939143 -0.019252755 0.09964778
000100 31 7b f1 3d 2b 48 90 bd e9 62 27 3e f8 cc 97 3c
       0.11791075 -0.07045015 0.16346325 0.018530354
000110 ff 84 37 3d b4 4a fc bb 9b cb 57 3e 62 13 93 3d
       0.04480457 -0.007699335 0.21073763 0.07181431
000120 8a 8a 9f 3d 6c 21 63 3d 06 d9 25 be 87 24 7b bd
       0.07790096 0.055451795 -0.16196069 -0.061314132
000130 5a 37 16 be 31 30 c0 39 7b 78 01 3d 92 d9 e2 3c
       -0.14669552 0.00036657 0.03160904 0.027691636
000140 35 9a c3 bd 9e ed 50 bc 50 f5 9a bd 8d 37 11 3e
       -0.09550897 -0.012751965 -0.07566321 0.14181347
000150 7b 50 99 bd 68 27 bc 3d 9f b2 78 3d dc 96 28 3e
       -0.074860536 0.09187204 0.06071722 0.16463798
000160 e5 f2 4a bd dd a2 9c bd c5 82 e9 3d d8 b2 e1 3d
       -0.04954805 -0.07648251 0.114018954 0.1102044
000170 77 84 2a be 00 b0 8b 3d 4b 97 f9 bd 9c 97 90 3d
       -0.16652094 0.06820679 -0.1218706 0.07060167
000180 74 36 4c bd ad f1 90 bd d6 ff 41 3d 44 8a 85 3c
       -0.049856618 -0.07077346 0.047363125 0.016301282
000190 01 16 08 be 8b ff 8d bb 2f db 2a bd 56 f7 aa bd
       -0.13289644 -0.0043334416 -0.041712936 -0.08347957
0001a0 24 c1 21 3e ca 72 4f 3e f9 3b 6a bb 91 62 79 3d
       0.15796334 0.20258632 -0.0035741313 0.060885016
0001b0 d4 32 dc 3d be b7 94 bd 8e 1e 49 bd b2 cb c5 bd
       0.10751882 -0.072616085 -0.049101405 -0.096579924
0001c0 d2 17 b6 bd 20 e3 82 bc 0c 69 12 bc 7d 98 20 bd
       -0.08891262 -0.015977442 -0.008936178 -0.039207924
0001d0 23 01 93 bc c5 4a df bc b8 d7 89 3d 0c 52 b6 bd
       -0.017944878 -0.027257333 0.06730598 -0.08902368
0001e0 ed 78 86 3d 5a 2e d6 bb e9 1e ce bd 9f c1 e1 3d
       0.065660335 -0.0065362873 -0.100644894 0.110232584
0001f0 9e f0 e7 bd 5d fe 67 3e f4 08 ab 3d 50 6c d9 bd
       -0.11325191 0.22655626 0.08351317 -0.10616362
000200 a0 6e 22 3d 8f f9 b0 bd 11 25 7c bc 5c 8e 83 bd
       0.03965628 -0.086413495 -0.015389697 -0.06423637
000210 e4 9b a1 3c ff 71 5b 3d 52 25 e8 bc be c6 29 bc
       0.019727655 0.053575512 -0.028338108 -0.010362325
000220 65 5e 17 bb 95 5d f6 bd 19 06 23 3d ec 26 d5 bc
       -0.0023097035 -0.12029568 0.039800737 -0.026019536
000230 2d 49 7d bd 47 c9 53 bd 10 5b 83 3b a7 d9 12 3d
       -0.061837364 -0.051705625 0.004008658 0.0358521
000240 6a 87 c7 3d b1 e2 fe ba 75 cc 6e bd c0 80 76 3c
       0.09742625 -0.0019446221 -0.058300454 0.015045345
000250 12 fb ea 3d de c3 ab 3d 43 d1 b3 3c c0 21 1a bc
       0.11473669 0.08386968 0.02195037 -0.009407461
000260 4b 7b 33 bc f6 ff 12 bc 1b a7 07 be 9c b6 9c bd
       -0.010954688 -0.008972159 -0.1324734 -0.076520175
000270 0b a1 89 3d 2f 77 6e bc c8 9c d6 3d bb 07 b2 bd
       0.0672017 -0.014554783 0.104791224 -0.08692881
000280 35 58 1c 3c 38 91 91 3d 6d 5c 70 3e 01 57 53 3e
       0.009542515 0.071077764 0.23472758 0.20638658
000290 e6 17 de bd 8b 96 01 3c 4a b4 10 3d aa 99 f6 3d
       -0.10844402 0.007909427 0.035328187 0.12041028
0002a0 80 a1 5b be 98 41 23 3d 57 52 0a 3d ce 69 88 3d
       -0.21448326 0.039857477 0.03376993 0.06660806
0002b0 dc 11 04 bd 41 fa 1c 3d 52 9f 94 bd 46 8a 55 3d
       -0.032243595 0.0383246 -0.072569504 0.05213382
0002c0 cf 13 96 bd 05 25 32 3d 85 f9 5a bc d2 0b dc 3b
       -0.07327997 0.043492336 -0.013365154 0.0067152763
0002d0 6c bb 11 be ac 8e 9b 3d 7c 95 97 3c 65 11 2b 3e
       -0.14231652 0.07595572 0.018503897 0.16705854
0002e0 73 44 ef 3a 7b 97 46 3c 81 63 ca 3d 16 4e 73 3c
       0.0018254652 0.012121077 0.0988226 0.01485016
0002f0 8a 5c e0 3d 6d 2d 49 bd a5 eb 32 bd 89 be 88 3d
       0.109551504 -0.049115587 -0.04368176 0.06676967
000300 b6 cf c5 bb 65 ee cc 3c 69 ab 0d 3e fd 47 43 3d
       -0.006036724 0.02501602 0.13834919 0.047676075
000310 c9 67 99 bc b1 d1 e5 bd 15 c3 fe 3b 0f 41 72 bd
       -0.018726246 -0.11221636 0.0077747204 -0.059144076
000320 15 e1 2a 3e 4b 31 30 3d 23 37 a7 bb 70 ab 7b 3a
       0.16687424 0.04301576 -0.0051030084 0.00096004363
000330 01 30 d4 bd d7 99 ba bb 96 e9 80 bc f2 77 2a be
       -0.103607185 -0.0056946087 -0.015736382 -0.16647318
000340 1a 45 91 3d 63 a4 7e 3c 11 b0 41 3d 41 d4 09 3e
       0.07093258 0.015542123 0.04728705 0.13459875
000350 5d c8 ec bc 5e a9 6b 3c 24 a9 ff bc 50 f7 91 bd
       -0.028904134 0.014383642 -0.031208582 -0.07127249
000360 ac fe 47 bc 05 4a 6f 3d 04 36 61 bd 11 f3 96 ba
       -0.012206715 0.0584202 -0.054983154 -0.0011516531
000370 8c e8 96 bd 83 dd 59 be bc 65 b2 3c 54 40 73 3d
       -0.073685735 -0.21275906 0.021777026 0.05938752
000380 e9 61 00 be 25 55 14 3d 57 c8 07 be 5d d5 b1 3d
       -0.1253735 0.036214013 -0.13260017 0.08683274
000390 38 60 c7 3d 7a 65 42 bd 32 45 d9 3d 39 61 c0 bd
       0.09735149 -0.047460057 0.10608901 -0.09393544
0003a0 bf 10 bc bd 79 5c 01 3d ba 85 fc bd e2 80 b0 3b
       -0.091828816 0.03158233 -0.12330194 0.005386458
0003b0 dd eb eb 3c 93 7b a0 bd dd 4a 93 bd 55 f2 2a 3e
       0.028798992 -0.0783607 -0.071920134 0.16694005
0003c0 f7 14 50 bc 39 d6 91 3b de e1 62 3d eb 5c a7 3d
       -0.012700311 0.004450586 0.055391185 0.081720196
0003d0 7b 6b 4f 3d 54 64 41 3d d9 04 79 bd fc 17 d4 bd
       0.05063961 0.04721482 -0.06079564 -0.10356137
0003e0 63 9a d0 bd df 3d da bc 8a 2f 52 3d 0c 6e fa bd
       -0.10185697 -0.02664083 0.051314868 -0.12228021
0003f0 c7 38 a3 bd bb c8 a3 3d e1 ef fc 3d 9f e3 19 3e
       -0.07969814 0.07997271 0.12350441 0.15028237

action_model._discrete_distribution.branches.0.weight f4 [2, 128]
000000 86 80 0e 3c a7 47 87 3b 37 d8 04 3c c0 68 e5 3a
       0.008697635 0.0041284147 0.00810819 0.0017502531
000010 30 5e 39 bb 05 e7 68 3b 03 ca 03 bc 77 27 f8 bb
       -0.00282849 0.003553809 -0.008043769 -0.007573064
000020 fa 32 2c 3b 6a e2 3d bb 5b 05 ed 3b 6d 96 ef ba
       0.0026275502 -0.0028974065 0.0072333044 -0.0018279083
000030 b8 9a c5 3b ff a1 8a 3b e3 a6 41 bc d5 32 31 3b
       0.006030407 0.004230737 -0.011819574 0.0027038355
000040 a3 25 d3 3a ea 69 02 3c a3 46 cc ba 07 3e c1 bb
       0.0016109239 0.007959822 -0.0015585016 -0.005897287
000050 47 00 80 bb bd 37 66 bc 92 29 7c 3b 08 a2 a8 bb
       -0.003906283 -0.014051375 0.0038476926 -0.0051462688
000060 9f c8 21 bc 56 35 b7 ba aa f8 1f bb 7d 52 69 3c
       -0.009874492 -0.0013977687 -0.002440969 0.014240858
000070 52 34 db bb dc 7f 1f 3c 07 f8 0c 3b ba 2e 53 3c
       -0.0066895867 0.009735074 0.002151014 0.012889558
000080 dd 01 50 bb 9f 28 bf 3a 9f 8c 2d 3c 23 6f 64 3a
       -0.0031739392 0.001458425 0.010592609 0.00087140704
000090 35 ec 84 3c ff 32 c3 ba 8c 08 ca ba 4f 01 78 bb
       0.016225914 -0.0014892517 -0.0015413924 -0.0037842577
0000a0 54 ec c9 b9 b9 8a 05 bb 85 ac 06 3b 56 c6 8b 3b
       -0.00038513786 -0.0020376875 0.0020549607 0.004265587
0000b0 2d 72 f6 3b 12 5e 32 ba d1 38 81 bc 77 c5 7f 3c
       0.007520935 -0.00068041787 -0.015774162 0.015611044
0000c0 eb cf 35 3c 7e c6 23 bb 87 05 bf bb fa c3 fa ba
       0.011096935 -0.0024990137 -0.0058295163 -0.0019131892
0000d0 6f be 46 bc c3 b2 9d 3a 1a e1 cf bb 2b 5b 39 bc
       -0.012130364 0.0012031425 -0.006343973 -0.01131324
0000e0 2f 7e 27 3c 3a 64 06 3c 2e 8f 2b bc 3a 6b 34 3a
       0.010222956 0.008202607 -0.010471148 0.0006882433
0000f0 cf e9 65 bc 95 cc c2 3a c7 ca 0d 3c 23 d0 14 bc
       -0.014032795 0.0014861996 0.008654303 -0.009082827
000100 38 db de ba f3 b5 4c 3b 57 6b 27 3c f7 71 bc 3a
       -0.0017002588 0.003123638 0.010218463 0.0014377226
000110 ac 90 c7 3a 52 a2 59 3a 37 a6 73 3c a4 a1 04 3b
       0.0015225611 0.00083020807 0.014871172 0.0020237947
000120 d2 8a 44 39 cf aa ac 3a 10 35 4e 3c 00 1c 06 bc
       0.00018743731 0.0013173464 0.012585893 -0.008185387
000130 67 33 99 3b 91 2d 90 3b b3 b7 6e bb fd 02 cd 3a
       0.004675317 0.004399963 -0.0036425411 0.0015641149
000140 82 81 5b bc c3 b9 81 bc b9 5c 43 bb 42 c4 91 3b
       -0.013397576 -0.015835648 -0.0029809906 0.0044484446
000150 e7 4f 22 bc 50 5d fe 3b 7f 54 47 bc d3 ad e9 bb
       -0.0099067455 0.0077625886 -0.0121661415 -0.007131317
000160 79 bd 06 3c dd 39 17 bb a7 bf 66 bc 8f ce 2a bc
       0.008223885 -0.002307526 -0.014083779 -0.010425224
000170 a7 97 60 bb c8 ee 6b bc 91 c6 c1 3a 90 da 5c bc
       -0.003427008 -0.014400192 0.0014783909 -0.013479844
000180 b7 e6 bb 3b ac bd b7 3b 6a 71 53 3b d0 f7 dd bb
       0.0057342905 0.0056073274 0.0032263645 -0.0067739263
000190 4c e8 4b 3c 10 e8 82 3b df a9 d3 bb 67 5c d3 ba
       0.012445521 0.003994949 -0.006459459 -0.001612556
0001a0 aa 26 5b 3b dd 1c d6 bb 12 63 e4 3b cd 47 b6 bc
       0.0033439794 -0.0065342025 0.006969818 -0.022251034
0001b0 0e 21 ae bb 78 a0 60 bc 22 e8 f5 3a 33 dd 4c bb
       -0.005313999 -0.013710134 0.0018761198 -0.0031259775
0001c0 d8 d0 93 b9 96 04 a4 bc db 24 23 3c 46 89 82 bb
       -0.00028193626 -0.020021718 0.0099575175 -0.0039836494
0001d0 e3 18 91 bc 46 0d 99 ba 1f 0c 32 3c 87 fb 01 bb
       -0.017712062 -0.001167693 0.010867148 -0.001983376
0001e0 97 b8 2a bc 4b a3 a8 3c 83 3e 1f bc 04 83 3c 3b
       -0.010419986 0.020585677 -0.009719494 0.0028764615
0001f0 f5 47 dc 3a cf dc d8 3b 72 c1 6f bb ea 47 ba bb
       0.0016806113 0.0066181193 -0.0036583808 -0.0056848424
000200 96 36 90 bc 35 96 21 3c 57 0a 32 bc e8 77 d8 3c
       -0.017604154 0.009862472 -0.010866723 0.026424363
000210 df 04 34 3b 43 82 c0 3b d8 77 d3 3b 74 33 2e bc
       0.0027468724 0.0058749034 0.0064534955 -0.010632385
000220 64 43 ca bb eb 1f 19 3c bb 68 2a 3b e3 80 17 3c
       -0.0061725844 0.009345989 0.0026002366 0.009247038
000230 5d 02 47 3c 87 91 df bb 55 3c 27 3b eb f6 64 3c
       0.01214656 -0.006822768 0.0025518138 0.013974885
000240 ca 38 da bb a6 9e b2 3b 12 d0 62 b9 f8 a8 23 bb
       -0.006659602 0.0054510413 -0.00021630552 -0.002497254
000250 0f 10 a4 3a 14 18 9a 3b 18 1f 5e 3b 8f 01 b9 3b
       0.0012516993 0.0047025774 0.0033893045 0.0056459378
000260 6b a0 69 3b f6 ab 01 bc 38 24 cf 3b cb eb 4d 3c
       0.0035648595 -0.007914534 0.0063214563 0.012568424
000270 26 8d 9b 3a ec 68 aa ba d2 b2 0f bc d1 68 3a bc
       0.0011867627 -0.001300124 -0.008770661 -0.011377529
000280 bb 05 39 bc 65 02 c7 ba fa 9c 7b bb c4 b6 20 3c
       -0.01129287 -0.0015183209 -0.0038393126 0.0098092
000290 63 63 63 3a b0 56 6a 3b 86 55 cb 3b 9f 3a 31 bb
       0.00086741726 0.0035757236 0.0062052635 -0.0027042998
0002a0 a5 f1 5f bc ee 46 48 3c 38 b0 a4 bb c5 34 7e 3b
       -0.013668452 0.012223942 -0.0050258897 0.0038788777
0002b0 d5 7f f2 3a d8 78 4c bb bf f7 76 ba 67 24 33 3c
       0.0018501232 -0.0031199958 -0.00094210723 0.010933972
0002c0 11 3f 33 3c 59 56 ab bb 66 aa a3 bb 47 b1 c0 ba
       0.010940329 -0.0052287993 -0.0049946783 -0.001470127
0002d0 eb 74 17 3c 5e 65 06 bc 4b b1 f3 3b d5 ef 40 3c
       0.009244184 -0.008202879 0.0074369065 0.01177593
0002e0 53 4f 34 bc 8e de a6 3c 27 88 67 3c 89 f7 1c 3b
       -0.0110052405 0.020369794 0.014131582 0.0023951253
0002f0 35 00 65 bb a5 fb b3 39 14 04 00 bc 37 d2 a2 3a
       -0.003494275 0.0003432903 -0.007813472 0.0012422268
000300 3a a6 7a bc e0 19 5d bc d5 fa c7 3b 62 5a 71 bb
       -0.015298421 -0.013494939 0.0061028996 -0.0036827554
000310 87 f4 a1 3a 57 75 f0 ba 83 c0 5d bb 88 7d 5f bc
       0.00123562 -0.0018345517 -0.003383667 -0.013640769
000320 9c 9d 8c bb 85 44 c8 ba 17 68 06 bb 83 b2 a6 bb
       -0.0042912494 -0.001527921 -0.002050882 -0.005087198
000330 2b 9c 2b 3c c7 c2 9c 3b 05 ff 9d 39 ac 00 15 3d
       0.010474245 0.0047839615 0.00030135378 0.036377594
000340 ca 63 d6 bc 55 28 57 ba 0c d5 00 bb 2f 93 f9 ba
       -0.02617063 -0.0008207609 -0.0019658236 -0.0019041057
000350 52 b3 71 3b bc ea 18 bb c0 ab 95 bc 91 6a 25 bc
       0.0036880565 -0.0023333272 -0.018270373 -0.010096208
000360 20 60 df 3b 2e 17 18 bb d5 ae 95 3b 55 23 64 ba
       0.006816879 -0.0023207176 0.0045679607 -0.00087027746
000370 32 3f 4a 3a 41 b2 2a bc f3 84 87 3c 73 73 05 3c
       0.00077151053 -0.010418476 0.016542887 0.008145201
000380 07 80 82 3c c8 bc c7 3b cb bb 8b 3c 4b 81 e3 b8
       0.015930189 0.0060955025 0.01705732 -0.00010848286
000390 e3 d5 95 bc 2c e1 90 3b ff fc 36 3b 97 65 11 3c
       -0.018290466 0.004421374 0.0027921794 0.008874319
0003a0 83 25 56 bc c5 44 6b bb dd 5d 8d ba df 69 5b bc
       -0.013070467 -0.0035899144 -0.001078542 -0.013391941
0003b0 4b d9 60 bc eb a9 38 3c 04 14 bf bb 54 c3 a7 bb
       -0.013723682 0.01127098 -0.0058312435 -0.0051197205
0003c0 69 9b a2 3b 84 37 20 3b 63 8c a7 bc 15 de af ba
       0.004962374 0.0024447152 -0.020452684 -0.0013417626
0003d0 c3 05 83 bc 69 82 01 bc 18 6c 82 b8 6b 2b 0b 3c
       -0.015993958 -0.007904627 -6.219017e-05 0.008494238
0003e0 cf bd f6 3a 26 1f 30 3a f4 96 07 3b 41 d7 b3 3b
       0.0018824878 0.00067185087 0.002068934 0.0054883067
0003f0 8e b7 0d ba 0e 02 36 3c a8 df f2 bb bf a5 47 bc
       -0.0005406075 0.011108888 -0.007411916 -0.012185513

action_model._discrete_distribution.branches.0.bias f4 [2]
000000 00 00 00 00 00 00 00 00
       0.0 0.0

action_model._discrete_distribution.branches.1.weight f4 [2, 128]
000000 c3 2a f6 bb 23 a4 84 3b b9 25 06 3c 16 89 b1 bb
       -0.007512422 0.004047887 0.008187705 -0.0054179532
000010 62 54 fc 3b 4f 64 79 3c 47 a4 bf 3c 20 76 b5 3b
       0.007700489 0.015221669 0.023393763 0.0055377632
000020 11 98 bb 3b e8 c9 bd bb 8e 22 26 3c 9e 03 c4 ba
       0.005724915 -0.0057918914 0.010140074 -0.0014954691
000030 73 2d d9 bb 5a dc ec 3b 11 2a a9 3c a9 3c 28 bc
       -0.0066277324 0.0072284164 0.020649942 -0.010268369
000040 b8 6a d3 3c 9b 86 50 3b 7d 69 3b bc 81 c9 a9 ba
       0.025807723 0.0031818512 -0.011438725 -0.001295373
000050 33 89 c2 bb b5 aa 80 3c 63 2a 27 3b 28 cc 4d 3c
       -0.0059367656 0.0157064 0.0025507442 0.012560882
000060 fc 5f 2c 3c 57 54 42 39 a2 2c 86 bb 70 20 a4 3b
       0.010520931 0.00018532701 -0.004094676 0.0050087497
000070 93 28 08 bc e6 43 0f bc 5b 0d 61 3c e5 b4 50 bc
       -0.008310455 -0.008744216 0.013736094 -0.012738441
000080 6a bd 80 3c a3 5e 4e bc 52 22 0c bb 2f 27 8a 3c
       0.01571532 -0.012595805 -0.0021382761 0.016864387
000090 90 45 e9 ba 60 d8 6c bb 5d 65 b5 39 3c 12 99 bb
       -0.001779722 -0.0036139712 0.00034598532 -0.004671363
0000a0 4d 84 03 3b bb 67 35 bc 2d 50 d2 bb cb e0 8e bc
       0.002006787 -0.011072095 -0.006418249 -0.017441174
0000b0 57 32 cb 3b 76 08 1d 3c 05 92 37 bc c8 d5 c5 3b
       0.0062010693 0.009584537 -0.011204247 0.0060374476
0000c0 0d 1b 5d bc a6 72 92 3a 17 d2 ae 3b 7f 17 81 38
       -0.013495219 0.0011173084 0.0053351033 6.155576e-05
0000d0 e4 9a 2b bc 43 8d e1 3b f0 65 27 bc ec 8c 14 bc
       -0.0104739405 0.006883295 -0.010217175 -0.0090668015
0000e0 7a f6 91 3b 84 55 87 3b 6a 1d f7 37 48 c4 df 39
       0.004454431 0.0041300673 2.9458392e-05 0.00042680115
0000f0 76 53 92 37 7b 34 a4 bb bf d3 f7 3b 03 24 4a 3b
       1.744342e-05 -0.005011139 0.007563084 0.0030844219
000100 7b 8b eb bb 9a f5 09 3b 92 68 15 3c 1b 59 4c 39
       -0.007188258 0.002105093 0.00911917 0.0001948815
000110 93 b0 3d bb 83 47 97 3a 52 43 32 ba 39 eb a0 3b
       -0.0028944358 0.0011541698 -0.00068001926 0.004910853
000120 7c 00 1c bc 22 8a c5 3c 48 06 7f bb 5b 52 c6 b9
       -0.0095216 0.024113718 -0.0038913656 -0.00037826863
000130 c3 b2 91 3c a9 3d 96 bc bf 31 36 bc 92 48 3e bc
       0.017785436 -0.018339949 -0.011120259 -0.011613982
000140 c3 99 17 ba 86 e1 02 3c 2b ce 47 3a 8f 46 30 bb
       -0.0005783105 0.007988339 0.0007621969 -0.0026897525
000150 48 54 58 bc 62 b1 1a 3c b0 e7 2c bc 1e c8 a8 3b
       -0.013203688 0.009441705 -0.0105532855 0.005150809
000160 4b 58 2a bc 2a 15 ef 3b 5d bd 9c ba d5 37 a2 bb
       -0.010397027 0.007296224 -0.001195829 -0.0049505034
000170 23 cc 98 bc a8 87 27 bc 70 52 1b bc 0f f3 98 bb
       -0.018652027 -0.010225214 -0.009480104 -0.0046676467
000180 fa e5 2e bc a1 3c c0 bb 53 83 9c bb 2b 3e ba 3b
       -0.010674948 -0.0058666025 -0.0047763973 0.0056836805
000190 52 d6 73 bc c7 c4 86 3b 9f 0c 9a bb 01 47 02 bc
       -0.014882641 0.004112813 -0.0047012116 -0.007951499
0001a0 99 75 14 bc f9 f8 94 3b 96 da 85 37 9b 7c 30 3c
       -0.009061241 0.0045462814 1.5956623e-05 0.010771896
0001b0 6e fc 19 3c b7 2e 7e bc a8 0b d5 3b 57 07 39 3a
       0.009398563 -0.015514067 0.0065016337 0.00070582837
0001c0 45 3f 0b 3c 77 fa 47 bc 14 53 01 3c 57 cd ce bb
       0.008498971 -0.012205712 0.0078933425 -0.0063110995
0001d0 eb bd 72 bb a4 1d 99 bb 38 d7 f7 3b f3 b4 37 bc
       -0.003703947 -0.004672723 0.007563498 -0.011212575
0001e0 a7 fc 60 bc 02 6f 6d 3b 9d 8f 7d bb e4 a8 c3 bc
       -0.013732112 0.0036229496 -0.0038690337 -0.023884244
0001f0 3d f2 58 bc bb 1d 11 3c 7b 24 dd 3a 5b e5 e8 ba
       -0.013241348 0.008857186 0.0016871834 -0.0017768549
000200 87 a4 b1 bb ba 74 30 bb 38 54 a3 3b 48 74 66 bb
       -0.0054212245 -0.0026925043 0.004984405 -0.0035164524
000210 23 25 59 b9 67 ca 10 bb e1 3e a0 b9 56 13 9e bc
       -0.00020708567 -0.0022093297 -0.00030564427 -0.01929633
000220 42 87 26 bc ed 88 63 bb eb 31 82 3c d2 ee 43 bb
       -0.010164084 -0.0034719065 0.015892943 -0.0029896987
000230 43 f0 cb 3b df b3 2c bc 3e 81 bc bb 16 4b 17 bb
       0.00622371 -0.0105409315 -0.0057527116 -0.0023085526
000240 db ba 54 bc 5d cb 81 bc ee 28 1b bc 12 9b 08 bc
       -0.012984003 -0.015844041 -0.009470208 -0.008337753
000250 5b b5 f0 bb 43 33 00 bb 61 04 25 3b ba 29 2f 3c
       -0.007345838 -0.0019561804 0.0025179612 0.010691101
000260 ae 7a 90 bb 23 ea a7 bb d2 81 fb 3b e9 b4 ae 3b
       -0.004409156 -0.005124347 0.007675388 0.0053316248
000270 7b 8a 88 b9 f7 3d 3e bc d4 7f 8a bb 28 83 fb 3b
       -0.00026043117 -0.011611453 -0.004226664 0.007675547
000280 e2 81 f3 ba 13 88 ec 3b aa 46 53 3c 46 8b 3a 3b
       -0.0018578137 0.0072183697 0.012895266 0.002846436
000290 f7 9b 9f bc 75 c8 7d 3c d5 a3 52 bb 53 a4 84 3c
       -0.01948355 0.015489687 -0.0032141109 0.016191637
0002a0 ef 4c 8b bb c6 75 c4 bb eb f4 47 b9 d5 e6 75 bb
       -0.0042511146 -0.005995485 -0.00019069358 -0.003752162
0002b0 ef 69 8f bb 55 e5 e2 3b db 7c 1a 3b 33 49 91 3c
       -0.004376642 0.006924311 0.0023572955 0.0177351
0002c0 63 97 13 3b a0 69 6e bb ab aa 60 bb c2 21 28 3c
       0.0022520653 -0.0036378875 -0.0034281414 0.010261955
0002d0 79 d2 38 ba 31 43 a2 bb 0b da d8 bb cb 81 24 ba
       -0.0007050406 -0.0049518575 -0.0066177896 -0.0006275444
0002e0 38 ef 68 3a 87 f8 81 bc 67 b5 10 3b e5 6f 58 3c
       0.0008885744 -0.015865577 0.002208078 0.0132102715
0002f0 35 09 fc 3b b1 b5 87 ba 27 ac 4c bb df fa 36 3a
       0.0076915273 -0.0010353831 -0.003123054 0.0006980132
000300 27 8c a9 bb 18 51 f4 bb ff 41 c0 3b 2f ca 14 bc
       -0.005174178 -0.007455956 0.0058672423 -0.009081407
000310 ee fd 28 3a c8 ff cb ba 85 a4 99 3c ce 7b 31 3c
       0.000644653 -0.00155639 0.018755207 0.01083274
000320 df 5c 54 bc 7f 2f d2 3b 83 20 65 ba 7a c3 04 ba
       -0.012961595 0.0064143534 -0.00087405014 -0.00050645287
000330 00 4f 20 bc ab da 8a 3b 68 18 6a 3b 48 55 f8 3b
       -0.00978446 0.004237493 0.0035720114 0.0075785257
000340 50 59 80 bb 4a 3b e9 3b 7f b0 84 3b d2 dd 68 3b
       -0.003916897 0.0071176635 0.0040493603 0.0035532606
000350 ed 32 1b 3c ff 36 10 3c ff 7d d6 bb f1 2f 3b bc
       0.009472591 0.008802175 -0.0065457816 -0.011425004
000360 c9 cf 49 bb a2 de 5f 3b 37 17 e2 ba 34 93 29 bc
       -0.0030794016 0.00341598 -0.001724935 -0.010350037
000370 bf df 9b bc 9f 5b 79 3c 1d 02 51 ba a5 00 6d bc
       -0.019027589 0.015219598 -0.0007973032 -0.014465486
000380 aa 9e 62 bc 9b 02 00 bc 3a f5 38 3c 84 b2 8e bb
       -0.013831774 -0.007813121 0.011288935 -0.004354777
000390 1f 0e 58 3b 85 82 f3 ba fb 29 16 bc c7 8f 17 bc
       0.0032967401 -0.0018578327 -0.009165282 -0.009250588
0003a0 63 82 e3 b8 0a d1 c0 3b d7 76 a2 39 ad 3a 32 3c
       -0.0001084849 0.0058842944 0.0003098759 0.010878247
0003b0 cb 67 2e bc d4 13 88 bb fb 44 8b 3b 43 91 18 3a
       -0.010644863 -0.0041527543 0.0042501665 0.00058199855
0003c0 10 f8 a2 3a fd 69 fb 3b f7 f7 10 bc ea 80 72 bb
       0.0012433548 0.007672547 -0.008848182 -0.0037003108
0003d0 e7 be 0f bc 9d 43 ab 3b b3 3a d0 bb 8f 80 2b bc
       -0.008773542 0.005226566 -0.0063546537 -0.0104676625
0003e0 73 47 84 bb a3 cf 40 3c 18 aa 62 bc 23 06 ba bb
       -0.0040368377 0.011768254 -0.013834499 -0.005677001
0003f0 4f 5b 7b bc b3 54 6f bc 20 05 1c 3c ef 9d e3 bb
       -0.015341594 -0.014607596 0.009522706 -0.0069463174

action_model._discrete_distribution.branches.2.weight f4 [2, 128]
000000 45 e3 cc bb 04 9d 1b bb 31 0d 1f ba f1 75 15 bb
       -0.0062526786 -0.0023744712 -0.00060673343 -0.0022805894
000010 d7 a8 af bb 39 79 96 3b eb 2e 54 bc c7 99 75 3c
       -0.0053607034 0.0045920876 -0.012950639 0.014990277
000020 3f 38 0d bb 77 33 34 3c e5 a9 91 3b e3 b3 e7 3b
       -0.0021548418 0.010998598 0.004445302 0.0070710047
000030 b7 11 f6 3a ea b4 86 3c e3 11 4b bb 57 a4 d2 3b
       0.001877359 0.016443688 -0.0030986003 0.0064282822
000040 0b 48 89 bc 5b e1 cc bb c1 f8 93 bb bd 16 d6 3b
       -0.016757986 -0.0062524504 -0.0045157378 0.0065334723
000050 66 cc 85 bb f6 81 9b 3a 24 b3 80 3c 98 83 eb bb
       -0.004083204 0.0011864293 0.01571042 -0.007187318
000060 06 8e 0e bc 6f 5a e6 3b e2 b2 35 bc b3 03 40 3c
       -0.008700853 0.0070298235 -0.011090012 0.011719632
000070 91 7d 44 bc dc 96 b2 bb 6a 3f 0d bc 35 e4 fd ba
       -0.011992828 -0.0054501127 -0.008621076 -0.0019370379
000080 3b 9c 48 3c 6f af 06 3b ab ef be 3b f8 be 57 3b
       0.0122442795 0.0020551344 0.0058269105 0.0032920223
000090 98 0b 3d 38 ce b8 2e 3c 17 e0 4e ba 67 7c e4 3a
       4.507191e-05 0.010664178 -0.00078916684 0.0017432094
0000a0 a3 fc da 3a 23 5a 81 bb 58 30 a6 3a dc 4c 92 b9
       0.0016707372 -0.0039475127 0.0012679202 -0.00027904555
0000b0 56 f4 11 3c c0 f6 95 3b f2 ee a9 bc 56 68 48 bc
       0.008908352 0.004576534 -0.02074382 -0.012231907
0000c0 ea 75 84 bc 2f af 21 bb a7 9c 1b bc 53 89 65 b9
       -0.016169507 -0.0024671068 -0.009497798 -0.00021890299
0000d0 cb f6 08 bc b6 b1 a3 3b 7b 55 81 3b 0c d6 c3 39
       -0.008359621 0.00499555 0.0039469576 0.00037352776
0000e0 9b 1d 53 3a 8d f7 65 3b 55 b1 42 bb d0 16 0e 3b
       0.0008053423 0.0035090179 -0.002970775 0.0021681078
0000f0 bd b2 7e 3b b5 38 f5 bb c1 28 28 3c 7f ee 56 3c
       0.003886386 -0.0074835666 0.010263623 0.013118385
000100 ff 31 3e bb d6 70 a3 3b 0f 38 d3 bb c3 e2 f7 bb
       -0.00290215 0.0049878163 -0.0064458917 -0.007564874
000110 e8 c6 47 bc ad 66 ef ba 69 b8 8b 3b 65 7b 8c bb
       -0.012193419 -0.0018264853 0.0042639268 -0.0042871707
000120 9a 35 c2 39 30 ec 56 b9 27 02 54 bb 8a 42 06 3c
       0.000370425 -0.00020496617 -0.0032349916 0.008194575
000130 ef b4 3f 3b 50 6f d5 bb e4 53 85 3c 12 d7 87 3b
       0.0029252132 -0.0065135136 0.016275354 0.0041455114
000140 70 ff f8 3a 7f cd e8 3b 43 38 79 bc 08 fa 96 bb
       0.0018997025 0.007104575 -0.015211168 -0.0046074428
000150 48 fc f2 bb 4e 3e 82 bb 07 50 1c 3c 10 c7 4e bc
       -0.007415328 -0.0039747125 0.009540564 -0.012620702
000160 55 ad 8f 3b ce 0e 45 bc 5f ff 3d 3c 78 64 21 3b
       0.0043846765 -0.0120274555 0.01159653 0.0024626534
000170 c1 90 4c 38 67 6a 82 3b 3e f2 86 3a 51 6c 88 bc
       4.8772203e-05 0.0039799693 0.0010295582 -0.016653212
000180 a2 ce 84 3b 95 86 0d bb 23 79 fa bb f4 e3 af bb
       0.004052953 -0.002159511 -0.007643835 -0.0053677503
000190 9b ca c1 3b a3 5d 36 bc 66 37 35 bb cc 45 35 bb
       0.005914045 -0.011130723 -0.0027651428 -0.002766001
0001a0 bb 50 59 b9 43 ac 15 3c f3 c7 3f 3b d3 14 80 bc
       -0.00020724807 0.009135309 0.0029263466 -0.01563493
0001b0 eb 8a ec 3b e1 2d 0c bc 17 55 13 3c bb 4b 44 3c
       0.0072187087 -0.00855586 0.008992455 0.011980946
0001c0 c3 4a 09 bc 38 3f e2 3b bb 17 1d 3c 67 0b a3 bc
       -0.008379641 0.006904509 0.009588177 -0.019902898
0001d0 3d 71 44 ba da 43 7c bc 69 d7 c0 bb 2f 13 9f 3b
       -0.00074936805 -0.015397036 -0.005885054 0.004854582
0001e0 27 66 44 3c 20 db 7c 3a 4b b6 05 ba 5b 62 c8 bb
       0.011987246 0.0009645689 -0.0005100711 -0.0061152405
0001f0 9d 19 6b 3b 82 25 12 bc 6f 6b 0d 3c 22 46 e4 3b
       0.003587342 -0.008920075 0.008631571 0.0069663683
000200 8a a7 bd b9 07 05 f3 bb 3b ef cc b9 ef 70 55 3c
       -0.00036173715 -0.007416371 -0.00039088153 0.013027414
000210 52 b4 65 3a 0f a4 fb bb d0 2e 7f bb d7 5a 27 3a
       0.00087625266 -0.0076794694 -0.0038937815 0.00063840806
000220 66 e1 97 3b 58 db f1 3b 9b e1 1d bc 21 19 20 bc
       0.004635024 0.007380884 -0.009636308 -0.009771616
000230 a3 ab 20 bb b3 c3 77 bb 0f b8 0f 3a 22 ea 90 3c
       -0.0024516366 -0.0037805855 0.0005482444 0.017689768
000240 45 09 93 3c e7 22 41 bb 6f 55 4d 3b a3 85 09 bc
       0.017948756 -0.0029470266 0.003133144 -0.008393678
000250 90 49 3d 3c 00 9c 46 bb 60 50 cf 3b 05 ec 9e b8
       0.011553183 -0.0030305386 0.00632672 -7.577989e-05
000260 5f bd 4a bc d2 51 fa bb 07 7b 0c bc c1 a1 31 3a
       -0.012374251 -0.0076391483 -0.008574254 0.00067761174
000270 7b a5 45 3b 73 37 01 bb 4c 75 a4 3b 0b ee ca bb
       0.0030158448 -0.0019716888 0.0050188657 -0.0061929277
000280 e5 c7 63 ba a3 c9 88 3c ea a8 1b bc 41 bc 4a 3c
       -0.00086891494 0.01669771 -0.0095007215 0.012373985
000290 08 2c 51 3c a5 ce 8e 39 82 db 70 bc 43 54 bd 3b
       0.0127668455 0.00027238313 -0.014700772 0.005777867
0002a0 88 3e 6c 3b 77 2f 08 bc 10 f7 56 3c 48 70 d6 bb
       0.0036048014 -0.008312098 0.013120428 -0.0065441467
0002b0 1b 7e c6 bb ca 42 2c bc 6f 2c a8 3c 9a 62 08 3c
       -0.0060575134 -0.010513971 0.020529 0.00832429
0002c0 9f 7c c1 bb c8 c7 d3 3a c8 08 f2 3b 21 24 96 bb
       -0.0059047486 0.0016157562 0.0073863007 -0.0045819436
0002d0 d7 7a 34 3c c3 8f 85 ba b3 30 c1 3a 05 4e 18 b8
       0.011015615 -0.0010189939 0.0014739245 -3.6312285e-05
0002e0 7f 10 0a 3b 51 57 90 bc 00 69 9b bc fb 27 10 bb
       0.0021066961 -0.01761976 -0.018970966 -0.0021996486
0002f0 9d 7f 66 3c 0f 1f 34 bc 6a e2 97 bc 9b 57 72 bc
       0.014068511 -0.010993733 -0.01854058 -0.014791395
000300 f2 28 7a bc 6d fc 93 3b 22 42 29 3c f3 be 8c 3c
       -0.015268551 0.0045161755 0.010330709 0.017180895
000310 59 b9 8a bc ab 97 85 bb 08 33 7a 3c 0e 75 0e 3c
       -0.016934084 -0.004076918 0.015270956 0.0086949
000320 f7 d7 a0 3b 58 d7 07 bb 20 04 63 3b 6c 06 9e 3a
       0.0049085575 -0.002072772 0.003463991 0.0012056357
000330 78 2b 24 bc c6 cb 28 3c f2 9a d6 3b 9a 09 8b 3b
       -0.010020129 0.01030249 0.0065492326 0.004243088
000340 15 d2 03 3c ab f5 a7 bc 84 31 8d 3b 3e db 37 3a
       0.008045693 -0.020502886 0.0043088812 0.00070135656
000350 15 7b 56 3c 12 ac dd 37 3f 72 2c bb cc 5f 4c bc
       0.0130908685 2.642538e-05 -0.0026313213 -0.012474012
000360 f6 01 10 bb b1 08 05 bc dd 22 8e bb e3 1c 1c 3c
       -0.0021973825 -0.008119748 -0.004337652 0.0095283715
000370 d0 15 eb b9 2c 81 2c 3c 7c 1d 4c bb 06 67 af bb
       -0.00044838944 0.010528844 -0.0031145504 -0.0053528575
000380 43 6d 85 bc 85 ea 2d 3b 87 66 59 3c 9b c4 f6 3a
       -0.016287452 0.002653749 0.013269073 0.0018826904
000390 97 45 36 3c 6f 09 17 bc 51 45 98 b9 13 ee 0a 3a
       0.01112499 -0.009218558 -0.00029043344 0.0005299758
0003a0 87 97 20 bc d0 26 7b bb 85 8f 47 bc e5 b4 cf bb
       -0.009801752 -0.0038322695 -0.012180214 -0.006338703
0003b0 bb c2 94 bb 1b 73 84 bb 3b 8f 11 3b e7 42 dd 3b
       -0.0045398152 -0.004042042 0.0022210616 0.00675236
0003c0 47 40 8c 3b 63 90 e8 b9 53 82 33 3b c3 b1 89 ba
       0.0042801234 -0.00044358065 0.0027390912 -0.0010505248
0003d0 99 4f 34 3b 0f 25 e7 bb e7 2f 01 3c ce 43 10 3c
       0.0027513264 -0.0070539783 0.007884956 0.008805228
0003e0 e2 97 dd 3b 3f fa 5f 3c 2b 9e e3 bb 85 5e 33 bc
       0.0067624906 0.013670503 -0.0069463453 -0.010947828
0003f0 96 6d bd 3b be a6 b2 bb eb f3 6a 3c eb e9 a5 3b
       0.005780886 -0.005452006 0.014340381 0.0050632856

action_model._discrete_distribution.branches.3.weight f4 [2, 128]
000000 7e 7c a4 bb 72 bc f6 bb b3 21 f3 bb 7f cc 1e 3c
       -0.0050197234 -0.0075297887 -0.0074197887 0.00969231
000010 fb 97 fc 39 41 c5 c7 bb 06 a8 8b 3b c1 78 3c 3c
       0.0004817842 -0.0060965125 0.0042619733 0.011503399
000020 ab 0d c5 3b d9 56 c7 bb a3 57 3f bc 36 57 3c 3b
       0.0060135922 -0.006083351 -0.011678609 0.0028738505
000030 85 c3 3b 3c 2d 7c ad 3a 81 dd 12 3b 23 66 b3 bc
       0.01146019 0.001323586 0.0022409859 -0.021899289
000040 78 26 7b bb 27 6d 79 ba 0d 7d e9 bb 8b 14 16 bc
       -0.003832249 -0.0009514861 -0.007125503 -0.009160171
000050 f3 04 98 3c c3 d6 49 ba 26 e4 90 bb 44 c3 2d 3c
       0.018557047 -0.00076995435 -0.0044217287 0.010605637
000060 85 01 74 bb 9e a3 0f bb 76 a6 03 3a bb 94 64 bc
       -0.003723235 -0.0021917592 0.0005022058 -0.013951476
000070 7b 90 19 3c 39 ec 45 3b 7a 2a ed 3b d9 52 9f ba
       0.009372826 0.0030200614 0.0072377296 -0.0012155428
000080 6f 08 0f bc f3 f8 12 bc 4b 75 9a bc 8b 1f 51 3b
       -0.008730038 -0.008970487 -0.018854758 0.003190967
000090 1a b8 98 bb 8e 08 c2 3b e5 06 02 bc 65 7f 58 3b
       -0.0046606185 0.00592143 -0.007936214 0.0033034917
0000a0 9d 14 ae 3b bb a5 a5 bb ea af 23 3c 1f a8 54 3b
       0.005312516 -0.005055157 0.009990672 0.003244884
0000b0 3e 52 a5 3b 5c 5c cc bb 95 50 86 3c ba 90 e1 bb
       0.0050452044 -0.006236596 0.016395846 -0.006883708
0000c0 a7 2b 27 bc ba 44 11 3b 81 2d 0d 3b 1d a5 5c b9
       -0.010203279 0.0022166208 0.0021542015 -0.00021042344
0000d0 8f 29 f4 bb f7 10 02 3b 17 63 3f 3c 40 ff 5f bb
       -0.0074512432 0.0019846538 0.01168134 -0.003417924
0000e0 1b af 7c 3c 2b 2a c6 3b db 46 c2 bc 03 77 a8 bb
       0.015422608 0.0060475073 -0.023715427 -0.0051411404
0000f0 35 d7 5f 3c 4e 20 b1 3a 5d 3f d1 bb 57 8f 8c 3b
       0.013662149 0.0013513656 -0.0063857273 0.0042895484
000100 55 18 7b bc 8f b4 47 3c c0 98 c3 bb c5 14 a3 ba
       -0.015325625 0.012189045 -0.005969137 -0.0012442103
000110 b2 1e 24 3c 5d 2d 0e 3c 33 df 18 bc b7 99 ae 3b
       0.010017084 0.008677808 -0.009330559 0.005328383
000120 03 89 22 3c 71 52 93 3c 2e 7a 02 3c 68 3a 75 bb
       0.009920361 0.017983647 0.0079637 -0.0037418846
000130 cb a1 2a bc 65 69 39 bb b4 5a bb 3b f9 4e 29 3c
       -0.010414551 -0.002829158 0.0057175998 0.01033377
000140 68 fe 7e bb 2a ed 81 b9 ed 7f 65 ba b1 29 06 3c
       -0.0038908962 -0.00024781498 -0.0008754719 0.008188651
000150 d3 d6 6d 39 e3 57 3c bc ed 09 05 3c 25 2f fa ba
       0.0002268211 -0.011495563 0.008120042 -0.0019087536
000160 aa 15 ab 3c 76 71 c0 bb 8b 60 3c 3b 48 aa 3f 3b
       0.020884354 -0.0058729006 0.0028744068 0.0029245783
000170 92 da 41 ba 74 a3 39 3c df 24 85 3c fd 6b 17 3b
       -0.0007394935 0.011330474 0.016252933 0.0023105138
000180 fd 30 b2 3b 77 32 c4 bb b4 e2 1f bb 4c c4 03 3c
       0.0054379688 -0.005987461 -0.00243966 0.008042406
000190 fb 58 23 3b e7 ad 07 bc 9b ad 3c 3c 36 16 4c 3b
       0.0024924863 -0.008281208 0.011516 0.0031141168
0001a0 9d 57 cd 3b f8 8d 53 bc 10 83 72 bc 04 cb c2 bb
       0.006266548 -0.012912266 -0.014801756 -0.0059446115
0001b0 78 56 cb bb aa 52 48 3c ed 7f 7a bc ba 0c 71 bc
       -0.0062053762 0.01222674 -0.015289289 -0.014712507
0001c0 0f a0 c9 bb 7a 60 53 bc 5d f1 83 bb ab 9a 23 bb
       -0.0061531137 -0.01290142 -0.0040265755 -0.0024964015
0001d0 cb ff 31 3a f0 c8 8b 3a 42 c6 70 3c e5 88 00 bb
       0.000679013 0.0010664742 0.014695706 -0.0019612845
0001e0 f7 7b 83 bb 1a f5 35 3c 9f 2a 9d 3a 8a 7d d9 bb
       -0.0040125805 0.0111058 0.0011990851 -0.00663728
0001f0 8d b6 c7 bb c7 4c a9 3b d6 a1 a0 3b b0 92 fd 3b
       -0.00609476 0.0051666233 0.004902105 0.007738434
000200 73 bf e8 bb 09 a0 02 3a 90 24 42 bc 7f c4 ea bb
       -0.0071029007 0.00049829535 -0.0118495375 -0.0071645374
000210 80 0e 62 bc 9a 01 52 bc 33 01 f9 3b 9f 8d 4f bc
       -0.013797402 -0.012817765 0.00759902 -0.012668042
000220 20 f0 eb bb fd ea d3 3b 13 db 74 bc 15 bc 88 bb
       -0.007200256 0.006467222 -0.0149448095 -0.0041728118
000230 e5 2f a2 bc 46 9b 83 3b 43 81 21 bb ce 7b 90 3c
       -0.019798229 0.004016313 -0.0024643696 0.01763716
000240 53 f2 d0 3a 4d 2e 55 bb 31 28 90 bb f7 89 04 3c
       0.0015941359 -0.0032528818 -0.0043993224 0.008089534
000250 2f 7c fc bb 2a e1 d0 3b 54 c6 c3 3b 76 ff c4 b9
       -0.0077052335 0.006374498 0.0059745703 -0.00037574366
000260 cd 01 10 3c 3d 01 8f 3b 79 f6 89 3b 10 eb ac ba
       0.008789492 0.0043641613 0.00421029 -0.0013192613
000270 39 6f a6 3b 23 d2 55 3c 99 dc 1f 3c 8c 49 8d 3b
       0.0050791767 0.013050589 0.009757184 0.004311746
000280 5e 9b 87 bb 7b eb b1 3c c8 15 c0 3b 79 d7 ac 3b
       -0.0041383943 0.021718731 0.0058619715 0.00527471
000290 9d de df 3b b0 74 44 bc 33 18 85 3c 05 35 94 bc
       0.0068319575 -0.011990711 0.01624689 -0.018091688
0002a0 93 1b 4f ba 6b bb 57 bc e7 b9 30 3b ac a5 88 bb
       -0.0007900532 -0.0131672425 0.0026966275 -0.0041701403
0002b0 1f b4 2e bc 78 79 ff 3b 0d 09 f7 bb 1b 21 90 bb
       -0.010663061 0.0077964626 -0.0075389207 -0.0043984777
0002c0 cb 29 f8 bb 0b c8 53 3c b5 40 3c bb e3 37 0d bc
       -0.0075733415 0.012926112 -0.0028725092 -0.008619281
0002d0 a5 f8 85 3c 04 98 43 3c 77 83 c6 bb 68 ca 63 bc
       0.016353915 0.011938099 -0.0060581523 -0.013903238
0002e0 4f f5 27 bc 52 00 7a 3a 0c 8f 04 3c 67 51 52 bb
       -0.010251357 0.0009536791 0.008090746 -0.0032091977
0002f0 0a 66 8a ba ae e5 0e bc 46 a6 b0 39 ed 47 f7 3b
       -0.0010558974 -0.008721752 0.0003369322 0.007546416
000300 ad 5d 6d bb 98 fd 2d bc be 59 9e b8 47 01 a1 ba
       -0.0036219165 -0.0106195435 -7.550743e-05 -0.0012283706
000310 b1 c5 39 ba 91 f7 81 ba 61 ca 3b bb 3b 8f 2d 3b
       -0.0007086648 -0.00099157 -0.0028654563 0.0026483077
000320 5b d9 08 bc c0 82 39 39 25 ff 63 3c 3b 14 ff 3a
       -0.008352603 0.00017691683 0.013915812 0.0019460985
000330 2a 41 f7 3b 40 db 80 3b b7 fc 0b bb f6 2a 06 3c
       0.00754561 0.0039323866 -0.0021360347 0.008188954
000340 ff 13 eb 3b 5b 13 52 3b bb 73 66 3b d7 48 ff 3a
       0.0071740146 0.0032054994 0.0035164196 0.0019476664
000350 67 b7 98 bb 77 e3 ec bb 5b 1b 6c 3c 27 11 07 bc
       -0.004660535 -0.0072292644 0.014410819 -0.0082438355
000360 a3 0c 8b bc fd bd 85 3b 7a ca 73 bb 9f 4f 8b bc
       -0.0169738 0.0040814863 -0.0037199543 -0.01700574
000370 11 d8 9f 3b 0b a7 58 3b 23 ae d7 bb 47 06 68 3b
       0.004878052 0.003305855 -0.006582038 0.0035404132
000380 7a 84 0b bc 64 6e b1 3b 2a 44 a9 3a 67 d3 57 3b
       -0.008515472 0.005414771 0.0012913991 0.0032932402
000390 4c 3b c8 bb 2c 83 b1 bc 3f 36 bf 3a bf 8b ca 3b
       -0.0061105844 -0.021668993 0.001458831 0.00618121
0003a0 c4 bf 2c 3a c0 ed fe 3b 67 ed a2 ba eb 4b 23 3c
       0.00065898546 0.007779807 -0.001243037 0.009966831
0003b0 3b df 2c 3c 6b a1 85 3b 7f a8 41 3c aa 11 45 3b
       0.010551269 0.0040780804 0.011819958 0.0030070343
0003c0 5b e7 99 3c ee 8a 0e bc 0c 95 28 3c 3b 57 d6 3c
       0.018787077 -0.008700116 0.010289442 0.026164642
0003d0 01 3a ac bb a8 d1 30 3c 73 56 43 3c d7 38 33 bc
       -0.005255938 0.010792173 0.011922467 -0.010938845
0003e0 c7 44 eb ba 88 2b e3 3b 4a 17 94 3a 42 fb 9f bb
       -0.0017949574 0.0069326796 0.0011298445 -0.004882247
0003f0 d3 5c 15 ba 32 3f 2b 3b 25 7d cd bb b0 df b6 bb
       -0.0005697731 0.0026130197 -0.006271022 -0.005580865
