Assets/results/ppo/My Behavior/My Behavior-214.onnx (onnx, 156809 bytes, 20 tensors)

discrete_act_size_vector f4 [1, 14]
00000000: 0000 0040 0000 0040 0000 0040 0000 0040
00000010: 0000 0040 0000 0040 0000 0040 0000 2041
00000020: 0000 2041 0000 2041 0000 2041 0000 2041
00000030: 0000 2041 0000 2041
2.0 2.0 2.0 2.0 2.0 2.0 2.0 10.0
10.0 10.0 10.0 10.0 10.0 10.0

network_body._body_endoder.seq_layers.0.weight f4 [128, 24]
00000000: 0d86 f23d 5023 0d3f 67dc 67be 8492 4dbd
00000010: 326f 0abe c64f 9dbd b451 66bd 0b02 a33d
00000020: 057f 8a3d 9a9f ab3d b328 3bbc 79d1 08be
00000030: c0c6 813e 84f9 0f3f 2c07 543e a275 ba3e
00000040: d60c 513d 1d87 4b3e 1e4b e6bd 00c7 25be
00000050: 7349 2a3e 55ce 1abf eb78 7b3e cf33 1c3d
00000060: c4ed 8d3d ec77 bd3d fa1a 063e df2a e4be
00000070: 20c0 94be 8646 6bbd 354b dfbd 6d40 43be
00000080: e491 a5bd 148a 233c 032a 30be 1088 9a3e
00000090: 8f0c 42bd 4973 a5be f010 da3e 5fb9 523e
000000a0: 23b2 1c3d 69d7 3bbd 564f 87be ed9a 26be
000000b0: 1440 88be 6161 4c3e 83c9 a0be a088 63bc
000000c0: ba9e b3bc 2cce 52be c9fa 013e d2f2 4bbd
000000d0: 8f03 d23d b7d7 813e 8da4 edbd 3b41 9d3e
000000e0: 19e5 96be 04d6 553d ea73 4fbd 1ba6 07bc
000000f0: 92fb 96bd d1cc 8fbd 3b2b 7f3e 2196 d33d
00000100: c781 f5bd 9691 a1bd 772b 3c3d b109 0ebd
00000110: a674 e2bd 5604 3a3c e098 7bbe f7c8 933e
00000120: 3a7b 45be 3ba2 2f3d 49c9 4bbc 252c d3bc
00000130: 5a10 3e3e d282 dabd 6084 80be 5bf3 fdbd
00000140: f357 083e f062 99be 48d1 51be f61d c3bd
00000150: bed1 923e e618 543d 6118 7e3d 2e16 87bc
00000160: 53d1 a1be 18db 073c 04c2 14be afe6 313e
00000170: 553d 9dbc dcf4 02be 2cae dc3d df6b aa3d
00000180: c192 ef3d 5ffe ed3d 7fe3 ed3e 2f6d a9bc
00000190: d1ed 54bd f04c f43c cf8b 05be 3708 343d
000001a0: a215 d6be 11e8 d7be a330 03bf 39b0 083f
000001b0: 2f2b aebe a680 043e cd6c 1cbe 519e 2abe
000001c0: 0c05 3c3e 2bde 303d da93 28bd 0a45 90bd
000001d0: b044 923e 6c34 97bd 94ad a4be b081 08be
000001e0: ee7c 2c3e 725d 72be 8efa 29be e1f8 d1be
000001f0: d664 6b3e 2553 1c3e 350a ff3e 5b68 47be
00000200: f42f 6fbd 169e 023e 4320 7abe fa8d 39be
00000210: 03c7 bebe 70c0 12bc d83d e13e c644 aabd
00000220: 2eb2 2c3e 95e7 a0bd 0ae9 3a3b ac0b 13bd
00000230: 9fca cfbc 7c9d 6e3c 6ba1 233e 5841 6bbe
00000240: b0f1 423d 78e6 eb3d 53ce 8fbe 3c27 91bd
00000250: debc 68bd cc9f f2bc 20df 9dbd cdd1 013f
00000260: 3dd5 13bc 3f61 efbd 0d3d 14be 2fa0 1c3e
00000270: 4a25 dabd b1ff 60bd cf6b 0c3d a7ce 393d
00000280: bcbc 2cbd 3ba6 d7bd 4e50 ae3e d058 56be
00000290: 1e36 f03d 4379 46be 41f2 503e 42f8 603e
000002a0: aca1 423e 0145 50be c301 0dbd 1894 12bd
000002b0: a6e4 1bbf 60d0 9e3d e693 c2be 8ff9 113e
000002c0: 4fab 583e e7ce e1bd a74a ac3b 1f19 90bc
000002d0: 63bb 193e ccdf 40bd b745 bb3e e821 933e
000002e0: 3078 d1bd 166c 683e b928 6fbd 0375 82bd
000002f0: d67a 5ebe 19e1 a83e 60ee ea3c 76ae f43d
00000300: 2176 913e eb10 033e d6f6 ab3d 7d04 63bd
00000310: de09 c7bd 3962 5f3e d4f9 acbc cc67 833e
00000320: 9f46 3dbb eecd 173d 1ab3 113e 8354 cfbd
00000330: e14a 923e 68c5 4abd 977c 8ebd 707a 66bc
00000340: 67ae 15bd 33d9 88be 7bd0 77bb 4104 b1bc
00000350: 642a bebd fe97 af3e 01d2 933e a16d 8a3d
00000360: 1c4d 2d3e 59b6 9e3c f48c 4bbd aada 9bbd
00000370: 71c1 533e 1508 a9be 8cb3 e63a d87e 163e
00000380: ee26 3b3e 9d3a 433d 4e0c 6fbe 8a5b b6be
00000390: a2a8 9ebe 7254 dfbe de66 983e 3575 2d3d
000003a0: b8a3 2b3e c7c1 783e 9bd1 4abe 8a73 0bbf
000003b0: d81f 3dbe 0234 8f3e 6bc7 a2bc 5aee 07be
000003c0: 9cc4 40be c7e5 e1bd 5de3 c5be 3d5a f6bd
000003d0: e6f6 08be f29d c0be c715 1f3d 3654 12be
000003e0: 180f 893d fe1a 25be 30ea 0ebf 3b6e 0c3e
000003f0: a366 a2bd 7e49 d4be be80 fa3d 54ab 993d
0.118419744 0.5513201 -0.2264267 -0.050188556 -0.1351898 -0.07681231 -0.056230262 0.07959374
0.06762508 0.08380051 -0.011423278 -0.13361157 0.25346947 0.56240106 0.20705861 0.36417872
0.051037632 0.1987576 -0.11244796 -0.16189194 0.16629581 -0.6047109 0.24557845 0.038135346
0.06930116 0.09251389 0.13096228 -0.44563958 -0.2905283 -0.057440303 -0.109030165 -0.19067545
-0.08084467 0.009981651 -0.17203526 0.30181932 -0.047375258 -0.32314518 0.42591047 0.20578526
0.038255822 -0.045859728 -0.26427716 -0.16270037 -0.26611388 0.19959022 -0.3140374 -0.013887554
-0.021926273 -0.20586461 0.12693323 -0.04979212 0.10254585 0.2535989 -0.11603651 0.3071383
-0.29471663 0.052206054 -0.050647654 -0.008279349 -0.07372202 -0.070214875 0.24918835 0.10331369
-0.11987644 -0.078890964 0.04593989 -0.03467721 -0.11057405 0.011353573 -0.24570036 0.28864262
-0.19285288 0.042879324 -0.012438127 -0.025777886 0.18560925 -0.10669483 -0.25100994 -0.12399932
0.133148 -0.29958296 -0.2048999 -0.09527199 0.28675646 0.051781558 0.06203497 -0.016490068
-0.31605014 0.008291982 -0.14527136 0.17373155 -0.019194284 -0.12788719 0.10775408 0.08321356
0.11697913 0.11620783 0.46462628 -0.020681946 -0.051984612 0.029821843 -0.13041614 0.043953147
-0.4181338 -0.4216924 -0.5124609 0.53393894 -0.3401732 0.129397 -0.15275879 -0.16661955
0.183613 0.043180626 -0.041156627 -0.07044418 0.2856803 -0.073830456 -0.3216368 -0.13330722
0.16844532 -0.23668459 -0.16599485 -0.41010192 0.22987685 0.15266092 0.49812475 -0.19473402
-0.05839534 0.12755617 -0.2442637 -0.18120566 -0.3726121 -0.0089570135 0.43992496 -0.08313899
0.16864845 -0.07856671 0.002852025 -0.035899803 -0.025365172 0.014563914 0.15979545 -0.22974145
0.047593772 0.11518568 -0.280871 -0.070875615 -0.056820743 -0.029617213 -0.07708573 0.50710756
-0.009023008 -0.1168847 -0.14476414 0.1529548 -0.106516436 -0.054931346 0.0342825 0.045363095
-0.04217218 -0.10529753 0.34045643 -0.20932317 0.11729072 -0.19382195 0.20404913 0.21969703
0.19006985 -0.20338823 -0.03442551 -0.035785764 -0.60895765 0.07754588 -0.38003463 0.14255355
0.21159099 -0.110257916 0.0052579227 -0.017590104 0.15012889 -0.04708843 0.36576626 0.28736806
-0.10228002 0.22697482 -0.058388446 -0.063699745 -0.21726546 0.32984236 0.02867812 0.11947338
0.28410438 0.12799422 0.083966896 -0.055424202 -0.09718679 0.21814813 -0.021115221 0.25665128
-0.0028881205 0.037061624 0.14228478 -0.10123541 0.28572753 -0.049504668 -0.069573574 -0.014067277
-0.036543276 -0.2672821 -0.0037813473 -0.021608474 -0.09285429 0.34295648 0.28871158 0.06759191
0.16923946 0.01937406 -0.04969497 -0.07610066 0.20679261 -0.3301398 0.0017601117 0.14696825
0.18276569 0.04766332 -0.23344538 -0.35616714 -0.30988032 -0.43619114 0.2976598 0.042348105
0.16761672 0.2429267 -0.1980652 -0.54473174 -0.18469179 0.27969366 -0.01987048 -0.13274518
-0.18825 -0.11030155 -0.38650027 -0.1202893 -0.13375434 -0.37620503 0.038839128 -0.14289936
0.06692332 -0.16123578 -0.5582609 0.13713925 -0.07929733 -0.4146232 0.12231587 0.07503381

network_body._body_endoder.seq_layers.0.bias f4 [128]
00000000: 0000 0000 0000 0000 0000 0000 0000 0000
00000010: 0000 0000 0000 0000 0000 0000 0000 0000
00000020: 0000 0000 0000 0000 0000 0000 0000 0000
00000030: 0000 0000 0000 0000 0000 0000 0000 0000
00000040: 0000 0000 0000 0000 0000 0000 0000 0000
00000050: 0000 0000 0000 0000 0000 0000 0000 0000
00000060: 0000 0000 0000 0000 0000 0000 0000 0000
00000070: 0000 0000 0000 0000 0000 0000 0000 0000
00000080: 0000 0000 0000 0000 0000 0000 0000 0000
00000090: 0000 0000 0000 0000 0000 0000 0000 0000
000000a0: 0000 0000 0000 0000 0000 0000 0000 0000
000000b0: 0000 0000 0000 0000 0000 0000 0000 0000
000000c0: 0000 0000 0000 0000 0000 0000 0000 0000
000000d0: 0000 0000 0000 0000 0000 0000 0000 0000
000000e0: 0000 0000 0000 0000 0000 0000 0000 0000
000000f0: 0000 0000 0000 0000 0000 0000 0000 0000
00000100: 0000 0000 0000 0000 0000 0000 0000 0000
00000110: 0000 0000 0000 0000 0000 0000 0000 0000
00000120: 0000 0000 0000 0000 0000 0000 0000 0000
00000130: 0000 0000 0000 0000 0000 0000 0000 0000
00000140: 0000 0000 0000 0000 0000 0000 0000 0000
00000150: 0000 0000 0000 0000 0000 0000 0000 0000
00000160: 0000 0000 0000 0000 0000 0000 0000 0000
00000170: 0000 0000 0000 0000 0000 0000 0000 0000
00000180: 0000 0000 0000 0000 0000 0000 0000 0000
00000190: 0000 0000 0000 0000 0000 0000 0000 0000
000001a0: 0000 0000 0000 0000 0000 0000 0000 0000
000001b0: 0000 0000 0000 0000 0000 0000 0000 0000
000001c0: 0000 0000 0000 0000 0000 0000 0000 0000
000001d0: 0000 0000 0000 0000 0000 0000 0000 0000
000001e0: 0000 0000 0000 0000 0000 0000 0000 0000
000001f0: 0000 0000 0000 0000 0000 0000 0000 0000
0.0 0.0 0.0 0.0 0.0 0.0 0.0 0.0
0.0 0.0 0.0 0.0 0.0 0.0 0.0 0.0
0.0 0.0 0.0 0.0 0.0 0.0 0.0 0.0
0.0 0.0 0.0 0.0 0.0 0.0 0.0 0.0
0.0 0.0 0.0 0.0 0.0 0.0 0.0 0.0
0.0 0.0 0.0 0.0 0.0 0.0 0.0 0.0
0.0 0.0 0.0 0.0 0.0 0.0 0.0 0.0
0.0 0.0 0.0 0.0 0.0 0.0 0.0 0.0
0.0 0.0 0.0 0.0 0.0 0.0 0.0 0.0
0.0 0.0 0.0 0.0 0.0 0.0 0.0 0.0
0.0 0.0 0.0 0.0 0.0 0.0 0.0 0.0
0.0 0.0 0.0 0.0 0.0 0.0 0.0 0.0
0.0 0.0 0.0 0.0 0.0 0.0 0.0 0.0
0.0 0.0 0.0 0.0 0.0 0.0 0.0 0.0
0.0 0.0 0.0 0.0 0.0 0.0 0.0 0.0
0.0 0.0 0.0 0.0 0.0 0.0 0.0 0.0

network_body._body_endoder.seq_layers.2.weight f4 [128, 128]
00000000: 51cc 843d 775a b3bb b33c 1c3c 3f4e 70bc
00000010: 05e6 0d3d 6688 e83d 0481 9d3d 60e3 a1bc
00000020: 765f 60be 7113 cfbd 989e 1d3d 6d7c 143d
00000030: a056 55bd bf27 c4bd c6ab 7dbd fdf5 593d
00000040: eee8 95bd 677d 26be 26eb fa3c 722b 633d
00000050: 3780 08bd 1438 cf3d 440c e4bd 8cba 08be
00000060: 453c 623d 9c55 3d3d 7672 e93c c60f 99bd
00000070: f491 ea3d 832d 7a3c c335 033e eb9b aabd
00000080: e7ef b0bd fb26 a53d c61d 583d ba3d 733d
00000090: ba84 73bd 3edd 83bc caee 883d 516e 443d
000000a0: eea2 2ebe 566a e33c 96b3 d93b 6f4d 5fbe
000000b0: 84c7 f63d 6534 0ebe 5c21 5c3d 3c48 6abd
000000c0: 3b4e 393d a442 d03c 1fc4 843c 2c5b 443c
000000d0: 9c20 90bc 9ce3 04bc 1cb2 81bd d87c 08bb
000000e0: ff06 55bd b37d 1cbe 7772 febb 8b8a 063e
000000f0: 6f3f 553a 4c19 9e3d aa03 863d f95a 853c
00000100: 5ac2 633e 7391 013e ff87 49bb a7eb d33d
00000110: 92ca 193d bb3b 6abc d7a5 52bc cbaa 24bd
00000120: 547b edbd e665 c63c f317 fe3d cbbe c23d
00000130: d641 693d ca00 093e e664 e63d 0c94 cc3d
00000140: edf5 51be 3632 f2bd b3d4 a33d 0b86 eebc
00000150: 5819 7cbb 849c adbb 1003 223c f7a5 a63d
00000160: f5f5 d13d ce4d 1abd dbd1 3abe c3a6 b2bc
00000170: 4d38 a03c 767d 4dbd e718 ddbc 7a59 6f3d
00000180: d17e eabd d14b 993b 4744 203e 8379 f5bc
00000190: 87f2 683c cd99 903d 8620 b43c de13 98bd
000001a0: 1fbd d0bd e75a 073e c3ea c23d 24c9 07be
000001b0: 2846 24bd be7e a5bd 1e5b 123e 4e9d e5bd
000001c0: 21e8 47be 4f17 e9b9 d5b2 dfbb 834a 0abe
000001d0: 8471 79bd 74d5 d33d 6296 e23c a6cf b0bd
000001e0: 2dbb b3bd 4ef0 9abd 1400 9fbc 3d70 6abd
000001f0: c505 f53b 3ce8 8cbc bb30 2a3d 41e5 d0bd
00000200: 3389 ae3c d99c 8bbd 1825 813d 60dd 4f3b
00000210: 0e94 233d 18f0 94bd ca46 f13c cde8 44bd
00000220: b7d9 443d 3410 2c3e b1fb a53d 318c 893d
00000230: ff17 753d e6cd 95bc e908 253e 4b09 2d3e
00000240: 78d5 a33c 6875 c93d 1004 8b3d 6551 0e3e
00000250: 7fd6 b6bc 3e02 8c3d e922 ce3d 1166 e4bc
00000260: 96b1 77bc b97e 89bd ebad b33d e4be 16bb
00000270: f244 f83d 813a a5bd 4c2a b5bd 9131 283d
00000280: e76f 1ebc b1a8 d23d 1450 d53d 9a02 433d
00000290: fcd1 36bc 3098 9cba 8970 a4bd 79fd f63c
000002a0: 80df f33c d4af 9e3c 1af1 11bb f396 683d
000002b0: a5b4 bbbb f1be 713e c109 fe3c d4d6 80bd
000002c0: 6628 efbd 5bde 98bd db24 adbd 3bdb bc3b
000002d0: 6f04 a2bd 0ad9 0b3e 07d6 9f3d 8cb9 003e
000002e0: f33e d2bc 8613 653c 0390 b8bd e64f a03d
000002f0: 0e7c 8fba 096f 41bd 292a 493d 3c99 44bd
00000300: 56d5 9e3d b55d f43c c589 a73c ef26 553d
00000310: 365a 5e3c 5909 bbbc 3909 b1bc e0a1 bf39
00000320: 1501 473d 592d d7bd c6f3 0abe e575 183d
00000330: 88a3 afbd c8c1 89bd ea23 013d c243 083e
00000340: dc10 c43c 3885 d0bd ac11 44be 3fb7 633d
00000350: c837 783d cf75 3fbe a75b a4bb 2594 5f3e
00000360: 50a3 113b 618e acbd 482c 74bb c397 eb3b
00000370: ade8 e03c 7e8e 30be 5ee5 abbd 2194 bdba
00000380: ba53 15bd 3f0e 8dbe 9a4e 1abe d247 28bd
00000390: 2f5b 893d 990c 103d ac81 3e3b 9c92 55be
000003a0: ca33 5a3d 34a8 5a3c e27b bd3c 12ca f2bd
000003b0: 180e 393d 8e54 123e be06 263d 34e4 75be
000003c0: dc10 cd3b be7b 133c 111e a6bd d568 363d
000003d0: f6de 0dbe bedb 42bd bf62 81bd 4615 f3bc
000003e0: 124d ff3d ecae a3bd 3d34 5dbe 429a 403d
000003f0: a938 b13d db6b babd 445f f83d 3ab1 44bd
0.06484283 -0.0054734307 0.009535956 -0.014667093 0.03464319 0.11354141 0.076906234 -0.019761741
-0.21911415 -0.1011113 0.038481325 0.036251474 -0.052084565 -0.095778935 -0.061931394 0.05321311
-0.073198184 -0.16258775 0.030629706 0.055461355 -0.0333254 0.10118118 -0.11135152 -0.13352412
0.05523326 0.04622422 0.028496962 -0.07473712 0.114536196 0.01526964 0.12813477 -0.0833052
-0.08639508 0.080640756 0.05276277 0.05938504 -0.05945275 -0.016096707 0.066861704 0.04795677
-0.1705434 0.027760666 0.0066437228 -0.21806882 0.12049773 -0.13887174 0.05374275 -0.057197794
0.045240622 0.025422402 0.0162068 0.011984628 -0.017593674 -0.008110907 -0.063328 -0.0020826366
-0.052008625 -0.15282325 -0.00776511 0.13138787 0.00081347575 0.07719669 0.065436676 0.01627873
0.22242108 0.1265314 -0.0030751226 0.103476815 0.0375467 -0.014296467 -0.012856922 -0.040201943
-0.115957886 0.02421851 0.12406912 0.09509047 0.05694755 0.13379207 0.112497136 0.09989175
-0.2050397 -0.11825983 0.079995535 -0.029116651 -0.0038467254 -0.005298199 0.0098884255 0.08137124
0.10251991 -0.037671857 -0.18244116 -0.021808034 0.019558096 -0.050168477 -0.026989413 0.05843494
-0.114499696 0.0046782275 0.15651046 -0.029965168 0.014217979 0.07060585 0.021988165 -0.07425664
-0.10192322 0.1321827 0.095174335 -0.13260323 -0.04010597 -0.08080815 0.14292571 -0.11211644
-0.19522144 -0.0004445859 -0.0068267384 -0.13504986 -0.060899273 0.10343447 0.027659599 -0.08633356
-0.08775935 -0.07565366 -0.019409217 -0.057235945 0.0074774944 -0.017200582 0.04155038 -0.10199977
0.021305656 -0.06817026 0.06305903 0.0031717643 0.039936118 -0.07272357 0.0294527 -0.04807358
0.04805919 0.16803056 0.08104647 0.067161925 0.059837338 -0.018286657 0.1611668 0.16898076
0.01999925 0.098368466 0.06787884 0.13898237 -0.022319077 0.06836365 0.10065252 -0.0278807
-0.015118023 -0.067136236 0.087734066 -0.0023001963 0.12122525 -0.08067799 -0.08845958 0.041062895
-0.009670234 0.102860816 0.10415664 0.047609903 -0.011158463 -0.0011947211 -0.08029277 0.030150162
0.029769659 0.01937095 -0.0022268952 0.05678458 -0.0057283216 0.23607995 0.03101051 -0.06290975
-0.11677627 -0.07464286 -0.08454295 0.005763439 -0.07911002 0.13657013 0.07804494 0.1257078
-0.025664782 0.0139817055 -0.09011843 0.078277394 -0.0010947005 -0.047225032 0.049112473 -0.0479977
0.07755534 0.02982984 0.020451436 0.052039083 0.013571313 -0.022831606 -0.021610843 0.00036550965
0.048585016 -0.10506696 -0.13569555 0.037221808 -0.08576113 -0.06726414 0.03152839 0.13307098
0.02393382 -0.101816595 -0.19147366 0.05559468 0.060600072 -0.18697284 -0.0050158086 0.21833856
0.0022222586 -0.08425594 -0.003725784 0.0071897223 0.027454698 -0.17241856 -0.08393358 -0.0014463702
-0.0364568 -0.2754993 -0.15069047 -0.04108412 0.06706845 0.035168264 0.002906899 -0.20856708
0.053272046 0.013345767 0.023130361 -0.11854948 0.045179456 0.14290068 0.040533774 -0.24012834
0.0062581133 0.00900167 -0.081112035 0.04453357 -0.13854584 -0.047572844 -0.063176624 -0.02967323
0.12465872 -0.07992348 -0.21601959 0.04702211 0.08653385 -0.09102603 0.121275455 -0.04802058

action_model._discrete_distribution.branches.0.weight f4 [2, 128]
00000000: 518e 9e3b 242b 3d3c 1586 3dbc 4757 39bc
00000010: 6746 6abb 0f63 9bbc 3840 54bb 2aed 553b
00000020: 40ec 80bb ed66 cd3b cdb1 e5bb 03b6 b5bb
00000030: 63b5 5e3c 7edf b33a 57cf 1138 ad09 56bb
00000040: d3ce 34bc 4ffc a7bb db79 6dba a2dc 303c
00000050: edd7 753a 1b91 b0bc 8d6d 67bc 04c2 8d3c
00000060: 3451 8dba f0bd 393b bb12 a8b8 ab9f 00bb
00000070: 3bf7 b43c 98f5 53b9 1887 27bc 59f1 303c
00000080: 1b96 9abc d2b5 e83b 7f56 ecba 8736 8abb
00000090: 18fa f83b 11d9 34bc 123d ecb8 1b13 e63b
000000a0: 578d 4dbc 3965 cb3b 3de9 de3c e3e4 c73b
000000b0: 5bad 56b8 00ec 53bb 7775 f93b 6508 ae3b
000000c0: d726 01bc 63ce 39bc a060 553c 07c1 88bb
000000d0: e59a ae3b 98c1 ffbb 4a33 d83b 5fb0 0a3c
000000e0: d905 25ba a2d4 4d3c 5587 b93a 60b5 5a3a
000000f0: 10a4 863a 9625 8eba 031b 98bc c310 0bbb
00000100: 77ad 0b3c 8fae 83bb b4bb b3bb b865 1cbb
00000110: 652a 54bc 8f2b 273c d5f8 d73a 17e2 8f3c
00000120: 7c70 8a3b bd2e 59bb 78e7 9dba fb33 48bc
00000130: a75d 5e39 f16a 1b3b dd77 dd3b 337e 133c
00000140: 56dd 18bc 1718 a3bc 1390 603c 9b9d 99bc
00000150: 2493 843b 75d9 273c e541 93bc 0b40 09bc
00000160: 5fb7 053b cd35 7ebb 7f2d 983b 679a d83b
00000170: 9f5b 7c3b 13de 433c df0a 79ba f0d3 a33c
00000180: d1d5 19bc 487d f2bb a3e8 593b f2a3 953b
00000190: 21ce 8fbb 68e9 a43c 50b2 c73b 62e2 07bc
000001a0: 66ae 9b3b e761 2e3b cb68 9d3a 0736 b93b
000001b0: 44a3 103c 5dba debb c5d9 adbc a247 473b
000001c0: 13f5 65bb fe9d b3bb 57bc ec3a 970b 473c
000001d0: c0b4 55bb 590c 8a3c 8d84 52bb 5676 15ba
000001e0: 7040 e63b 8ec5 103c c1c7 403c cf6b 0b39
000001f0: 35c6 4bba e044 edba 2716 083d 906e 3b3c
00000200: c091 883c beeb 95bb a040 d2ba 079e 603a
00000210: c0f4 f33b 60cb d93a f878 75bb 63c2 ea3b
00000220: af7d d0bb 1cf9 01bc 267d 06bc 13d3 52bc
00000230: caae 79bc 97ff c73b bfb9 d23b 5bde 123c
00000240: d28d 84bc 83ab 5cbb c644 b7bc c208 603c
00000250: d2da 103c baa9 cf3b c840 da3b eb69 1f3c
00000260: f744 323c 29ac c93b a224 533c db1e 053b
00000270: 5044 d63b 9eb5 31bc dbf7 06b9 ff02 08bc
00000280: fb66 98bb da9e 513c 5385 d63b 6673 18bc
00000290: 7a11 89bc 0bff 00bc ade6 633a 0977 133b
000002a0: df7a 65bc 5bdd d5bb 2216 7cbb 43d8 913a
000002b0: d904 8abc cdbd c93b 3a09 983b 0fd3 5a3a
000002c0: 6b62 ac39 5072 953b 730e 193b 5270 9fbb
000002d0: 0a2b e23b 4494 2a3b fa98 6cbb e375 e1bb
000002e0: a5d5 ec3b aca2 113c 9540 8ebc 1de9 ddba
000002f0: 7b84 54bb 22d8 023c 5c50 473c 0808 dfbb
00000300: df6c 16ba c4aa 373b 4a26 e83b 3aa9 07bb
00000310: 338b 92bb 691c 48bc d430 1b3b a78d 693c
00000320: 28b9 b8bc cada dcbb bb44 63bc 6d36 5cba
00000330: 971c 163c 0d75 743c f2d1 a13a 7da6 d9bb
00000340: ce66 0d3c 6db4 b6bb 9f1e 65bc dc28 013c
00000350: 5b6a 0dbb c32a 9c3b cb50 1f3c 7786 043b
00000360: 837a 96bb 85fd 243c c7a1 923c bea3 85bc
00000370: 91f5 28ba 967b babc 3a0b f83a 0577 e6ba
00000380: 9b86 f73b 182f 7239 a900 15bb 101e 84bc
00000390: 8e98 c0bb 10df ad3a 66d9 14bc 77b1 ae39
000003a0: 0fa8 75ba f099 dfbb 2f80 edba 8f9a 003c
000003b0: 5a56 78bc b480 4c3b 3ac1 7dbb 82e6 0e3b
000003c0: 93ad 4e3c aa78 27bb 9456 093b 67b6 123b
000003d0: 22a7 b3bb 30a3 b2bb dbd2 5bbc de5a 0e3c
000003e0: 2868 633b a7d6 3b3b a0fe 34bb a16f 273c
000003f0: c9e3 ca3b 42ef 50bc 4f17 30bc 74f3 88bb
0.004838743 0.01154593 -0.011567612 -0.011312312 -0.003574753 -0.018968133 -0.003238691 0.0032642582
-0.003934413 0.006268373 -0.007009721 -0.005545379 0.013593051 0.0013723222 3.4763794e-05 -0.0032659576
-0.011035639 -0.005126513 -0.00090589904 0.01079479 0.0009378184 -0.021553567 -0.01412524 0.017304428
-0.0010781647 0.0028341971 -8.014353e-05 -0.001962642 0.022090545 -0.00020214019 -0.01022508 0.010799729
-0.018870404 0.007101753 -0.0018031149 -0.004217926 0.007598173 -0.011038081 -0.00011264732 0.0070213205
-0.012545905 0.006207135 0.027210826 0.0061002835 -5.1183026e-05 -0.0032336712 0.00761288 0.0053110593
-0.007882795 -0.01134071 0.0130235255 -0.0041734013 0.0053285235 -0.0078050606 0.006597911 0.008464902
-0.0006295122 0.012562903 0.0014154712 0.0008343067 0.0010272283 -0.0010844942 -0.018567568 -0.0021219708
0.008525244 -0.0040186117 -0.0054850224 -0.002386434 -0.012949561 0.010203256 0.0016477356 0.017563863
0.004224835 -0.003313943 -0.0012047132 -0.012219424 0.00021206458 0.0023714865 0.0067586736 0.009002256
-0.009330114 -0.019908948 0.013706225 -0.01875191 0.004045861 0.010244717 -0.017975757 -0.008377085
0.0020403487 -0.0038789392 0.0046440954 0.006610203 0.003850676 0.011954802 -0.0009500216 0.01999852
-0.009389357 -0.0074001886 0.0033250235 0.004566663 -0.004388586 0.020130828 0.0060942546 -0.00829372
0.0047510145 0.0026608647 0.001200938 0.0056521925 0.008827988 -0.0067971186 -0.021222005 0.0030407687
-0.0035088703 -0.0054814806 0.0018061501 0.012148759 -0.0032608956 0.016851591 -0.0032122463 -0.00057015324
0.0070267245 0.008836163 0.011766375 0.00013296235 -0.00077733706 -0.0018102191 0.03322425 0.011439934
0.016671062 -0.004575222 -0.0016040988 0.000856847 0.007444948 0.0016616397 -0.0037456136 0.007164286
-0.006362639 -0.007932927 -0.008208549 -0.012867707 -0.015239427 0.0061034667 0.006430834 0.0089641465
-0.016180906 -0.0033671565 -0.02237166 0.013673963 0.008841233 0.0063373717 0.0066605546 0.009729843
0.0108807 0.0061545563 0.012887152 0.002031258 0.006538905 -0.010846524 -0.00012871569 -0.008301496
-0.004650948 0.012794221 0.006546655 -0.009304857 -0.016731966 -0.007873307 0.0008693736 0.002250137
-0.0140063455 -0.006526632 -0.003846534 0.0011127073 -0.016848015 0.006156659 0.0046397718 0.000834749
0.00032879724 0.0045607463 0.002335456 -0.0048656845 0.0069021033 0.0026028315 -0.0036101923 -0.0068805083
0.007227617 0.008888882 -0.01736478 -0.0016930435 -0.0032427597 0.0079861 0.012165155 -0.0068063773
-0.0005738269 0.0028025368 0.0070846425 -0.0020700232 -0.0044721602 -0.012213805 0.0023680227 0.014254964
-0.022549227 -0.006739949 -0.013871367 -0.0008400444 0.00916209 0.014920485 0.0012345894 -0.0066421614
0.008630468 -0.0055757076 -0.013984351 0.007883277 -0.0021578285 0.00476584 0.009723852 0.002022175
-0.0045922413 0.010070209 0.017899407 -0.01631343 -0.00064452837 -0.022764008 0.0018924244 -0.0017583078
0.007553888 0.00023096462 -0.002273599 -0.016127616 -0.005877561 0.001326533 -0.009085035 0.00033320088
-0.0009371051 -0.0068237707 -0.0018119867 0.00784935 -0.015157307 0.0031204643 -0.0038719908 0.0021804874
0.0126146255 -0.00255541 0.0020956146 0.0022386552 -0.0054825703 -0.0054515824 -0.013416971 0.008688657
0.0034699533 0.0028661878 -0.0027617589 0.0102194855 0.006191705 -0.012752356 -0.010747745 -0.0041794125

action_model._discrete_distribution.branches.0.bias f4 [2]
00000000: 0000 0000 0000 0000
0.0 0.0

action_model._discrete_distribution.branches.1.weight f4 [2, 128]
00000000: 838a 7c3b 8549 8cbb 0772 d33b fd7d ed3b
00000010: 5306 283c 1d6a 6f3c 4da6 8dba 802d 83bb
00000020: 25e7 56bc 4421 13bb f6e9 9aba 9ac5 5d3c
00000030: 0987 c63b efb2 863c d0b0 7dbb 390e 10bc
00000040: 28a4 78ba 6788 753c 5765 6c3b 1a2a 513c
00000050: 2738 813b 7895 083b 780d 7a3b 8349 1ebc
00000060: bd44 8c3a 9485 9f3b e029 15bc 8f33 0fbb
00000070: 339b ab3b baf7 e63a aded c73b c989 9abb
00000080: 5e95 963b 5583 d3bb 82ac 5cbb d515 7a3c
00000090: 68f0 113b 01af 8e3c 5709 53bb 73d7 193b
000000a0: 3d15 843b 836c a5bb 2bf1 b33b 8719 9d3b
000000b0: 9f1b f9bb 640e a73b d7a5 633b 806a 683b
000000c0: 0c49 923b 2460 babb 4ee8 173b 2af4 deb9
000000d0: 07c2 96bc 7499 b83c 0e4b bdbb 8a0f ad3b
000000e0: 12a0 8b3b 25c8 603c 1d7c 563c d6c8 a2bb
000000f0: 2331 d43b 1b22 623c 4a08 32bc 3dc8 d8ba
00000100: bd28 7a3b 0f05 30bc 5690 923c 87a2 103c
00000110: bb9f 8e3b 1aac dcbb 3794 b6bb aacb 8c3b
00000120: f895 76b9 0f0e 06bc b03b d9bb b730 cfbc
00000130: a8ce febb 6907 c23b df6f 433a 73a9 933a
00000140: 3d42 83bc 0d7e d1ba b8b9 d5b8 506e e739
00000150: 7530 b3bb 1fa2 183c 0fb2 55bb 52e3 0d3b
00000160: 475b b4bb d65a 18b8 7829 1fbb 81ee a8bb
00000170: b21c 8bbb 6575 883b ca46 50bc 0b69 c4bb
00000180: 272d 73bc 7bde 7c3b 55a2 f1bb 7460 c03b
00000190: d741 993c b418 0aba 99f5 0f38 1e16 adba
000001a0: d2aa 7e3c 36b1 a03a cd98 2dbb 4781 6e3b
000001b0: 8d80 e23b 9735 b839 4357 ebba c398 8f38
000001c0: b497 a63a 208a 883b b29f 693c baa7 203c
000001d0: 21c7 033b 0fa1 91bb d090 b1bc 2f17 daba
000001e0: 3fe9 963b 7935 98bb a712 22bc 4d6c 023c
000001f0: 1b87 44bc d830 43bc ef18 8a3b 4f9c c3bb
00000200: a93b c3bb 4419 0c3b d52b dfba c2dd 8bbb
00000210: 83e8 893c cab2 e4ba d0ec 43bb d1e0 04bc
00000220: 4290 273c 8817 553c c53f 693b 2d75 cd3b
00000230: aa53 05bc 3c36 243c 88c6 5a3b 8303 90bc
00000240: e738 1039 9fdd 4fbc 7dd4 98bb 4590 943a
00000250: 8a70 c8bb c340 1a3c 833d a6bb f60f adbb
00000260: cb23 b6bb 5211 9fb9 ddfb 75bc ab48 eb3b
00000270: e3b6 8abc 1ad1 513b 2bb5 c5bb 7084 d43b
00000280: 473b 94bc 7d4d 60ba d86f d1bb c485 2b3c
00000290: f20f cc3b ff4c fdbb 6391 8f3c 7b45 453b
000002a0: 5577 063c 87ff 533c befe 43bc f243 fd3a
000002b0: 34d2 3c3c a93d c3bb 64d7 8939 6d4b ad3b
000002c0: 46d8 0dbc 80d8 8d3b a326 413c 2b30 0b3c
000002d0: a50c f8bb 8bb7 eeba 6fdb 8f3c 223d 61bb
000002e0: d803 85ba 8bec 163b dba7 99bb 73b6 c63b
000002f0: b8ca 1b3b 6de9 5fbc 9f43 b53b 556e 2fbb
00000300: 7ba5 b73a 5f6b 05bc 5e70 c93b de18 123c
00000310: 3a03 a03b c208 fe3b c6b7 00bc 3e0e 92bc
00000320: 1f36 a03b 7743 c6bb 3fa2 cb3a 480d a9bb
00000330: d5b4 dabb b3ea c6bb 97f1 be3a 74f2 11bc
00000340: 5876 c5b9 4ccd 023c 9d84 d83a aaac 61bc
00000350: d05f 673b 711b b83b ac46 103c 24c5 04bc
00000360: 3bbe 43ba 0785 caba 4c58 223c 16e6 9a3c
00000370: d3dd e5ba eca1 26bc 891d a13c 41ea 0b3c
00000380: 7ec0 bcbb 1d50 5939 fa87 d1bb 98d7 413c
00000390: c630 013c a792 b8ba 7ccf 13bc daf1 b43b
000003a0: 14e9 2cbb e1be 9a3b 73a6 c73c 152d cebb
000003b0: e829 da3a 5275 d53a 1ec8 a5bc 88e2 5cbc
000003c0: fd3d 00bb ef5a e23b 7266 3ebc efea 1bbc
000003d0: 64c6 923b 3cf8 9a3a db08 da3b b6cc 2b3c
000003e0: b9dd abbb e39d 38bb 3b83 543c b86e 113c
000003f0: 2bd5 d53a ae4e 02bb 1f77 25bc 8b97 37bc
0.0038534708 -0.004281225 0.006452802 0.007247685 0.010255414 0.014612702 -0.0010807008 -0.0040032268
-0.013116633 -0.0022450248 -0.0011818993 0.013535881 0.006058578 0.016442744 -0.0038710125 -0.008792453
-0.00094849104 0.014986134 0.0036071145 0.012766385 0.0039434615 0.0020841043 0.0038155 -0.009661081
0.0010701638 0.0048682187 -0.009104222 -0.00218508 0.005237007 0.0017621436 0.006101331 -0.0047161323
0.0045954427 -0.006454865 -0.0033672159 0.015263994 0.0022268537 0.017417433 -0.0032201612 0.0023474365
0.004030852 -0.005048336 0.005491396 0.004794303 -0.0076021696 0.005098151 0.00347363 0.003546387
0.0044642743 -0.0056877304 0.0023179236 -0.00042525056 -0.018403066 0.02253411 -0.0057767695 0.0052813934
0.004261025 0.013719593 0.013091114 -0.004967789 0.006475584 0.013802077 -0.010866234 -0.0016539168
0.0038171255 -0.010743394 0.01789109 0.008827812 0.0043525374 -0.0067343833 -0.005571868 0.0042967396
-0.00023516256 -0.008182063 -0.0066294298 -0.025291784 -0.0077761 0.0059212935 0.000745533 0.001126571
-0.016022796 -0.0015983001 -0.00010191224 0.00044141943 -0.005468423 0.009315996 -0.0032607352 0.0021650386
-0.005504045 -3.632422e-05 -0.0024286192 -0.005155385 -0.004245364 0.004164385 -0.01271219 -0.0059939674
-0.014842308 0.0038584757 -0.007374088 0.005870873 0.018708153 -0.0005267963 3.4322587e-05 -0.0013205444
0.015543656 0.0012259844 -0.0026488781 0.0036392973 0.006912297 0.00035135142 -0.0017955083 6.8472254e-05
0.0012710006 0.0041668564 0.014259266 0.009805614 0.0020107704 -0.0044442485 -0.021675497 -0.0016638989
0.004605442 -0.0046450463 -0.009892142 0.007960391 -0.011995102 -0.011913501 0.004214398 -0.005969561
-0.00595804 0.0021377364 -0.0017026613 -0.004268379 0.016834503 -0.0017448303 -0.002989579 -0.008110241
0.010227265 0.013006099 0.0035590988 0.006270072 -0.008137623 0.010022696 0.0033382494 -0.0175798
0.00013754108 -0.012687116 -0.0046640025 0.00113345 -0.0061169313 0.009414854 -0.0050732507 -0.0052814437
-0.005558466 -0.00030339748 -0.015013662 0.0071802936 -0.01693291 0.0032015503 -0.00603356 0.0064855143
-0.018094672 -0.00085564685 -0.0063915066 0.010468904 0.0062274868 -0.007730126 0.01752538 0.0030101228
0.008207162 0.01293934 -0.011962591 0.0019322617 0.011524726 -0.005958278 0.00026291155 0.0052885325
-0.008657521 0.0043287873 0.011788997 0.008495371 -0.0075698667 -0.0018212659 0.017560689 -0.0034368713
-0.001014824 0.0023029174 -0.0046891994 0.00606423 0.0023771953 -0.013666493 0.0055317427 -0.0026768644
0.0014011109 -0.008143275 0.0061474284 0.008917062 0.004883197 0.007752509 -0.007856315 -0.017829057
0.0048892642 -0.006050523 0.0015536024 -0.005159054 -0.006674389 -0.006070459 0.0014567849 -0.008907903
-0.0003766294 0.007983517 0.0016519014 -0.0137740765 0.0035304911 0.0056185056 0.008805912 -0.008103643
-0.0007467006 -0.0015451022 0.009908747 0.018908542 -0.0017537422 -0.010170441 0.019667404 0.008539737
-0.0057602515 0.00020724577 -0.0063943835 0.011831187 0.007885164 -0.0014081792 -0.009021636 0.005521995
-0.0026384043 0.0047224616 0.024371361 -0.0062919953 0.0016644569 0.0016285575 -0.020237025 -0.013481744
-0.0019568198 0.006907813 -0.011621105 -0.009516462 0.0044792164 0.0011823247 0.0066538877 0.010485819
-0.0052449373 -0.002817028 0.012970741 0.008876495 0.0016314139 -0.0019883323 -0.010099201 -0.011205564

action_model._discrete_distribution.branches.2.weight f4 [2, 128]
00000000: e24b d93b f7aa ebbb 5f71 103c 51e8 8e3c
00000010: 23ff 403c 50b4 2ebc 9303 8a3b 37b8 073b
00000020: f7ca 493a e3b6 c7bb 716c afbb a255 8d3b
00000030: c397 e4bb 286c 95ba 5dea 58bb bbf5 873b
00000040: d2d0 dabb 02f2 52ba b59b 2e3c 0f62 d93b
00000050: b9f1 08bc aef7 8a39 ef39 2ebc f7d9 a4bb
00000060: bd90 a73b 8d16 193c 9253 acbb f579 9cbb
00000070: 59b7 c23a 5138 40ba 3708 ef3b b586 f8bb
00000080: 6f84 8c3b cbaf 1e3c 9ae8 5bbc 9d25 4bbb
00000090: 5342 523c 6c44 9a3a 5a5c deba 77e7 023c
000000a0: f798 a13b 6bed a5bb a476 2dbb 6f63 92bb
000000b0: 4eba 9538 c0ca 70bb d143 043c 210d 2c3b
000000c0: 438a aabb aeb5 863b 28a2 8939 a382 a83c
000000d0: c7ac 003a fba7 abbb b3b8 053c e4a6 883c
000000e0: 8cd2 1e3c 87df 583b 0410 03bb 6f84 debb
000000f0: f5c6 183c 63c8 1e3c f0ed aebb ef94 e5ba
00000100: 36b3 423c d5c2 42bc c727 823b 6496 1c3c
00000110: 3fc7 9fba ab1a ccbb 6e96 9e3c 87e0 1e3c
00000120: 128e e23a 530b 14bc 47c9 94ba 0942 ac3b
00000130: 585c 6c3c 0e59 a2b9 8b8e 9b3c 8088 293a
00000140: 3ef7 2a3c 84b1 2dbc 452f c73b 69b8 3a3c
00000150: d7d2 81bb 375b aabb b23e 7dbb 00d0 cd3b
00000160: 293b a83b 1b93 fa39 4431 ac39 1bd6 643c
00000170: d920 24bb b0c7 6d3a e78f cd3b 7fdb 88bc
00000180: a88f 62bb 65e7 87bb 3c9d 2b3c b797 1dbc
00000190: 739d 2bb8 f848 71bc a00c 37ba 0070 d939
000001a0: 674b 2e3c 9065 a3ba bf25 143c d0a3 b03a
000001b0: 17ad c5bb d27d 9c3b e323 1f3c d89b 873b
000001c0: 9099 61ba ff45 f6bb 3761 993b b081 edbb
000001d0: 1059 923b bac8 40bb 8f28 8f3b ee5e 8fbc
000001e0: bdfc 963a ffe0 d73b 9752 f63a 1c97 9abc
000001f0: 8b09 9b3b 3ee4 c33a 9b87 bb3b 78e3 4c3c
00000200: 4ebb b53a a1c0 05bc 0f90 41bc 5bb8 4b3b
00000210: 80fe d33b 93c5 03bc b7ad 07bc c981 3abc
00000220: 783b 66bc 70ad a6bb d4ca 14bb 13be 053c
00000230: 3797 5fba 336e a53b 7575 69bb 4f61 3fbc
00000240: 86ec 8c38 6a34 793b e020 02bc a422 4c3c
00000250: dab9 b3ba 5bb0 87bb 286b 8dbb 7f87 d43b
00000260: a603 b5bb 3579 9bbb 98bb 973a b372 3b3b
00000270: ad3f 6b3b eb74 a13b be38 063b 1e6f 97ba
00000280: 6bfd 29bb 46b2 8ebc 72ef 52bb c2d6 36bc
00000290: aa4d 5dbb 4b56 29bc a606 913b d7ed dd3a
000002a0: 5622 b13b 03c7 d33c ca29 003b 13b7 a23b
000002b0: bf1d 38ba 6fc1 71bc da36 f3ba a2bf be3b
000002c0: ef4e 1abc a72d 28bc 01f0 01bb 43b2 5cbc
000002d0: 67d0 6c3b ef6b 0dbc a8fe fd3b 5ffd 77bb
000002e0: 56f0 413c 2875 f6b9 0d47 3c3b 2651 2d3c
000002f0: 2197 11bc 47ed a73b d73e 42bc d003 c03b
00000300: 4ab7 d5bb 4be5 1d3c 0261 4dbc d785 ce39
00000310: 3070 c8ba 4beb 17bc 7d2d 583c a3cc 48bb
00000320: 9fff 03bc 2d32 193c 71e4 483c 6a42 74bc
00000330: 5df2 46bc 2582 e53b c83c 733c 4492 3abc
00000340: d35f a539 51de 93bc 80d9 de3b 6d2f 00bc
00000350: 8752 663b 8277 033b 911d 45bc f2f5 c43b
00000360: b393 a83b afaa 5a3c 05c7 9f3c 8a10 5c3c
00000370: 70a4 533c f372 8a3b b02e 293c b5c9 80bb
00000380: 82d4 9dbb 8f5d 243c 5a6b 13bc b36c 193b
00000390: 9390 deba 7dda 3d3c f849 d5bb 37e8 9e3b
000003a0: 0989 0f3c 61ba a7ba f867 84bb 4486 1f3c
000003b0: a905 c63b f265 4a3b 88aa 15bb d624 acbb
000003c0: 9b06 df3b 4845 d43b a607 42bb d765 ea3b
000003d0: 1895 1ebc 4506 653c e764 2c3c 720b a43b
000003e0: 7511 4abc 2048 8eba 2fe1 74bb 9d78 56ba
000003f0: d092 b93b f19e c43b 6c94 0fbc e639 873c
0.0066313604 -0.0071920115 0.008816092 0.017444761 0.011779579 -0.010663107 0.004211852 0.0020709166
0.00076977856 -0.0060948 -0.0053535034 0.0043131867 -0.006976099 -0.0011400031 -0.0033098676 0.0041491664
-0.0066777254 -0.0008046926 0.010657241 0.006634004 -0.008358412 0.00026505947 -0.01063393 -0.0050308662
0.0051136897 0.009343755 -0.005258986 -0.0047752806 0.0014855667 -0.00073326105 0.0072946805 -0.0075844177
0.0042882483 0.009685467 -0.013422156 -0.003099776 0.012833196 0.0011769659 -0.0016964779 0.007989756
0.004931565 -0.005063703 -0.002646842 -0.00446742 7.1395756e-05 -0.0036741942 0.008072809 0.0026252943
-0.0052044704 0.0041110134 0.00026251492 0.020570105 0.00049085583 -0.0052385307 0.0081617115 0.016681142
0.009693753 0.0033092217 -0.001999856 -0.0067906897 0.009324779 0.009691331 -0.005338423 -0.0017515699
0.0118835475 -0.011887272 0.003972027 0.00955734 -0.0012190117 -0.006228765 0.01935884 0.009697086
0.0017284772 -0.009035903 -0.0011351489 0.0052568954 0.014426313 -0.000309654 0.018988868 0.00064671785
0.010434924 -0.010601405 0.006078633 0.011396506 -0.0039619016 -0.005198862 -0.0038642106 0.006280899
0.0051340056 0.00047793318 0.00032843102 0.013967062 -0.0025043993 0.0009070588 0.006273258 -0.016706226
-0.003457049 -0.0041474574 0.010474499 -0.009618691 -4.0916213e-05 -0.01472687 -0.0006982777 0.00041472912
0.0106380945 -0.0012466181 0.0090422025 0.0013476554 -0.006032597 0.004775741 0.009713146 0.004138451
-0.00086059514 -0.0075156684 0.0046807784 -0.007248126 0.0044661835 -0.0029416517 0.0043688486 -0.01750132
0.0011519414 0.006588101 0.0018792924 -0.018870883 0.004731362 0.0014945341 0.0057229525 0.012505405
0.0013865025 -0.008163602 -0.011814131 0.0031085226 0.0064695477 -0.008042711 -0.008281163 -0.011383482
-0.014052264 -0.0050865933 -0.0022703903 0.008162993 -0.00085293077 0.005048537 -0.0035622988 -0.011680915
6.719776e-05 0.0038025626 -0.007942408 0.012459431 -0.0013712004 -0.0041408963 -0.0043157525 0.006485879
-0.0055241166 -0.0047446736 0.0011576293 0.0028602302 0.0035896108 0.004927268 0.0020480598 -0.0011553501
-0.0025938402 -0.017418992 -0.0032186178 -0.011159601 -0.0033768215 -0.010335515 0.0044258414 0.0016931844
0.0054057045 0.025851732 0.0019556158 0.004965672 -0.00070234755 -0.014755591 -0.0018555776 0.0058211843
-0.009418233 -0.010264791 -0.0019826891 -0.013470235 0.003613496 -0.00863169 0.0077513047 -0.003784023
0.011837086 -0.00047008065 0.0028728873 0.010578429 -0.00888613 0.005124721 -0.0118558025 0.0058598295
-0.006522094 0.009637187 -0.0125353355 0.000393911 -0.0015292224 -0.009272407 0.013194439 -0.003063955
-0.00805655 0.009350342 0.012261496 -0.0149084125 -0.012142745 0.00700404 0.014846034 -0.0113874115
0.00031542647 -0.018050345 0.0068008304 -0.007823807 0.0035144405 0.0020060246 -0.012030975 0.0060107643
0.0051445602 0.013346358 0.01950408 0.013431678 0.012917623 0.004225129 0.010326073 -0.0039302954
-0.0048165927 0.010032072 -0.008997763 0.0023410737 -0.0016980342 0.011587736 -0.006509062 0.0048494595
0.008760699 -0.0012796634 -0.0040407144 0.009736601 0.006043155 0.0030883518 -0.002283724 -0.0052534146
0.0068062074 0.0064779855 -0.002960661 0.0071532535 -0.009679101 0.013978546 0.010522104 0.005006247
-0.012333264 -0.0010855235 -0.0037365665 -0.0008181425 0.0056632534 0.0060003926 -0.008763414 0.0165071

action_model._discrete_distribution.branches.3.weight f4 [2, 128]
00000000: 9a66 17bc 8c63 bf3b 7449 463c 378c e5bb
00000010: 0439 adbc 5d9e cc3b eb62 5d3c cb3e 6bbc
00000020: 3aa5 e1bb 2883 973a ca62 5fbc 1f2e dabb
00000030: 7572 fa3b 97ef f0bb 44a0 0bbb fdcd 41bc
00000040: 054e e2bb e7b3 43bb d20c f93b ab5a a439
00000050: 1b56 f43b 5376 45bc 0ffe 49bc 2dde 18ba
00000060: 638c 9e3b 5850 07bb db4f a73a 3455 b33b
00000070: e83c 27bb aa26 393a acb5 ad3c f8c9 debb
00000080: 5e6e b0ba 37a8 c9bb 132f 2cbc f3bc 593c
00000090: 503a 783c 6588 c2bb 1173 90ba 3763 fa3a
000000a0: 836d 8abb 38e8 ce3b 405a 373c ff8f 983c
000000b0: 63f3 9e3a 1b40 353a ef51 a83a c1c9 c03b
000000c0: b3f1 8abb 0d33 3d3a 644b 8b39 db38 07bb
000000d0: 4856 193c 05a8 bdbb 8d56 dbbb 1726 9abb
000000e0: b03a b9bb aaff 313c ca11 bfbb 428d 173c
000000f0: c93d 29bb 23db b8b9 2ff3 863a b692 213c
00000100: 3b31 7abb c0c2 21bb de57 22bc 9fce ac3b
00000110: 079d 4a3b db7f a5bb c8a3 6e3c d224 da38
00000120: 721d d3bb 67bd ba3b 4d65 b0bb 8233 eb3b
00000130: 2fbf 9cbc 6296 cdb9 aac4 57bc 7302 c03b
00000140: 9853 f1ba 8a80 4ebc 120f cdbb 3a0a 4fbc
00000150: 3557 6fbb ea95 043c 5f69 db3b 8a69 603c
00000160: 0ad1 91ba 05e4 a1bc c495 9ebc 50ba 07bc
00000170: 4c48 0ab9 0461 183c f1b6 b4bb 985f 54bc
00000180: 0f51 22bc 3af6 3c3c c708 833b 3549 f33b
00000190: 41b9 2abc 6473 1ebc 925e f3ba 40ef 88bc
000001a0: ab49 64bc a032 65bb 05a0 223c b50f 5e3c
000001b0: 91f2 463c 5faf 92ba af29 81bc 131b 903a
000001c0: de4a 8d3b b994 1f3c 91dd 18bc 6645 bc3b
000001d0: 9309 01bc d24e 323a 8f9f 8dbb 854b 5d3a
000001e0: 9389 67bb 3977 95ba ff21 873b 620b 85ba
000001f0: 9d05 1fbc b080 3fbc 6e68 9d3b 31cf 8e3b
00000200: ca5a fdbb 077a a6bb f3c9 23bc d21a 583b
00000210: cb4b d13b 4c32 8f3c 5706 623b d5b8 bb39
00000220: a062 dd3b 7754 ad3b caf4 293c 6b12 853b
00000230: ff53 bcba d303 6ebb 7025 aa3b c1c6 31bc
00000240: dea2 17bc 9d9a f93b aa78 0c3b 41c3 a2bc
00000250: ca57 72bb 3a8f 703c 0772 a03c e81e 68bc
00000260: 754b b1bb 57a8 dcba d03b dc3b 4f25 543c
00000270: 70b1 1dbb cb5a abb9 3123 8aba 8983 0abc
00000280: 9815 ebbb 1f55 a6bb 7df1 0abc 6f54 48bc
00000290: 13b2 1e3c a570 cd3b 9edd 91bb 2dd5 e3bb
000002a0: 3f6b 91bb 71a5 26bc 7579 5b3c d77a d2bb
000002b0: 950e 5fbb eb78 343b 13c2 dabb 1768 57bc
000002c0: 9281 65bb c785 69b8 64f1 8fbb 3707 dcba
000002d0: 00b9 acbb c6c6 953c ab01 fe3b dc7e 2b3b
000002e0: 5b37 dc3b 501e 95bb d49d 28bb 67b8 6d3b
000002f0: 1fd1 9f3b 1be2 143b f724 84bc c3ed 703b
00000300: 6d26 5f3c 36c3 31bc ab52 343c 5444 4c3c
00000310: 37e0 653b c577 413b d332 20bc 1ffa 12bc
00000320: e3c6 833b 9378 2bbc af20 4f3b 9b60 9d3a
00000330: 73bd e1bb 4d96 623a e306 00bb 18fc 973c
00000340: 5f0f 64bb 115e 13bc 7c14 b8bb 02dc 113c
00000350: fa46 24bc 01cc 113c cb0c e3bb a6dd abbb
00000360: 4286 d23c 698d 9d3c adc3 333c f50c ceba
00000370: 6242 fbbb 050a 3b3b ca8d d2bb 8833 6a3a
00000380: 15b6 6abb 7f04 d43b ac3c 323c f06d e1bb
00000390: ea82 bd39 60de 9abb 479f aabb 1af7 7ebc
000003a0: a510 c83b ff82 49bb fb39 dbbc e543 4c38
000003b0: 2894 6cbc 4efa c8bb 3935 87bc 3009 51bc
000003c0: 8f57 183c 83e9 a2bb d509 983a 32ca f83b
000003d0: 55e9 6b3c 7a8d 4dbc 603d 22bb 079f c63b
000003e0: dae1 4439 d555 dabb 5b5e 6b3c 77e7 463c
000003f0: cb80 9b3c 5703 4a3b 885f 2cbc 21f8 c0bb
-0.009240771 0.0058407243 0.0121024735 -0.0070052403 -0.021145351 0.0062444643 0.013512353 -0.014358233
-0.0068861516 0.0011559473 -0.013634393 -0.00665833 0.007643039 -0.00735278 -0.0021305243 -0.011828897
-0.0069062733 -0.0029861869 0.0076004053 0.0003134807 0.0074565536 -0.0120521365 -0.012328639 -0.00058314466
0.0048385127 -0.0020647254 0.0012764888 0.0054728035 -0.002551848 0.00070629513 0.021204792 -0.006798979
-0.0013460626 -0.006154086 -0.01050927 0.013289678 0.0151506215 -0.0059366697 -0.0011020621 0.0019103055
-0.0042244806 0.0063143037 0.011190951 0.01862335 0.0012126978 0.00069141545 0.0012841801 0.005883426
-0.0042402386 0.0007217385 0.00026568316 -0.0020633254 0.00935895 -0.0057878518 -0.0066936673 -0.0047042477
-0.005652748 0.010864178 -0.005830978 0.009249987 -0.002582418 -0.00035258484 0.0010295863 0.009861639
-0.0038176316 -0.002468273 -0.0099086445 0.0052736546 0.003091635 -0.005050642 0.014565416 0.000104019084
-0.006442719 0.005698848 -0.0053831697 0.007177771 -0.019134132 -0.0003921269 -0.013169447 0.005859667
-0.0018411754 -0.012603888 -0.0062579 -0.012636716 -0.0036520485 0.008092383 0.006695911 0.0136970375
-0.001112492 -0.019762048 -0.019358523 -0.008284166 -0.00013187638 0.009300474 -0.0055149724 -0.012962244
-0.009907021 0.011533314 0.003998849 0.0074244984 -0.010420145 -0.009671066 -0.0018567613 -0.016715646
-0.013933579 -0.0034972802 0.009925847 0.01355355 0.012142793 -0.0011191181 -0.015766947 0.0010994397
0.0043119034 0.009740048 -0.009330169 0.0057455776 -0.007875818 0.0006801906 -0.0043219994 0.0008441734
-0.0035329803 -0.0011403329 0.0041239257 -0.0010150487 -0.009705928 -0.011688396 0.0048037088 0.0043581952
-0.00773177 -0.0050804648 -0.009996879 0.003297497 0.006387209 0.017480038 0.0034488642 0.0003580513
0.006756142 0.00528961 0.010373304 0.0040610335 -0.0014368295 -0.0036318197 0.005192451 -0.010850609
-0.009255139 0.0076173083 0.0021434226 -0.019868495 -0.0036978596 0.014682585 0.019585622 -0.014167525
-0.0054106065 -0.0016834837 0.0067209974 0.012948348 -0.002406206 -0.00032683308 -0.0010539052 -0.008454212
-0.007174205 -0.005076065 -0.008480427 -0.012227162 0.009686011 0.006269532 -0.0044514677 -0.006952903
-0.0044378336 -0.01017128 0.013395657 -0.006423335 -0.0034035791 0.0027537893 -0.0066759675 -0.013147376
-0.0035019857 -5.567612e-05 -0.0043927897 -0.0016786818 -0.005271077 0.01828326 0.0077516637 0.0026168143
0.006720466 -0.0045507327 -0.0025728839 0.0036273242 0.004877224 0.0022717777 -0.016130907 0.003676281
0.013620001 -0.010849765 0.011006038 0.012467463 0.003507627 0.002952085 -0.009777742 -0.008970766
0.004021512 -0.010465759 0.0031605174 0.001200694 -0.006889039 0.00086436124 -0.0019535355 0.018552825
-0.00347992 -0.008994595 -0.0056176763 0.008902552 -0.010026688 0.008898736 -0.0069290153 -0.0052449284
0.025698785 0.019232469 0.010971946 -0.0015720414 -0.0076678256 0.0028539908 -0.006425594 0.00089340704
-0.0035814096 0.0064702625 0.010878723 -0.0068795606 0.00036146428 -0.004726216 -0.0052069756 -0.015561843
0.0061055 -0.0030748246 -0.026761046 4.8700622e-05 -0.01443962 -0.0061333543 -0.01650487 -0.012758538
0.009298219 -0.0049716844 0.001159961 0.007592463 0.014398892 -0.012545938 -0.002475582 0.006061438
0.00018776153 -0.006663064 0.014365758 0.012140146 0.018982312 0.0030824745 -0.010520823 -0.0058889543

action_model._discrete_distribution.branches.4.weight f4 [2, 128]
00000000: 4cad 31bb 39e6 32bc 6ba3 9cbc cb16 943c
00000010: 3078 5bbb 8da5 9a3c 38af 973b 458d bb3a
00000020: 734b 373c 034c 7f3b 35aa f4ba 0765 a4bc
00000030: 1da8 753b 5b1b 17bc 9011 c9bb 8a90 20ba
00000040: c734 61bc 233b 3cbb fabc 563c 4145 aebb
00000050: 8152 43bb b732 dfbb 1f2d 653a 52ae 5fbc
00000060: f51e 5abc 30a9 90bb d7b1 9439 ebbc 553b
00000070: 47f3 893c cfb2 0c3c 9495 423b 50fc c93b
00000080: c568 b23c 6bf4 b5bb ae97 293c d0b0 983b
00000090: a440 2c3c cc3e 37bc 8b66 c43b 72af cb3b
000000a0: fdaa 333c fbdf c8bb 67a1 ef39 f790 5cbc
000000b0: 7f0e 1d3b 3a72 d33b 86d4 3d3b 7f8b 80bb
000000c0: 2d04 ccbb 7e22 11bb ef64 d63b 8535 033c
000000d0: 902a b4bb 4d16 afbb 42a0 24bb 42ec b6bb
000000e0: 2bc6 3ebc 1dde 5b3b 11e7 9f3b 1e04 3fbb
000000f0: b454 383c e836 003c 1bd0 24bc 17ec 4d3c
00000100: 0f9e 25bc 1673 133c 7734 6739 18f5 f73b
00000110: cbb7 e03b 28e9 723b bbe9 113b af29 7d3b
00000120: 0518 193c 0822 6fbc c2ed 40bb 408d f73b
00000130: aaa7 173c a51c 543b ce01 9fba cf2f 1ebb
00000140: 5374 983c ef16 1d3b 102a f43b 5fed 34bb
00000150: 77b2 03bc d30e 3bbc 15b6 ee3a 8fd5 183c
00000160: 6fac 723b 4fc8 3abc ffea 01bc fd20 633b
00000170: f295 713c 8c6b 193a ca25 1e3b af96 a8ba
00000180: cb77 203c aff0 febb 1b6a bc3b 1820 3e3b
00000190: 43d1 5f3c 628e 82bc de14 3c3c 7c23 883c
000001a0: 37bb 11bc 9719 8a3c 4aff d3bb cd4d 7e39
000001b0: 005d 063b 6971 4bba a8f6 10bc f0f3 773a
000001c0: 6670 2ebb 0bfe 1f3c 7329 33bc 3a15 f8bb
000001d0: 7306 913a 8676 12bb 201e c2b9 8287 e73b
000001e0: 3a4f f3bb 224b 143c b0eb 723c 0222 d83b
000001f0: 1df6 433c 45f4 113b 6aef 8fbb 292e 8539
00000200: ec7b 42bc 8b7f df3b f55b 283b f90d 133c
00000210: 3f6a 903a bf59 0fb9 c353 033c b38d ad3b
00000220: c36b 4fba 4384 c4bb 4b16 a83c 4f97 70bb
00000230: 889f 62bc 098b 073c a5eb b43c 9b1e 4e3b
00000240: f298 553b 4694 3e3c bd89 c8bb 763a 1bbb
00000250: bdaa d3ba fe12 863c 3293 2dbc d33f 85bc
00000260: c1a6 31bb b7f7 e1ba a3b6 4e3b a74f 413b
00000270: 6a91 61bb 775c 1bbc 770e 69bb 7a3b 183c
00000280: ee84 c73b 422b e23b e2b0 74bc 5ede 0c3b
00000290: b73a 9f39 83d9 08bc 4fb5 33bc b818 223b
000002a0: df12 c7bb 777e d5bb 5baa 233b 295a 3a3b
000002b0: 9294 2a3b 04a5 153c b7d6 0b39 ff37 8ebc
000002c0: dfe6 7a3c 882e 573b 6288 4c3c 2db2 f7bb
000002d0: caaf b4ba 60d2 113b ec8a 9bbb 5f4e 45bc
000002e0: cafc f2bb d5f7 493a 7387 4e3b 52f7 d53b
000002f0: 65cd 41bc 7347 c1bb f6fc 2aba 52ad 71bc
00000300: dfd3 1d3b f274 d53b 0f58 5e3a 7d93 f33b
00000310: a0a4 9c3b b76f 0d3c 02a9 043b c342 86ba
00000320: 1a5d 7ebc cb6e 03bb 5f21 47bc c50f b0bb
00000330: 57a4 39bb 3b3e 8c3b cd7b 5a3c 853a 5b3b
00000340: 7a33 413c f770 d0bb 7fb8 ef3b 5968 8f3b
00000350: 0140 013c 1913 073b a27b 93b9 5f01 013c
00000360: 3fe5 d03a acc3 84bb 7771 fe39 2e0d ca3b
00000370: 83cb a5bc cbaa f13b 7636 8a3b 8606 2dbb
00000380: 81b5 073c 8e56 32bb be8f 87ba 4809 cebb
00000390: eb53 07bc 4897 aeba 03aa 16bc 2509 2a3b
000003a0: edf3 77bc a3a9 66ba 1783 583b cf10 823a
000003b0: 91f5 c43b 0dba 80bc a4dc 8a39 c586 a1ba
000003c0: 52ed 7739 2bcd 8f3b 0a6a bd3c 4a7c 763a
000003d0: 94d9 8fbc 4f4f 153c 5e51 a1ba 432a 7c3b
000003e0: 79c1 35bc 953d b93b cea3 84bb ffcd 913a
000003f0: 07b4 093d 72bf e0ba e800 05ba a806 bfbb
-0.002711135 -0.010919147 -0.019120893 0.018077275 -0.0033488385 0.018877769 0.004629042 0.0014309069
0.011187422 0.0038955219 -0.0018666448 -0.020067705 0.0037484237 -0.009222831 -0.006136127 -0.00061250536
-0.013745493 -0.0028721772 0.013106579 -0.0053183143 -0.0029803815 -0.0068114656 0.00087423803 -0.013652401
-0.013313045 -0.0044147 0.0002836126 0.0032613825 0.016839636 0.008587553 0.0029691206 0.006164111
0.021778474 -0.0055528185 0.010351105 0.0046597496 0.010513458 -0.011184406 0.0059936694 0.006215983
0.01096606 -0.006130216 0.00045705886 -0.013462297 0.002396494 0.006452826 0.0028965785 -0.003922879
-0.0062260837 -0.0022145803 0.006542794 0.0080083655 -0.005498238 -0.0053432346 -0.0025119935 -0.0055823633
-0.011643927 0.0033549138 0.00487984 -0.002914674 0.011250664 0.007825591 -0.010059382 0.012568495
-0.010108485 0.008999607 0.00022049421 0.0075670592 0.0068578473 0.0037065241 0.0022264558 0.0038629582
0.009344106 -0.014595516 -0.002943859 0.00755468 0.009256283 0.0032365706 -0.0012131275 -0.0024137383
0.018610155 0.0023969968 0.0074513033 -0.0027607305 -0.008038155 -0.011417109 0.0018212224 0.00932826
0.0037029048 -0.011400296 -0.007929563 0.0034657114 0.014745222 0.00058525125 0.002413141 -0.001286229
0.009794186 -0.0077801566 0.0057499534 0.0029010829 0.013660732 -0.015937034 0.0114795845 0.016618483
-0.008894733 0.016857905 -0.006469642 0.0002425231 0.002050221 -0.0007760735 -0.00884787 0.0009458652
-0.0026617288 0.009765158 -0.010935175 -0.00757089 0.0011064544 -0.0022348478 -0.00037025008 0.0070657143
-0.007425216 0.009051116 0.0148267 0.006595851 0.011960533 0.002227084 -0.004392554 0.0002540213
-0.011870366 0.006820624 0.0025689576 0.008975499 0.0011017992 -0.00013670976 0.008015576 0.005296433
-0.0007912481 -0.005997212 0.020518443 -0.003671128 -0.0138319805 0.008272895 0.02208502 0.0031451348
0.0032592383 0.011632031 -0.0061199353 -0.0023685968 -0.0016148906 0.016366478 -0.010594176 -0.016265785
-0.002710745 -0.0017239962 0.0031541965 0.002949694 -0.003441895 -0.009482495 -0.00355616 0.009291524
0.0060888445 0.0069021294 -0.01493475 0.0021494846 0.0003037059 -0.00835264 -0.01096852 0.0024733972
-0.0060752477 -0.00651532 0.0024973366 0.0028435087 0.0026028496 0.009133581 0.0001333606 -0.017360685
0.015313833 0.0032834131 0.012483688 -0.007559082 -0.0013785299 0.0022250637 -0.0047467854 -0.012042611
-0.0074153887 0.00077044714 0.003151384 0.006529727 -0.011828755 -0.00589841 -0.00065226795 -0.014750795
0.0024082584 0.006514185 0.00084817497 0.0074333535 0.004780367 0.008632592 0.0020242338 -0.0010243285
-0.015525127 -0.0020055051 -0.012153952 -0.0053729736 -0.0028326714 0.0042798794 0.0133351805 0.0033451628
0.011792058 -0.0063611227 0.007315695 0.004376453 0.007888795 0.0020610748 -0.00028130139 0.007873862
0.0015937461 -0.004051646 0.00048531193 0.006166122 -0.020238644 0.0073750964 0.004217918 -0.0026401593
0.00828302 -0.0027212235 -0.0010342521 -0.0062877275 -0.008259754 -0.0013320232 -0.009195807 0.0025945392
-0.01513384 -0.00087990816 0.003303712 0.0009923222 0.006010719 -0.015713716 0.000264858 -0.001232349
0.00023644164 0.0043884716 0.023121852 0.0009402676 -0.017559804 0.009113147 -0.0012307575 0.0038477338
-0.011093491 0.005653093 -0.0040478474 0.0011124014 0.033618953 -0.0017146899 -0.00050736824 -0.005829651
