Assets/results/ppo/My Behavior/My Behavior-242.onnx (onnx, 156809 bytes, 20 tensors)

discrete_act_size_vector f4 [1, 14]
2.0 2.0 2.0 2.0 2.0 2.0 2.0 10.0
10.0 10.0 10.0 10.0 10.0 10.0
00000000: 0000 0040 0000 0040 0000 0040 0000 0040
00000010: 0000 0040 0000 0040 0000 0040 0000 2041
00000020: 0000 2041 0000 2041 0000 2041 0000 2041
00000030: 0000 2041 0000 2041

network_body._body_endoder.seq_layers.0.weight f4 [128, 24]
0.16450766 -0.19565187 -0.3003774 0.032151453 -0.008713912 -0.09582903 0.1274777 -0.3691035
0.10207378 0.20732276 0.2650891 -0.18471378 -0.22291431 -0.10849887 0.18803424 -0.23068704
0.062216505 -0.112045854 0.017135864 0.14297605 -0.14186911 0.0652638 0.30225194 -0.017282475
-0.248353 -0.42283118 -0.2989747 0.0800105 0.28457406 -0.2286174 0.047711797 0.113032214
-0.19808774 -0.2598782 0.22782911 -0.02110939 -0.09278126 -0.0061042267 -0.10038128 0.30028015
-0.12942623 0.17014119 0.178088 0.106234744 -0.019605659 0.10466132 -0.08784798 -0.22444895
0.14936043 -0.1814872 0.030612485 0.23330621 -0.27967814 0.01793902 0.09353212 -0.0014122422
0.3627467 -0.036602464 -0.082346134 0.39529246 -0.01091303 -0.015205253 0.43974325 -0.030196846
-0.43833673 0.08351415 -0.21110806 -0.07257555 0.32237393 -0.0013748227 0.021323023 0.02851947
0.11422481 -0.24904965 0.025204763 0.0072579477 0.06329791 0.52453053 0.07924537 0.04816992
0.22631173 -0.033812195 -0.13260357 0.15971577 -0.026039943 -0.08788491 -0.041119784 0.15487908
0.019951805 0.22556554 0.069400355 0.23737586 -0.1225713 -0.43431732 0.2373594 0.0462703
0.3009014 -0.011820446 0.055520047 -0.11633905 0.3038475 -0.03711918 0.019647468 0.2256937
0.15195915 0.17382169 -0.110144675 -0.057925273 -0.35643882 0.2768686 -0.10288714 -0.25497913
-0.025904654 -0.12754521 -0.04040655 -0.20924938 -0.0053930054 0.13834319 -0.067973986 0.2248088
-0.23383075 0.16630065 0.021338552 0.09534312 -0.039443642 0.32070073 0.0752909 0.25649607
0.23577838 -0.023189437 -0.018098138 0.3047378 0.010949373 -0.1662339 0.038848612 0.31012785
-0.19685106 -0.12820429 0.07491781 0.2508545 0.046453025 -0.16150455 0.21552208 0.30605268
0.076038666 -0.030956458 -0.15042402 0.1744051 -0.17256612 -0.1280438 -0.3869569 0.24118039
-0.1673786 0.13843378 -0.09179517 0.36505392 -0.116504356 -0.18250662 -0.49715093 0.18503435
-0.14998688 -0.23988685 0.30365494 -0.32394516 -0.051648974 -0.18103841 0.069721356 -0.16352394
-0.09847906 0.013013421 -0.08903208 0.10121936 0.03885138 0.05650712 0.17027515 0.11775468
-0.010179652 -0.08653108 -0.05948778 0.22730947 -0.092550166 -0.0089005595 0.13599283 -0.081574045
0.3679833 -0.6130307 -0.49457085 -0.026906759 -0.23791209 0.19084232 -0.26475006 0.069210425
0.11050586 -0.08266378 0.26709136 -0.14368594 0.029175904 0.18851861 0.1344713 -0.23384173
0.15654299 -0.22279757 0.7951197 -0.15593646 0.16006806 -0.38405156 0.57742363 -0.22863579
-0.047190517 -0.3566805 -0.03146636 0.040218566 0.04103645 0.13846295 0.17130658 -0.2575789
0.33445606 0.17145786 0.1256503 0.1562777 0.24385703 -0.48100662 -0.0016342214 -0.25464734
0.19283403 0.078069724 0.30951646 0.072286434 0.2748653 0.13011059 -0.07001429 0.24597856
0.093560316 0.18354611 0.38012627 0.16908504 -0.11624595 -0.009099211 0.23465171 -0.11127805
-0.34354654 0.39288032 -0.011003218 -0.07898991 0.12601255 0.10599536 0.199561 0.0643616
0.52258456 -0.19581701 0.0062718084 0.0076220827 0.18063979 0.38533452 0.041488018 0.24110408
00000000: b274 283e f758 48be 11cb 99be 3eb1 033d
00000010: ccc4 0ebc 0342 c4bd 8489 023e 22fb bcbe
00000020: 0f0c d13d 6b4c 543e c2b9 873e 9c25 3dbe
00000030: a643 64be a834 debd 0c8c 403e 3939 6cbe
00000040: bcd6 7e3d 4c78 e5bd 8360 8c3c 5068 123e
00000050: 2346 11be 07a9 853d c4c0 9a3e fa93 8dbc
00000060: 4050 7ebe 547d d8be 3613 99be 8cdc a33d
00000070: b1b3 913e ae1a 6abe 726d 433d 6f7d e73d
00000080: 83d7 4abe c10e 85be 094c 693e 99ed acbc
00000090: 1a04 bebd f705 c8bb b394 cdbd 52be 993e
000000a0: 4f88 04be 7e39 2e3e b35c 363e 9a91 d93d
000000b0: 0c9c a0bc ad58 d63d a4e9 b3bd f2d5 65be
000000c0: f1f1 183e c8d7 39be 09c7 fa3c d3e7 6e3e
000000d0: f931 8fbe daf4 923c c58d bf3d fc1a b9ba
000000e0: efb9 b93e 77ec 15bd 17a5 a8bd c663 ca3e
000000f0: 91cc 32bc 741f 79bc 0726 e13e 605f f7bc
00000100: ac6d e0be 7709 ab3d b62c 58be 7da2 94bd
00000110: 320e a53e 6533 b4ba 9fad ae3c aaa1 e93c
00000120: b2ee e93d df06 7fbe 387a ce3c 14d4 ed3b
00000130: 56a2 813d a247 063f 664b a23d d24d 453d
00000140: 43be 673e a87e 0abd 3bc9 07be 888c 233e
00000150: b851 d5bc 01fd b3bd 386d 28bd 9f98 1e3e
00000160: f871 a33c a7fa 663e c621 8e3d a812 733e
00000170: a906 fbbd d75e debe 580e 733e ed85 3d3d
00000180: c00f 9a3e 8baa 41bc fd68 633d 2b43 eebd
00000190: e691 9b3e 480a 18bd baf3 a03c 401c 673e
000001a0: 2e9b 1b3e 50fe 313e 8893 e1bd 0d43 6dbd
000001b0: 267f b6be b9c1 8d3e 7eb6 d2bd a08c 82be
000001c0: ff35 d4bc 369b 02be 5781 25bd 7845 56be
000001d0: cfb7 b0bb d6a9 0d3e f235 8bbd 4734 663e
000001e0: 5471 6fbe b84a 2a3e 30ce ae3c 4143 c33d
000001f0: a88f 21bd e332 a43e 1e32 9a3d 7453 833e
00000200: e36f 713e c6f7 bdbc 8c42 94bc 9806 9c3e
00000210: 0065 333c 3839 2abe b91f 1f3d 14c9 9e3e
00000220: 5393 49be fc47 03be 826e 993d 0070 803e
00000230: 8745 3e3d 7361 25be d2b1 5c3e f0b2 9c3e
00000240: 29ba 9b3d 6698 fdbc c108 1abe 4097 323e
00000250: 2cb5 30be ea1d 03be 371f c6be fef7 763e
00000260: 4c65 2bbe 96c1 0d3e 1bff bbbd 59e8 ba3e
00000270: d699 eebd 04e3 3abe 918a febe a579 3d3e
00000280: 2996 19be e6a4 75be a978 9b3e 24dc a5be
00000290: e08d 53bd 2262 39be 12ca 8e3d d272 27be
000002a0: 64af c9bd 3e36 553c 7356 b6bd 194c cf3d
000002b0: a022 1f3d 0374 673d 9c5c 2e3e 5e29 f13d
000002c0: 8ec8 26bc 3537 b1bd 75a9 73bd d0c3 683e
000002d0: f18a bdbd a7d3 11bc b441 0b3e 4b10 a7bd
000002e0: 4f68 bc3e 94ef 1cbf 6438 fdbe 906b dcbc
000002f0: 3a9f 73be 2b6c 433e 528d 87be 32be 8d3d
00000300: e550 e23d a14b a9bd 33c0 883e 6822 13be
00000310: 4e02 ef3c 060b 413e d8b2 093e 3574 6fbe
00000320: ce4c 203e 0c25 64be f78c 4b3f cfad 1fbe
00000330: e2e8 233e 68a2 c4be 09d2 133f 801f 6abe
00000340: d84a 41bd d49e b6be dfe2 00bd 39bc 243d
00000350: d615 283d 3bc9 0d3e fe6a 2f3e 62e1 83be
00000360: d33d ab3e a692 2f3e 79aa 003e 4307 203e
00000370: a8b5 793e 8046 f6be 5f33 d6ba 2361 82be
00000380: 4976 453e 05e3 9f3d f178 9e3e e90a 943d
00000390: 25bb 8c3e b63b 053e a763 8fbd cee1 7b3e
000003a0: 8d9c bf3d 83f3 3b3e e99f c23e a124 2d3e
000003b0: 5b12 eebd db14 15bc 8a48 703e bfe5 e3bd
000003c0: 55e5 afbe 9c27 c93e d746 34bc 76c5 a1bd
000003d0: 6f09 013e 1814 d93d b859 4c3e 04d0 833d
000003e0: 1ac8 053f 4184 48be be83 cd3b aac2 f93b
000003f0: a3f9 383e 914a c53e 57ef 293d fde3 763e

network_body._body_endoder.seq_layers.0.bias f4 [128]
0.0 0.0 0.0 0.0 0.0 0.0 0.0 0.0
0.0 0.0 0.0 0.0 0.0 0.0 0.0 0.0
0.0 0.0 0.0 0.0 0.0 0.0 0.0 0.0
0.0 0.0 0.0 0.0 0.0 0.0 0.0 0.0
0.0 0.0 0.0 0.0 0.0 0.0 0.0 0.0
0.0 0.0 0.0 0.0 0.0 0.0 0.0 0.0
0.0 0.0 0.0 0.0 0.0 0.0 0.0 0.0
0.0 0.0 0.0 0.0 0.0 0.0 0.0 0.0
0.0 0.0 0.0 0.0 0.0 0.0 0.0 0.0
0.0 0.0 0.0 0.0 0.0 0.0 0.0 0.0
0.0 0.0 0.0 0.0 0.0 0.0 0.0 0.0
0.0 0.0 0.0 0.0 0.0 0.0 0.0 0.0
0.0 0.0 0.0 0.0 0.0 0.0 0.0 0.0
0.0 0.0 0.0 0.0 0.0 0.0 0.0 0.0
0.0 0.0 0.0 0.0 0.0 0.0 0.0 0.0
0.0 0.0 0.0 0.0 0.0 0.0 0.0 0.0
00000000: 0000 0000 0000 0000 0000 0000 0000 0000
00000010: 0000 0000 0000 0000 0000 0000 0000 0000
00000020: 0000 0000 0000 0000 0000 0000 0000 0000
00000030: 0000 0000 0000 0000 0000 0000 0000 0000
00000040: 0000 0000 0000 0000 0000 0000 0000 0000
00000050: 0000 0000 0000 0000 0000 0000 0000 0000
00000060: 0000 0000 0000 0000 0000 0000 0000 0000
00000070: 0000 0000 0000 0000 0000 0000 0000 0000
00000080: 0000 0000 0000 0000 0000 0000 0000 0000
00000090: 0000 0000 0000 0000 0000 0000 0000 0000
000000a0: 0000 0000 0000 0000 0000 0000 0000 0000
000000b0: 0000 0000 0000 0000 0000 0000 0000 0000
000000c0: 0000 0000 0000 0000 0000 0000 0000 0000
000000d0: 0000 0000 0000 0000 0000 0000 0000 0000
000000e0: 0000 0000 0000 0000 0000 0000 0000 0000
000000f0: 0000 0000 0000 0000 0000 0000 0000 0000
00000100: 0000 0000 0000 0000 0000 0000 0000 0000
00000110: 0000 0000 0000 0000 0000 0000 0000 0000
00000120: 0000 0000 0000 0000 0000 0000 0000 0000
00000130: 0000 0000 0000 0000 0000 0000 0000 0000
00000140: 0000 0000 0000 0000 0000 0000 0000 0000
00000150: 0000 0000 0000 0000 0000 0000 0000 0000
00000160: 0000 0000 0000 0000 0000 0000 0000 0000
00000170: 0000 0000 0000 0000 0000 0000 0000 0000
00000180: 0000 0000 0000 0000 0000 0000 0000 0000
00000190: 0000 0000 0000 0000 0000 0000 0000 0000
000001a0: 0000 0000 0000 0000 0000 0000 0000 0000
000001b0: 0000 0000 0000 0000 0000 0000 0000 0000
000001c0: 0000 0000 0000 0000 0000 0000 0000 0000
000001d0: 0000 0000 0000 0000 0000 0000 0000 0000
000001e0: 0000 0000 0000 0000 0000 0000 0000 0000
000001f0: 0000 0000 0000 0000 0000 0000 0000 0000

network_body._body_endoder.seq_layers.2.weight f4 [128, 128]
0.0800611 -0.07148827 0.010999341 -0.08797312 0.056605577 0.068811715 0.04459624 0.11531549
-0.0821871 0.039918303 0.029511027 0.06780692 0.11724098 0.0210398 -0.06996526 -0.018232806
0.0078750355 -0.0044349968 0.061360996 -0.043702595 -0.015502306 -0.0140589345 -0.05669459 -0.06362018
0.04171321 -0.14972696 -0.0049160104 -0.002002431 -0.073883004 0.05697878 -0.00042963258 0.00943454
0.070115134 -0.041883577 -0.0974923 0.07473456 -0.034767676 0.04857061 -0.049978606 0.076944284
-0.031385966 -0.010740733 -0.064951316 0.039492913 -0.04055477 0.0982704 -0.06382074 -0.04025913
0.1472163 -0.019553306 -0.10939631 0.0487592 -0.067639925 -0.015545941 -0.17460102 0.057765063
-0.06607442 -0.13325477 -0.07636206 0.05195707 0.02410104 -0.062238302 0.049247358 0.05865599
0.11605157 -0.09573855 0.00026365404 0.0823219 0.022324359 0.023924539 0.02366652 -0.04396612
0.007088588 0.03000555 -0.049023297 0.06878107 0.10439296 0.08999122 -0.02173195 -0.07290436
-0.007195682 0.13847995 -0.0013958858 -0.019930348 -0.03556809 0.01833768 0.08495355 0.03474798
-0.038622085 -0.06977743 0.00030217355 -0.10867867 -0.18859313 -0.120736085 -0.143384 0.080928735
-0.015544207 -0.025731673 -0.06485394 0.02540752 -0.049317904 0.109067686 -0.0124464305 -0.06877622
0.0210138 0.16285829 -0.048567742 -0.06094789 -0.053502884 0.025241215 -0.0050925408 -0.057462644
-0.28498083 -0.041488145 0.1280848 0.06834803 -0.19098139 0.039068002 0.009380449 0.0069665643
0.059079513 -0.15153572 0.05751542 -0.13668464 -0.00578369 -0.03975012 0.10436671 -0.067167126
0.0068972544 0.022502007 -0.03622491 -0.04978548 -0.024449576 -0.13343635 0.13254493 -0.0016853646
-0.08691683 -0.030916002 -0.0515568 -0.019170048 0.010262905 0.18627533 -0.03314884 -0.049900923
-0.07044802 -0.051484004 -0.013416556 -0.040958088 -0.12848851 0.058499526 -0.0341492 0.059765052
-0.1516146 0.094807714 -0.12649438 -0.023556164 0.0013282981 0.07325882 0.09490821 -0.111616336
0.06381453 0.023389554 0.1450267 0.068956695 -0.0052475524 -0.17156242 0.021188987 -0.027243054
-0.024978805 0.054712277 0.019903664 0.104472645 -0.09633302 -0.09250882 0.014803082 -0.121556714
-0.06857113 -0.09404179 -0.057529435 -0.061981797 -0.05609752 -0.053976268 0.026223626 0.016621256
0.04502974 0.03576996 -0.018642152 0.09553983 0.02209883 0.1693422 0.0845649 -0.08160555
0.09292939 0.016444054 -0.17028017 -0.09887099 -0.10540064 0.07072746 -0.03402347 -0.057756566
0.18288057 0.090039715 -0.0009198445 -0.051455833 -0.058482867 0.007431487 0.07687811 -0.10987305
0.06009381 -0.009722596 0.22496875 -0.08170989 0.009616722 -0.09781339 0.10889464 0.07401406
-0.09044934 0.0049240002 -0.04759036 -0.08165168 0.011495297 -0.029714432 -0.1570028 -0.0513057
-0.030422281 0.043830145 0.13185419 0.08894495 0.014285927 0.020003948 0.07535718 -0.04526807
0.08742942 -0.022795616 0.06253195 -0.015722362 -0.039435025 0.029176299 -0.0042683254 0.035507523
0.023059733 -0.07858678 0.11109977 -0.02645734 0.07300055 0.098497055 0.0060865665 0.05880744
0.03248873 -0.072957195 0.038660824 -0.018007938 -0.03934589 -0.07326814 -0.062281948 -0.12599216
00000000: 13f7 a33d 7168 92bd 9436 343c 402b b4bd
00000010: 40db 673d 28ed 8c3d 8caa 363d 872a ec3d
00000020: b651 a8bd 6081 233d 1cc1 f13c 5bde 8a3d
00000030: 0a1c f03d a95b ac3c f249 8fbd f75c 95bc
00000040: 4b06 013c 7353 91bb ab55 7b3d 7e01 33bd
00000050: 62fd 7dbc 7257 66bc 9638 68bd 4c4b 82bd
00000060: 79db 2a3d 0652 19be 7c16 a1bb 383b 03bb
00000070: f94f 97bd 9562 693d 4f40 e1b9 5493 1a3c
00000080: 8698 8f3d 1d8e 2bbd 0baa c7bd 6f0e 993d
00000090: 8d68 0ebd faf1 463d 5eb6 4cbd f794 9d3d
000000a0: 928e 00bd e6f9 2fbc 3205 85bd 52c3 213d
000000b0: c21c 26bd fe41 c93d 73b4 82bd c2e6 24bd
000000c0: dfbf 163e 412e a0bc 2c0b e0bd bab7 473d
000000d0: cd86 8abd 67b4 7ebc 9cca 32be 0f9b 6c3d
000000e0: 0752 87bd f073 08be b663 9cbd f0d0 543d
000000f0: 8b6f c53c 97ed 7ebd 99b7 493d 4341 703d
00000100: 72ac ed3d 9312 c4bd 0c3b 8a39 6298 a83d
00000110: 93e1 b63c 65fd c33c 4ae0 c13c d115 34bd
00000120: 6347 e83b 33ce f53c a7cc 48bd 17dd 8c3d
00000130: facb d53d 514d b83d 3407 b2bc e24e 95bd
00000140: c1c9 ebbb b0cd 0d3e 28f6 b6ba f844 a3bc
00000150: d8af 11bd e738 963c 20fc ad3d e653 0e3d
00000160: 3132 1ebd 78e7 8ebd 0c6d 9e39 ec92 debd
00000170: 8f1e 41be 7b44 f7bd 41d3 12be f7bd a53d
00000180: 21ad 7ebc 3bcb d2bc 24d2 84bd 6e23 d03c
00000190: 9201 4abd e15e df3d 1dec 4bbc 8cda 8cbd
000001a0: 2225 ac3c 53c4 263e f8ee 46bd 7fa4 79bd
000001b0: d725 5bbd aac6 ce3c 54df a6bb f35d 6bbd
000001c0: 02e9 91be 79ef 29bd a928 033e 0dfa 8b3d
000001d0: a090 43be c505 203d 74b0 193c c747 e43b
000001e0: 5cfd 713d 2e2c 1bbe 4a95 6b3d 0ff7 0bbe
000001f0: 1c85 bdbb 06d1 22bd 37be d53d eb8e 89bd
00000200: 5d02 e23b 2156 b83c 9260 14bd dceb 4bbd
00000210: 7a4a c8bc 8aa3 08be dcb9 073e 74e7 dcba
00000220: 7301 b2bd 8e43 fdbc 392d 53bd 810a 9dbc
00000230: be25 283c f6be 3e3e 14c7 07bd e964 4cbd
00000240: 0d47 90bd e4e0 52bd 1dd1 5bbc abc3 27bd
00000250: 7e92 03be 339d 6f3d 08e0 0bbd 33cc 743d
00000260: dc40 1bbe 8c2a c23d be87 01be dbf8 c0bc
00000270: 4a1a ae3a b808 963d 3c5f c23d 1b97 e4bd
00000280: 31b1 823d 739b bf3c e181 143e 2b39 8d3d
00000290: a9f3 abbb 0fae 2fbe 8794 ad3c d32c dfbc
000002a0: 5aa0 ccbc fb19 603d 020d a33c c1f5 d53d
000002b0: 3f4a c5bd 4475 bdbd a088 723c baf2 f8bd
000002c0: 056f 8cbd fb98 c0bd fca3 6bbd a0e0 7dbd
000002d0: 83c6 65bd 3816 5dbd eed2 d63c 4d29 883c
000002e0: 1b71 383d 8683 123d 6db7 98bc 63aa c33d
000002f0: 9b08 b53c 0b68 2d3e 5d30 ad3d d020 a7bd
00000300: c451 be3d aeb5 863c ed5d 2ebe e07c cabd
00000310: 4adc d7bd 8fd9 903d 325c 0bbd 2692 6cbd
00000320: 0b45 3b3e be66 b83d b821 71ba 5ac3 52bd
00000330: bb8b 6fbd d583 f33b 4572 9d3d 1f05 e1bd
00000340: ed24 763d 864b 1fbc 355e 663e 8457 a7bd
00000350: 758f 1d3c 6352 c8bd 2704 df3d af94 973d
00000360: 813d b9bd 8259 a13b 1cee 42bd ff38 a7bd
00000370: c556 3c3c ae6b f3bc 58c5 20be ed25 52bd
00000380: 2638 f9bc 3d87 333d c904 073e c528 b63d
00000390: 850f 6a3c 52df a33c dd54 9a3d 036b 39bd
000003a0: 320e b33d dfbd babc c010 803d 2fcc 80bc
000003b0: 9f86 21bd 2203 ef3c 4fdd 8bbb 5670 113d
000003c0: c4e7 bc3c 1bf2 a0bd 4788 e33d 10bd d8bc
000003d0: 5081 953d d3b8 c93d d271 c73b 12e0 703d
000003e0: e712 053d 956a 95bd d05a 1e3d 6285 93bc
000003f0: 2829 21bd 9b0d 96bd 5b1b 7fbd 1704 01be

action_model._discrete_distribution.branches.0.weight f4 [2, 128]
-0.0034879565 0.0017776856 0.009501248 -0.0012739373 0.0031206051 0.0023667188 0.0056816437 -0.031642865
0.01682177 0.0010140085 -0.0057903724 0.009189112 0.004066549 0.00044970211 0.0019974364 0.002258679
-0.007123273 -0.014593425 -0.013242348 0.004683623 0.015185013 0.004478548 -0.0047027483 -0.00601344
0.00089065294 -0.0044146506 -0.0024450968 0.009740434 0.0026452919 -0.011242419 -0.012711942 -0.0023891951
-0.0020361724 -0.0172543 0.002324497 0.0041301455 -0.011915911 -0.0040481566 0.0041737873 -0.0011061985
-0.0038464149 -0.0043360884 0.008321259 -0.01438086 -0.0035512566 0.0009862514 0.012365217 0.0024947447
0.008705487 0.011208226 -0.006530517 -0.010667647 -0.0074893828 -0.013619597 0.0069791763 0.013284822
0.014721039 0.016178345 -0.013072423 -0.0020186503 0.012657458 0.003243272 -0.0042613777 0.00274748
0.0022768506 -0.013207261 -0.002324316 0.010562301 0.0068360507 -0.013874071 0.0014609948 -0.010967477
0.012483818 -0.0048144665 -0.0012063903 -0.0109515665 -0.011217286 0.00023019865 -0.008132496 -0.0032284798
-0.00960775 -0.0027991144 -0.016735649 -0.0021014698 0.0034407736 -0.0013644277 -0.006483789 -0.009566604
0.008853398 0.0005087246 -0.020255884 -0.015119041 0.0045824815 0.0060474663 0.003684728 -0.018336678
-0.0024976942 0.0038886752 -0.00035733014 0.006544956 0.014457568 0.0083812205 0.004229168 0.008921618
-0.005109239 0.00080545124 0.016058534 0.009423856 -0.00541582 0.0029086575 -0.007699858 0.0018453598
0.002629765 0.009121212 0.00046665888 0.018328639 -0.001655368 -0.01025332 -0.015900826 -0.012657783
0.014407003 0.0059879376 -0.014100726 0.002581937 0.002308676 -0.020604683 0.0072982656 0.0032234446
-0.011681843 0.008125771 0.008793031 -0.0021531691 -0.00026263492 0.012804854 0.004504905 -0.0018847072
-0.0033257983 0.0060255625 -0.008062806 -0.009176063 0.0068581053 -0.011696807 0.0036663765 0.008446428
0.0065413355 0.0010062037 0.013980517 0.0064909416 0.007624046 -0.0019756488 -0.0027689438 -0.012205276
-0.008528887 -0.01351742 -0.002558442 -0.0048138737 0.0022085025 0.00029417878 0.0043565533 0.0014119947
0.026090447 0.012855875 0.0071061025 -0.0011529053 -0.004257277 0.0031023517 -0.0010384929 0.0059633977
0.008974555 0.014561306 0.0024128663 -0.012504193 0.014418474 0.0030555804 -0.0024464177 0.008136476
0.005091993 -0.009175154 0.0030904354 -0.0014805418 -0.00045458507 -0.005954476 -0.007673261 -0.007633341
-0.011901676 0.0008134938 -0.00912176 0.0009161659 -0.010001328 9.6424104e-05 -0.008834272 0.015907561
-0.008116531 0.009795268 -0.01039344 -0.0015968134 -0.0032796008 0.007424488 -0.003531839 -0.009381353
0.0025377737 -0.006268193 0.00529775 0.00016021538 0.0032759998 0.014260312 0.003954576 -0.0012714965
0.0053192484 -0.0031627752 0.008259396 0.00818519 -0.0070773773 -0.0038196861 0.0035784752 -0.009359478
0.005811656 0.01042793 -0.008709948 0.013261867 0.0065302565 -0.005154674 0.01541917 0.007315259
-0.0044807363 0.0015776024 -0.0068261027 0.010429737 0.0072893016 -0.010801581 -0.00057228096 0.0077306516
-0.005296332 -0.010243861 0.00456503 -0.004173921 -0.014097144 -0.009437217 -0.007414186 0.013985601
-0.011578466 -0.0039081685 0.007215793 0.005365423 -0.0017953798 0.0030222663 -0.0020411916 0.0057625063
0.0042297347 0.0044914256 -0.0033616044 -0.0064311 0.001169699 -0.0014328898 -0.019851875 0.004309
00000000: 3396 64bb 3b01 e93a 1fab 1b3c 3efa a6ba
00000010: 1183 4c3b f41a 1b3b 152d ba3b f39b 01bd
00000020: cfcd 893c 7be8 843a 2abd bdbb ee8d 163c
00000030: af40 853b ffc5 eb39 6ce7 023b 5806 143b
00000040: 586a e9bb 4319 6fbc 6ff6 58bc 1479 993b
00000050: 90ca 783c c9c0 923b 8319 9abb 640c c5bb
00000060: b57a 693a c6a8 90bb eb3d 20bb 5796 1f3c
00000070: a25c 2d3b 1f32 38bc c045 50bc 0b94 1cbb
00000080: 4e71 05bb e458 8dbc 9756 183b 2c56 873b
00000090: f43a 43bc 66a6 84bb 44c4 883b ddfd 90ba
000000a0: 2214 7cbb bf15 8ebb e455 083c b39d 6bbc
000000b0: 33bc 68bb 1b45 813a 7b97 4a3c df7e 233b
000000c0: 75a1 0e3c b5a2 373c f2fd d5bb 5bc7 2ebc
000000d0: 7f69 f5bb bb24 5fbc 93b1 e43b 95a8 593c
000000e0: 8330 713c 7388 843c b72d 56bc 554b 04bb
000000f0: 3a61 4f3c 138d 543b 07a3 8bbb 110f 343b
00000100: 3737 153b 4563 58bc 8d53 18bb 800d 2d3c
00000110: f300 e03b 1250 63bc da7e bf3a efb0 33bc
00000120: ee88 4c3c acc2 9dbb be1f 9eba 336e 33bc
00000130: b5c8 37bc 7b61 7139 293e 05bc e794 53bb
00000140: d369 1dbc 5971 37bb 3319 89bc d0b8 09bb
00000150: 9a7e 613b 99d6 b2ba f775 d4bb 3fbd 1cbc
00000160: d80d 113c ee5b 053a abef a5bc dbb5 77bc
00000170: a428 963b d329 c63b 7a7b 713b cd36 96bc
00000180: 5bb0 23bb 25d9 7e3b 0a58 bbb9 1277 d63b
00000190: 6fdf 6c3c 6351 093c d594 8a3b fa2b 123c
000001a0: 676b a7bb eb24 533a 308d 833c 8466 1a3c
000001b0: 3177 b1bb 2d9f 3e3b 174f fcbb 00e0 f13a
000001c0: 2358 2c3b 2371 153c e5a9 f439 f125 963c
000001d0: eff8 d8ba 8bfd 27bc 7342 82bc 9762 4fbc
000001e0: 5a0b 6c3c 7636 c43b bb06 67bc b735 293b
000001f0: 284d 173b 27cb a8bc 4a26 ef3b 6d40 533b
00000200: 3365 3fbc f421 053c a510 103c 2f1c 0dbb
00000210: 43b2 89b9 73cb 513c e29d 933b 4808 f7ba
00000220: a3f5 59bb 1572 c53b dc19 04bc 3357 16bc
00000230: f5b9 e03b f7a3 3fbc 9747 703b e362 0a3c
00000240: b358 d63b 98e2 833a 8a0e 653c f7b1 d43b
00000250: 22d3 f93b e379 01bb 2b77 35bb a3f8 47bc
00000260: bfbc 0bbc 2b78 5dbc 89ab 27bb b3bd 9dbb
00000270: 86bc 103b 023c 9a39 6bc1 8e3b ae12 b93a
00000280: a2bb d53c 73a1 523c 4fda e83b 151d 97ba
00000290: a180 8bbb d350 4b3b 0a1e 88ba 9b68 c33b
000002a0: 030a 133c 8b92 6e3c 2e21 1e3b 63de 4cbc
000002b0: 773b 6c3c 2240 483b 1454 20bb db4e 053c
000002c0: bcda a63b 6353 16bc e788 4a3b bd0e c2ba
000002d0: 6055 eeb9 c41d c3bb fb6f fbbb 1b21 fabb
000002e0: 3fff 42bc a540 553a 6f73 15bc da2a 703a
000002f0: 9cdc 23bc 4c37 ca38 9fbd 10bc 9350 823c
00000300: 33fb 04bc 557c 203c 3f49 2abc 2b4c d1ba
00000310: 92ee 56bb 1f49 f33b 6d76 67bb 3fb4 19bc
00000320: c750 263b 6a65 cdbb bf98 ad3b 7dff 2739
00000330: 28b2 563b 15a4 693c 6395 813b 58a8 a6ba
00000340: 174d ae3b 9046 4fbb 6b52 073c 2d1b 063c
00000350: 58e9 e7bb b353 7abb da84 6a3b 7f58 19bc
00000360: b46f be3b e9d9 2a3c 2bb4 0ebc 4d48 593c
00000370: c3fb d53b 8ae8 a8bb b0a0 7c3c d7b4 ef3b
00000380: 24d3 92bb 8dc7 ce3a 80ad dfbb 7de1 2a3c
00000390: 18db ee3b 1df9 30bc 2005 16ba 6851 fd3b
000003a0: da8c adbb ded5 27bc 3f96 953b 63c5 88bb
000003b0: b5f7 66bc 8f9e 1abc b3f2 f2bb dd23 653c
000003c0: 9bb3 3dbc 1810 80bb 7572 ec3b 6ed0 af3b
000003d0: f352 ebba 3711 463b 83c5 05bb 68d3 bc3b
000003e0: 9699 8a3b cf2c 933b 5d4e 5cbb fabb d2bb
000003f0: 9650 993a cecf bbba 66a0 a2bc 8332 8d3b

action_model._discrete_distribution.branches.0.bias f4 [2]
0.0 0.0
00000000: 0000 0000 0000 0000

action_model._discrete_distribution.branches.1.weight f4 [2, 128]
0.007498239 0.010917807 -0.009655672 0.012330002 0.0011249519 0.01589941 -0.0009199412 -0.0049593123
-0.009597712 0.013119618 0.0011375387 0.016459143 0.0041348767 0.0021930782 -0.0028636442 -0.006702278
0.009862798 0.0006900651 -0.0001865969 -0.017090766 0.010686454 -0.0031338723 -0.00035685024 0.011054802
0.006481472 -0.0012769634 0.005341399 0.01027714 0.0064787786 -0.0041912976 0.00763649 0.017459469
-0.009087759 0.00907482 0.009018515 -0.00013292188 0.0063906 -0.003570967 -0.004119602 -0.015740622
-0.0043284087 0.002223727 0.010551682 -0.012888054 -0.00090604293 0.0024937207 -0.008535383 0.0012826648
0.013289827 0.0063930624 -0.01053152 0.013341958 -0.00907411 0.0022121284 -0.009051023 -0.01190197
-0.011851795 -0.002390472 -0.020737058 0.008115384 -0.0034350061 -0.0037868225 -0.003413592 -0.01166918
0.01974991 -0.0043565757 0.004662737 0.0006974555 -0.0039939266 0.011974294 -0.0026850055 -0.002971182
-0.011044536 -0.0019972804 -0.016210927 -0.00018745904 0.014042585 0.0090915775 0.0057592164 0.013951756
-0.0103277 0.005596377 -0.0015585304 -0.0071170838 -0.0018956477 -0.009394372 0.0006367089 -0.008057473
-0.0013801594 0.0172154 -0.0061935727 -0.0012474615 0.0011289845 0.009563003 0.003757656 -0.0027491627
0.011191103 0.0047321725 -0.0056888307 -0.0022505112 0.022778792 0.004288913 0.017803565 -0.0049169175
0.005616567 0.0013966638 0.0036364265 -0.014608619 0.012870801 -0.009542156 -0.0049257944 -0.003489788
0.0023157327 0.004210604 0.0013360381 -0.0016645218 0.0026314857 0.02437035 0.0020304762 0.0024395774
0.009420226 -0.0034530384 0.0049323584 0.0140004 0.023731405 0.0035342933 -0.0023841027 -0.0044302614
0.012237403 -0.0020802265 -0.0018313732 -0.007851494 0.0008466462 0.0035041606 0.016290573 0.011774297
0.0048507415 -0.009821251 -0.017944809 0.009988902 -0.0027721839 0.0006140129 -0.014395446 -0.018655151
-0.004905136 -0.0072195786 -0.009844094 0.01656247 0.0034502484 0.0020566955 -0.0009903194 -0.016683534
-0.008578484 -0.0012077569 0.0023303225 0.0071489136 -0.014264712 -0.006193684 -0.0040774657 -0.0036965278
0.013695707 -0.011346589 -0.009629363 -0.00068115303 0.00824687 -0.0008567415 -0.0034163164 -0.018317334
-0.009459622 0.0051098648 0.0020001475 0.0021387374 0.02489308 -0.007963262 0.013088725 0.0009402672
0.010469952 0.005611107 -0.014583245 5.6679128e-05 -0.0020894145 -0.008723513 0.00650863 -0.0077370615
0.008099422 -0.01613818 0.0034977496 -0.009855052 -0.011826305 -0.0073343376 0.012862948 -0.01126935
0.0019768814 0.015978836 -0.007090407 -0.007513118 -0.0059513394 0.0015830838 -0.0054311845 -0.0010777212
0.00063483446 0.0029280805 0.0048358217 -0.0040459237 0.012001544 0.0033305192 0.0029925827 -0.00839725
0.013394261 -0.005292718 -0.0032078722 -0.0010068332 -0.023110293 -0.0022081272 -0.014656595 -0.0059912517
-0.0068134735 0.008493188 0.0022745936 0.00641059 0.007270358 -0.0039434396 0.0036934614 0.012632837
-0.00061202364 -0.0059406254 -0.012476056 -0.005712129 0.010051547 -0.003612818 0.008571645 0.009857362
1.499182e-05 0.008715165 0.006191593 0.0004860442 -0.0044269077 -0.00053583225 0.017831963 0.008024193
-0.0063252114 -0.017947137 -0.010626736 -0.008764596 -0.0005810577 -0.00032848975 -0.0019752027 0.009627254
0.0027707282 0.0087906765 -0.0014531802 0.0074359416 0.00052668573 0.00077632116 0.00078972627 -0.020941226
00000000: cab3 f53b 9ae0 323c d332 1ebc c703 4a3c
00000010: 1f73 933a 7b3f 823c 3528 71ba ba81 a2bb
00000020: b93f 1dbc abf3 563c 7719 953a 53d5 863c
00000030: dc7d 873b bfb9 0f3b faab 3bbb c89e dbbb
00000040: 9397 213c 7ce5 343a 39a9 43b9 ef01 8cbc
00000050: 3d16 2f3c a761 4dbb a117 bbb9 331f 353c
00000060: 8762 d43b c85f a7ba e706 af3b 7361 283c
00000070: ef4b d43b 2757 89bb 853b fa3b 2907 8f3c
00000080: d3e4 14bc 8eae 143c 65c2 133c f260 0bb9
00000090: 3d68 d13b e206 6abb bafd 86bb 7af2 80bc
000000a0: 53d5 8dbb f3bb 113b f6e0 2c3c 6b28 53bc
000000b0: 8383 6dba b16d 233b fed7 0bbc 171f a83a
000000c0: 93bd 593c e57c d13b 658c 2cbc 3a98 5a3c
000000d0: 93ab 14bc 5bf9 103b be4a 14bc 7b00 43bc
000000e0: 082e 42bc 77a9 1cbb c3e0 a9bc 63f6 043c
000000f0: d71d 61bb 572c 78bb 92b6 5fbb 1730 3fbc
00000100: 90ca a13c 9bc1 8ebb dfc9 983b 72d5 363a
00000110: 7cdf 82bb d42f 443c ebf6 2fbb 2ab8 42bb
00000120: 24f4 34bc cee4 02bb c7cc 84bc a790 44b9
00000130: df12 663c d7f4 143c cfb7 bc3b e895 643c
00000140: 8335 29bc d061 b73b 9a47 ccba 6d36 e9bb
00000150: 6277 f8ba daea 19bc d0e8 263a 7e03 04bc
00000160: 77e6 b4ba 4f07 8d3c 74f3 cabb dd81 a3ba
00000170: 6ffa 933a 24ae 1c3c 0243 763b 4c2b 34bb
00000180: e35a 373c 5710 9b3b 5f69 babb 507d 13bb
00000190: 979a ba3c 038a 8c3b c8d8 913c 181e a1bb
000001a0: 2e0b b83b 4310 b73a 1d51 6e3b fd58 6fbc
000001b0: 0de0 523c b456 1cbc 8f68 a1bb edb4 64bb
000001c0: 8cc3 173b 1bf9 893b 001e af3a 152c daba
000001d0: 0175 2c3b 54a4 c73c bd11 053b 51e1 1f3b
000001e0: 4b57 1a3c 5f4c 62bb 9f9f a13b ef61 653c
000001f0: 5d68 c23c 9a9f 673b 9b3e 1cbb ba2b 91bb
00000200: 637f 483c 6954 08bb b00a f0ba 8da3 00bc
00000210: 77f1 5d3a 0fa6 653b cf73 853c fbe8 403c
00000220: f8f2 9e3b 50e9 20bc fe00 93bc 7ea8 233c
00000230: 87ad 35bb b5f5 203a e0da 6bbc b0d2 98bc
00000240: 43bb a0bb 3792 ecbb 1f49 21bc 04ae 873c
00000250: 901d 623b a0c9 063b 9bcd 81ba e8ab 88bc
00000260: c58c 0cbc 994d 9eba 53b8 183b 6f41 ea3b
00000270: 8ab6 69bc 63f4 cabb 439c 85bb 7241 72bb
00000280: f563 603c 0be7 39bc 7ac4 1dbc 688f 32ba
00000290: e11d 073c f396 60ba 47e4 5fbb 3c0e 96bc
000002a0: 88fc 1abc a770 a73b e814 033b 0f2a 0c3b
000002b0: 93ec cb3c 5778 02bc 1772 563c 437c 763a
000002c0: 298a 2b3c 61dd b73b 90ee 6ebc c0ba 6d38
000002d0: 8fee 08bb 11ed 0ebc 5846 d53b 2d87 fdbb
000002e0: 70b3 043c 3734 84bc 803a 653b 1677 21bc
000002f0: 1ec3 41bc e254 f0bb 1dbf 523c 14a3 38bc
00000300: 918e 013b 0ce6 823c a556 e8bb 9a30 f6bb
00000310: 7403 c3bb 7a7f cf3a 14f8 b1bb 5342 8dba
00000320: 056b 263a 0ae5 3f3b d075 9e3b ab93 84bb
00000330: 20a2 443c d744 5a3b 351f 443b 9f94 09bc
00000340: 9a73 5b3c 896e adbb 2a3b 52bb b7f7 83ba
00000350: cc51 bdbc 3ab6 10bb 3722 70bc 4352 c4bb
00000360: 8f43 dfbb 0327 0b3c 5911 153b ed0f d23b
00000370: 2f3c ee3b f837 81bb 000e 723b f5f9 4e3c
00000380: 3670 20ba 94a9 c2bb 5f68 4cbc d02c bbbb
00000390: 3eaf 243c 07c5 6cbb 1670 0c3c c680 213c
000003a0: 6085 7b37 0dca 0e3c d9e2 ca3b c0d3 fe39
000003b0: 980f 91bb 1877 0cba 5614 923c e877 033c
000003c0: b843 cfbb e005 93bc c31b 2ebc 6199 0fbc
000003d0: 1f52 18ba 2639 acb9 6772 01bb a1bb 1d3c
000003e0: 1b95 353b c506 103c a378 beba 33a9 f33b
000003f0: 4811 0a3a 0882 4b3a a205 4f3a ef8c abbc

action_model._discrete_distribution.branches.2.weight f4 [2, 128]
0.0009876229 0.0052142604 0.013998993 -0.022714138 0.014580548 -0.0067836675 -0.0036043932 0.015683021
0.013703248 -0.008631424 0.01843527 -0.009371914 0.0007564628 0.0034100425 -0.006082223 -0.0022114848
-0.006462314 0.0039761816 0.0007647423 0.020977054 0.008706098 -0.00061463186 -0.004690311 -0.0082341125
0.000853204 -0.0041931863 0.007502252 -0.0042808093 0.001515495 -0.007979794 -0.0023983477 0.009534585
0.00784918 0.01149576 -0.00028653213 -0.000100515426 -0.0025745425 0.007065619 -0.010817759 -0.010110999
-0.0009255575 0.0033425686 0.015398415 -0.012823777 -0.0011326466 -0.00030463247 -0.0016529292 0.0014940335
-0.011043276 -0.0086847525 0.0027905183 0.010495377 -0.008270314 0.011373359 0.0030918873 -0.009253348
-0.010473254 -0.0024535893 -0.01204784 -0.01266481 0.00031775385 0.0026755992 0.0072285496 -0.014968199
0.007943713 -0.018803861 0.011795382 -0.0025593739 -0.01091992 -0.011196417 0.00824925 -0.0071927323
0.013131908 -0.004835978 0.0036490788 -0.0060478174 -0.005852125 0.0048027863 -0.015057062 -0.0031156004
-0.0006724845 4.1244144e-05 -0.002351231 0.012437622 -0.0048557953 -0.0047289636 0.014403194 0.0049368367
0.005453076 -0.012933105 0.0033703425 0.014419924 0.005681366 0.00081665296 0.0014478107 0.01288219
-0.010139721 0.01063293 -0.002034803 0.002017094 -0.004005075 -0.0070814 0.0015017769 0.0134611195
-0.0071646124 -0.00025593588 -0.0011731051 0.00583639 0.0149238845 0.011137454 0.010649449 -0.014227468
-0.014136843 -0.00900929 -0.0027444835 -0.001998497 -0.005686188 -0.0074416623 0.010173242 0.0035425213
0.007872585 0.016829697 -0.0028229582 -0.0103913685 0.016916374 -0.01655826 0.0035808254 0.010152843
-0.00609778 0.0069141197 -0.014537227 0.008136792 -0.0025598204 -0.002928517 -0.0008333427 -0.0030016268
-0.0046477136 0.0009371931 0.004189933 -0.017919954 0.00016671649 -0.008324894 0.015659798 -0.0013072285
-0.012000648 0.0074253418 0.003855645 -0.013872467 -0.010114386 -0.015722346 -0.0044215927 0.0025920055
0.00460262 -0.0009632691 0.0003404302 -0.011152206 0.013248714 -0.0040616617 -0.008306052 -0.0004191886
-0.0062330733 0.0015478439 -0.00082260446 -0.013067494 0.004291454 -0.008293616 -0.014964527 0.01736681
0.021625664 0.010745457 0.008212686 -0.0033461705 0.0065290406 0.0066127414 0.005135126 0.006305219
-0.01230488 -0.0063129747 -0.009230133 0.0006361844 -0.0023691093 0.01764441 0.0056754607 -0.0024056525
0.016945094 0.0050883186 0.0021559864 0.00051514036 0.013132463 0.005743147 0.0040290724 0.011165609
0.012007739 0.004349271 0.004203183 0.010446135 0.014387406 0.0068810866 0.0037773892 0.01808252
0.0032693276 0.0072429995 0.006272979 0.018664671 -0.011190976 -0.00563808 -0.0021238409 -0.00058920553
0.0043171877 0.00038470543 0.008877895 -0.0017435866 -0.0018003074 -0.0070242207 0.008337151 0.0019441567
-0.010331378 -0.014647623 0.0034323898 0.00012671201 -0.003091342 0.00033160837 0.0021546944 -0.012927673
-0.004094751 -0.009584088 -0.010266576 -0.004121123 0.003667413 -0.012473582 -0.00089181046 0.021099128
0.015160697 -0.005622685 -0.01245332 0.008069822 -0.0023260482 0.0039598336 0.007404928 0.0028892006
-0.0028736736 0.0043263766 -0.002033692 -0.00094374095 -0.006009185 -0.003544135 0.0006083858 0.006324984
0.00307404 -0.00041915668 -0.0020990137 0.008230024 -0.014489275 0.0021373364 0.023497388 -0.0013682368
00000000: 2073 813a 63dc aa3b 085c 653c 0013 babc
00000010: 40e3 6e3c 8749 debb af37 6cbb ae79 803c
00000020: 9783 603c d16a 0dbc 9005 973c a88c 19bc
00000030: 5c4d 463a 057b 5f3b 624d c7bb 8fee 10bb
00000040: d2c1 d3bb a14a 823b fd78 483a 12d8 ab3c
00000050: 06a4 0e3c 3f1f 21ba 2eb1 99bb 5fe8 06bc
00000060: 8da9 5f3a ff66 89bb 73d5 f53b 0846 8cbb
00000070: 93a3 c63a afbd 02bc 992d 1dbb f336 1c3c
00000080: d999 003c b658 3c3c b139 96b9 cfcb d2b8
00000090: a8b9 28bb b586 e73b f83c 31bc 9ba8 25bc
000000a0: 1da1 72ba ff0e 5b3b a249 7c3c d21a 52bc
000000b0: 5075 94ba 14b7 9fb9 1aa7 d8ba 72d3 c33a
000000c0: dbee 34bc 7e4a 0ebc 21e1 363b cdf4 2b3c
000000d0: 3680 07bc 5357 3a3c 43a1 4a3b 5b9b 17bc
000000e0: 0398 2bbc 66cc 20bb 4e64 45bc 1080 4fbc
000000f0: 3398 a639 1b59 2f3b 78dd ec3b 2d3d 75bc
00000100: 5926 023c 8e0a 9abc 6b41 413c 2bbb 27bb
00000110: 77e9 32bc 2d71 37bc dd27 073c 03b1 ebbb
00000120: 3727 573c 2077 9ebb 6225 6f3b c52c c6bb
00000130: 2fc3 bfbb b160 9d3b e5b1 76bc 1a2f 4cbb
00000140: ac49 30ba 90fd 2c38 1c17 1abb 2bc7 4b3c
00000150: 5d1d 9fbb 6cf5 9abb 60fb 6b3c 30c5 a13b
00000160: b8af b23b 60e5 53bc f7e0 5c3b 8b41 6c3c
00000170: c12a ba3b a714 563a 77c4 bd3a d20f 533c
00000180: 1321 26bc be35 2e3c 545a 05bb 3931 043b
00000190: 013d 83bb 170b e8bb 45d7 c43a 078c 5c3c
000001a0: 20c5 eabb 222f 86b9 e0c2 99ba 303f bf3b
000001b0: 4f83 743c de79 363c 077b 2e3c 531a 69bc
000001c0: 389e 67bc b39b 13bc cbdc 33bb 37f9 02bb
000001d0: 3453 babb 30d9 f3bb abad 263c a529 683b
000001e0: 04fc 003c 6fde 893c 6101 39bb 8f40 2abc
000001f0: 3594 8a3c 30a5 87bc 48ac 6a3b 1c58 263c
00000200: e3cf c7bb d78f e23b 8d2d 6ebc 2e50 053c
00000210: a9c2 27bb 5dec 3fbb af74 5aba f1b6 44bb
00000220: d94b 98bb f7ad 753a b54b 893b decc 92bc
00000230: 9ed0 2e39 2365 08bc fa48 803c 4f57 abba
00000240: 5e9e 44bc 4850 f33b fdae 7c3b 5849 63bc
00000250: cfb6 25bc 26cc 80bc 02e3 90bb a3de 293b
00000260: 93d1 963b e583 7cba c57b b239 beb7 36bc
00000270: 2211 593c b017 85bb 1b16 08bc 8bc6 dbb9
00000280: cf3e ccbb 06e1 ca3a 0da4 57ba 0b19 56bc
00000290: 539f 8c3b f2e1 07bc c72d 75bc d744 8e3c
000002a0: 4e28 b13c b70d 303c 808e 063c 6d4b 5bbb
000002b0: 90f1 d53b b2af d83b 8f44 a83b 039c ce3b
000002c0: 689a 49bc 12dd cebb fc39 17bc 9dc5 263a
000002d0: 0f43 1bbb 028b 903c 37f9 b93b 27a8 1dbb
000002e0: 70d0 8a3c e9bb a63b 734b 0d3b 7c0a 073a
000002f0: 8b29 573c 0231 bc3b 4f06 843b f5ef 363c
00000300: 1cbc 443c 5484 8e3b dbba 893b 4426 2b3c
00000310: 28b9 6b3c bd7a e13b 138e 773b cb21 943c
00000320: 3742 563b af56 ed3b 908d cd3b a7e6 983c
00000330: 5b5a 37bc a5bf b8bb 2330 0bbb ea74 1aba
00000340: 3277 8d3b 4ab2 c939 9774 113c 0f89 e4ba
00000350: 4bf8 ebba 6f2b e6bb 8c98 083c 13d3 fe3a
00000360: f144 29bc 95fc 6fbc f2f1 603b ffdd 0439
00000370: 1d98 4abb b9db ad39 c635 0d3b 97ce 53bc
00000380: 432d 86bb 9406 1dbc 2435 28bc 7c0a 87bb
00000390: fb58 703b ff5d 4cbc 63c8 69ba 14d8 ac3c
000003a0: 9264 783c 803e b8bb 0309 4cbc 4937 043c
000003b0: 9d70 18bb 7ec1 813b 0aa5 f23b be58 3d3b
000003c0: 3e54 3cbb 47c4 8d3b b147 05bb 6265 77ba
000003d0: b3e8 c4bb b844 68bb 147c 1f3a d041 cf3b
000003e0: d575 493b 42c2 dbb9 9b8f 09bb 39d7 063c
000003f0: 6d64 6dbc 8e12 0c3b 987d c03c 6956 b3ba

action_model._discrete_distribution.branches.3.weight f4 [2, 128]
0.00518552 -0.007952489 -0.0039590634 0.0036018142 -0.005711668 0.011488459 0.013574469 0.014063008
0.0041594757 0.0054719467 -0.0035844971 -0.018717615 -0.0074771023 -0.007729 0.0034464255 -0.007642604
0.0032939462 -0.007836065 0.0030124795 -0.0066760643 -0.0016335751 0.0008856142 0.0061741374 9.749956e-05
0.009734642 0.007850929 -0.0060699796 -0.009380989 0.008819538 -0.0046334784 0.0034247115 0.014319114
-0.00068309315 0.013561902 0.0038053838 0.0024828129 -0.0007449367 0.0046111583 -0.0075218803 0.0075223604
0.008575964 -0.0015651853 0.011467057 -0.011299113 -0.0075247996 -0.0027708858 -0.0059204386 0.017339125
0.020958623 0.02499397 0.009451794 -0.006214268 0.012210305 -0.0006658001 -5.2715706e-05 0.0008521873
0.0018532508 0.010274957 0.005106642 0.0023550962 -0.003971485 0.0017825706 -0.0046089245 0.00736902
0.00879119 -0.0011000776 -0.009488524 -0.014650439 -0.0023568969 -0.008964505 -0.010056452 -0.009961273
-0.0016485465 -0.006759836 -0.0023475913 -0.0033106462 -0.008661584 -0.007060889 0.014825049 0.005910533
-0.00023095433 -0.0024950765 -0.011997809 0.011147366 -0.004884768 -0.009048573 -0.0098671755 -0.0132493945
0.005340233 -0.011558102 -0.013928986 0.006672078 -0.012357635 0.010110859 -0.004472359 0.01490141
0.0020946525 -0.00039794785 -0.003299331 -0.0036532232 0.003509524 0.0018885642 0.002730998 0.006950424
-0.0037506241 0.0017531373 -0.014833584 -0.009363986 0.004372963 -0.0069050747 -0.0019854587 -0.0153284175
0.0034019263 0.016838307 0.00082368526 0.01825445 0.003319667 0.008439361 0.00845147 -0.013153607
-0.0034944632 0.0073025855 0.003265876 -0.010586847 -0.009763275 0.0036795984 0.005215685 -0.00024208006
0.00057857163 -0.012330911 -0.0051297476 0.002497314 0.006066046 0.0015107888 0.00041977727 0.012099869
0.0055679767 -0.0047204997 -0.009066616 -0.013772758 -0.012676495 -0.008104994 -0.0057366076 0.0018651997
-0.00625889 -0.0055780183 -0.00243855 0.011223265 0.0071385116 0.0015843719 0.008759679 0.0091096675
0.0026569306 0.010284779 -0.007500251 -0.011227784 0.012872912 0.004709573 0.00993513 0.00815145
-0.0048105638 -0.021970417 -0.010867645 -0.004422958 -0.010916829 0.0039029245 0.00066771236 0.0030537185
0.0019093897 0.006100109 0.018958198 -0.0032305445 0.013636747 0.008482996 -0.014042558 0.007308885
-0.009696373 0.0069175283 -0.0053361007 -0.011097388 -0.008384666 0.014843376 -0.001052312 -0.0038031216
0.007815534 -0.0021873282 -0.003344118 -0.00022311164 0.009284905 -0.003682545 -0.003812233 -0.001162433
0.013736839 -0.0009277138 0.0069480636 0.01727934 -5.187855e-05 -0.010809663 -0.012447225 0.003792135
0.012009355 0.00047499916 -0.009959113 0.013288788 0.016845508 0.0068707475 0.012083326 -0.0039012588
0.005460301 -0.0027266552 -0.0049364245 0.010277606 0.004046457 0.002260029 0.005622607 -0.0055910847
-0.012191116 0.007812479 -0.006166848 0.0038769734 0.020950226 -0.0059178816 -0.012488689 -0.003569724
-0.009828442 -0.0073551736 -0.0074334103 -0.00052559417 0.005491789 -0.008631182 -3.0159334e-05 -0.0032217563
0.00032255362 0.0032463209 -0.0058763223 0.0022040925 0.011370985 0.009783793 0.026586002 0.0004899471
0.0120059615 -0.010108147 0.004600818 0.012577347 -0.0020155988 0.0034812246 0.000642562 -0.012911801
0.01577568 0.00050826697 0.012338645 -0.01235722 -0.0038010483 0.0029248137 -0.011197585 -0.0042165825
00000000: 4beb a93b 284b 02bc 08bb 81bb 6a0c 6c3b
00000010: f228 bbbb 173a 3c3c 7367 5e3c 8868 663c
00000020: 364c 883b 044e b33b e2e9 6abb af55 99bc
00000030: 7b02 f5bb 8d43 fdbb 6ddd 613b cf6e fabb
00000040: 3fdf 573b d762 00bc 056d 453b e3c2 dabb
00000050: af1d d6ba 9028 683a 6b50 ca3b ad78 cc38
00000060: 0c7e 1f3c 2fa1 003c aee6 c6bb b8b2 19bc
00000070: d37f 103c 6fd4 97bb 2071 603b b89a 6a3c
00000080: 9b11 33ba bd32 5e3c bf63 793b b0b6 223b
00000090: db47 43ba 3319 973b 1b7a f6bb 227e f63b
000000a0: 3382 0c3c e726 cdba 53e0 3b3c ea1f 39bc
000000b0: 9892 f6bb c097 35bb 3d00 c2bb c80a 8e3c
000000c0: 6bb1 ab3c 27c0 cc3c b3db 1a3c 0fa1 cbbb
000000d0: bb0d 483c 1789 2eba 0f1b 5db8 5265 5f3a
000000e0: c7e8 f23a 4b58 283c 9e55 a73b f557 1a3b
000000f0: 3b23 82bb 25a5 e93a 7606 97bb d277 f13b
00000100: ec08 103c 7b30 90ba c175 1bbc 6508 70bc
00000110: 2b76 1abb dcdf 12bc d1c3 24bc 9b34 23bc
00000120: 0b14 d8ba 9d81 ddbb 0cda 19bb 6df7 58bb
00000130: 51e9 0dbc 085f e7bb c3e4 723c 25ad c13b
00000140: 552c 72b9 7084 23bb 7592 44bc 71a3 363c
00000150: 6710 a0bb 7740 14bc efa9 21bc fd13 59bc
00000160: 1ffd ae3b 325e 3dbc 6736 64bc 72a1 da3b
00000170: ae77 4abc 04a8 253c de8c 92bb 0b25 743c
00000180: 7046 093b a8a3 d0b9 9739 58bb ea6a 6fbb
00000190: 0b00 663b b389 f73a 8bfa 323b 62c0 e33b
000001a0: 08cd 75bb 87c9 e53a 9008 73bc 676b 19bc
000001b0: 134b 8f3b f743 e2bb 781e 02bb 0b24 7bbc
000001c0: daf2 5e3b 7df0 893c 95ec 573a 5b8a 953c
000001d0: c58e 593b 3f45 0a3c 0978 0a3c 3a82 57bc
000001e0: 5d03 65bb 874a ef3b 4f08 563b 7474 2dbc
000001f0: 25f6 1fbc 6b25 713b 56e8 aa3b dfd6 7db9
00000200: 49ab 173a 9707 4abc 7117 a8bb faa9 233b
00000210: afc5 c63b a905 c63a 8d15 dc39 873e 463c
00000220: 9373 b63b 6cae 9abb 258c 14bc 22a7 61bc
00000230: 13b1 4fbc cfca 04bc 27fa bbbb b779 f43a
00000240: 6017 cdbb cfc7 b6bb 14d0 1fbb c9e1 373c
00000250: 2dea e93b b3aa cf3a c284 0f3c b740 153c
00000260: e61f 2e3b 7d81 283c aac4 f5bb bdf4 37bc
00000270: e8e8 523c c352 9a3b f5c6 223c a98d 053c
00000280: efa1 9dbb 4efb b3bc 350e 32bc 76ee 90bb
00000290: 80dc 32bc 35c8 7f3b 6b09 2f3a e520 483b
000002a0: 7d44 fa3a 6ce3 c73b 394e 9b3c 8bb7 53bb
000002b0: aa6c 5f3c 44fc 0a3c c212 66bc 5f7f ef3b
000002c0: 89dd 1ebc 6fac e23b 75da aebb d2d1 35bc
000002d0: d75f 09bc a231 733c bbed 89ba cb3d 79bb
000002e0: ba0c 003c 4759 0fbb fd28 5bbb 13f3 69b9
000002f0: b71f 183c da56 71bb a8d6 79bb c75c 98ba
00000300: 7b10 613c d231 73ba 95ac e33b 678d 8d3c
00000310: 2b98 59b8 031b 31bc 72ef 4bbc 7885 783b
00000320: e3c2 443c 4f09 f939 8c2b 23bc 37b9 593c
00000330: 97ff 893c 0224 e13b 24f9 453c 43ac 7fbb
00000340: 53ec b23b afb1 32bb bbc1 a1bb 6763 283c
00000350: 2498 843b ff1c 143b d93d b83b 6b35 b7bb
00000360: 3fbd 47bc d3ff ff3b 4513 cabb d214 7e3b
00000370: cf9f ab3c caea c1bb 5c9d 4cbc 08f2 69bb
00000380: 7907 21bc ab03 f1bb f793 f3bb 07c8 09ba
00000390: 77f4 b33b cd69 0dbc adfe fcb7 1a24 53bb
000003a0: 6a1c a939 3ac0 543b 2a8e c0bb 8972 103b
000003b0: 5e4d 3a3c 344c 203c e3ca d93c cb6f 003a
000003c0: a7b4 443c a49c 25bc 75c2 963b 3811 4e3c
000003d0: 2318 04bb 4225 643b 9b71 283a 058c 53bc
000003e0: 003c 813c 383d 053a 0728 4a3c f075 4abc
000003f0: 021b 79bb 3bae 3f3b 1376 37bc 422b 8abb

action_model._discrete_distribution.branches.4.weight f4 [2, 128]
-0.0075511746 0.0023611148 -0.008779118 -0.013231455 0.0024654947 -0.00205078 -0.002712473 0.002580961
0.014150805 -9.713169e-05 -0.0032909617 0.01726733 -0.00023907873 0.00016289852 0.0027407974 0.0071636937
0.00032458172 0.01472036 -3.1801275e-05 -0.0015704528 -0.0053760908 -0.008898111 0.004269284 -0.019063158
0.007608416 -0.0100093065 0.0010417535 -0.004637163 0.00513812 0.0066109593 0.016458489 0.0011905765
0.0020922206 -0.005758623 0.007893184 -0.005291187 -0.0007825521 -0.004395173 0.020671524 0.006222739
0.015335292 0.00038883227 -0.0051534106 -0.0017316369 0.01031955 0.01208803 0.010690416 0.010045229
-0.0026493666 0.012291701 -0.00205798 -0.008034201 -0.005552585 0.006094721 -0.0061001726 -0.015509156
0.0025759195 0.00975385 -0.0077245045 0.010280128 0.00022846651 0.0021508138 -0.0033054848 0.008290685
-0.0038535558 0.010220107 0.0040279482 0.0022168423 0.0098205535 -0.0081144 -0.0003919461 -0.0019057485
0.0040392694 -0.0007650794 0.023892747 -0.0041733715 0.0006298295 -0.0021234618 0.005561018 0.008373161
-0.0026920817 0.000987471 -0.0057750857 -0.00016827487 0.0010886748 0.018751297 0.004763787 -0.0134299
-0.009726129 -0.0060193012 0.012688816 0.012722817 0.011991552 0.011058212 -0.0011907028 0.0071049104
-0.0034042143 0.014904077 -0.012794167 -0.0030571176 -0.0009980289 -0.017402466 0.005160486 0.008003267
0.002715787 -0.009103546 0.0059021576 0.0012341426 -0.011308196 -0.016254423 0.0065014847 -0.003300175
0.013577729 0.008930997 -0.0021820182 -0.00869891 0.008249155 -0.0039018174 -0.003247457 0.012603867
0.0017242319 0.0064931097 0.007108887 -0.0021103886 -0.008562117 0.0034434672 -0.009483291 -0.0033458292
-0.0055875867 -0.0022630882 -0.008693035 0.0037837767 0.0016842339 -0.0019045875 0.0043828003 -0.009272087
0.012110827 0.012033308 -0.015767196 0.0027742374 0.008835918 0.004220359 -0.004589798 0.0076964037
0.015612783 -0.009455588 0.003061914 0.008184852 -0.004169263 0.006921337 -0.006001565 -0.0056967773
0.009416833 0.005847881 0.009856331 0.010992977 -0.009112476 0.0031613938 0.00021885765 -0.00844463
-0.011415656 -0.007272541 0.00046002632 0.0020131462 -0.00672733 -0.006412414 -0.008870935 -0.0020927822
0.009614166 -0.0091082575 -0.012637808 0.011026237 0.0032795013 -0.005194079 0.0028863684 0.015323798
-0.00014635072 -0.007191242 -0.011956874 0.00091369014 0.0109111965 0.0013069041 0.011142671 -0.0034577237
-0.01897904 0.0007094248 -0.015719606 -0.010876495 -0.004712161 0.004263 0.008341531 -0.014368727
-0.016971564 -0.0056452453 0.006454479 0.0064325803 0.0014950546 0.010744867 -0.00066532375 -0.0065805614
-0.0043842564 0.009631932 0.0013198617 -0.00886043 0.0029620887 -0.0015573694 0.008372 0.0076479325
-0.003274104 -0.0026868263 0.002535018 0.00031403542 -0.0024687494 -0.001752347 -0.013765543 -0.0026703728
-0.0128705455 -0.0047859685 0.010826522 0.0061240005 -0.0039668093 0.015642336 -0.0145637635 0.023885293
0.001557887 -0.0032120403 0.0028149527 -0.0011302318 0.0006060501 -0.0037178535 0.002316788 -0.006891265
0.013417169 -0.004491923 0.015679121 -0.016571583 0.00055067794 0.008652727 0.0002593348 -0.017958367
-0.010750727 0.006462534 0.013092682 -0.0028032784 -0.03089729 0.01179011 0.0034367372 0.0032727264
0.00035708433 -0.003033937 -0.005737103 0.003675352 -0.019452617 0.005601606 -0.012380771 -0.0050887726
00000000: d86f f7bb efbc 1a3b 4ad6 0fbc bfc8 58bc
00000010: 2394 213b 6166 06bb bfc3 31bb 5725 293b
00000020: c7d8 673c 2eb3 cbb8 2dad 57bb 3774 8d3c
00000030: 35b1 7ab9 bdcf 2a39 f39e 333b 6bbd ea3b
00000040: 9f2c aa39 aa2d 713c 5c62 05b8 a7d7 cdba
00000050: eb29 b0bb 62c9 11bc 5ae5 8b3b 572a 9cbc
00000060: 0550 f93b 13fe 23bc 728b 883a 58f3 97bb
00000070: ad5d a83b bfa0 d83b f4d3 863c 1e0d 9c3a
00000080: a31d 093b d5b2 bcbb 6a52 013c b261 adbb
00000090: 2f24 4dba 6205 90bb 5457 a93c 1ee8 cb3b
000000a0: e040 7b3c 2fdc cb39 f1dd a8bb 18f8 e2ba
000000b0: 5413 293c df0c 463c db26 2f3c bf94 243c
000000c0: ffa0 2dbb 2163 493c 2ddf 06bb e2a1 03bc
000000d0: 75f2 b5bb 3ab6 c73b f5e3 c7bb 1d1a 7ebc
000000e0: c2d0 283b 9dce 1f3c d71d fdbb fb6d 283c
000000f0: 8390 6f39 abf4 0c3b d5a0 58bb a7d5 073c
00000100: f08b 7cbb 3c72 273c e1fc 833b 7148 113b
00000110: 63e6 203c 43f2 04bc 1d7e cdb9 4fca f9ba
00000120: d95b 843b 9c8f 48ba b9ba c33c c7c0 88bb
00000130: 241b 253a c729 0bbb 3339 b63b 952f 093c
00000140: a36d 30bb 076e 813a ee3c bdbb f172 30b9
00000150: ddb1 8e3a 529c 993c 8b19 9c3b 1509 5cbc
00000160: 575a 1fbc 8f3d c5bb c0e4 4f3c 5d73 503c
00000170: 3778 443c 812d 353c 5b11 9cba 4fd0 e83b
00000180: 3d19 5fbb 3b30 743c a09e 51bc ec59 48bb
00000190: 4bd0 82ba 9e8f 8ebc 4b19 a93b 2320 033c
000001a0: 58fb 313b 0a27 15bc e366 c13b f4c2 a13a
000001b0: 0346 39bc ff27 85bc 680a d53b c047 58bb
000001c0: 2075 5e3c 5153 123c 3100 0fbb df85 0ebc
000001d0: 7727 073c a2b5 7fbb 4ad3 54bb 7380 4e3c
000001e0: 9fff e13a 27c4 d43b abf1 e83b 724e 0abb
000001f0: 1f48 0cbc cbab 613b ce5f 1bbc b345 5bbb
00000200: 1318 b7bb 5250 14bb 3b6d 0ebc 3df9 773b
00000210: 83c1 dc3a 5aa3 f9ba 989d 8f3b f4e9 17bc
00000220: 7d6c 463c 5a27 453c 352a 81bc fbcf 353b
00000230: 87c4 103c f04a 8a3b 0466 96bb 1d32 fc3b
00000240: c2cc 7f3c 9ceb 1abc 64aa 483b c219 063c
00000250: 509e 88bb 62cc e23b c7a8 c4bb 08ac babb
00000260: 0f49 1a3c 959f bf3b 737c 213c e31b 343c
00000270: 7f4c 15bc 632f 4f3b 277d 6539 585b 0abc
00000280: bb08 3bbc 7f4e eebb b02f f139 fdee 033b
00000290: ef70 dcbb 3a1f d2bb 6657 11bc 0f27 09bb
000002a0: bc84 1d3c cd3a 15bc cf0e 4fbc 64a7 343c
000002b0: e7ec 563b 1833 aabb 3a29 3d3b ab10 7b3c
000002c0: b975 19b9 83a4 ebbb c4e6 43bc b584 6f3a
000002d0: e0c4 323c 6d4c ab3a c08f 363c fa9a 62bb
000002e0: ef79 9bbc b1f8 393a 67c6 80bc 5433 32bc
000002f0: 7968 9abb a3b0 8b3b ebaa 083c cf6a 6bbc
00000300: f307 8bbc c0fb b8bb 1880 d33b 65c8 d23b
00000310: b5f5 c33a 3d0b 303c 1f69 2eba c0a1 d7bb
00000320: cfa9 8fbb 40cf 1d3c 36ff ac3a 562b 11bc
00000330: 9a1f 423b a520 ccba b72a 093c 829b fa3b
00000340: 5a92 56bb 7715 30bb 8b22 263b 1fa5 a439
00000350: beca 21bb 02af e5ba df88 61bc 6c01 2fbb
00000360: fbde 52bc 9dd3 9cbb b961 313c d7ab c83b
00000370: 02fc 81bb 5b24 803c da9c 6ebc 17ab c33c
00000380: 0332 cc3a 1881 52bb 127b 383b 4924 94ba
00000390: 55df 1e3a 3ba7 73bb 41d5 173b 1fd0 e1bb
000003a0: b0d3 5b3c fb30 93bb 8071 803c 21c1 87bc
000003b0: 5f5b 103a 2bc4 0d3c 54f7 8739 6d1d 93bc
000003c0: d123 30bc aac3 d33b b082 563c 35b7 37bb
000003d0: 501c fdbc 4e2b 413c e23a 613b 3d7b 563b
000003e0: 0c37 bb39 04d5 46bb 4ffe bbbb 2dde 703b
000003f0: 185b 9fbc ad8d b73b b8d8 4abc b8bf a6bb
