Assets/results/ppo/My Behavior/My Behavior-445.pt (torch, 219670 bytes, 38 tensors)

discrete_act_size_vector f4 [1, 14]
000000 00 00 00 40 00 00 00 40 00 00 00 40 00 00 00 40
       2.0 2.0 2.0 2.0
000010 00 00 00 40 00 00 00 40 00 00 00 40 00 00 20 41
       2.0 2.0 2.0 10.0
000020 00 00 20 41 00 00 20 41 00 00 20 41 00 00 20 41
       10.0 10.0 10.0 10.0
000030 00 00 20 41 00 00 20 41
       10.0 10.0

network_body._body_endoder.seq_layers.0.weight f4 [128, 24]
000000 7e 80 13 be 4a 4a b4 3d 0d ff 85 bc 99 06 a1 3e
       -0.14404485 0.08803232 -0.01635697 0.31450346
000010 e1 b4 9f 3c 3b 8b 83 3e ec 31 28 be d3 0e 7b be
       0.01949543 0.25692162 -0.16425294 -0.24517374
000020 f4 9d a9 be d0 74 34 bd 78 6b d8 3d 63 e3 de 3d
       -0.3312832 -0.044056714 0.10567373 0.10883214
000030 84 bf 36 be c9 67 1f 3e 25 dc 9a be 4d 05 b1 be
       -0.17846495 0.15566935 -0.30246082 -0.34574357
000040 38 d0 ae be 6d 67 2a be 3f 87 c8 3d 48 c8 71 be
       -0.34143233 -0.16641016 0.09791421 -0.23611557
000050 e0 3b 73 be 65 d8 4c 3e f4 62 73 3e ba 25 ba 3d
       -0.23753309 0.20004423 0.23768216 0.09089227
000060 39 7d 8e 3e 3f e6 3d be 8f 27 3d bd 7e d5 1d be
       0.27829912 -0.18544863 -0.046180304 -0.15413472
000070 aa de bc 3e c3 c3 72 bd 84 b1 12 3e df a8 37 be
       0.3688863 -0.059268724 0.1432553 -0.17935513
000080 f8 62 90 3d 03 77 d0 3d 84 4b 1c be 8b 97 fd 3e
       0.07050127 0.1017895 -0.15263182 0.4952968
000090 0f 7c 06 3d 3f 34 a5 be 99 2a 6b 3d 6d 3e 54 3c
       0.032833155 -0.32266423 0.05741367 0.012954337
0000a0 04 0d 8d bd 3b 6a df 3d f6 6a 29 3c 95 6a 7c 3d
       -0.06887248 0.10908934 0.010340443 0.061625082
0000b0 cb 5c 93 3d aa 8e 5f 3d 65 f6 a0 bc 34 8a a9 bd
       0.07195433 0.054579414 -0.01964874 -0.08278313
0000c0 3d 08 86 3e be ff 1f bd 4f a1 b2 bc 81 e8 8c bd
       0.2617816 -0.039062254 -0.021805434 -0.06880284
0000d0 21 a1 0c bd 71 60 5e 3e 79 88 80 3d 96 7f 39 be
       -0.034333352 0.21716477 0.0627603 -0.18115076
0000e0 ad c2 96 3e 58 50 92 bd be b0 18 bd 84 52 e2 3d
       0.294454 -0.071442306 -0.03727793 0.11050895
0000f0 31 6e ae be 4f 14 0b bf a0 c5 90 be 98 a6 85 3e
       -0.34068444 -0.54327863 -0.28275776 0.26103663
000100 16 5e 50 3e 38 03 f9 3d 67 e8 c8 bd 5a 1a c5 3e
       0.20348391 0.12158817 -0.09809952 0.38496667
000110 72 14 4e be 27 fe 70 be 99 06 93 3e 5d 8f fa 3d
       -0.20124987 -0.23534451 0.2871597 0.122343756
000120 5d e5 da bd 2f f4 32 be a0 ca bc bd e8 3d 14 3e
       -0.10688279 -0.17475961 -0.09218335 0.1447674
000130 b7 61 dc 3d 85 20 db 3e 09 a5 ae 3a 7c a6 7f 3e
       0.10760825 0.42798248 0.0013324331 0.24965852
000140 32 c3 18 be 91 0b 81 be 18 b5 25 be b5 07 c5 3d
       -0.14918211 -0.25204137 -0.16182363 0.096206106
000150 03 d3 bb 3e 1e d5 2f 3e 05 67 be be fd 60 e7 bd
       0.36684427 0.17171142 -0.37187973 -0.11297796
000160 13 e2 9c be 39 e5 51 bd a2 9f b3 bd ac 44 3f be
       -0.3064123 -0.051243994 -0.08770682 -0.1867854
000170 50 c6 16 3e 6a a7 97 3e dc 83 f8 bd df e3 2f 3e
       0.14724088 0.29619914 -0.12134525 0.1717677
000180 fe f2 86 be e6 8b a9 bd 03 fa 80 be 65 89 26 be
       -0.26357263 -0.08278637 -0.25190744 -0.1626335
000190 fe 60 4a be dd f1 82 be 68 d2 c6 3d bb f5 bd bd
       -0.19763562 -0.25575152 0.097081006 -0.09275385
0001a0 1a fb 60 3e d7 e4 82 3d fc e6 0b 3e 82 bc 05 be
       0.21970788 0.06391304 0.13662332 -0.13060191
0001b0 9d b5 e6 3d 89 c9 56 3e d7 18 71 3e 9d bb fa 3c
       0.11265109 0.20975317 0.23544632 0.03060704
0001c0 0a 8b 65 3e a5 90 c4 bc 31 38 89 bd 1e b2 90 be
       0.2241632 -0.023994753 -0.06700171 -0.28260893
0001d0 41 47 44 be 53 dc 80 3e 7d 2f b6 be 57 b0 a8 3e
       -0.19167806 0.25168094 -0.35583106 0.32947037
0001e0 87 ad 55 bd 7b 70 44 3e 5d 8c 34 be 3f 75 1d 3d
       -0.05216744 0.19183533 -0.1763167 0.038441893
0001f0 76 ca 21 be 01 5d 29 3e 91 6c 5b 3d 25 a9 05 be
       -0.15799889 0.16539384 0.053570334 -0.13052805
000200 e6 67 84 3e 1f 8a 9d bd c9 eb 3b 3d ef 84 a1 bb
       0.25860518 -0.0769236 0.04587916 -0.004929177
000210 eb ed 65 bd 93 ba 12 3f 92 70 12 3d d0 52 13 3f
       -0.0561351 0.5731594 0.035751887 0.57548237
000220 7a a1 cc bc 17 7e 8a 3d 79 04 64 be 3a 33 08 be
       -0.024979342 0.06762331 -0.22267331 -0.13300791
000230 6b 4b 94 be 8a 9f a1 3d 28 96 38 3d d9 6e 9c be
       -0.2896379 0.07891758 0.045065075 -0.3055332
000240 31 a5 be 3e ef 87 0b be 52 05 41 be 75 98 c9 3d
       0.37235406 -0.13626073 -0.18849686 0.09843532
000250 00 70 3e be 13 a4 02 be 20 bb 01 3e 0e 9c 1c 3e
       -0.18597412 -0.12757902 0.12669039 0.15293905
000260 04 3e df bd f2 5a 3e 3d 6f e2 0f 3e 10 68 96 3e
       -0.109005004 0.04647345 0.14051221 0.29376268
000270 23 08 34 3e e7 4f 3e 3e 85 ac 48 3e e9 a2 4b be
       0.17581229 0.18585168 0.19597061 -0.19886364
000280 63 3d 26 be e8 a6 fc 3d 10 ae 8c 3d 1c 14 98 bc
       -0.16234355 0.12336522 0.06869137 -0.018564276
000290 b8 11 fe 3d 57 a3 01 3b d5 d4 40 3e 9f b1 f8 3c
       0.12405723 0.0019781196 0.18831189 0.030358134
0002a0 7f 03 05 3e b5 ba ec bb 0e 95 f4 bb c0 4f 6b bd
       0.12989615 -0.0072244057 -0.0074640578 -0.057449102
0002b0 cd 96 4c bd 88 28 41 be 78 a2 ac be 3d 3c a6 3d
       -0.049948502 -0.18863118 -0.33717704 0.08116958
0002c0 31 c6 38 3b 94 64 9c 3e 6c 98 8b bd 24 f6 91 3e
       0.0028194303 0.30545485 -0.068161815 0.28508103
0002d0 54 0d 26 be de b8 c6 3d a1 33 8a be c4 87 29 be
       -0.16216022 0.09703229 -0.26992515 -0.16555697
0002e0 a9 bf 1f 3e 20 c4 e2 3e 33 58 13 be 03 12 44 be
       0.15600456 0.44290257 -0.14389114 -0.19147496
0002f0 54 1b 34 3d 33 ba 54 3e f9 fb 19 be f3 c5 e8 bd
       0.043971375 0.20774154 -0.15037526 -0.11365881
000300 40 44 b9 be 83 18 0b 3e ff ae 65 be f3 a2 71 3e
       -0.36184883 0.13583569 -0.22430037 0.23597316
000310 6a d4 2a 3e 66 eb c6 bd be f6 45 be ce c3 a5 be
       0.16682592 -0.097128674 -0.19332406 -0.3237595
000320 99 23 ab 3e 90 8f 66 3e e7 0a 59 be d2 ff 89 3e
       0.33425596 0.22515702 -0.21195565 0.26952988
000330 4e c4 17 3e 2a 2f 91 3e 5d a5 a7 3d 03 69 9d 3d
       0.14820978 0.28356296 0.081858374 0.07686045
000340 0a a7 8a 3e 74 42 44 3d 6a ce f7 3d ee d5 ed be
       0.27080566 0.047914937 0.12099917 -0.46452278
000350 67 fa de 3e ba 57 6e 3e c3 10 2c be 64 07 2c be
       0.43550417 0.23275653 -0.16803269 -0.16799694
000360 93 fc 1d 3d a6 4e b7 3e d8 4a eb bd 6b 15 e0 3d
       0.03857095 0.35802191 -0.11488885 0.10941585
000370 b6 ce 6c be b9 98 13 3d b3 31 b8 be e1 b9 93 3e
       -0.23125729 0.03603432 -0.35975417 0.28852752
000380 91 b7 4c bd 4d 2e b4 3e e1 6d fc 3c b2 8d 16 bd
       -0.04997975 0.35191575 0.030814113 -0.036756225
000390 2f 98 71 be 96 6d 11 3e 56 8f 1b 3d 33 1f 6b bd
       -0.2359321 0.1420196 0.037978493 -0.0574028
0003a0 7e c7 eb 3d c4 b4 78 be 93 77 76 3d 40 c0 9f 3d
       0.115126595 -0.24287707 0.06017263 0.07800341
0003b0 94 90 62 bc 18 2b 96 3e e0 0f 4b 3e d6 bf a1 3e
       -0.013828415 0.29329753 0.19830275 0.31591672
0003c0 c5 0c 25 3e 3b 5b bc bd 84 2c c9 3d 70 f2 8a be
       0.16118152 -0.09197088 0.09822944 -0.2713809
0003d0 14 30 a4 3d e2 a3 89 bc 66 0d 06 be 90 4e 25 bc
       0.08016983 -0.016801778 -0.13091049 -0.010089532
0003e0 81 e6 2a 3e b8 c0 9f 3d b7 b5 ce bd ed 9d ec bd
       0.16689493 0.0780043 -0.10093253 -0.115535595
0003f0 b0 6c 41 bd c3 9d af bd 2f 16 14 3e 9f 84 4f 3e
       -0.047222793 -0.085750125 0.14461587 0.20265435

network_body._body_endoder.seq_layers.0.bias f4 [128]
000000 00 00 00 00 00 00 00 00 00 00 00 00 00 00 00 00
       0.0 0.0 0.0 0.0
000010 00 00 00 00 00 00 00 00 00 00 00 00 00 00 00 00
       0.0 0.0 0.0 0.0
000020 00 00 00 00 00 00 00 00 00 00 00 00 00 00 00 00
       0.0 0.0 0.0 0.0
000030 00 00 00 00 00 00 00 00 00 00 00 00 00 00 00 00
       0.0 0.0 0.0 0.0
000040 00 00 00 00 00 00 00 00 00 00 00 00 00 00 00 00
       0.0 0.0 0.0 0.0
000050 00 00 00 00 00 00 00 00 00 00 00 00 00 00 00 00
       0.0 0.0 0.0 0.0
000060 00 00 00 00 00 00 00 00 00 00 00 00 00 00 00 00
       0.0 0.0 0.0 0.0
000070 00 00 00 00 00 00 00 00 00 00 00 00 00 00 00 00
       0.0 0.0 0.0 0.0
000080 00 00 00 00 00 00 00 00 00 00 00 00 00 00 00 00
       0.0 0.0 0.0 0.0
000090 00 00 00 00 00 00 00 00 00 00 00 00 00 00 00 00
       0.0 0.0 0.0 0.0
0000a0 00 00 00 00 00 00 00 00 00 00 00 00 00 00 00 00
       0.0 0.0 0.0 0.0
0000b0 00 00 00 00 00 00 00 00 00 00 00 00 00 00 00 00
       0.0 0.0 0.0 0.0
0000c0 00 00 00 00 00 00 00 00 00 00 00 00 00 00 00 00
       0.0 0.0 0.0 0.0
0000d0 00 00 00 00 00 00 00 00 00 00 00 00 00 00 00 00
       0.0 0.0 0.0 0.0
0000e0 00 00 00 00 00 00 00 00 00 00 00 00 00 00 00 00
       0.0 0.0 0.0 0.0
0000f0 00 00 00 00 00 00 00 00 00 00 00 00 00 00 00 00
       0.0 0.0 0.0 0.0
000100 00 00 00 00 00 00 00 00 00 00 00 00 00 00 00 00
       0.0 0.0 0.0 0.0
000110 00 00 00 00 00 00 00 00 00 00 00 00 00 00 00 00
       0.0 0.0 0.0 0.0
000120 00 00 00 00 00 00 00 00 00 00 00 00 00 00 00 00
       0.0 0.0 0.0 0.0
000130 00 00 00 00 00 00 00 00 00 00 00 00 00 00 00 00
       0.0 0.0 0.0 0.0
000140 00 00 00 00 00 00 00 00 00 00 00 00 00 00 00 00
       0.0 0.0 0.0 0.0
000150 00 00 00 00 00 00 00 00 00 00 00 00 00 00 00 00
       0.0 0.0 0.0 0.0
000160 00 00 00 00 00 00 00 00 00 00 00 00 00 00 00 00
       0.0 0.0 0.0 0.0
000170 00 00 00 00 00 00 00 00 00 00 00 00 00 00 00 00
       0.0 0.0 0.0 0.0
000180 00 00 00 00 00 00 00 00 00 00 00 00 00 00 00 00
       0.0 0.0 0.0 0.0
000190 00 00 00 00 00 00 00 00 00 00 00 00 00 00 00 00
       0.0 0.0 0.0 0.0
0001a0 00 00 00 00 00 00 00 00 00 00 00 00 00 00 00 00
       0.0 0.0 0.0 0.0
0001b0 00 00 00 00 00 00 00 00 00 00 00 00 00 00 00 00
       0.0 0.0 0.0 0.0
0001c0 00 00 00 00 00 00 00 00 00 00 00 00 00 00 00 00
       0.0 0.0 0.0 0.0
0001d0 00 00 00 00 00 00 00 00 00 00 00 00 00 00 00 00
       0.0 0.0 0.0 0.0
0001e0 00 00 00 00 00 00 00 00 00 00 00 00 00 00 00 00
       0.0 0.0 0.0 0.0
0001f0 00 00 00 00 00 00 00 00 00 00 00 00 00 00 00 00
       0.0 0.0 0.0 0.0

network_body._body_endoder.seq_layers.2.weight f4 [128, 128]
000000 95 8c 62 3c 79 c6 69 3e 08 55 8d bd d8 84 c2 3c
       0.013827463 0.22829618 -0.06900984 0.023744985
000010 b3 3a 17 be 6f ef 13 be 9c 10 83 3c 53 58 9d 3d
       -0.14768486 -0.14446805 0.01599913 0.07682862
000020 ab fb dc 3d e1 23 49 bd 16 25 14 3d a5 39 09 be
       0.10790189 -0.049106482 0.03616818 -0.13400896
000030 9b 54 a6 bd 87 ea 05 3e 54 79 27 bd b1 b5 a2 bd
       -0.08121606 0.13077746 -0.040887192 -0.07944811
000040 bb bc 85 3d c3 52 92 3d 3f 9f c8 bd 42 32 0e 3c
       0.06530138 0.07144692 -0.09795999 0.008678975
000050 e8 10 a3 3d 9f 66 2b bc 15 eb 7a bd bb df 1d be
       0.07962209 -0.0104614785 -0.061259348 -0.15417378
000060 60 36 f2 bd b4 92 b5 3c f4 1d a6 3d 5d 87 04 bd
       -0.118267775 0.02216468 0.08111182 -0.032355655
000070 be f5 80 b9 d8 9c ea 3b 80 91 5f bd 9f 87 f4 3c
       -0.00024597155 0.0071598105 -0.05458212 0.029849825
000080 65 38 f0 bb fb fb 85 be 06 96 3b be 83 82 9d 3d
       -0.0073309415 -0.26168808 -0.18318948 0.07690909
000090 2f 97 48 3c ab 15 cf bc d4 58 b2 3d ae 02 0b bd
       0.012243076 -0.025278887 0.08708349 -0.033938102
0000a0 50 60 26 bc 05 cf 71 bd a2 b5 20 3e 0a eb 94 bc
       -0.010154799 -0.05903532 0.15694287 -0.018178482
0000b0 64 b9 2e bd 41 60 b2 bc 9d cf c9 bc fd d4 01 3c
       -0.04265727 -0.021774413 -0.02463513 0.0079243155
0000c0 47 a1 fb bd 4a 90 f2 3d 66 7b 89 3d f4 5a 7a bd
       -0.122866206 0.11843927 0.067129895 -0.061121896
0000d0 e5 43 75 3c de 45 0e 3d d8 fe d9 bd 26 14 7e 3d
       0.014969801 0.0347346 -0.10644311 0.062030934
0000e0 16 db c0 bb 58 f7 de bd f9 6d fb 3c c3 90 23 3d
       -0.005885492 -0.10887021 0.030692087 0.039932977
0000f0 04 1b 10 be e0 99 58 3d 3e de c8 3c c3 b7 83 ba
       -0.14072806 0.05288112 0.024520036 -0.0010049272
000100 9e 47 a8 bd 61 33 8b 3c 76 9b 0a bd 08 c0 60 bd
       -0.08216785 0.016992273 -0.033839665 -0.054870635
000110 32 b1 93 3d 37 79 f6 bd 9b 21 20 3e 92 c0 c7 3d
       0.07211532 -0.12034839 0.1563782 0.09753527
000120 a1 1d ec 3d 35 06 54 be 7b 3c 0b be 2a ea b3 bd
       0.11529089 -0.20705493 -0.1359729 -0.087848976
000130 09 66 77 bd 95 80 fe 3c f4 91 19 3e 98 c2 e7 3d
       -0.060400043 0.031067172 0.14997083 0.11316413
000140 cf ac ae 3d 07 4b ec 3d 00 4e a7 bc bc 66 e2 3b
       0.085290544 0.11537748 -0.020422935 0.0069092195
000150 41 11 f4 bd df 7d 24 3d bc 25 3f bd c3 10 61 3d
       -0.119173534 0.040159103 -0.046666846 0.054947626
000160 cd d6 81 bd 06 eb 07 3e 37 88 6e 3d 79 9f 18 be
       -0.06339798 0.13273248 0.058235373 -0.14904584
000170 59 81 96 bd b8 e3 8a bd f4 a2 4a 3d 35 52 53 be
       -0.0734889 -0.06781715 0.04947181 -0.20636828
000180 84 92 12 be 9f a1 3b 3e 2e 52 2e bd 94 8f 16 be
       -0.14313704 0.18323372 -0.04255884 -0.14703208
000190 f6 0a f3 3b 26 2f 22 3e 2d fb 9c 3d fb f1 fe bd
       0.007417078 0.15838298 0.076650955 -0.12448498
0001a0 ad 84 6d 3c 87 65 52 bd 88 23 80 3d 6b 4b a2 3d
       0.014496964 -0.051366355 0.06256777 0.07924541
0001b0 ff 5a 02 3e 72 6b 34 3d 64 db d1 bd 1f 8b b4 3d
       0.12730025 0.04404778 -0.102469236 0.08815598
0001c0 ef 70 0b be d8 f0 61 bd ff f3 3e 3d 8d f1 8c bd
       -0.136173 -0.055161327 0.04661941 -0.0688201
0001d0 ce d6 de 3c 45 f2 fb bd 03 9d d3 bc 50 e8 28 bd
       0.027202036 -0.123020686 -0.025831705 -0.041237175
0001e0 91 e3 93 3c a0 85 b3 bd 32 0a db bd 7c 19 f9 3d
       0.018052848 -0.08765721 -0.10695304 0.12163064
0001f0 23 25 1e 3c 93 12 ff 3d 7f 1a e7 3d a2 77 38 3d
       0.009652409 0.124547146 0.112843506 0.045035966
000200 07 ae d5 bb 4b dc 95 bc 69 07 bd bd fc 25 9f 3d
       -0.00652099 -0.01829352 -0.09229929 0.07770917
000210 04 28 20 3e 13 d3 53 bd f5 52 ff bb 9d 63 6c bd
       0.15640265 -0.051714968 -0.0077918717 -0.057712186
000220 91 bc bf ba 29 52 b2 3d ab 94 5b bd cc f0 10 bd
       -0.0014628341 0.08707077 -0.053608578 -0.03538589
000230 e6 85 38 3d 74 d2 38 bd 71 0b 75 bd cd 51 23 bd
       0.04504957 -0.04512258 -0.059825365 -0.039872933
000240 93 60 34 3e 41 49 e7 3d cd da e3 3d ea 35 22 3b
       0.17614965 0.11293269 0.11125717 0.0024751374
000250 77 10 bb bd 33 3f 4d be a0 46 6b 3c 1e 4c 0c be
       -0.09134 -0.2004364 0.0143601 -0.13700911
000260 db be 3d 3d b4 7f 8c bd 9e af 35 3e 89 e6 a1 bc
       0.046324592 -0.06860295 0.17742774 -0.019763248
000270 93 8d d9 bc c8 12 ff 3b 57 f7 af 3d ee cf e4 bd
       -0.026556766 0.0077842213 0.08592098 -0.11172472
000280 6d 8f db 3d bb 6f 79 bd 1e 25 0f 3d 7a f2 00 3e
       0.10720716 -0.06089757 0.034947507 0.12592497
000290 09 d5 02 3d e8 9c ca 3c 40 4b 0e 3e 63 fb 47 bd
       0.031941447 0.024733022 0.13895893 -0.048823725
0002a0 d9 3a 8e 3d c2 1c 71 be 43 e0 59 3d 21 04 63 3d
       0.06944818 -0.23546126 0.05319239 0.05542386
0002b0 68 df dc 3d 4e cc 08 3e 6b 8b 69 3d 38 20 0c bc
       0.10784799 0.13359186 0.057017725 -0.008552603
0002c0 36 e5 23 bd fb 44 09 be f4 dd 19 3e 9d 16 42 3d
       -0.040013514 -0.1340522 0.15026075 0.047384847
0002d0 b4 76 b4 3d e5 de 1d bd 5e e6 a7 3d c7 af 7b 3d
       0.08811703 -0.038542647 0.08198236 0.06144693
0002e0 a4 0b cb bd b1 aa 3f 3d 52 a1 1e bc 7f b4 e4 bb
       -0.0991433 0.046793643 -0.009682016 -0.0069795246
0002f0 d6 22 f2 3c e5 60 f1 3d ad b1 94 bd 1f d1 b0 3d
       0.029557627 0.11786059 -0.072604515 0.08633637
000300 b4 c5 76 bc 39 25 06 3d d7 1d 01 bc 2e da 37 be
       -0.015061785 0.032750342 -0.0078806495 -0.17954323
000310 98 ba 34 be c8 89 5b bd a5 3d ff bd a3 a2 58 bb
       -0.17649305 -0.053598195 -0.1246293 -0.0033055923
000320 49 9a 70 bd cf 4a 6e bd 69 5a da 3d 65 f6 b6 bd
       -0.058740888 -0.05817681 0.106617756 -0.08933715
000330 b2 3f 33 be a5 ce 96 3b 16 0b 41 bb 1e 7e 71 bd
       -0.17504767 0.0046022707 -0.002945607 -0.058958165
000340 5c 19 8a bc 26 2c a1 bd b5 a4 82 3c b7 9f c3 3d
       -0.016857795 -0.07869749 0.015947679 0.095519476
000350 d3 49 0b 3e ac e2 d1 3d 3f 3e a4 bd 86 b0 79 bd
       0.1360238 0.10248312 -0.08019685 -0.06095936
000360 d7 46 d8 3d a8 ef 9b bd 20 22 ae 3c b6 40 ef bc
       0.10560387 -0.0761407 0.021256506 -0.029205661
000370 30 f8 e8 bc 32 12 0c be 96 35 80 3d 4c 0e 82 bd
       -0.028438658 -0.13678816 0.06260221 -0.06350383
000380 d1 da 14 3d d1 e7 3d 3d 33 a3 d5 bb 1b 8f 48 3d
       0.036341492 0.046363655 -0.006519699 0.0489646
000390 1b 56 24 be 95 55 19 3e 33 49 27 be a5 5a 92 3b
       -0.16048472 0.14974053 -0.16336517 0.004466372
0003a0 ef eb 88 3e a7 30 94 bd 5e 90 38 bd 40 48 80 3d
       0.26742503 -0.07235842 -0.045059554 0.062637806
0003b0 f8 5b 37 bd 05 cd 59 3d 76 c1 27 be 88 0a 59 3d
       -0.044765443 0.053174037 -0.16382393 0.05298856
0003c0 64 5a 0c bc 5a c8 f8 3c a3 49 ad 3d 88 a5 3e be
       -0.008566473 0.030368973 0.08461311 -0.18617833
0003d0 3a ef 7e 3d cd 95 76 bd 73 03 f7 bd ec c2 08 3e
       0.062239863 -0.060201455 -0.12061205 0.13355607
0003e0 de 6a b4 3c c2 02 d6 bc 10 82 31 bd ca 5f c4 3d
       0.022023614 -0.026124362 -0.043336928 0.09588583
0003f0 13 d4 a5 3d 71 1f 94 bd 65 34 13 bd 89 4e 3a 3d
       0.080970906 -0.072325595 -0.03593864 0.045485053

network_body._body_endoder.seq_layers.2.bias f4 [128]
000000 00 00 00 00 00 00 00 00 00 00 00 00 00 00 00 00
       0.0 0.0 0.0 0.0
000010 00 00 00 00 00 00 00 00 00 00 00 00 00 00 00 00
       0.0 0.0 0.0 0.0
000020 00 00 00 00 00 00 00 00 00 00 00 00 00 00 00 00
       0.0 0.0 0.0 0.0
000030 00 00 00 00 00 00 00 00 00 00 00 00 00 00 00 00
       0.0 0.0 0.0 0.0
000040 00 00 00 00 00 00 00 00 00 00 00 00 00 00 00 00
       0.0 0.0 0.0 0.0
000050 00 00 00 00 00 00 00 00 00 00 00 00 00 00 00 00
       0.0 0.0 0.0 0.0
000060 00 00 00 00 00 00 00 00 00 00 00 00 00 00 00 00
       0.0 0.0 0.0 0.0
000070 00 00 00 00 00 00 00 00 00 00 00 00 00 00 00 00
       0.0 0.0 0.0 0.0
000080 00 00 00 00 00 00 00 00 00 00 00 00 00 00 00 00
       0.0 0.0 0.0 0.0
000090 00 00 00 00 00 00 00 00 00 00 00 00 00 00 00 00
       0.0 0.0 0.0 0.0
0000a0 00 00 00 00 00 00 00 00 00 00 00 00 00 00 00 00
       0.0 0.0 0.0 0.0
0000b0 00 00 00 00 00 00 00 00 00 00 00 00 00 00 00 00
       0.0 0.0 0.0 0.0
0000c0 00 00 00 00 00 00 00 00 00 00 00 00 00 00 00 00
       0.0 0.0 0.0 0.0
0000d0 00 00 00 00 00 00 00 00 00 00 00 00 00 00 00 00
       0.0 0.0 0.0 0.0
0000e0 00 00 00 00 00 00 00 00 00 00 00 00 00 00 00 00
       0.0 0.0 0.0 0.0
0000f0 00 00 00 00 00 00 00 00 00 00 00 00 00 00 00 00
       0.0 0.0 0.0 0.0
000100 00 00 00 00 00 00 00 00 00 00 00 00 00 00 00 00
       0.0 0.0 0.0 0.0
000110 00 00 00 00 00 00 00 00 00 00 00 00 00 00 00 00
       0.0 0.0 0.0 0.0
000120 00 00 00 00 00 00 00 00 00 00 00 00 00 00 00 00
       0.0 0.0 0.0 0.0
000130 00 00 00 00 00 00 00 00 00 00 00 00 00 00 00 00
       0.0 0.0 0.0 0.0
000140 00 00 00 00 00 00 00 00 00 00 00 00 00 00 00 00
       0.0 0.0 0.0 0.0
000150 00 00 00 00 00 00 00 00 00 00 00 00 00 00 00 00
       0.0 0.0 0.0 0.0
000160 00 00 00 00 00 00 00 00 00 00 00 00 00 00 00 00
       0.0 0.0 0.0 0.0
000170 00 00 00 00 00 00 00 00 00 00 00 00 00 00 00 00
       0.0 0.0 0.0 0.0
000180 00 00 00 00 00 00 00 00 00 00 00 00 00 00 00 00
       0.0 0.0 0.0 0.0
000190 00 00 00 00 00 00 00 00 00 00 00 00 00 00 00 00
       0.0 0.0 0.0 0.0
0001a0 00 00 00 00 00 00 00 00 00 00 00 00 00 00 00 00
       0.0 0.0 0.0 0.0
0001b0 00 00 00 00 00 00 00 00 00 00 00 00 00 00 00 00
       0.0 0.0 0.0 0.0
0001c0 00 00 00 00 00 00 00 00 00 00 00 00 00 00 00 00
       0.0 0.0 0.0 0.0
0001d0 00 00 00 00 00 00 00 00 00 00 00 00 00 00 00 00
       0.0 0.0 0.0 0.0
0001e0 00 00 00 00 00 00 00 00 00 00 00 00 00 00 00 00
       0.0 0.0 0.0 0.0
0001f0 00 00 00 00 00 00 00 00 00 00 00 00 00 00 00 00
       0.0 0.0 0.0 0.0

action_model._discrete_distribution.branches.0.weight f4 [2, 128]
000000 d2 d1 5e bb ce 7d 29 bc 18 21 19 bc 4b 9c 13 3b
       -0.0033999574 -0.010344936 -0.009346269 0.0022523578
000010 0f 23 39 3b f0 9b a7 3b 5a 7b 20 3c 01 e9 21 bb
       0.0028249656 0.0051150247 0.009795034 -0.0024705532
000020 ca 44 a7 3b 9b 85 2a 3b 0b 11 ad 3b dc 02 40 bc
       0.005104636 0.0026019576 0.0052815727 -0.011719432
000030 80 1f d7 39 2f 52 61 3b 92 79 69 3c 53 68 ef 3b
       0.00041031465 0.003438126 0.014250176 0.0073061376
000040 b8 5c 5e bc 60 a5 3e bc dd d8 f5 bb f5 5b ee bb
       -0.013571911 -0.011636108 -0.0075026588 -0.0072741457
000050 07 67 fd 3b c1 76 14 3c 13 23 36 3b 10 c7 72 3c
       0.007733229 0.009061516 0.0027791902 0.014817968
000060 18 a9 de ba 50 b7 3f ba a6 09 8d 3c 8a 25 72 bb
       -0.001698765 -0.00073133875 0.017216515 -0.0036948645
000070 49 3a 27 bc b7 35 14 3c 62 93 9c 3b 50 ff 3c 3b
       -0.010206767 0.00904601 0.0047783116 0.0028838702
000080 19 a0 8c bc 7c ad 15 3c 50 4e e5 3b 35 8d 53 3c
       -0.017166184 0.0091356 0.006997861 0.012912084
000090 d0 40 57 bb 5d 42 da bb d5 57 ea 3a 3b 06 0f 3b
       -0.0032845028 -0.006660743 0.0017878959 0.0021823782
0000a0 7f ad a0 bb 5b a3 93 3b 09 e3 c4 3b aa f8 ae 3c
       -0.004903495 0.0045055575 0.00600851 0.021358807
0000b0 e2 d1 84 bc 73 75 5c 3c 50 6c 93 39 73 2a a1 bc
       -0.016213361 0.013455736 0.00028118724 -0.019673562
0000c0 92 4a fb bb 22 3d 57 bb 86 75 37 39 03 bd 97 bb
       -0.0076688016 -0.0032842834 0.00017496021 -0.0046306862
0000d0 9b cf 29 3b 08 16 ea 3a e8 ce c1 ba e3 b0 42 bc
       0.0025911096 0.0017859349 -0.0014786394 -0.011882993
0000e0 03 71 3a 3c fb fd b6 3c 67 dc e0 ba 5c 73 af ba
       0.011379483 0.022337904 -0.0017155529 -0.001338582
0000f0 81 34 23 3c 45 7b 8f 3b 38 51 b0 bc 78 de b6 ba
       0.009961248 0.0043787085 -0.021523103 -0.0013951799
000100 cb 08 0b bc 6c eb b0 bc 47 73 ce bb 54 cf 8a 3c
       -0.008485983 -0.021596633 -0.006300363 0.016944565
000110 2d 4c 7f bb 24 aa 82 bc f9 31 2f bb f7 fc 39 3a
       -0.0038955316 -0.01595027 -0.0026732667 0.00070948846
000120 f8 a2 d4 3b 1d 55 b5 bb 5f ed 20 3c d4 df c8 b7
       0.006489154 -0.005533828 0.009822219 -2.3946086e-05
000130 05 ef 25 3c d4 20 0a 3c 63 cd 6d bc a1 bb b2 bb
       0.0101277875 0.008430678 -0.0145143 -0.005454496
000140 1b 9d 87 bc dc 1c 04 3c 3c 00 44 3b cb b6 79 3b
       -0.016554406 0.008063521 0.0029907366 0.0038103338
000150 4a d0 ca bb aa aa fe bb 1f 53 03 3c e5 02 12 3c
       -0.006189381 -0.0077718096 0.008015423 0.008911823
000160 48 3f 01 bc 9b 9e e9 3c b5 4b da 3b a0 2f a9 3b
       -0.007888623 0.028518012 0.006661857 0.005163148
000170 c5 da 2a bc 5a c2 50 3c 26 2f 83 bc 50 fc 57 ba
       -0.010428135 0.0127416495 -0.016013693 -0.00082391966
000180 27 fc 0a bc 67 f3 2a bc f4 fc 4a 3a e7 d6 8c 3b
       -0.008482969 -0.010434008 0.00077433814 0.0042980793
000190 19 d4 05 3c 83 80 9e 3b a0 d8 50 bb 13 25 3d bb
       0.008168244 0.004837097 -0.00318674 -0.002886121
0001a0 22 42 fe ba 23 4b 4a bc 2a 8c 65 3c d5 ab 71 bb
       -0.0019398371 -0.012347016 0.0140104685 -0.0036876102
0001b0 f5 a1 d4 ba 00 49 14 3c 20 1e 9c bb 8e b8 2d ba
       -0.0016222583 0.009050608 -0.0047643334 -0.0006626927
0001c0 d8 8c 0c 3b 2e bf 35 bc 3f a0 e2 3b 6f 47 d2 3b
       0.0021446254 -0.011092944 0.0069160755 0.006417207
0001d0 bb e4 3b 3b c7 09 f8 3b da f9 21 bb 16 21 04 3c
       0.002867027 0.007569525 -0.0024715574 0.008064529
0001e0 fb fd 56 bb 77 2a f1 3b bc f3 8c 3b b2 d6 c6 3b
       -0.0032805193 0.0073597985 0.0043015163 0.006068074
0001f0 a1 68 ab bb c4 20 b8 3b 4d be fc bb 0c 54 1a 3a
       -0.0052309786 0.0056191403 -0.0077131153 0.0005887158
000200 4b 54 54 bc 1b d6 d3 3b 4f c0 5c bb f8 a9 50 3c
       -0.01295955 0.0064647323 -0.003368396 0.012735836
000210 f3 df 4c bb c8 b5 57 ba 2d c3 e7 39 3f 7d 73 3a
       -0.0031261414 -0.00082286866 0.0004420517 0.00092883775
000220 12 c1 00 3c 20 6b 07 3c b3 63 40 bc 67 4a 20 bc
       0.007858532 0.008265287 -0.01174252 -0.009783364
000230 48 e4 77 bb c4 f7 02 bc 1d 50 4e 3c 50 28 89 3b
       -0.0037825275 -0.007993642 0.012592343 0.004185714
000240 9d f3 07 bc dd 83 7c 3c 9f 2d 34 3a 52 f1 5c bc
       -0.008297828 0.015412298 0.0006873253 -0.01348527
000250 36 73 14 ba b0 06 56 bb b0 fa 70 3c 3d 00 95 bc
       -0.000566292 -0.0032657795 0.014708206 -0.01818859
000260 6d 86 ef 3b 28 63 72 3c f0 9c 86 bc 95 69 50 bc
       0.007309726 0.0147941485 -0.016432256 -0.012720485
000270 7e e9 c9 bb 6b 93 3a bc 60 2c be 3a dc dc b0 3a
       -0.0061618676 -0.011387686 0.0014509074 0.0013493556
000280 4d fe ea bb 42 79 fc bb eb b9 8c bc 76 15 4a 3c
       -0.0071714283 -0.0077048847 -0.017178496 0.012334218
000290 00 d4 48 b9 70 3c 13 3c 26 d2 8c 3c 4b 51 f3 bb
       -0.00019152462 0.008986577 0.01719005 -0.0074254624
0002a0 ff c7 9a 3b 9f 97 3f 3c 50 18 eb ba a7 f4 0d bc
       0.0047235484 0.011693864 -0.0017936323 -0.008664287
0002b0 07 24 5a 3c 7a b3 f9 3b ed 03 38 3c 18 1a 28 3c
       0.013314254 0.007620272 0.011231405 0.0102601275
0002c0 fd e8 76 3c e5 a7 74 3b 2d 19 f4 3b 42 f8 93 3c
       0.015070197 0.0037331518 0.0074492902 0.018062714
0002d0 1b ae 58 bb a2 73 c2 3b c1 79 b3 ba d2 cf 03 3c
       -0.003306276 0.0059341947 -0.0013692902 0.008045154
0002e0 33 ff 4e ba 33 70 93 3c ee 90 8b bc 76 50 3c 3c
       -0.0007896304 0.017997837 -0.017036881 0.011493793
0002f0 5b d9 1d bc 63 c8 9e 3c a3 09 61 3c 4b 51 01 3c
       -0.009634341 0.019382661 0.013735208 0.007892917
000300 2f 99 bf bb c5 53 c6 bc 1f 2f 61 3b 2f dc 80 3b
       -0.0058471183 -0.024209866 0.0034360362 0.003932498
000310 b7 af 00 3c 5d 68 53 bc 13 50 0e bc fa 39 56 3b
       0.007854394 -0.0129033 -0.008686083 0.0032688365
000320 40 39 70 bb 4c 5c 23 bc 83 7a 03 bc 2f 7e 9e 3c
       -0.0036655217 -0.009970736 -0.008024815 0.019347278
000330 df 0c 72 bc 0f f2 31 3c 5b d6 0c 3c 21 2d 3e bc
       -0.0147735765 0.010860934 0.008596028 -0.011607439
000340 c9 dc 2f bc ae be 9c 3c e7 4f 24 39 8b 32 35 3c
       -0.010733792 0.019133892 0.00015670025 0.011059414
000350 73 44 13 3c f4 2b 4b bc d7 d9 c4 bb 88 f1 b4 bb
       0.0089884875 -0.012400616 -0.006007414 -0.005521957
000360 1f df 61 3b 23 4e b0 bb c0 15 13 3c bf 47 97 bc
       0.0034465266 -0.0053804084 0.008977354 -0.018466828
000370 6b e2 04 bc 3f aa 4f 3a 30 c1 0f bb 5f 9a be ba
       -0.008110623 0.0007921792 -0.0021935217 -0.0014541856
000380 9e ce af 3b 4f 59 66 3c da 13 a8 3a 6f 1c bd bb
       0.005365207 0.014059379 0.0012823299 -0.005771212
000390 06 ae bf 3b 07 69 c2 bb 2a 0d 19 bc 9f 18 27 bc
       0.0058496026 -0.0059329304 -0.009341517 -0.010198741
0003a0 30 df 8c bb 47 7f 3c 3c 95 8b cc 3b cf 8d a6 3a
       -0.004299067 0.011504955 0.0062422254 0.0012707057
0003b0 fd 7f 6e 3c ba 1f 26 bb b0 71 54 bc ef dc 40 3b
       0.014556882 -0.00253485 -0.012966558 0.0029428562
0003c0 33 7f 91 bb 73 e5 e2 3b 85 44 6d 3b 1a ba e8 b9
       -0.004440212 0.006924325 0.003620417 -0.00044389145
0003d0 f2 84 4c 3c d5 86 94 3a bd ef ea bb c7 13 17 bb
       0.0124828685 0.0011331687 -0.0071696923 -0.002305256
0003e0 ce c5 24 3b 78 82 c4 bb 4b 10 52 bc 32 a0 0f 3c
       0.0025142315 -0.0059969984 -0.012821267 0.008766221
0003f0 68 92 58 bc 62 9a 40 3c 7f cb 01 3b 95 60 ce 3b
       -0.0132185 0.011755558 0.001980513 0.0062981346

action_model._discrete_distribution.branches.0.bias f4 [2]
000000 00 00 00 00 00 00 00 00
       0.0 0.0

action_model._discrete_distribution.branches.1.weight f4 [2, 128]
000000 3a 81 f0 bb d4 99 48 bc e8 37 e4 3b b5 07 fa bb
       -0.0073396238 -0.012243707 0.0069646724 -0.0076303133
000010 13 11 b1 bb 66 c4 c2 bb 37 16 67 bb 5f bd c9 3c
       -0.0054036467 -0.0059438227 -0.0035261044 0.024626432
000020 b9 5f 02 bc a7 04 c3 bb 4c 88 9e bb 6b e5 6a bb
       -0.007957392 -0.0059514823 -0.004838025 -0.003584231
000030 e7 8a 43 bb 0c f4 a6 3b f7 98 c7 bb 95 5f fa bb
       -0.002983743 0.0050950106 -0.006091233 -0.007640789
000040 b8 e8 92 3b 30 41 55 3c 43 75 44 3b da a3 76 bb
       0.0044833086 0.01301603 0.002997712 -0.0037634284
000050 9d 69 a2 3b 3e 61 93 3b 48 0a 1e 3c 18 98 5d 3c
       0.0049564377 0.004497676 0.009646006 0.0135250315
000060 42 9c 9c 39 5a d4 8b 3b e8 d1 5b bc 3c 5d 9d 3a
       0.0002987106 0.0042672576 -0.013416745 0.0012005935
000070 5d ef 5f ba 1a 86 e6 39 53 b0 6c 3b 6c dc 3a 3b
       -0.0008542443 0.00043968932 0.003611584 0.002851273
000080 1a c7 20 3c b2 9a 34 ba 16 31 97 bc 95 56 66 bb
       0.0098130945 -0.00068895065 -0.018456023 -0.0035146822
000090 35 dc cb ba 82 21 96 bb 12 fe 6f bc 2a 77 c9 3b
       -0.0015553298 -0.004581631 -0.014647977 0.0061482387
0000a0 ab 10 6a bb eb cf 91 ba 20 a4 52 bc e7 1e 80 bb
       -0.0035715501 -0.0011124586 -0.012856513 -0.003909934
0000b0 57 f7 6c 3b 38 da 8f b8 b3 33 68 3b 37 2e 9f bb
       0.0036158168 -6.859418e-05 0.0035431206 -0.004857804
0000c0 73 73 bb 3a b6 5a b2 3b 28 8f 38 3c f2 a2 03 bc
       0.0014301374 0.0054429425 0.0112646 -0.008034455
0000d0 81 6c c2 bb af 0d b3 bb 28 b2 f7 bb 14 6e a0 3b
       -0.005933345 -0.0054642777 -0.0075590797 0.004895935
0000e0 f9 17 24 3c b8 c4 01 3c 2c bb 44 bb cb 44 3a bb
       0.010015481 0.007920437 -0.003001879 -0.0028422351
0000f0 ff b9 03 3a 98 37 9d 3b e1 b1 c7 3b d1 95 81 3b
       0.0005024969 0.004797887 0.006094203 0.003954627
000100 36 2b a9 b9 66 14 be bb 34 f2 9d 3b f8 62 e5 ba
       -0.00032266387 -0.0058007715 0.0048201326 -0.0017500808
000110 05 91 df 3b ca f9 c1 b9 72 e2 93 3c 4b 7e 16 bb
       0.0068227076 -0.00036997936 0.018052313 -0.002296346
000120 88 1a 75 bc d0 51 23 bc 31 0c 96 bc 3e 6c 0c bb
       -0.014959939 -0.009968236 -0.01831636 -0.0021426822
000130 c8 5e cd b9 f3 fc 66 39 b1 34 89 3a f1 cd a3 3b
       -0.00039171265 0.0002202874 0.0010467974 0.0049989154
000140 1e 79 a3 bb 9b 9b 36 bc 92 fc 74 bb a3 a9 70 bb
       -0.0049888035 -0.011145498 -0.003738199 -0.0036722205
000150 db 40 1d bb 75 1d 44 3a ff cf e6 bb b0 20 4e 3c
       -0.0023994956 0.0007481196 -0.007043838 0.0125810355
000160 73 df 83 bc a6 e8 34 bc 9b 21 97 bb f2 d4 ba 3a
       -0.01609776 -0.011041796 -0.0046121604 0.0014254136
000170 df 38 41 ba 30 ac c3 bc df 41 05 3c 9c 5c b3 3b
       -0.000737084 -0.023885816 0.008133381 0.0054736864
000180 c5 d9 fc bc f0 a4 c3 bb 94 f8 4a bb 67 8e 65 3c
       -0.03086556 -0.00597059 -0.0030970918 0.014011002
000190 1a d9 56 bb bb 36 29 bc d5 d6 4e 3c fa 90 67 3c
       -0.0032783211 -0.01032799 0.012624462 0.014133686
0001a0 15 32 28 bb aa 5a 54 3b c7 25 35 3b df d9 b1 bb
       -0.0025664617 0.0032402673 0.0027640925 -0.0054275836
0001b0 48 5d 67 3b e7 eb 00 3b 98 c2 8d bc da 0c 64 3a
       0.0035303403 0.0019671859 -0.017304704 0.0008699425
0001c0 79 d0 a2 bb 32 b6 f5 3b 9c 21 2a bc 4b f8 bd bb
       -0.0049686995 0.007498526 -0.01038399 -0.005797421
0001d0 43 6a a1 3a df 54 df ba 18 6a 56 3b c7 f9 28 bb
       0.0012314994 -0.0017038843 0.0032717045 -0.0025783645
0001e0 8d 6c 83 bb 24 1a 21 3c dc 50 a1 bb 6b 7a 0d bc
       -0.004010743 0.009832893 -0.0049229693 -0.008635144
0001f0 ef ef 55 3c 35 1f 19 3c 49 be 4b bb 15 7c 48 3c
       0.013057693 0.009345819 -0.003108876 0.012236615
000200 13 7e 17 3c d2 9d a1 b9 e3 75 ba 3b eb 9b 11 3b
       0.009246367 -0.00030825898 0.0056903227 0.0022218178
000210 e2 94 71 bb 2a 25 7d bc c1 b4 27 bb 18 44 f2 ba
       -0.0036862423 -0.015450755 -0.0025589915 -0.0018483428
000220 f5 85 6b b9 cf 07 29 bb af 23 46 bc a5 eb 51 bc
       -0.0002246125 -0.0025792008 -0.012093469 -0.01281253
000230 62 aa 65 bc 4a 74 e0 3b 2b 80 ad 3b fe 01 80 3c
       -0.014017673 0.0068498002 0.00529482 0.01562595
000240 c2 ae 3f 3b 6a 3d f0 bb 88 f7 3b bc b2 c0 de bb
       0.002924845 -0.00733154 -0.01147259 -0.0067978734
000250 00 3d 05 3a 97 05 ef bb a2 f9 72 3b 43 a4 d6 bb
       0.0005082637 -0.0072943675 0.0037075062 -0.0065503432
000260 5f 07 be ba 03 0c 10 bc 6a c7 07 3c ad a7 4d 3b
       -0.0014498046 -0.008791926 0.00828729 0.003138046
000270 9d a4 0f 3b 47 c6 ce bc 2d bb 5c 3b 72 1e 36 bc
       0.0021918186 -0.02524103 0.0033680901 -0.011115657
000280 e8 62 45 3c 38 be 59 3c 62 c0 0b b9 33 9b b3 3a
       0.012047507 0.013289981 -0.00013327741 0.0013702869
000290 e6 fe c7 3b be 7f 8c 3b 0a e1 c2 3a ec 14 1f bc
       0.0061033843 0.004287689 0.0014868092 -0.009709578
0002a0 da 29 80 3c 85 30 20 bc 5b cb 07 3c 3b bb 95 bb
       0.015644956 -0.009777193 0.00828823 -0.0045694388
0002b0 53 3d 08 bc 85 68 b6 bb b5 4b b1 bc 23 14 b1 bb
       -0.008315402 -0.005566659 -0.021642545 -0.005404012
0002c0 e8 55 83 bc f7 7a 51 bc 35 64 1e bc 14 11 c6 b8
       -0.016032174 -0.012785665 -0.009667446 -9.444557e-05
0002d0 76 d0 94 3c 9b 41 6f 3c 4b 73 e9 bb 13 9c 30 3c
       0.018165808 0.014603044 -0.0071243397 0.0107793985
0002e0 e7 74 f6 3b 3a c8 ac 3b 30 0f 2b 3c da 6d 6b bb
       0.00752126 0.0052728923 0.010440633 -0.003592363
0002f0 f0 2b ea bb 0f 36 d4 b9 d7 5c 91 bb 32 ba d4 ba
       -0.007146351 -0.00040476068 -0.004436116 -0.0016229807
000300 72 01 68 3c 8f da 57 3a a2 ce 1d bc e3 3a b4 3a
       0.014160501 0.0008234167 -0.009631785 0.001375046
000310 62 9c ce ba 8c dc 2e bb 0a 60 64 3c 77 f7 94 3c
       -0.0015763158 -0.002668175 0.013938913 0.018184407
000320 ed 7b 64 bc 20 67 3b bc 7f 27 6a 3c 61 44 86 bc
       -0.013945562 -0.011438161 0.014291643 -0.016390027
000330 c7 e4 0f bc dd 09 a5 3c 13 fc 9b bb 98 0c 67 3c
       -0.008782572 0.020146305 -0.004760274 0.014102124
000340 10 26 79 3c ee 4a 2c 3c 6b 60 f7 3a 67 b5 a0 bb
       0.015206829 0.0105159115 0.0018873339 -0.0049044373
000350 f7 19 9d 3c 4d d2 c6 bb 3f 56 1c b9 82 f4 9d 3b
       0.01917742 -0.0060675503 -0.00014909449 0.0048204074
000360 c4 43 ad 3a d6 a4 2a 3c d9 1c a1 3c dd 58 51 3c
       0.0013219048 0.0104152765 0.019667076 0.012777534
000370 a8 b4 d1 bb 17 da 3c bb 9f df 60 bb ea 99 6f ba
       -0.0063997097 -0.0028816515 -0.0034312976 -0.00091400614
000380 2e 9d 84 3c 32 28 62 3b c9 45 0c bc 57 2f a0 3b
       0.01618823 0.0034508822 -0.00856156 0.004888456
000390 cf f2 ed 3b 85 fe 96 bb 7b 5a d9 3b aa 55 44 3c
       0.007261611 -0.004607978 0.0066331006 0.0119833145
0003a0 12 5c 1c ba 0b d5 f6 3b 9a 88 2a 3c 24 23 1e 3b
       -0.0005964647 0.007532721 0.010408545 0.0024129832
0003b0 f1 29 b0 bb 6b aa c9 bb c4 3c 0d bb 63 62 27 3b
       -0.0053760936 -0.0061543486 -0.0021551112 0.002554082
0003c0 60 fa 67 bc b2 02 9e 3b d7 17 a9 39 08 2b 96 3a
       -0.014158815 0.0048220987 0.00032251954 0.0011456916
0003d0 dd 2a 7a bb 15 b1 c1 3b f7 82 8f 3b e3 3f 8f 3c
       -0.003817252 0.0059110024 0.004379626 0.017486518
0003e0 4e 73 2d bc 7d 26 ce 3b e7 f5 0c 3c 5f 0c 6d bb
       -0.010586573 0.0062912093 0.00860355 -0.0036170704
0003f0 96 79 ac bb 8d 72 7e 3a de 81 ad 3b ed f8 3c 3c
       -0.0052635176 0.00097064005 0.0052950224 0.011533958

action_model._discrete_distribution.branches.1.bias f4 [2]
000000 00 00 00 00 00 00 00 00
       0.0 0.0

action_model._discrete_distribution.branches.2.weight f4 [2, 128]
000000 36 64 3f 3b b9 ef 81 bb 12 9d f4 bb cf ab 88 3a
       0.0029204017 -0.0039653447 -0.0074650133 0.001042718
000010 9b 49 ac 3b 17 a6 60 bc 1f 52 f6 bb 19 49 ae bc
       0.005257798 -0.013711474 -0.007517114 -0.02127509
000020 eb 2a 42 bc 04 ff 16 3a ae fd 80 ba d7 6f ac 3b
       -0.011851053 0.0005760046 -0.0009841227 0.005262356
000030 36 f5 07 bc 79 e0 35 3a 62 e9 57 3c 28 5c 23 bb
       -0.008298209 0.0006938051 0.013178201 -0.0024926756
000040 70 e3 61 3c 15 a7 b3 3b 25 df a0 bc 69 fa 1a bc
       0.0137871355 0.005482564 -0.019637654 -0.0094591165
000050 94 13 3a 3c ab 56 9c 3c 18 f6 f3 3b 12 9b d7 3b
       0.011357207 0.019084295 0.007445108 0.006579765
000060 e2 b5 0f 3c 60 8c b8 38 a7 70 fa bb 8e e6 13 bb
       0.008771392 8.7999506e-05 -0.0076428237 -0.0022567841
000070 e9 d0 04 3a c5 69 35 3a b8 85 00 3b 92 5a 86 3b
       0.00050665304 0.0006920363 0.0019610953 0.0041001523
000080 92 81 56 3b 80 bb 75 bc 67 57 9f 3b fa 86 04 3c
       0.0032731039 -0.014998317 0.004862714 0.008088822
000090 6c b4 8a ba 4b de 0a 3c 3f 9e e9 bb 72 93 56 3b
       -0.0010582334 0.00847585 -0.00712946 0.0032741693
0000a0 20 4d 64 bb 5a 2e 52 bb 2f bd 7c bc cb 00 e3 bb
       -0.003483601 -0.0032071085 -0.015425964 -0.0069275848
0000b0 42 ed 0e bc 0f a3 e4 ba 57 ef eb 3b 12 48 c2 3b
       -0.008723559 -0.0017443615 0.0072001624 0.0059290016
0000c0 9d 2d 5c bc d4 f2 27 3b c4 29 04 3c 4f 71 56 bb
       -0.013438609 0.0025626915 0.008066598 -0.0032721346
0000d0 e3 59 02 bc 1e 85 b1 bb 7b 0a e6 3b fd 44 ae bb
       -0.007956001 -0.00541748 0.0070202923 -0.0053182826
0000e0 5b 20 14 3b 08 09 7a b9 df b3 f9 39 eb 72 3a 3c
       0.0022602293 -0.00023845222 0.00047626995 0.011379938
0000f0 96 4f 36 3b fb ac 3d 3b 13 7f 9a 3b 4a ea d5 ba
       0.0027818433 0.0028942216 0.0047148555 -0.0016320434
000100 f7 ac 99 3b e7 ee 96 3b ba 75 e5 bb 41 f8 8d bb
       0.0046898085 0.004606116 -0.0070025595 -0.0043325727
000110 9c 8e a9 3b 59 fa aa bb 46 2d af 3c a3 d3 1b 3c
       0.005174471 -0.005217832 0.021383893 0.009510907
000120 73 62 13 3c ef fc 28 3a d3 0d 24 bc 9d 12 e2 37
       0.00899564 0.00064463814 -0.010013062 2.6949967e-05
000130 1e ca 1c bb dd e7 f7 3b 93 72 3c bb fc df 04 bc
       -0.0023924182 0.007565482 -0.0028754815 -0.008110043
000140 85 6f 9b 3b 0a 62 5b 3b 57 3b 22 bc e7 27 57 bc
       0.004743519 0.0033475184 -0.009901843 -0.013132072
000150 8b 78 fd 3b 6d 02 a5 bb cb 64 44 3c 87 9f a9 3b
       0.007735317 -0.0050356896 0.011986922 0.005176488
000160 47 62 39 bc ef a2 15 3a b0 fc fd 3a e7 6d 2c 3c
       -0.011314935 0.0005708178 0.0019377675 0.01052425
000170 45 ed 2c 3b 1b 1b 91 bc c2 04 98 3b 57 e3 88 bc
       0.002638654 -0.01771312 0.004639239 -0.016709967
000180 5a d5 3d 3c 8f 71 b2 3c b5 30 02 bb 57 30 42 3b
       0.0115865115 0.021782665 -0.0019865457 0.0029630864
000190 f8 ee f9 bb 1a 44 09 3c 03 10 71 bb 10 d2 6c bb
       -0.0076273642 0.008378053 -0.0036783225 -0.003613595
0001a0 a2 48 d6 ba 2e 3d 16 bc 98 3b ff bb 90 70 07 3c
       -0.001634855 -0.00916986 -0.0077890866 0.008266583
0001b0 90 cf e2 3a eb 77 5b bb f6 66 c3 3c fa 9f 28 bc
       0.001730429 -0.0033488225 0.023852807 -0.010292048
0001c0 33 02 10 bb ee 5d c2 bb 3d 65 d3 3a 5c f5 8e bc
       -0.0021973967 -0.0059316074 0.0016128194 -0.01745098
0001d0 84 2d 4a bb 31 4a 81 bb 84 69 87 3b 33 63 1d bc
       -0.0030849883 -0.003945612 0.0041324515 -0.0096061705
0001e0 a7 31 95 bb b6 1d c7 3b af f6 53 3c fd f9 65 3c
       -0.004553038 0.00607654 0.012937232 0.014036653
0001f0 bb 97 40 3c 27 59 8b 3a b7 9d 99 3c dd a3 57 3c
       0.011754925 0.0010631428 0.018751962 0.013161627
000200 aa c6 e6 3b 21 cb 9d bb 56 c8 03 ba eb 5b 18 bc
       0.0070427256 -0.0048154746 -0.0005027106 -0.009299259
000210 6b e9 01 bc df 10 97 bb 07 74 f3 3c 48 89 51 3c
       -0.007929186 -0.0046101655 0.029718412 0.012789078
000220 cf 0c f5 3b 1d c5 b7 3b e2 c5 f4 39 a5 75 35 bc
       0.0074783335 0.0056082145 0.0004668674 -0.011075412
000230 cf 37 04 bc 0d 3c d7 3b 89 cf 06 3c 72 62 5b bc
       -0.008069946 0.006568438 0.008228191 -0.01339017
000240 0d 21 23 3c df 6e 0b bb 28 fb e8 3b 37 29 7b 3b
       0.00995661 -0.00212758 0.0071100183 0.0038324127
000250 41 13 cb bb eb 13 98 b9 a7 0d 2c 3c e3 fd 30 3b
       -0.0061973636 -0.0002900654 0.010501302 0.0027006797
000260 d9 47 10 3c a3 66 51 3c 9c 5c 90 3b df 12 ae 3a
       0.008806192 0.012780818 0.004405571 0.001328077
000270 6a 35 cd bc 73 6b 3d bb d5 4a a2 3b b7 0b 63 bb
       -0.025049884 -0.0028903156 0.0049527683 -0.0034644434
000280 0f e4 bc 3b 2a 1d ec 39 d8 2c cd 3c e6 18 c8 3b
       0.0057644914 0.00045035157 0.025045797 0.0061064838
000290 49 da 3f bb ed af fa bb 3a a8 05 3c 60 0c 75 bb
       -0.0029274395 -0.0076503665 0.008157784 -0.003739141
0002a0 99 d5 18 3c f8 df fe 3b e3 49 a7 ba 8e f4 18 3c
       0.009328269 0.007778164 -0.0012763109 0.00933565
0002b0 ef 3d 51 3b ed 1c 7b 3b 3a 45 21 3b 51 3c 3b bc
       0.0031927784 0.0038316802 0.0024607913 -0.011427955
0002c0 a7 6c 9e 3b b0 2f 18 3c f3 b6 10 bc eb 4d 1e 3c
       0.0048347297 0.009288713 -0.008832681 0.009662132
0002d0 73 a5 8f bc 47 a4 95 3a 3b 7f 54 3c 22 6c 2c bc
       -0.017534947 0.0011416756 0.012969787 -0.010523828
0002e0 3f d6 b2 ba b3 aa 90 ba 67 a6 53 3c e6 5f 8d bb
       -0.0013644173 -0.00110372 0.012918091 -0.0043144105
0002f0 10 1a dc bb b8 dc 0a bb 3b d3 5b 3b 53 21 c8 3b
       -0.006716974 -0.0021188688 0.0033542651 0.006107488
000300 35 98 60 3c f2 26 96 bb d4 90 08 bb f5 4a 87 bb
       0.013708164 -0.0045822794 -0.0020838277 -0.0041288086
000310 a3 b2 c4 3c 13 95 a5 bb ec c0 98 ba 75 96 7a 3c
       0.024010962 -0.0050531714 -0.0011654175 0.015294661
000320 9a b7 a5 bc 77 5b ee 3a 65 b1 2c 3c 77 57 02 bc
       -0.02022915 0.0018185218 0.010540341 -0.007955424
000330 78 2d cd bb 29 30 0d bc 97 d0 55 ba 5f 86 15 bc
       -0.006261524 -0.008617439 -0.00081563875 -0.009126275
000340 12 cf 7a bc 85 b0 ed ba 6f 92 9d bc 6e 92 41 3a
       -0.0153081585 -0.0018134272 -0.019234864 0.00073841854
000350 28 f7 dc bb d2 4d 38 bc b1 d0 0d 3c 97 65 9c 3b
       -0.0067433305 -0.011249023 0.008655713 0.0047728526
000360 a8 5f 26 3b 8f bb fb ba 93 f3 67 bc e5 74 93 3b
       0.0025386605 -0.0019205677 -0.014157194 0.004500019
000370 68 9b 91 3b be 4c 91 3c 7c 37 2b b9 0a 38 4d bb
       0.0044435747 0.017736789 -0.000163285 -0.003131392
000380 3f ce 18 bb 2a b2 08 bc bf 7f 7a bc 68 1c 6b 3b
       -0.0023316292 -0.008343259 -0.015289246 0.0035875086
000390 48 81 81 bc 81 a6 9f bc d7 9f a0 3b 2b 94 4d bb
       -0.015808716 -0.019488575 0.004901867 -0.0031368833
0003a0 81 7a a3 bb 19 80 35 bc 8d 39 52 bb 02 d1 82 bc
       -0.004988969 -0.011077904 -0.003207776 -0.015968803
0003b0 3f 41 19 3b 7f 51 b5 ba 48 13 b6 ba e0 2e e2 3b
       0.0023384837 -0.0013833492 -0.0013891244 0.0069025606
0003c0 c1 c5 0e bb f5 43 de 3b 07 49 44 3c 30 8d cf 3a
       -0.002178535 0.0067830035 0.011980302 0.0015834924
0003d0 77 80 49 bc e8 99 09 3c 65 f1 76 bb c1 f5 c8 bb
       -0.012298695 0.0083985105 -0.0037680503 -0.006132812
0003e0 63 e2 16 3b 40 fc 00 bc a4 3e 23 3c 7d f1 50 bc
       0.002302312 -0.007872641 0.009963665 -0.012752888
0003f0 e0 c4 c5 ba 25 92 27 3b 7b af a4 ba a7 65 5f bb
       -0.001508858 0.0025569287 -0.0012564504 -0.003408769

action_model._discrete_distribution.branches.2.bias f4 [2]
000000 00 00 00 00 00 00 00 00
       0.0 0.0

action_model._discrete_distribution.branches.3.weight f4 [2, 128]
000000 9f 42 39 3c 91 a6 c2 3a 63 c9 0b bc fd b9 7b 38
       0.011307388 0.0014850666 -0.008531901 6.001628e-05
000010 15 bc 04 bc e3 41 aa 3b 62 83 e4 3a 4f e0 74 3b
       -0.008101483 0.0051958426 0.0017434175 0.0037365144
000020 98 38 f6 39 7d fb ba bb 2a 84 06 3c 28 2b 33 b9
       0.00046962942 -0.0057062493 0.008210221 -0.00017086847
000030 8b 4b 6b ba f1 98 c7 bb 3f 7c 99 ba c7 83 18 bc
       -0.00089757954 -0.00609123 -0.0011710002 -0.009308762
000040 97 56 ad 3c 4d 61 43 3c 0f ac dc 3b 02 d1 4c 3b
       0.021159453 0.011925054 0.006734378 0.0031252508
000050 ef d8 8d bb 6b e7 41 3c 2b b1 e1 bb 43 ad 16 bc
       -0.004328839 0.0118349595 -0.006887575 -0.009196582
000060 08 4b 46 bb b5 84 e0 3a 2a fd bd bb b7 e6 b4 bb
       -0.0030257124 0.0017129394 -0.005798002 -0.0055206674
000070 1b a8 a0 3b 60 7c d3 3b 70 57 e9 3b 93 e8 58 bb
       0.0049028522 0.0064540356 0.007121019 -0.003309761
000080 a2 db c9 39 a5 f5 5b 3a 95 38 29 ba b1 bf 04 bc
       0.00038501347 0.0008390791 -0.000645527 -0.008102343
000090 e2 fb c4 3b f0 b3 8c 3b 47 60 89 3b 8f de 6e 3c
       0.006011472 0.004293911 0.0041923854 0.014579429
0000a0 af b3 32 3c 84 0b 2f ba d2 7c 07 3a c3 4c 08 3c
       0.010907098 -0.0006677436 0.0005168441 0.008319083
0000b0 8e 3c a1 3b 6b ca 87 3c 0d a2 4f bb cb e5 95 3c
       0.0049205488 0.016576013 -0.0031682283 0.01829805
0000c0 c5 04 13 bc 69 39 95 bc b8 c3 98 bb 89 d5 0f bb
       -0.008973305 -0.018215852 -0.0046620034 -0.0021947345
0000d0 42 bc 0e 3b 8f 0a b8 bb 92 b6 52 3c a3 e7 3b 3c
       0.002177969 -0.005616493 0.012860911 0.011468801
0000e0 0f 37 96 bb bb 39 ea b8 42 dc 77 bb 1b 95 58 bc
       -0.0045842 -0.00011168743 -0.0037820493 -0.013219143
0000f0 42 d5 0e bb 5f e6 20 bc 53 a9 0d 3c fb 1a c8 3b
       -0.0021794592 -0.00982055 0.008646327 0.006106732
000100 1f 2c 8f 3b c7 cf 35 3b b5 7b 65 3c 4f 46 43 bb
       0.0043692733 0.0027742253 0.014006545 -0.0029796546
000110 93 69 9d bb aa 99 d3 bb bb 40 af bc 3f 64 56 3c
       -0.004803845 -0.006457527 -0.02139317 0.013085424
000120 2a 51 3a ba 33 6b 34 bc 67 b9 89 bc 62 8c 4c 3b
       -0.00071074313 -0.011011886 -0.01681204 0.0031211604
000130 eb 7a 9b 3b 14 42 ab bc 8f e2 1d 3c cd 15 b4 bb
       0.0047448776 -0.020905532 0.009636535 -0.005495763
000140 d7 8a 49 3c 3f 6d 16 bb 9b df 8d ba c8 96 49 bb
       0.012301168 -0.00229533 -0.0010824086 -0.0030760039
000150 3b 73 6f bc db 0d a2 bb 2f ad 62 bb 9f fe 41 3c
       -0.014614875 -0.0049454994 -0.0034588089 0.011840492
000160 4f f4 60 3b 12 10 62 bc df 6a ca 3b 67 1e f7 3b
       0.0034325307 -0.013797777 0.006177291 0.007541466
000170 70 5a d9 bb 22 dd 7f 3c f2 6b ce 3a 11 38 32 bc
       -0.0066330954 0.015616687 0.0015748723 -0.010877625
000180 6a d6 34 bb 26 bb b6 bb 1b a3 8e 3c c5 52 6f bc
       -0.002759362 -0.005576509 0.01741176 -0.014607136
000190 ad 5d 51 3c 3b 64 2b bc a7 11 c0 3b e8 23 b0 bb
       0.012778682 -0.0104609085 0.0058614793 -0.005375374
0001a0 f7 05 ad 3a 6b 22 98 3c 6a 24 00 3c 34 0a 8a bb
       0.001320063 0.0185711 0.007821182 -0.004212642
0001b0 db ca a9 3b 02 1b 77 3b 07 5f ed 3b fc c2 88 3c
       0.005181653 0.0037705307 0.007243994 0.016694538
0001c0 2b 76 1c 3c 57 f0 9a 3b 83 27 4b 3c a1 87 1d 3c
       0.009549658 0.004728358 0.012399557 0.009614856
0001d0 bd 48 6c 3b fc 69 ab bb 25 af d4 bb 59 b7 30 bb
       0.0036054098 -0.00523114 -0.0064906054 -0.0026964752
0001e0 46 54 80 3b 8d 7a a0 3b 10 89 ee 3b 5f a9 97 3b
       0.003916296 0.0048974217 0.0072795227 0.004628345
0001f0 a5 eb aa 3c ca 6d 43 3b 8b c0 41 bc 52 3b 8f 3c
       0.020864317 0.0029820078 -0.011825691 0.01748434
000200 30 33 0b bb 3b ac 95 3b d7 40 78 3c f8 9a 7f 3c
       -0.0021240227 0.0045676506 0.015152178 0.015600912
000210 7f e4 d3 ba d2 0a 84 3b 39 aa 4c 3b 0b 0f 13 3c
       -0.001616612 0.00402961 0.003122939 0.0089757545
000220 f0 9c 26 bc 63 33 bf bb 67 0e c2 bb 78 53 5d 3c
       -0.010169253 -0.005834983 -0.005922127 0.01350867
000230 ff 0e 02 3c fa 69 e6 3b cf 10 69 39 f0 97 83 3b
       0.007938146 0.0070316764 0.00022226873 0.004015915
000240 50 1e 20 b9 38 67 1b 3c fa cb ce bb 3b 1f f6 bb
       -0.00015270081 0.0094850585 -0.006310937 -0.007511047
000250 4e f6 3f bc 22 46 81 3b 49 f7 34 bb 33 b6 03 3b
       -0.011716438 0.003945128 -0.0027613214 0.0020097613
000260 dd 4a 86 bb 63 41 82 3b 25 72 76 3a 3f 32 15 bc
       -0.00409828 0.00397508 0.0009401164 -0.009106218
000270 c2 c8 0c bc 8b b4 90 3c f3 42 50 bc a4 97 14 3c
       -0.008592786 0.017664215 -0.012711274 0.009069357
000280 63 53 02 39 27 6c c9 bb 64 c2 11 3c 92 f7 d0 bb
       0.0001242883 -0.006146926 0.008896444 -0.006377169
000290 2b 37 ea 3b 38 ae 22 3b df 24 b1 3b 20 e6 a1 bb
       0.00714769 0.002482308 0.0054060067 -0.004940763
0002a0 4c 7f 1f bc ff 15 80 ba 1a 65 e8 bb a1 41 2b 3c
       -0.00973494 -0.000977218 -0.0070921304 0.010452659
0002b0 c7 bd 81 bb 23 44 ab 3b f9 b2 b5 bb d7 3a a2 3b
       -0.003959391 0.0052266284 -0.005545017 0.004950862
0002c0 c3 f2 99 bb 10 9e 79 3b 64 d3 1d bc 3f 72 5a bc
       -0.004698129 0.0038088597 -0.009632919 -0.013332902
0002d0 f8 d8 d4 bb d3 23 5f bb 80 a1 6a bb cb f0 de 3b
       -0.0064955913 -0.0034048453 -0.0035801828 0.006803607
0002e0 6b 5a 24 bc 9b 49 f5 39 55 9f c1 bc 8b f5 dc ba
       -0.010031323 0.00046784882 -0.023635546 -0.0016857845
0002f0 89 7b ab 3b f8 4d 62 39 22 51 fd 3b d7 06 2f bb
       0.0052332324 0.00021582085 0.007730619 -0.0026706958
000300 87 72 d8 3b 13 4b a0 3a 7f 4a 18 bc 77 d2 63 bc
       0.0066054496 0.0012229405 -0.009295105 -0.013905159
000310 6b 8e 69 bc ce 9c a1 bb 3b 64 e3 bb 52 e0 53 ba
       -0.0142551465 -0.0049320227 -0.0069394386 -0.00080824376
000320 5f f7 a3 bb 71 94 28 bb 7e a6 80 38 40 7c e6 3a
       -0.005003854 -0.0025723244 6.134527e-05 0.0017584637
000330 ff d5 88 bc bf 02 6c 3c 4d 7f 02 3c b8 46 a5 bc
       -0.016703604 0.014404952 0.007964921 -0.020175323
000340 28 82 36 3b cc bd 09 bb 9d ed 33 3c 67 60 dc ba
       0.0027848575 -0.0021017669 0.010981944 -0.0016813398
000350 08 66 a4 3a 5f 76 b1 3c e5 88 f1 39 14 5c 0e bc
       0.0012542615 0.021662889 0.00046069096 -0.008688945
000360 0c fa 14 ba 4a 8e d3 3a dc 13 36 3c fb 7b f9 bb
       -0.0005683012 0.0016140428 0.011113133 -0.0076136566
000370 07 e4 db bb 45 ab 60 3c 60 a5 02 3c 9d 4e 46 3a
       -0.0067105326 0.013712709 0.007973999 0.0007564815
000380 eb 2a 91 3b 53 51 01 bb 06 10 34 3c c1 ad 3b 3c
       0.004430165 -0.001973231 0.010990148 0.011455
000390 bf f1 90 bc 63 ce 63 ba 74 db 1b bb a0 64 05 3c
       -0.017693399 -0.0008690117 -0.0023781927 0.008141667
0003a0 4d 7d 1f bc 3a 21 5f 3b 55 9e 3d 3b 8f 35 fd bb
       -0.009734464 0.0034046904 0.0028933485 -0.007727332
0003b0 82 fb 6e 3b 8b a4 5a bb aa 58 39 3c 48 4c e5 3b
       0.0036465828 -0.0033362235 0.011312643 0.006997619
0003c0 0f e3 96 3b 91 a7 ac 3c b7 39 5a 3c 9f 58 97 3b
       0.004604704 0.021075996 0.013319424 0.0046187188
0003d0 ef 6a fb bb 23 1f ac bb 95 6c e0 3b 8a 2c 79 3b
       -0.0076726596 -0.005252735 0.0068488815 0.0038020932
0003e0 6f 39 0a 3c 6e 29 38 bc 9d 46 15 bc df 00 c8 bb
       0.008436545 -0.011240346 -0.009111074 -0.0061036195
0003f0 a2 3d 78 3c d1 bd 18 bc 7b cb 41 3b e2 1f 43 bb
       0.015151413 -0.0093225995 0.0029570747 -0.0029773642

action_model._discrete_distribution.branches.3.bias f4 [2]
000000 00 00 00 00 00 00 00 00
       0.0 0.0
