Assets/results/ppo/My Behavior/My Behavior-196.onnx (onnx, 156809 bytes, 20 tensors)

discrete_act_size_vector f4 [1, 14]
2.0 2.0 2.0 2.0 2.0 2.0 2.0 10.0
10.0 10.0 10.0 10.0 10.0 10.0
00000000: 0000 0040 0000 0040 0000 0040 0000 0040
00000010: 0000 0040 0000 0040 0000 0040 0000 2041
00000020: 0000 2041 0000 2041 0000 2041 0000 2041
00000030: 0000 2041 0000 2041

network_body._body_endoder.seq_layers.0.weight f4 [128, 24]
0.21598746 -0.12596275 -0.2173142 0.02736641 0.26961723 0.18305057 -0.05830417 -0.18649961
0.0077510676 -0.12863357 0.31126028 0.07521552 0.30685925 -0.17541882 -0.14696366 -0.29957792
0.06305622 0.10320142 -0.31931552 -0.0942182 -0.060277935 0.51909626 0.08072938 0.17473312
-0.31659824 -0.008724784 0.114769295 0.22029041 -0.3791306 0.36692455 -0.18447118 -0.052353952
-0.27355137 0.1599165 -0.5732485 -0.18345211 -0.058787193 -0.095365666 0.08282304 0.07074841
0.055305544 -0.260864 -0.1590207 -0.05146406 0.35634968 -0.11092443 -0.107584015 -0.038097363
0.22401705 0.09480505 0.3499274 -0.114791125 0.010143578 0.046694033 -0.19640999 0.18705237
0.04221323 0.022801828 -0.37648022 -0.065566346 -0.04918392 -0.4827511 0.4959637 0.16197583
0.16000934 -0.03620934 0.012043323 -0.064609475 -0.011078838 -0.012696345 0.37968662 0.1386653
0.123812586 0.23017739 0.31247064 -0.16510782 0.11801656 -0.08351884 0.31043354 -0.15469061
-0.0061672945 -0.08755685 -0.13639617 -0.02230932 -0.12125518 -0.28341746 0.13556875 0.08994591
0.1449937 -0.04052557 0.43646768 0.05393183 0.110531725 0.22777711 -0.23478435 0.009128795
-0.46008226 0.24036784 0.18450576 -0.088650875 -0.10783842 -0.39229724 0.013909663 0.19605611
-0.49292895 0.4941859 -0.21532845 0.025824914 0.43361482 -0.04060498 0.070780836 0.1003264
-0.21249668 0.046813082 -0.025799014 0.12506628 -0.21033253 -0.01691713 0.18384233 0.05706451
0.12976356 0.03137742 -0.033364512 0.055780407 -0.09967888 0.05894561 -0.28440925 0.195276
0.024348244 0.12825134 -0.24877441 0.15126477 -0.24267451 0.016754815 -0.049607333 0.09157916
0.31538188 0.124018885 0.11422534 -0.21262863 -0.037885383 -0.0916859 0.25900516 -0.24516894
-0.35777217 0.038955525 0.14004108 -0.24643843 -0.07350743 0.013146139 0.30325538 -0.1712888
0.60751456 -0.17621534 0.27929968 0.0397029 0.0037660697 -0.01757684 -0.12646425 -0.059520427
-0.18279333 -0.12614542 -0.07860632 0.03207583 0.19102065 -0.0070485095 -0.22489364 -0.05529915
-0.08191473 -0.31537813 -0.10050794 0.2078032 0.2923832 -0.02602164 -0.1799462 -0.096570686
0.005132676 0.057057824 -0.15104313 -0.061361555 -0.5442395 -0.039487064 0.16236064 0.048300236
0.18845348 0.06587373 -0.18484303 0.036326792 -0.19934283 0.111944884 -0.2696999 -0.35660237
0.1989989 -0.13864015 -0.10778799 0.18956189 0.11151488 0.23693585 0.13937862 0.223228
0.10168654 -0.1433139 -0.19685046 0.3331916 0.489813 -0.45767367 0.13240317 0.04231562
-0.040598575 -0.069414005 -0.090857685 -0.037421696 -0.045934785 -0.52545327 -0.04095481 0.0725537
-0.28390592 0.36382806 0.19089863 0.01055921 -0.1099294 -0.045967154 -0.1867998 -0.1185303
-0.007534155 0.18665361 0.29326355 -0.08912024 0.007990002 0.123818874 0.02971352 0.123054974
-0.24585892 -0.094586685 -0.15416339 -0.10118099 -0.10485579 0.26103383 -0.026398055 -0.017063303
-0.065067574 0.09649231 0.15806936 0.10132297 -0.19846685 -0.05127999 0.12915213 0.3830502
-0.24692088 0.07336707 -0.1431845 0.3803734 -0.081104346 0.29211363 -0.12031912 -0.030129163
00000000: d12b 5d3e 61fc 00be 9d87 5ebe 852f e03c
00000010: 450b 8a3e 9c71 3b3e 5ad0 6ebd c1f9 3ebe
00000020: abfc fd3b 85b8 03be 825d 9f3e 980a 9a3d
00000030: a81c 9d3e fea0 33be a47d 16be 4762 99be
00000040: 9f23 813d 445b d33d 537d a3be 79f5 c0bd
00000050: ffe5 76bd 7ee3 043f 7255 a53d 3ded 323e
00000060: 2a19 a2be 65f2 0ebc 2a0c eb3d cf93 613e
00000070: 681d c2be 89dd bb3e 03e6 3cbe 1971 56bd
00000080: ed0e 8cbe 27c1 233e 6ac0 12bf dfda 3bbe
00000090: d7ca 70bd 134f c3bd 209f a93d 8be4 903d
000000a0: 1188 623d f78f 85be 53d6 22be facb 52bd
000000b0: 7773 b63e 592c e3bd 0255 dcbd fb0b 1cbd
000000c0: ba64 653e 2629 c23d af29 b33e 9c17 ebbd
000000d0: 4031 263c 3e42 3f3d b31f 49be a88a 3f3e
000000e0: c8e7 2c3d e6ca ba3c 04c2 c0be a647 86bd
000000f0: 1475 49bd 272b f7be f4ee fd3e fedc 253e
00000100: 7dd9 233e 3f50 14bd 5c51 453c f951 84bd
00000110: 0484 35bc 5504 50bc 4966 c23e 47fe 0d3e
00000120: 7491 fd3d 9fb3 6b3e 27fc 9f3e 0612 29be
00000130: abb2 f13d ed0b abbd 25f1 9e3e 3767 1ebe
00000140: 0417 cabb 0151 b3bd 70ab 0bbe 09c2 b6bc
00000150: a354 f8bd 181c 91be 89d2 0a3e 9035 b83d
00000160: 3a79 143e 24fe 25bd b178 df3e 9fe7 5c3d
00000170: 755e e23d 673e 693e 4f6b 70be f190 153c
00000180: e78f ebbe fd22 763e 14ef 3c3e 978e b5bd
00000190: 64da dcbd 2fdb c8be 5be5 633c efc2 483e
000001a0: 2f61 fcbe ef05 fd3e 107f 5cbe c58e d33c
000001b0: c302 de3e 6851 26bd 8bf5 903d ed77 cd3d
000001c0: bb98 59be 13bf 3f3d 7458 d3bc 6011 003e
000001d0: 6961 57be cb95 8abc 2a41 3c3e 7abc 693d
000001e0: bde0 043e 9c85 003d 3aa9 08bd ff79 643d
000001f0: 7124 ccbd f470 713d 179e 91be 6ff6 473e
00000200: f875 c73c 5254 033e b8be 7ebe 27e5 1a3e
00000210: ab7f 78be 6541 893c 0f31 4bbd db8d bb3d
00000220: bc79 a13e 9dfd fd3d faee e93d 52bb 59be
00000230: b42d 1bbd d1c5 bbbd 539c 843e 910d 7bbe
00000240: ea2d b7be d48f 1f3d ee66 0f3e 5b5a 7cbe
00000250: 108b 96bd e762 573c 4a44 9b3e 5566 2fbe
00000260: 1386 1b3f cb71 34be 5e00 8f3e 829f 223d
00000270: 2ad0 763b 4efd 8fbc d87f 01be b1cb 73bd
00000280: 2d2e 3bbe 442c 01be 5afc a0bd f261 033d
00000290: eb9a 433e 2ff7 e6bb 854a 66be 5d81 62bd
000002a0: e9c2 a7bd 3e79 a1be 1bd7 cdbd 5dca 543e
000002b0: 40b3 953e 562b d5bc d143 38be dac6 c5bd
000002c0: 0230 a83b 77b5 693d 0dab 1abe 4156 7bbd
000002d0: 4853 0bbf 30bd 21bd de41 263e 78d6 453d
000002e0: f3f9 403e cee8 863d 7e47 3dbe 67cb 143d
000002f0: 8720 4cbe 5c43 e53d 1b16 8abe 9694 b6be
00000300: 5ec6 4b3e aff7 0dbe f3bf dcbd 831c 423e
00000310: ea61 e43d 509f 723e 45b9 0e3e e195 643e
00000320: 0841 d03d e1c0 12be 2b93 49be 1798 aa3e
00000330: c5c8 fa3e 3454 eabe b294 073e 2553 2d3d
00000340: b14a 26bd ee28 8ebd 9813 babd 7e47 19bd
00000350: 1d26 3cbd 1b84 06bf 3bc0 27bd 0997 943d
00000360: 1e5c 91be ac47 ba3e ee7a 433e 8900 2d3c
00000370: aa22 e1bd 0e48 3cbd 7248 3fbe 04c0 f2bd
00000380: 13e1 f6bb 2022 3f3e a426 963e ac84 b6bd
00000390: 7fe8 023c c094 fd3d c569 f33c 3f04 fc3d
000003a0: 71c2 7bbe aab6 c1bd 02dd 1dbe fb37 cfbd
000003b0: a2be d6bd 3aa6 853e bc40 d8bc 57c8 8bbc
000003c0: 2642 85bd c39d c53d efdc 213e 6b82 cf3d
000003d0: e53a 4bbe f70a 52bd 7540 043e 281f c43e
000003e0: d4d8 7cbe 7941 963d f59e 12be 4dc0 c23e
000003f0: 091a a6bd eb8f 953e df69 f6bd 6fd1 f6bc

network_body._body_endoder.seq_layers.0.bias f4 [128]
0.0 0.0 0.0 0.0 0.0 0.0 0.0 0.0
0.0 0.0 0.0 0.0 0.0 0.0 0.0 0.0
0.0 0.0 0.0 0.0 0.0 0.0 0.0 0.0
0.0 0.0 0.0 0.0 0.0 0.0 0.0 0.0
0.0 0.0 0.0 0.0 0.0 0.0 0.0 0.0
0.0 0.0 0.0 0.0 0.0 0.0 0.0 0.0
0.0 0.0 0.0 0.0 0.0 0.0 0.0 0.0
0.0 0.0 0.0 0.0 0.0 0.0 0.0 0.0
0.0 0.0 0.0 0.0 0.0 0.0 0.0 0.0
0.0 0.0 0.0 0.0 0.0 0.0 0.0 0.0
0.0 0.0 0.0 0.0 0.0 0.0 0.0 0.0
0.0 0.0 0.0 0.0 0.0 0.0 0.0 0.0
0.0 0.0 0.0 0.0 0.0 0.0 0.0 0.0
0.0 0.0 0.0 0.0 0.0 0.0 0.0 0.0
0.0 0.0 0.0 0.0 0.0 0.0 0.0 0.0
0.0 0.0 0.0 0.0 0.0 0.0 0.0 0.0
00000000: 0000 0000 0000 0000 0000 0000 0000 0000
00000010: 0000 0000 0000 0000 0000 0000 0000 0000
00000020: 0000 0000 0000 0000 0000 0000 0000 0000
00000030: 0000 0000 0000 0000 0000 0000 0000 0000
00000040: 0000 0000 0000 0000 0000 0000 0000 0000
00000050: 0000 0000 0000 0000 0000 0000 0000 0000
00000060: 0000 0000 0000 0000 0000 0000 0000 0000
00000070: 0000 0000 0000 0000 0000 0000 0000 0000
00000080: 0000 0000 0000 0000 0000 0000 0000 0000
00000090: 0000 0000 0000 0000 0000 0000 0000 0000
000000a0: 0000 0000 0000 0000 0000 0000 0000 0000
000000b0: 0000 0000 0000 0000 0000 0000 0000 0000
000000c0: 0000 0000 0000 0000 0000 0000 0000 0000
000000d0: 0000 0000 0000 0000 0000 0000 0000 0000
000000e0: 0000 0000 0000 0000 0000 0000 0000 0000
000000f0: 0000 0000 0000 0000 0000 0000 0000 0000
00000100: 0000 0000 0000 0000 0000 0000 0000 0000
00000110: 0000 0000 0000 0000 0000 0000 0000 0000
00000120: 0000 0000 0000 0000 0000 0000 0000 0000
00000130: 0000 0000 0000 0000 0000 0000 0000 0000
00000140: 0000 0000 0000 0000 0000 0000 0000 0000
00000150: 0000 0000 0000 0000 0000 0000 0000 0000
00000160: 0000 0000 0000 0000 0000 0000 0000 0000
00000170: 0000 0000 0000 0000 0000 0000 0000 0000
00000180: 0000 0000 0000 0000 0000 0000 0000 0000
00000190: 0000 0000 0000 0000 0000 0000 0000 0000
000001a0: 0000 0000 0000 0000 0000 0000 0000 0000
000001b0: 0000 0000 0000 0000 0000 0000 0000 0000
000001c0: 0000 0000 0000 0000 0000 0000 0000 0000
000001d0: 0000 0000 0000 0000 0000 0000 0000 0000
000001e0: 0000 0000 0000 0000 0000 0000 0000 0000
000001f0: 0000 0000 0000 0000 0000 0000 0000 0000

network_body._body_endoder.seq_layers.2.weight f4 [128, 128]
-0.0041380757 -0.021267025 -0.05729132 0.10741781 -0.18387651 -0.045530632 -0.13842277 -0.089885905
0.08216173 -0.0932527 0.11014065 0.06666999 0.015955113 0.034177646 -0.06585753 -0.038121887
0.058142703 -0.021815004 -0.0795464 -0.056321956 -0.10951517 0.07030586 0.0606848 0.059307974
0.026752695 -0.2000264 0.11124022 -0.11421525 0.08395296 -0.07063627 0.06794106 0.07662747
-0.098858215 0.01584391 -0.10480349 0.06402003 -0.05164161 -0.047737006 0.06259028 0.06373003
-0.039766777 0.05882263 0.030494982 -0.03379548 0.042022347 -0.088284805 0.016317375 0.12009195
-0.0156293 0.06379919 0.08439206 0.017981188 -0.014544893 0.09182482 -0.021267802 -0.0064828647
0.024799634 -0.052960165 -0.08122978 0.004460771 -0.02565694 0.009189619 0.12559071 0.033068392
0.15919544 0.014965572 0.17576967 0.06846793 0.06652674 0.17179683 0.10017941 0.045775115
0.040865332 0.07620544 -0.13894247 0.0897043 0.13921945 0.07177756 -0.13224266 -0.03993058
-0.024732476 0.01824699 -0.0023347086 0.034803063 0.05841101 -0.002750261 0.016672608 -0.072335415
-0.0015946365 0.15361246 0.1032216 -0.2386463 0.042018894 -0.13448723 0.019789131 0.0045111575
0.028763184 -0.08954297 0.074811436 0.13882354 0.09059518 -0.028767858 0.024555784 -0.16814464
0.15677379 -0.060316876 -0.012735326 -0.09762901 -0.10748708 0.06703873 -0.016902404 -0.08727056
-0.034416925 0.09367511 0.08389778 -0.025522284 -0.19581577 -0.06544334 0.061406255 -0.0032189223
0.023672048 -0.010431994 -0.009070883 0.003026719 0.050645087 -0.087956786 0.06584766 -0.02086605
-0.011774317 0.011080063 0.019361952 0.056544922 0.060473505 -0.0057047117 -0.053992547 -0.024748312
0.100362994 0.00051220076 0.07005362 -0.094890065 0.01124589 -0.0828994 -0.26077613 0.13513188
-0.07375718 -0.014167055 -0.04641055 -0.051679265 -0.014357486 0.007874384 -0.022476863 -0.10859589
0.028897548 -0.06497618 0.0008982833 0.078272246 0.030413527 0.0074271644 -0.06798392 -0.061612733
-0.18094946 0.040044323 0.0340966 0.1540965 -0.012532585 -0.060561486 -0.091553815 0.05490633
-0.045092635 -0.042805012 0.016440999 0.015676696 -0.059546825 -0.012240353 0.0802799 -0.11072707
0.061970983 0.012871249 -0.114834115 0.0145619055 0.039024938 0.1574217 0.07848319 -0.05723143
0.28991467 0.17410812 0.049788434 -0.030186865 -0.076989286 0.24067955 0.124224 0.0055350037
-0.07354288 -0.19483678 -0.014413386 0.025136372 -0.044506058 0.08357855 -0.16328281 0.13303776
-0.042405702 -0.017969824 -0.0662219 0.057064008 0.047058046 0.02800616 -0.22533901 0.050433394
-0.111091495 0.157695 0.18697062 0.13182421 -0.008475892 0.003309221 -0.040171176 -0.023935989
-0.012500315 -0.03536254 0.031505365 -0.021312544 0.0007221266 -0.015558406 -0.03178882 0.08951047
0.05126361 -0.09830139 0.072064474 0.024784064 0.08942191 0.0014281089 0.014566421 0.017008128
-0.05063462 -0.022761345 0.08726434 -0.08428694 -0.01666119 0.04206724 0.096920155 0.080609016
0.11871649 -0.0010604193 0.20763497 0.006761616 -0.045517106 0.07766578 -0.0077165635 -0.031633176
0.047814146 0.0014241994 0.040722944 0.07383809 0.07923291 -0.06625228 0.12570801 0.07038988
00000000: b298 87bb 2f38 aebc 4eaa 6abd defd db3d
00000010: 204a 3cbe 547e 3abd b3be 0dbe 1a16 b8bd
00000020: 6944 a83d 46fb bebd 6c91 e13d 478a 883d
00000030: 4cb4 823c dcfd 0b3d 50e0 86bd b225 1cbd
00000040: 0b27 6e3d 61b5 b2bc 39e9 a2bd dab1 66bd
00000050: 7d49 e0bd 85fc 8f3d a090 783d ebec 723d
00000060: 7828 db3c b8d3 4cbe ead1 e33d afe9 e9bd
00000070: 88ef ab3d c0a9 90bd af24 8b3d ddee 9c3d
00000080: 2d76 cabd 16cb 813c 36a3 d6bd ef1c 833d
00000090: 2786 53bd e187 43bd 552f 803d e484 823d
000000a0: 7de2 22bd 00f0 703d 9dd0 f93c 216d 0abd
000000b0: a01f 2c3d aace b4bd 04ac 853c c5f2 f53d
000000c0: 0509 80bc 26a9 823d bfd5 ac3d 494d 933c
000000d0: b44d 6ebc a70e bc3d d039 aebc 366e d4bb
000000e0: 9a28 cb3c c2ec 58bd cd5b a6bd a92b 923b
000000f0: 812e d2bc 0e90 163c da9a 003e b972 073d
00000100: 2104 233e 2932 753c f7fc 333e ea38 8c3d
00000110: 2c3f 883d 82eb 2f3e dd2a cd3d b07e 3b3d
00000120: 6862 273d 9911 9c3d ef46 0ebe e3b6 b73d
00000130: 8b8f 0e3e 1d00 933d 9f6a 07be 3f8e 23bd
00000140: c39b cabc b67a 953c e901 19bb a88d 0e3d
00000150: 6240 6f3d b93d 34bb fe94 883c 9724 94bd
00000160: 1f03 d1ba 964c 1d3e d965 d33d b25f 74be
00000170: 011c 2c3d 05b7 09be d11c a23c 55d2 933b
00000180: c5a0 eb3c 4e62 b7bd bd36 993d c227 0e3e
00000190: f789 b93d 92aa ebbc 3629 c93c 1c2e 2cbe
000001a0: 4f89 203e d40e 77bd d4a7 50bc b8f1 c7bd
000001b0: 3022 dcbd 9a4b 893d e976 8abc e8ba b2bd
000001c0: c3f8 0cbd bcd8 bf3d 99d2 ab3d 1c14 d1bc
000001d0: ee83 48be 2807 86bd 2085 7b3d 8ef4 52bb
000001e0: e2eb c13c f4ea 2abc 0a9e 14bc eb5b 463b
000001f0: 3971 4f3d b022 b4bd 23db 863d 47ef aabc
00000200: 11e9 40bc 2789 353c f59c 9e3c a69b 673d
00000210: 11b3 773d 97ee babb 4a27 5dbd f9bc cabc
00000220: 1d8b cd3d 3645 063a 4678 8f3d b955 c2bd
00000230: ae40 383c 29c7 a9bd 7384 85be 0360 0a3e
00000240: 010e 97bd ef1c 68bc fd18 3ebd a3ad 53bd
00000250: a93b 6bbc 8f03 013c 6621 b8bc 8667 debd
00000260: 8dba ec3c 3b12 85bd c67a 6b3a 334d a03d
00000270: ca25 f93c 925f f33b 273b 8bbd a25d 7cbd
00000280: d14a 39be 8405 243d e0a8 0b3d 79cb 1d3e
00000290: 7955 4dbc 520f 78bd 9180 bbbd 76e5 603d
000002a0: 0eb3 38bd 4f54 2fbd 46af 863c 6a6c 803c
000002b0: 5fe7 73bd c38b 48bc ca69 a43d e0c4 e2bd
000002c0: 49d5 7d3d eee1 523c 262e ebbd 0f95 6e3c
000002d0: 9dd8 1f3d 2733 213e cbbb a03d 816b 6abd
000002e0: b26f 943e 6649 323e f5ee 4b3d 724a f7bc
000002f0: 8fac 9dbd b374 763e 2769 fe3d fa5e b53b
00000300: a69d 96bd 4b83 47be 1f26 6cbc cbea cd3c
00000310: fc4b 36bd 3b2b ab3d 9c33 27be 0d3b 083e
00000320: 9ab1 2dbd 7435 93bc 599f 87bd f3bb 693d
00000330: f0bf 403d 2d6d e53c 45bf 66be 3f93 4e3d
00000340: f083 e3bd cc7a 213e 3a75 3f3e edfc 063e
00000350: 78de 0abc 84df 583b 888a 24bd 6815 c4bc
00000360: 1fce 4cbc 50d8 10bd c50b 013d a597 aebc
00000370: 194d 3d3a afe8 7ebc fe34 02bd 4451 b73d
00000380: cbf9 513d 3d52 c9bd 8a96 933d f307 cb3c
00000390: d622 b73d 622f bb3a ffa7 6e3c a154 8b3c
000003a0: 3f66 4fbd 0076 babc a5b7 b23d a29e acbd
000003b0: 0c7d 88bc b34e 2c3d 137e c63d 5716 a53d
000003c0: a221 f33d c4fd 8aba 439e 543e 8c90 dd3b
000003d0: 2570 3abd 3d0f 9f3d 3adb fcbb ca91 01bd
000003e0: c4d8 433d 34ac ba3a 1acd 263d 6d38 973d
000003f0: dd44 a23d 46af 87bd 9ab9 003e 9228 903d

action_model._discrete_distribution.branches.0.weight f4 [2, 128]
-0.0026995244 0.0018342156 -0.005277594 0.010504862 0.008338648 -0.0008322798 0.006514359 0.0015056265
0.002694385 -0.008650283 0.017851371 0.0037440644 -0.008224912 0.0036547915 0.010559044 -0.0079716025
0.010401624 -0.015943922 0.009588133 -0.0070156227 0.0042003803 -0.010671796 -0.0032501593 0.016596746
0.003862178 -0.0116023645 0.006452873 -0.009003589 -0.0011436137 0.0019961705 0.0009914801 -0.0019921835
0.0029503857 -0.0012902548 -0.0001814552 -0.010708363 0.004816191 -0.0041892985 -0.0045309174 -0.00669226
-0.012287163 0.0056665833 0.0017104474 -0.0073784674 -0.0015120491 0.005118079 0.00615975 -0.0028767881
0.0041361745 -0.0065499316 -0.0012969555 -0.0029814893 0.0018650709 -0.011427271 0.0015727429 -0.0009140091
0.0022351784 0.00060400594 0.013245235 -0.008337361 -0.0048302966 0.0072979736 0.0026031723 -0.0034356613
0.006774907 0.015205192 -0.0047382372 -0.0065898597 -0.019565994 -0.0047889086 -0.0045165224 0.018649697
0.019649666 0.0077141607 0.020565728 -0.002056031 0.017866546 -0.0027437482 -0.007752806 -0.0020265367
0.0066596805 0.0137438765 0.00023739334 -0.011027256 0.0050366307 -1.2638097e-05 0.0068292986 -0.0026591497
0.0066572423 5.5393757e-05 0.011012997 0.016236242 0.0081293 -0.013428174 -0.004616669 0.00034146826
0.00041615465 -0.0079980185 0.011688039 0.00482634 -0.0059404406 0.00048327754 -0.010486799 -0.010609692
0.012401836 -0.00078067736 0.0045327875 -0.003540324 0.010432858 0.011260171 -0.00715175 0.008176413
0.0033091956 0.0036865005 0.0008034208 -0.00014843523 -0.016307632 0.0014719762 -0.0023614098 0.012498255
-0.008121544 -0.0015266493 -0.013875596 -0.014841682 -0.008558015 0.014965907 0.016772775 0.0011180413
0.015417501 -0.005614756 0.013170483 0.0022937346 0.0004155859 0.00724847 0.014420949 0.0007511165
-0.0025166753 -0.004986254 0.0034460814 0.0014205355 -0.0068046004 0.009312763 -0.0026568882 -0.013119014
-0.0013454134 -0.008764016 -0.0123576885 -3.057606e-05 0.005453613 -0.006489835 -0.005932315 -0.009773275
0.0037100196 -0.0058723236 0.0175024 0.0014782967 -0.00019039957 0.0019722506 -0.0048255897 0.005975398
-0.00932867 -0.0023253448 0.019584183 0.0044791987 -0.015047311 -0.0026091996 -0.005832456 0.014410435
0.011895918 -0.0034003675 -0.01360366 -0.0018856984 0.011490251 -0.006453726 -0.0023891486 -0.0019409739
-0.0023426628 -0.021062784 0.0022492355 0.007463301 -0.0173802 0.0052940617 -0.009072223 0.003416956
-0.0011549377 0.0027982858 0.0008169018 0.0012492947 0.015127048 0.0016009741 -0.008068495 0.020447776
0.0017426535 -0.0017986624 -0.0006192145 -0.0008579117 0.0031163222 -0.005382662 -0.013069148 -0.009638107
-0.0069342977 -0.011436458 0.010645688 -0.007621519 0.0049867677 0.008154287 -0.004101597 -0.00264592
0.0029749277 -0.0065019927 0.0017974302 -0.0015449694 -0.005772116 -0.0047869324 0.00032262088 0.0017549964
7.71732e-05 -0.007335464 -0.00517291 -0.011970651 0.0019095503 -0.0015800648 -0.006226374 0.0065347846
0.007381434 0.010798366 0.005506089 -0.00084998686 0.00541913 -0.0025190746 2.7552023e-05 -0.006326362
0.0049295905 0.00088681135 -0.00092252874 0.00060206075 -0.0006573343 -0.021944022 -0.0027476936 0.00019096893
-0.0069490136 -0.004864624 0.004816645 -0.019506162 0.0023075973 -0.0028628116 0.012508278 0.0054505365
0.005574432 0.008723459 0.0053608837 -0.0073516406 -0.00092858105 0.009415865 0.0070685768 0.009878259
00000000: 81ea 30bb 106a f03a abef acbb 961c 2c3c
00000010: d39e 083c 5a2d 5aba 6776 d53b 7158 c53a
00000020: 4794 303b ebb9 0dbc 0a3d 923c fa5e 753b
00000030: c8c1 06bc 3a85 6f3b d7ff 2c3c 539b 02bc
00000040: 936b 2a3c d49c 82bc 8b17 1d3c 4fe3 e5bb
00000050: 58a3 893b c2d8 2ebc a000 55bb e6f5 873c
00000060: 981c 7d3b d817 3ebc 9f72 d33b ca83 13bc
00000070: 4fe5 95ba 2fd2 023b 8df4 813a 4b8f 02bb
00000080: 425b 413b c41d a9ba 0245 3eb9 2172 2fbc
00000090: 23d1 9d3b 6246 89bb 1778 94bb bf4a dbbb
000000a0: 1950 49bc bfae b93b 1731 e03a 12c7 f1bb
000000b0: f32f c6ba 8fb5 a73b bad7 c93b 7f88 3cbb
000000c0: bf88 873b cfa0 d6bb 9bfe a9ba 1765 43bb
000000d0: 6575 f43a 7339 3bbc 7f24 ce3a 1d9a 6fba
000000e0: 127c 123b 2756 1e3a 8b02 593c 6d99 08bc
000000f0: 7747 9ebb d723 ef3b fc99 2a3b d528 61bb
00000100: 0a00 de3b 331f 793c 3743 9bbb c0ef d7bb
00000110: dd48 a0bc 47ec 9cbb 56ff 93bb 40c7 983c
00000120: 56f8 a03c 12c7 fc3b 7579 a83c 7abe 06bb
00000130: dd5c 923c 75d0 33bb 400b febb a5cf 04bb
00000140: 7339 da3b ff2d 613c caec 7839 aaab 34bc
00000150: 520a a53b 3708 54b7 4fc8 df3b 2145 2ebb
00000160: ff24 da3b 9856 6838 db6f 343c de01 853c
00000170: c130 053c d801 5cbc 6d47 97bb 1807 b339
00000180: 552f da39 1f0a 03bc 307f 3f3c 4626 9e3b
00000190: 07a8 c2bb 6a60 fd39 d3d0 2bbc 46d4 2dbc
000001a0: 1231 4b3c 5fa6 4cba c787 943b c804 68bb
000001b0: 94ee 2a3c 957c 383c 3a59 eabb 5df6 053c
000001c0: 17df 583b 3799 713b a89c 523a 47a5 1bb9
000001d0: 9597 85bc 53ef c03a e2c1 1abb 7bc5 4c3c
000001e0: 3910 05bc da19 c8ba 7856 63bc 872a 73bc
000001f0: eb36 0cbc 9033 753c 0f67 893c 3e8b 923a
00000200: b099 7c3c fdfb b7bb 02c9 573c 7b52 163b
00000210: ffe2 d939 9384 ed3b d845 6c3c 93e6 443a
00000220: ceee 24bb bb63 a3bb a7d7 613b 4331 ba3a
00000230: 20f9 debb 8f94 183c 301f 2ebb 22f1 56bc
00000240: 9558 b0ba f396 0fbc e777 4abc cb3e 00b8
00000250: 39b4 b23b afa8 d4bb dd63 c2bb 1620 20bc
00000260: cd23 733b 9f6c c0bb 3161 8f3c 68c3 c13a
00000270: ffa5 47b9 e040 013b fb1f 9ebb 45cd c33b
00000280: 47d7 18bc d064 18bb 026f a03c 3ec6 923b
00000290: ff88 76bc 1bff 2abb 301e bfbb bf19 6c3c
000002a0: 19e7 423c b3d8 5ebb e3e1 5ebc 8a29 f7ba
000002b0: 9b41 3c3c c779 d3bb 4393 1cbb 4768 feba
000002c0: 5c87 19bb dc8b acbc e967 133b b58e f43b
000002d0: ec60 8ebc cf79 ad3b a9a3 14bc 02ef 5f3b
000002e0: 4761 97ba 7263 373b 5a25 563a 60bf a33a
000002f0: 70d7 773c c7d7 d13a b931 04bc 1882 a73c
00000300: c069 e43a 18c1 ebba c852 22ba 7be5 60ba
00000310: 363b 4c3b 0b61 b0bb fb1f 56bc 27e9 1dbc
00000320: 1b39 e3bb fb5f 3bbc 406b 2e3c efbd f9bb
00000330: 0a68 a33b 8f99 053c b066 86bb 2c67 2dbb
00000340: 01f7 423b ab0e d5bb c097 eb3a 9280 caba
00000350: 0524 bdbb b3db 9cbb 7125 a939 e807 e63a
00000360: 0cd8 a138 555e f0bb 8481 a9bb 8d20 44bc
00000370: e049 fa3a 2d1a cfba 9c06 ccbb bf21 d63b
00000380: f5df f13b a1eb 303c 6c6c b43b a7d1 5eba
00000390: f592 b13b 0f17 25bb 851f e737 5f4d cfbb
000003a0: 6788 a13b e778 683a dbd5 71ba 9dd3 1d3a
000003b0: f550 2cba f3c3 b3bc a612 34bb d53e 4839
000003c0: 8db4 e3bb 6c67 9fbb f2d4 9d3b 63cb 9fbc
000003d0: 0f3b 173b 029e 3bbb 85ef 4c3c 6a9a b23b
000003e0: baa9 b63b d7ec 0e3c 5aaa af3b 08e6 f0bb
000003f0: 056c 73ba 0045 1a3c 859f e73b 6cd8 213c

action_model._discrete_distribution.branches.0.bias f4 [2]
0.0 0.0
00000000: 0000 0000 0000 0000

action_model._discrete_distribution.branches.1.weight f4 [2, 128]
0.0010934386 0.016493212 -0.00054358086 0.002040969 0.0035079196 -0.0025134853 0.008420508 -0.0038991577
0.009268045 0.00022659123 0.007101763 0.0029832032 -0.010611737 0.0054283133 0.0008049998 0.008836957
0.003095866 -0.00092944916 0.0063314955 -0.025383908 -0.0074979314 -0.00035962407 0.014576753 -0.007847556
0.007235292 0.0016796902 -0.01410381 -0.010849441 0.003721917 0.00015710945 -0.006898214 -0.016870776
0.0113960495 -0.007948864 -0.0026771447 0.0023483937 0.0025075704 -0.004030721 0.014513433 0.006935066
0.0057413573 -0.0010667705 0.00979822 0.014493157 0.014106721 -0.0051659876 0.008594797 0.013151362
-0.012376121 -0.01061283 -0.0101293195 -0.0011530387 -0.004226044 0.012680218 0.0032728165 0.011945757
0.0013431603 0.014726325 0.0043820697 -0.009479041 -0.0038761352 -0.0028850716 -0.0076406584 0.010412486
0.010807412 -0.0041002245 -0.0038955808 0.005647988 0.005647605 0.0077321343 -0.0025260982 0.009778835
-0.007909062 0.0023128423 -0.0040503456 0.013297279 -0.0063039623 -0.008510366 0.018489085 -0.010084372
0.011261882 0.006576748 -0.005412803 -0.007323476 -0.0010689048 0.010284308 0.00758916 -0.004691132
-0.010368983 -0.008635428 0.009214473 0.009572979 0.000834261 -0.0012810779 0.009358731 0.0066013965
-0.00862395 0.0051591084 -0.0016565118 -0.005118948 0.00371044 -0.015165907 -0.012822302 0.0032215496
-0.013119432 -0.0044892905 -0.003616585 0.0063465103 -0.0021651506 0.008413109 0.004009997 -0.004474835
0.0049358592 0.0025968954 0.0214959 -0.0065546106 -0.012269239 0.001010316 -0.0066294223 0.009709705
0.0041936324 0.008180732 0.008577157 -0.0071172565 0.005283372 -0.00976625 -0.0011489455 0.0009106211
-0.010939615 -0.0063243 0.0036923203 -0.015514456 0.0043675606 -0.008696348 0.009601348 0.0020640723
-0.015718129 0.0075712265 -0.007607724 0.00012511735 -0.0019616324 0.005169423 0.01482151 -0.012178
-0.00059149816 -0.012074649 -0.020646209 0.0020950355 0.0017547951 0.001191244 -0.0057232953 -0.014140859
-0.007281843 0.0033763205 0.007888675 0.0007216876 0.03237038 0.0011860683 -0.018223159 -0.016194213
-0.0094183255 -0.006172785 0.004844175 0.0064137424 0.0113581 -0.007357985 0.008925878 -0.01800615
-0.0064904946 -0.015677378 -0.0039031242 -0.012807846 -0.02512919 -0.008069692 0.001971496 -0.010972034
-0.008066931 0.0077818483 0.015991366 0.0020721448 0.0019446964 0.0035398814 0.0022205636 0.008301946
0.0021528143 -0.0068422863 0.0046912986 0.009670674 0.011774355 -0.016440276 0.004707086 0.0024714523
-0.014276606 0.008937097 -6.129768e-05 0.007889725 -0.01827689 0.004037313 -0.0086178975 0.006432555
0.0025276146 -0.0023206666 -0.0006354925 0.004896424 0.002679313 -0.0052020987 0.0063171736 -0.0054022935
-0.01354336 -0.000941128 -0.0021125446 0.016222892 -0.007939729 0.003254167 0.004223316 -0.010965138
0.0058601615 0.009240532 0.005267916 -0.0043277205 -0.016290214 -0.018645896 -0.007338336 -0.018983645
-0.016385328 0.009164427 -0.012925676 0.0036925469 0.009309221 0.010058275 -0.011604349 0.00396162
-0.012798256 -0.010602972 -0.007460547 -0.0006526595 0.009267483 -0.0021408058 0.0036605017 -0.0071702586
0.00900414 -0.008590244 0.023967389 -0.0043018432 0.010014016 0.012270761 0.0045488933 0.0017051041
0.014784585 -0.015957246 0.011146215 0.010103989 -0.0026560794 -0.0022265927 -0.016293721 -0.00019654942
00000000: b651 8f3a c61c 873c 187f 0eba c7c1 053b
00000010: 20e5 653b 49b9 24bb 2cf6 093c 0389 7fbb
00000020: 00d9 173c 1f99 6d39 e8b5 e83b d881 433b
00000030: dadc 2dbc fedf b13b 9f06 533a e2c8 103c
00000040: 03e4 4a3b 47a6 73ba 6f78 cf3b eaf1 cfbc
00000050: 35b1 f5bb ed8b bcb9 55d3 6e3c 0993 00bc
00000060: 0716 ed3b 0d29 dc3a ab13 67bc dbc1 31bc
00000070: 68eb 733b bfbd 2439 6a0a e2bb 9534 8abc
00000080: 7fb6 3a3c f43b 02bc 0973 2fbb 82e7 193b
00000090: 0d56 243b 2314 84bb c0c9 6d3c 8d3f e33b
000000a0: ff21 bc3b e1d2 8bba b788 203c b574 6d3c
000000b0: e01f 673c 7247 a9bb 31d1 0c3c cf78 573c
000000c0: 37c5 4abc 6fe1 2dbc 72f5 25bc 8f21 97ba
000000d0: a07a 8abb b0c0 4f3c c07c 563b 23b8 433c
000000e0: fb0c b03a af46 713c 7797 8f3b fb4d 1bbc
000000f0: c206 7ebb 7813 3dbb 7d5e fabb 2299 2a3c
00000100: 9211 313c 2d5b 86bb 004d 7fbb c212 b93b
00000110: 8b0f b93b d85d fd3b e58c 25bb 6837 203c
00000120: 0395 01bc 0e93 173b c3b8 84bb d5dc 593c
00000130: 7891 cebb 106f 0bbc 6c76 973c ec38 25bc
00000140: c283 383c c381 d73b e25d b1bb c5f9 efbb
00000150: 7e1a 8cba 847f 283c 7dae f83b 11b8 99bb
00000160: abe2 29bc 9c7b 0dbc 4df8 163c fcd7 1c3c
00000170: 4fb2 5a3a d7e9 a7ba 5d55 193c 8750 d83b
00000180: 784b 0dbc bd0d a93b 501f d9ba d9bc a7bb
00000190: da2a 733b 6d7a 78bc a214 52bc a220 533b
000001a0: e3f2 56bc e61a 93bb 3a04 6dbb 63f6 cf3b
000001b0: 33e5 0dbb 23d7 093c 4b66 833b a3a1 92bb
000001c0: fdbc a13b ad30 2a3b 2b18 b03c 0fc8 d6bb
000001d0: eb04 49bc 946c 843a a03b d9bb 7415 1f3c
000001e0: bd6a 893b 7a08 063c 3487 0c3c e037 e9bb
000001f0: 2320 ad3b 9f02 20bc 3798 96ba bfb6 6e3a
00000200: 123c 33bc 133c cfbb dbfa 713b 5830 7ebc
00000210: c11d 8f3b 217b 0ebc f94e 1d3c 6345 073b
00000220: 4ec3 80bc 0d18 f83b 374a f9bb ef31 0339
00000230: bb8e 00bb 4364 a93b ebd5 723c 3c86 47bc
00000240: c50e 1bba c0d4 45bc 3d22 a9bc dd4c 093b
00000250: 2701 e63a 8423 9c3a 7b8a bbbb 10af 67bc
00000260: 879c eebb 4245 5d3b 803f 013c a32f 3d3a
00000270: ce96 043d d975 9b3a bc48 95bc baa9 84bc
00000280: 524f 1abc 1345 cabb e3bb 9e3b 5f2a d23b
00000290: 5317 3a3c 401b f1bb d93d 123c a281 93bc
000002a0: 37ae d4bb d86d 80bc 8fcb 7fbb 00d8 51bc
000002b0: bbdb cdbc be36 04bc 3734 013b 0cc4 33bc
000002c0: 292b 04bc e0fe fe3b 5300 833c d2cc 073b
000002d0: 2fe5 fe3a 5bfd 673b e086 113b e304 083c
000002e0: 3b16 0d3b 4235 e0bb 77b9 993b bf71 1e3c
000002f0: 39e9 403c c2ad 86bc e63d 9a3b 17f8 213b
00000300: 6de8 69bc e76c 123c f18c 80b8 e843 013c
00000310: 6bb9 95bc 704b 843b 1532 0dbc 2fc8 d23b
00000320: 56a6 253b 5316 18bb 2e97 26ba 2e72 a03b
00000330: 6a97 2f3b 5e76 aabb 4b00 cf3b b905 b1bb
00000340: f8e4 5dbc 08b6 76ba 9e72 0abb dfe5 843c
00000350: a315 02bc dd43 553b be63 8a3b 1fa7 33bc
00000360: 9906 c03b 9a65 173c 7b9e ac3b 8dcf 8dbb
00000370: 0e73 85bc 47bf 98bc 6d76 f0bb 9783 9bbc
00000380: 863a 86bc 6526 163c 37c6 53bc a8fe 713b
00000390: b485 183c 77cb 243c 2b20 3ebc 7ad0 813b
000003a0: c7af 51bc 16b8 2dbc 9b77 f4bb 3d17 2bba
000003b0: a4d6 173c c34c 0cbb 07e5 6f3b 7df4 eabb
000003c0: 1a86 133c 18be 0cbc 4257 c43c 7af6 8cbb
000003d0: d411 243c 4d0b 493c e20e 953b cd7d df3a
000003e0: 0b3b 723c c5b8 82bc 9d9e 363c 348b 253c
000003f0: 9e11 2ebb 07ec 11bb 697a 85bc d518 4eb9

action_model._discrete_distribution.branches.2.weight f4 [2, 128]
0.019832963 0.003100969 0.0050383154 -0.004361187 0.0043716347 0.024041353 0.0103427945 -0.009312755
-0.0120921945 -0.001538381 0.0006613326 -0.0040705963 -0.0067295465 -0.0058769756 -0.00035468754 -0.0061190347
-0.0068832613 0.004922658 -0.00697968 -0.0058220313 -0.010587399 -0.018855652 -0.0046630474 1.0659689e-05
0.009491128 -0.0063917837 -0.008584112 -0.016276699 0.009001509 0.00068537565 -0.011779825 0.0053384304
-0.0058416836 -0.02126642 -0.0030599213 0.004400169 -0.0016004042 0.0006209859 -0.0030397521 -0.00455804
-0.0032619678 0.0016613996 -0.0023897267 0.008747086 -0.00017017974 0.001258432 -0.019038415 0.0031531693
-0.0035669876 -0.0011074649 -0.004315792 0.017268648 -0.0061641145 -0.015062875 0.009695078 0.003719492
-0.00020089047 -0.012083082 0.0073131807 -0.0007177342 0.01830786 -0.0031844273 -0.0043513207 -0.0011818472
-0.008169408 0.0025342004 0.0060801622 -0.008253712 0.004369667 -0.011564734 -0.0057192775 0.0040221903
-0.006926134 -0.0042681005 -0.01061052 0.0062697865 0.002526933 -0.0051176674 0.009613105 0.002629709
0.006227361 -0.0048378156 0.0063939616 0.009344308 0.020524183 0.017226817 0.0016677501 0.013558865
0.01562959 0.009967308 0.01377477 -0.011868608 0.013534615 -0.006232884 -0.012529688 -0.009556826
0.0018045706 0.008750592 -0.016562251 0.011677473 0.005742924 -0.0012404363 -0.0022233853 -0.0077410713
5.482927e-05 -0.022418456 0.0037620799 0.0032827787 -0.0056998637 -0.009052988 -0.011260806 0.009565615
0.0031085734 -0.0041724877 0.008109924 -0.01088114 0.0054411357 0.0010836441 0.0177681 -0.00562373
-0.0034590978 0.006408635 -0.005522858 0.015293931 0.005941234 -0.007909946 -0.008683819 0.008676763
0.006685345 0.0038597516 -0.0009792367 0.010015203 0.006559625 -0.0028213689 -0.0051224004 0.006020597
-0.007885056 -0.011409546 0.00042230223 0.007816405 -0.0072818035 -0.0038445124 0.0053800815 -0.003346579
0.0009931348 0.0025488904 -0.0027933193 -0.007323138 -0.011845484 -0.0018847795 0.004189657 -0.010596516
-0.009404546 -0.003285974 -0.010327576 -0.0018320903 0.008867319 0.0041813366 0.003952657 -0.005743231
-0.0029471961 -0.010962058 0.008754383 -0.0028162182 0.0014939043 0.00021270102 0.008959252 0.012735739
-0.007774617 -0.006009448 0.008974109 0.0018124353 0.012214298 -0.0075079314 0.0040400946 0.011292932
0.0105544 -0.015944196 0.010676556 0.0075022825 -0.0044866316 -0.010923284 0.021796243 -0.010590433
-0.00028930508 0.0050631217 0.012368411 -0.0073619187 0.00012202121 0.0028379203 0.008485111 -0.0055657737
-0.013962209 -0.017150057 -0.016422404 0.009245529 0.0020571386 -0.004155399 0.001682022 0.015536273
0.005572191 0.011571399 0.012673735 0.0034674765 -0.0008225939 0.001924864 0.0075597884 0.0030857648
-0.018034391 0.0057239193 0.011669564 0.009107097 -0.01174592 0.002824351 0.0087948525 -0.021364655
-0.010171179 0.00052282755 0.007216138 0.014759599 -0.009854174 0.004469407 0.000611813 0.0059800018
-0.016207788 0.005513059 0.005820776 -0.0026846912 -0.0060155476 0.0028446496 0.0040292046 0.0032980912
-0.0031966388 0.012546568 -0.0008022965 -0.010042484 -0.0073794066 -0.013777 -0.008990786 0.004517623
-0.017601257 0.009576111 0.004421137 -0.011622437 -0.0026641088 -0.011384158 -0.016213221 0.0055964408
0.003978562 0.002976501 0.013135023 0.0077677444 -0.0036952214 -0.004645588 0.008221037 0.0018751394
00000000: bd78 a23c a039 4b3b 7418 a53b 4ae8 8ebb
00000010: ee3f 8f3b 5ff2 c43c d374 293c 8794 18bc
00000020: 571e 46bc 80a3 c9ba 485d 2d3a a362 85bb
00000030: 8783 dcbb a593 c0bb 5bf5 b9b9 2f82 c8bb
00000040: fb8c e1bb 404e a13b cdb5 e4bb bdc6 bebb
00000050: c576 2dbc 2b77 9abc 7acc 98bb 04d7 3237
00000060: ad80 1b3c 2b72 d1bb 60a4 0cbc b656 85bc
00000070: 117b 133c c8aa 333a 2b00 41bc 00ee ae3b
00000080: 986b bfbb ea36 aebc f688 48bb 4b2f 903b
00000090: a7c4 d1ba a9c9 223a 9436 47bb 9c5b 95bb
000000a0: bdc6 55bb 52c3 d93a f69c 1cbb f04f 0f3c
000000b0: 4772 32b9 f9f1 a43a 73f6 9bbc 67a5 4e3b
000000c0: 1fc4 69bb 5b28 91ba 7d6b 8dbb fb76 8d3c
000000d0: 57fc c9bb 47ca 76bc 1bd8 1e3c b8c2 733b
000000e0: 20a6 52b9 1ff8 45bc 68a3 ef3b 5426 3cba
000000f0: 5dfa 953c d3b1 50bb 8695 8ebb 36e8 9aba
00000100: fbd8 05bc d414 263b 193c c73b 943a 07bc
00000110: 6c2f 8f3b 037a 3dbc c768 bbbb 94cc 833b
00000120: a0f4 e2bb 6cdb 8bbb bfd7 2dbc c872 cd3b
00000130: e79a 253b 1bb2 a7bb 4980 1d3c 3257 2c3b
00000140: e40e cc3b 8a86 9ebb 7084 d13b de18 193c
00000150: 5522 a83c 411f 8d3c 6898 da3a 0026 5e3c
00000160: a009 803c eb4d 233c 93af 613c 8d74 42bc
00000170: 4ac0 5d3c 383d ccbb 5249 4dbc 3c94 1cbc
00000180: 5787 ec3a a55e 0f3c 8fad 87bc df52 3f3c
00000190: 232f bc3b 2396 a2ba 37b6 11bb d0a8 fdbb
000001a0: 7bf8 6538 e9a6 b7bc 3a8d 763b e323 573b
000001b0: ecc5 babb fc52 14bc 3e7f 38bc 19b9 1c3c
000001c0: 35b9 4b3b 5db9 88bb 7ddf 043c cf46 32bc
000001d0: 8e4b b23b 1009 8e3a 688e 913c 4447 b8bb
000001e0: 08b2 62bb 87ff d13b 17f9 b4bb 6593 7a3c
000001f0: afae c23b b898 01bc 9446 0ebc fb28 0e3c
00000200: bd10 db3b e3f3 7c3b bb59 80ba ce16 243c
00000210: 1ff2 d63b b7e6 38bb cfd9 a7bb 6e48 c53b
00000220: 5230 01bc 1bef 3abc 7268 dd39 6110 003c
00000230: 329c eebb 37f4 7bbb 654b b03b 4752 5bbb
00000240: 132c 823a 490b 273b 1f10 37bb eff6 efbb
00000250: 9013 42bc b50a f7ba 6449 893b 029d 2dbc
00000260: 8615 1abc 7f59 57bb fe34 29bc c022 f0ba
00000270: 3b48 113c 9803 893b 4a85 813b b731 bcbb
00000280: bf25 41bb 349a 33bc 8b6e 0f3c 4d90 38bb
00000290: 1ccf c33a 7f08 5f39 d4c9 123c 90a9 503c
000002a0: 37c2 febb e7ea c4bb 2408 133c 3d8f ed3a
000002b0: 7b1e 483c 1805 f6bb c562 843b fd05 393c
000002c0: 5dec 2c3c 679d 82bc b9ec 2e3c b5d5 f53b
000002d0: 9804 93bb 93f7 32bc 098e b23c 7f83 2dbc
000002e0: dfad 97b9 8be8 a53b e0a4 4a3c 403c f1bb
000002f0: a3e5 ff38 67fc 393b 2305 0b3c 1861 b6bb
00000300: c0c1 64bc 477e 8cbc 4788 86bc 8f7a 173c
00000310: 0fd1 063b 032a 88bb 4b77 dc3a da8b 7e3c
00000320: ed96 b63b f795 3d3c 7fa5 4f3c 9a3e 633b
00000330: 58a3 57ba b84b fc3a 1ab8 f73b 8b3a 4a3b
00000340: dcbc 93bc b78f bb3b b331 3f3c ef35 153c
00000350: f671 40bc bf18 393b 4918 103c ee04 afbc
00000360: 04a5 26bc 5d0e 093a 5a75 ec3b 3fd2 713c
00000370: 6773 21bc 1a74 923b 1362 203a e4f3 c33b
00000380: 32c6 84bc e4a6 b43b 35bc be3b a5f1 2fbb
00000390: 121e c5bb 4d6d 3a3b 6b07 843b ca24 583b
000003a0: b37e 51bb 1f90 4d3c 3551 52ba 3b89 24bc
000003b0: f3ce f1bb edb8 61bc 174e 13bc 9208 943b
000003c0: 8330 90bc 1fe5 1c3c 2fdf 903b 096c 3ebc
000003d0: 5498 2ebb 9f84 3abc 97d1 84bc 5962 b73b
000003e0: 995e 823b 6611 433b 4834 573c 9088 fe3b
000003f0: 872b 72bb 043a 98bb 87b1 063c 3dc7 f53a

action_model._discrete_distribution.branches.3.weight f4 [2, 128]
-0.0065241638 0.0009614226 0.0070744455 -0.012991698 -0.010849865 -0.005802958 -0.01042737 -0.0049647703
0.002108665 0.0033863247 -0.016463423 -0.0049906834 -0.0073340284 -0.004042661 0.009707604 -0.0036441982
0.0018553017 -0.0017556831 0.0052038506 0.011101511 0.012183909 0.004253276 0.01190713 -0.005452615
-0.0054127686 -0.016701749 0.008896732 -1.216702e-05 -0.002764996 -0.01116095 -0.00040964107 0.0113510275
0.018522318 0.004035547 -0.004471967 0.004511327 -0.01401703 -0.0064156796 0.01159858 0.0050533637
-0.020887868 -0.018365912 -0.010904972 0.004159498 0.0014109969 -0.00034092128 0.008537648 0.019948168
0.0066570067 0.011635572 -0.017953737 -0.001670575 -0.0037456434 -0.00013911002 0.017109366 0.014108136
-0.005105795 0.0006523728 0.006257797 0.0064947368 0.0075076954 -0.0037905779 0.013232504 -0.0015182627
-0.0007510598 -0.007898249 0.014409284 -0.00052875426 0.023583673 -0.019459298 0.010083413 0.012069229
-0.02389036 -0.012028241 -0.0030604617 0.008131544 0.0068736463 -0.004528321 -0.0013728765 0.012674935
0.008332623 -0.010634185 0.01566817 0.012258698 0.0011619064 0.007611569 0.0065350197 0.0013319824
0.016660044 0.0052651325 0.0017064303 -0.016758636 0.0045274007 0.0034223031 0.0034470956 -0.009713702
0.01298711 -0.007181391 0.016338555 0.004406792 -0.009433212 -0.0035592453 -0.006594471 0.0032664128
-0.003970925 -0.00968964 0.011595837 0.006162679 0.022291886 -0.005352338 -0.003153588 -0.0023258708
-0.00039813775 -0.0003612176 0.0076474296 -0.010393076 -0.0075973882 -0.0072908434 -0.0005571171 -0.009082174
-0.013289697 0.000998781 -0.028497545 0.0082793515 0.010931328 -0.0060034515 -0.0032510404 -0.011359652
-0.0023928375 -0.0066149323 0.009937104 0.019271268 0.008840882 0.0030453221 -0.004885919 0.0040111146
0.004248745 -0.005910936 -0.015499504 -0.0014785323 -0.004957137 0.0009409793 0.0051765507 0.003802736
-0.004036675 -0.011452098 -0.010303133 0.0061886315 -0.00038040566 0.0022651602 -0.0087473 0.004709843
0.0025945017 -0.0076857745 0.0011543103 0.0045864256 0.016440142 -0.010160087 0.0227361 -0.003987418
-0.0030405873 -0.01853868 0.008036398 -0.0119481 0.002696119 0.008294517 0.0039306046 0.0042282813
-0.005327336 -0.020470396 -0.0066937655 -0.003485834 0.004900632 0.005808783 -0.0017465033 -0.0016922513
-0.015153532 0.0010351123 -0.0036344312 -0.00543715 -0.018383993 0.024308132 -0.0002607124 0.0013719731
-0.011273329 -0.009821296 -0.0015461372 0.0041597397 -0.00050723075 0.0032954395 0.010142657 0.013252794
0.019607015 0.0073042423 0.00094554125 0.0021163463 -0.0056580394 -0.008261166 -0.006783921 -0.001215657
-0.008579604 -0.006827082 -0.018074032 -0.0065025645 0.00078528974 -0.0006846582 0.013832318 0.007950402
-0.0001805126 -0.0048903 0.006282691 0.0026972878 -0.0012110119 0.007459111 -0.0015525026 -0.011492363
-0.0071938583 0.009101344 -0.005888962 0.0028213586 -0.003002243 0.00012328003 0.007159521 -0.010703273
-0.01359495 -0.0026422625 0.0016597512 0.0037060257 -0.0020685864 0.0050063604 -5.667058e-05 0.008944967
-0.007271811 -0.006161138 0.0015659478 0.0018890708 0.0036403693 -0.0050326446 0.0014132009 0.008795422
-0.0077086124 0.008703761 0.0059437538 -0.0066858055 -0.0034420365 0.017760593 0.0061083143 -0.007818467
0.009448341 0.00021461437 0.00748724 -0.0011710933 -0.0024420945 -0.0012303295 0.010386712 -0.009612216
00000000: a7c8 d5bb fa07 7c3a c0d0 e73b 22db 54bc
00000010: a2c3 31bc bd26 bebb 8fd7 2abc 83af a2bb
00000020: 8731 0a3b 1aed 5d3b 4dde 86bc e388 a3bb
00000030: 4a52 f0bb 4c78 84bb a40c 1f3c 80d3 6ebb
00000040: 982d f33a f31e e6ba 1085 aa3b 1de3 353c
00000050: 059f 473c 115f 8b3b 1f16 433c daab b2bb
00000060: 985d b1bb 1bd2 88bc 99c3 113c f420 4cb7
00000070: ef34 35bb 6bdc 36bc 18c5 d6b9 a9f9 393c
00000080: 1ebc 973c 9f3c 843b 9489 92bb c1d3 933b
00000090: afa7 65bc 9f3a d2bb f807 3e3c b096 a53b
000000a0: 091d abbc 1c74 96bc c5aa 32bc 664c 883b
000000b0: 33f1 b83a aebd b2b9 7ee1 0b3c 576a a33c
000000c0: 0523 da3b 20a3 3e3c b713 93bc 32f7 daba
000000d0: 7879 75bb 10de 11b9 f128 8c3c d025 673c
000000e0: 834e a7bb ff03 2b3a 350e cd3b cdd1 d43b
000000f0: 1d03 f63b 586b 78bb 25cd 583c 7100 c7ba
00000100: c5e2 44ba a867 01bc eb14 6c3c 199c 0aba
00000110: 8c32 c13c 1b69 9fbc e634 253c 04be 453c
00000120: b7b5 c3bc 1912 45bc 0792 48bb 2b3a 053c
00000130: 533c e13b 4f62 94bb 17f2 b3ba 88aa 4f3c
00000140: 8e85 083c 013b 2ebc 895a 803c b5d8 483c
00000150: 1c4b 983a 786a f93b b823 d63b ea95 ae3a
00000160: a57a 883c 2287 ac3b 4daa df3a 6849 89bc
00000170: 975a 943b b848 603b abe8 613b 3826 1fbc
00000180: e3c7 543c e051 ebbb 6fd8 853c da66 903b
00000190: c28d 1abc 3a42 69bb 6f16 d8bb 5011 563b
000001a0: 891e 82bb 4cc1 1ebc 77fc 3d3c 4cf0 c93b
000001b0: 799d b63c aa62 afbb 6dac 4ebb a36d 18bb
000001c0: 25bd d0b9 ce61 bdb9 4a97 fa3b b847 2abc
000001d0: 83f3 f8bb 07e8 eebb 7f0b 12ba 66cd 14bc
000001e0: 07bd 59bc 87e9 823a af73 e9bc 1ea6 073c
000001f0: 5019 333c 9ab8 c4bb 680f 55bb d51d 3abc
00000200: 27d1 1cbb 13c2 d8bb 3ccf 223c c7de 9d3c
00000210: 59d9 103c 0794 473b 0f1a a0bb ab6f 833b
00000220: 0e39 8b3b 86b0 c1bb a2f1 7dbc 50cb c1ba
00000230: 7b6f a2bb 0dac 763a 0ea0 a93b 5337 793b
00000240: 1646 84bb 95a1 3bbc 79ce 28bc 01ca ca3b
00000250: 2f71 c7b9 1573 143b d650 0fbc 0755 9a3b
00000260: 8408 2a3b f3d8 fbbb 3a4c 973a ba49 963b
00000270: 7aad 863c 7e76 26bc 0f41 ba3c e3a8 82bb
00000280: 9744 47bb 6ede 97bc 19ab 033c f7c1 43bc
00000290: 5fb1 303b bae5 073c 4dcc 803b 658d 8a3b
000002a0: ef90 aebb 88b1 a7bc 6057 dbbb 9772 64bb
000002b0: 7b95 a03b 9b57 be3b edea e4ba 88ce ddba
000002c0: 8546 78bc 9bac 873a a32f 6ebb 1f2a b2bb
000002d0: 079a 96bc d921 c73c 3ab0 88b9 c7d3 b33a
000002e0: c5b3 38bc 80e9 20bc c1a7 caba 6d4e 883b
000002f0: aef7 04ba 4df8 573b 632d 263c 3f22 593c
00000300: e49e a03c 6d58 ef3b 33de 773a 66b2 0a3b
00000310: 1367 b9bb d759 07bc a74b debb ae56 9fba
00000320: 7891 0cbc b7b5 dfbb fe0f 94bc 7713 d5bb
00000330: e7db 4d3a a27a 33ba f2a0 623c 6742 023c
00000340: fb47 3db9 cf3e a0bb 08df cd3b fbc4 303b
00000350: d1ba 9eba 8f6b f43b 587d cbba 774a 3cbc
00000360: 75ba ebbb ce1d 153c 32f8 c0bb 8be6 383b
00000370: 47c1 44bb bb44 0139 6a9a ea3b c85c 2fbc
00000380: 5abd 5ebc cf29 2dbb 028c d93a cbe0 723b
00000390: 1f91 07bb 650c a43b 92b1 6db8 e98d 123c
000003a0: 5f48 eebb 5fe3 c9bb 7d40 cd3a b39a f73a
000003b0: 4393 6e3b e2e8 a4bb 273b b93a ac1a 103c
000003c0: 8798 fcbb 389a 0e3c d2c3 c23b 9a14 dbbb
000003d0: ca93 61bb aa7e 913c 4128 c83b 0719 00bc
000003e0: 37cd 1a3c 1b0a 6139 8557 f53b 5f7f 99ba
000003f0: 8c0b 20bb 0243 a1ba 072d 2a3c 8e7c 1dbc

action_model._discrete_distribution.branches.4.weight f4 [2, 128]
-0.010891867 -0.011297586 0.0070637176 0.0006692813 0.01770072 -0.0018910915 -0.0038016376 0.005060949
0.011920511 0.018299324 -0.0031666744 0.0031793748 0.009648959 -0.013745795 0.00029938994 -0.0044911443
-0.006638193 0.0023367994 7.319699e-05 0.0055919434 0.010561959 -0.003296299 -0.0076592634 0.01644651
0.002373084 -0.022027753 -0.0048893685 -0.0012265692 -0.007475105 0.013145196 0.0069880174 0.0091147935
-0.0017995675 -0.0027722106 -0.003613535 -0.0058450503 -0.002008361 0.007979016 0.004981169 -0.0035295007
-0.010627828 -0.0018527027 -0.0055522854 0.010286985 -0.00083856186 0.010549527 -0.00223426 -0.0063102725
0.010299709 -0.008451919 -0.009147834 -0.0001843482 0.0005548186 0.011957484 -0.0035733618 0.00023785779
-0.010204843 0.009846612 -0.011029643 -0.008430681 0.01307665 -0.00029536942 0.021737246 0.0014301777
-0.0021237282 -0.005578109 0.0060565523 -0.008238831 -0.0012122861 0.0131386565 0.020472622 0.0042969254
0.002174856 -0.003923096 0.008762572 -0.0038016723 -0.012426796 -0.002544298 0.008443974 0.012982699
0.0019837648 -0.011139694 -0.013533594 -0.010874142 -0.008177892 0.013895919 -0.002435996 0.00041724756
0.0031474957 0.011473592 -0.010190687 0.006468841 -0.01389639 0.005630523 -0.010964545 -0.00016502685
0.0041819443 -0.010810523 0.009757965 0.004716776 0.0035155364 -0.0046189367 0.00042581497 0.013449463
0.0068413354 0.00528218 0.0017964045 -0.007211773 0.0010082541 0.014923629 -0.005796062 0.011028229
-0.013815865 -0.0072888182 1.1233756e-05 0.0065686353 0.00021170404 0.0039003198 -0.0082811415 0.002216644
0.0077917776 -0.005161014 0.0043421914 -0.007922872 0.0070876325 0.0012585074 0.00078057457 -0.004816765
-0.0029594237 -0.003150994 -0.015184327 0.0060515865 -0.009719461 -0.007135843 -0.004475323 -0.0059222183
-0.008297992 0.0008595694 0.0005634558 -0.006350919 -0.011787349 0.00032105204 -0.0033643139 -0.0018301926
0.0031423557 0.009746025 0.0015943305 -5.3330918e-05 -0.009120363 0.01111437 -0.005813152 -0.009689768
0.00021120119 -0.0047440496 1.2074355e-05 -0.011767167 0.014213148 0.020770146 -0.0051512383 0.015348556
0.0019423806 0.00043656124 -0.009901563 -0.018252512 0.0032514078 0.004812711 -0.0026535743 0.0075856806
-0.005902992 0.020165775 -0.0036138275 0.009432013 0.019012354 0.005876995 0.0057710656 0.0064422325
0.019755088 -0.0044625755 -0.010946249 -0.003996566 -0.0074919933 -0.0034290475 -0.0053125867 -0.0056084115
-0.008921151 -0.008020766 0.004219211 -0.0019401722 0.0036849317 0.008538763 0.0037527531 -0.0120145
-0.00027639547 -0.0011215796 -0.0082823625 0.013608743 0.0029398098 -0.00036446925 -0.0084073795 0.0069743777
0.02119121 0.004571747 -0.019740717 0.0046664993 -0.0023667566 0.011158018 -0.008713054 0.003945631
-0.0033705968 0.0076687224 -0.0035514354 -0.012876439 0.0028736156 -0.008417434 0.0028347408 -0.0014122187
0.011667115 -0.009280725 0.002546905 -0.009773544 0.011126923 -0.009408873 0.0052923304 -0.008596139
-0.0069750645 -0.017832775 0.010456952 0.0004810239 0.004849134 -0.021262733 -0.008314071 0.0020159534
-0.0072426954 -0.0024122763 -0.016420247 -0.014696446 -0.0060187397 0.0036987613 0.0030219376 0.022501072
-0.02017723 0.0049281786 -0.0032893573 0.010055732 -0.0041296496 -0.0050489935 -0.010750545 -0.006913551
0.009021367 -0.012598872 -0.006153012 -0.001105118 0.0017507713 -0.0023061733 0.0126759885 0.0061392942
00000000: cd73 32bc 8319 39bc c276 e73b b572 2f3a
00000010: 1a01 913c 80de f7ba e524 79bb 51d6 a53b
00000020: 3f4e 433c 77e8 953c fb87 4fbb 0f5d 503b
00000030: ab16 1e3c 0b36 61bc 70f7 9c39 732a 93bb
00000040: 3385 d9bb fd24 193b 5681 9938 9f3c b73b
00000050: 110c 2d3c b806 58bb 8ffa fabb d5ba 863c
00000060: be85 1b3b 8c73 b4bc ff36 a0bb d5c4 a0ba
00000070: baf1 f4bb f35e 573c bdfb e43b 3756 153c
00000080: 77df ebba faad 35bb 0fd1 6cbb d687 bfbb
00000090: b59e 03bb 6bba 023c 1339 a33b 324f 67bb
000000a0: 5720 2ebc 63d6 f2ba f2ef b5bb be8a 283c
000000b0: efd2 5bba ecd7 2c3c aa6c 12bb 67c6 cebb
000000c0: 1cc0 283c eb79 0abc cce0 15bc 984d 41b9
000000d0: 3f71 113a 53e9 433c 102f 6abb 7769 7939
000000e0: 3732 27bc af53 213c adb5 34bc d720 0abc
000000f0: 723f 563c d0db 9ab9 4f12 b23c cd74 bb3a
00000100: 3f2e 0bbb 92c8 b6bb 0b76 c63b 29fc 06bc
00000110: 92e5 9eba 8543 573c 33b6 a73c 39cd 8c3b
00000120: 0788 0e3b 518d 80bb e490 0f3c 7a25 79bb
00000130: c399 4bbc 3dbe 26bb 9858 0a3c 63b5 543c
00000140: 0d02 023b 4383 36bc 02bc 5dbc 7529 32bc
00000150: 91fc 05bc b5ab 633c 3ba5 1fbb 05c2 da39
00000160: 3746 4e3b bcfb 3b3c d7f6 26bc 92f8 d33b
00000170: afad 63bc 4080 b83b a3a4 33bc 0f0b 2db9
00000180: b108 893b 9f1e 31bc dfdf 1f3c 2f8f 9a3b
00000190: ea64 663b 735a 97bb eb3f df39 235b 5c3c
000001a0: 482d e03b 2316 ad3b 5575 eb3a bd50 ecbb
000001b0: 6527 843a 3d82 743c e4ec bdbb bfaf 343c
000001c0: f05b 62bc 0ad7 eebb 9d78 3c37 b53d d73b
000001d0: dffc 5d39 829c 7f3b a0ad 07bc 1d45 113b
000001e0: 2b52 ff3b b91d a9bb f148 8e3b efce 01bc
000001f0: 5f3f e83b 80f4 a43a 799f 4c3a f4d5 9dbb
00000200: e4f2 41bb e880 4ebb afc7 78bc 634c c63b
00000210: 603e 1fbc cad3 e9bb bba5 92bb 2b0f c2bb
00000220: 4df4 07bc ba54 613a e1b4 133a 5f1b d0bb
00000230: ba1f 41bc e052 a839 d27b 5cbb 13e3 efba
00000240: fbef 4d3b cbad 1f3c dbf8 d03a a3af 5fb8
00000250: 936d 15bc 0c19 363c 417c bebb d5c1 1ebc
00000260: e375 5d39 f973 9bbb f692 4a37 13cb 40bc
00000270: 43de 683c 2726 aa3c b8cb a8bb 8378 7b3c
00000280: 7a97 fe3a 42e2 e439 2a3a 22bc 4b86 95bc
00000290: 9215 553b f2b3 9d3b 97e7 2dbb 4d91 f83b
000002a0: e36d c1bb b232 a53c f7d5 6cbb bb88 1a3c
000002b0: ccbf 9b3c cf93 c03b 351b bd3b 5d19 d33b
000002c0: 6cd5 a13c cc3a 92bb e557 33bc a0f5 82bb
000002d0: 657f f5bb dfb9 60bb 3515 aebb c4c6 b7bb
000002e0: 052a 12bc 8869 03bc 4f41 8a3b 604d feba
000002f0: e57e 713b 2be6 0b3c c0f0 753b 77d8 44bc
00000300: 2ce9 90b9 f701 93ba bfb2 07bc 35f7 5e3c
00000310: d3a9 403b 3c16 bfb9 1bbf 09bc 5289 e43b
00000320: 3099 ad3c 98ce 953b 49b7 a1bc 6fe9 983b
00000330: 961b 1bbb 1fd0 363c 32c1 0ebc 5a4a 813b
00000340: 3be5 5cbb e849 fb3b 33bf 68bb b3f7 52bc
00000350: 4553 3c3b 47e9 09bc 0fc7 393b 321a b9ba
00000360: 6d27 3f3c 2f0e 18bc fae9 263b 3721 20bc
00000370: b34d 363c ac27 1abc 496b ad3b d2d6 0cbc
00000380: 158f e4bb 0a16 92bc a353 2b3c ef31 fc39
00000390: 7ce5 9e3b 2f2f aebc be37 08bc 161e 043b
000003a0: 2254 edbb 4817 1ebb c183 86bc 5dc9 70bc
000003b0: d938 c5bb eb66 723b b30b 463b 2b54 b83c
000003c0: b84a a5bc 8f7c a13b 4292 57bb ccc0 243c
000003d0: 0352 87bb 0772 a5bb 0e23 30bc 128b e2bb
000003e0: 5bce 133c 806b 4ebc 359f c9bb 9bd9 90ba
000003f0: 237a e53a 2b23 17bb f3ae 4f3c 222c c93b
