Assets/results/ppo/My Behavior/My Behavior-76.pt (torch, 219559 bytes, 38 tensors)

discrete_act_size_vector f4 [1, 14]
000000 00 00 00 40 00 00 00 40 00 00 00 40 00 00 00 40
       2.0 2.0 2.0 2.0
000010 00 00 00 40 00 00 00 40 00 00 00 40 00 00 20 41
       2.0 2.0 2.0 10.0
000020 00 00 20 41 00 00 20 41 00 00 20 41 00 00 20 41
       10.0 10.0 10.0 10.0
000030 00 00 20 41 00 00 20 41
       10.0 10.0

network_body._body_endoder.seq_layers.0.weight f4 [128, 24]
000000 62 a2 9c 3c 17 dc dd 3e 47 9c a9 bd 1c 9a 85 bd
       0.019120399 0.43331978 -0.08281761 -0.06523535
000010 f0 2f eb bd 6c 11 34 bd bf 32 27 3e c8 49 07 3d
       -0.11483753 -0.043961927 0.16327952 0.033029348
000020 3b 29 18 3d 89 cb 5e 3e e7 7a 4a 3e ce 11 7d be
       0.037148695 0.2175733 0.19773446 -0.24713823
000030 04 51 7a bd bf 35 bc bd 12 5f 69 3e 1a 93 81 3d
       -0.06111242 -0.09189939 0.22790173 0.063268855
000040 32 db a5 3e 31 57 bb be c9 71 ad 3e b7 00 90 be
       0.32393795 -0.3658996 0.33875874 -0.28125545
000050 48 7c dd 3d d0 3c 27 be 2f eb 0d 3e e8 e7 bb 3e
       0.108147204 -0.16331792 0.13859247 0.36700368
000060 34 7f 6f 3e f1 c9 91 3e fc 02 64 3e 5f fa a0 3d
       0.23388368 0.28474382 0.22266763 0.078602545
000070 8a 6a 7d bd e6 5b 6e be 4d 3b 68 be 29 fe c5 3d
       -0.06186918 -0.23277244 -0.22678871 0.09667618
000080 33 f4 df bd 37 48 e2 3d fe 3f 2c bd 98 bd ab bd
       -0.10935249 0.1104893 -0.042053215 -0.083857715
000090 8f a7 90 3c b9 ab f7 3d db 3e 69 be 34 4e 87 be
       0.017658023 0.120933 -0.22777884 -0.26426852
0000a0 76 21 75 be ae 17 22 3e 34 df ad 3e 7e 46 c5 3e
       -0.23938546 0.15829346 0.33959353 0.38530344
0000b0 64 6a 53 3e 52 db b2 be 1d ae 03 3f ad 6d f9 3d
       0.20646054 -0.34932953 0.5143755 0.12179122
0000c0 05 92 80 bd 5e 39 0b 3e 2e 20 60 3e 57 91 41 3e
       -0.06277851 0.13596103 0.21887276 0.18903099
0000d0 b0 ef dd 3d f7 b3 e2 bc dc de 8a 3e 78 89 f7 be
       0.108367324 -0.027673705 0.27123153 -0.48347068
0000e0 90 d6 99 3e 08 32 df bd 90 c2 c8 be 99 59 ad 3d
       0.3004651 -0.108982146 -0.3921094 0.08464355
0000f0 c3 e1 34 3e 7b 6e 46 3d 68 94 4c 3e 7b 91 c6 3c
       0.17664246 0.048445206 0.19978487 0.024239292
000100 c2 1a 72 be 9a e7 1e be 2f 3b af 3e 6a 1f 53 3e
       -0.2364302 -0.15518036 0.3422484 0.20617452
000110 91 0f b6 be 1b 34 75 3c a3 1c 0c 3e fe 61 9e be
       -0.3555875 0.014966036 0.13682799 -0.30934137
000120 0c 0b 9e be cf f5 5c 3e 62 bf 1f bd a2 69 3c 3e
       -0.30867803 0.21578144 -0.039000876 0.1839967
000130 31 be c6 3d 6e eb 9b 3e e9 6d c2 b9 22 e3 3b bd
       0.09704245 0.30453056 -0.00037084453 -0.045870908
000140 e9 15 fe 3d e4 b7 26 be ef 0a 96 be 5f d9 a7 bd
       0.12406523 -0.16281086 -0.29305217 -0.08195757
000150 cc ef 53 3c 15 7e 4c 3e 6b ea e6 bc c6 ae 80 3c
       0.01293559 0.19969971 -0.028187951 0.015708338
000160 64 97 3e 3d c6 52 06 be a4 35 ba 3c 4b 77 7a be
       0.046531096 -0.13117513 0.022730656 -0.24459569
000170 31 84 7f 3e ca 17 04 be 9f 56 22 bd 53 c9 87 3d
       0.24952771 -0.128997 -0.03963339 0.066301964
000180 87 13 12 3d fb a2 8f 3e cc 47 ce 3d 9b 3e 37 3e
       0.035663154 0.28054032 0.10072288 0.17894976
000190 10 39 8f bd 10 29 58 be 96 aa 9e 3d a3 68 99 bd
       -0.06993306 -0.21109414 0.077473804 -0.07490661
0001a0 17 a8 7f 3e 6b ab 15 be d4 7d f7 bd 2a 36 3d be
       0.24966465 -0.14616172 -0.12084547 -0.18477693
0001b0 88 8a 6b 3c 58 b9 01 3e e8 8e 33 be 1f 66 ba bc
       0.01437629 0.1266836 -0.17534983 -0.022753773
0001c0 98 f8 89 3e 1f 36 45 3e f6 bc e9 3d 44 5e 8b bd
       0.26947474 0.19258927 0.114129946 -0.06805089
0001d0 fe 5a 20 3c fb 0b da bc 66 e2 bd 3d 8c c3 b8 be
       0.009787319 -0.02661704 0.09271698 -0.3608669
0001e0 84 5a 77 bc 2e 8b 75 3e 65 1c 02 3d a5 fa 88 be
       -0.015097264 0.23978874 0.03176536 -0.26753727
0001f0 a1 85 a6 3e 30 2a 00 3e 40 25 4b bc e6 e6 a1 3d
       0.32523826 0.12516093 -0.012399018 0.079053685
000200 09 c4 9d be c1 e8 1f be 44 70 5a bd c8 5d 25 bc
       -0.30813625 -0.15616132 -0.05332972 -0.01009316
000210 9b 53 6a be 04 e5 e3 3d 39 bb 8d bc 12 86 e2 bd
       -0.22883455 0.11127666 -0.017301189 -0.11060728
000220 e7 93 6b 3e 2d a8 68 be cd 67 b8 3d e5 fb fb bb
       0.23005639 -0.22720404 0.090041734 -0.0076899403
000230 ff 2b 6a 3d a8 5d ec 3d 77 d9 66 be 37 ce ac be
       0.057170864 0.11541301 -0.22543894 -0.3375108
000240 3f 40 d3 3e 5f 9f 2b bd ce 41 38 be f0 7c 64 3c
       0.41259953 -0.041900035 -0.17993852 0.013945803
000250 b4 03 27 be ad 51 64 be b2 a8 eb be 14 f5 84 bd
       -0.16310006 -0.22296782 -0.46027142 -0.064920574
000260 c0 d4 c4 3d 0b 83 ad bc 91 6b b6 bc 1e ee 79 3c
       0.09610891 -0.02118065 -0.022268089 0.0152545255
000270 2d d9 52 be fc e9 38 be bb 24 c2 3e 86 af 80 bd
       -0.20590658 -0.18058008 0.37918648 -0.062834784
000280 b3 80 44 be 7e 9e af bc 5f 52 cc 3d 4d a4 3a bd
       -0.1918972 -0.02143788 0.099766485 -0.045566846
000290 b5 14 21 3e a0 65 c3 bd a7 3a d5 bc 78 21 80 3b
       0.15730555 -0.09540868 -0.026028944 0.00391024
0002a0 3b 5b 26 3e 85 3e 85 3c 26 2b 29 bd 68 71 5e bd
       0.16245739 0.016265163 -0.041300915 -0.05430737
0002b0 b6 cc 06 3e 54 55 40 3d 59 bd 13 3e 12 aa 6e 3e
       0.13164029 0.046956375 0.14427699 0.23307064
0002c0 9c 56 a5 bd 4a a0 a0 3d 3d 74 76 be 20 ce a6 3e
       -0.0807316 0.07843073 -0.24067779 0.32579136
0002d0 63 ce 9e be 05 07 6f be cc 27 a3 bc be a5 c6 3e
       -0.31016836 -0.23342521 -0.019916438 0.38798326
0002e0 73 41 af bc ce bd b5 3d ee 27 ea 3c ba e8 c3 be
       -0.021393513 0.08874093 0.028583493 -0.38263494
0002f0 12 b5 84 3e a3 63 6b 3e 79 c6 85 3e 38 cb b0 3d
       0.25919396 0.22987227 0.26127985 0.08632511
000300 28 42 e1 3d b3 8b b5 3e 22 c2 7b bd 66 15 84 3e
       0.109989464 0.35458145 -0.061464436 0.25797576
000310 92 9a 07 3e 2f 19 fb bd f7 82 1e 3e 33 0d 6b 3e
       0.13242558 -0.12260663 0.15479647 0.22954254
000320 fe e3 04 bf 10 09 23 3e 91 cf 89 bd 8e 9e f8 bd
       -0.5191039 0.15921426 -0.06729043 -0.12139617
000330 ed 35 e7 be 7a 86 70 be 4c 0e 7f 3e 70 e1 97 bd
       -0.4515833 -0.23488799 0.24907798 -0.07416046
000340 7d d5 a7 be cb 64 d0 bd d6 e8 b1 3e 9a a9 74 be
       -0.32780066 -0.10175475 0.34747952 -0.23892823
000350 c1 93 3c bd ad 04 5d bd e3 5c fa 3c 1d c0 1d be
       -0.046039347 -0.053959537 0.03056187 -0.15405317
000360 49 09 b9 3e 0c d7 66 be 3a 69 f2 be b9 0e f1 be
       0.36139897 -0.22542971 -0.47345906 -0.47081545
000370 72 31 0d 3d 00 49 3f 3e a8 7e 36 bc da 72 05 3c
       0.034470983 0.18680191 -0.011138596 0.0081450585
000380 a9 84 67 3e 63 13 7b be 8a 14 2e bd 1d d0 35 3e
       0.226092 -0.24519114 -0.042500056 0.1775517
000390 1b 5a be 3d 8b e8 6b be e4 d6 3c be 89 6f 84 be
       0.0929453 -0.23037927 -0.1844135 -0.25866345
0003a0 1e b2 74 3e 25 f2 ce 3c 60 de cd 3e 9d aa 95 bd
       0.23896071 0.025261948 0.4020872 -0.073079325
0003b0 3d 88 dc 3c b9 e8 96 bd 32 2c 11 3e 90 62 2c be
       0.026920432 -0.07368607 0.14177015 -0.16834474
0003c0 66 d9 4d be 53 1f 0b bd 35 3c d5 bb b4 07 89 bd
       -0.20102462 -0.03396542 -0.0065074214 -0.066909224
0003d0 c8 e0 4d 3d 96 0f 91 3e 1e c2 cb bc 2e 49 16 3e
       0.050263196 0.28332204 -0.024872836 0.14676353
0003e0 ad 93 6c be b9 19 53 3e 09 c4 06 3f 77 94 57 3d
       -0.23103209 0.20615281 0.52642876 0.05263182
0003f0 2e 99 61 bc 93 73 95 3c fb b3 c5 3d 29 c8 e7 3e
       -0.013769431 0.018243587 0.09653469 0.45269898

network_body._body_endoder.seq_layers.0.bias f4 [128]
000000 00 00 00 00 00 00 00 00 00 00 00 00 00 00 00 00
       0.0 0.0 0.0 0.0
000010 00 00 00 00 00 00 00 00 00 00 00 00 00 00 00 00
       0.0 0.0 0.0 0.0
000020 00 00 00 00 00 00 00 00 00 00 00 00 00 00 00 00
       0.0 0.0 0.0 0.0
000030 00 00 00 00 00 00 00 00 00 00 00 00 00 00 00 00
       0.0 0.0 0.0 0.0
000040 00 00 00 00 00 00 00 00 00 00 00 00 00 00 00 00
       0.0 0.0 0.0 0.0
000050 00 00 00 00 00 00 00 00 00 00 00 00 00 00 00 00
       0.0 0.0 0.0 0.0
000060 00 00 00 00 00 00 00 00 00 00 00 00 00 00 00 00
       0.0 0.0 0.0 0.0
000070 00 00 00 00 00 00 00 00 00 00 00 00 00 00 00 00
       0.0 0.0 0.0 0.0
000080 00 00 00 00 00 00 00 00 00 00 00 00 00 00 00 00
       0.0 0.0 0.0 0.0
000090 00 00 00 00 00 00 00 00 00 00 00 00 00 00 00 00
       0.0 0.0 0.0 0.0
0000a0 00 00 00 00 00 00 00 00 00 00 00 00 00 00 00 00
       0.0 0.0 0.0 0.0
0000b0 00 00 00 00 00 00 00 00 00 00 00 00 00 00 00 00
       0.0 0.0 0.0 0.0
0000c0 00 00 00 00 00 00 00 00 00 00 00 00 00 00 00 00
       0.0 0.0 0.0 0.0
0000d0 00 00 00 00 00 00 00 00 00 00 00 00 00 00 00 00
       0.0 0.0 0.0 0.0
0000e0 00 00 00 00 00 00 00 00 00 00 00 00 00 00 00 00
       0.0 0.0 0.0 0.0
0000f0 00 00 00 00 00 00 00 00 00 00 00 00 00 00 00 00
       0.0 0.0 0.0 0.0
000100 00 00 00 00 00 00 00 00 00 00 00 00 00 00 00 00
       0.0 0.0 0.0 0.0
000110 00 00 00 00 00 00 00 00 00 00 00 00 00 00 00 00
       0.0 0.0 0.0 0.0
000120 00 00 00 00 00 00 00 00 00 00 00 00 00 00 00 00
       0.0 0.0 0.0 0.0
000130 00 00 00 00 00 00 00 00 00 00 00 00 00 00 00 00
       0.0 0.0 0.0 0.0
000140 00 00 00 00 00 00 00 00 00 00 00 00 00 00 00 00
       0.0 0.0 0.0 0.0
000150 00 00 00 00 00 00 00 00 00 00 00 00 00 00 00 00
       0.0 0.0 0.0 0.0
000160 00 00 00 00 00 00 00 00 00 00 00 00 00 00 00 00
       0.0 0.0 0.0 0.0
000170 00 00 00 00 00 00 00 00 00 00 00 00 00 00 00 00
       0.0 0.0 0.0 0.0
000180 00 00 00 00 00 00 00 00 00 00 00 00 00 00 00 00
       0.0 0.0 0.0 0.0
000190 00 00 00 00 00 00 00 00 00 00 00 00 00 00 00 00
       0.0 0.0 0.0 0.0
0001a0 00 00 00 00 00 00 00 00 00 00 00 00 00 00 00 00
       0.0 0.0 0.0 0.0
0001b0 00 00 00 00 00 00 00 00 00 00 00 00 00 00 00 00
       0.0 0.0 0.0 0.0
0001c0 00 00 00 00 00 00 00 00 00 00 00 00 00 00 00 00
       0.0 0.0 0.0 0.0
0001d0 00 00 00 00 00 00 00 00 00 00 00 00 00 00 00 00
       0.0 0.0 0.0 0.0
0001e0 00 00 00 00 00 00 00 00 00 00 00 00 00 00 00 00
       0.0 0.0 0.0 0.0
0001f0 00 00 00 00 00 00 00 00 00 00 00 00 00 00 00 00
       0.0 0.0 0.0 0.0

network_body._body_endoder.seq_layers.2.weight f4 [128, 128]
000000 02 16 87 bd 73 17 a3 3d d5 7a c5 3d 14 f7 09 3d
       -0.065959945 0.07963457 0.09642569 0.033682898
000010 15 d4 16 be cd cc a6 bd d1 08 9d 3c b2 90 d4 bd
       -0.1472934 -0.081445314 0.019169243 -0.10379161
000020 40 32 12 bc af 7b e0 bc df d6 25 bd 52 90 90 3c
       -0.008923113 -0.027402727 -0.04048812 0.017646942
000030 39 91 0a 3d cd 3d 81 3c 5b 6e 7f 3d cf 45 2d 3e
       0.0338299 0.01577654 0.062361103 0.16921161
000040 cf 97 07 3d b3 f1 d0 3c 2c aa 14 be 56 64 86 bd
       0.03310376 0.025505876 -0.1451804 -0.06562106
000050 92 f1 ee 3c 1b 3f be bc d1 16 39 ba 95 7d b6 3c
       0.029167924 -0.02322345 -0.000706059 0.022276679
000060 66 c1 5d be c7 91 99 3d e8 cf 52 bd 21 c1 f0 bb
       -0.21655807 0.07498508 -0.051467806 -0.0073472415
000070 6a 27 f1 bc 52 88 12 bc 3c dd 38 3e c1 c4 d5 bc
       -0.02943774 -0.008943634 0.18053144 -0.026094796
000080 ef 9d 08 bc 9a 97 de 3d 06 f7 35 bd 5d 16 de 3d
       -0.008338436 0.108687595 -0.044425033 0.10844109
000090 50 47 70 3d ae ea b5 3c 9a 71 f7 3d 73 3e 46 bd
       0.05866176 0.02220663 0.12082215 -0.0483994
0000a0 a3 49 01 bd 36 0a 76 bd 97 06 da 3c da f0 1b bc
       -0.031564366 -0.06006833 0.02661447 -0.009517873
0000b0 7b ec c2 3a 2c 8f b4 3d e6 30 21 bd f4 e4 06 be
       0.0014871502 0.0881637 -0.039353274 -0.13173276
0000c0 23 af 47 bd 57 e0 f7 ba d5 06 6f 3d bf 07 b3 bd
       -0.048751008 -0.0018911463 0.058356125 -0.08741712
0000d0 1f 89 41 bd ee 51 4a 3d 1c 51 80 be 08 f9 80 3d
       -0.04724991 0.04939454 -0.25061882 0.06297499
0000e0 bc 19 c5 bd 9c fb 83 be 92 d3 e7 bb 01 5e 52 3c
       -0.09624049 -0.257779 -0.0070747817 0.012839795
0000f0 4e cd 63 bc bf 65 5d bd 77 64 f5 3d 6a 90 ad bd
       -0.013903929 -0.05405211 0.11982053 -0.084748104
000100 d9 24 ae bd 4a 48 e1 3b 09 24 3a 3c ed 0c b9 3d
       -0.08503122 0.0068750726 0.0113611305 0.090356685
000110 77 36 0b bd 77 f7 73 3c b8 7f 65 3b 0f 31 19 3e
       -0.03398749 0.014890543 0.0035018753 0.1496012
000120 59 0f c1 bd df 91 58 bb 0e 81 56 3c 0a 30 23 3e
       -0.094267555 -0.003304593 0.0130922925 0.15936294
000130 5a a0 16 3c e3 a7 3f ba 27 d9 46 3c 86 6e e1 3d
       0.009193504 -0.0007311089 0.012136734 0.11007409
000140 9c 4e 6d bd c7 c0 0d 3d 71 2a 04 bd c3 f5 6c 3e
       -0.057936296 0.034607675 -0.032267038 0.23140626
000150 72 83 0c 3c 24 20 0a 3e f5 fb 02 bb 04 28 02 3e
       0.008576261 0.13488823 -0.0019986604 0.12710577
000160 d0 e0 97 bc 12 84 36 bd fd 40 be 3c 69 dd 8a bd
       -0.018539816 -0.044559546 0.023224348 -0.06780512
000170 b0 50 af ba 09 67 21 3e a7 9c 18 3e b9 03 63 bc
       -0.0013375487 0.15761961 0.14903508 -0.013855868
000180 e7 d8 34 3d bb 1b c1 bb 2d c4 e6 bd c8 3a 8b bd
       0.044152167 -0.0058931983 -0.11267886 -0.06798321
000190 ba 24 a6 bd 9e a2 47 3d fa 9c 10 bc c4 3c 10 3e
       -0.08112474 0.04873907 -0.008826489 0.1408568
0001a0 b8 1c 8b bd 3c 16 d8 3d 2c a1 06 be 1c ab 15 be
       -0.06792587 0.10551116 -0.1314742 -0.14616054
0001b0 62 10 a0 bd 4c 8d 9f bd 76 c7 aa 3d af cb c6 3b
       -0.07815625 -0.07790622 0.083388254 0.0060667614
0001c0 f6 2a f5 3d ab ad 06 be 11 91 d8 bd 7b 8f 01 bc
       0.11971085 -0.13152187 -0.10574544 -0.007907744
0001d0 51 3c ac bd 48 05 01 bd 67 51 30 3e d7 86 a0 bd
       -0.08409942 -0.031499177 0.17218553 -0.07838219
0001e0 9f 20 3f bc 2b 60 13 3e 10 07 88 bc 8b fd e7 3d
       -0.011665492 0.14392154 -0.01660493 0.11327656
0001f0 06 0b 18 3d 83 6f 7e 3c 0d 73 67 bd 5f 4f cb bd
       0.037119888 0.015529516 -0.056506205 -0.09927248
000200 0c 66 b2 3d f6 70 1d be 91 2b d5 bb cf ba 17 3d
       0.0871087 -0.15375122 -0.0065054377 0.03704339
000210 c4 0b 69 3b 77 58 45 bc 8c 5a 4a bc 25 31 0b 3a
       0.0035559991 -0.012045017 -0.01235069 0.00053097523
000220 a3 17 6f 3d 68 7d 49 be a6 d0 92 3d c8 54 ba 3c
       0.05837215 -0.19676745 0.07168703 0.022745505
000230 a3 8d 70 3d b0 63 a2 3d ad 2c 10 bc 71 5a de 3c
       0.058728825 0.0792917 -0.008799714 0.027142735
000240 cb 3e 38 be 94 f9 06 be 3d 02 53 3e 13 4a e2 bd
       -0.17992704 -0.13181144 0.20606323 -0.11049285
000250 38 ef 3a bd d7 47 1d 3d 87 45 9d 3d ce 86 ab ba
       -0.045638293 0.03839859 0.07679277 -0.001308644
000260 d5 52 41 3e 4f b0 b7 3d e1 4a 0c 3b 97 e6 e4 bd
       0.18879254 0.08969175 0.0021406936 -0.11176794
000270 bd 68 5a bd 18 b0 57 3d a3 57 76 bb c9 8c 56 3d
       -0.053322542 0.05265817 -0.0037588857 0.052380357
000280 8d eb 4d 3e 41 50 89 bd 11 07 3d 3e 79 a1 2b bc
       0.20109387 -0.0670476 0.18459727 -0.01047551
000290 8d 76 a7 bd ba b8 c6 bd 82 c4 83 3e 93 db f5 3b
       -0.08176909 -0.097032025 0.2573586 0.007502982
0002a0 87 c9 cc bd fc e9 b3 3d 05 4e 72 3b d4 47 31 be
       -0.09999376 0.08784863 0.0036972773 -0.17312557
0002b0 c8 4b 48 3e 4b d8 12 bd e1 fc ef 3c da f6 60 3e
       0.19560158 -0.035850804 0.029295387 0.21969166
0002c0 1c c4 5d be e9 60 8a 3d df a8 44 3e 17 89 da 3c
       -0.21656841 0.067567654 0.19205044 0.026676698
0002d0 d1 ba 30 3e 99 3a 18 3e 53 e5 d3 3d 69 82 b6 bc
       0.17258765 0.14866103 0.103464745 -0.022278981
0002e0 b5 08 ab bd e6 6a 09 bd ef 8c 23 bb d8 cb 41 bd
       -0.0835127 -0.033549212 -0.002495583 -0.04731354
0002f0 fb 87 21 bd d4 a5 60 3d 68 cf 64 3b f9 7d 0c be
       -0.03943632 0.054845646 0.0034913663 -0.1371993
000300 0c bb ae 3d b6 06 11 3e 4b f6 4b bd d3 ec 04 3d
       0.0853177 0.14162716 -0.04979543 0.032452416
000310 f5 e6 07 3d 22 d5 78 bc 62 76 ab 3d 4f 5b 2f 3e
       0.033179242 -0.015187534 0.08372189 0.17124675
000320 61 7a db bd 6e 24 5a ba e9 f0 08 3e a4 a8 7e bd
       -0.10716701 -0.00083214685 0.1337315 -0.062172547
000330 9e 08 37 3d 41 85 e8 bc d4 73 1f be 12 32 d5 3c
       0.044685952 -0.028383853 -0.15571529 0.026024852
000340 a9 f9 06 3d 30 09 16 bd 40 8f 80 bc 21 27 9f bd
       0.03295294 -0.036629856 -0.015693307 -0.07771135
000350 9e 42 36 3c 78 9d cd 3c ff 3f ec bd cd a2 81 bc
       0.011124281 0.025099501 -0.11535644 -0.0158247
000360 61 e4 fa 3d f9 d4 ad 3d 4f 6e 84 3c 80 f4 84 3d
       0.12250591 0.08487887 0.01616588 0.06491947
000370 c5 8c 00 be 80 8b ca bd 18 ab 6c bd 0e f4 a4 3c
       -0.125537 -0.09889889 -0.057780355 0.020135906
000380 34 8c d9 3d 62 c0 93 bc 3e 22 0d be 60 f2 0d 3e
       0.10622445 -0.018036071 -0.13782594 0.1386199
000390 1d b2 06 bd 99 0b 87 bd e7 fe ba 3b ab a9 f8 bd
       -0.032884706 -0.06594009 0.0057066563 -0.121417366
0003a0 4c c3 8a 3d 42 60 34 3b d1 8e b0 3d 9d 4d d4 3d
       0.06775531 0.0027523194 0.0862099 0.10366366
0003b0 03 09 04 3e 12 7c 9b bd ac 15 b7 bc 45 0c 9a 3c
       0.12894063 -0.07592024 -0.022349201 0.018804679
0003c0 35 d2 7e 3d dc 50 c9 3d 78 fe e2 3d 05 11 c3 bd
       0.062212188 0.09829876 0.11083692 -0.095247306
0003d0 2a 84 97 3d 29 5e c1 3c 76 c7 d8 3d e6 e9 3d 3d
       0.07398255 0.02360447 0.10584919 0.04636564
0003e0 27 3e 73 bd 3a 56 9f bc f3 b5 fa 3d c1 7e 38 be
       -0.059385445 -0.019450296 0.12241735 -0.18017103
0003f0 f4 89 69 3d 9c dd 1f bd ca ba 41 3c 06 a5 c1 bd
       0.057016328 -0.039029703 0.011824319 -0.09455304

network_body._body_endoder.seq_layers.2.bias f4 [128]
000000 00 00 00 00 00 00 00 00 00 00 00 00 00 00 00 00
       0.0 0.0 0.0 0.0
000010 00 00 00 00 00 00 00 00 00 00 00 00 00 00 00 00
       0.0 0.0 0.0 0.0
000020 00 00 00 00 00 00 00 00 00 00 00 00 00 00 00 00
       0.0 0.0 0.0 0.0
000030 00 00 00 00 00 00 00 00 00 00 00 00 00 00 00 00
       0.0 0.0 0.0 0.0
000040 00 00 00 00 00 00 00 00 00 00 00 00 00 00 00 00
       0.0 0.0 0.0 0.0
000050 00 00 00 00 00 00 00 00 00 00 00 00 00 00 00 00
       0.0 0.0 0.0 0.0
000060 00 00 00 00 00 00 00 00 00 00 00 00 00 00 00 00
       0.0 0.0 0.0 0.0
000070 00 00 00 00 00 00 00 00 00 00 00 00 00 00 00 00
       0.0 0.0 0.0 0.0
000080 00 00 00 00 00 00 00 00 00 00 00 00 00 00 00 00
       0.0 0.0 0.0 0.0
000090 00 00 00 00 00 00 00 00 00 00 00 00 00 00 00 00
       0.0 0.0 0.0 0.0
0000a0 00 00 00 00 00 00 00 00 00 00 00 00 00 00 00 00
       0.0 0.0 0.0 0.0
0000b0 00 00 00 00 00 00 00 00 00 00 00 00 00 00 00 00
       0.0 0.0 0.0 0.0
0000c0 00 00 00 00 00 00 00 00 00 00 00 00 00 00 00 00
       0.0 0.0 0.0 0.0
0000d0 00 00 00 00 00 00 00 00 00 00 00 00 00 00 00 00
       0.0 0.0 0.0 0.0
0000e0 00 00 00 00 00 00 00 00 00 00 00 00 00 00 00 00
       0.0 0.0 0.0 0.0
0000f0 00 00 00 00 00 00 00 00 00 00 00 00 00 00 00 00
       0.0 0.0 0.0 0.0
000100 00 00 00 00 00 00 00 00 00 00 00 00 00 00 00 00
       0.0 0.0 0.0 0.0
000110 00 00 00 00 00 00 00 00 00 00 00 00 00 00 00 00
       0.0 0.0 0.0 0.0
000120 00 00 00 00 00 00 00 00 00 00 00 00 00 00 00 00
       0.0 0.0 0.0 0.0
000130 00 00 00 00 00 00 00 00 00 00 00 00 00 00 00 00
       0.0 0.0 0.0 0.0
000140 00 00 00 00 00 00 00 00 00 00 00 00 00 00 00 00
       0.0 0.0 0.0 0.0
000150 00 00 00 00 00 00 00 00 00 00 00 00 00 00 00 00
       0.0 0.0 0.0 0.0
000160 00 00 00 00 00 00 00 00 00 00 00 00 00 00 00 00
       0.0 0.0 0.0 0.0
000170 00 00 00 00 00 00 00 00 00 00 00 00 00 00 00 00
       0.0 0.0 0.0 0.0
000180 00 00 00 00 00 00 00 00 00 00 00 00 00 00 00 00
       0.0 0.0 0.0 0.0
000190 00 00 00 00 00 00 00 00 00 00 00 00 00 00 00 00
       0.0 0.0 0.0 0.0
0001a0 00 00 00 00 00 00 00 00 00 00 00 00 00 00 00 00
       0.0 0.0 0.0 0.0
0001b0 00 00 00 00 00 00 00 00 00 00 00 00 00 00 00 00
       0.0 0.0 0.0 0.0
0001c0 00 00 00 00 00 00 00 00 00 00 00 00 00 00 00 00
       0.0 0.0 0.0 0.0
0001d0 00 00 00 00 00 00 00 00 00 00 00 00 00 00 00 00
       0.0 0.0 0.0 0.0
0001e0 00 00 00 00 00 00 00 00 00 00 00 00 00 00 00 00
       0.0 0.0 0.0 0.0
0001f0 00 00 00 00 00 00 00 00 00 00 00 00 00 00 00 00
       0.0 0.0 0.0 0.0

action_model._discrete_distribution.branches.0.weight f4 [2, 128]
000000 56 c7 af bb ac 7e 88 bb 6b 75 83 bc 30 4d 09 3b
       -0.005364339 -0.004165491 -0.0160472 0.0020950548
000010 ad a6 6b 3c 72 fc 00 bc 9f 72 6b bb 17 e2 53 3c
       0.014383 -0.007872688 -0.0035926474 0.012932322
000020 c9 63 bc 3b 0b 4b 49 3c 5f c7 82 bc 32 da 36 3b
       0.0057492 0.012285958 -0.015964208 0.002790105
000030 47 59 37 3b 4f 58 f5 bb 4a e9 5e bc 6d 34 f5 3a
       0.0027976797 -0.007487334 -0.013605425 0.0018707641
000040 0f 57 87 bc 83 dc 1b bc 07 8b 36 3b 5d 39 18 bc
       -0.016521005 -0.009513023 0.0027853863 -0.00929102
000050 53 4f b1 ba a0 53 8a 3a 8f b6 cd 39 cb d9 09 3c
       -0.0013527669 0.0010553487 0.00039236664 0.008413742
000060 66 cb 0e ba 4f 21 a4 3b 2f 45 7f 3c 5b 9c d5 3a
       -0.0005447179 0.0050088535 0.0155804595 0.0016297208
000070 2a 89 5a bc b9 ff a8 bb eb 1c 4a 3c c9 d3 c1 3b
       -0.0133383665 -0.0051574376 0.012335996 0.0059151393
000080 35 f6 25 bc d0 98 ef bb 05 90 9b ba 48 cb e0 3b
       -0.010129501 -0.007311918 -0.0011868483 0.0068601705
000090 b1 7a 46 bc 02 40 13 3c 1d 66 90 3b de e7 27 bb
       -0.012114213 0.008987429 0.004406704 -0.0025620381
0000a0 23 ee 0e bb db 62 2a bb 34 b5 3c 3c e9 71 36 bb
       -0.002180942 -0.0025998864 0.011517812 -0.0027838892
0000b0 d8 6a a3 bb 8f 0a bf bb 0f 93 d2 3b b9 b3 46 3a
       -0.004987102 -0.005830116 0.006426222 0.00075798813
0000c0 38 f4 b1 bc e2 2c c6 bb a9 d8 06 3c ff ed 95 ba
       -0.021722898 -0.006047831 0.008230367 -0.0011438726
0000d0 53 3f a0 bb a2 fb 41 bc 33 c2 b5 3b 6b 44 26 3b
       -0.0048903613 -0.011839779 0.005546832 0.002537037
0000e0 5f 07 55 ba 73 ed 4d 3b b3 6e c3 3b 33 0e d9 3b
       -0.00081264036 0.0031422048 0.005964124 0.006624007
0000f0 ed b2 5e bc ca 46 43 ba 4e 36 80 bc 14 e6 09 3b
       -0.013592464 -0.0007449208 -0.015650894 0.0021041678
000100 fd 99 f8 ba eb a9 4c bb 28 24 5a bc 49 09 ba bb
       -0.001896679 -0.0031229209 -0.013314284 -0.0056773764
000110 e3 da 36 3a 5e 78 1d bb 5f 8c 14 bc f2 d7 3e 3a
       0.00069753657 -0.0024028043 -0.00906667 0.0007280103
000120 74 db a5 3c 27 87 91 ba bb 91 16 bc 0f 1e c6 bc
       0.020246245 -0.0011102901 -0.009190018 -0.024184255
000130 60 72 a8 bb 55 f6 d9 bb dd 4e d5 3a 1a f3 d5 bb
       -0.0051405877 -0.0066516795 0.0016274113 -0.006529224
000140 ab 78 cc ba 5a 70 b4 bb 91 13 8a bc 82 99 c8 3c
       -0.0015599927 -0.0055065574 -0.016855033 0.02448726
000150 49 59 3c 3c 33 55 cb bb 68 d6 08 3c 9b 4d b6 3b
       0.011495897 -0.006205225 0.0083519 0.0055634505
000160 90 06 f2 ba 6d 41 6f 3c 4b 09 10 bc db 60 c5 bc
       -0.001846509 0.014603001 -0.008791278 -0.024094036
000170 8f e3 f3 3b df 96 0c bb 33 2b 23 3b 28 9e 63 3c
       0.0074428986 -0.002145223 0.0024897575 0.013892688
000180 27 bf 3e bc f0 d5 96 bb d2 0f 03 3b 0e c0 15 3c
       -0.011642254 -0.00460314 0.0019998443 0.009140028
000190 dd bf 5c bc e8 07 fd 3b 27 d8 ef 3b 17 26 1e 3c
       -0.013473478 0.0077218898 0.0073194685 0.009652636
0001a0 e1 84 2c bc f0 1f 27 3c 8c 71 03 3c 6f 4a 87 b9
       -0.010529728 0.010200486 0.008022677 -0.00025804664
0001b0 88 f4 10 3b 7b 7d 05 bc b6 7b 9a ba 3e e2 8b bc
       0.0022118408 -0.008147593 -0.0011786136 -0.017075654
0001c0 d0 63 43 bc 58 5f 12 bc 9b 67 8b 3b 87 53 cc 3a
       -0.011925653 -0.0089338645 0.004254294 0.0015588858
0001d0 48 50 42 bb 7f 5c 5f bc 11 e2 0a 3c 73 b9 f0 ba
       -0.0029649902 -0.013632893 0.00847675 -0.0018365815
0001e0 f2 3e 18 bc 00 2a 16 3b 7d 08 a3 3b 08 50 be 3b
       -0.009292351 0.0022913218 0.004975377 0.0058078803
0001f0 d8 93 22 bc 7a 6e 4e 3b 98 e3 72 3c fb 98 26 3b
       -0.009922944 0.0031498955 0.01482477 0.0025420773
000200 a2 81 70 3c f2 05 da 3b 63 ce b3 3b 05 54 32 bc
       0.014679344 0.006653541 0.0054872497 -0.01088429
000210 b3 39 81 ba a0 af 87 bc 03 59 28 bc 62 69 f6 3b
       -0.0009859115 -0.016563237 -0.010275128 0.007519887
000220 da 5d 65 bb 21 93 8d bb b7 df 2b 3c b3 85 55 bc
       -0.0034998567 -0.0043205176 0.0104903495 -0.013032365
000230 c2 4b 3d 3c 4b 26 0d 3c 58 7b 51 3c da 39 5c 3a
       0.011553707 0.008615087 0.012785755 0.00084009545
000240 37 a1 74 3c fe 22 1e 3c f3 b6 97 bc 85 36 d0 bb
       0.014931015 0.0096518975 -0.018519854 -0.0063541555
000250 bf 9c 0e bb 96 b7 0b bc bb 43 c1 3a aa 74 3c bc
       -0.0021760908 -0.008527657 0.0014744917 -0.011502424
000260 b7 f0 0f bc a7 e7 70 3b dc cb 9e 3b 2f 1f 1c 3c
       -0.008785418 0.003675917 0.0048460793 0.009528919
000270 68 a8 91 3b 2d 11 2a 3b 7a 58 c6 3b 15 69 71 3b
       0.0044451244 0.002595018 0.0060530277 0.0036836315
000280 02 d0 bb 3b db 89 02 3c c9 a1 46 ba 1d aa aa 39
       0.0057315836 0.007967438 -0.00075772085 0.0003255167
000290 f7 78 03 bc 68 6e e0 bb d6 06 1c 3c fa 6a 88 bb
       -0.008024446 -0.006849099 0.009523114 -0.004163143
0002a0 a1 ea c9 bb 3f 47 5f 3c 47 8b b9 bb a4 8c c3 3b
       -0.006162003 0.013627826 -0.005662355 0.0059676934
0002b0 1c d0 bf 3b d2 ca 16 bb b7 83 1c 3c 7d 1a 99 3b
       0.005853666 -0.0023009074 0.009552888 0.004672347
0002c0 f3 37 33 3b 86 26 01 3c 6e 77 30 bc 80 7e a2 bc
       0.002734658 0.00788272 -0.010770662 -0.01983571
0002d0 43 ff 43 bb 48 1a 24 3b 42 1c 6d 3c f2 b6 1e 3b
       -0.0029906787 0.002504008 0.014472069 0.002421793
0002e0 7c c8 0e bc 6a 17 e9 3b 3d bc 7b 3c d2 5f 2e bb
       -0.008714791 0.007113387 0.015364704 -0.0026607406
0002f0 f6 64 9b bb 9f 5f 1c 3c 1e 51 a6 3b 54 8a 06 bc
       -0.00474226 0.009544282 0.005075588 -0.008211691
000300 b7 22 f4 ba 1b 66 ec bb 94 f2 ba ba ad ee 90 bb
       -0.0018626068 -0.0072143204 -0.0014262968 -0.0044229836
000310 e8 6e b8 3b e3 29 94 3a d4 a5 0c bb 8c a6 48 3c
       0.0056284554 0.0011303987 -0.0021461146 0.012246739
000320 05 bc 17 ba 0b 28 a3 3b bf 18 ff 3b a9 05 84 3b
       -0.000578821 0.0049791387 0.0077849324 0.004028995
000330 af b5 2d 3c 6f a1 45 bc 86 8f 2d 3c 1d 2e 72 ba
       0.010602399 -0.012062415 0.010593301 -0.0009238439
000340 52 83 71 3b 10 3f 2b ba 6f d4 38 3c bd bc 2c 3c
       0.0036851955 -0.00065325294 0.011281117 0.010543046
000350 56 41 a6 3c ea 2e 09 3c a2 97 b3 3b 9d 13 8a 3b
       0.020294826 0.008373002 0.0054807225 0.004213764
000360 73 ad 18 bc 25 ae f0 bb 07 34 4a bc 7b 51 52 3b
       -0.009318697 -0.0073449784 -0.012341506 0.0032092023
000370 58 65 63 3b d0 ae b3 3a cf f1 d4 3b 00 10 c9 3b
       0.0034697857 0.0013708714 0.0064985524 0.0061359406
000380 09 9e 95 bb 7d 98 fb 3b 6b 30 8f bb 83 26 c2 3b
       -0.0045659584 0.00767809 -0.0043697855 0.005925001
000390 63 23 02 3a c5 53 9c 3a 55 f5 f7 3b ad c7 fb bb
       0.00049643795 0.0011926821 0.0075670877 -0.0076837153
0003a0 cb e5 8f 3c 5f 69 ae 3a 50 20 9e 3b 7b fa 2b bb
       0.017565629 0.001330655 0.0048256293 -0.0026241827
0003b0 32 5f 78 b9 d2 ad f1 3a c7 d8 97 3c 2a bb 96 ba
       -0.00023686586 0.0018438643 0.018535985 -0.0011499871
0003c0 0f 2c 25 bb f3 42 9e 3a c5 97 98 bc 03 75 40 bc
       -0.0025203263 0.0012074396 -0.018627057 -0.011746648
0003d0 8f 01 30 bc 6b 53 53 bb 1c 6e 8e bb 8f b9 49 3c
       -0.010742559 -0.0032245766 -0.004346622 0.012312307
0003e0 c0 9c 41 bc c2 84 f7 3b e9 9e 39 3b a7 4b a9 3c
       -0.011817157 0.0075536678 0.0028323478 0.020665957
0003f0 38 93 57 bc 03 ce 4f 3b fd 15 5e 3c ed 00 58 bc
       -0.013157658 0.0031708486 0.013555047 -0.0131838145

action_model._discrete_distribution.branches.0.bias f4 [2]
000000 00 00 00 00 00 00 00 00
       0.0 0.0

action_model._discrete_distribution.branches.1.weight f4 [2, 128]
000000 18 cd 72 3c 1f bc 86 3c 5e 22 03 bc 3e 3a 46 bc
       0.014819406 0.016447125 -0.008003799 -0.012098847
000010 82 85 6d 3b 60 f5 f4 bb 97 5e 72 3b 03 e8 17 3b
       0.0036242907 -0.00747554 0.003698265 0.0023179061
000020 23 35 48 bb 57 6c 84 3c 7d 6d 55 bc a9 a1 c2 bb
       -0.003054925 0.016164942 -0.013026592 -0.0059396815
000030 c0 3b 9e 3b cb 90 96 bb ad ca 22 3b c3 c0 60 bb
       0.0048289 -0.0045948974 0.0024840042 -0.0034294582
000040 de a0 32 bc ff 04 4d bc 98 8e 6e bb 73 46 6c 3c
       -0.010902612 -0.012513398 -0.003640091 0.014421093
000050 e2 6f c4 3b 4d 20 d4 3b 7b 39 63 3b 63 1a 63 3b
       0.005994783 0.006473577 0.0034671712 0.003465318
000060 3b c9 16 3a 46 fc 0d bc 1b 21 87 bc d0 54 8e ba
       0.00057520316 -0.008666104 -0.016495278 -0.0010859016
000070 1a 4b 85 b9 49 40 0a 3b 61 4a 9a bc 43 92 24 bb
       -0.00025423692 0.0021095446 -0.018834295 -0.0025111593
000080 c3 eb 15 3b ff 9f 13 3c af 1d eb bb e4 63 4c bb
       0.002287612 0.009010314 -0.0071751694 -0.003118747
000090 25 c3 dc bb c3 83 bb bb e8 de 70 3c 0d 6f e3 bb
       -0.00673713 -0.0057224943 0.0147015825 -0.0069407285
0000a0 b0 0c b9 3a 3b 31 2b bb 53 36 a2 3b 41 4d b7 3c
       0.0014118161 -0.0026121873 0.0049503236 0.022375705
0000b0 33 f1 37 bb 3b 20 d7 3a 55 3e f1 ba 47 74 91 3b
       -0.002806735 0.0016412804 -0.0018405417 0.00443891
0000c0 86 a6 10 3c d3 9b 71 bb 7d 87 9a 3b 56 f2 40 bc
       0.008828765 -0.003686656 0.0047158585 -0.011776527
0000d0 75 bd 30 39 37 ee b0 3a 8b 6e c3 bb 43 89 06 3c
       0.00016855246 0.0013498728 -0.0059641055 0.008211437
0000e0 83 59 8d bb 88 7d 82 3c 52 b8 e3 3b 3d 52 75 3c
       -0.004313649 0.015928999 0.006949463 0.01497322
0000f0 02 6e 1c bc 5b dd 1e 3c 69 7c 3c 3c 70 4a 7e bc
       -0.009547712 0.00969633 0.011504271 -0.015520677
000100 87 9d 3f 3c a2 cf 0c bb 9a 19 98 bb 19 53 a8 bc
       0.011695272 -0.0021486063 -0.004641724 -0.020547437
000110 c2 ca 06 3c cd 65 ed 3b a3 72 9f bb b4 2f 01 bc
       0.008227052 0.0072448016 -0.0048659607 -0.0078849085
000120 7f 63 86 3b 31 cd 91 3c ed aa 05 bc 3b 1c 28 bb
       0.0041012163 0.017798038 -0.008158428 -0.0025651592
000130 3b 42 ea bb 52 9d 50 3c ad 41 2c b8 22 ad 92 bb
       -0.0071490086 0.012732821 -4.106916e-05 -0.0044762054
000140 94 5a 17 bc 02 7d a2 bb 5f 56 90 3a d0 53 51 bc
       -0.009237904 -0.0049587497 0.0011012069 -0.01277633
000150 67 7c d3 bb 28 fc 7e bc ef bc 5d 3b c5 dd ad 3c
       -0.006454039 -0.015563048 0.0033834537 0.021223912
000160 2b 47 d6 3b b8 2f 8e 3b 06 7c 91 b9 07 6a 83 bb
       0.0065392456 0.0043391846 -0.0002774896 -0.004010442
000170 f6 29 ac 3b 27 ed ad 3b 79 d5 15 bc a3 14 e7 3b
       0.0052540256 0.005307812 -0.009145134 0.0070520206
000180 60 52 a8 bc 0e e9 1c 3c a3 a3 d7 ba 33 fd da ba
       -0.020547092 0.009577049 -0.0016451966 -0.0016707539
000190 93 ad 86 3b ea 36 60 3b b4 76 39 ba 32 45 52 bc
       0.004110047 0.0034212419 -0.0007074878 -0.01283388
0001a0 95 12 cf bb c2 7a 50 3b dd 6a 39 bc 61 de 0e 3b
       -0.006319354 0.003181145 -0.011316982 0.0021800029
0001b0 55 cc fe ba 70 ce 3d bb c9 ad 45 3c a0 48 5c 3a
       -0.0019439558 -0.0028962158 0.012065359 0.0008403156
0001c0 29 7a 2e 3c b8 f1 7e bb 8c 1d 2a 3b 53 d0 51 3c
       0.010649242 -0.00389014 0.0025957553 0.012806016
0001d0 c5 74 6d 3c 49 04 84 39 38 22 53 bc 53 e7 95 3b
       0.014493172 0.00025180195 -0.012886576 0.004574695
0001e0 f5 cb 7d 3b 8d f6 71 3c 0f 36 3f 3b 03 4b 05 39
       0.0038726304 0.014768255 0.0029176509 0.00012711812
0001f0 10 fe 4e bc ca 80 bd bc 7b 69 6c 3c bf 76 1b bc
       -0.012633815 -0.0231327 0.014429445 -0.0094887605
000200 e6 e6 c0 3b d1 10 b1 3b 2b ff 2c bc bf 89 a1 bb
       0.0058869002 0.005403616 -0.010558884 -0.0049297507
000210 f1 a8 2a ba ce 06 8d bb f7 e7 1d bc 8a 3e 22 ba
       -0.00065101596 -0.0043037897 -0.009637824 -0.00061891286
000220 d2 01 c3 bc 8d 18 d6 bc e0 48 83 3c 2a 51 49 3b
       -0.023804579 -0.026134754 0.01602596 0.0030718544
000230 79 10 94 3b 78 a7 dc bb f0 d3 23 bc f4 0b a7 3b
       0.0045185653 -0.006733831 -0.00999926 0.0050978605
000240 bd 82 87 bc ac 34 8f bb 25 57 61 bc 73 88 13 bc
       -0.016541833 -0.0043702926 -0.013753687 -0.0090047
000250 47 7c 6f 3b 84 ce 09 3b 83 64 f7 3b 1a db e4 3b
       0.003654258 0.0021027634 0.0075498237 0.0069841268
000260 f7 cf b7 bb 6e 82 20 bc 4b ed 87 bb ca ea 4f bb
       -0.005609508 -0.009796722 -0.0041481606 -0.0031725639
000270 31 71 af bc 7d 18 ec b9 3d f7 37 3b 82 b5 7f 38
       -0.021416279 -0.00045031673 0.002807095 6.096578e-05
000280 3f ca 90 3b 1f 7c e2 bb 19 3f cc ba e9 e6 46 bc
       0.004418641 -0.006911769 -0.0015582769 -0.012140014
000290 12 35 7b 3c 38 64 ce bc 77 2d 78 bb a0 83 09 bc
       0.015332477 -0.025194272 -0.0037868896 -0.008393198
0002a0 07 5b 3f 3c b4 44 44 bb 3a 92 29 3b b8 1d 46 bb
       0.011679417 -0.0029948177 0.0025874511 -0.0030230116
0002b0 ed a4 87 3c 8b ca 5a 3b 2b 1e cb bb 02 0e cd bb
       0.016558135 0.0033384885 -0.0061986647 -0.0062577734
0002c0 8c 65 ae 3a 06 74 06 bb 9f bc cc bb 9d 89 0b bb
       0.001330541 -0.0020515933 -0.0062480713 -0.002129174
0002d0 79 2b 28 3c 63 4e d2 3a 6b 64 56 3c 84 82 0c 3c
       0.010264271 0.001604509 0.013085465 0.008576039
0002e0 c0 79 52 bb 47 fd 45 3c 13 33 e7 3b 0d df 4b 3c
       -0.0032116026 0.012084312 0.007055649 0.012443316
0002f0 35 bd 36 bc 75 b7 2d bb 37 8c 93 3b 03 31 28 3b
       -0.011153509 -0.0026507054 0.004502799 0.002566398
000300 80 e0 c3 38 e0 7e 97 3c e4 79 88 bc 2c 57 32 bb
       9.340141e-05 0.018493116 -0.016659684 -0.0027212603
000310 39 2d 23 3a e1 54 cb bb 37 c9 78 3c 0b f2 8d 3a
       0.0006224695 -0.0062051867 0.015184692 0.0010829581
000320 2e 93 a2 3b 36 69 9d 3c 9a ec fa bb 14 ff 1d 3b
       0.004961393 0.019215208 -0.0076575996 0.0024108337
000330 28 0b 08 3b c3 53 34 b9 e7 1f e0 3a b8 16 55 3c
       0.0020758603 -0.00017197341 0.0017099351 0.013005905
000340 ef 32 27 3b ea 69 33 3b 23 00 e7 ba ad 2c 04 3b
       0.0025512537 0.0027376362 -0.0017623942 0.002016823
000350 aa 51 dc 3b 0b b6 73 3c a6 5e 0a bc 2a dc 79 3a
       0.0067236023 0.014874945 -0.0084454175 0.0009531403
000360 a7 ea 2b bc 9a db 0f bc 3b e2 42 bb a7 90 8b 3b
       -0.010492957 -0.008780384 -0.0029736895 0.0042591873
000370 7b ce 17 bb 37 0d 78 b9 c8 7f d4 3a 42 59 01 3b
       -0.0023163843 -0.00023656046 0.0016212398 0.001973704
000380 47 d6 86 bb 90 7a 5a bb a4 8c 41 bc db 1b 39 bc
       -0.0041148993 -0.0033337213 -0.0118133165 -0.011298145
000390 8b e8 20 3c a7 6c 2c bc 8d b3 80 bc aa c9 bb bc
       0.009821068 -0.010523952 -0.015710616 -0.02292331
0003a0 28 21 99 3b 0f f3 27 3b 55 18 61 3c 43 b2 99 3c
       0.004673142 0.0025627052 0.013738711 0.01876176
0003b0 60 6d 5f bb c2 88 51 3b 42 0e 75 3c 82 26 e8 3b
       -0.0034092292 0.0031972383 0.014957013 0.0070846686
0003c0 fd b4 6e b8 9f 18 b4 3b 58 27 1c 3c 31 cf 44 bc
       -5.691218e-05 0.005496099 0.009530865 -0.012012289
0003d0 c3 40 b1 bb 2b c3 a3 3b 4a b3 99 bb 30 8d 0d bc
       -0.0054093315 0.004997631 -0.0046905624 -0.008639619
0003e0 09 89 07 3c 7b 85 56 3c 9f 38 6c 3b 23 58 d0 bb
       0.008272418 0.013093348 0.003604449 -0.006358163
0003f0 59 45 86 3c aa 09 46 3b 2a bd 6f ba 63 1c 58 bb
       0.01639049 0.0030218163 -0.0009145314 -0.0032975904

action_model._discrete_distribution.branches.1.bias f4 [2]
000000 00 00 00 00 00 00 00 00
       0.0 0.0

action_model._discrete_distribution.branches.2.weight f4 [2, 128]
000000 3d 29 fd bb cc 5f c8 bb 10 a3 e3 bb 73 14 e6 39
       -0.0077258633 -0.0061149355 -0.006946929 0.00043884254
000010 99 31 29 bb 2b 23 e8 ba 99 bf 42 3b 77 c7 34 3c
       -0.0025816916 -0.0017710676 0.0029716252 0.011033884
000020 bd a1 52 bc 87 93 f1 ba 37 b7 1b 3c 2b 43 a5 3c
       -0.012855944 -0.0018430807 0.009504131 0.02017363
000030 43 62 d3 3b b5 a0 45 bc db 51 ae bb aa a0 8f 3b
       0.0064509227 -0.012062241 -0.0053198165 0.0043831663
000040 39 a8 92 3a ee de 8c bc 70 36 45 3b 11 49 20 bb
       0.001118905 -0.017196145 0.0030092262 -0.0024457613
000050 ea 79 e9 ba a3 33 be 3b 04 f3 8d 3b 8f 96 e0 ba
       -0.0017812822 0.0058044954 0.0043319482 -0.0017134714
000060 e0 7d d6 ba e2 38 f3 3b e3 50 e8 bb a6 c8 0b bb
       -0.0016364418 0.0074225524 -0.0070897206 -0.0021329313
000070 ab 81 cd bb ef 75 4d 3c 2a a5 93 3c 18 17 d0 3b
       -0.006271561 0.012540325 0.018023092 0.0063504092
000080 f2 34 47 bb fb 0d e3 3b 9b a9 81 bc b8 c0 59 3c
       -0.0030396548 0.006929157 -0.015827945 0.013290577
000090 12 f8 b1 3b 07 1f 09 ba 4b 56 4c 3c a7 90 1b 39
       0.0054311836 -0.00052307587 0.012471746 0.00014835839
0000a0 66 e3 3a 3b cc 8b 29 3c ba 11 21 bb 19 16 48 3c
       0.0028516888 0.010348272 -0.0024577216 0.0122123
0000b0 85 7e cd b7 14 2e bf bc ca b7 4f bb 8f 8e 7c bc
       -2.449682e-05 -0.023337401 -0.003169524 -0.015414848
0000c0 ab da ae bb b3 ab 56 3c c4 fb 9f 3b 3a d5 64 3b
       -0.005336126 0.01310246 0.0048823077 0.0034917132
0000d0 ba ea d7 3b df 9a 3e bc 9b e8 11 bc d0 4f fe 3b
       0.006589261 -0.011633604 -0.008905555 0.0077609792
0000e0 47 36 53 3c 43 14 ea b9 be 6c 8d 3b 3a eb 60 3c
       0.012891359 -0.00044647054 0.0043159416 0.013727957
0000f0 6d 59 d8 bb d2 2f be bb 0e 56 8b ba d3 ed 8a 3b
       -0.0066024573 -0.0058040405 -0.0010630505 0.0042397766
000100 a2 86 e6 ba 24 77 b1 3c 3d f4 41 bc 95 38 72 3b
       -0.0017587731 0.021663256 -0.011838016 0.0036959995
000110 93 6d dd bb 83 34 5e b9 62 4f 43 bc 90 a2 d9 3b
       -0.006757447 -0.00021191132 -0.011920782 0.0066416934
000120 a5 9d a0 bb 07 79 8e bc ba bc d9 bb f7 f5 b9 3a
       -0.004901605 -0.017391695 -0.0066448124 0.0014187683
000130 65 7c 4f 3b e2 6a 6e bc 90 88 e1 bb 7b b5 40 3c
       0.0031659838 -0.01455185 -0.0068827346 0.011762018
000140 4b 86 19 3c 9b 33 a3 ba 0b 86 25 3a 21 a8 b4 3b
       0.009370397 -0.0012451293 0.00063142244 0.0055132066
000150 0f 4f 50 3c c3 b5 0a bb 0b 86 84 bb e3 28 5e bb
       0.012714162 -0.0021165467 -0.0040442995 -0.0033898882
000160 32 15 7f bc 1f 48 61 bc 73 01 69 bc b3 52 3c 3a
       -0.015569018 -0.013750105 -0.014221537 0.0007183954
000170 0d 49 50 bb 05 04 d0 bb ab 92 f4 3b 9b 35 90 3b
       -0.0031781823 -0.0063481354 0.0074637732 0.0044009215
000180 98 7e 9b bb bc cf cb 3b 34 40 b6 3b 6b 6b b7 bc
       -0.0047453158 0.006219832 0.005561853 -0.022390088
000190 77 9e 45 bc ad b6 4f 3c f9 9d 4a 38 ed 61 a4 3c
       -0.012061707 0.012677831 4.8307676e-05 0.020066226
0001a0 bf bd 37 bb bb 6f 37 3c c2 51 33 3c af 2e 96 3b
       -0.0028036681 0.011196072 0.010944786 0.004583202
0001b0 2c b0 ae bb 69 83 9b b7 6f 6b 0c bb cb da 8f ba
       -0.00533106 -1.8538633e-05 -0.002142634 -0.001097524
0001c0 4e c7 a5 3c 6c ce 1e 3c ec 78 c3 3a 71 69 0b 3c
       0.020236637 0.0096927695 0.0014913357 0.008509026
0001d0 6d 64 82 bb 4c 3f ab bb 4c 36 c4 bc 6b b1 98 3b
       -0.003979257 -0.0052260514 -0.023951672 0.0046598217
0001e0 63 c5 2d bc 82 7c f4 3a af 59 5f ba 95 63 42 3c
       -0.010606143 0.0018652829 -0.0008520139 0.0118645625
0001f0 67 74 95 3a fe 2c b8 bb da 85 ca 3a d9 4c 43 bc
       0.0011402488 -0.005620598 0.0015451268 -0.011920177
000200 4b 9a b6 3b b7 06 46 3c 2b 1e 8d bc 1f bc e0 b9
       0.0055725924 0.012086562 -0.0172263 -0.0004286477
000210 70 02 bd bb c2 af b5 bb 8f f4 10 bc e7 b1 1f bc
       -0.005768113 -0.0055446336 -0.00884737 -0.009747005
000220 68 cc 90 bc b9 03 b0 bb fb 58 da 3b 95 82 76 3c
       -0.017675593 -0.0053715375 0.0066634393 0.015045782
000230 37 00 52 3c 09 84 29 3c ab bb 3c 3c bb ce 87 3c
       0.012817434 0.010346421 0.011519353 0.016578069
000240 4c 9e a6 3b 2d aa ff bb f2 e8 e5 3b 60 6d 85 bb
       0.0050847884 -0.007802269 0.0070162946 -0.0040718764
000250 6a a9 f9 3b 6a 67 4e 3c 0b aa 46 3c cf c3 45 3b
       0.0076190727 0.012597898 0.012125502 0.0030176525
000260 b2 0d a3 3b 3b 91 8c 3b 1d 37 53 3b e4 1a 11 bc
       0.004975998 0.0042897738 0.0032228895 -0.008856509
000270 8f b5 99 3b 45 53 f9 3a 13 38 8b bc b5 8c 0f bc
       0.004690833 0.0019022009 -0.016994512 -0.0087615745
000280 cf 0e fa 3b cd 8a 67 bc f7 09 87 3c 4d a1 3b bc
       0.00763116 -0.014132214 0.016484244 -0.011452031
000290 19 e7 a8 ba eb cd 68 3c 13 61 c0 3b 33 32 06 bb
       -0.0012886255 0.014209251 0.005870947 -0.0020476698
0002a0 ba 2c 9d 3a d7 60 06 3c ab 61 4b bc a7 2f 81 bc
       0.0011991479 0.008201799 -0.012413423 -0.015769793
0002b0 42 34 ae ba 3a 5e 5e 3b 2a 9a fc bb 23 1a 91 3a
       -0.001329072 0.0033930675 -0.0077088075 0.0011070411
0002c0 9a 64 a4 bb 13 8a b2 3b 7c 9e a3 bb a8 2c 11 bc
       -0.0050168755 0.0054485886 -0.004993258 -0.008860745
0002d0 57 cd c5 3b f4 70 47 3c e9 02 1d 3c c1 26 be bb
       0.0060364413 0.012172926 0.009583213 -0.0058029597
0002e0 0b 3b f1 bb 50 f9 6d 3a 4f 41 b3 3a d3 e7 06 3c
       -0.007361775 0.0009077983 0.001367608 0.008233982
0002f0 87 e1 9e bb ea 88 87 bb b3 bf 13 ba 7b 70 51 3c
       -0.0048486623 -0.0041361945 -0.00056361704 0.012783165
000300 0b 9b ce 3b f7 3f 6c bb b5 ab 69 3c f3 a2 dd b9
       0.0063051037 -0.0036048868 0.01426213 -0.0004227381
000310 1c ba 11 3c f5 74 9e bc 20 35 de 3a df 2a a5 3c
       0.00889447 -0.019342879 0.0016953088 0.020162044
000320 e0 ce a1 bb af a0 91 3c 8b 51 62 bc c6 61 2d 3c
       -0.0049379915 0.017776815 -0.013813387 0.010582393
000330 80 b0 55 bb b3 84 36 3a 7f 3a 03 bc 9b 30 ce 3b
       -0.0032606423 0.0006962523 -0.008009552 0.0062924153
000340 3d 69 93 bb a1 64 8b 3b 0e 65 9a bb 26 3e 82 3a
       -0.0044986294 0.0042539393 -0.0047117537 0.0009936735
000350 43 e8 9a 3a 0e 75 10 3c 7c b5 2f 3b c3 9e e6 3b
       0.0011818487 0.0088169705 0.0026811054 0.007037969
000360 a2 2f 0d 3c 50 c1 77 3c fd 0c ee bb dc a0 b1 3c
       0.008617314 0.015121773 -0.007264732 0.021683149
000370 a7 15 a5 3b 8e 9b 42 bc a7 44 2a bc 7a 2c 1c bb
       0.0050379816 -0.011877907 -0.010392345 -0.002383022
000380 07 4a c6 3b 5b 50 f7 ba 3b 7c 30 3b 35 d4 08 3c
       0.006051305 -0.0018868552 0.0026929516 0.008351375
000390 e0 09 6e 3c 89 55 2a 3b f2 06 28 bc 31 55 98 3b
       0.014528722 0.0025990924 -0.010255562 0.0046488275
0003a0 e5 2e ed 3b 53 b4 2c 3c 83 7f 5b 3c c1 85 03 bc
       0.0072382563 0.0105410395 0.0133971 -0.008027495
0003b0 51 fc 1c bb 92 9c ea 3b 68 9a 92 bb e2 97 60 ba
       -0.0023954103 0.007159778 -0.004473973 -0.0008567554
0003c0 27 45 3f 3b 0b 35 03 bc f2 3c 0e 3a 3f f6 16 bb
       0.0029185505 -0.008008252 0.00054259517 -0.0023034958
0003d0 64 2f 8b bc 06 85 a1 bb eb 12 41 3c 3f 2c c1 3a
       -0.016990371 -0.0049291877 0.011784296 0.0014737918
0003e0 0b 51 af bc ca 92 c9 3b d2 6d d0 3b 2b 66 b3 bb
       -0.021400949 0.006151532 0.006360748 -0.005474826
0003f0 89 bf 14 3b 9e c0 1c bb c7 d0 26 bc b7 50 22 bc
       0.0022697172 -0.002391852 -0.010181612 -0.009906939

action_model._discrete_distribution.branches.2.bias f4 [2]
000000 00 00 00 00 00 00 00 00
       0.0 0.0

action_model._discrete_distribution.branches.3.weight f4 [2, 128]
000000 7a ca 80 3b fb 1e 5b 3b 2a 54 14 3c d3 f2 2c 3c
       0.003930387 0.0033435214 0.009053269 0.010555941
000010 17 7e 9f 3b 93 6a ba 3a 40 dc 2f ba 03 36 25 bc
       0.004867326 0.0014222435 -0.000670854 -0.010083678
000020 da 8f 64 3c 57 d5 21 3c 23 ad df 3b 45 0a 37 bc
       0.0139503125 0.009877524 0.0068260594 -0.011171882
000030 23 a4 dc bb 47 f7 3b bc 7f fb 28 bc 8e 9c bf ba
       -0.006733434 -0.01147253 -0.010313868 -0.00146188
000040 8f 85 c0 bb fb 7f 67 3c a8 47 db 3b 9b dc 6e 3c
       -0.0058752964 0.014129634 0.0066918917 0.014578964
000050 f3 24 19 bc 08 5c f5 bb 3b 9a d3 bb 3f 26 22 3b
       -0.009347188 -0.0074877776 -0.0064575947 0.0024742035
000060 61 f6 4a bc 23 76 6c ba 77 10 0d bc e3 38 49 3c
       -0.012387843 -0.0009020289 -0.008609883 0.012281629
000070 02 32 dc bb fb af eb 3b 65 75 07 3b 3e 22 0f bc
       -0.0067198286 0.0071926094 0.0020669338 -0.008736191
000080 7f 5a 93 bb a8 04 cf ba 4a 81 1d 3c 4f 88 f7 bb
       -0.004496872 -0.0015794234 0.009613344 -0.007554091
000090 12 53 37 3c 55 b8 4c 3c 19 c6 2e bc cf 25 c8 bb
       0.011189239 0.01249512 -0.010667347 -0.0061080228
0000a0 db fe d5 bb 33 2b eb b9 dd bf d5 bb e6 7e 1b bc
       -0.0065306253 -0.0004485488 -0.006523116 -0.009490704
0000b0 78 7d 8f bb 4b 48 21 bb 9e b4 2a bb 83 69 cd bb
       -0.0043789707 -0.002460974 -0.0026047598 -0.0062686815
0000c0 88 0a 75 bc 78 20 70 bb 5c 3e 39 ba 32 58 6b 39
       -0.014956124 -0.0036640447 -0.0007066482 0.00022444202
0000d0 a0 fc 20 bc 93 a0 87 3b 0d e5 ee b9 ed f7 71 3c
       -0.0098258555 0.004139015 -0.00045565554 0.014768583
0000e0 6b 25 c0 bb dd 33 7a bb 27 04 5c bc 3b 43 c1 bb
       -0.0058638356 -0.0038177886 -0.013428724 -0.005897907
0000f0 43 da 47 3c 21 d7 3e bc df bd 07 3c c3 e0 03 bb
       0.012198034 -0.01164797 0.008285015 -0.0020122982
000100 d9 1f 03 3c 72 0a dd 3b 00 2d fa 3b 38 99 d3 b9
       0.008003199 0.00674563 0.007634759 -0.00040359213
000110 a5 2e a3 bb 4c 13 41 ba ad 76 59 3a f6 b8 a3 bb
       -0.0049799257 -0.0007365241 0.0008295577 -0.0049964143
000120 18 c2 27 3c e5 19 e7 3a e8 14 e7 bb c5 80 a8 bb
       0.010239147 0.0017631619 -0.0070520528 -0.0051423036
000130 63 c8 78 3a 92 a5 72 bb 18 3c 2c bb 08 17 9f 3b
       0.0009490309 -0.0037024957 -0.0026280936 0.0048550405
000140 a8 e1 af 3b 68 cd e1 37 7c 42 4a 3a f7 64 2a 3c
       0.0053674765 2.691774e-05 0.00077155954 0.010400048
000150 67 41 f6 ba 93 fa 98 bb 38 bc 7a bc ef 8d 29 bc
       -0.0018787802 -0.0046685426 -0.015303664 -0.010348781
000160 e9 6c 19 3a 25 1a 10 bc 0b d5 8f 3b 9d 65 39 bc
       0.00058527157 -0.008795296 0.0043894104 -0.01131573
000170 e7 36 93 3c c5 17 05 bc b5 95 c1 3c 9a 2c 21 bb
       0.017970515 -0.008123343 0.023630956 -0.0024593235
000180 97 cb ce bb 03 7c 8b 3a 42 cd a0 bb 18 aa 5e bb
       -0.006310891 0.0010641817 -0.004907281 -0.0033975895
000190 e3 c0 7d 3b 7d a4 5b bc 30 a6 8c ba ed 97 7f 3c
       0.0038719706 -0.013405916 -0.001073068 0.015600187
0001a0 93 5c c8 ba 9e e3 32 3b 6f bd df ba 77 33 89 39
       -0.0015286378 0.0027296315 -0.0017070005 0.0002616902
0001b0 47 1d 23 bc 4c cc a4 ba 8a 67 d7 ba e3 be 5c bc
       -0.009955711 -0.0012573092 -0.0016434055 -0.013473245
0001c0 41 35 02 bb 8a 23 0c bc ff 91 ef bb 8f b5 85 bc
       -0.0019868168 -0.008553395 -0.0073111053 -0.016321925
0001d0 ff fd 81 ba cf ba 13 3c 8f be d6 3b 9f 4b 99 bb
       -0.0009917616 0.009016707 0.006553478 -0.004678204
0001e0 d7 16 d0 3b e7 2e 1f 3c fa 25 78 bb 0e 24 43 bc
       0.006350379 0.009715772 -0.0037864433 -0.011910452
0001f0 af 9a a6 3b ab 65 b2 bc dd dd 04 bb c1 c4 bf 3b
       0.0050843577 -0.021776995 -0.0020273842 0.0058523123
000200 1b fb bb 3b f1 7a 2c 3c 43 35 d6 3b df b3 05 bc
       0.005736721 0.010527358 0.006537111 -0.00816056
000210 92 f7 97 ba 69 e8 84 3c 75 1e 1c 3c 03 f2 9a ba
       -0.0011594167 0.016224103 0.009528746 -0.0011821393
000220 dc ec aa bb ba 61 87 bc d7 52 05 3c d0 33 ab ba
       -0.005216224 -0.016526092 0.008137426 -0.0013061706
000230 f8 43 48 3b 83 4e 8a bb 5a c7 fd 3b 8d 85 58 bc
       0.003055809 -0.004220785 0.007744712 -0.013215435
000240 df 7b eb bb a9 0a 1e 3c 07 af 53 bb e0 64 48 bb
       -0.0071863974 0.009646096 -0.003230037 -0.0030577704
000250 f2 18 ff 3b 50 4b 55 bc c0 c6 5e 3b 93 07 35 bb
       0.007784956 -0.013018444 0.0033992976 -0.0027622923
000260 07 28 6d bc 42 e0 09 3c d7 20 06 3c 78 71 f1 3b
       -0.014474875 0.008415284 0.008186541 0.007368263
000270 ab 22 b9 bb 13 f1 1f bc 6e 67 a9 ba fc e5 92 3b
       -0.0056498847 -0.009762066 -0.0012924501 0.0044829827
000280 5d a9 bc 39 3f 15 54 ba 9f ce d4 bb ae c9 0b ba
       0.0003598434 -0.0008090324 -0.0064943577 -0.0005332482
000290 7b c2 01 3c 8a 82 2f 3c 7d cd d6 3b 15 c6 4e 3b
       0.007919903 0.010712275 0.006555258 0.0031551172
0002a0 9f f7 81 3b 53 24 af bb b7 ea b1 3a e8 be 25 3c
       0.0039662863 -0.0053449064 0.0013573979 0.010116316
0002b0 45 30 ce 3a 97 aa b7 3b d5 0e f8 3b 57 cd 01 3b
       0.0015730938 0.0056050527 0.0075701275 0.001980623
0002c0 94 91 28 bc 5d 4e 57 3b 2b 5b 2f bb 12 d0 e8 3b
       -0.010288615 0.0032853105 -0.0026757221 0.007104882
0002d0 dc d3 23 3b 1d e4 78 3c 5a 65 00 3b d8 6e 29 3b
       0.0024998104 0.015191105 0.001959166 0.0025853422
0002e0 5f 76 67 37 8d d3 cd bb b9 40 cc ba d4 b7 bd 3b
       1.3796233e-05 -0.0062813223 -0.0015583254 0.0057897363
0002f0 ed 3d a8 bb eb 4c 54 b9 2f 63 7d bc 90 74 1d 3c
       -0.0051343353 -0.0002024655 -0.015465542 0.00961031
000300 50 63 2b bb 97 af 46 bc 32 7e 87 3b 9f 8c e6 ba
       -0.0026151724 -0.012126825 0.0041349167 -0.0017589516
000310 64 fd 1a ba 53 cf 71 bc bc f1 3a 3c 40 fd 78 bc
       -0.0005912392 -0.014758903 0.011410173 -0.015197098
000320 74 30 26 3c 8b 64 90 ba 79 03 87 3b a4 f8 33 bc
       0.010143388 -0.0011016292 0.004120287 -0.0109845735
000330 9a b8 48 3c ae e5 0a 3c 06 ac 98 b7 6a 38 20 bb
       0.012251044 0.0084776115 -1.8199917e-05 -0.0024447688
000340 e0 94 11 bc 6a 7a 2b 3a 95 9c 19 3c 73 99 34 bb
       -0.008885592 0.00065413734 0.009375711 -0.0027557283
000350 3f ad 6e bc 42 b8 5e 3a e0 29 5c ba 57 a9 73 3a
       -0.014567672 0.00084960845 -0.0008398574 0.0009294948
000360 76 cc 81 ba ff 65 2f 3c 69 70 8b bb 7b 26 be 3a
       -0.0009902853 0.01070547 -0.0042553437 0.0014507318
000370 4f 52 a9 3b 1d e2 b8 ba ad 9c 66 bc 9e 15 a9 39
       0.0051672827 -0.0014105473 -0.01407544 0.00032250298
000380 1c e5 37 3c c8 dc fb 3b 07 56 c2 bb ba c2 12 bc
       0.0112240575 0.0076862313 -0.0059306654 -0.008957559
000390 c7 91 8f 3b f3 d4 96 bb ba 58 da ba ae 8f 36 bc
       0.0043813917 -0.0046030222 -0.0016658523 -0.011142654
0003a0 7f 81 f7 3b 35 15 67 3a 72 ff ad 3a c2 21 56 ba
       0.007553279 0.0008815111 0.0013274981 -0.00081684825
0003b0 97 29 0b bb 5b f1 d5 3b 23 32 20 3b 1a a1 58 bb
       -0.0021234506 0.006529016 0.0024443946 -0.0033055008
0003c0 1b c4 3a 3c 2b 92 94 ba 8d 5c 0e bc 9c 95 c4 3b
       0.011399294 -0.0011335065 -0.008689058 0.00599928
0003d0 cf cc cf 3b a7 8e 51 bc 76 93 84 bb 8d 34 bc bb
       0.0063415538 -0.012790359 -0.004045899 -0.005743569
0003e0 a5 25 3f 3b bb 4b 77 3c 33 56 be 3c 97 82 7f 3a
       0.0029166725 0.015093739 0.023234462 0.00097469374
0003f0 05 e3 65 bc 53 85 e2 bb 77 3b 5d bb af 10 00 bc
       -0.014031176 -0.006912866 -0.0033757368 -0.007816478

action_model._discrete_distribution.branches.3.bias f4 [2]
000000 00 00 00 00 00 00 00 00
       0.0 0.0
