Assets/results/ppo/My Behavior/My Behavior-15.pt (torch, 219559 bytes, 38 tensors)

discrete_act_size_vector f4 [1, 14]
000000 00 00 00 40 00 00 00 40 00 00 00 40 00 00 00 40
       2.0 2.0 2.0 2.0
000010 00 00 00 40 00 00 00 40 00 00 00 40 00 00 20 41
       2.0 2.0 2.0 10.0
000020 00 00 20 41 00 00 20 41 00 00 20 41 00 00 20 41
       10.0 10.0 10.0 10.0
000030 00 00 20 41 00 00 20 41
       10.0 10.0

network_body._body_endoder.seq_layers.0.weight f4 [128, 24]
000000 80 aa 8c 3e 54 ef 65 3e 75 a3 2c 3e 3d 32 31 be
       0.2747383 0.22454578 0.16859229 -0.1730432
000010 5e b9 04 3d 63 a8 1b 3e 50 6e 3c be b0 f1 48 3e
       0.032403342 0.15200953 -0.18401456 0.19623446
000020 7f 08 4d bc 8e fd 1a be d7 52 67 be be cd a0 3e
       -0.012514233 -0.15135786 -0.22590195 0.3140697
000030 af 7e d5 bd 73 83 50 be 67 5f 96 3d ed 09 a0 be
       -0.104245536 -0.20362644 0.07342415 -0.31257573
000040 b1 bb af 3e b7 60 06 3e f4 46 da be 53 c6 cd 3e
       0.34322885 0.13122831 -0.42632258 0.40190372
000050 5d 2a 0d be 30 d4 81 3d e9 a6 28 3e c9 31 79 3e
       -0.13785692 0.063393 0.16469921 0.24335398
000060 06 6f 35 3e b0 7a ab 3e ec fd b6 3e 21 22 29 3e
       0.17718133 0.3349204 0.35740602 0.16516925
000070 9e e1 a5 bd ae 64 20 3e 36 95 42 3e 78 11 46 be
       -0.08099674 0.15663406 0.19002232 -0.19342601
000080 79 08 51 3e d7 00 11 3d df f1 02 3e 28 30 3c 3e
       0.20413388 0.03540119 0.12787579 0.18377745
000090 0a c7 64 3e 8a 4f 45 bd 24 c2 a2 bd 17 b3 8f be
       0.22341552 -0.048171557 -0.07947186 -0.28066322
0000a0 4b ee 50 3d 7b f4 81 3e c6 cc c4 bd 44 47 4f be
       0.051008504 0.25381836 -0.0960937 -0.2024203
0000b0 b4 80 56 3d 03 33 d0 3d b0 e0 1e 3e 78 ff c3 3d
       0.052368835 0.1016598 0.15515399 0.09570211
0000c0 68 8d 23 be 8b 96 c8 3d 4c 5c 97 3d c6 5b ba bd
       -0.15971911 0.09794339 0.07390651 -0.09099536
0000d0 78 7c 77 3e dc 14 69 be 69 28 89 3e a0 0a 67 3d
       0.24168575 -0.22761863 0.26788643 0.056406617
0000e0 28 b9 66 be c9 8d f6 3d 92 0d 05 3d b8 c8 25 be
       -0.22531569 0.12038762 0.032483645 -0.1618985
0000f0 e1 a1 08 be 1b 07 e2 3d 8c 4f 2c be ff 5d e1 bd
       -0.13343002 0.110365115 -0.1682722 -0.110042565
000100 a9 ff 88 3e 79 35 ad 3e 55 96 01 be 23 46 fa 3d
       0.26757553 0.3382986 -0.12655003 0.12220409
000110 88 d2 ee bd 79 6c ce bd 6e c5 2b bd 7b cd d7 bd
       -0.116612494 -0.10079283 -0.04193633 -0.10537239
000120 24 48 1a be 0f 94 0d 3e f9 3c 9e be 2c 01 5c 3d
       -0.15066582 0.13826011 -0.30905893 0.053712055
000130 2a a5 7c 3e 2b 49 1f bc a3 cf aa 3d 53 8b c8 bd
       0.2467238 -0.009722034 0.08340385 -0.09792199
000140 bf 6b c5 bd ee 9f 55 be 94 c0 d0 be ef 50 82 3e
       -0.096396916 -0.2086179 -0.40771925 0.25452372
000150 fe a0 88 3e d4 e8 42 be 82 4b 84 bd 62 3e b0 be
       0.26685327 -0.1903413 -0.064597145 -0.34422594
000160 44 0e 76 bd d2 32 5d 3d 48 6e b7 3d d7 e5 66 bd
       -0.0600722 0.054003544 0.08956581 -0.056371536
000170 ba fe 7c 3d ff 06 44 3d fd bd 0a be a9 99 d9 bd
       0.061766364 0.047858234 -0.13549037 -0.106250115
000180 73 8e 6c be 0a 47 8f 3d 5f 40 b9 3e e5 be 21 3b
       -0.23101215 0.069959715 0.36181924 0.0024680432
000190 5a 80 08 3d 85 70 b5 be 58 f9 a5 3d d9 74 04 be
       0.03332553 -0.35437408 0.08104199 -0.12935199
0001a0 96 44 27 be 7d 8b b3 be e7 b3 d4 bd df 91 6b 3d
       -0.16334757 -0.3506736 -0.10385876 0.05751216
0001b0 ba 5a 15 3e 79 77 8c 3d 78 a2 39 bb ef 7a 5b 3e
       0.1458539 0.06858725 -0.0028325599 0.21433614
0001c0 54 54 2d 3d 50 23 98 bd a0 3c 9e 3e fb 55 ce bc
       0.04231675 -0.0742861 0.30905628 -0.025187483
0001d0 85 f0 2d bd ee 8e 52 bd 60 bc 2d be 7e cc da be
       -0.042465705 -0.05140584 -0.1696639 -0.4273414
0001e0 91 15 36 3c 2b 90 4c bd 0a eb 00 be e3 51 73 bd
       0.01111354 -0.049942177 -0.1258966 -0.059404265
0001f0 1a 74 1b 3e 5b ba 7c 3e 44 a5 87 bc 06 90 d2 bd
       0.15181008 0.24680464 -0.016558297 -0.102813765
000200 60 70 64 3e 66 d4 08 bd 8a f5 0a 3e a3 ac 97 bd
       0.22308493 -0.033405684 0.13570228 -0.07405975
000210 70 07 93 bc c7 f5 05 3d 45 34 cc 3d 75 54 08 3e
       -0.017947882 0.032705095 0.09970907 0.13313468
000220 82 08 9d bd b4 e3 c3 3e 57 0c 1f 3e a5 b1 8b 3d
       -0.07667638 0.3825966 0.15532051 0.068209924
000230 83 fd a4 3d 4b e2 90 3e 11 67 06 bd 0e 37 2c bd
       0.08056166 0.28297648 -0.032813136 -0.04204469
000240 3f 05 a3 bd 74 32 d0 3e 78 c7 38 3e 04 c8 33 be
       -0.07959985 0.40663493 0.18044841 -0.17556769
000250 a3 13 3b be 74 25 0d 3e e0 de 98 3d b0 f4 93 bc
       -0.1826921 0.13783818 0.07464385 -0.018061012
000260 5c ef 10 3d 10 31 5d be c7 7c 79 bd 8a c6 03 3e
       0.03538452 -0.21600747 -0.060910013 0.12868705
000270 3a ea 8b be 24 dc a0 3d eb 0a 65 3e 61 bf 2a bd
       -0.27327138 0.078544885 0.22367446 -0.04168642
000280 2a 43 00 3f b0 6d 14 3e da 96 97 3d 90 e4 15 be
       0.50102484 0.14494967 0.074018195 -0.14637971
000290 27 d1 ed bc 7b 2e 2a be 03 cf 91 be db 43 8d bd
       -0.029030396 -0.16619293 -0.2847825 -0.06897708
0002a0 e5 42 83 3e 31 ba 73 3e ad 10 76 bd 1a b2 0f be
       0.25636974 0.23801495 -0.060074497 -0.14032784
0002b0 ca 06 b7 bc a5 28 eb bd a1 30 92 3d 3b 46 86 bd
       -0.022342104 -0.11482362 0.071381815 -0.06556364
0002c0 ab 69 82 3e 00 98 cb be 2c c4 fa bd 74 86 9e 3c
       0.25471243 -0.39764404 -0.12244448 0.019351222
0002d0 b5 ad 03 3e b2 b9 0e be 20 86 c2 bd 5d df 03 bd
       0.12859233 -0.13938025 -0.094982386 -0.032195438
0002e0 a0 84 9b 3e 3a ee 7f be 1c f8 c8 bd 61 4d 11 be
       0.30374622 -0.2499322 -0.09812948 -0.14189674
0002f0 76 28 1d be 59 71 3a be 17 f2 0d be eb 1d 17 be
       -0.15347466 -0.18207301 -0.13861881 -0.14757507
000300 cb 84 bb 3e a6 3e e4 3c 6a 75 aa 3d cd ae cf bc
       0.3662475 0.027861904 0.08323176 -0.025351906
000310 d6 85 90 3d 62 60 1c be 9d 48 b7 3e 54 37 07 be
       0.07056777 -0.15271142 0.35797587 -0.132047
000320 de 71 98 3e 62 15 dd 3d 54 fd de 3d 89 b2 13 3e
       0.29774374 0.10795094 0.10888162 0.14423575
000330 ae d2 21 3e 64 78 7d be 3e 49 3e 3e e4 1d 4e be
       0.15803024 -0.24752957 0.18582627 -0.2012859
000340 f1 32 f4 3d 10 c8 bc be 8a 26 bf 3e d8 50 3a 3e
       0.11923779 -0.36871386 0.3733409 0.18194902
000350 a3 36 2e be 89 61 5c 3e b7 01 94 be 01 06 82 3e
       -0.1701303 0.21521582 -0.28907558 0.25395206
000360 30 b0 71 bd f8 c0 c2 3d 5a 09 29 bd af 3a 22 3e
       -0.059005916 0.09509462 -0.041268684 0.15842699
000370 24 2a 6f bc f4 b4 d7 3e a2 92 27 be 40 46 e9 3e
       -0.014597449 0.42130244 -0.1636453 0.4556141
000380 77 93 95 bd 31 53 91 3e 06 9f 33 be 2f e7 10 3d
       -0.07303517 0.28383783 -0.17541131 0.035376724
000390 09 17 91 3d 61 80 57 3e 2e be f0 bd ca 94 bc bd
       0.07084472 0.21045066 -0.11755024 -0.09208067
0003a0 29 5b c2 bd 56 ff 16 be c1 c5 85 3e f9 2e cb bd
       -0.09490044 -0.1474584 0.26127437 -0.09921069
0003b0 77 40 80 3d 33 1a d3 3d ab 7a 9c 3d c3 e0 2c be
       0.06262296 0.103077315 0.076405846 -0.16882615
0003c0 65 82 99 be 3f af 4f be 1b 5b 85 3d b0 67 d5 3c
       -0.29982296 -0.20281695 0.065115176 0.026050419
0003d0 e9 d6 7d 3e 31 12 83 3e 24 99 57 3e 77 e7 1c bd
       0.24789013 0.25599816 0.21054512 -0.03830668
0003e0 56 a9 7a bd bb 3a 82 be 55 21 96 3d eb 47 9d 3e
       -0.061196648 -0.25435433 0.07330576 0.30718932
0003f0 86 d8 be be b2 3e 80 bc 15 b2 56 be 73 5e 51 bd
       -0.3727457 -0.015654895 -0.2096637 -0.051115464

network_body._body_endoder.seq_layers.0.bias f4 [128]
000000 00 00 00 00 00 00 00 00 00 00 00 00 00 00 00 00
       0.0 0.0 0.0 0.0
000010 00 00 00 00 00 00 00 00 00 00 00 00 00 00 00 00
       0.0 0.0 0.0 0.0
000020 00 00 00 00 00 00 00 00 00 00 00 00 00 00 00 00
       0.0 0.0 0.0 0.0
000030 00 00 00 00 00 00 00 00 00 00 00 00 00 00 00 00
       0.0 0.0 0.0 0.0
000040 00 00 00 00 00 00 00 00 00 00 00 00 00 00 00 00
       0.0 0.0 0.0 0.0
000050 00 00 00 00 00 00 00 00 00 00 00 00 00 00 00 00
       0.0 0.0 0.0 0.0
000060 00 00 00 00 00 00 00 00 00 00 00 00 00 00 00 00
       0.0 0.0 0.0 0.0
000070 00 00 00 00 00 00 00 00 00 00 00 00 00 00 00 00
       0.0 0.0 0.0 0.0
000080 00 00 00 00 00 00 00 00 00 00 00 00 00 00 00 00
       0.0 0.0 0.0 0.0
000090 00 00 00 00 00 00 00 00 00 00 00 00 00 00 00 00
       0.0 0.0 0.0 0.0
0000a0 00 00 00 00 00 00 00 00 00 00 00 00 00 00 00 00
       0.0 0.0 0.0 0.0
0000b0 00 00 00 00 00 00 00 00 00 00 00 00 00 00 00 00
       0.0 0.0 0.0 0.0
0000c0 00 00 00 00 00 00 00 00 00 00 00 00 00 00 00 00
       0.0 0.0 0.0 0.0
0000d0 00 00 00 00 00 00 00 00 00 00 00 00 00 00 00 00
       0.0 0.0 0.0 0.0
0000e0 00 00 00 00 00 00 00 00 00 00 00 00 00 00 00 00
       0.0 0.0 0.0 0.0
0000f0 00 00 00 00 00 00 00 00 00 00 00 00 00 00 00 00
       0.0 0.0 0.0 0.0
000100 00 00 00 00 00 00 00 00 00 00 00 00 00 00 00 00
       0.0 0.0 0.0 0.0
000110 00 00 00 00 00 00 00 00 00 00 00 00 00 00 00 00
       0.0 0.0 0.0 0.0
000120 00 00 00 00 00 00 00 00 00 00 00 00 00 00 00 00
       0.0 0.0 0.0 0.0
000130 00 00 00 00 00 00 00 00 00 00 00 00 00 00 00 00
       0.0 0.0 0.0 0.0
000140 00 00 00 00 00 00 00 00 00 00 00 00 00 00 00 00
       0.0 0.0 0.0 0.0
000150 00 00 00 00 00 00 00 00 00 00 00 00 00 00 00 00
       0.0 0.0 0.0 0.0
000160 00 00 00 00 00 00 00 00 00 00 00 00 00 00 00 00
       0.0 0.0 0.0 0.0
000170 00 00 00 00 00 00 00 00 00 00 00 00 00 00 00 00
       0.0 0.0 0.0 0.0
000180 00 00 00 00 00 00 00 00 00 00 00 00 00 00 00 00
       0.0 0.0 0.0 0.0
000190 00 00 00 00 00 00 00 00 00 00 00 00 00 00 00 00
       0.0 0.0 0.0 0.0
0001a0 00 00 00 00 00 00 00 00 00 00 00 00 00 00 00 00
       0.0 0.0 0.0 0.0
0001b0 00 00 00 00 00 00 00 00 00 00 00 00 00 00 00 00
       0.0 0.0 0.0 0.0
0001c0 00 00 00 00 00 00 00 00 00 00 00 00 00 00 00 00
       0.0 0.0 0.0 0.0
0001d0 00 00 00 00 00 00 00 00 00 00 00 00 00 00 00 00
       0.0 0.0 0.0 0.0
0001e0 00 00 00 00 00 00 00 00 00 00 00 00 00 00 00 00
       0.0 0.0 0.0 0.0
0001f0 00 00 00 00 00 00 00 00 00 00 00 00 00 00 00 00
       0.0 0.0 0.0 0.0

network_body._body_endoder.seq_layers.2.weight f4 [128, 128]
000000 6b c5 43 be 85 49 07 3d 19 07 43 bd de dc 1c 3c
       -0.19118278 0.033029098 -0.04761419 0.009574143
000010 60 47 2b 3e e0 fe 6c bd 1d f1 4d bd 89 af 39 bc
       0.16726446 -0.057860255 -0.05027877 -0.011333355
000020 a0 c5 9c 3c b3 ef 26 3d 69 c8 9d 3d a2 c9 ea 3d
       0.019137204 0.04075594 0.07704241 0.1146424
000030 87 74 49 bd dc 4f 92 3d 98 e6 a2 3d 1d 90 b2 3d
       -0.049183395 0.07144138 0.079541385 0.08718894
000040 8c 88 36 3c 51 8a f0 bb 7e ea 16 3d 10 34 07 be
       0.011140954 -0.0073407074 0.036844723 -0.13203454
000050 21 11 92 3d c9 d6 be bd 3e f4 58 be d1 ca 6d bd
       0.07132173 -0.09318311 -0.21186921 -0.05805475
000060 2d d4 2a 3d 18 89 96 bd 88 f4 db 3d ad ff 4e bd
       0.041706253 -0.07350367 0.1074 -0.0505368
000070 f6 85 01 3e fb f3 9b bb 22 0b 88 3d ab c1 8f 3d
       0.12648758 -0.0047593093 0.066427484 0.07019361
000080 be 22 a7 3c e1 91 30 bd 64 db c6 3d a5 5a ec 3d
       0.020402309 -0.04310787 0.09709814 0.115407266
000090 1e 8e e4 bc 66 cc 7b bd 8a be a6 bd 16 92 40 39
       -0.027899798 -0.061474226 -0.08141811 0.00018364968
0000a0 5e e7 ca 3b cb 9e 33 3d 8b a2 31 3c 5a 29 cf bd
       0.006192132 0.04385261 0.010841976 -0.10115309
0000b0 ac f7 24 3e 78 46 8a 3d 76 be 3f bd 70 d0 1c 3d
       0.16110104 0.06751722 -0.046812497 0.03828472
0000c0 31 c5 d7 bc 43 48 0e be 66 1a ca 3d 69 7c 1f bd
       -0.026339145 -0.13894753 0.09868316 -0.038937006
0000d0 c5 6d 0a 3d 94 38 2c 3e f5 fb ab bb 33 f1 1b bc
       0.03379609 0.16818458 -0.0052485415 -0.009517956
0000e0 42 da 3b bd 67 c8 92 bd 73 c8 99 bd 39 5e 62 3d
       -0.045862444 -0.0716713 -0.07508936 0.05526564
0000f0 cb 4f 14 bb 2b 8d 29 be 44 da 12 bd 3d 37 f7 3b
       -0.0022630568 -0.16557758 -0.035852686 0.0075444267
000100 7e ea ab bc e2 e3 1f 3d 81 c9 50 3e ff 4d 9d 3d
       -0.020985838 0.039035685 0.20389368 0.07680892
000110 57 84 89 3d 18 ea 30 ba 31 a0 02 3e 29 35 b5 bd
       0.06714695 -0.000674875 0.1275642 -0.0884803
000120 0b ad d3 3d 07 bd 9c bc cc 3e 08 3d f4 6b c7 3d
       0.1033574 -0.019133104 0.033263013 0.09737387
000130 c6 dd 83 3d 97 c1 46 bd 44 42 3e be 7c c9 82 3e
       0.06438784 -0.048524465 -0.18579966 0.25544345
000140 71 1c ea bc db 85 db 3d 67 80 83 3d 10 c9 4f bb
       -0.028578015 0.1071889 0.06420975 -0.0031705536
000150 05 f1 d4 3c 1a c6 0d be 87 c7 7e be a8 f8 2b 3e
       0.025993833 -0.13845101 -0.24880801 0.16794074
000160 0e ae 0c 3d 18 1d b0 3d c4 b6 82 bd cf 9c 08 bd
       0.03434568 0.08599299 -0.06382516 -0.03335267
000170 29 ab f7 bc 24 97 15 be 21 e7 2c 3c 79 d8 da bb
       -0.030232983 -0.14608437 0.010553152 -0.0066786376
000180 9f 84 c8 bd 53 cc da 3c da 76 09 3e c2 47 b5 3d
       -0.097909205 0.026708758 0.13424245 0.08851577
000190 a7 75 1c 3d 86 53 66 bd 75 22 e2 3d d8 2d 96 bd
       0.03819814 -0.056231998 0.110417284 -0.07332963
0001a0 b1 04 b8 bd 7e 78 90 3d e8 78 06 3c 77 05 02 bd
       -0.0898527 0.07054232 0.008207537 -0.031743493
0001b0 88 c2 30 3d 93 65 c4 3c 2b a4 01 3e a7 14 81 bd
       0.04315427 0.023974216 0.12660281 -0.06302767
0001c0 29 74 a6 bd 20 76 85 3d 81 3b 10 bd 75 7d 92 bd
       -0.081276245 0.06516671 -0.035212997 -0.07152835
0001d0 56 c3 08 3e 47 a2 a3 3d be de c6 bd 5c 5a 71 3d
       0.13355765 0.07989936 -0.097104535 0.058924064
0001e0 28 a0 53 bc a1 3c 29 be b7 ca 8c 3c e2 81 d5 3d
       -0.012916602 -0.16527034 0.017186506 0.10425164
0001f0 fa 1d 3a bc 10 03 ba 3c a7 f5 06 3d f3 1d fe bc
       -0.011359686 0.022706538 0.032949116 -0.03102014
000200 3f 40 f3 bb 71 22 95 bd 62 20 a7 bd e3 41 84 bc
       -0.00742343 -0.0728196 -0.081604734 -0.016144698
000210 ea 1b 29 3c 66 11 23 3d da e8 a7 bc 3b c9 5e 3d
       0.010321597 0.039811514 -0.020496774 0.054391127
000220 51 3a a0 3e 5a 9b 0b be f5 0c 40 3d 2e 03 48 3d
       0.31294492 -0.1363348 0.046887357 0.048831157
000230 1f d8 35 bd b3 be 57 3d 31 96 7d be 06 77 1f 3e
       -0.044395562 0.0526721 -0.24764325 0.15572748
000240 15 c0 d9 bc 1a 9c 64 3d 2f ae 9d 3d 9c e3 07 bd
       -0.02658085 0.055812933 0.076992385 -0.03317605
000250 82 e4 53 bd b3 7a 94 bd 7c da 57 bc 07 df 86 bc
       -0.051731594 -0.072499655 -0.013174649 -0.01646377
000260 83 5a 32 bd 6b 58 bc bb 9d 82 96 3d fd 0b d4 bd
       -0.04354335 -0.005747845 0.07349131 -0.10353849
000270 10 9b 31 bd f8 bf 15 3d 60 78 b9 3d 70 d4 ae bd
       -0.04336077 0.03656003 0.09056163 -0.08536613
000280 95 91 87 3d df 9d 1f 3d 0a 45 08 3e 38 b4 a3 3d
       0.066195644 0.038968917 0.13307586 0.079933584
000290 d1 9b ac bd 9e b3 17 bd 02 99 1c 3d 28 cb 23 3e
       -0.08428157 -0.03703653 0.038231857 0.15995467
0002a0 81 e7 13 3e cb 8c 8a bd f2 a5 51 bd 32 e6 ba bd
       0.1444378 -0.067651354 -0.05118365 -0.091259375
0002b0 1c c4 03 3e d7 81 b3 bd cf 57 4d be e3 9b e4 bd
       0.12867779 -0.08764999 -0.20053028 -0.111625455
0002c0 63 b4 77 3d cb ba 0a be fd b2 40 bd 99 d3 75 bd
       0.060474765 -0.13547818 -0.047045697 -0.06001625
0002d0 29 b6 41 be fe 30 17 bb fe 45 09 be 12 b5 82 3c
       -0.18917145 -0.0023069973 -0.13405606 0.015955482
0002e0 3b 8b ef 3d 16 ec 17 be 52 00 f8 bd b4 4d c4 3d
       0.11696478 -0.14836153 -0.12109436 0.09585133
0002f0 ce 50 a2 3d 46 47 9c 3d 3d 93 d9 bd 31 eb bf 3d
       0.079255685 0.07630782 -0.106237866 0.09371031
000300 66 d1 fd 3c 76 82 76 3c 89 2b 72 bd 41 8c a2 bd
       0.030983638 0.015045753 -0.05912355 -0.079369076
000310 ab 17 a4 3d 96 da 56 bd 65 fd e3 bd b8 6f 64 bd
       0.08012327 -0.052454554 -0.111323155 -0.055770606
000320 77 7f 71 bd 81 f0 28 3e 12 80 87 3d 3a 6b 0b 3e
       -0.05895945 0.16497995 0.06616224 0.13615122
000330 ec fd 60 3d ae 9f b4 bd d1 c1 a4 bd 2b 2c 02 be
       0.05492966 -0.08819519 -0.0804478 -0.12712161
000340 44 94 f7 3d ec fd 12 bc 1c b1 4b 3c 43 8c 82 3d
       0.12088826 -0.0089716725 0.012432363 0.06374409
000350 a9 e2 8d bd ff e8 70 bc a5 57 14 bc 42 ab 93 3d
       -0.069279976 -0.014703988 -0.009054099 0.07210399
000360 c5 9b 91 bc b7 06 fe 3d 2c 21 ec bb 4a 24 c7 bc
       -0.017774472 0.124036245 -0.007206103 -0.024309296
000370 70 c4 db bc 61 41 6b 3e c4 0c 10 bd e2 49 9f 3b
       -0.026827067 0.22974159 -0.035168424 0.0048611024
000380 4b 80 33 be 4d d8 ef 3d fb 6f 9c bc e3 f7 cc 3d
       -0.17529409 0.11711178 -0.019096365 0.10008218
000390 7c f8 ee bd 8b 0a 07 3e a5 fd 18 be 2e 6f 1f bd
       -0.116684884 0.13187616 -0.14940508 -0.03892439
0003a0 4d 9a 87 3d af f6 50 3d 3a 07 15 bd 8a 84 35 bd
       0.066212274 0.051016506 -0.036383845 -0.044315852
0003b0 79 cd 17 bc 50 de 5d bd 5a e6 a9 3d 6c 37 f7 bb
       -0.009265297 -0.05416709 0.08295889 -0.0075444486
0003c0 63 09 33 bc aa 39 05 ba 9d 47 87 3d 75 29 0a bd
       -0.010927531 -0.000508214 0.06605456 -0.033730943
0003d0 49 6a 57 3c 41 89 c6 3c 98 a0 9c bd 3e 7c 86 bc
       0.013147899 0.02423537 -0.07647818 -0.016416665
0003e0 23 81 05 3d ea 10 8b 3d fd c2 95 3d e5 fb 60 ba
       0.032593857 0.067903355 0.07312582 -0.0008582457
0003f0 be 51 82 bd 2c 24 14 3d 8a 26 1e 3d cb 22 ab bc
       -0.06363247 0.03616731 0.038610972 -0.020890614

network_body._body_endoder.seq_layers.2.bias f4 [128]
000000 00 00 00 00 00 00 00 00 00 00 00 00 00 00 00 00
       0.0 0.0 0.0 0.0
000010 00 00 00 00 00 00 00 00 00 00 00 00 00 00 00 00
       0.0 0.0 0.0 0.0
000020 00 00 00 00 00 00 00 00 00 00 00 00 00 00 00 00
       0.0 0.0 0.0 0.0
000030 00 00 00 00 00 00 00 00 00 00 00 00 00 00 00 00
       0.0 0.0 0.0 0.0
000040 00 00 00 00 00 00 00 00 00 00 00 00 00 00 00 00
       0.0 0.0 0.0 0.0
000050 00 00 00 00 00 00 00 00 00 00 00 00 00 00 00 00
       0.0 0.0 0.0 0.0
000060 00 00 00 00 00 00 00 00 00 00 00 00 00 00 00 00
       0.0 0.0 0.0 0.0
000070 00 00 00 00 00 00 00 00 00 00 00 00 00 00 00 00
       0.0 0.0 0.0 0.0
000080 00 00 00 00 00 00 00 00 00 00 00 00 00 00 00 00
       0.0 0.0 0.0 0.0
000090 00 00 00 00 00 00 00 00 00 00 00 00 00 00 00 00
       0.0 0.0 0.0 0.0
0000a0 00 00 00 00 00 00 00 00 00 00 00 00 00 00 00 00
       0.0 0.0 0.0 0.0
0000b0 00 00 00 00 00 00 00 00 00 00 00 00 00 00 00 00
       0.0 0.0 0.0 0.0
0000c0 00 00 00 00 00 00 00 00 00 00 00 00 00 00 00 00
       0.0 0.0 0.0 0.0
0000d0 00 00 00 00 00 00 00 00 00 00 00 00 00 00 00 00
       0.0 0.0 0.0 0.0
0000e0 00 00 00 00 00 00 00 00 00 00 00 00 00 00 00 00
       0.0 0.0 0.0 0.0
0000f0 00 00 00 00 00 00 00 00 00 00 00 00 00 00 00 00
       0.0 0.0 0.0 0.0
000100 00 00 00 00 00 00 00 00 00 00 00 00 00 00 00 00
       0.0 0.0 0.0 0.0
000110 00 00 00 00 00 00 00 00 00 00 00 00 00 00 00 00
       0.0 0.0 0.0 0.0
000120 00 00 00 00 00 00 00 00 00 00 00 00 00 00 00 00
       0.0 0.0 0.0 0.0
000130 00 00 00 00 00 00 00 00 00 00 00 00 00 00 00 00
       0.0 0.0 0.0 0.0
000140 00 00 00 00 00 00 00 00 00 00 00 00 00 00 00 00
       0.0 0.0 0.0 0.0
000150 00 00 00 00 00 00 00 00 00 00 00 00 00 00 00 00
       0.0 0.0 0.0 0.0
000160 00 00 00 00 00 00 00 00 00 00 00 00 00 00 00 00
       0.0 0.0 0.0 0.0
000170 00 00 00 00 00 00 00 00 00 00 00 00 00 00 00 00
       0.0 0.0 0.0 0.0
000180 00 00 00 00 00 00 00 00 00 00 00 00 00 00 00 00
       0.0 0.0 0.0 0.0
000190 00 00 00 00 00 00 00 00 00 00 00 00 00 00 00 00
       0.0 0.0 0.0 0.0
0001a0 00 00 00 00 00 00 00 00 00 00 00 00 00 00 00 00
       0.0 0.0 0.0 0.0
0001b0 00 00 00 00 00 00 00 00 00 00 00 00 00 00 00 00
       0.0 0.0 0.0 0.0
0001c0 00 00 00 00 00 00 00 00 00 00 00 00 00 00 00 00
       0.0 0.0 0.0 0.0
0001d0 00 00 00 00 00 00 00 00 00 00 00 00 00 00 00 00
       0.0 0.0 0.0 0.0
0001e0 00 00 00 00 00 00 00 00 00 00 00 00 00 00 00 00
       0.0 0.0 0.0 0.0
0001f0 00 00 00 00 00 00 00 00 00 00 00 00 00 00 00 00
       0.0 0.0 0.0 0.0

action_model._discrete_distribution.branches.0.weight f4 [2, 128]
000000 5c e7 12 3c cf 41 a4 3a eb c9 13 3b 6c d6 9a 3c
       0.008966293 0.001253182 0.0022550772 0.018901072
000010 50 fe b4 3b af a5 f5 3a 46 75 23 3c 99 ad b1 b8
       0.0055234805 0.0018741394 0.009976691 -8.472353e-05
000020 f4 93 8b 3b 1d 48 7a 3c 63 06 f5 39 d3 e4 07 3c
       0.0042595807 0.015275982 0.000467348 0.008294302
000030 3f 05 4b bc d3 2f 9d bc 9d 58 ab ba 47 d6 96 3b
       -0.0123913875 -0.019187843 -0.0013072673 0.0046031806
000040 f7 b2 84 39 8c 1c 39 3c e0 df cf 3b 9a ee d1 3b
       0.0002531034 0.01129831 0.0063438267 0.0064066174
000050 59 47 a1 3b b2 e1 3b bc 08 a7 ea bb f8 3b f5 3b
       0.0049218354 -0.011467384 -0.007161025 0.0074839555
000060 30 26 17 3c 0f 60 82 bb c8 7c ee 3a 34 67 13 bc
       0.009225413 -0.0039787362 0.0018195147 -0.0089967735
000070 f3 46 b6 3b e6 8c 3c 39 5d 02 32 bc 87 c9 ec ba
       0.005562657 0.00017981566 -0.010864821 -0.0018065431
000080 65 e5 cd 3b 05 35 4d 3b 93 c3 ed 39 00 b0 fb bb
       0.0062834495 0.003131212 0.00045349877 -0.007680893
000090 9c ee 80 3c 47 3a 6b 3c 9d b3 8d 3b 97 70 7b 3c
       0.015738778 0.014357156 0.00432439 0.015346668
0000a0 1f c2 da bb ef c8 f3 3b 58 b3 b4 ba bf 6a f2 bb
       -0.006675973 0.0074397246 -0.0013786359 -0.007397979
0000b0 07 7e 78 bb 40 ca 4b 3c 97 da e5 ba 91 b2 1b bc
       -0.0037916915 0.012438357 -0.0017536458 -0.009503023
0000c0 11 49 85 3c 8e 58 17 3c 2d d0 ab ba d3 f6 55 bc
       0.016270192 0.009237422 -0.0013108306 -0.013059336
0000d0 d2 84 f9 ba 8c ed 20 ba fa 68 a3 ba c5 55 42 3c
       -0.0019036776 -0.0006138913 -0.0012467199 0.011861269
0000e0 70 4b 52 3b ed 9e 78 3b 93 e5 9a 3c c0 82 17 bc
       0.0032088421 0.0037936524 0.018908298 -0.009247482
0000f0 4d 39 df 39 fd bd 2e 3b 8f 8b ee bb c5 c5 35 bb
       0.00042576567 0.0026663535 -0.0072798203 -0.0027736288
000100 8f 82 54 bc a0 d5 91 ba df 20 43 3a d7 21 de ba
       -0.012970581 -0.0011126287 0.0007443558 -0.0016947341
000110 8a 1d 0d bc c3 94 b2 3b d5 80 c8 bb 97 91 8d 3a
       -0.008613 0.0054498627 -0.0061188736 0.0010800835
000120 74 b3 c0 bb da 20 3a bc c9 29 9b bb ff 1a f7 ba
       -0.0058807675 -0.0113603715 -0.004735206 -0.001885265
000130 d9 94 3a 3c 07 c3 2a 3c 07 fb 82 3c 1f 10 95 bb
       0.011388027 0.010422475 0.01598884 -0.004549041
000140 d7 e7 9c bc 49 a4 17 bc 52 30 5b bc 00 c8 ba 3b
       -0.019153519 -0.009255477 -0.01337822 0.0057001114
000150 43 84 1d bc 92 7d 3f b7 2f 0e a5 bb 47 d3 b3 3b
       -0.009614053 -1.1413724e-05 -0.005037091 0.0054878327
000160 20 ee 55 ba c1 93 37 bc 86 41 ba 3b c1 02 8f bb
       -0.00081607886 -0.011204661 0.0056840805 -0.004364342
000170 b9 50 82 ba ee bd b6 3b 72 7c 6f 3c 49 89 a1 3b
       -0.000994227 0.0055768406 0.014617072 0.0049296957
000180 1a 48 52 ba 40 07 d4 39 ee c7 11 3b 70 ea e5 3b
       -0.0008021608 0.00040441193 0.0022244412 0.0070164725
000190 ef 29 a0 3b 03 0f 2a 3b 3b 66 73 bb d9 5f af bb
       0.0048878114 0.002594889 -0.0037139792 -0.005352002
0001a0 4e 1b 16 3c 68 e5 1d 3b a5 97 3a 3c c2 e7 e9 3b
       0.009161783 0.0024093036 0.011388694 0.0071382234
0001b0 e5 ae c9 3c 05 f2 4a 3b 0f 2e f9 39 28 d0 d7 bb
       0.024619529 0.0030967009 0.00047527297 -0.0065860935
0001c0 c5 13 c5 ba af 6e c9 3b 95 22 66 3a 1b c1 3c ba
       -0.0015035799 0.0061472277 0.0008778957 -0.0007200406
0001d0 f7 2e d7 3b 45 40 b2 3b 18 77 0e bc 48 60 e6 bb
       0.006566878 0.0054397904 -0.008695386 -0.0070305206
0001e0 5d 6b cd bb a7 2e b2 bc 08 f5 fa bb bd e4 6b 3c
       -0.006268902 -0.021750761 -0.0076586045 0.014397797
0001f0 b1 8f c2 bb cd 6f d0 3b b6 2c 10 bc 47 05 a8 3b
       -0.0059375395 0.006360984 -0.008799722 0.0051275822
000200 01 33 aa 3a 35 09 22 bc 67 e5 93 3b 3b 73 9e bc
       0.0012985171 -0.00988989 0.004513431 -0.019342056
000210 43 60 46 bc d2 69 54 3c ed 53 4f 3c a3 d5 c7 bb
       -0.0121079115 0.012964683 0.012654287 -0.0060984655
000220 8b 24 ee 3b ca 45 df 3b b6 60 02 ba 23 92 c9 3b
       0.00726754 0.0068137394 -0.00049735175 0.006151454
000230 3a 04 6b bc 0f 6d 31 3c e7 2c cc bb aa 8d 7b bc
       -0.014344269 0.010829224 -0.0062309387 -0.0153536
000240 97 78 96 bc 6c 23 b5 bb 40 c7 56 ba a1 64 9c 3c
       -0.018368049 -0.0055279043 -0.0008193143 0.019090952
000250 e2 0a e3 3b 99 b2 31 bc 73 d9 a3 bc bb 1d 21 bb
       0.0069287876 -0.010845804 -0.020001149 -0.002458437
000260 43 ff 60 ba b2 06 d4 3b de 20 1b 3c bd 91 e3 3b
       -0.0008582959 0.0064705247 0.009468285 0.0069448636
000270 cf dc ec bb 6b bf fa 3a 97 e5 3d bb d8 b4 43 bc
       -0.007228471 0.0019130533 -0.0028975958 -0.011944972
000280 83 87 83 bc de 30 06 ba 88 4c 63 bc 99 ab 1c 3c
       -0.016055828 -0.0005118976 -0.013873227 0.009562396
000290 90 6a d6 3b 63 0d c1 b9 cf 01 77 bb aa f5 78 3b
       0.006543465 -0.00036821802 -0.0037690287 0.0037988224
0002a0 02 33 79 3b 58 16 bf bb 40 a0 84 ba a6 66 8a 3c
       0.0038024788 -0.005831521 -0.0010118559 0.01689465
0002b0 73 a6 67 3c 5c 50 be 3b ba 3c 72 bb 42 08 f6 3b
       0.014138806 0.0058079194 -0.0036962465 0.0075083086
0002c0 90 f4 b8 3b 59 bc 96 bc 27 e6 23 bb eb 99 08 bc
       0.0056443885 -0.018400358 -0.0025009008 -0.008337478
0002d0 ee 06 10 3c 33 d5 0e 3b 9f d2 3b ba 0c 68 9b bb
       0.008790715 0.0021794557 -0.0007164869 -0.004742628
0002e0 77 ce 80 bb fb 06 34 bc 23 c3 1c 3c ed 0f 5d bc
       -0.0039308625 -0.010987992 0.009568009 -0.0134925665
0002f0 50 3c db 3b 30 d9 1e 3c f8 88 3d bc d8 bf 07 bc
       0.0066905394 0.009695336 -0.0115683 -0.008285485
000300 1c c9 8f 3c e2 6b 72 3c 0a ec cf bb a3 90 3b 3c
       0.017551951 0.014796229 -0.0063452767 0.011448058
000310 d8 86 54 3b 60 15 95 3b cb 0a 3b 3c d0 6c 03 3b
       0.0032429006 0.0045496672 0.011416147 0.002005387
000320 c6 35 43 ba 4d 0a 9b 3b 2d e6 4e bc 87 c9 8f 3b
       -0.00074466725 0.0047314526 -0.01262812 0.0043880376
000330 7a 4c d8 3a 8a 47 15 bc c6 9f 04 3c 62 33 00 bc
       0.0016502284 -0.0091112945 0.008094734 -0.007824751
000340 8b 35 e8 bb b8 1a 79 ba fb f6 e6 bb 88 e3 e4 3b
       -0.007086461 -0.00095025776 -0.0070484853 0.0069851317
000350 bb b4 9f bb a8 b3 60 bb fc 87 3a 3b 57 97 96 bb
       -0.0048738397 -0.003428677 0.00284624 -0.004595678
000360 61 00 b3 3c 70 9e 65 bb 8f 47 f2 39 f0 49 10 3c
       0.021850767 -0.0035037063 0.00046211152 0.008806691
000370 b7 b6 17 bc af 72 2d 3c 4a e3 6e bb e3 5b 8b 3b
       -0.009259871 0.010586425 -0.0036451393 0.004252897
000380 5d 7b c4 3b 50 f2 01 3a 1d 41 5f 3a 0b 9e c1 39
       0.0059961514 0.0004957067 0.00085164775 0.0003692958
000390 0f 70 50 3b 14 8c a0 bb 8a 25 d9 bb 37 6c 4b bc
       0.0031805073 -0.004899511 -0.0066267895 -0.012415937
0003a0 3f 78 6a bc 82 2b 55 bc 97 84 83 3c af a7 70 3b
       -0.014310895 -0.013010861 0.016054435 0.003672104
0003b0 1c 03 17 bb 09 97 04 bc ac 0d 10 3c 1e ac 27 3c
       -0.0023042625 -0.00809265 0.008792322 0.010233907
0003c0 fb 82 9e 3b 6c 60 ca ba f9 c7 a6 bb 92 84 8d bc
       0.0048373914 -0.0015440113 -0.0050897566 -0.017275129
0003d0 90 89 dc 3b 57 a5 40 bc 32 69 eb ba 4c ba c2 ba
       0.006730266 -0.01175817 -0.0017960428 -0.0014856546
0003e0 18 80 c1 3a 87 a0 b3 3b 74 2f 8c bc 24 ca a8 3a
       0.0014762906 0.005481783 -0.017112471 0.0012877625
0003f0 32 a7 a6 ba 6f b5 60 bb 18 c3 e2 3b 98 d8 e3 3b
       -0.0012714623 -0.003428783 0.0069202296 0.00695331

action_model._discrete_distribution.branches.0.bias f4 [2]
000000 00 00 00 00 00 00 00 00
       0.0 0.0

action_model._discrete_distribution.branches.1.weight f4 [2, 128]
000000 42 18 b3 bb cb 21 b3 3b 22 2e 41 3c 5f 1d 84 3c
       -0.0054655382 0.005466675 0.011790784 0.016127286
000010 b2 16 19 3c 30 bf ce bb 76 23 a1 ba a0 ea ca 39
       0.00934379 -0.0063094124 -0.0012293893 0.00038703252
000020 ca d6 9e ba a2 af b1 3b 85 72 c8 3b 7b c1 3f bb
       -0.0012118455 0.0054225484 0.0061171674 -0.002925961
000030 97 03 cf 3b e3 de 69 bc f4 54 12 3c c7 77 4c bb
       0.0063175666 -0.014274332 0.008931387 -0.0031199323
000040 5b a7 c9 bb e3 55 2d 3c 7d c3 1c 3b f9 8e bc bb
       -0.0061539835 0.010579559 0.002392023 -0.0057543484
000050 73 02 bd 3b ad 6d 04 3c d5 a4 b4 3c 62 2c 0e 3c
       0.0057681142 0.008082789 0.022051254 0.008677574
000060 b3 33 8b 3c d9 af 13 bc 17 20 da 3b 1b be c9 bb
       0.016992426 -0.009014093 0.0066566574 -0.0061566955
000070 53 39 46 bb eb 66 7b bb 2f 6c 2f 3c 70 cf fc ba
       -0.003024657 -0.0038360904 0.010706945 -0.0019287895
000080 4d 1a 24 3c 33 f5 0e bb da 12 64 bc 87 d9 14 3c
       0.010016036 -0.002181363 -0.01392051 0.009085066
000090 9a 38 60 3c d3 e5 12 3c 82 35 8d bc 4f 66 26 3a
       0.01368537 0.008965927 -0.017237429 0.00063476426
0000a0 7f 53 ad 3b 8f 1d c5 3c d0 c8 7f 3c 83 8b 61 ba
       0.0052894945 0.024061946 0.015611842 -0.0008603858
0000b0 38 a9 4d ba aa 75 82 bc f4 85 93 b9 03 d6 2f 3b
       -0.0007845345 -0.015925247 -0.00028137828 0.0026830442
0000c0 45 c3 2e 3b 1b f3 1d 3b 0f ea fd bb c0 10 1e 3c
       0.0026666683 0.00241012 -0.007748849 0.009647548
0000d0 07 ae ef 3b e9 d6 82 3b a2 88 75 bb 9c 83 04 3b
       0.007314447 0.0039929044 -0.0037465473 0.0020220047
0000e0 55 ce f1 bb ce 3e 97 ba 93 43 bc 3b ab 20 ee ba
       -0.007379333 -0.0011539103 0.00574536 -0.0018167695
0000f0 da c5 df 3b 36 b8 2f bb ce c0 c7 bb 8d dc fa 3a
       0.0068290057 -0.002681268 -0.006095982 0.0019139216
000100 c3 ff cd bb 3d a0 8b 3a 9d e4 ce 3b e8 a1 4e 3c
       -0.0062865927 0.0010652613 0.006313874 0.012611844
000110 0f f9 fc bb a5 84 5e bb 0f e3 86 3c 9d 41 c8 3b
       -0.00772012 -0.0033953574 0.016465692 0.0061113373
000120 96 5e 45 bc 0e 55 87 3a 15 b5 c4 3b 3a db 5d 3c
       -0.012046477 0.0010325031 0.006003032 0.013541037
000130 03 28 2e bc 21 74 ba 3b 7b 4b 0b 3c 83 be 7b bc
       -0.010629657 0.005690113 0.008501883 -0.015365246
000140 80 03 9f 3a 4d 5d 14 bb 79 9c 81 ba 09 f3 21 3a
       0.001213178 -0.002263862 -0.0009888551 0.00061778777
000150 cf 28 63 ba 7a af 7b ba 2a 1f e8 bb 57 4a 6d bc
       -0.0008665444 -0.0009601038 -0.007083793 -0.014483056
000160 87 ba 75 3b 8f b1 16 3b 00 67 dd 3b 15 2c b1 3a
       0.0037495212 0.0022994017 0.0067566633 0.0013517166
000170 d6 22 14 3c a2 56 55 bb 33 54 40 3b 96 37 b7 3b
       0.009041509 -0.0032552858 0.0029347062 0.005591343
000180 6d 94 77 3b 27 0f ca 3a 0d ab f1 3b 93 b3 8a bb
       0.0037777678 0.0015415893 0.007375127 -0.0042328327
000190 ed 52 7d ba ba 65 12 3a 07 78 11 3c 1c ba 0f 3c
       -0.0009663541 0.00055846164 0.008878714 0.008772399
0001a0 bb bf 7e 3c d5 71 8e bc 4f 17 54 bc 24 af a5 bb
       0.015548642 -0.017388264 -0.01294501 -0.005056279
0001b0 03 1b 4e bc d0 9a d7 3b 37 bb e4 bb 5f a0 1e bc
       -0.012579682 0.0065797344 -0.0069803256 -0.00968179
0001c0 85 0e 2f bc fb 90 e8 3a 96 48 b5 3b 73 b7 0a bc
       -0.010684614 0.0017743403 0.0055323346 -0.008466589
0001d0 e6 d5 83 3b 68 52 5c 3c 05 5c 3e 3c fc c4 86 ba
       0.0040233014 0.013447382 0.011618619 -0.0010282095
0001e0 9b d0 59 bc d5 00 03 bb 82 ad d6 3b 60 60 5b 3c
       -0.013294364 -0.001998951 0.0065514455 0.013389677
0001f0 e4 24 bc 3b 21 06 17 bc 73 48 6d 3c 60 46 db ba
       0.0057417024 -0.00921777 0.014482605 -0.0016729347
000200 33 f9 61 bb aa e3 6c bb 8b 43 bd bb 98 60 9c 3b
       -0.003448081 -0.003614644 -0.005775874 0.004772257
000210 b7 3e cf bb ac 7e a5 3b 5b 93 d1 ba 97 4e fb bb
       -0.006324615 0.005050501 -0.001598935 -0.0076692807
000220 a8 0f 55 bc d2 ef d6 3b 5c 76 a5 bc a8 fc b5 3b
       -0.013004221 0.0065593505 -0.02019804 0.0055538006
000230 a0 19 42 bc 50 45 10 3c 5a 5f 2d 3b 24 45 0b 3c
       -0.01184693 0.008805588 0.002645454 0.008500371
000240 e0 46 8e bc 32 69 5e bc 4f 44 2f bb f2 23 01 3c
       -0.01736778 -0.013574885 -0.0026743596 0.007882105
000250 2d 01 27 bb bf cf 21 ba 0f b7 01 bb 68 16 51 3a
       -0.0025482879 -0.0006172619 -0.001979295 0.0007976056
000260 4f 0f b3 bc a1 2d b9 bc 74 5f 36 3b d9 a7 17 bc
       -0.021857886 -0.022604765 0.002782789 -0.009256327
000270 fa b6 62 bc 47 4a f2 3b 7c 45 a6 bc f3 e4 5b bb
       -0.01383757 0.0073941085 -0.020296805 -0.0033553212
000280 f1 06 4b 3b 33 63 cb bb 1a 7b cf bb 8d 50 d4 bb
       0.003097948 -0.006206894 -0.0063318135 -0.006479329
000290 0f e8 76 3c c5 a1 db bb 93 ec 8f bb 0f 7e d6 ba
       0.0150699755 -0.006702634 -0.0043922155 -0.0016364473
0002a0 0e 7e 1c bc 85 f4 23 3b 34 0c a3 bb a5 ea b4 3b
       -0.009551538 0.0025017571 -0.00497582 0.005521136
0002b0 7b 59 d1 bb 2b e5 63 bc 9d b7 cb 3b 88 a9 f9 bb
       -0.0063888407 -0.013909618 0.006216957 -0.0076190867
0002c0 83 74 0e 3c 2c 97 43 bb f6 bf 81 3a 55 13 e1 bb
       0.008694771 -0.0029844744 0.0009899128 -0.0068687596
0002d0 3e 30 96 bb e3 12 a0 ba e7 d4 e2 3b bc 8f c2 bb
       -0.0045833876 -0.001221266 0.0069223526 -0.0059375446
0002e0 ef 6d 09 3c de 78 31 37 9f 08 56 bc c7 83 a3 bb
       0.008388027 1.0578164e-05 -0.013063579 -0.0049900743
0002f0 4b f0 06 bc c4 fe 0f 3b 1f 2d ec bb 92 95 80 3b
       -0.008236001 0.002197192 -0.0072075273 0.00392408
000300 eb eb 8a bc 3b 4f 45 bc ef 9a dc bb 25 f7 72 bc
       -0.016958198 -0.012042816 -0.0067323367 -0.014829432
000310 37 6c 05 bc 4a 59 c6 3b b6 f6 c3 3b 73 63 3e bb
       -0.008143476 0.0060531246 0.005980338 -0.0029050976
000320 9a 45 0b ba 8b 50 06 bc 1d 1c e1 ba e5 1f 5a 3c
       -0.00053128006 -0.008197914 -0.0017174516 0.013313268
000330 d5 86 9c 3c 4e 79 27 bb d0 b6 d3 3b 2e 6a a6 39
       0.019107262 -0.002555448 0.006461002 0.00031741097
000340 6f 24 33 3c 43 c6 0e bc 3f 85 01 3c 1b 6d cd 3b
       0.010933979 -0.008714261 0.0079053035 0.00626911
000350 c6 70 9e bb 3d 89 8a bc e3 e3 34 3c ea b9 25 3c
       -0.004835221 -0.016911143 0.011040661 0.010115126
000360 f5 44 c4 bb af 35 95 3b 3f 73 80 3b dd f0 a9 3b
       -0.0059896656 0.0045535187 0.0039199884 0.005186184
000370 55 d3 e1 3b ee 76 87 b9 90 73 0d bb bf 4c 2a bc
       0.006891648 -0.00025837816 -0.0021583773 -0.010394274
000380 25 1a 3d 3c 4c 97 3d 3c c7 6e c7 3b 27 63 e9 3b
       0.011541878 0.0115717165 0.0060862037 0.0071224156
000390 25 e7 ae bb 0c c1 97 bb a9 33 aa bb 4f 6a 28 3c
       -0.005337613 -0.0046311673 -0.0051941467 0.010279252
0003a0 dd b4 01 3c 4d 50 d3 ba f4 42 41 3c ca 8e fe 3b
       0.007916656 -0.0016121954 0.011795748 0.0077684866
0003b0 e1 db 8f 3b 52 8d 4f 3c 8c eb 24 bc 4b 1e ff ba
       0.0043902253 0.012667971 -0.010065924 -0.0019463984
0003c0 fd 87 99 bb 5a 15 6a ba 69 f8 a8 bb 8d e2 71 3b
       -0.0046854005 -0.0008929573 -0.005156566 0.0036908716
0003d0 cf da 51 3b 8a eb 4e 3b a2 e3 f2 bb 37 53 0b 3c
       0.003202129 0.0031573498 -0.00741239 0.008503727
0003e0 c2 6b dd bb a7 4d dc ba e4 e4 3e 3b 78 b4 37 bc
       -0.0067572305 -0.001680781 0.0029128129 -0.011212461
0003f0 97 53 70 bb 0f 61 d6 bb 7b b8 3c 3c 7e 28 35 bb
       -0.0036670917 -0.006542332 0.011518593 -0.0027642543

action_model._discrete_distribution.branches.1.bias f4 [2]
000000 00 00 00 00 00 00 00 00
       0.0 0.0

action_model._discrete_distribution.branches.2.weight f4 [2, 128]
000000 19 27 b7 3b 35 99 17 bc e1 07 16 bc 00 a9 29 bb
       0.0055893776 -0.009252836 -0.009157152 -0.0025888085
000010 87 9d a3 ba d6 f7 80 3c 1f 8e 13 3b e8 fc bd b9
       -0.001248286 0.015743177 0.002251513 -0.0003623732
000020 60 5a 56 bc ab 75 0a bc a0 8a fb bb 53 eb 9a ba
       -0.0130830705 -0.008450906 -0.0076764375 -0.00118194
000030 15 ed 12 bb c9 c5 89 bb e4 11 8f 3c 90 ff a2 3c
       -0.0022419144 -0.004204486 0.017464586 0.019897252
000040 3f ac 76 3a 93 e6 f6 3b af 5d fe 3b 65 df fc 38
       0.0009409822 0.007534811 0.007762633 0.00012057907
000050 9f f4 e8 bb 88 5d 06 3c ff c0 ad 3b bd b4 66 bc
       -0.007109239 0.0082010105 0.005302548 -0.014081177
000060 8f f3 eb bb 24 fa 39 bc 9b e9 0f 3c b2 69 8c bc
       -0.0072006653 -0.011351142 0.008783723 -0.017140243
000070 48 51 61 bc 7d e4 30 3a 6d 43 a2 bb ca 7e 75 3b
       -0.013752289 0.00067479146 -0.0049518854 0.0037459605
000080 6a c3 a1 3b 77 cd 9f bc b2 ab 68 bb c5 fa dd bb
       0.0049366252 -0.019507153 -0.003550273 -0.006774279
000090 83 c8 d2 3b e4 01 aa 3b 70 cb 4a 3b fa 80 b0 ba
       0.0064325943 0.0051882137 0.0030944012 -0.0013466172
0000a0 93 50 19 3c a3 8a 83 39 c5 87 f6 bb 21 59 13 ba
       0.009357589 0.0002508956 -0.007523509 -0.0005620886
0000b0 e6 3c 08 bc 4b 17 e0 39 d4 3c 94 3a ab ce 8d 3b
       -0.008315301 0.00042741964 0.0011309632 0.0043276153
0000c0 d7 25 76 3c 1b 93 d5 bb 07 3b a4 3c 24 97 a2 bb
       0.01502367 -0.0065177805 0.020047678 -0.004961865
0000d0 f5 0c 77 3b ce 69 b3 3b f7 d6 1a 3c 9b 3c 96 bc
       0.0037696932 0.0054752594 0.009450666 -0.018339446
0000e0 19 41 22 bb e2 c5 70 bc a3 29 a0 bb 3c f1 90 3b
       -0.002475804 -0.014695616 -0.004887776 0.0044232886
0000f0 6f d7 e9 3a 9c a5 2d 3c 4b ab 6c bb 06 de 16 3b
       0.0017840693 0.010598566 -0.003611284 0.002302052
000100 2d a4 15 bc ba 7b ed bb bc 17 83 bb 87 c2 16 bb
       -0.009133381 -0.0072474154 -0.004000632 -0.002300413
000110 1b 2e ac 3b fb 0e cc 3b b3 e8 89 bb aa 09 08 3c
       0.0052545196 0.0062273717 -0.004208648 0.008303085
000120 a9 a1 90 ba 56 4f a2 3b f7 5a 4c bb 90 76 aa bc
       -0.0011034507 0.0049533052 -0.003118215 -0.020808488
000130 e0 8e 07 3b df a2 02 3c ee 57 b5 bb 43 b7 05 3c
       0.0020684525 0.007973402 -0.0055341637 0.008161369
000140 75 67 d8 3b cf d8 ea b8 e4 b9 38 ba e3 ee 89 3b
       0.00660413 -0.00011198373 -0.0007046743 0.0042093857
000150 eb d2 8f bb f5 1b 62 bc 17 6a 88 ba 74 6f 3f 3c
       -0.004389157 -0.013800611 -0.0010407594 0.011684287
000160 07 73 06 3c d8 f7 cc bb 5b a2 e4 39 57 be 0e 3b
       0.008206136 -0.006255131 0.00043608513 0.0021780932
000170 40 22 fe 39 97 a5 52 3b 82 9c 9c 3b 47 c8 05 3b
       0.00048472174 0.0032142156 0.0047793994 0.0020413564
000180 cd 11 bb bc b2 5f 6d bc 99 9c 02 3c b7 e4 d4 ba
       -0.022835637 -0.014488148 0.007971906 -0.0016242479
000190 5b 31 88 bb b5 33 62 bc 2f a2 87 bb 9b a4 22 3b
       -0.0041562743 -0.013806273 -0.004139207 0.002481735
0001a0 85 18 95 ba 93 ce 0a 3c 83 20 57 3c 2f 4c 04 bc
       -0.0011375105 0.008472103 0.01313031 -0.008074804
0001b0 fe 9d 06 3b 52 a1 6f 3b 27 ea 9d bc 2d c6 b9 b9
       0.0020540948 0.003656466 -0.019276692 -0.00035433602
0001c0 20 21 ef ba c0 94 ec bb 92 b5 bd bc 2a 21 02 3c
       -0.0018244125 -0.007219881 -0.023157869 0.007942477
0001d0 fa f8 78 bb 59 6b 40 3c 68 cf 20 bc 32 9b 3e bc
       -0.0037990198 0.011744344 -0.0098150745 -0.011633681
0001e0 1f f2 3b 3a 43 74 f0 bb 28 8c 54 bb 53 1e 30 3c
       0.0007169563 -0.007338078 -0.0032432172 0.010749417
0001f0 d0 41 41 bc c4 4a bc bb 5b da eb bb 9c 96 08 3c
       -0.011795476 -0.0057462174 -0.007197661 0.008336689
000200 e2 84 66 3c 30 53 dd ba 24 b4 b2 3b e5 e5 f1 3b
       0.014069768 -0.0016885754 0.0054536033 0.007382142
000210 37 ca 4f 3c 9d 69 bc 3b fe e5 90 bb a5 ad 7c 39
       0.012682489 0.005749895 -0.0044219485 0.0002409728
000220 9a 53 f2 b9 dd e2 dd 3a 4a bc 0e bc 9f d0 33 bc
       -0.00046220125 0.0016928572 -0.008711884 -0.010975032
000230 bd 82 81 bc f6 60 1d 3c 87 29 f5 3a c0 b8 5b 3c
       -0.015809411 0.009605637 0.0018704393 0.013410747
000240 4d 56 60 bc 25 72 e2 3b 83 5a 00 bc 47 c3 d5 3b
       -0.013692451 0.0069105797 -0.00783408 0.006523523
000250 d8 c7 d9 39 68 dd 57 bb 73 20 12 bb 1f 3b 53 3c
       0.0004153836 -0.0032938365 -0.0022297173 0.012892514
000260 43 24 11 3c d1 bb ab 3b d5 2c dc bb 0c 19 a7 ba
       0.008858743 0.0052408953 -0.0067192116 -0.0012748553
000270 25 e4 b5 ba 7b 36 ad bc 25 a3 d9 bb e2 7c 5d bb
       -0.0013877196 -0.021144142 -0.006641763 -0.003379636
000280 63 3a 6a 3c 9f d1 0e bc 16 86 ab bc 62 fe 88 bc
       0.014296147 -0.00871697 -0.02093796 -0.016722862
000290 21 14 99 3c a2 1b 8a 3b 02 bd 39 3c 93 29 41 3b
       0.018686356 0.00421472 0.011336567 0.0029474243
0002a0 7b 17 bd ba 26 81 1c bc cd 9d 83 3c 92 c4 d9 bb
       -0.0014426553 -0.009552276 0.016066456 -0.0066457475
0002b0 0f 89 ad 3b 90 30 17 ba c2 ff 7c bb 42 12 d1 3c
       0.0052958797 -0.0005767429 -0.0038604592 0.025521401
0002c0 41 0e 98 bb b7 b8 a4 3b 9f 22 fa bb e7 7b 26 b9
       -0.004640371 0.0050269025 -0.0076335217 -0.00015877151
0002d0 ba c3 8f 3b e8 e1 27 3b b0 d1 67 bb d5 42 fa b9
       0.004387346 0.0025616828 -0.0035372786 -0.0004773351
0002e0 57 5a 6b bb a2 32 ef bb 4b 45 cf bb a3 69 70 bb
       -0.0035912 -0.007299737 -0.006325399 -0.0036684058
0002f0 c6 66 45 3b 0b 8f 9f 3b c1 d7 af 3b ec ea 0f bc
       0.0030121072 0.004869347 0.005366296 -0.008784037
000300 57 50 af ba 29 57 8e 3b c8 3d ef 3b 57 09 c2 3b
       -0.0013375384 0.0043438864 0.007301066 0.0059215236
000310 a3 d0 df bb 90 29 a0 3a 72 7b 5a 3a af 56 84 3c
       -0.0068302914 0.0012219418 0.0008334435 0.016154615
000320 8b 46 04 bc 41 d1 82 ba d2 95 88 3b 28 50 f2 ba
       -0.008073459 -0.0009980575 0.0041682506 -0.0018487023
000330 15 d9 cc ba eb 59 24 3c cb 24 69 3b 10 30 ee ba
       -0.001562866 0.010031204 0.0035574909 -0.0018172283
000340 68 d8 62 3b 9d 91 0e bc 29 51 87 bb 30 47 68 3b
       0.0034613851 -0.008701709 -0.004129548 0.0035442822
000350 09 11 c2 3b bb 81 e7 3b 07 50 8d bc 87 15 82 bc
       0.005922441 0.0070650256 -0.017250074 -0.015879406
000360 a5 ba 54 bc f3 7a fd bb ef 2c 71 bc 24 4b 8b bc
       -0.012983953 -0.007735604 -0.014720186 -0.017003603
000370 d3 b5 88 bb 99 c6 1f 3b e7 e1 ad bc 2a 54 8c 3c
       -0.0041720658 0.0024379848 -0.021225883 0.017129976
000380 9e 32 93 bb a4 1d b3 ba f9 6c 12 bc f5 6d 94 bb
       -0.004492118 -0.001366545 -0.008937114 -0.0045297095
000390 3b 46 5f bb 45 9f 37 bb b9 94 c4 38 85 13 4a 3c
       -0.003406896 -0.0028018516 9.37371e-05 0.012333755
0003a0 52 60 bc bb 02 15 06 3c 40 e9 e9 bb 1f 65 63 bc
       -0.005748787 0.00818372 -0.0071384013 -0.01387909
0003b0 3b 6e d3 ba 72 b4 c4 ba 62 c1 47 bc 12 1f 44 bc
       -0.0016130874 -0.001500739 -0.012192102 -0.011970298
0003c0 85 5d ed bb a9 79 a9 3b 61 f8 33 bb f1 a8 4b bb
       -0.0072438144 0.0051719737 -0.0027461278 -0.0031076039
0003d0 1b 39 9b 3b 8a fc 5c 3b 82 51 bb bc ff 75 51 bc
       0.004737032 0.003371986 -0.022866014 -0.01278448
0003e0 45 c8 57 3b 90 00 db 3c 2a 36 27 3c 6b c4 31 bc
       0.0032925766 0.026733667 0.010205785 -0.010850052
0003f0 2b 58 13 bc b7 8d b0 3b 3f a5 70 bc fe 9c 45 bc
       -0.008993189 0.0053879875 -0.014687835 -0.012061356

action_model._discrete_distribution.branches.2.bias f4 [2]
000000 00 00 00 00 00 00 00 00
       0.0 0.0

action_model._discrete_distribution.branches.3.weight f4 [2, 128]
000000 a5 18 f4 ba 58 fc 44 3c 70 a8 3e 3a 7b ac 0e 3c
       -0.0018623067 0.012023054 0.0007273024 0.008708115
000010 c7 16 81 b7 a6 d0 1d bc fa 22 94 ba ff aa a2 3b
       -1.5388605e-05 -0.009632265 -0.0011301928 0.004964232
000020 b8 7a d2 bb 6f 45 74 3c b8 23 34 3c d6 8b 96 3c
       -0.0064233206 0.014909132 0.010994844 0.018377226
000030 d1 26 87 bb e0 ec 77 3c 3d d7 8a 3b 78 12 b0 ba
       -0.0041245003 0.015132159 0.004237084 -0.0013433238
000040 d8 d9 99 3b a2 9b 70 3b f3 0e 78 bc 14 8d 19 3c
       0.0046951585 0.0036713858 -0.015140283 0.009372015
000050 8c f4 16 ba 67 1b 9c 3b 1d 3a e5 3b 35 78 e4 3b
       -0.0005758486 0.004764009 0.006995453 0.0069723376
000060 d8 a0 6d 3c 19 62 81 bc 72 0f 3b bc fb 95 78 3c
       0.01450368 -0.015793847 -0.011417257 0.015172477
000070 bb 3c 49 bc 10 d8 97 3b 63 e3 6d bc 3f bb 29 bb
       -0.012282546 0.004633911 -0.014519545 -0.002589896
000080 85 4d a2 3c fb 72 a9 3a 47 a3 c8 ba 3f c9 43 bb
       0.019812355 0.0012927944 -0.001530745 -0.002987459
000090 8d ee d0 bb 92 36 52 bb c7 92 af b9 ad f9 75 3c
       -0.0063760937 -0.0032075983 -0.0003348796 0.015013141
0000a0 e2 08 82 3c 6e 97 00 3c 27 19 6e 3b 30 79 c6 bb
       0.015873376 0.007848604 0.003633091 -0.006056927
0000b0 8b 17 29 3a b3 fd 0d 3c 97 b1 48 bc 60 63 39 bb
       0.00064503466 0.008666444 -0.012249372 -0.0028287992
0000c0 12 f8 fe bb 23 6b 17 bc 2f 99 bc 3b ff db 60 bb
       -0.007781037 -0.009241852 0.0057555656 -0.0034310815
0000d0 58 57 48 3b 1a e4 4c bb 3d c9 fc 3b af 8d d9 ba
       0.003056964 -0.0031263889 0.007714419 -0.0016598011
0000e0 fa 10 1b bc 47 d7 f5 bc bf 6f 0a 3b ff 29 c2 bb
       -0.009464497 -0.030009879 0.0021123735 -0.0059254165
0000f0 37 69 8a 3b f8 56 56 bc 1d 8d ab 3c df 8e 55 ba
       0.0042239684 -0.013082258 0.020941311 -0.00081465946
000100 19 4b c0 3b f5 b9 2b 3b ef 89 b6 bc df ff 13 bb
       0.0058683273 0.0026203368 -0.022282569 -0.002258293
000110 e7 be 35 bc 20 6d 6c bc a5 8e e3 ba 80 5f 51 3a
       -0.011092878 -0.014430314 -0.0017361237 0.0007986948
000120 f5 75 51 3c c7 a5 8e bc 57 13 b7 b9 07 42 36 bb
       0.012784471 -0.017413033 -0.0003491889 -0.0027810351
000130 f6 47 0a 3b bf cd 41 ba 3c 42 bf bc 23 65 ee bb
       0.002110002 -0.0007393024 -0.023347013 -0.00727524
000140 ae 83 48 3b 28 3a 14 3b cf 97 4b bb 93 b3 50 3b
       0.0030596065 0.0022617672 -0.0031065827 0.0031845316
000150 3e eb c6 3b b1 95 04 bc db 87 86 3a 0f 82 06 3c
       0.0060705235 -0.00809233 0.0010263877 0.008209719
000160 03 72 e2 bb 0a a8 20 bc 48 e2 f5 3b 9f f1 8a 3b
       -0.006910564 -0.009805689 0.0075037815 0.0042402293
000170 8f 61 9a bb b2 33 be bb 8e b5 ac bb 3f c1 41 bb
       -0.004711337 -0.0058045024 -0.0052706664 -0.0029564647
000180 2a cc ec 3b 7b 11 40 3c 68 bc 75 3c fc 1b ba bb
       0.0072264867 0.011722918 0.014998533 -0.0056796055
000190 b5 3d 32 bb 42 03 17 3b d2 be 65 bb 0f d2 46 3c
       -0.0027197425 0.0023042713 -0.0035056365 0.012135043
0001a0 c6 ff 46 3b 02 31 de 3b 81 e7 3f bc f2 43 e3 bb
       0.0030364855 0.0067807445 -0.01171291 -0.00693559
0001b0 7b 71 3f bc 27 42 f6 3a f6 84 2d bc f3 a0 0e 3c
       -0.011684771 0.0018788025 -0.010590782 0.0087053655
0001c0 77 99 83 bc 65 bc 53 ba df b1 cf 3b c1 dc 8d 3b
       -0.016064389 -0.0008077084 0.0063383426 0.0043292944
0001d0 23 aa 78 3b 67 37 04 3c ad 6f d0 bb 52 e8 ee bb
       0.0037943206 0.00806985 -0.006360969 -0.0072908783
0001e0 2b a5 21 3c a2 ae 5a 3b 9f b8 14 ba c0 64 13 3c
       0.009866039 0.003336825 -0.00056732626 0.008996189
0001f0 ff 70 78 3c 1d df 7f 3c 9a eb 02 3b ca 5a 3a ba
       0.015163659 0.015617159 0.0019976855 -0.00071088655
000200 77 06 75 3c c3 db 73 bb 82 0d 3f bb 3a a3 27 bb
       0.014955155 -0.0037209846 -0.0029152338 -0.0025579468
000210 73 a3 d8 3b 05 db d3 3b ea ee 47 3c 3f 19 ac bb
       0.0066112815 0.006465318 0.012202958 -0.005252033
000220 bb e6 3b bc 34 a2 05 3c 63 f6 74 3b 99 fb b9 bb
       -0.011468585 0.008156348 0.0037378303 -0.0056757447
000230 92 27 bc 3b 84 aa ae ba 6f 79 6c bb 91 77 96 bb
       0.005742022 -0.0013325964 -0.0036083122 -0.00459189
000240 a5 19 3d 3b 8a 0c fb bb 01 b9 a2 bb 14 b8 9b bc
       0.0028854397 -0.007661407 -0.004965902 -0.019008674
000250 95 7e e4 bb 6d 1c c0 3b 6a e0 a1 3c bc 59 91 b8
       -0.0069730976 0.0058627636 0.01976033 -6.930853e-05
000260 63 e9 3e 39 52 24 7a 3b ed 0f 0f 3c 92 3f 82 bb
       0.00018206755 0.0038168621 0.008731824 -0.0039748633
000270 4c a4 2d bb eb a6 8f bb 12 ea 7d bb 52 68 63 ba
       -0.0026495634 -0.004383912 -0.0038744253 -0.0008674908
000280 d8 ec f3 ba a1 d3 09 bc 0b 57 81 bc 87 45 32 3b
       -0.0018610014 -0.008412273 -0.015788576 0.0027202086
000290 a1 83 2d 3b f2 9c 4d 3b 0b c2 46 3a 94 ab 06 3c
       0.0026476162 0.0031374064 0.0007582015 0.008219618
0002a0 4f 39 ae bb e6 d2 82 bb 1a 33 7a bc 10 d8 82 3a
       -0.0053168903 -0.003992426 -0.015270973 0.0009982605
0002b0 af 86 83 3b 67 70 1a 3c 10 a4 1a 3c d7 b7 3d 3c
       0.0040138583 0.009426213 0.00943853 0.011579475
0002c0 a9 eb 22 bb 3d f5 c9 3b cf d0 92 bc 63 af f3 3b
       -0.0024859703 0.006163268 -0.017921833 0.007436679
0002d0 68 7d a8 3b f8 d2 fd ba ba 4a 86 bc 25 66 2c ba
       0.0051419027 -0.0019365242 -0.016393054 -0.00065765
0002e0 4f 53 02 3c 4c 71 08 bc 70 51 79 bc 25 ad 26 3b
       0.007954433 -0.008327793 -0.01521717 0.0025432792
0002f0 a0 e7 15 bc 48 4c e5 3c 4b 8e ff 3b 7e 6c ad bb
       -0.009149462 0.027990475 0.007798945 -0.0052924743
000300 3b 78 bd 39 f6 bb 47 bc 87 f2 25 bc 7e bd 04 bc
       0.00036138468 -0.0121908095 -0.010128624 -0.008101819
000310 ac bb 81 3a c9 6b c5 ba d7 41 e0 3b d3 61 9d bb
       0.000989785 -0.001506203 0.006843786 -0.0048029213
000320 e4 59 bb bb 0b 43 51 bb a1 56 88 3b e7 22 70 3c
       -0.005717503 -0.003193083 0.0041607176 0.014656759
000330 a5 be 34 3c b8 4a e1 bb 72 9a f4 ba 47 c8 b8 bc
       0.011031781 -0.0068753622 -0.0018661751 -0.022556437
000340 17 db 39 3c c5 29 fc bb be 02 01 bc 38 79 63 bc
       0.011343739 -0.007695409 -0.007874189 -0.013883881
000350 ad 7f 06 3a e0 ae 58 3c 30 02 e6 b8 87 29 66 3b
       0.00051307195 0.013225287 -0.00010967662 0.0035119967
000360 51 6f 4a 3c e2 32 d7 3a 00 e9 53 bc 47 20 4d bc
       0.012355641 0.0016418363 -0.0129339695 -0.012519903
000370 e1 67 c0 3b 53 ff 32 3c 97 9e 09 3b 50 e5 b3 3b
       0.0058717583 0.010925132 0.0020999068 0.0054899827
000380 58 66 a5 bb 73 f9 18 3c ee 90 20 bc 28 85 d7 bb
       -0.0050476007 0.009336817 -0.009800179 -0.0065771528
000390 68 01 14 3b fb 7d 44 bb 92 51 57 bc e2 e4 4e 3a
       0.0022583846 -0.0029982317 -0.0131420065 0.00078923826
0003a0 68 72 a2 3c ad fb cc 3b d3 60 5f 3b 06 ee 18 bc
       0.019829944 0.006255588 0.0034084811 -0.009334093
0003b0 48 74 d9 3b 5a 29 6c 3c 78 a0 6d 3c 86 9a 84 3c
       0.0066361763 0.014414156 0.014503591 0.016186964
0003c0 57 b8 81 bb 53 f8 d1 3b 00 47 51 bc 07 42 64 bc
       -0.0039587426 0.0064077764 -0.012773275 -0.013931758
0003d0 ca 62 f0 bb e7 7b 9f 3c c0 9c 90 ba 1e 33 82 bb
       -0.0073359953 0.01946826 -0.0011033043 -0.003973379
0003e0 92 7e 04 3c 14 19 3c 3c 00 14 74 bc 33 7d c7 3b
       0.008086817 0.0114805885 -0.0148973465 0.006087923
0003f0 d2 a4 61 3a 93 4b 84 bc 97 3f 51 bc ff 08 4b 3c
       0.0008607629 -0.016149318 -0.012771509 0.012392282

action_model._discrete_distribution.branches.3.bias f4 [2]
000000 00 00 00 00 00 00 00 00
       0.0 0.0
