Assets/results/ppo/My Behavior/My Behavior-152.pt (torch, 219670 bytes, 38 tensors)

discrete_act_size_vector f4 [1, 14]
000000 00 00 00 40 00 00 00 40 00 00 00 40 00 00 00 40
       2.0 2.0 2.0 2.0
000010 00 00 00 40 00 00 00 40 00 00 00 40 00 00 20 41
       2.0 2.0 2.0 10.0
000020 00 00 20 41 00 00 20 41 00 00 20 41 00 00 20 41
       10.0 10.0 10.0 10.0
000030 00 00 20 41 00 00 20 41
       10.0 10.0

network_body._body_endoder.seq_layers.0.weight f4 [128, 24]
000000 71 22 cc bc a7 1e 4e 3e 49 e4 79 be 33 f0 61 3e
       -0.024918767 0.2012888 -0.2440349 0.22064285
000010 43 b4 a6 3d de 00 b8 3d 96 d2 60 3e 94 3a 91 be
       0.08139851 0.089845404 0.21955332 -0.28365004
000020 a5 d5 53 3e ae 74 2e be 99 5a 3a 3e 4e 90 aa 3d
       0.20686968 -0.17036697 0.18198623 0.08328305
000030 38 8b f6 3d ec 00 67 be 28 c1 98 3e ec ca 40 3d
       0.120382726 -0.22558945 0.29834867 0.04706852
000040 bf 67 e6 3d 14 c5 84 bc 70 a0 47 3e 30 d6 b1 3d
       0.11250257 -0.016207255 0.19494796 0.08683431
000050 3b 74 af bd c3 db 29 3e ea ff 44 be 18 b1 58 3e
       -0.08567091 0.16587739 -0.19238248 0.21161306
000060 17 96 01 3e 46 20 10 be e7 43 bf 3b ae 43 9d bd
       0.12654911 -0.14074811 0.005836952 -0.076789245
000070 ee 0c 2e bf 0b 15 5d 3e 39 c5 1f 3e 19 1a a7 3d
       -0.6798848 0.21590059 0.15602578 0.081592746
000080 74 e5 9d 3d 88 72 8e 3e 87 b5 a4 3e 03 f1 f4 bb
       0.0770978 0.27821755 0.32169744 -0.00747502
000090 1a 29 07 3e b5 25 0f 3e e3 cb eb 3d 69 cc 82 bd
       0.13199273 0.13979228 0.11513498 -0.063866444
0000a0 9c 21 04 be 6d 4e 80 be 7d e9 ac bc 65 ab e6 3d
       -0.12903446 -0.25059834 -0.02110743 0.1126316
0000b0 d1 cc 78 be 3e 75 69 be 6f 18 6e 3d 62 de 0b 3e
       -0.24296881 -0.2279863 0.05812877 0.13659051
0000c0 e9 d0 6a 3e 11 57 0d be 82 43 c9 3e ad 48 61 3e
       0.22931255 -0.13802744 0.39309317 0.2200038
0000d0 2f 8d 64 be f2 9d a9 3e 4f 62 c0 3c c6 70 b2 3d
       -0.22319482 0.33128315 0.023484377 0.08712916
0000e0 a6 54 01 3e 61 0b 0d 3e 65 c7 c3 bd 9a a9 b2 3e
       0.12629947 0.13773872 -0.09559516 0.3489502
0000f0 0d 95 3a 3d 80 22 ab be cd b8 65 be fd 70 a1 be
       0.045552302 -0.3342476 -0.22433777 -0.31531516
000100 c3 aa 85 bd 82 d8 86 3c fd d0 89 be bc 1c 3c 3e
       -0.06526711 0.01646066 -0.26917258 0.18370336
000110 34 54 3f be f3 df ef bd 8d 73 25 bc 79 c5 df bd
       -0.18684465 -0.11712637 -0.01009835 -0.10926337
000120 8f 55 43 bc c8 b6 93 3d 7e ee 32 be 8e 0d 64 3c
       -0.011922254 0.07212597 -0.1747379 0.013919247
000130 23 c6 73 be 7b a6 11 be ee 48 af 3e 0a 6d 4b be
       -0.23806052 -0.14223664 0.34235328 -0.19865814
000140 f2 73 91 bd 10 30 b4 be 45 17 34 be c5 6d a5 3e
       -0.07102193 -0.3519292 -0.17587002 0.3231031
000150 be c0 6a be 6e 1e b5 bd d3 28 b0 be c8 47 b4 be
       -0.22925088 -0.088436946 -0.34406146 -0.35211015
000160 8a 4d 18 3f 02 12 d8 3e 40 8c a1 be 69 59 55 3c
       0.59493315 0.4220124 -0.31552315 0.013021805
000170 ec 92 a5 be ac 69 cc bd 96 26 d0 be 22 a3 dd 3e
       -0.32338655 -0.09981093 -0.4065444 0.43288523
000180 83 c0 89 3e 5d fe eb be 3a f0 4e be 63 f8 91 3e
       0.26904687 -0.460925 -0.20208827 0.28509817
000190 a3 05 75 be a9 be a3 3d 46 06 2e 3e 3b 99 16 be
       -0.23927931 0.0799535 0.1699458 -0.1470689
0001a0 4f de 27 3e 94 2d ce 3b 2d da 0e bb b9 50 3e bd
       0.16393398 0.0062920544 -0.0021797523 -0.046463702
0001b0 e5 73 9b 3e 70 f0 3f be 07 fd 22 3d 25 26 db 3d
       0.30361858 -0.18744063 0.039792087 0.10700635
0001c0 4c 98 29 bd 80 b2 5d 3e 67 1a 8b 3e 87 2a 6f be
       -0.041405007 0.21650124 0.2716858 -0.23356067
0001d0 5a ca c9 bd f2 79 18 3e 4f 6f 27 3e dc 0f 4d 3c
       -0.098530486 0.14890268 0.16351055 0.012515988
0001e0 d0 04 4b be cf 56 3b 3e 18 5d 86 3e 6e 28 2c 3e
       -0.19826055 0.18294834 0.262429 0.16812298
0001f0 67 4f aa 3e 60 cf d1 3e 83 72 c3 be 5f 9e 83 be
       0.33263704 0.40978527 -0.38173303 -0.25706765
000200 2f de 72 3e f2 56 8a bd b3 a0 9c 3d 72 b8 03 be
       0.23717569 -0.06754865 0.076478384 -0.12863329
000210 28 73 75 be b4 e4 ed ba 18 0c 4d be c5 72 cd bc
       -0.2396971 -0.0018149824 -0.20024145 -0.02507914
000220 b5 91 ff 3c 94 f6 f3 3c 51 70 08 3f 27 4b bf bd
       0.031197408 0.029780664 0.5329638 -0.09340506
000230 81 78 7d be b2 2c c3 bd 7e d7 c8 be 02 94 cc be
       -0.24753 -0.09530009 -0.39226907 -0.3995667
000240 a2 1b 35 be a4 fd a4 bd 51 85 fb bd 36 3f 95 bd
       -0.17686322 -0.080561906 -0.122812875 -0.07287447
000250 00 e2 39 be 87 d6 2b be 40 74 ef bd 8a c2 bc bd
       -0.18152618 -0.16781054 -0.11692095 -0.09216793
000260 e4 38 c1 3d ed d5 b2 3a 79 41 37 be 01 e3 8c 3c
       0.09434679 0.0013644077 -0.1789607 0.017198088
000270 0d 7b ad 3d 7e 50 a1 be e7 cd 02 3e b4 e0 85 3d
       0.08470736 -0.31506723 0.12773858 0.06536999
000280 e5 5a 1a 3e c1 65 6a be 30 3f 0f 3f af a5 a2 3e
       0.15073736 -0.22890379 0.5595579 0.31767032
000290 33 64 af be 00 9f af 3d e7 fb 94 bd a6 5a 8b 3e
       -0.34256133 0.08575249 -0.07274609 0.27217597
0002a0 62 9a 04 3e 4a 03 38 3e 1a 38 80 bd ae a2 74 bd
       0.12949517 0.17970005 -0.062607005 -0.059725456
0002b0 a7 9b 22 be ab c7 32 bd c8 33 25 3e 75 60 22 be
       -0.15879689 -0.04364745 0.16133034 -0.15857108
0002c0 9b 4a 89 bd 36 af 0b be cf 73 f8 3d 76 dc 36 3d
       -0.06703683 -0.13641056 0.12131464 0.04464384
0002d0 27 2e eb 3e f9 e5 a1 3e e8 0c a8 3c a5 d4 8e 3e
       0.4593365 0.31620768 0.020513967 0.2789661
0002e0 44 9a 62 3d e7 c0 89 3e a1 e1 c3 3d 67 73 07 be
       0.0553229 0.26904985 0.0956452 -0.13227616
0002f0 f1 05 a6 3e ff 20 81 3d 84 5f 5c be bf 22 a7 3d
       0.32426408 0.06305122 -0.21520811 0.08160924
000300 b0 58 36 be 9d 2c 8e be 5c 53 a0 3d 90 7f 46 3c
       -0.17807269 -0.27768412 0.078283995 0.012115374
000310 d5 3e 4d be e4 f4 9c be 59 54 37 3e 8c 2f 94 3d
       -0.200435 -0.30655587 0.1790327 0.07235631
000320 19 f3 12 3d 8f f7 ff 3d 41 c2 d5 bd 70 82 c1 3e
       0.035876367 0.1249839 -0.104374416 0.37794828
000330 11 e7 7a 3d 6b 89 87 3d 2f 7b 8b 3e 33 3f 77 be
       0.06125552 0.06618007 0.2724242 -0.24145202
000340 3f d0 8a 3e 06 db e2 3d 15 45 ac bd 67 73 8c 3e
       0.27112004 0.11076932 -0.08411614 0.27431795
000350 54 03 6e 3b be f0 60 be 65 5f 7e 3e 4a 60 4b be
       0.0036317902 -0.21966836 0.24841078 -0.1986095
000360 da dc 92 3c 97 ea 2a bc 9d 63 28 be d9 67 16 be
       0.017927576 -0.010431907 -0.1644425 -0.14688052
000370 0c a3 be 3d 64 dd 9d 3c 2a 09 ea 3c 3a ae 98 3e
       0.093084425 0.019270606 0.028568823 0.29820424
000380 ae bb fd 3c 93 fd 35 3e d8 d3 44 be 25 61 3a be
       0.030973282 0.17772512 -0.19221437 -0.1820112
000390 0e f3 c1 3e c9 85 6b 3e 3a a1 c9 3e 55 3d 25 bd
       0.3788075 0.23000254 0.3938082 -0.040341694
0003a0 5b 2e 40 be 4a 10 6a 3e 47 7f 1d be 76 fb c9 3e
       -0.18767683 0.22857776 -0.15380584 0.39449662
0003b0 63 34 92 3e 37 8b d1 bd 31 d2 61 be 66 e8 bc 3e
       0.28555593 -0.10231631 -0.22052838 0.36896056
0003c0 6e 2b 2a 3c c7 6a 8a be ed 1b 03 3f 9f 43 b4 be
       0.010386331 -0.2703459 0.51214486 -0.3520784
0003d0 cf dc 86 3e 9e 63 f5 3e 10 cf 37 3e 3f 46 ec 3e
       0.2634034 0.47927564 0.17950082 0.46147344
0003e0 a0 3d 75 bd 86 3c 0e 3d c8 2e 77 be 33 b0 98 bd
       -0.059873223 0.03472569 -0.2413894 -0.07455482
0003f0 c6 59 45 3e 8e 4d 6f 3e de 41 e0 3d 72 bb da bc
       0.19272527 0.23369429 0.10950063 -0.026700709

network_body._body_endoder.seq_layers.0.bias f4 [128]
000000 00 00 00 00 00 00 00 00 00 00 00 00 00 00 00 00
       0.0 0.0 0.0 0.0
000010 00 00 00 00 00 00 00 00 00 00 00 00 00 00 00 00
       0.0 0.0 0.0 0.0
000020 00 00 00 00 00 00 00 00 00 00 00 00 00 00 00 00
       0.0 0.0 0.0 0.0
000030 00 00 00 00 00 00 00 00 00 00 00 00 00 00 00 00
       0.0 0.0 0.0 0.0
000040 00 00 00 00 00 00 00 00 00 00 00 00 00 00 00 00
       0.0 0.0 0.0 0.0
000050 00 00 00 00 00 00 00 00 00 00 00 00 00 00 00 00
       0.0 0.0 0.0 0.0
000060 00 00 00 00 00 00 00 00 00 00 00 00 00 00 00 00
       0.0 0.0 0.0 0.0
000070 00 00 00 00 00 00 00 00 00 00 00 00 00 00 00 00
       0.0 0.0 0.0 0.0
000080 00 00 00 00 00 00 00 00 00 00 00 00 00 00 00 00
       0.0 0.0 0.0 0.0
000090 00 00 00 00 00 00 00 00 00 00 00 00 00 00 00 00
       0.0 0.0 0.0 0.0
0000a0 00 00 00 00 00 00 00 00 00 00 00 00 00 00 00 00
       0.0 0.0 0.0 0.0
0000b0 00 00 00 00 00 00 00 00 00 00 00 00 00 00 00 00
       0.0 0.0 0.0 0.0
0000c0 00 00 00 00 00 00 00 00 00 00 00 00 00 00 00 00
       0.0 0.0 0.0 0.0
0000d0 00 00 00 00 00 00 00 00 00 00 00 00 00 00 00 00
       0.0 0.0 0.0 0.0
0000e0 00 00 00 00 00 00 00 00 00 00 00 00 00 00 00 00
       0.0 0.0 0.0 0.0
0000f0 00 00 00 00 00 00 00 00 00 00 00 00 00 00 00 00
       0.0 0.0 0.0 0.0
000100 00 00 00 00 00 00 00 00 00 00 00 00 00 00 00 00
       0.0 0.0 0.0 0.0
000110 00 00 00 00 00 00 00 00 00 00 00 00 00 00 00 00
       0.0 0.0 0.0 0.0
000120 00 00 00 00 00 00 00 00 00 00 00 00 00 00 00 00
       0.0 0.0 0.0 0.0
000130 00 00 00 00 00 00 00 00 00 00 00 00 00 00 00 00
       0.0 0.0 0.0 0.0
000140 00 00 00 00 00 00 00 00 00 00 00 00 00 00 00 00
       0.0 0.0 0.0 0.0
000150 00 00 00 00 00 00 00 00 00 00 00 00 00 00 00 00
       0.0 0.0 0.0 0.0
000160 00 00 00 00 00 00 00 00 00 00 00 00 00 00 00 00
       0.0 0.0 0.0 0.0
000170 00 00 00 00 00 00 00 00 00 00 00 00 00 00 00 00
       0.0 0.0 0.0 0.0
000180 00 00 00 00 00 00 00 00 00 00 00 00 00 00 00 00
       0.0 0.0 0.0 0.0
000190 00 00 00 00 00 00 00 00 00 00 00 00 00 00 00 00
       0.0 0.0 0.0 0.0
0001a0 00 00 00 00 00 00 00 00 00 00 00 00 00 00 00 00
       0.0 0.0 0.0 0.0
0001b0 00 00 00 00 00 00 00 00 00 00 00 00 00 00 00 00
       0.0 0.0 0.0 0.0
0001c0 00 00 00 00 00 00 00 00 00 00 00 00 00 00 00 00
       0.0 0.0 0.0 0.0
0001d0 00 00 00 00 00 00 00 00 00 00 00 00 00 00 00 00
       0.0 0.0 0.0 0.0
0001e0 00 00 00 00 00 00 00 00 00 00 00 00 00 00 00 00
       0.0 0.0 0.0 0.0
0001f0 00 00 00 00 00 00 00 00 00 00 00 00 00 00 00 00
       0.0 0.0 0.0 0.0

network_body._body_endoder.seq_layers.2.weight f4 [128, 128]
000000 81 8d d9 bd 86 af e7 bc ec 93 ed bd fe ed 20 3d
       -0.10622693 -0.028281938 -0.116004795 0.039289467
000010 69 97 ba 3d e9 b4 ba bd d8 44 a9 3d 49 2c 06 3c
       0.091109104 -0.09116537 0.08265084 0.008189269
000020 90 cd c4 3d 1e 36 1a 3d 19 0f 32 bb 1d 30 31 be
       0.096095204 0.037649266 -0.0027169643 -0.1730351
000030 96 9d dd ba 34 32 b6 3c 73 d6 fc 3d 8e 28 84 3e
       -0.0016907926 0.022240736 0.123455904 0.2581219
000040 fb 21 82 bc 33 a4 f9 3c e7 21 26 bd ba fd 6f 3d
       -0.015885344 0.030473804 -0.040559676 0.058591582
000050 9d c0 21 3c b2 69 ad bd 6b b8 bc bb 4a 21 14 3b
       0.009872583 -0.084674254 -0.005759289 0.002260285
000060 81 61 82 3d 77 68 b0 3c d1 29 2b 3e 54 63 ae bd
       0.06366254 0.021534188 0.1671517 -0.08515039
000070 34 93 a4 bc c8 a7 84 bd 7d 5e 0f 3d 3f a5 10 3e
       -0.020089723 -0.06477314 0.03500222 0.14125536
000080 52 f1 b0 3c 05 ad ae bd f8 af 9f bd 5d b6 d4 bd
       0.021599445 -0.085290946 -0.07797235 -0.103863455
000090 26 16 06 3d 56 8f bf bc 6a 33 00 3e ab a6 aa ba
       0.032735966 -0.023383778 0.12519613 -0.0013019642
0000a0 6c 7c c2 3d 52 7f 6d bd 0c 87 0a be 97 da 1e be
       0.09496388 -0.05798275 -0.13528079 -0.15513073
0000b0 f3 44 4c 3d a6 d1 be 3b 4a 4f ea 3d 5b 85 f5 bc
       0.049870443 0.005823332 0.114409044 -0.029970815
0000c0 d2 92 0c 3c 4f c1 42 3d 36 e9 3e bd 65 40 ff bc
       0.008579927 0.047547635 -0.046609126 -0.031158635
0000d0 78 51 c5 bc 59 16 54 be be c2 37 3d 9c 77 0a bd
       -0.024086699 -0.2071165 0.044863455 -0.033805475
0000e0 44 af 13 3e 11 f6 6a bd f2 66 03 3e c9 bc 85 3d
       0.14422327 -0.057363573 0.1283224 0.065301485
0000f0 06 1e f3 bd 6c f7 92 3d 7f ec 8f 3d ff 5c 32 3d
       -0.11870961 0.07176098 0.0702753 0.04354572
000100 fe 10 05 3e a1 3c ee 3d 7a 54 c4 bd 59 8e 0e bc
       0.12994763 0.11632658 -0.09586425 -0.0087009305
000110 39 f5 b7 bc f1 22 9b bc 48 a6 aa 3d 0b 1e e4 3c
       -0.022455798 -0.01893756 0.08332497 0.027846357
000120 69 f9 8a 3d 36 1b 40 be e6 0f e3 bb 98 ed 98 3d
       0.067858525 -0.1876038 -0.0069293855 0.074671924
000130 84 b5 11 3e a8 64 c3 3d c7 f1 c2 bd d6 4d e2 bd
       0.14229399 0.09540683 -0.095187716 -0.11050002
000140 a0 78 5b bd 5d 67 03 be 87 59 e7 bd ad 4a 5e 3d
       -0.053581834 -0.12832399 -0.11296373 0.054270435
000150 d0 b7 95 3d ac 5b 8e bc dc 3c c9 3d 9b cb 1e 3d
       0.0731045 -0.017377697 0.09826061 0.038768392
000160 7c 57 01 3e 0a c5 c9 3d 25 80 d4 bc b7 82 1f be
       0.12631029 0.09852035 -0.02594001 -0.15577208
000170 16 f7 07 be 35 1b 9d 3c 71 1e 0a be d9 ee a9 bc
       -0.1327785 0.019178012 -0.13488175 -0.020743774
000180 8c 90 20 bd 8c 30 1c 3d 62 7b 37 bd 68 8b 23 be
       -0.03920035 0.038132235 -0.0447954 -0.15971148
000190 98 aa b7 bd 40 01 1c 3d 95 f0 12 bd 3c 53 f5 3b
       -0.08968085 0.03808713 -0.03587397 0.007486729
0001a0 e1 0a 44 3d 6e fc e8 3d dd 7e 1f 3e 7f c3 23 bd
       0.047861937 0.11376272 0.15575738 -0.03998136
0001b0 8d f5 4e bd 24 46 5e bc 6a df 9e 3d 2d 16 a4 ba
       -0.050527144 -0.0135665275 0.077574566 -0.0012518816
0001c0 4a 52 c4 3d 5c 73 16 3d a8 6a 8f bd 45 f3 18 be
       0.09586008 0.03673111 -0.07002765 -0.1493655
0001d0 94 b1 3f bd 0c f5 2c bc 5e d5 dc bd 59 51 34 3d
       -0.04680021 -0.010556471 -0.10782884 0.04402289
0001e0 14 ff aa 3d 66 3f 3c 3d a4 88 e9 bd 2f eb 18 be
       0.083494335 0.0459589 -0.11403015 -0.14933465
0001f0 66 4f 40 3c ef 50 31 3d 3f 5c 4e be 1b f9 f7 3d
       0.01173768 0.043290075 -0.20152377 0.1210806
000200 88 5e c6 3d 61 28 eb 3d a1 0c 28 3c 74 cf 5e bd
       0.09685999 0.11482311 0.010256917 -0.05439706
000210 39 64 d3 bd 90 9e 48 3d 74 53 1e 3e fb 31 d7 3d
       -0.1032185 0.048979342 0.15461522 0.1050758
000220 ff 09 46 3d 4b da 35 bd 46 9b b2 3d 09 a4 f0 bd
       0.048349377 -0.044397634 0.08721022 -0.11750037
000230 b8 1c a5 3d e0 5b d3 bd fe 70 c5 bd 25 a6 01 be
       0.08062118 -0.10320258 -0.09640692 -0.12661035
000240 93 06 1d be b9 0a d0 bc d4 55 da bd d5 db e3 3d
       -0.15334539 -0.025395738 -0.10660902 0.11125914
000250 48 cb e3 3d 48 29 a1 bd 8e d5 3f 3e 29 3a 05 bc
       0.11122757 -0.07869202 0.18733808 -0.008131542
000260 4a d8 11 bd ee 58 d2 bd 36 f9 10 3e 7e 74 ac 3d
       -0.03560666 -0.10270868 0.14157566 0.084206566
000270 5f ee 4b 3d ce 00 6d be f5 ab 40 bd f3 3f 94 3d
       0.049787875 -0.23144838 -0.04703899 0.0723876
000280 6a 85 e7 bd ae cd 4f bc 0d ac a8 bc ff dd 03 3d
       -0.113047436 -0.012683315 -0.020589853 0.032194134
000290 e0 18 61 3d a9 a1 af 3d 52 03 5b 3b 97 e1 10 be
       0.054955363 0.08575756 0.0033418727 -0.14148556
0002a0 6d 9b 2e 3e e1 92 9d 3c cd 24 56 bc bd 53 bd bd
       0.17051478 0.019235076 -0.013070297 -0.092444874
0002b0 94 50 66 bd 9d 2f 2c 3c cd 50 c2 bc 7c 8c 51 3c
       -0.05622919 0.010509399 -0.02372017 0.012789842
0002c0 05 9f 71 bd c5 b7 48 bc 9b 97 dc bd 70 8e 07 bd
       -0.058989543 -0.012250845 -0.10771104 -0.033094823
0002d0 08 01 c2 bc 56 3e 63 3d d0 1c 96 bd 62 4d d8 bc
       -0.023682132 0.05547937 -0.07329714 -0.026404087
0002e0 b0 f2 0b bd 70 ee 62 bc 33 37 df bd 2d 78 87 bc
       -0.03416699 -0.013850793 -0.108992 -0.016536796
0002f0 87 4c f1 bb ec e4 0a 3e da 85 cb bd f6 cf ba bd
       -0.007363859 0.1356389 -0.099376395 -0.09121697
000300 c9 7e d6 3d a9 2f 7a 3d cc 7c 52 3d 8e b3 4f bd
       0.10473401 0.06108061 0.051388547 -0.050708346
000310 18 c8 6e 3d 4e c3 94 bc dc eb cb bb e8 9e 5b bc
       0.058296293 -0.018159535 -0.006223185 -0.013404585
000320 a0 10 28 bd 15 81 19 bd ec 48 10 be 67 ee a6 3d
       -0.04103148 -0.037476618 -0.14090317 0.081509404
000330 09 30 4b 3e fd 26 0d bc 1e 07 c1 3d 13 a2 52 3d
       0.19842543 -0.008615253 0.094251856 0.051424097
000340 82 a5 72 3d 9c 56 35 bd 20 2e 8b bc 33 e6 a7 bd
       0.05923987 -0.04427205 -0.016989768 -0.08198204
000350 d2 1e c7 3d 57 19 8b 3d f3 7f 81 3c 07 18 3e bd
       0.097226754 0.067919426 0.015808081 -0.046409633
000360 32 83 af bd 3d 1e 30 3b 73 3e 23 3d 10 73 6e bd
       -0.085699454 0.0026873492 0.039854478 -0.0582152
000370 fa 95 8c bd 17 2c e4 3c 70 0e a6 bd 45 cf 99 3c
       -0.06864543 0.027853055 -0.081082225 0.018775592
000380 80 4c f1 3c 59 42 37 be 80 7c 48 bd c1 24 9a 3d
       0.029455423 -0.17896403 -0.048946857 0.075265415
000390 76 92 51 bd f9 dc 0c 3e be 6f e4 bd ba 7d ca bd
       -0.051165067 0.1375617 -0.11154126 -0.09887262
0003a0 b2 e5 7a 3d ba bd c9 bd 18 ce a7 3c 16 5c 0c be
       0.06125421 -0.098506406 0.020484015 -0.13707003
0003b0 a2 07 20 3d 2f 8a 47 3d 68 90 0e bd d8 b5 2f bc
       0.03906978 0.048715767 -0.034805685 -0.010724507
0003c0 53 c1 5b 3c 8f 4e c7 3d 73 f6 b3 bd 18 90 a1 bd
       0.013412791 0.09731781 -0.08787241 -0.07888812
0003d0 79 9e 9e 3d 79 af 92 bd 85 73 e0 3c 35 97 4e 3e
       0.0774507 -0.07162375 0.027398834 0.20174868
0003e0 ba ea 01 3c b4 9b 17 3d 6d 0a 22 bb 26 05 29 be
       0.007929498 0.037013724 -0.0024725453 -0.1650587
0003f0 b1 93 5d be f2 0b 19 3d e2 99 73 3d e7 fa 04 3e
       -0.21638371 0.037364908 0.059472926 0.12986337

network_body._body_endoder.seq_layers.2.bias f4 [128]
000000 00 00 00 00 00 00 00 00 00 00 00 00 00 00 00 00
       0.0 0.0 0.0 0.0
000010 00 00 00 00 00 00 00 00 00 00 00 00 00 00 00 00
       0.0 0.0 0.0 0.0
000020 00 00 00 00 00 00 00 00 00 00 00 00 00 00 00 00
       0.0 0.0 0.0 0.0
000030 00 00 00 00 00 00 00 00 00 00 00 00 00 00 00 00
       0.0 0.0 0.0 0.0
000040 00 00 00 00 00 00 00 00 00 00 00 00 00 00 00 00
       0.0 0.0 0.0 0.0
000050 00 00 00 00 00 00 00 00 00 00 00 00 00 00 00 00
       0.0 0.0 0.0 0.0
000060 00 00 00 00 00 00 00 00 00 00 00 00 00 00 00 00
       0.0 0.0 0.0 0.0
000070 00 00 00 00 00 00 00 00 00 00 00 00 00 00 00 00
       0.0 0.0 0.0 0.0
000080 00 00 00 00 00 00 00 00 00 00 00 00 00 00 00 00
       0.0 0.0 0.0 0.0
000090 00 00 00 00 00 00 00 00 00 00 00 00 00 00 00 00
       0.0 0.0 0.0 0.0
0000a0 00 00 00 00 00 00 00 00 00 00 00 00 00 00 00 00
       0.0 0.0 0.0 0.0
0000b0 00 00 00 00 00 00 00 00 00 00 00 00 00 00 00 00
       0.0 0.0 0.0 0.0
0000c0 00 00 00 00 00 00 00 00 00 00 00 00 00 00 00 00
       0.0 0.0 0.0 0.0
0000d0 00 00 00 00 00 00 00 00 00 00 00 00 00 00 00 00
       0.0 0.0 0.0 0.0
0000e0 00 00 00 00 00 00 00 00 00 00 00 00 00 00 00 00
       0.0 0.0 0.0 0.0
0000f0 00 00 00 00 00 00 00 00 00 00 00 00 00 00 00 00
       0.0 0.0 0.0 0.0
000100 00 00 00 00 00 00 00 00 00 00 00 00 00 00 00 00
       0.0 0.0 0.0 0.0
000110 00 00 00 00 00 00 00 00 00 00 00 00 00 00 00 00
       0.0 0.0 0.0 0.0
000120 00 00 00 00 00 00 00 00 00 00 00 00 00 00 00 00
       0.0 0.0 0.0 0.0
000130 00 00 00 00 00 00 00 00 00 00 00 00 00 00 00 00
       0.0 0.0 0.0 0.0
000140 00 00 00 00 00 00 00 00 00 00 00 00 00 00 00 00
       0.0 0.0 0.0 0.0
000150 00 00 00 00 00 00 00 00 00 00 00 00 00 00 00 00
       0.0 0.0 0.0 0.0
000160 00 00 00 00 00 00 00 00 00 00 00 00 00 00 00 00
       0.0 0.0 0.0 0.0
000170 00 00 00 00 00 00 00 00 00 00 00 00 00 00 00 00
       0.0 0.0 0.0 0.0
000180 00 00 00 00 00 00 00 00 00 00 00 00 00 00 00 00
       0.0 0.0 0.0 0.0
000190 00 00 00 00 00 00 00 00 00 00 00 00 00 00 00 00
       0.0 0.0 0.0 0.0
0001a0 00 00 00 00 00 00 00 00 00 00 00 00 00 00 00 00
       0.0 0.0 0.0 0.0
0001b0 00 00 00 00 00 00 00 00 00 00 00 00 00 00 00 00
       0.0 0.0 0.0 0.0
0001c0 00 00 00 00 00 00 00 00 00 00 00 00 00 00 00 00
       0.0 0.0 0.0 0.0
0001d0 00 00 00 00 00 00 00 00 00 00 00 00 00 00 00 00
       0.0 0.0 0.0 0.0
0001e0 00 00 00 00 00 00 00 00 00 00 00 00 00 00 00 00
       0.0 0.0 0.0 0.0
0001f0 00 00 00 00 00 00 00 00 00 00 00 00 00 00 00 00
       0.0 0.0 0.0 0.0

action_model._discrete_distribution.branches.0.weight f4 [2, 128]
000000 78 8f 27 3c c7 68 b1 bb 91 38 bc bb 9f 4e cc 3b
       0.010227077 -0.0054141018 -0.005744048 0.0062349583
000010 3f 27 7d ba ba 4d 84 3b 7e ec 01 3c 8d 8d d2 bb
       -0.0009657032 0.004037586 0.007929919 -0.0064255656
000020 ad 43 e6 ba 18 47 72 3a bb 7e 2b 3c cb fb 7e 3c
       -0.0017567776 0.0009242161 0.010467227 0.015562962
000030 6b e8 e0 3b f7 8e 1b 3c 72 e8 87 bb 26 dc b3 3b
       0.006863644 0.009494535 -0.0041475827 0.00548889
000040 57 63 84 39 14 35 8e ba de c9 36 3c a6 ca 89 bb
       0.00025251016 -0.0010849559 0.011156527 -0.004205066
000050 3a 21 67 b9 43 e6 97 3b 43 0d ac 3b 0d 2f 80 3c
       -0.00022042255 0.0046356036 0.0052506044 0.015647436
000060 f2 4f 9d 3b aa d5 df ba 80 6c 2f 3c 04 b5 0b 3c
       0.00480079 -0.0017077227 0.010707021 0.008527044
000070 7b 9a fc b8 ef b1 d8 3b fd 20 75 3b 90 86 24 bc
       -0.000120450706 0.006613008 0.0037403696 -0.010041848
000080 13 a4 e3 3a af b5 92 3a 1c dd 27 bc 13 f5 49 bb
       0.0017367624 0.0011193062 -0.010245588 -0.0030816242
000090 d5 e5 81 3b 53 16 12 bc 38 f4 ac 3b 50 a8 6e bc
       0.0039641657 -0.008916455 0.0052781366 -0.014566496
0000a0 b5 ee a5 bb 87 7a bb bb 17 e7 28 3c 58 9f 54 bc
       -0.0050638565 -0.0057213935 0.010309002 -0.012977444
0000b0 11 83 32 bb 36 61 11 3b 0a ee 82 bb 45 60 01 3b
       -0.0027238766 0.0022183186 -0.0039956616 0.001974122
0000c0 0d 2f d5 bb 18 8e 64 3c 98 bd ad bb 9d 11 bc bb
       -0.006505853 0.013949893 -0.0053021424 -0.0057394044
0000d0 67 fb 28 3b f3 02 ca ba 95 d2 6a 3c fb d4 c9 3a
       0.0025784613 -0.0015412256 0.014332433 0.0015398556
0000e0 9a 4b 13 3c 84 25 89 bc f8 55 ed 3a d3 b3 5f 3b
       0.008990193 -0.016741522 0.0018107286 0.0034134283
0000f0 7f d2 fa ba 9b 08 97 bb 19 7d 86 bc 10 5c 5b 3b
       -0.0019136219 -0.00460918 -0.016417073 0.0033471622
000100 43 2a 0f bc db fc 9a 3b 60 88 4a bb 04 2d aa 3b
       -0.008738103 0.0047298498 -0.003090404 0.0051933546
000110 f0 5c ec 3a 9b bd 96 3c 28 42 8e bb 75 09 f3 39
       0.0018033069 0.018400958 -0.0043413825 0.00046355618
000120 67 1e dc bb 67 2c f7 3b b3 df 4a 3b f3 92 0a bb
       -0.0067174914 0.007543135 0.003095609 -0.0021144717
000130 f7 85 e5 3b f2 0c 46 ba 77 41 9d bb 9c 00 2c 3c
       0.0070044952 -0.00075550296 -0.004799064 0.010498192
000140 d7 f7 f9 bb 1a db 40 3c 4f 61 67 3b 0d 38 3d bb
       -0.0076284218 0.011770988 0.0035305803 -0.002887252
000150 75 55 2d 3c 7f 5e 7b b8 b0 4e fe 3a 95 68 e9 bb
       0.010579457 -5.993107e-05 0.0019402113 -0.007123063
000160 d0 39 e7 3b fd 2b 19 3b bb f7 48 3c 19 be 19 3c
       0.0070564523 0.0023372166 0.012266095 0.009383702
000170 c8 4b 59 3b 85 7e fd 3a 00 3b 68 bb d3 7a 95 bc
       0.0033156741 0.0019340074 -0.0035435557 -0.018247044
000180 f1 8f 0b 3c ba 7c 04 3c 18 2f 70 3b 08 d8 dc bb
       0.008518205 0.008086378 0.0036649164 -0.00673962
000190 c5 1b 4d 3c 0d 26 f0 3a 83 f0 03 3c 90 ce 0a bc
       0.012518828 0.0018321887 0.008052948 -0.0084721
0001a0 d7 9b 05 3c 39 d8 bb ba 13 91 45 bc 6b 2a 2c bb
       0.008154831 -0.0014331407 -0.012058514 -0.00262704
0001b0 4f 4e ad 3b 4f 9e de ba 89 84 a3 38 f5 e0 dd 3a
       0.005288876 -0.0016984435 7.797132e-05 0.0016928004
0001c0 f1 97 88 3a 2e 47 0e bc b1 53 14 3c 22 d9 22 3b
       0.0010421259 -0.008683963 0.009053157 0.002484866
0001d0 f2 25 65 3a ab b7 60 3c 5a 06 db 3c 6e 5c b5 bb
       0.0008741311 0.013715665 0.026736427 -0.0055347
0001e0 fa 94 8e bb d7 ef 09 3a 1b 23 81 3b 2f 53 93 bc
       -0.0043512555 0.0005261874 0.0039409525 -0.017984001
0001f0 fa 55 0e 3a bb 06 5c bb ac 6c 35 3c 2b 91 94 3c
       0.00054296816 -0.0033573348 0.011073273 0.018135628
000200 57 fe cd bb da 61 88 bb aa a4 db bb ad fc 21 bb
       -0.006286423 -0.0041620554 -0.006702979 -0.0024717257
000210 2d b6 ce ba 37 0e 05 3c af 44 9c 3a 98 e1 ec bb
       -0.0015770845 0.008121065 0.0011922325 -0.0072290413
000220 ab 05 96 3c 4a 1b 46 3b 82 d9 ce 3b 48 99 35 3b
       0.01831325 0.0030228668 0.00631255 0.002770977
000230 bb 9d 0d bb 30 94 1e 3b 21 97 1c bc d6 70 b8 3a
       -0.0021608907 0.0024197213 -0.009557516 0.0014071714
000240 76 00 90 bb 03 08 2e bc b4 f4 05 bc de 1d a6 3c
       -0.004394586 -0.010622027 -0.008176018 0.020277914
000250 35 4f 9f bb 3f a0 1a 3c d7 46 ce bb 05 d2 67 bb
       -0.004861737 0.00943762 -0.006295066 -0.0035372984
000260 ea cf 47 b9 df a9 9d bc d1 21 c0 3b 6b d5 74 3c
       -0.00019055573 -0.01924604 0.005863406 0.014943461
000270 ef b8 2a bc f2 7e eb 3b 5e 04 26 3b 78 ce 57 bc
       -0.010420068 0.007186764 0.0025332193 -0.013171785
000280 de 51 aa ba 3b fd e5 3b ca 68 7d 3c 86 40 88 3b
       -0.0012994369 0.007018713 0.015466878 0.0041580824
000290 03 cc 59 bc a7 2c 33 bb e1 ee 2f bb 53 15 47 ba
       -0.013293269 -0.0027339847 -0.0026845264 -0.0007594425
0002a0 b3 5c 92 3c 32 6c 60 3b 53 08 8f bb 20 0f d9 3b
       0.017866468 0.0034244177 -0.004365006 0.0066241175
0002b0 7f 15 f1 3b 58 d5 28 bc f2 94 db 3b 69 ed c1 b9
       0.007357299 -0.010304771 0.0067011053 -0.00036988713
0002c0 17 b6 80 3b c6 a3 8a 3b ed bc a0 bb 48 71 a0 bc
       0.003927957 0.004230949 -0.004905334 -0.019585267
0002d0 4f 72 64 3a 22 52 61 3b de 31 31 3c 98 b1 a1 3b
       0.0008714543 0.003438123 0.010815112 0.004934501
0002e0 47 13 2b 3c 87 1e b8 3a a3 79 05 3c 56 30 26 3c
       0.010441608 0.0014047184 0.008146676 0.01014336
0002f0 d2 57 5b 3c 0b 6d be 3b b9 66 98 3b 80 64 e6 bb
       0.013387637 0.005811339 0.0046509174 -0.0070310235
000300 2b cd 7c bb 63 29 ec bb b5 49 f7 3b e7 0f 85 3a
       -0.0038574438 -0.007207082 0.0075466284 0.0010151834
000310 67 48 34 3c bf ce 3a bb bd de 1a 3c 0d 2a 19 3b
       0.01100359 -0.0028504578 0.009452519 0.0023371011
000320 36 95 9e bb a1 db 2e 3c 80 5e e5 b9 97 b5 dc bb
       -0.0048395647 0.010672481 -0.00043748692 -0.0067355144
000330 48 cc 77 3b bb 17 16 bc 22 ab 7a 38 75 ba 48 bc
       0.003781097 -0.009160931 5.9764025e-05 -0.012251486
000340 f8 ba c4 3c e7 5c 85 3b 0b 48 87 3c 46 82 9e 3b
       0.024014935 0.0040699127 0.016513845 0.004837307
000350 ec 41 81 bb a9 50 18 bc 09 0d 89 3b 20 ac 78 bc
       -0.003944626 -0.009296575 0.004182462 -0.015177757
000360 fa e4 df 3b e7 e4 1f 3c a5 db b5 bb 35 70 0e 3c
       0.006832716 0.009759164 -0.0055498653 0.008693744
000370 e5 73 22 bb c6 1c a3 3b 50 62 40 bc 49 ac 81 3c
       -0.0024788317 0.0049777953 -0.0117421895 0.015829222
000380 04 f3 9f 3b cd a7 b0 3b 07 aa 49 39 ca 6b 82 bc
       0.0048812646 0.005391097 0.00019232194 -0.015920538
000390 2e 1f 8b bb 46 80 95 3b d6 89 c4 bb 6b 63 e0 bb
       -0.0042456603 0.0045624105 -0.0059978766 -0.006847789
0003a0 13 d1 2c 3c ac c5 c4 3b 4a 19 fe 3b eb d4 b1 b9
       0.010547894 0.0060050096 0.0077544795 -0.00033918707
0003b0 e9 53 85 b8 89 93 1a 3c 07 83 76 3c 2f 27 6b bb
       -6.357564e-05 0.009434589 0.015045888 -0.003588151
0003c0 d3 76 42 3b b3 1c a4 3b e3 b3 72 3b 03 8d c7 3b
       0.0029672876 0.005008304 0.003703349 0.006089808
0003d0 cf a9 ff ba f3 3c 84 ba a7 70 bb bb be a7 9f bc
       -0.0019505563 -0.0010088965 -0.0057202163 -0.019489165
0003e0 4b 52 13 3c 4c 0e 86 3a c2 da 59 3b 5f 41 19 bc
       0.008991788 0.001022765 0.0033241962 -0.009353965
0003f0 cd bf 74 bb db b1 8a bc 8b bf 21 bc 41 c8 9f 3b
       -0.0037345767 -0.016930511 -0.009872328 0.004876167

action_model._discrete_distribution.branches.0.bias f4 [2]
000000 00 00 00 00 00 00 00 00
       0.0 0.0

action_model._discrete_distribution.branches.1.weight f4 [2, 128]
000000 a8 bc 6c bc b3 41 fb 3a 2e 5b 12 3c 47 14 90 bc
       -0.014449276 0.001916936 0.008932872 -0.017587794
000010 f0 b8 06 3c 87 b4 b6 bb 67 48 e5 bb 7e 1f 97 bb
       0.0082228035 -0.0055757198 -0.0069971564 -0.0046119085
000020 b7 b3 87 3b 3b 10 cf bb ea 4d f4 3b 3b 59 09 3c
       0.0041412967 -0.0063190735 0.007455577 0.008383091
000030 0a af 6c 3b 33 c1 c9 3c e7 fc 12 ba 21 0d 1b 3c
       0.0036115074 0.024628257 -0.00056071434 0.009463579
000040 48 39 70 3b dd 9a 93 bb 1f 24 07 3c ad 68 8f 3c
       0.0036655236 -0.004504545 0.008248358 0.017505968
000050 4b cd 27 3c 0a 24 b6 bb 60 a7 97 bb fd 90 d7 3b
       0.010241817 -0.0055584954 -0.004628107 0.0065785632
000060 d1 46 8a 3b 27 62 63 3b 6f f3 1f bc b3 1e a4 bb
       0.0042198678 0.0034695955 -0.009762629 -0.0050085424
000070 a0 6f 4e 3b af 46 11 3b 14 a4 c7 bb e5 50 32 bb
       0.003149964 0.0022167375 -0.0060925577 -0.0027208861
000080 cc 96 a9 3b ce a3 8d b9 4f c2 e0 3b 37 cc 0b bc
       0.005175447 -0.0002701566 0.006859101 -0.008532575
000090 4f 08 f3 bb 95 6c db 3b d8 fa ae bc e7 bc 02 bc
       -0.007416762 0.0066962936 -0.021359846 -0.007979608
0000a0 9f 23 53 bb 58 44 b1 bc 59 ca 36 39 b3 e4 e7 3a
       -0.0032217277 -0.021639034 0.00017432253 0.0017692059
0000b0 bb cc f9 39 2e be 1d 3c c7 24 7a 3b 50 c6 f0 bb
       0.00047645517 0.009627862 0.0038168894 -0.0073478594
0000c0 c2 55 6d ba 11 0f 20 bc d6 fd b3 39 08 1d e6 3b
       -0.00090536114 -0.009769217 0.00034330663 0.0070225038
0000d0 c9 a2 a1 bc 57 7e 63 3c 72 b8 72 bc ae e3 42 bc
       -0.019730942 0.013885102 -0.014814483 -0.011895103
0000e0 1d 1d 46 3c cf fd f2 3b d0 01 6e 3b 79 36 16 bc
       0.012091902 0.0074155102 0.0036316998 -0.009168261
0000f0 53 3d 48 bb c3 00 6d 3c a5 1c 98 38 73 b8 87 3c
       -0.003055413 0.014465514 7.25326e-05 0.016567444
000100 d6 26 32 3b be b3 a6 3a 55 a3 7d 3c 54 42 09 3c
       0.0027183793 0.0012718362 0.015480836 0.00837763
000110 f7 4f 81 bb 1f ef 5b 3c a3 4d ea 3b 32 74 f4 bb
       -0.0039463 0.01342371 0.0071503683 -0.0074601406
000120 53 6c 55 3c ed fd a5 3b e0 52 de 3b 61 b6 1d bb
       0.013026315 0.0050656707 0.006784782 -0.0024065005
000130 07 c9 0d 3c e3 18 0b bc 6a 1f b7 3a 83 7f e8 3b
       0.008653886 -0.00848982 0.0013971154 0.0070952787
000140 4e 18 b5 b9 4d da 21 ba 85 10 4d 3c 77 46 ed bb
       -0.0003454112 -0.0006174192 0.012516146 -0.007241066
000150 03 d4 24 3c 2a d5 a8 bc 75 40 61 3c a5 46 ef 3b
       0.010060313 -0.020609457 0.013748278 0.0073021227
000160 3f e2 90 bc 1b 5f 41 3c d3 ca 24 bb 50 59 d3 ba
       -0.017686008 0.01180246 -0.0025145307 -0.001612464
000170 41 37 b9 bb 34 9b 39 bc 3d d0 ba b9 f4 b8 2d 3b
       -0.0056523387 -0.011328507 -0.00035631834 0.0026507946
000180 b2 de bc 3b 85 fd 5b bc d5 7e cf bb b1 95 38 3c
       0.005763852 -0.013427143 -0.006332258 0.011266158
000190 ad b4 89 3a 73 9d c3 39 43 7d 41 3b 43 d8 d6 bb
       0.0010506116 0.00037310607 0.0029524125 -0.006556542
0001a0 7e c4 3b bc e5 82 21 3c c7 9f 9b bb 98 17 1a 3c
       -0.011460422 0.009857868 -0.0047492716 0.009405039
0001b0 68 6d 06 bc d4 eb 3b 3b 11 8b b0 b9 65 d2 a1 3c
       -0.008204795 0.00286745 -0.00033672948 0.019753644
0001c0 6d 10 3b 3c 6f 60 ed bb 71 1b 0f 3b 17 92 c6 3b
       0.01141749 -0.007244162 0.0021836425 0.0060598957
0001d0 fd b3 16 3b b1 56 05 bc 2b da 98 3b 4f 6b 91 b9
       0.0022995465 -0.008138345 0.0046646795 -0.00027736506
0001e0 63 8a 97 3b be 6a b8 bb 3f 0b 03 bc e0 5b cb bc
       0.0046246513 -0.005627959 -0.007998287 -0.024824083
0001f0 33 33 12 bc 89 18 2e bc 0e 30 2a 3c af 2b fb 3b
       -0.00892334 -0.010625967 0.010387434 0.0076651196
000200 ef 8a dc 3b 17 68 53 3c 85 ac 18 3c 95 08 d5 3b
       0.0067304294 0.012903235 0.009318476 0.006501267
000210 d0 5e f5 3a b6 4d 02 3b 27 e6 36 3c 39 59 a5 3b
       0.0018720273 0.0019882745 0.011163271 0.0050460366
000220 7f 43 09 3c d8 7e 41 bb 7b 31 db 3a 32 8a 05 3c
       0.008377909 -0.0029525068 0.001672312 0.008150624
000230 af 8c 37 bc d5 18 6d bc 54 5b 45 ba f7 08 3a 3b
       -0.011202975 -0.014471252 -0.00075285626 0.002838669
000240 00 a4 6b 3b 60 99 a5 3b 3c 8f c7 3a d5 22 3c bb
       0.0035955906 0.005053684 0.0015225182 -0.0028707285
000250 3f 46 14 3c ed 01 85 bb db 11 11 bc a6 95 3a bc
       0.009049951 -0.0040590675 -0.008854355 -0.011388218
000260 80 51 dc 3b 81 8c bc 3c bf ad 41 bc f7 37 0e 3a
       0.0067235827 0.023016216 -0.011821209 0.00054252095
000270 a5 a9 cd bb 48 55 34 3c 15 bd 48 bb 6b 39 1b bb
       -0.0062763267 0.011006661 -0.003063028 -0.0023685347
000280 bb 7b 23 bc f2 6b 8c 3b 40 3d b8 3a d8 7f 90 3b
       -0.00997823 0.004285329 0.001405634 0.0044097714
000290 b8 4d 31 3c 7f cb 25 bb dc 53 a3 bb 9e 99 be ba
       0.010821752 -0.0025298295 -0.004984362 -0.0014541631
0002a0 e3 0f 48 bb d4 61 35 3c e6 06 1d bb 9f c3 22 3c
       -0.0030527047 0.011070687 -0.002396041 0.009934335
0002b0 bb 75 6f bb 43 20 83 bc 1b c2 02 bc 75 e0 98 3b
       -0.0036538679 -0.016006595 -0.007980849 0.0046654292
0002c0 e9 8f 31 3c 14 3e ad 3a 6b 60 bb 3b b5 51 d2 bc
       0.0108375335 0.0013217353 0.005718281 -0.025673727
0002d0 10 05 30 3b ab 2e 57 3b 95 91 85 3c e3 ce 16 3b
       0.0026858486 0.0032834213 0.01630477 0.0023011498
0002e0 3a f9 2a bc a2 e6 4e bc f6 04 86 bb ca 60 23 3b
       -0.010435397 -0.012628229 -0.004089947 0.0024929517
0002f0 e5 02 77 ba a7 ae 18 3c 8f 2e b0 39 15 a0 8c bb
       -0.00094227336 0.009318984 0.00033604025 -0.004291544
000300 26 05 4a ba 7d ab 24 bc fa 3a 96 bb f2 de 1d bb
       -0.00077064557 -0.010050652 -0.0045846673 -0.0024089185
000310 3b c5 f5 3b 37 4e b7 ba 5b 4c 11 3c 9b 6a 2e 3c
       0.0075003183 -0.0013985102 0.008868302 0.010645534
000320 32 96 55 bc ae 83 be ba 03 20 20 3b 96 88 c8 3b
       -0.013036298 -0.0014535093 0.0024433143 0.006119798
000330 c0 0a 14 bc b3 bb 7e bb cb f6 2b bb 73 32 19 3c
       -0.009035766 -0.0038869202 -0.002623963 0.009350407
000340 25 5f 59 bc 0d 09 8b ba c0 64 03 3c 21 1a 93 bc
       -0.013267313 -0.0010607556 0.008019626 -0.017956795
000350 67 a9 9c bc bd 00 c6 3b c2 af 24 3b 5f 72 10 bc
       -0.019123746 0.0060425685 0.0025129174 -0.008816331
000360 a0 35 5c 3b 5d 48 d7 3b 70 44 ef ba ff 22 e1 bb
       0.00336013 0.0065699057 -0.0018254649 -0.006870627
000370 c5 dc e6 3b 15 46 f8 bb e4 41 b7 3b 3c 82 a6 3b
       0.0070453607 -0.007576714 0.0055925716 0.005081443
000380 7a 13 37 bb 4a 65 b6 bb b2 67 b4 b9 8d 1c 08 bc
       -0.0027935193 -0.005566274 -0.00034409534 -0.008307588
000390 1a d6 79 3c 20 11 cd bb 57 5a 9b 3c 5a 59 ba bb
       0.0152488 -0.006258145 0.018963976 -0.005686921
0003a0 c2 e1 39 3b d2 9c 16 3b 16 51 a4 bb 77 ae 15 3b
       0.0028363322 0.0022981656 -0.005014549 0.0022839585
0003b0 b4 63 44 ba 4d c5 84 bb d0 61 6a bb 22 06 89 bc
       -0.00074916636 -0.0040518404 -0.0035763867 -0.016726557
0003c0 d3 fa 66 bc 48 81 72 bc 0f 0a 85 bb 37 ed 20 bb
       -0.014097887 -0.014801331 -0.004060037 -0.0024555454
0003d0 b8 15 43 3c 8f 71 6c 3b d1 09 15 3c c9 85 1a bc
       0.011907034 0.0036078428 0.009096579 -0.009431311
0003e0 93 5f 73 3a d4 5f 80 bc 09 97 bf 3b 88 78 6c 3c
       0.0009283956 -0.015670694 0.005846862 0.014433034
0003f0 60 10 da 34 d7 58 4c 3b 15 65 1e ba 5d e3 cc 3b
       4.061758e-07 0.0031180882 -0.0006042284 0.0062526898

action_model._discrete_distribution.branches.1.bias f4 [2]
000000 00 00 00 00 00 00 00 00
       0.0 0.0

action_model._discrete_distribution.branches.2.weight f4 [2, 128]
000000 9f 38 a9 bb 0b dd 31 bb c6 d6 8a 3b 72 8a 75 bb
       -0.0051642205 -0.0027139809 0.004237029 -0.0037466553
000010 a6 74 99 3b 92 94 5b 3c a5 1c 43 3c 96 4e 00 3b
       0.004683095 0.013402121 0.011908685 0.001957809
000020 10 bb d0 bc 15 2f 5a 3a 5d 06 8a bb 7a d7 f4 b9
       -0.025479823 0.0008323056 -0.0042121843 -0.0004669985
000030 c7 fb 61 3b cf 72 9c 3c 5f 20 29 bc 13 05 32 3a
       0.0034482346 0.019097714 -0.010322659 0.0006790917
000040 19 22 a3 3b 70 b4 9f bb 64 06 85 bc 40 3b 07 bb
       0.00497843 -0.0048738047 -0.016238399 -0.002063468
000050 27 09 77 bc 61 75 4a bc a9 cf 16 bb 6a b0 8f 3b
       -0.015077866 -0.012357087 -0.0023011959 0.004385044
000060 2b d3 41 bb 18 fc 17 3c dd 5f d1 bb a9 b5 2a ba
       -0.0029575329 0.009276412 -0.0063896016 -0.0006512055
000070 7a 2c 4f 3a 6f 03 b3 bb f3 7f 0c 3b 3e 98 8b 3b
       0.0007903051 -0.005463056 0.0021438568 0.004260092
000080 dd 06 8c 3c 60 93 d6 3b 83 9c 95 ba 4f 66 c3 3a
       0.017093116 0.00654833 -0.0011414442 0.001490781
000090 13 db 0a bc 0b d8 83 bb 4a 1b 8d bb f2 87 ed bb
       -0.008475083 -0.004023557 -0.0043062316 -0.007248872
0000a0 b4 ba 94 3b c8 df 9b bb 05 58 d5 3a f4 85 b4 3b
       0.0045388583 -0.0047569014 0.0016276842 0.0055091325
0000b0 0f cc e8 3b 3e 07 bd 38 b3 81 c6 bb 1d 41 c3 3b
       0.007104404 9.013571e-05 -0.006057942 0.00595869
0000c0 ee 2a 37 bc c7 51 1d 3a b7 c2 26 3b 50 81 1b 3b
       -0.011179669 0.00060012605 0.002544565 0.00237282
0000d0 48 b2 7c bb 93 50 28 3c a8 ea 71 bc c7 d6 c3 bb
       -0.0038558412 0.010273117 -0.014765419 -0.005976531
0000e0 29 83 15 bc 8c da 86 bc 4b 4e 20 3b 2a 49 95 bb
       -0.009125509 -0.016461633 0.0024460729 -0.004555841
0000f0 db 8c d8 3b 3f e3 6b 3b 37 24 59 39 c8 9d bc 3b
       0.006608588 0.0035993604 0.00020708224 0.0057561137
000100 ab f0 f7 3b 4a 43 a3 3c 9b 97 35 39 f4 bb 8e bc
       0.0075665317 0.019929547 0.00017317983 -0.017423607
000110 2f aa e0 39 c4 4a 45 b9 a1 29 48 bc d5 0c d2 bb
       0.00042851406 -0.00018815236 -0.012216956 -0.006410221
000120 af ba e5 bb ab e4 dd bb 75 76 a0 3c e4 8d 42 3c
       -0.00701078 -0.006771644 0.019587735 0.01187465
000130 73 fb 05 bb 08 f4 fa 3a 42 8f ff 3c 81 6f 34 ba
       -0.0020444065 0.0019146213 0.03119624 -0.00068830705
000140 9d b0 6b bc e2 a9 6e 3a 78 c1 4d 3c db d5 14 bb
       -0.01438537 0.0009104294 0.012558334 -0.0022710476
000150 be 9f 3d bc 60 b6 a7 bc f7 46 b5 3b b2 1a be 3b
       -0.01157373 -0.020472705 0.0055321413 0.005801522
000160 fd 49 ab 3b bf a4 e0 3b 12 fe 64 bb da 96 69 bc
       0.005227326 0.0068555768 -0.0034941477 -0.014257157
000170 f1 18 01 bc 8b b4 a9 bb fa b3 e2 3a 23 f3 a5 ba
       -0.007879482 -0.005178993 0.0017296069 -0.0012660961
000180 50 3f 36 bc 6f 09 b3 ba c4 27 31 3b 32 d8 57 3c
       -0.011123493 -0.0013659428 0.0027031759 0.013174104
000190 17 f4 8a 3c 9d 57 ac bb 43 3c 0f bb d4 cf 22 bc
       0.016962094 -0.0052594678 -0.0021855987 -0.009937245
0001a0 32 12 b0 bc 24 03 80 3b 85 88 f1 bb 0f 44 c3 bb
       -0.021493051 0.0039066244 -0.0073710107 -0.005959041
0001b0 8b 3d 51 3b d6 51 a6 bc 78 16 30 bc d2 20 de b9
       0.0031927552 -0.020302694 -0.0107475445 -0.00042367593
0001c0 e9 e6 02 bc 0e 47 21 3c 57 a2 4b 3a 47 1d 29 bc
       -0.007989624 0.009843601 0.0007768026 -0.010321922
0001d0 b5 8f 36 bc 83 c0 3b bb cf 97 c7 3b ca e9 25 3c
       -0.011142661 -0.0028648681 0.006091095 0.01012654
0001e0 4b 22 a4 3b 4b e2 9e 3b 93 c2 5d 3c 05 15 85 ba
       0.005008971 0.0048487536 0.01353516 -0.0010153359
0001f0 ea 10 7d bc 5c ee 17 bc fe 9e 11 bc e3 f7 10 ba
       -0.015445927 -0.009273138 -0.008888004 -0.0005530102
000200 e8 9a 94 bb 1e 9b 2a 3b 92 70 0e bc 43 2f 97 bc
       -0.004535068 0.0026032398 -0.008693831 -0.018455153
000210 71 9d 8b 3b 43 a7 51 3c d0 3d 86 3b 8b 51 95 3b
       0.004260712 0.012796226 0.004096724 0.00455684
000220 4f 73 ab 3b db 96 57 3b 0b 6c 0d 3a 87 92 8b bb
       0.0052322517 0.0032896313 0.0005394823 -0.004259411
000230 74 57 04 bc 1b 1f b1 bc ff 3b 05 3b 26 7c a7 3b
       -0.008077491 -0.021621278 0.002032995 0.005111235
000240 78 ce 3d 3a 8b 59 57 3c 03 cc 8e 3b f4 13 2e 3c
       0.0007240544 0.013143907 0.004357816 0.010624874
000250 bf 11 ee 3b e2 67 73 3c 74 8c af b9 03 fd 44 3b
       0.007265299 0.014856311 -0.00033483247 0.0030058033
000260 a7 04 57 3b 5d cc 8a bc 33 90 be 3a 35 ee 58 3b
       0.003280917 -0.016943151 0.0014538824 0.0033100967
000270 02 dd 9f 3b 78 a8 65 3b 17 5c 82 3c 8b c7 46 bb
       0.004878641 0.0035043042 0.015913052 -0.003033134
000280 83 0a e8 bb e8 0c db 3b b0 71 bb bb 3b ec 3f bc
       -0.007081331 0.006684888 -0.0057203397 -0.011714037
000290 af ad fb 3a d1 d6 99 bc 27 b2 2b 3b aa 9b 07 3c
       0.0019201542 -0.01877919 0.0026198716 0.008276859
0002a0 a3 db 83 ba 1d 29 30 bb bf 2c b8 3b 00 40 35 bb
       -0.0010059964 -0.0026879974 0.0056205685 -0.0027656555
0002b0 bb 16 82 ba 9f 8a b5 3a e3 a3 fc 3b f3 78 01 3c
       -0.0009924987 0.0013850516 0.0077099665 0.007902372
0002c0 13 9f a3 b9 0a 00 7c 3c 13 85 0d bb 9e 21 3f 3a
       -0.00031208302 0.015380869 -0.002159421 0.0007291081
0002d0 5f 1c 87 bb ef d1 49 3b 0c d3 48 bc 72 62 c2 b9
       -0.004123255 0.0030795296 -0.012257349 -0.0003707591
0002e0 bf 15 52 3b 75 bd 53 bc a6 12 31 3c 48 6b 57 bb
       0.0032056419 -0.012923588 0.010807669 -0.003287034
0002f0 35 0e ff 3b 7e 34 0c bc ba fc 6c bc b4 b8 4c 3b
       0.007783676 -0.008557437 -0.014464552 0.0031238021
000300 c3 06 c3 3b 60 46 23 3b 35 25 44 3b e2 06 54 bc
       0.005951734 0.0024913773 0.0029929404 -0.012941094
000310 fb fc 41 bb 43 9c 51 3b bd fa 96 bb 0d ef 90 39
       -0.002960025 0.0031984008 -0.004607527 0.00027643927
000320 bd 67 81 38 38 18 28 3b 89 94 20 3c 85 42 1b 3b
       6.170522e-05 0.00256492 0.009801039 0.0023690772
000330 0d b2 ab 3b 24 0a 3d 3b 8b 96 75 3b c4 df 84 bb
       0.005239731 0.0028845156 0.0037473764 -0.0040549953
000340 17 f4 e2 3a f7 f9 c5 3b f4 e4 b5 3a 84 b8 c5 3b
       0.0017315176 0.006041761 0.0013877437 0.006033959
000350 f8 98 4d 3b d8 41 d9 bb ab 61 0e bb cc 7e 2f bc
       0.0031371694 -0.0066301636 -0.0021725695 -0.010711383
000360 86 ad 32 bc ef 47 20 bc bf 28 36 3b 4f 8a e1 3b
       -0.010905629 -0.009782775 0.0027795283 0.0068829427
000370 84 11 99 3b 2f 54 4b 3b 3d 37 39 3b 0f 8a 08 3c
       0.0046712775 0.003102552 0.0028261684 0.008333697
000380 4d b2 90 3b 12 90 1a 3b 41 42 a1 3b ea 73 03 bb
       0.0044157864 0.0023584408 0.004921228 -0.0020058104
000390 f9 67 a8 bb 18 c9 af bb 88 e5 f7 bb 53 5d 01 3a
       -0.0051393476 -0.0053645484 -0.007565204 0.0004934866
0003a0 35 f9 2a 3c 3b 11 c3 3b bd a4 57 3b eb ef 7d bb
       0.010435392 0.0059529818 0.0032904588 -0.0038747739
0003b0 33 cc b4 bc de 08 a8 3b 37 5b 04 3c 0d e9 d3 3b
       -0.022070026 0.00512801 0.008078388 0.006466991
0003c0 47 d0 d4 bb 4b 0a 85 3a 23 18 54 bb c7 bc 31 bc
       -0.006494555 0.0010150162 -0.003236302 -0.010848231
0003d0 40 53 a2 3b a3 90 72 3b 9c 60 1d 3c 76 f7 20 bc
       0.004953772 0.003701248 0.009605553 -0.009824624
0003e0 25 2b 5b bb 0b 8c 3c 3c e2 3f 89 bc 01 a2 a9 ba
       -0.0033442464 0.011507998 -0.016754095 -0.0012941958
0003f0 51 33 23 bc 6a 35 ec 3b 8b 17 90 3b 8a d0 37 bc
       -0.009960965 0.007208516 0.004397338 -0.011219153

action_model._discrete_distribution.branches.2.bias f4 [2]
000000 00 00 00 00 00 00 00 00
       0.0 0.0

action_model._discrete_distribution.branches.3.weight f4 [2, 128]
000000 c0 b7 9b bb 10 26 15 bc 5c 68 0c 3b 2a 8f d3 3b
       -0.0047521293 -0.009103313 0.0021424508 0.0064562755
000010 bd b5 de 3b a3 0c 2e bb 90 40 e4 3b 37 f1 37 bb
       0.0067965672 -0.0026557825 0.0069657043 -0.002806736
000020 16 d0 85 3c e2 87 cc bb 08 14 63 bc 0d 0c f9 bb
       0.016334575 -0.0062417844 -0.013859756 -0.0076003135
000030 eb 43 98 3b 9f d4 ca bb be d1 8b bc 23 b2 63 3c
       0.0046467683 -0.006189897 -0.017067786 0.013897452
000040 ea 01 ed 3b b4 49 24 bb 1d ea fb bb 0e c1 b5 3a
       0.007232894 -0.0025068345 -0.0076878206 0.0013866739
000050 50 a0 d0 3b 24 68 38 3a 4c 18 aa 3c 77 7a 83 bc
       0.006366767 0.0007034561 0.020763539 -0.016049607
000060 19 c7 84 3b 03 7f 79 3a ad 67 34 bb 9c 56 3d 3b
       0.0040520546 0.00095175224 -0.0027527616 0.0028890735
000070 a2 ee 9b 3c ee 08 10 3b 04 e2 23 3c 7d e9 c3 bb
       0.019034687 0.0021977979 0.010002617 -0.0059787617
000080 7a 39 f5 3a c3 c4 50 bb d3 2c 2a bb c2 9c e8 3a
       0.0018709146 -0.003185556 -0.0025966659 0.0017746913
000090 eb dd c7 35 71 15 8b 3b 63 99 f6 3a 03 f5 bb bb
       1.4891242e-06 0.0042444994 0.0018814023 -0.005735995
0000a0 4a 8d 0f 3c a2 9f da ba 43 a4 60 3b 6d 24 ae 3a
       0.008761713 -0.0016679654 0.0034277595 0.0013286002
0000b0 15 3c d6 bb 42 a6 8b 3c 15 ed 1d bc d3 25 b4 ba
       -0.006537924 0.017047051 -0.009639044 -0.0013744183
0000c0 2f 4e 84 bc 62 3b 7e bc 33 3c 29 bc e3 70 4f b9
       -0.016150562 -0.015517088 -0.010329294 -0.00019783112
0000d0 c9 46 8b bc 21 47 80 3b fc b7 c6 3b 9e 69 94 bc
       -0.017001526 0.003914729 0.006064413 -0.018116768
0000e0 62 40 37 3b 31 ac 04 3c 7b 18 67 bc 1b 41 31 3b
       0.002796196 0.008097694 -0.014104958 0.0027046863
0000f0 33 c3 ab 3b bf 77 c0 3b f8 ba 71 3b 7c 2b 0a bb
       0.0052417754 0.00587365 0.0036885124 -0.0021083048
000100 32 86 d0 bb d7 01 2f 3c 4f cb e7 3b 2b 94 24 3c
       -0.0063636536 0.010681591 0.007073797 0.010045092
000110 8b 09 75 3b db 37 a5 bb 2d e2 32 3c ba ca 4f bb
       0.0037389721 -0.005042059 0.010918182 -0.0031706528
000120 e4 86 17 3c 51 52 ac 3b c2 36 ab bc 27 7e c2 b9
       0.009248469 0.0052588363 -0.020900134 -0.00037096554
000130 45 08 f7 bb ca e6 a4 3b 9b 11 79 bc 37 07 96 ba
       -0.0075388276 0.005032395 -0.015201951 -0.0011446242
000140 45 d8 53 3b bd 1a 81 bc 95 e9 94 3b c7 02 6d bb
       0.0032324952 -0.01575982 0.0045444467 -0.0036164986
000150 ed f2 4a bc 4f ec 36 3c 4a 9e 2c bc eb fc da 3a
       -0.01238702 0.011164739 -0.010535786 0.0016707456
000160 77 43 2d 3c 07 2d 85 bc 63 bb 75 bb be 18 80 3c
       0.010575167 -0.016256822 -0.0037495724 0.015636798
000170 d2 57 0d 3a ed 5f 07 3c c2 82 3a bc 8d 2e 88 bb
       0.00053918094 0.008262617 -0.011383714 -0.00415594
000180 2f 8d f4 ba 27 6a 03 3a 50 eb 1e 3b 73 4c 9a 3c
       -0.0018657799 0.00050130713 0.0024249144 0.018835282
000190 ad b3 7e bc d3 bf 05 3c ea 59 81 3c 25 1a d2 3c
       -0.015545768 0.00816341 0.015789945 0.025647232
0001a0 ff 2d 90 3c c3 25 71 3c 0f ac c5 bb 36 c2 08 3c
       0.017600058 0.014718476 -0.006032474 0.008347085
0001b0 c1 33 13 3b f4 9e 83 b9 d3 24 45 3c 6a 07 08 3b
       0.0022461268 -0.00025104696 0.012032705 0.0020756372
0001c0 d7 aa e4 bb a0 cc 2d 3b d4 7a 44 bc 6c 80 98 ba
       -0.0069783735 0.002651967 -0.011992175 -0.0011634952
0001d0 a8 d6 5a bc 33 a6 04 3c 4b 9d 30 bc 1b ed 3f 3b
       -0.013356842 0.008096266 -0.010779689 0.0029285613
0001e0 1c df 44 bc cf 8c 68 3c 8f f3 37 ba 13 79 26 3c
       -0.012016084 0.014193728 -0.0007017189 0.010160702
0001f0 15 a8 1b 3a 16 07 1b bc 5b 5c cf bb 57 6b db bb
       0.0005937827 -0.009462139 -0.0063281483 -0.0066961455
000200 45 9d 66 bb 37 9c b0 bb 4e 85 3e bc 75 09 0c 3b
       -0.0035188955 -0.005389716 -0.011628462 0.0021367942
000210 9f 79 6c 3b 9b c6 21 3c 5f b6 0a bc c8 bc 5a 3c
       0.0036083234 0.009874011 -0.008466332 0.013350673
000220 cd 86 09 ba 49 d6 1e 3c 83 c4 30 3b 9b 62 63 bc
       -0.0005246222 0.009694644 0.00269726 -0.01387849
000230 3b 3e 50 3a af 43 02 bb 33 94 34 3c f9 8a 8d 3a
       0.00079438434 -0.0019876768 0.011021662 0.0010798863
000240 8b c1 31 3b f7 be 1d 3c d3 2a 03 bc ae 04 43 bb
       0.0027123417 0.009628049 -0.008005816 -0.0029757428
000250 4b dd 57 3b 27 21 a9 bb 37 f1 53 3b 50 21 26 3c
       0.0032938297 -0.005161423 0.003233982 0.010139778
000260 70 9d 6b 3c 8c 9b 14 bc 52 a6 75 bb 6c 19 38 3c
       0.014380798 -0.009070288 -0.0037483168 0.01123653
000270 4f 08 cf bb 5f 18 e0 bb 34 db 1f ba 97 e8 33 3b
       -0.006318129 -0.0068388428 -0.00060980325 0.0027451867
000280 63 ec 16 bc 14 f0 30 bc 3b 8c 62 3b 25 79 59 bc
       -0.009211632 -0.010799427 0.0034568447 -0.013273512
000290 93 97 8d b9 04 b1 35 3c 43 e3 a4 bb 85 07 b2 bb
       -0.00027006547 0.011089567 -0.0050319745 -0.0054330253
0002a0 78 1d 93 bb 56 45 4a bc 95 e0 07 39 74 a8 36 b9
       -0.004489597 -0.012345633 0.00012958267 -0.00017419626
0002b0 67 db fe ba 2f d4 01 3c 92 b6 ab ba 3b 56 57 bb
       -0.0019444049 0.007924124 -0.0013100675 -0.0032857794
0002c0 13 01 c7 bb 9c 12 95 3a 5d d7 d8 bb 53 5d 03 3a
       -0.006073126 0.0011373344 -0.00661747 0.000501116
0002d0 bd b6 a1 3a 3f d6 e1 3b 13 59 0f bc 77 92 8a bc
       0.0012337785 0.006891995 -0.008749264 -0.016915543
0002e0 da af d8 39 8b e9 82 3b 3e 26 b4 3b a4 fc a9 bc
       0.0004132975 0.0039951256 0.005497723 -0.020750351
0002f0 e0 3c e4 3b 3a 4e 10 3a e4 fa 08 bc 90 23 25 ba
       0.0069652647 0.0005504821 -0.008360598 -0.000629955
000300 af 92 97 bc f2 01 06 bc 05 d4 e4 bb db 54 9c ba
       -0.018502561 -0.008179175 -0.0069832825 -0.0011927144
000310 ca 01 6f bb 5a 5f 00 3a e5 da be 3b 60 be 43 bb
       -0.0036469572 0.0004897021 0.005824434 -0.002986811
000320 30 55 b4 3b 8c 05 1e 3b 5f fa 29 3b 58 86 09 3c
       0.005503319 0.0024112193 0.0025936586 0.008393846
000330 66 74 46 3c 26 6b 90 bc 22 57 ea b9 48 ef c3 bb
       0.0121127125 -0.017629217 -0.00044696877 -0.0059794523
000340 8b d0 87 bc 3a 56 37 3b 52 ed e4 b9 6f 66 05 bb
       -0.016578933 0.002797498 -0.00043664366 -0.0020355245
000350 f8 d3 88 3b 8c 2e 32 3c 12 20 65 ba 37 c3 de bb
       0.0041756593 0.010875355 -0.00087404356 -0.0067981738
000360 d3 eb a8 3b 6b 8a a6 bc 37 f0 a3 ba d6 d4 1f 3b
       0.0051550656 -0.020329675 -0.0012507503 0.0024388335
000370 68 2d fd 3b a8 5f 55 bb 1b 4d c9 bb 5a bd 52 3c
       0.00772636 -0.0032558236 -0.006143225 0.012862528
000380 a3 8c 45 3c 97 6b e1 39 3e 08 42 bc 67 4f 0c 3c
       0.012057456 0.00042995505 -0.011842785 0.008563853
000390 ab 89 4b 3c 6a 3e f4 bb c7 16 8d bb de d8 bf 3c
       0.012422959 -0.0074537294 -0.004305694 0.02341884
0003a0 13 54 ee bb 51 31 29 3b 83 96 4c ba f6 34 1f bc
       -0.007273206 0.0025816748 -0.00078044104 -0.009717217
0003b0 ce b1 3f 3c 65 8a 81 bc d8 65 d5 bb 45 37 9b bb
       0.011700107 -0.015813062 -0.006512385 -0.0047368133
0003c0 6e 79 88 3a 23 46 65 bb 48 62 ef 3b 0f 4e 65 bb
       0.0010412165 -0.0034984432 0.007305417 -0.0034989154
0003d0 73 91 14 bc a7 83 2d bc 9a d8 ab 3a c7 f4 29 3c
       -0.009067881 -0.01059047 0.0013110817 0.010373301
0003e0 83 57 1a bb 4f f2 74 bc c6 91 48 3b 6e 09 81 ba
       -0.0023550696 -0.014950349 0.0030604466 -0.0009844729
0003f0 ca f9 84 3c c8 14 17 3c 63 ee 57 3b 18 05 4e bc
       0.01623239 0.009221263 0.0032948486 -0.012574457

action_model._discrete_distribution.branches.3.bias f4 [2]
000000 00 00 00 00 00 00 00 00
       0.0 0.0
