Assets/results/ppo/My Behavior/My Behavior-2560.onnx (onnx, 72102 bytes, 4 tensors)

network_body._body_endoder.seq_layers.0.weight f4 [128, 1]
00000000: 00d9 5abe d58b a7bf 096f 13c0 1742 543e
00000010: 5379 b53f 9940 b73f d0e9 c33f dec3 da3f
00000020: 607f 4d3f a3fc 14bf 7cc6 fabf 580d 88be
00000030: 1b96 9abf 6b79 073f bf4a 943d 50d4 d53f
00000040: 4f67 62be b7da 9abc e00e e2be 8232 9b3e
00000050: 8e67 50bf 9464 393f cada 263e 65ea 8e3f
00000060: 9c26 95bf 3e33 3e3f 7d9a 093f 46d8 36be
00000070: a29f 9e3e 91a1 1240 f646 c73f e13e 4c3e
00000080: 1a9a b2bf 30e7 12bf c48e 57be ea5a 243e
00000090: 1ced 8b3f 87b1 c7bf 04e1 20bf 87db 033e
000000a0: 7408 063f 17f9 b8bd bd6c 45be 10e6 d03f
000000b0: 1b83 12c0 dde9 ea3f b9ad 623f 3084 0f3f
000000c0: b2e1 863f b27c ef3f 8f4d 283f 718c 9b3f
000000d0: 40d2 2abe 0481 8fbf 4a46 a73f f921 bdbd
000000e0: e14f d03f 4b53 df3f fb5c 733f 744a 903e
000000f0: 6429 74bf 5b87 4f3f 7c00 953d d9b9 ca3f
00000100: ef4f 89bf 010e a5be 0f86 703f 9e16 863f
00000110: 7d1b 21bf 5147 2f3f 3757 b0bf be6a 7ebf
00000120: 69db c4be 9e17 b0bf 63b5 1ebf bf19 2c3f
00000130: 127c 0fbe e802 543e 7551 9ebf a000 e73e
00000140: f6e3 e03f 683c b2be fbb0 cbbf 002b 1abe
00000150: 0f31 c43e ab93 0abf 4de6 b83f e16b 4cbf
00000160: c23b 19bf d8ea bc3e 1b26 3a3d 0e0c adbd
00000170: ac48 1340 7bd0 ff3f e50b 84bf 172e 05be
00000180: 331d a43f b77a cc3f e495 9bbf 93be 073f
00000190: c4ec 1fbe 2674 ddbe a57c febe 42f8 09bf
000001a0: 74ce fcbe 0a9a f03e d9aa aabd 69e4 d9bd
000001b0: 0626 b43e c0ca 88be c687 28bf c5b4 a03e
000001c0: 8304 e83d d456 883f 0cb9 08bf c199 a6bf
000001d0: d096 553f 0089 1a3c 8423 9e3e e141 e43f
000001e0: 7fa1 dd3f 84b1 813e 01bf 0ac0 b8ae 10bf
000001f0: 6641 033f 1ed0 c2be ce6f ae3f 90e5 74bb
-0.21371841 -1.3089548 -2.303652 0.20728336 1.417765 1.4316589 1.5305729 1.7091024
0.80272484 -0.58197993 -1.9591823 -0.2657268 -1.2077059 0.52919644 0.07240819 1.6705418
-0.22109722 -0.01890312 -0.44151974 0.30311972 -0.8140801 0.72419095 0.16294399 1.1165282
-1.1652408 0.7429694 0.53751355 -0.1785594 0.30981165 2.2911112 1.556853 0.19945861
-1.3953278 -0.57384014 -0.21050555 0.16050306 1.0931735 -1.5601052 -0.62843347 0.12876712
0.5235665 -0.09031885 -0.19279762 1.632021 -2.289252 1.835262 0.8854633 0.5606108
1.0537627 1.8709929 0.65743345 1.2152234 -0.16681767 -1.1211247 1.3068326 -0.092349954
1.6274377 1.7447294 0.9506375 0.28181803 -0.9537566 0.8106591 0.07275483 1.5837966
-1.0727519 -0.32237247 0.9395456 1.0475652 -0.6293257 0.68468195 -1.3776616 -0.99381626
-0.38448647 -1.3757207 -0.61995524 0.67226785 -0.14012173 0.20704234 -1.2368609 0.45117664
1.7569568 -0.3481171 -1.5913385 -0.15055466 0.3831868 -0.54131573 1.4445282 -0.7985211
-0.5985681 0.36897922 0.045446496 -0.08449565 2.3013105 1.9985498 -1.031613 -0.13005863
1.2821411 1.597495 -1.2155118 0.5302517 -0.15617663 -0.43252677 -0.4970447 -0.53894436
-0.4937626 0.46992522 -0.08333368 -0.10639269 0.3518526 -0.26717186 -0.65832174 0.31387916
0.113289855 1.0651498 -0.5340736 -1.3015672 0.83433247 0.009432077 0.3088647 1.7832605
1.731491 0.25330746 -2.167908 -0.565166 0.51271665 -0.38049406 1.362787 -0.0037368275

network_body._body_endoder.seq_layers.0.bias f4 [128]
00000000: 0000 0000 0000 0000 0000 0000 0000 0000
00000010: 0000 0000 0000 0000 0000 0000 0000 0000
00000020: 0000 0000 0000 0000 0000 0000 0000 0000
00000030: 0000 0000 0000 0000 0000 0000 0000 0000
00000040: 0000 0000 0000 0000 0000 0000 0000 0000
00000050: 0000 0000 0000 0000 0000 0000 0000 0000
00000060: 0000 0000 0000 0000 0000 0000 0000 0000
00000070: 0000 0000 0000 0000 0000 0000 0000 0000
00000080: 0000 0000 0000 0000 0000 0000 0000 0000
00000090: 0000 0000 0000 0000 0000 0000 0000 0000
000000a0: 0000 0000 0000 0000 0000 0000 0000 0000
000000b0: 0000 0000 0000 0000 0000 0000 0000 0000
000000c0: 0000 0000 0000 0000 0000 0000 0000 0000
000000d0: 0000 0000 0000 0000 0000 0000 0000 0000
000000e0: 0000 0000 0000 0000 0000 0000 0000 0000
000000f0: 0000 0000 0000 0000 0000 0000 0000 0000
00000100: 0000 0000 0000 0000 0000 0000 0000 0000
00000110: 0000 0000 0000 0000 0000 0000 0000 0000
00000120: 0000 0000 0000 0000 0000 0000 0000 0000
00000130: 0000 0000 0000 0000 0000 0000 0000 0000
00000140: 0000 0000 0000 0000 0000 0000 0000 0000
00000150: 0000 0000 0000 0000 0000 0000 0000 0000
00000160: 0000 0000 0000 0000 0000 0000 0000 0000
00000170: 0000 0000 0000 0000 0000 0000 0000 0000
00000180: 0000 0000 0000 0000 0000 0000 0000 0000
00000190: 0000 0000 0000 0000 0000 0000 0000 0000
000001a0: 0000 0000 0000 0000 0000 0000 0000 0000
000001b0: 0000 0000 0000 0000 0000 0000 0000 0000
000001c0: 0000 0000 0000 0000 0000 0000 0000 0000
000001d0: 0000 0000 0000 0000 0000 0000 0000 0000
000001e0: 0000 0000 0000 0000 0000 0000 0000 0000
000001f0: 0000 0000 0000 0000 0000 0000 0000 0000
0.0 0.0 0.0 0.0 0.0 0.0 0.0 0.0
0.0 0.0 0.0 0.0 0.0 0.0 0.0 0.0
0.0 0.0 0.0 0.0 0.0 0.0 0.0 0.0
0.0 0.0 0.0 0.0 0.0 0.0 0.0 0.0
0.0 0.0 0.0 0.0 0.0 0.0 0.0 0.0
0.0 0.0 0.0 0.0 0.0 0.0 0.0 0.0
0.0 0.0 0.0 0.0 0.0 0.0 0.0 0.0
0.0 0.0 0.0 0.0 0.0 0.0 0.0 0.0
0.0 0.0 0.0 0.0 0.0 0.0 0.0 0.0
0.0 0.0 0.0 0.0 0.0 0.0 0.0 0.0
0.0 0.0 0.0 0.0 0.0 0.0 0.0 0.0
0.0 0.0 0.0 0.0 0.0 0.0 0.0 0.0
0.0 0.0 0.0 0.0 0.0 0.0 0.0 0.0
0.0 0.0 0.0 0.0 0.0 0.0 0.0 0.0
0.0 0.0 0.0 0.0 0.0 0.0 0.0 0.0
0.0 0.0 0.0 0.0 0.0 0.0 0.0 0.0

network_body._body_endoder.seq_layers.2.weight f4 [128, 128]
00000000: 95d6 31bd 50f6 29bc 9cd2 7fbc e239 31bc
00000010: 97f7 59bc 23b1 84bd 44b8 173e 3345 97bd
00000020: 74d7 d6bc 3b2b 8b3c f22d 303b 981e d23d
00000030: 8d16 5dbd 77ec 5bbd f587 abbd b42f 3dbd
00000040: 5891 f2bd a3f8 b5bd f4ca d33d 5ace d3ba
00000050: 8a40 4d3c c305 273e 2661 4a3e bf74 04be
00000060: 3c9f 273e 469a 14be 2ab4 81bd 3860 14be
00000070: 6aac c03d 48a2 c53d 375c cb3c 9851 06bd
00000080: 0f71 173e 16b0 463d bb7e d83d 9b2e a53d
00000090: 1aba b5bd c31f d33b d9fa b2bd bb52 cdbd
000000a0: 27b0 b73d 17cc 37be 12e4 96bd 988f 4a3d
000000b0: fe74 ff3d ec4e 8b3b e49e 79bd b6b5 c93d
000000c0: 0586 98bd 9ffc 4b3e b012 adbd 4168 4a3d
000000d0: 740b 353c abe5 e9bb 46fc 993d 9ad7 39be
000000e0: 6869 c1bd 4681 4c3d 3172 70bd 21b2 b2bb
000000f0: a818 a4bc ca8f 83bd 2549 243d bc33 dfbd
00000100: a227 9abd 8853 94bd f6de e3bd 32d0 be3d
00000110: 2c79 f6bd 57e2 ecbc 50ce 88bb f2fd 513d
00000120: af20 e63d c374 f8bc b6d8 623d 7759 a93c
00000130: 4e2b 4c3e d5b4 b23d d7fc 9ebd 8306 38bd
00000140: 72f4 bc3d ec3f f43c d31e 343c 2ef7 4d3d
00000150: 96dd 9fbd b7a6 25be 9100 bc3d d21a 49bd
00000160: f45b 1abc 5bec 43bd 72f4 433c 5604 713d
00000170: b09c 43be 3a2f 923d 9f32 fd3d 2501 26be
00000180: 4b88 b63d 49b9 283e baf5 86bd 4ac0 c9bd
00000190: c3a4 f73d a2f2 b4bd c908 cd3c 4d7b 0d3e
000001a0: 9dca 46bc 36d7 853d 01d0 17bd 6143 b43d
000001b0: 92fb db3c 9fd6 d9bb 5073 8d3d 76a0 1fbd
000001c0: 74f6 d5bd e0b2 623d 7341 b2bd c912 0ebd
000001d0: d4b7 933c 4c24 9cbd c57c 6bbd e5ac 36ba
000001e0: 7f23 b23d 4549 a1bd d66d d7bb 7a99 a73c
000001f0: 553a cd3d 8170 1c3c 0572 ae3d 4d21 67be
00000200: 8b24 32bc a9f7 9cbd a222 bf3c bc56 44bb
00000210: 160c 19be 80e5 d9bc 8af8 bcbd eaf7 0e3d
00000220: 79d7 753d b475 2ebd efbe 0c3d 95d5 c1ba
00000230: 6747 993d c3ac 08be 8713 45bd 04f4 81bd
00000240: ea44 15be 66f2 c7bd 92f5 b53c 4681 10be
00000250: 9be1 873d 1271 503d 2740 ee3c a03d 4b3d
00000260: 3eff 01be 7693 ad3d e328 a8bd e94c 26bd
00000270: a4b3 e33c 3393 37bc 9be9 1b3e aaf6 f1bd
00000280: 25ff efbc 5864 b73c 57b2 313d f616 053e
00000290: 43dc 24bd 2410 1c3e c54f cd3d 4cc3 1cbe
000002a0: 285c 27be 2e40 a73d 7aab 593d 8d1c d3bc
000002b0: 5960 ae3c 8ff7 cabc 246e c13d 8151 033e
000002c0: 194c a03d 9050 87bc 8529 eabc 13a9 1f3d
000002d0: 2c63 3d3d b68e c1bd 2af7 e5bc df42 493d
000002e0: 17e7 5dbd c329 2bbd 7624 043c 8e44 46bd
000002f0: d0e2 d5bc 2974 cc3d 186a ab3d 6eb1 003e
00000300: e3e1 60bd 32d9 c4bc 4bf3 5d3e e176 6cbd
00000310: b777 73bd b770 d6bd d533 c0bd a01a 20bd
00000320: f4ba b7bd f6d2 61bc 051d 9c3d f5c2 92bd
00000330: 20e9 243d dfd4 5dbe f871 97bd 5ecd bfbc
00000340: f2e2 89bd 21fb 81be 3d91 023d 384e 0fbd
00000350: de0d 893d f63e f53d 6e72 e13d 917c 483d
00000360: d86c aabd ff9c e5bc b353 e03d 2327 583d
00000370: 5fdb d2bd 2301 17bd 8cb2 bf3b f2ac bfba
00000380: 625c b23c 09b6 08be 5175 0abe ff04 7a3d
00000390: 0dab febd cce2 96bd 6655 623d 79d4 8abd
000003a0: 6569 f83c 5038 153c 6b6b 2cbc be1d f8bc
000003b0: 02ce 013d d8ba 11be 74fe 603d 3268 423d
000003c0: 5760 10bb c136 c8bd 6240 31bd 5a30 92bc
000003d0: 02e2 ad3c 2ac5 a6bd 32a4 483e 184c f7bb
000003e0: 4f72 013d cccd 153d 85df 053e b5e3 2ebc
000003f0: fe70 39be 5cdd bebc ead2 443e aba9 54bd
-0.043417532 -0.010373667 -0.015614178 -0.010817023 -0.013303659 -0.06479099 0.14816386 -0.073862456
-0.026225783 0.016988387 0.0026882854 0.102597415 -0.053976584 -0.053692307 -0.08375541 -0.04618807
-0.11844128 -0.08885314 0.103414446 -0.001615952 0.012527594 0.16310792 0.19763622 -0.1293516
0.16369337 -0.14511976 -0.06333192 -0.1448983 0.094078854 0.09650093 0.024824245 -0.032792658
0.14789222 0.048507772 0.10571047 0.0806553 -0.08873387 0.0064429953 -0.08739252 -0.10025545
0.08969145 -0.17948948 -0.0736772 0.049453348 0.12473486 0.0042513516 -0.060942546 0.09849112
-0.07447437 0.19920586 -0.0845083 0.04941583 0.011050094 -0.0071379743 0.075188205 -0.18148652
-0.09443933 0.049927972 -0.05870265 -0.0054533635 -0.020031288 -0.0642391 0.04010882 -0.108985394
-0.075270906 -0.07242495 -0.11126511 0.09317054 -0.120348305 -0.028916521 -0.004174985 0.05126757
0.11236703 -0.030329114 0.055382453 0.020672543 0.19938394 0.08725897 -0.07763069 -0.044928085
0.09226312 0.029815637 0.010993677 0.050284557 -0.07805936 -0.16176878 0.091797955 -0.049097843
-0.009421337 -0.047832828 0.011960136 0.058842026 -0.1910274 0.07137914 0.12363171 -0.16211374
0.089127146 0.1647693 -0.06589837 -0.09851129 0.12091973 -0.08835341 0.025028603 0.13816567
-0.012133268 0.06535189 -0.037063602 0.08801914 0.026853357 -0.0066478993 0.0690676 -0.038971387
-0.10447398 0.05534637 -0.0870389 -0.034685884 0.018031992 -0.076241106 -0.057492036 -0.00069685123
0.086981766 -0.07875303 -0.0065743728 0.020458926 0.100208916 0.009548307 0.08517841 -0.22571297
-0.01087297 -0.07664425 0.023331944 -0.0029958924 -0.14946017 -0.026598692 -0.092270926 0.034904398
0.060019944 -0.04259272 0.034361776 -0.0014788384 0.07484322 -0.13347153 -0.048114326 -0.063453704
-0.1457707 -0.09763031 0.022211824 -0.14111814 0.06634828 0.050889082 0.029083325 0.049619317
-0.12695023 0.084753916 -0.082109235 -0.04060069 0.02779562 -0.011204529 0.15225832 -0.118146256
-0.029296467 0.022386715 0.04338297 0.1299704 -0.04024912 0.15240532 0.100249805 -0.15308875
-0.16343749 0.08166538 0.05314205 -0.02577045 0.021286177 -0.024776248 0.09444836 0.1282406
0.078270145 -0.016517907 -0.028584251 0.0389796 0.046237156 -0.09451048 -0.028071959 0.04913604
-0.054175463 -0.041787874 0.008065334 -0.048405223 -0.02610913 0.09983093 0.08369845 0.12567684
-0.054902922 -0.024029348 0.2167484 -0.05773056 -0.05944034 -0.104707174 -0.09384886 -0.03908789
-0.08971205 -0.013783207 0.076227225 -0.07166091 0.040261388 -0.21663235 -0.07394785 -0.023413356
-0.067327395 -0.2538691 0.03187679 -0.034986705 0.06692098 0.119748995 0.11008154 0.04894692
-0.083215415 -0.028028963 0.10953464 0.0527717 -0.10295748 -0.03686632 0.005850142 -0.0014623685
0.021772567 -0.13350691 -0.13521315 0.06103992 -0.12434969 -0.07367477 0.055257224 -0.06778807
0.030323694 0.009107664 -0.010523657 -0.03028762 0.031690605 -0.14231431 0.054930165 0.04746265
-0.002203008 -0.097760685 -0.04327429 -0.017845321 0.021225933 -0.08143075 0.19593886 -0.007546913
0.031603154 0.036573216 0.13073547 -0.010674407 -0.1810951 -0.023298912 0.19221082 -0.05191962

action_model._discrete_distribution.branches.0.weight f4 [1, 128]
00000000: 9743 0d3b 78e0 d0bc d389 3f3c 152f 183c
00000010: 67c9 983c e556 cebb 8054 84bc 487e bdbb
00000020: 2be5 623b 1106 923b faed 0039 38ab 24bb
00000030: b882 4ebb 707c 88bb da77 aebc 8b94 39bc
00000040: e505 fdbb 3d29 35bc cf51 c73b e3c4 ceba
00000050: a20d 2d3c 38a5 4dbc b752 c63c 907f 6b3c
00000060: 370e cd39 9ffe 973b 3d66 203c 56b7 013a
00000070: b7aa 5dbc 9fbb 81bb fcc5 9d3c 30c2 e3bb
00000080: df54 0d3b 221a dd3b e84e 41bc fb51 2cbb
00000090: 2d4f d4b9 4bd5 8ebb d3f9 f8bb 67e5 ddba
000000a0: 7b0a d4ba cbc4 ae3b 7bfb 073b bbf1 1bbb
000000b0: 2f70 603c fb4e 47bc f435 94bb 27ae d5bb
000000c0: b345 05ba a7db 62bc dbde 9dbb fed5 8bbc
000000d0: 52f4 153b f4d8 903b bb87 113c 59fa 043c
000000e0: 2bd5 843c 3654 34bb bb66 7cba 7bd9 80bb
000000f0: 9b31 e93b c3b5 96bb 4862 423c e877 eebb
00000100: 5bf7 c8bb 689d 4f3c 1d15 d1bb c751 2cbc
00000110: ccbb 1b3b 1d0b 99bc 18a6 7e3c b840 b7bb
00000120: dd9f 45bb df4b 1abc 9243 f0bb 45e9 76bb
00000130: be9c 323c 4b23 5cbb ae25 843b c7bb bf3b
00000140: e4a8 4abb 576e 9b3b 8433 823b a732 c0bb
00000150: 1a62 07bc 223e 54bb e73d adbb e55d a23b
00000160: 1b5e 14bc 2041 af3b 0bb4 043c b9f1 0fbc
00000170: cd9e 7bbb 4581 76bc 0ae1 203c 1fc8 543a
00000180: 2dec 02bc 9a24 0abc 7c5e 9d3c 7258 7a3b
00000190: 730c 65bb f4ce 0b3a cc9b 88bc 5aa7 62bc
000001a0: eba3 9bba f3ab 283b e940 92bb 4fc1 50ba
000001b0: 314a 8a3b c5e5 c53b 88c8 93bb 1b62 e2bb
000001c0: 1baa 96bb 892b 46bc ba4a da39 4573 66bb
000001d0: bb87 1dbb 358e 1c3c 379c 2a3c 4799 983b
000001e0: f770 e0b5 97e9 06ba 2398 88bb 952f 0e3c
000001f0: 1f38 da3b 845d 43bb e73f 033b 52eb 203c
0.002155518 -0.02549766 0.011690575 0.009288569 0.018650724 -0.0062969797 -0.016153574 -0.005782876
0.0034621458 0.0044562896 0.00012295684 -0.0025126468 -0.003151102 -0.0041652247 -0.021297384 -0.011326919
-0.00772165 -0.011057195 0.0060827504 -0.001577523 0.010562332 -0.012551598 0.024209363 0.014373675
0.00039111238 0.0046385075 0.0097900005 0.00049482787 -0.013529471 -0.0039591338 0.019259445 -0.006950639
0.002156548 0.0067475 -0.011798598 -0.0026293981 -0.00040494782 -0.0043589226 -0.0075981407 -0.0016929329
-0.001617744 0.005333518 0.002074926 -0.0023795206 0.013698622 -0.0121648265 -0.0045230333 -0.0065210047
-0.00050839334 -0.0138463145 -0.004817826 -0.017069813 0.0022881222 0.004420394 0.008882458 0.008116328
0.016214928 -0.0027516014 -0.0009628345 -0.0039321757 0.007116509 -0.0045993044 0.011864252 -0.0072774775
-0.0061330027 0.012671806 -0.0063806907 -0.010517544 0.0023763059 -0.018682057 0.0155425295 -0.005592432
-0.00301551 -0.009417503 -0.0073322738 -0.003767566 0.010901628 -0.0033590372 0.004032812 0.005851242
-0.003092342 0.004743378 0.0039734263 -0.005865413 -0.008263135 -0.0032385667 -0.0052869204 0.0049550408
-0.00905564 0.0053483397 0.008099566 -0.0087856585 -0.0038394213 -0.015045469 0.0098192785 0.00081169786
-0.007990879 -0.008431578 0.019210093 0.003819969 -0.0034950047 0.00053332676 -0.016675852 -0.013833845
-0.0011874413 0.0025737255 -0.0044633043 -0.00079633755 0.00422027 0.0060393536 -0.004509989 -0.0069086677
-0.004597915 -0.0120953405 0.00041635876 -0.003516392 -0.00240372 0.009555389 0.010413221 0.004656944
-1.6722178e-06 -0.0005146502 -0.0041685267 0.008678337 0.006659522 -0.0029810378 0.0020027102 0.00982173
