Assets/results/ppo/My Behavior/My Behavior-108.pt (torch, 219670 bytes, 38 tensors)

discrete_act_size_vector f4 [1, 14]
2.0 2.0 2.0 2.0 2.0 2.0 2.0 10.0
10.0 10.0 10.0 10.0 10.0 10.0
00000000: 0000 0040 0000 0040 0000 0040 0000 0040
00000010: 0000 0040 0000 0040 0000 0040 0000 2041
00000020: 0000 2041 0000 2041 0000 2041 0000 2041
00000030: 0000 2041 0000 2041

network_body._body_endoder.seq_layers.0.weight f4 [128, 24]
-0.16968215 0.1572865 0.021429671 -0.10176271 0.06071007 0.050776064 0.26103705 0.0033381984
-0.21927804 0.029518845 0.13687421 0.22380717 0.48117843 0.106512845 -0.34946874 0.08261611
0.023820862 -0.17169194 0.2591924 -0.0078805955 0.152878 0.19305514 -0.5610992 -0.23236829
-0.13117911 -0.13723256 -0.14085276 -0.07990377 -0.08465364 -0.0014353191 0.3815913 -0.041024666
0.04365356 0.0729275 -0.21506678 -0.5062551 -0.14404185 -0.11167785 -0.22483164 0.024284443
0.20995961 0.35138184 0.15946656 0.48461848 0.0642965 -0.3077708 -0.0033663418 -0.056727443
-0.09033088 -0.19248372 0.2587147 0.06920673 -0.04110022 -0.07727146 -0.25142407 -0.19264592
0.42861846 -0.23720454 0.118880585 0.15388495 0.27096874 -0.10164666 -0.4684226 -0.27991167
-0.21901922 -0.024580302 -0.2578526 -0.13874325 0.08593346 0.23747781 0.1144739 0.109011464
0.16199523 -0.010140682 0.24008752 0.21729645 0.020575164 -0.17689663 0.23502287 0.21570052
-0.13926303 0.06806982 -0.29766685 -0.047857348 0.014802313 -0.18683837 -0.03913104 0.102774926
0.11423487 -0.14590883 -0.020358657 -0.14550705 0.12376614 0.15906626 0.111764 -0.49869123
0.001172943 0.049336966 -0.15334748 -0.02096408 0.29222438 0.27550247 0.12572794 0.17473796
-0.07765994 0.26443112 0.13773185 0.07981137 0.04467286 0.1788083 -0.078010604 -0.08608984
0.013466699 0.074131645 0.1415085 0.16442193 0.009222715 0.0010015364 0.14271054 -0.20125197
-0.18052955 0.24888504 0.10602314 -0.2027494 0.18321766 -0.22082494 -0.054876424 -0.17395703
-0.05821015 -0.16822462 0.032168858 -0.1514522 -0.13023017 -0.034281768 0.37288576 0.092667215
0.07271485 0.25100586 -0.06763457 0.24652617 0.18655412 -0.24164458 0.10176953 -0.013691176
-0.020965077 0.38013634 -0.13274863 -0.009405229 -0.03237249 -0.3300979 -0.029602475 -0.1277421
0.03477899 0.21048453 -0.044151396 -0.23522016 0.47635543 0.06952798 -0.534396 -0.3494892
-0.27734384 -0.026089737 0.33097947 0.20840144 0.08620248 0.15233211 -0.2759152 0.0819228
-0.007845945 -0.30066675 -0.101187766 -0.23324412 0.40650275 -0.20498894 0.46135738 0.01145625
0.09882288 0.1788709 0.14474241 -0.64282995 -0.17170514 -0.15397646 0.14947215 0.5008939
-0.33671755 0.010261184 0.088431835 0.2840639 -0.42075217 0.18599705 0.10305449 0.12068849
0.29486337 -0.2294626 -0.3771262 -0.30242056 0.098781586 0.17066894 -0.45822614 0.17617108
-0.19733182 -0.12984793 -0.1384421 0.24368674 -0.06118655 -0.008122463 0.14758493 0.39234596
-0.11681852 0.11933922 0.018890368 0.053364456 -0.071402 0.23860669 0.02916887 0.19260988
-0.08340367 -0.033940025 0.08966083 0.31350607 0.09303026 -0.13940634 0.080590166 0.051450085
0.29886755 -0.20018037 0.26776734 -0.017237479 0.13498531 0.1795158 -0.04557789 0.01617004
-0.19799915 0.24789108 -0.053428374 -0.28587887 -0.46548244 0.18516386 -0.034738407 0.23186925
-0.15744413 -0.04230975 0.1986226 -0.3248532 -0.20922321 0.07724352 0.017098768 -0.16483921
-0.12607963 0.2037826 0.48384362 0.10949956 0.13967194 -0.1880267 -0.34217662 0.02706155
00000000: 28c1 2dbe b60f 213e 478d af3c f868 d0bd
00000010: 1fab 783d 90fa 4f3d a6a6 853e adc5 5a3b
00000020: 6c8a 60be 81d1 f13c c128 0c3e b52d 653e
00000030: 055d f63e 6823 da3d 91ed b2be a332 a93d
00000040: f823 c33c 03d0 2fbe deb4 843e 9d1d 01bc
00000050: 0d8c 1c3e 3fb0 453e 32a4 0fbf f4f1 6dbe
00000060: d153 06be b186 0cbe b53b 10be 96a4 a3bd
00000070: e35e adbd 5121 bcba ef5f c33e 7b09 28bd
00000080: 13ce 323d 035b 953d 773a 5cbe ef99 01bf
00000090: b57f 13be 5bb7 e4bd 443a 66be 2bf0 c63c
000000a0: a7ff 563e 52e8 b33e 344b 233e ea1f f83e
000000b0: e2ad 833d 2294 9dbe d89d 5cbb 095b 68bd
000000c0: 65ff b8bd 741a 45be 4176 843e 42bc 8d3d
000000d0: b458 28bd 8040 9ebd a8ba 80be f944 45be
000000e0: e173 db3e bfe5 72be aa77 f33d 0494 1d3e
000000f0: 6abc 8a3e 202c d0bd 16d5 efbe 9550 8fbe
00000100: 9346 60be a15c c9bc 4205 84be b612 0ebe
00000110: e2fd af3d 622d 733e 4b71 ea3d 6741 df3d
00000120: 14e2 253e 1a25 26bc 81d9 753e f682 5e3e
00000130: 3f8d a83c 6424 35be d6a9 703e 99e0 5c3e
00000140: f89a 0ebe 3168 8b3d ca67 98be 1106 44bd
00000150: 6785 723c 8f52 3fbe df47 20bd a97b d23d
00000160: f9f3 e93d 2069 15be 33c7 a6bc cdff 14be
00000170: 1a79 fd3d 44e2 223e 86e4 e43d 7554 ffbe
00000180: 70bd 993a 8f15 4a3d 1f07 1dbe ddbc abbc
00000190: 6f9e 953e a90e 8d3e d3be 003e 82ee 323e
000001a0: 2d0c 9fbd 8463 873e 9409 0d3e 2574 a33d
000001b0: e4fa 363d 8619 373e 06c4 9fbd df4f b0bd
000001c0: 6ea3 5c3c 55d2 973d 9be7 103e 395e 283e
000001d0: df1a 173c fc45 833a b622 123e ff14 4ebe
000001e0: bddc 38be b8db 7e3e a922 d93d 8a9d 4fbe
000001f0: 699d 3b3e ef1f 62be 1ac6 60bd cb21 32be
00000200: c46d 6ebd 1343 2cbe 7ec3 033d 4916 1bbe
00000210: 0f5b 05be 0a6b 0cbd e2ea be3e 4fc8 bd3d
00000220: 86eb 943d d783 803e fe83 8abd 5b71 7c3e
00000230: 0b08 3f3e ad71 77be 8b6c d03d f450 60bc
00000240: f4be abbc 3ba1 c23e 42ef 07be 6418 1abc
00000250: 0499 04bd 9802 a9be e480 f2bc d3ce 02be
00000260: 6a74 0e3d 4289 573e 18d8 34bd 8edd 70be
00000270: dce4 f33e b064 8e3d 2dce 08bf 40f0 b2be
00000280: 0300 8ebe 25ba d5bc 2476 a93e 3067 553e
00000290: ed8a b03d f3fc 1b3e c244 8dbe 24c7 a73d
000002a0: 478c 00bc fef0 99be 883b cfbd 8cd7 6ebe
000002b0: 2121 d03e 9fe8 51be 0937 ec3e ffb2 3b3c
000002c0: a663 ca3d ef29 373e 5b37 143e 8190 24bf
000002d0: 79d3 2fbe 01ac 1dbe 3a0f 193e 953a 003f
000002e0: 3e66 acbe 861e 283c c01b b53d d370 913e
000002f0: d46c d7be 0376 3e3e 3c0e d33d 872b f73d
00000300: 55f8 963e 3ef8 6abe af16 c1be ded6 9abe
00000310: 004e ca3d d7c3 2e3e 9e9c eabe 3166 343e
00000320: 5a11 4abe dbf6 04be c4c3 0dbe 0489 793e
00000330: bf9e 7abd 1414 05bc 8120 173e 92e1 c83e
00000340: 8c3e efbd 1f68 f43d f9bf 9a3c b094 5a3d
00000350: 363b 92bd 5055 743e 8ef3 ee3c 863b 453e
00000360: 8bcf aabd b204 0bbd 19a0 b73d de83 a03e
00000370: a686 be3d 89c0 0ebe 750c a53d 53bd 523d
00000380: 2b05 993e 15fc 4cbe cd18 893e 9d35 8dbc
00000390: 9739 0a3e fdd2 373e e2af 3abd 0877 843c
000003a0: 4ac0 4abe 29d7 7d3e b6d7 5abd b75e 92be
000003b0: b753 eebe 989b 3d3e dc49 0ebd 226f 6d3e
000003c0: 0939 21be fd4c 2dbd b963 4b3e 2953 a6be
000003d0: 9c3e 56be da31 9e3d b712 8c3c 9ccb 28be
000003e0: 051b 01be 63ac 503e 5aba f73e 4e41 e03d
000003f0: 2906 0f3e 128a 40be c631 afbe 2fb0 dd3c

network_body._body_endoder.seq_layers.0.bias f4 [128]
0.0 0.0 0.0 0.0 0.0 0.0 0.0 0.0
0.0 0.0 0.0 0.0 0.0 0.0 0.0 0.0
0.0 0.0 0.0 0.0 0.0 0.0 0.0 0.0
0.0 0.0 0.0 0.0 0.0 0.0 0.0 0.0
0.0 0.0 0.0 0.0 0.0 0.0 0.0 0.0
0.0 0.0 0.0 0.0 0.0 0.0 0.0 0.0
0.0 0.0 0.0 0.0 0.0 0.0 0.0 0.0
0.0 0.0 0.0 0.0 0.0 0.0 0.0 0.0
0.0 0.0 0.0 0.0 0.0 0.0 0.0 0.0
0.0 0.0 0.0 0.0 0.0 0.0 0.0 0.0
0.0 0.0 0.0 0.0 0.0 0.0 0.0 0.0
0.0 0.0 0.0 0.0 0.0 0.0 0.0 0.0
0.0 0.0 0.0 0.0 0.0 0.0 0.0 0.0
0.0 0.0 0.0 0.0 0.0 0.0 0.0 0.0
0.0 0.0 0.0 0.0 0.0 0.0 0.0 0.0
0.0 0.0 0.0 0.0 0.0 0.0 0.0 0.0
00000000: 0000 0000 0000 0000 0000 0000 0000 0000
00000010: 0000 0000 0000 0000 0000 0000 0000 0000
00000020: 0000 0000 0000 0000 0000 0000 0000 0000
00000030: 0000 0000 0000 0000 0000 0000 0000 0000
00000040: 0000 0000 0000 0000 0000 0000 0000 0000
00000050: 0000 0000 0000 0000 0000 0000 0000 0000
00000060: 0000 0000 0000 0000 0000 0000 0000 0000
00000070: 0000 0000 0000 0000 0000 0000 0000 0000
00000080: 0000 0000 0000 0000 0000 0000 0000 0000
00000090: 0000 0000 0000 0000 0000 0000 0000 0000
000000a0: 0000 0000 0000 0000 0000 0000 0000 0000
000000b0: 0000 0000 0000 0000 0000 0000 0000 0000
000000c0: 0000 0000 0000 0000 0000 0000 0000 0000
000000d0: 0000 0000 0000 0000 0000 0000 0000 0000
000000e0: 0000 0000 0000 0000 0000 0000 0000 0000
000000f0: 0000 0000 0000 0000 0000 0000 0000 0000
00000100: 0000 0000 0000 0000 0000 0000 0000 0000
00000110: 0000 0000 0000 0000 0000 0000 0000 0000
00000120: 0000 0000 0000 0000 0000 0000 0000 0000
00000130: 0000 0000 0000 0000 0000 0000 0000 0000
00000140: 0000 0000 0000 0000 0000 0000 0000 0000
00000150: 0000 0000 0000 0000 0000 0000 0000 0000
00000160: 0000 0000 0000 0000 0000 0000 0000 0000
00000170: 0000 0000 0000 0000 0000 0000 0000 0000
00000180: 0000 0000 0000 0000 0000 0000 0000 0000
00000190: 0000 0000 0000 0000 0000 0000 0000 0000
000001a0: 0000 0000 0000 0000 0000 0000 0000 0000
000001b0: 0000 0000 0000 0000 0000 0000 0000 0000
000001c0: 0000 0000 0000 0000 0000 0000 0000 0000
000001d0: 0000 0000 0000 0000 0000 0000 0000 0000
000001e0: 0000 0000 0000 0000 0000 0000 0000 0000
000001f0: 0000 0000 0000 0000 0000 0000 0000 0000

network_body._body_endoder.seq_layers.2.weight f4 [128, 128]
0.09980772 0.06642042 -0.053064536 0.12943977 0.025535485 -0.039330605 -0.19011123 -0.024536021
0.008329089 -0.06308635 -0.0845404 -0.072025344 0.058344375 0.0382691 -0.06080292 -0.10256563
-0.106917195 -0.17056735 -0.024191853 -0.08187818 -0.0073053334 -0.06557901 -0.07474453 0.077662714
-0.091734976 0.069590464 -0.06405346 -0.17515479 -0.035213698 0.089616336 -0.02409387 0.031358536
0.0030793683 0.027886817 -0.11760978 -0.03726121 -0.0692592 0.019199401 0.006340284 -0.12714517
0.058043394 0.24316147 -0.12218666 0.07655718 0.17421281 0.21741553 -0.03034613 0.06038055
0.06513192 -0.12459625 -0.08585573 0.1387394 -0.040413313 -0.14497255 -0.045309953 0.019603858
-0.0009241885 0.13149777 -0.0050973874 -0.035565954 -0.12346525 -0.10005349 -0.077315055 -0.037960008
0.013056149 -0.027557308 -0.009681196 -0.07118277 0.062464647 -0.08260013 -0.14734806 0.13795188
0.010770932 0.06900041 -0.095372535 0.0609873 -0.0021108065 -0.13236292 -0.080685325 0.03790744
-0.0767759 -0.0027185963 0.098456964 -0.016250122 -0.15501378 0.10541554 0.07170111 -0.029784547
-0.2003143 0.019542146 0.13489302 -0.014514524 0.14992431 0.10441644 0.040622566 0.048537116
-0.052495293 0.012857153 0.09113961 -0.0061604693 0.10557784 0.13601434 -0.0409859 -0.024650719
0.019526731 -0.06399031 0.14031984 0.014036776 -0.08605511 0.08814364 0.09560723 -0.08124915
-0.06411945 0.053205043 -0.02638834 0.039022885 -0.021314763 0.1293935 -0.059743915 0.09731234
0.01520076 0.10907308 -0.04768064 0.097229615 0.032384627 -0.058607664 -0.19631009 0.04433692
0.11343744 0.081438914 -0.02760211 0.03317686 0.02683564 0.007545753 0.03985782 -0.038673576
0.12316148 0.06608088 0.016692456 0.013919692 -0.119061776 0.056513965 -0.047789197 0.11900918
0.081191875 0.07754349 -0.07773394 -0.031942807 0.05703341 -0.16809525 0.11637196 -0.10173692
-0.030401368 -0.0746547 0.092381686 -0.14617752 -0.14548422 0.05685251 -0.003712808 0.0030881355
-0.029201549 0.08924662 -0.04588264 0.013442937 -0.023278002 -0.0005216784 -0.1162654 -0.065172024
-0.08319386 -0.18147527 0.050830647 0.04028335 0.1067082 -0.07311658 0.051694248 0.023158686
-0.04776547 -0.104500115 0.17748354 0.15104134 -0.028490214 -0.08171947 -0.17856477 -0.12739214
-0.01239718 -0.11529824 -0.115443945 0.032465473 -0.033163395 0.06774254 -0.090964876 0.04676406
0.08917249 -0.16611136 0.04861456 -0.08353805 -0.077277794 0.15319028 -0.13483451 -0.0049577714
0.07697557 0.05802182 0.04173329 0.011849984 -0.0121496385 0.09367349 0.09392159 -0.024463356
0.09101054 -0.05838381 0.012029791 -0.010972542 0.18013264 0.018288944 -0.01614665 0.16381094
0.08350993 0.14485109 0.17644371 0.1411017 0.024691058 0.044227686 0.007147051 0.13328189
-0.0012486904 0.026467258 -0.27988842 0.077191286 0.09742678 -0.14198662 -0.044037748 0.06571516
0.0013612505 -0.021247117 0.07091792 0.040349912 -0.1195805 -0.02342516 -0.076646216 -0.061408784
0.08317278 0.08638179 -0.24078572 0.03409311 0.07822742 0.081582956 -0.1225855 -0.107786484
-0.049978793 -0.11137343 0.06757682 0.057233147 0.031259365 0.08773202 -0.025845664 0.074399255
00000000: fd67 cc3d 6e07 883d 335a 59bd dc8b 043e
00000010: cb2f d13c 2119 21bd 85ac 42be c4ff c8bc
00000020: bb76 083c 6b33 81bd 8423 adbd 0682 93bd
00000030: 83fa 6e3d 0fc0 1c3d 7c0c 79bd ee0d d2bd
00000040: 67f7 dabd 35a9 2ebe fe2d c6bc bfaf a7bd
00000050: 9461 efbb 4a4e 86bd a913 99bd a10d 9f3d
00000060: 8cdf bbbd 7285 8e3d 762e 83bd c75b 33be
00000070: 3d3c 10bd c588 b73d 8260 c5bc cf71 003d
00000080: 3acf 493b e572 e43c 65dd f0bd 369f 18bd
00000090: c4d7 8dbd 1048 9d3c 28c2 cf3b 5832 02be
000000a0: e9be 6d3d 52ff 783e 003d fabd 03ca 9c3d
000000b0: d864 323e 2da2 5e3e 7298 f8bc 9851 773d
000000c0: e263 853d 522c ffbd 21d5 afbd b411 0e3e
000000d0: 6e88 25bd af73 14be ee96 39bd 4598 a03c
000000e0: 3e45 72ba 5aa7 063e fc07 a7bb 9bad 11bd
000000f0: 59db fcbd d8e8 ccbd 5b57 9ebd f47b 1bbd
00000100: 75e9 553c ddbf e1bc e19d 1ebc 46c8 91bd
00000110: eeda 7f3d 422a a9bd 69e2 16be 4243 0d3e
00000120: 9078 303c 1650 8d3d ad52 c3bd d2cd 793d
00000130: 7555 0abb 258a 07be 593e a5bd d544 1b3d
00000140: af3c 9dbd 7a2a 32bb cea3 c93d fa1e 85bc
00000150: efbb 1ebe 1ae4 d73d 08d8 923d b9fe f3bc
00000160: 311f 4dbe da16 a03c 6521 0a3e 53ce 6dbc
00000170: c285 193e 49d8 d53d d963 263d dbce 463d
00000180: 4e05 57bd cfa6 523c 67a7 ba3d c3dd c9bb
00000190: 3239 d83d 5847 0b3e d5e0 27bd 4ef0 c9bc
000001a0: 86f6 9f3c 5a0d 83bd 01b0 0f3e 81fa 653c
000001b0: a93d b0bd a784 b43d b9cd c33d f465 a6bd
000001c0: 0f51 83bd 88ed 593d 5c2c d8bc 76d6 1f3d
000001d0: 4c9c aebc bb7f 043e 09b6 74bd b14b c73d
000001e0: 9c0c 793c b561 df3d c64c 43bd 5220 c73d
000001f0: bea5 043d 970e 70bd 8305 49be a19a 353d
00000200: e351 e83d 72c9 a63d d21d e2bc 76e4 073d
00000210: 6bd6 db3c 5d42 f73b f441 233d 2f68 1ebd
00000220: 163c fc3d 6a55 873d 9ebe 883c 6b0f 643c
00000230: a9d6 f3bd 307b 673d 9bbe 43bd 16bb f33d
00000240: ed47 a63d 1fcf 9e3d f932 9fbd 76d6 02bd
00000250: dd9b 693d 2921 2cbe 6c54 ee3d 725b d0bd
00000260: 4a0c f9bc 90e4 98bd 9c32 bd3d 8faf 15be
00000270: d1f9 14be 2dde 683d 9552 73bb 5162 4a3b
00000280: 1638 efbc efc6 b63d 6fef 3bbd c43f 5c3c
00000290: 82b1 bebc 3fc1 08ba 8e1c eebd e978 85bd
000002a0: 8b61 aabd a7d4 39be cc33 503d 2700 253d
000002b0: d489 da3d 25be 95bd 59bd 533d 49b7 bd3c
000002c0: baa5 43bd 2804 d6bd 3fbe 353e 95aa 1a3e
000002d0: 4f64 e9bc 8a5c a7bd afd9 36be 1673 02be
000002e0: 8b1d 4bbc 7c21 ecbd e06d ecbd 84fa 043d
000002f0: 57d6 07bd 9abc 8a3d cb4b babd ac8b 3f3d
00000300: 11a0 b63d 1919 2abe 1020 473d ff15 abbd
00000310: d243 9ebd eadd 1c3e 0f12 0abe cd74 a2bb
00000320: 5ea5 9d3d 4aa8 6d3d 87f0 2a3d 6f26 423c
00000330: 470f 47bc e3d7 bf3d f659 c03d 6067 c8bc
00000340: bc63 ba3d dd23 6fbd 9a18 453c 2dc6 33bc
00000350: b174 383e b2d2 953c fb45 84bc 0ebe 273e
00000360: 4107 ab3d d853 143e a9ad 343e f77c 103e
00000370: e744 ca3c 1728 353d cf31 ea3b 0c7b 083e
00000380: 19ab a3ba ddd1 d83c 894d 8fbe 7716 9e3d
00000390: b187 c73d f164 11be ed60 34bd ab95 863d
000003a0: fd6b b23a 6f0e aebc 6a3d 913d f345 253d
000003b0: 9fe6 f4bd 1fe6 bfbc b1f8 9cbd c787 7bbd
000003c0: 7e56 aa3d f0e8 b03d 8890 76be 38a5 0b3d
000003d0: b335 a03d f714 a73d 1b0e fbbd 29bf dcbd
000003e0: 90b6 4cbd c117 e4bd b765 8a3d 4e6d 6a3d
000003f0: d209 003d d8ac b33d 49ba d3bc a35e 983d

network_body._body_endoder.seq_layers.2.bias f4 [128]
0.0 0.0 0.0 0.0 0.0 0.0 0.0 0.0
0.0 0.0 0.0 0.0 0.0 0.0 0.0 0.0
0.0 0.0 0.0 0.0 0.0 0.0 0.0 0.0
0.0 0.0 0.0 0.0 0.0 0.0 0.0 0.0
0.0 0.0 0.0 0.0 0.0 0.0 0.0 0.0
0.0 0.0 0.0 0.0 0.0 0.0 0.0 0.0
0.0 0.0 0.0 0.0 0.0 0.0 0.0 0.0
0.0 0.0 0.0 0.0 0.0 0.0 0.0 0.0
0.0 0.0 0.0 0.0 0.0 0.0 0.0 0.0
0.0 0.0 0.0 0.0 0.0 0.0 0.0 0.0
0.0 0.0 0.0 0.0 0.0 0.0 0.0 0.0
0.0 0.0 0.0 0.0 0.0 0.0 0.0 0.0
0.0 0.0 0.0 0.0 0.0 0.0 0.0 0.0
0.0 0.0 0.0 0.0 0.0 0.0 0.0 0.0
0.0 0.0 0.0 0.0 0.0 0.0 0.0 0.0
0.0 0.0 0.0 0.0 0.0 0.0 0.0 0.0
00000000: 0000 0000 0000 0000 0000 0000 0000 0000
00000010: 0000 0000 0000 0000 0000 0000 0000 0000
00000020: 0000 0000 0000 0000 0000 0000 0000 0000
00000030: 0000 0000 0000 0000 0000 0000 0000 0000
00000040: 0000 0000 0000 0000 0000 0000 0000 0000
00000050: 0000 0000 0000 0000 0000 0000 0000 0000
00000060: 0000 0000 0000 0000 0000 0000 0000 0000
00000070: 0000 0000 0000 0000 0000 0000 0000 0000
00000080: 0000 0000 0000 0000 0000 0000 0000 0000
00000090: 0000 0000 0000 0000 0000 0000 0000 0000
000000a0: 0000 0000 0000 0000 0000 0000 0000 0000
000000b0: 0000 0000 0000 0000 0000 0000 0000 0000
000000c0: 0000 0000 0000 0000 0000 0000 0000 0000
000000d0: 0000 0000 0000 0000 0000 0000 0000 0000
000000e0: 0000 0000 0000 0000 0000 0000 0000 0000
000000f0: 0000 0000 0000 0000 0000 0000 0000 0000
00000100: 0000 0000 0000 0000 0000 0000 0000 0000
00000110: 0000 0000 0000 0000 0000 0000 0000 0000
00000120: 0000 0000 0000 0000 0000 0000 0000 0000
00000130: 0000 0000 0000 0000 0000 0000 0000 0000
00000140: 0000 0000 0000 0000 0000 0000 0000 0000
00000150: 0000 0000 0000 0000 0000 0000 0000 0000
00000160: 0000 0000 0000 0000 0000 0000 0000 0000
00000170: 0000 0000 0000 0000 0000 0000 0000 0000
00000180: 0000 0000 0000 0000 0000 0000 0000 0000
00000190: 0000 0000 0000 0000 0000 0000 0000 0000
000001a0: 0000 0000 0000 0000 0000 0000 0000 0000
000001b0: 0000 0000 0000 0000 0000 0000 0000 0000
000001c0: 0000 0000 0000 0000 0000 0000 0000 0000
000001d0: 0000 0000 0000 0000 0000 0000 0000 0000
000001e0: 0000 0000 0000 0000 0000 0000 0000 0000
000001f0: 0000 0000 0000 0000 0000 0000 0000 0000

action_model._discrete_distribution.branches.0.weight f4 [2, 128]
-0.007951688 -0.021468412 -0.0100232465 -0.009468768 0.014842438 -0.011139377 0.007744726 -0.006021742
0.0017930985 0.0064524463 -0.008992145 -0.001752482 0.015896667 -0.0015524774 -0.0002707907 0.01521021
-0.010403631 -0.0057812366 -0.0076597272 0.0012797283 -0.0033905488 0.0056760423 0.0015066828 -0.011103208
-0.006653563 -0.005398127 0.0011292475 0.0003431999 0.011857029 0.010997779 0.00020744551 -0.0077864835
0.0027566557 0.00831452 -0.0063115745 5.5992663e-05 0.010271049 0.018438011 -0.010767296 0.007975804
-0.0011389555 0.0069454014 0.007939907 0.0056782323 -0.007903883 5.93426e-05 -0.008587345 0.00027692885
0.0125643015 0.0017758161 -0.003292209 -0.004270872 -0.002219852 0.00945549 -0.0011263699 -0.0011823248
0.0007906986 0.010379505 -0.0065856874 -0.0019577534 -0.0031972 0.006496356 -0.006457507 0.0008163626
0.008420005 0.0029485032 0.006710142 -0.004345125 -0.0010317414 0.0026369435 0.0036395683 -0.0040262
0.01767124 -0.0039296425 -0.0007214367 0.008492215 -0.006783647 0.0034608317 0.0030546316 0.009023799
-0.0017399114 -0.0010415835 0.0013576967 -0.0056063705 0.00857119 -0.004094347 0.008040517 0.006532465
0.004506471 0.008177697 -0.0069251466 -0.0062941336 0.01095232 0.014924406 -0.006102663 0.006095996
0.00015667906 0.010504706 -0.0043894383 0.006691021 0.005199626 -0.0062797517 0.0061289915 0.013958583
0.019148726 -0.008579329 0.009673774 0.012018357 0.011096329 0.009713094 -0.008641208 -0.009355142
0.00025955407 0.0041680657 -0.004391917 0.0044590356 -0.010625174 -0.01367849 0.016333023 0.0077667907
-0.0032727846 -0.00390096 0.0050062346 -0.016105527 -0.011376024 -0.009213745 -0.0019526894 -5.1466086e-05
0.0071128123 -0.0014428716 0.0015723094 0.0026541166 0.011536898 -0.009450659 -0.015703117 -0.0013418208
0.0072769127 0.01454465 0.009807183 0.015766371 0.004828418 0.006476571 0.0103210285 -0.007990791
0.0030057544 -0.015773287 -0.013441222 -0.011816419 -0.006134772 -0.0017878835 -0.010187681 -0.006089209
-0.012074723 0.024194205 -0.0024512922 0.0044558775 -0.008676297 0.0033845794 0.009557794 -0.00073242834
0.005065124 0.0042390847 0.008056312 -0.016967846 0.0131585775 -0.010341007 -0.006563065 -0.0048424033
-0.0033912316 0.002398203 0.010995933 0.012118778 -0.007780764 -0.003063133 -0.0013703386 0.002516934
0.012025083 -0.00104409 -0.007338787 -0.006806781 -0.013622597 0.004829331 0.001175564 -0.022962278
-0.0029018547 -0.0031874457 -0.003246053 -0.013226134 0.000108383225 -0.0030882338 -0.002162321 0.0022411097
0.0029245669 0.007143717 -0.010319239 0.0011900582 0.005086543 -4.2253316e-05 -0.029991029 -0.0031203858
-0.0068140514 -0.0071911844 -0.0024952765 0.0063896324 0.004467677 0.008023967 0.012604852 0.0059242067
-0.0047022025 -0.004562634 -0.0029290637 -0.007925706 -0.0023919207 -0.0020763462 0.008323166 0.00576975
-0.0074051963 0.009776252 -0.00031152737 -9.041954e-05 -0.0052855546 0.018341588 0.004173265 0.009431383
-0.0022059924 0.0062016104 0.01702196 0.00961789 0.008178397 -0.009890175 -0.007300041 0.008626007
7.831601e-05 0.0038205136 -0.0015091128 -0.0021755246 -0.0025142878 0.008412161 -0.0011373791 0.003434334
-0.0042927847 0.012367762 -0.0068316944 -0.011101529 -0.013264607 -0.0114611685 0.005947891 -0.014906662
0.0031977154 -0.008536045 -0.0019393573 0.0025612738 -0.006795604 -0.011244655 0.0040100105 0.005591662
00000000: cc47 02bc 86de afbc 8b38 24bc e422 1bbc
00000010: b22d 733c ef81 36bc 78c7 fd3b 0852 c5bb
00000020: 6706 eb3a 0b6f d33b ca53 13bc 8ab3 e5ba
00000030: ba39 823c 7f7c cbba eaf8 8db9 3f34 793c
00000040: fe73 2abc 8770 bdbb 73fe fabb 8ebc a73a
00000050: f833 5ebb 18fe b93b e37b c53a 3bea 35bc
00000060: 2206 dabb c5e2 b0bb 4203 943a 83ef b339
00000070: fc43 423c 0730 343c bb85 5939 c225 ffbb
00000080: 02a9 343b a039 083c 53d1 cebb aad9 6a38
00000090: e747 283c 500b 973c 5069 30bc f2ac 023c
000000a0: 0149 95ba 4096 e33b 6216 023c 7710 ba3b
000000b0: 4a7f 01bc a2e6 7838 efb1 0cbc c330 9139
000000c0: 80da 4d3c 80c2 e83a 1ac2 57bb acf2 8bbb
000000d0: f07a 11bb 33eb 1a3c b4a2 93ba 3df8 9aba
000000e0: e346 4f3a cd0e 2a3c c0cc d7bb a74d 00bb
000000f0: 1d88 51bb 62df d43b 7f99 d3bb 2b01 563a
00000100: 10f4 093c ad3b 413b c0e0 db3b 8d61 8ebb
00000110: 7f3b 87ba 92d0 2c3b d385 6e3b 37ee 83bb
00000120: 47c3 903c 3bc4 80bb cc1e 3dba ee22 0b3c
00000130: 5b49 debb 1fcf 623b 3730 483b 8ed8 133c
00000140: bd0d e4ba be85 88ba bef4 b13a a5b5 b7bb
00000150: 2d6e 0c3c df29 86bb 5fbc 033c 4a0e d63b
00000160: 05ab 933b bffb 053c 57ec e2bb 053f cebb
00000170: 5c71 333c 7f85 743c d9f8 c7bb ecc0 c73b
00000180: 374a 2439 ee1b 2c3c 47d5 8fbb 5a40 db3b
00000190: a061 aa3b 60c6 cdbb b5d5 c83b 8ab2 643c
000001a0: cadd 9c3c 5090 0cbc c07e 1e3c a5e8 443c
000001b0: 61cd 353c ab23 1f3c da93 0dbc 4f46 19bc
000001c0: c214 8839 4594 883b 12ea 8fbb 1a1d 923b
000001d0: 3615 2ebc bf1b 60bc d5cc 853c 9080 fe3b
000001e0: 377c 56bb 40a7 7fbb 570b a43b bdef 83bc
000001f0: 8162 3abc 3ff5 16bc 62f1 ffba 4add 57b8
00000200: 9812 e93b bd1e bdba f315 ce3a b0f0 2d3b
00000210: 4205 3d3c f0d6 1abc d3a3 80bc 09e0 afba
00000220: 2b73 ee3b af4c 6e3c 4fae 203c 7a28 813c
00000230: b537 9e3b 6a39 d43b 8819 293c cfeb 02bc
00000240: 31fc 443b fb36 81bc 9238 5cbc a799 41bc
00000250: 3306 c9bb 6a57 eaba 3bea 26bc fd87 c7bb
00000260: 0fd5 45bc ed32 c63c dca5 20bb 9c02 923b
00000270: 0727 0ebc d2cf 5d3b 4b98 1c3c 6f00 40ba
00000280: 57f9 a53b 05e8 8a3b 9ffe 033c 2700 8bbc
00000290: 1397 573c 546d 29bc fb0e d7bb 06ad 9ebb
000002a0: 6d3f 5ebb 2b2b 1d3b 4928 343c d78d 463c
000002b0: c7f5 febb d8be 48bb ef9c b3ba 25f3 243b
000002c0: db04 453c d9d9 88ba 357a f0bb 6b0b dfbb
000002d0: 5031 5fbc 5d3f 9e3b 6215 9a3a 631b bcbc
000002e0: 0b2d 3ebb 77e4 50bb bbbb 54bb 6db2 58bc
000002f0: cd4b e338 f763 4abb bab5 0dbb 95df 123b
00000300: 17aa 3f3b d715 ea3b 0712 29bc bafb 9b3a
00000310: 04ad a63b 2739 31b8 bfaf f5bc 637f 4cbb
00000320: 6848 dfbb 07a4 ebbb cb87 23bb 1f60 d13b
00000330: 9765 923b f576 033c 9584 4e3c d91f c23b
00000340: ef14 9abb 2682 95bb 89f5 3fbb d2da 01bc
00000350: c5c1 1cbb 4f13 08bb e35d 083c 2c10 bd3b
00000360: 4aa7 f2bb 932c 203c 7f54 a3b9 9f9f bdb8
00000370: 7232 adbb 1941 963c e2bf 883b 1686 1a3c
00000380: 6992 10bb e136 cb3b a371 8b3c 5b94 1d3c
00000390: affe 053c 670a 22bc 2f35 efbb 1854 0d3c
000003a0: 963d a438 9561 7a3b 6ccd c5ba 3f93 0ebb
000003b0: c0c6 24bb 29d3 093c 1c14 95ba 9012 613b
000003c0: 7daa 8cbb 27a2 4a3c 68dc dfbb 30e3 35bc
000003d0: cb53 59bc a0c7 3bbc 87e6 c23b 123b 74bc
000003e0: c390 513b c5da 0bbc 0832 feba 0bdb 273b
000003f0: a8ad debb 803b 38bc 6866 833b 433a b73b

action_model._discrete_distribution.branches.0.bias f4 [2]
0.0 0.0
00000000: 0000 0000 0000 0000

action_model._discrete_distribution.branches.1.weight f4 [2, 128]
0.007123782 0.015543656 0.0048655956 0.010770893 0.018464305 0.0024849847 -0.009103755 -0.0059956643
-0.004222187 0.0055388785 0.0062590963 -0.0036875822 -0.0037068592 0.0013030465 -0.0074326606 0.00011308584
-0.005867088 0.007561975 -0.016321301 -0.0027895535 0.000729788 -0.00567046 0.006080185 -0.009421237
-0.0013908693 -0.0033397654 -0.0013333027 0.0031527907 0.010353869 -0.005596997 0.0018474715 -0.0019360278
0.0044476343 -0.0010314493 0.0076661124 0.010170825 -0.013987971 -0.008361363 0.0033815352 -0.011172554
0.0071490617 0.0058179684 0.006487248 -0.024997454 -0.011049085 0.0075585856 -0.0069548697 -0.008766762
0.006753716 0.0025082596 0.0042852927 -0.00023574995 -0.008937496 -0.0025525943 0.014003781 0.0019696252
-0.0008896377 0.002518767 -0.009555241 -0.006101848 0.0049890997 0.012118007 0.0013469303 -0.018944358
0.023176912 -0.0044531203 0.015789602 -0.0020767855 0.0016559355 0.0013806297 -0.0022744022 -0.007937987
0.0089513585 -0.00027829863 0.004080895 0.0056246603 -0.015979687 0.010034489 -0.010825522 -0.010023863
0.00085906126 0.00038308837 0.004665062 0.01679898 0.014460514 0.0052208416 0.009693339 0.008492739
0.003079321 0.005054658 0.0030690867 0.0034553413 0.00020775349 -0.013366535 -0.0016655518 0.003718835
0.0037528803 0.018543523 0.010566029 -0.0020900776 -0.0132812755 -0.013570564 0.0020565046 -0.0006751618
0.008056919 0.004366939 -0.003898576 0.003824053 -0.0068357633 -0.0025877112 -0.0028433457 0.01512147
-0.0036624416 -0.0041105347 0.014914726 -0.0042071505 0.00748969 0.005395923 -0.0046140067 0.0012395754
0.00011118084 -0.000648589 -0.010747553 -0.006526412 -0.00020973249 -0.0037723165 -0.00290946 0.007942426
-0.0007926871 -0.004628189 0.005880522 -0.01599921 0.0041891984 0.027637154 -0.0045343777 -0.004021533
0.0017775623 -0.0017426502 -0.0024149145 -0.00027821076 0.009863604 -0.016089635 -0.0027247525 0.0071754116
-0.00046363246 0.013699939 0.0044194935 -0.0016115302 -0.0021333143 0.01069178 -0.008124348 -0.0045725824
-0.0017299897 -0.0014945216 -0.008827338 -0.0109473225 0.0074104504 0.00521164 0.017442154 3.834062e-05
0.010129737 0.018421251 -0.008642848 -0.015246296 -0.000144621 -0.012815937 0.008864151 0.0047246073
-0.005227122 -0.008500835 -0.005260359 0.0068923193 -0.00900801 -0.014081976 0.01524255 0.00766438
0.00454638 -0.0053179497 -0.00090129784 -0.007924335 0.0012871837 -0.005990432 0.006988618 -0.0015497395
0.0004973687 0.006371831 -0.0069609666 0.0021091856 0.0026050634 0.013578593 0.0026778507 0.0018325088
0.0025329203 0.0006342271 -0.0052574794 -0.009127219 -0.0025976663 -0.0015740708 -0.00070499553 -0.007980489
-0.004766503 0.009900856 -0.0003769394 0.015181931 0.0063892077 0.00096096063 0.006413204 0.0056940513
-0.0065408833 0.0030552724 -0.00854638 0.0032680135 -0.015093568 -0.00902109 0.0021629154 -0.0037825368
0.0032278465 -0.006282152 -0.0022189117 -0.005623841 -0.0015177085 0.0016490149 -0.011889211 -0.0071617863
0.0010211308 -0.010260164 -0.016581593 0.0028570155 0.0062506692 0.0022043672 0.01147058 -0.008962099
-0.00567737 -0.015374521 -0.0034299635 0.00085906725 -0.025163868 -0.01606719 -0.0071487105 0.0031984316
-0.0029347276 0.0043377224 -0.0037545927 0.011789582 0.006139658 0.0066761794 -0.006009709 0.005457032
0.010296508 0.007036955 -0.01154413 0.0065943534 -0.014225441 0.0037870014 0.008848901 0.00022145284
00000000: 9d6e e93b d2aa 7e3c 936f 9f3b 6678 303c
00000010: 7442 973c 20db 223b ea27 15bc 4777 c4bb
00000020: 465a 8abb 7b7f b53b 1b19 cd3b 5dab 71bb
00000030: c7ee 72bb fcca aa3a ad8d f3bb 8028 ed38
00000040: b440 c0bb 72ca f73b 40b4 85bc f1d0 36bb
00000050: 3e4f 3f3a 44cf b9bb 4a3c c73b 885b 1abc
00000060: d44d b6ba f7df 5abb 37c2 aeba 0d9f 4e3b
00000070: 46a3 293c 0467 b7bb db26 f23a 50c2 fdba
00000080: 76bd 913b b231 87ba 0334 fb3b 88a3 263c
00000090: cd2d 65bc 19fe 08bc bf9c 5d3b 170d 37bc
000000a0: ad42 ea3b a8a4 be3b fb92 d43b 76c7 ccbc
000000b0: 3907 35bc 03ae f73b ade5 e3bb 77a2 0fbc
000000c0: 474e dd3b 9d61 243b a46b 8c3b a533 77b9
000000d0: 936e 12bc 6d49 27bb 1d70 653c d414 013b
000000e0: 9336 69ba e611 253b 968d 1cbc 03f2 c7bb
000000f0: 9a7b a33b 9b8a 463c 7b8b b03a 3331 9bbc
00000100: 82dd bd3c 7beb 91bb 3259 813c ae1a 08bb
00000110: fa0b d93a 3ff6 b43a 230e 15bb 550e 02bc
00000120: b8a8 123c 9ce8 91b9 07b9 853b 124f b83b
00000130: d5e7 82bc b367 243c 885d 31bc 213b 24bc
00000140: a032 613a 40d9 c839 60dd 983b 049e 893c
00000150: cbeb 6c3c 9813 ab3b cfd0 1e3c 2125 0b3c
00000160: 6fce 493b 8ba1 a53b bb22 493b 0273 623b
00000170: 67d8 5939 50ff 5abc a54e daba b3b7 733b
00000180: e2f2 753b 96e8 973c 231d 2d3c aff9 08bb
00000190: b599 59bc 1257 5ebc 6cc6 063b 57fd 30ba
000001a0: 2b01 043c 8a18 8f3b 407f 7fbb f79c 7a3b
000001b0: 8afe dfbb 9796 29bb 6d57 3abb 0bc0 773c
000001c0: 9305 70bb aab1 86bb e55c 743c 23dc 89bb
000001d0: 136c f53b 48d0 b03b 1831 97bb 4079 a23a
000001e0: c229 e938 1206 2aba 8116 30bc 83db d5bb
000001f0: a3eb 5bb9 f838 77bb a4ac 3ebb f320 023c
00000200: 55cc 4fba 10a8 97bb 65b1 c03b c610 83bc
00000210: 8b45 893b 5067 e23c 1e95 94bb 10c7 83bb
00000220: 18fd e83a a369 e4ba 8b43 1ebb d1dc 91b9
00000230: f49a 213c 69ce 83bc c391 32bb b71f eb3b
00000240: b213 f3b9 b575 603c 66d1 903b fb39 d3ba
00000250: 13cf 0bbb 932c 2f3c fc1b 05bc 9ad5 95bb
00000260: d2c0 e2ba d3e3 c3ba 8aa0 10bc 665c 33bc
00000270: 5dd3 f23b 68c6 aa3b d9e2 8e3c edcf 2038
00000280: 32f7 253c 2ae8 963c bb9a 0dbc 9acb 79bc
00000290: 67a5 17b9 f0f9 51bc f23a 113c e1d0 9a3b
000002a0: 4748 abbb 1647 0bbc 175f acbb f7d8 e13b
000002b0: 5596 13bc 17b8 66bc e3bb 793c 7b25 fb3b
000002c0: cdf9 943b 3242 aebb 1345 6cba 12d5 01bc
000002d0: b8b6 a83a 634b c4bb c700 e53b a120 cbba
000002e0: d961 023a cbca d03b d218 e4bb 433a 0a3b
000002f0: b6b9 2a3b bf78 5e3c e17e 2f3b cb30 f03a
00000300: 5aff 253b 4342 263a ef46 acbb 558a 15bc
00000310: 9c3d 2abb 0d51 ceba 73cf 38ba 99c0 02bc
00000320: 5330 9cbb 3337 223c f39f c5b9 a2bd 783c
00000330: 8f5c d13b fae8 7b3a db25 d23b 2a95 ba3b
00000340: e854 d6bb f73a 483b 1e06 0cbc 2b2c 563b
00000350: 034b 77bc 32cd 13bc b3bf 0d3b 70e4 77bb
00000360: 478a 533b 83da cdbb 296b 11bb 3348 b8bb
00000370: d9ed c6ba c223 d83a f7ca 42bc 6bad eabb
00000380: 77d7 853a 3f1a 28bc 1fd6 87bc c43c 3b3b
00000390: 6ad2 cc3b 2577 103b 19ef 3b3c c5d5 12bc
000003a0: 3b09 babb 6ae5 7bbc 3dc9 60bb 0733 613a
000003b0: 7524 cebc 579f 83bc bb3f eabb c79c 513b
000003c0: 8f54 40bb 7423 8e3b 9d0f 76bb 1729 413c
000003d0: 2f2f c93b dac3 da3b 18ed c4bb e7d0 b23b
000003e0: afb2 283c 4296 e63b 9723 3dbc 7215 d83b
000003f0: d311 69bc 572f 783b fbfa 103c cb35 6839

action_model._discrete_distribution.branches.1.bias f4 [2]
0.0 0.0
00000000: 0000 0000 0000 0000

action_model._discrete_distribution.branches.2.weight f4 [2, 128]
0.008301604 -0.00502112 0.009262225 -0.009684212 0.0033195708 -0.0048937323 0.0001113588 0.013237933
-0.0033249538 -0.009855493 0.00886759 -6.96145e-05 -0.0006983389 0.0031496119 0.010437365 0.009098302
0.00023594707 0.0020965326 0.010023146 -0.0005175438 0.016711615 -0.0011932038 0.0012347827 -0.0039013159
-0.005542319 0.02209279 0.0062977 0.008193309 0.005939507 -0.003192678 0.011390781 0.0042703943
-0.01785523 0.0055425335 -0.01207133 -0.0037694033 -0.006803468 -0.013108416 -0.00366108 0.0017883203
-0.0012019005 -0.001043633 0.010745696 -0.0067064585 -0.0014751739 -0.007815576 0.013361168 0.010842118
0.0019587374 0.0040524467 -0.007896877 0.02471754 0.0106391795 0.0015105936 0.0067579485 -0.0015185879
-0.008863395 -0.004613764 -0.019798193 -0.013250591 0.004000909 0.015181869 -0.0039531244 0.002966762
0.0060968534 -0.010088025 0.0042947624 -0.0032621566 -0.01077669 0.0042306907 0.0056516174 -0.0012833
-0.004312075 0.004015249 -0.022197083 0.004440257 -0.0011667262 -0.0018776593 0.007441291 0.005021699
-0.002839254 0.01977166 0.011810562 -0.0030421237 -0.0043166922 -0.0036129262 0.010620465 -0.0017162636
-0.0050074663 -0.015843777 0.00084373524 -0.00524365 -0.0027640786 -0.00069935125 0.0038656276 -0.023473764
-0.005644151 -0.00040436006 0.0004960924 0.0031993387 -0.007998619 -0.011911594 -0.012376661 -0.018192535
-0.002911762 -0.010432383 -0.011615317 0.0003970384 -0.0034570328 -0.005881412 -0.014502584 -0.009857493
0.007924809 0.0080107255 -0.0027300594 -0.0009638996 -0.0071523935 -0.01795212 0.004429529 -0.006345775
0.003122021 -0.000862013 -0.0075234547 0.008146522 0.018351406 0.010084012 0.012703645 0.0033264083
0.011525837 -0.011382799 -0.006386254 -0.014153865 -0.006556898 0.0050678835 0.0037180881 -0.0049376986
-0.0072571575 -0.012846616 0.015075564 -0.005098123 0.005265271 -0.0052915397 0.011877239 -0.0069195144
-0.011213544 0.00041105816 0.007145745 0.0036881429 0.025134578 0.018206824 -0.010849073 0.01684026
-0.008211604 0.0007602101 -0.012257012 -0.0016039094 0.00012882512 0.007842976 -0.008111858 0.028733624
-0.00032123568 0.005722063 0.0042273314 0.0048476127 -0.01693613 -0.001050462 -0.00462485 0.0006667575
0.004428282 0.007380628 0.0077987495 -0.0021358174 -0.0068526426 0.0027613589 -0.012097198 -0.00366291
-0.005418585 0.013152438 0.0055219256 -0.008037295 -0.0030770036 0.002700289 0.003047645 0.00912876
-0.001842062 0.0018122314 0.009807383 0.0045179627 -0.006595445 -0.0028634975 0.00056346337 -0.008293311
0.010959196 0.00386745 0.0010968769 0.015914101 0.0018971192 0.013554613 0.008981089 0.0145227155
-0.011178549 -0.010724017 0.006571354 0.004169913 -0.0006374888 -0.0027044981 -6.527185e-05 -0.0053137154
-0.00040986115 0.0004896914 -0.0034639388 0.008095922 0.007133815 -0.011028931 -0.01354249 0.012874091
0.004491206 0.005614262 -0.0019585055 0.0051489337 0.0075254575 0.003888219 -0.002858307 0.011791127
0.0034557616 -0.0030685707 -0.013356653 0.011321953 0.0015578768 0.0022176642 0.0040851636 -0.0024212531
-0.0044728285 0.012460447 -0.012554365 -0.023092568 -0.006668642 -0.010373006 -0.012324012 -0.010772713
-0.010576059 -0.010963416 -0.022185862 0.011039936 0.00540924 -0.003852135 -0.010401056 0.013029749
-0.003152715 0.00078116864 -0.012227544 0.0133310845 0.020115484 -0.005952652 -0.016937213 0.009633107
00000000: 7303 083c 3588 a4bb 96c0 173c 87aa 1ebc
00000010: 288d 593b 9a5b a0bb 4d89 e938 eae3 583c
00000020: 78e7 59bb ef78 21bc 5e49 113c 00fe 91b8
00000030: bb10 37ba b869 4e3b 7b01 2b3c 0b11 153c
00000040: 8f68 7739 fb65 093b 1f38 243c c7ab 07ba
00000050: cce6 883c 4765 9cba 6fd8 a13a 38ad 7fbb
00000060: 579c b5bb f0fb b43c f05c ce3b 3b3d 063c
00000070: 32a0 c23b 403c 51bb 66a0 3a3c aaee 8b3b
00000080: 2245 92bc 249e b53b d4c6 45bc 1808 77bb
00000090: a0ef debb afc4 56bc bbee 6fbb 1266 ea3a
000000a0: 1789 9dba 83ca 88ba b70e 303c dac1 dbbb
000000b0: 9f5a c1ba e70c 00bc cde8 5a3c 24a3 313c
000000c0: 295e 003b 63ca 843b e761 01bc 707c ca3c
000000d0: f44f 2e3c 1cff c53a c871 dd3b 5b0b c7ba
000000e0: c637 11bc 0f2f 97bb d22f a2bc 0219 59bc
000000f0: 0f1a 833b 60bd 783c 3689 81bb 026e 423b
00000100: 1dc8 c73b 3e48 25bc 14bb 8c3b e8c9 55bb
00000110: b790 30bc 9ba1 8a3b 3431 b93b 6734 a8ba
00000120: 4f4c 8dbb 5a92 833b a8d6 b5bc 937f 913b
00000130: d6ec 98ba cb1b f6ba 13d6 f33b 108d a43b
00000140: c712 3abb 2df8 a13c 1681 413c 5e5e 47bb
00000150: 0a73 8dbb d8c6 6cbb 7501 2e3c 40f4 e0ba
00000160: ac15 a4bb cfca 81bc 1d2e 5d3a edd2 abbb
00000170: 8b25 35bb ab54 37ba 7856 7d3b 0d4c c0bc
00000180: 92f2 b8bb 4a00 d4b9 330c 023a ffab 513b
00000190: a40c 03bc d928 43bc 7bc7 4abc 8308 95bc
000001a0: 43d3 3ebb 96ec 2abc 2c4e 3ebc 9829 d039
000001b0: 638f 62bb dcb8 c0bb 3f9c 6dbc 5381 21bc
000001c0: 0fd7 013c 6b3f 033c ccea 32bb 35ae 7cba
000001d0: a05e eabb 5310 93bc 9525 913b 38f0 cfbb
000001e0: d29a 4c3b b7f8 61ba 5087 f6bb fd78 053c
000001f0: b055 963c 6937 253c f322 503c dfff 593b
00000200: ddd6 3c3c eb7e 3abc c843 d1bb 9de5 67bc
00000210: 3fdb d6bb 7d10 a63b 2bab 733b 6bcc a1bb
00000220: 73cd edbb 9d7a 52bc 80ff 763c 280e a7bb
00000230: 4b88 ac3b a764 adbb c098 423c 18bd e2bb
00000240: 03b9 37bc 4b83 d739 db26 ea3b c5b4 713b
00000250: 08e7 cd3c 7a26 953c 4fc0 31bc 96f4 893c
00000260: f789 06bc d648 473a a2d1 48bc 453a d2ba
00000270: 3b15 0739 d37f 003c 99e7 04bc c762 eb3c
00000280: 866b a8b9 2580 bb3b 6d85 8a3b b9d8 9e3b
00000290: a4bd 8abc a8af 89ba 0e8c 97bb 57c9 2e3a
000002a0: 1f1b 913b 32d9 f13b a78c ff3b 12f9 0bbb
000002b0: 228c e0bb eaf7 343b 5333 46bc 6f0d 70bb
000002c0: 638e b1bb 537d 573c 45f1 b43b dcae 03bc
000002d0: 8ea7 49bb 55f7 303b 00bb 473b cb90 153c
000002e0: 5871 f1ba 6588 ed3a 25af 203c 6b0b 943b
000002f0: 9a1e d8bb 84a9 3bbb 63b5 133a abe0 07bc
00000300: 338e 333c 0b75 7d3b 15c5 8f3a 4a5e 823c
00000310: c2a8 f83a 2b14 5e3c 6b25 133c aff0 6d3c
00000320: 3c26 37bc cab3 2fbc 8354 d73b c4a3 883b
00000330: 261d 27ba f33d 31bb 8fe2 88b8 ad1e aebb
00000340: a2e2 d6b9 a25e 003a 4003 63bb c2a4 043c
00000350: c7c2 e93b b0b2 34bc 52e1 5dbc daed 523c
00000360: f72a 933b d8f7 b73b 455a 00bb 63b8 a83b
00000370: 1d98 f63b 7dd1 7e3b 6f52 3bbb 922f 413c
00000380: 0f7a 623b 131a 49bb ddd5 5abc b67f 393c
00000390: ac31 cc3a 3b56 113b d6dc 853b e3ad 1ebb
000003a0: ce90 92bb e726 4c3c d3b0 4dbc a02c bdbc
000003b0: a084 dabb 8af3 29bc a7ea 49bc 0980 30bc
000003c0: 3547 2dbc e69f 33bc 20bf b5bc d9e0 343c
000003d0: fe3f b13b 1a74 7cbb 3169 2abc ba7a 553c
000003e0: c89d 4ebb 57c7 4c3a 0956 48bc 9f6a 5a3c
000003f0: 3ac9 a43c 770e c3bb e9bf 8abc 2ed4 1d3c

action_model._discrete_distribution.branches.2.bias f4 [2]
0.0 0.0
00000000: 0000 0000 0000 0000

action_model._discrete_distribution.branches.3.weight f4 [2, 128]
-0.0031890762 0.0051079667 0.00662846 0.00498033 0.010420219 0.024547605 0.0051521617 0.0026330082
0.0013657355 -0.008178342 -0.0010501468 -0.00030345566 -0.0014561581 -0.033378158 0.005877436 -0.004555208
0.0024876043 -0.013908699 -0.011278215 0.009197069 -0.006505593 0.0036112932 0.013843765 0.007075482
0.00015187287 -0.0048766322 -0.004628411 0.00745087 0.0053072665 0.0093645165 0.014432426 0.0060154716
0.009319208 -0.0038111866 0.00081070553 -0.01210007 -0.0035950735 0.013296147 -0.009940841 -0.002763164
0.0019301845 -0.0023094337 0.018057985 -0.0019739 0.000477986 0.013353467 -0.005818346 -0.015661292
-0.006692802 0.005244664 -0.010776837 0.010149024 -0.004347014 -0.0013803792 -0.020325355 0.0012281712
-0.010888131 0.010809186 0.0014735553 0.0026317777 -0.017227327 0.0020712668 0.0065297927 0.0055615064
-0.0049998066 0.014623605 0.015610918 -0.0026404443 0.0008757447 0.005893184 0.0070284153 0.008175379
0.0056921304 0.0068357997 -0.0107456455 -0.007147122 -0.001687233 0.0040792413 0.0082136905 0.012055295
-0.0062063336 0.007252062 -0.014446162 0.014918067 0.010745123 0.01536896 0.00048541726 0.018157898
-0.0066072117 -0.014325112 -0.007493224 0.004269025 -0.0047670454 0.0124206655 -0.001587401 0.002824185
0.015692342 -0.008843894 -0.00036272279 -0.019234497 0.00057767844 0.00023832153 -0.0036895692 -0.00042287676
-0.0084872525 -0.0073904083 -0.013815532 -0.012242547 0.0024754188 0.016448876 -0.008998132 0.017465344
-0.0063066143 -0.006220306 0.010600901 -0.022852195 -0.009258878 -0.010044081 0.0027202663 0.012909583
0.012444537 -0.008256455 0.0072577544 -0.010356358 0.0025589457 -0.01927262 0.008879601 -0.004785893
0.015082943 0.002603404 -0.012520132 0.00025530913 0.008996743 -0.009350332 0.00364082 0.0059414324
0.006100436 0.007910701 0.004625931 0.009272347 -0.0041819764 -0.00027147087 -0.0056876848 0.012015269
-0.01587022 0.0101314075 0.013469015 0.009606293 0.0054070544 -0.0022934442 0.011235807 -0.012666145
0.0014236685 1.7715737e-06 0.0076208203 0.0057040425 0.002955892 -0.0076356926 0.014552617 0.005069323
0.013184679 -0.007150878 0.0042655803 -0.00483247 -0.002220769 -0.019626653 0.017160773 0.001963144
0.0035854485 -0.006600576 0.0038749885 -0.0037508197 -0.0098950565 -0.0044652694 0.0023811993 -0.013996424
-0.0054519847 0.014113109 -0.0073616095 -0.003174368 0.008082242 -0.00151741 -0.001674868 -0.006908431
0.01552738 -0.006018176 0.0007831828 -0.011908131 -0.006675986 0.004181882 0.016610915 -0.002987689
-0.0047935923 0.003803495 -0.0019556794 -0.007885953 0.0047299466 -0.0009355576 0.0016200197 0.011149451
0.026163641 0.005826212 -3.8541253e-05 0.014362397 -0.011402313 0.0049371785 0.005807937 0.003190275
0.00037321876 0.00033798433 0.0037329898 -0.008556883 0.006519156 0.0029679665 -0.0012838017 -0.008719161
0.009884428 0.011354656 3.5835171e-06 0.00030816856 0.006266507 -0.0004978267 0.0027726914 -0.004452722
-0.002465719 0.0022390296 0.008133647 -0.016436731 0.008261102 0.014557387 0.0063336114 0.011898449
-0.004435836 0.009376804 0.00981972 -0.024376383 0.00042718192 -0.0004611216 0.0014056321 0.010900601
-0.015808633 -0.005030562 -0.0065620914 0.012746157 -0.010938271 0.00405023 0.004732975 -0.0027362492
0.014503494 -0.006116064 0.0012162295 -0.008564505 0.005527211 0.0052254065 -0.01341414 -0.000592146
00000000: d2ff 50bb bb60 a73b 8d33 d93b 0932 a33b
00000010: 91b9 2a3c 0f18 c93c 77d3 a83b 8c8e 2c3b
00000020: 7b02 b33a 74fe 05bc 14a5 89ba 2119 9fb9
00000030: 8fdc beba 89b7 08bd 8297 c03b db43 95bb
00000040: 1307 233b 50e1 63bc 43c8 38bc 4eaf 163c
00000050: df2c d5bb 72ab 6c3b f5d0 623c 72d9 e73b
00000060: 1040 1f39 28cc 9fbb eda9 97bb 6d26 f43b
00000070: 94e8 ad3b a16d 193c fb75 6c3c 6f1d c53b
00000080: 97af 183c 1ac5 79bb 8785 543a 5f3f 46bc
00000090: 539b 6bbb 15d8 593c e9de 22bc 3316 35bb
000000a0: 3ffe fc3a de59 17bb 57ee 933c 8c5c 01bb
000000b0: 329a fa39 80c8 5a3c d3a7 bebb 1c4c 80bc
000000c0: 4b4f dbbb 6edb ab3b 5591 30bc 1848 263c
000000d0: 6571 8ebb d7ed b4ba 5c81 a6bc 96fa a03a
000000e0: 2264 32bc 0319 313c 5024 c13a e779 2c3b
000000f0: 5320 8dbc 17be 073b dff7 d53b 4c3d b63b
00000100: 6bd5 a3bb d897 6f3c f0c4 7f3c 4e0b 2dbb
00000110: 3b92 653a 9c1b c13b 9f4e e63b 06f2 053c
00000120: 0d85 ba3b d8fe df3b 810e 30bc 6832 eabb
00000130: 2526 ddba 28ab 853b b792 063c 9283 453c
00000140: 805e cbbb b5a2 ed3b 98af 6cbc e86a 743c
00000150: 500c 303c 17ce 7b3c 9a7f fe39 dfbf 943c
00000160: 4f81 d8bb e0b3 6abc b889 f5bb 2de3 8b3b
00000170: e034 9cbb 0c80 4b3c 5710 d0ba f615 393b
00000180: 3a8d 803c fbe5 10bc d42b beb9 aa91 9dbc
00000190: 586f 173a f3e5 7939 b3cc 71bb 8fb5 ddb9
000001a0: 1e0e 0bbc 3d2b f2bb 8b5a 62bc f794 48bc
000001b0: a33a 223b cbbf 863c e76c 13bc 7b13 8f3c
000001c0: b7a7 cebb b5d3 cbbb 67af 2d3c 8734 bbbc
000001d0: 8db2 17bc ee8f 24bc 7f46 323b b782 533c
000001e0: 2ce4 4b3c 1546 07bc 75d2 ed3b b7ad 29bc
000001f0: fcb3 273b 9de1 9dbc bf7b 113c fbd2 9cbb
00000200: 731e 773c df9d 2a3b 3d21 4dbc 03db 8539
00000210: 1367 133c 2332 19bc d39a 6e3b 59b0 c23b
00000220: 2be6 c73b e39b 013c 1f95 973b 0beb 173c
00000230: f608 89bb 3454 8eb9 c25f babb b1db 443c
00000240: 4302 82bc 34fe 253c 25ad 5c3c b763 1d3c
00000250: a92d b13b 9c4d 16bb 6416 383c aa85 4fbc
00000260: 639a ba3a cfc6 ed35 13b8 f93b fae8 ba3b
00000270: a3b7 413b d534 fabb 1a6e 6e3c 901c a63b
00000280: 8d04 583c ea51 eabb 48c6 8b3b b259 9ebb
00000290: 528a 11bb 13c8 a0bc c094 8c3c 17a8 003b
000002a0: d8f9 6a3b a549 d8bb 85f3 7d3b 50d0 75bb
000002b0: e01e 22bc 6551 92bb e50d 1c3b 4251 65bc
000002c0: 90a6 b2bb ab3a 673c a839 f1bb 0f09 50bb
000002d0: 616b 043c d5e3 c6ba 3f87 dbba 1f60 e2bb
000002e0: 8d66 7e3c 1f34 c5bb 824e 4d3a 521a 43bc
000002f0: 3bc2 dabb 2b08 893b 9d13 883c 1bcd 43bb
00000300: 9113 9dbb 0f44 793b db2a 00bb 1634 01bc
00000310: abfd 9a3b 3540 75ba d756 d43a 30ac 363c
00000320: 2255 d63c cfe9 be3b 5ba7 21b8 4250 6b3c
00000330: c4d0 3abc 0ec8 a13b 8250 be3b ef13 513b
00000340: 93ac c339 7d33 b139 2da5 743b 2b32 0cbc
00000350: a59e d53b 3782 423b 3d45 a8ba d0da 0ebc
00000360: 4cf2 213c e108 3a3c 5b7c 7036 af91 a139
00000370: 4557 cd3b 9680 02ba 0bb6 353b 24e8 91bb
00000380: e697 21bb afbc 123b fd42 053c 53a6 86bc
00000390: 9359 073c 1b82 6e3c 2f8a cf3b b6f1 423c
000003a0: 7d5a 91bb 2ba1 193c e4e2 203c fbb0 c7bc
000003b0: 63f7 df39 b2c2 f1b9 303d b83a 6f98 323c
000003c0: 1b81 81bc 6ad7 a4bb d006 d7bb 42d5 503c
000003d0: 6f36 33bc cbb7 843b 1217 9b3b a552 33bb
000003e0: 10a0 6d3c 4369 c8bb e469 9f3a 2352 0cbc
000003f0: 9b1d b53b e339 ab3b fbc6 5bbc 3f3a 1bba

action_model._discrete_distribution.branches.3.bias f4 [2]
0.0 0.0
00000000: 0000 0000 0000 0000

action_model._discrete_distribution.branches.4.weight f4 [2, 128]
0.0012837499 0.00713235 0.0072010146 0.0114354845 0.0054423036 -0.00029337578 0.00937854 0.006744291
-0.0034499944 0.0064624557 0.003853919 -0.00034840225 0.014287225 0.0068806293 0.0103883445 0.0142656565
0.0057504964 -0.009732182 -0.0056319567 0.0009082003 0.0062728296 -0.0002623646 -0.0021725092 0.0021409336
0.007852357 -0.011552355 -0.007098214 -0.0018561919 -0.0015956542 0.0075198854 0.003714636 0.00026774986
-0.008176691 0.0072060945 -0.012428409 0.025052873 -0.006808955 -0.008684869 -0.0018266138 -0.0001585705
-0.0061418167 0.0057311202 -0.000366478 -0.003116099 0.0009945072 -0.017343193 0.008280426 0.009213922
0.007119179 0.016292963 -0.00925631 -0.0030163683 -0.0007300739 -0.00041391837 0.011741416 0.008563992
0.0026221394 -0.0098145045 -0.009103403 0.0039348034 0.00073661475 0.00023891691 -0.016224898 -0.004834633
-0.01397776 0.0014109476 -0.012919567 -0.0048422604 -0.012780328 -0.0130120665 0.008464153 0.0029463607
-0.00681574 -0.016897429 0.0011525437 0.017356036 -0.0050984686 -0.01453833 0.015095952 -0.0015789161
0.01787403 -0.012166641 0.0023342848 -0.0060417075 0.007315071 -0.004795708 0.0063100006 0.006533298
0.007415847 0.005603845 0.003213205 -0.010256571 -0.008449961 -0.010833591 0.0028886267 0.0006053377
0.008138414 -0.0038267956 0.005981883 5.750622e-05 -0.008598833 -0.007940475 0.002820806 -0.016367897
0.003180728 -0.0077408813 0.009618116 -0.013572554 0.008689781 -0.010849943 0.0053910883 0.012627
0.010346687 -0.012134937 -0.00015446437 -0.0034009684 0.0010756276 -0.018180098 -0.009510571 0.0134454435
-0.00084473187 0.0047453544 0.0006754953 0.017502284 0.00061292545 -0.0065953457 0.011608864 0.016008025
-0.0042421254 0.004070217 0.0012270854 -0.010406597 -0.014580511 -0.0016736559 -0.0016157856 -0.013352202
0.014095758 0.005494665 -0.0025937571 0.018042324 0.015307377 0.0044071656 -0.027808517 0.002837585
0.0010759913 0.0021574402 -0.0025883878 -0.0035860434 0.016797317 0.008568934 0.005399398 -0.008063493
0.0058484296 0.011706994 0.00028291155 -0.006367013 -0.0027505218 -0.016580997 -0.00442735 0.0023449096
-0.012232251 -0.009332218 0.010388936 -0.000553352 0.004015531 -0.002156725 -0.0027266948 -0.0019427335
-0.019330367 0.004616192 -0.0038397645 0.008791889 0.010501553 -0.0023805113 -0.0040817545 0.00075627764
-0.00041391279 0.013595474 -0.009595383 0.013137847 0.012068096 0.00086939195 -0.014877182 0.013777721
0.009888443 -0.018904775 0.00876235 -0.014013528 -0.015531679 -0.0025175323 -0.011102709 0.0034748006
0.007448347 0.011132293 0.0032270353 0.011770118 -0.0023944913 0.0021094105 0.008181457 -0.010095214
0.007131794 -0.011507957 -0.010060927 -0.010335088 -0.016806541 0.012960361 0.0077068666 -0.005994055
-0.0022858111 0.0046019456 0.0009160799 -0.0019623968 0.010656635 0.00031660558 0.0007412236 0.0075783874
-0.0039053762 0.0057082223 0.0069159283 0.014265941 -0.011751167 0.003311847 -0.00025676834 -0.0014811977
-0.0025636905 -0.0030807226 -0.014762749 -0.008113213 0.0060550445 -0.015038549 0.013713384 2.2078872e-05
-0.0012082924 -0.011588771 0.00072184455 0.0013631171 -0.004840137 0.002543428 -0.0008655066 -0.011734257
0.00810689 -0.00031425635 -0.0075500146 0.0021251207 -0.0041211355 -0.015670901 0.004138846 0.016274316
0.00033308702 -0.00076572195 0.010124806 0.005482798 0.00062730623 -0.015456172 -0.004579713 0.013071629
00000000: 8043 a83a 7db6 e93b 7df6 eb3b e65b 3b3c
00000010: 5a55 b23b 3bd0 99b9 73a8 193c 37ff dc3b
00000020: 4d19 62bb 02c3 d33b 0892 7c3b c2a9 b6b9
00000030: f714 6a3c e776 e13b e033 2a3c 80ba 693c
00000040: a96e bc3b bb73 1fbc 478c b8bb 4a14 6e3a
00000050: 4f8c cd3b fb8d 89b9 a860 0ebb e84e 0c3b
00000060: 2ca7 003c 1746 3dbc 2298 e8bb 774b f3ba
00000070: 4525 d1ba 5f69 f63b 4071 733b c760 8c39
00000080: 87f7 05bc 1a21 ec3b 87a0 4bbc af3b cd3c
00000090: a81d dfbb fb4a 0ebc fd6a efba f245 26b9
000000a0: 4b41 c9bb 1fcc bb3b d823 c0b9 7737 4cbb
000000b0: 205a 823a 5013 8ebc a0aa 073c fdf5 163c
000000c0: 0048 e93b d278 853c c7a7 17bc 43ae 45bb
000000d0: 6e62 3fba 2f03 d9b9 115f 403c fc4f 0c3c
000000e0: 33d8 2b3b 04cd 20bc 7126 15bc 86ef 803b
000000f0: 6119 413a c585 7a39 14ea 84bc d76b 9ebb
00000100: fa02 65bc 8cef b83a 97ac 53bc d3ab 9ebb
00000110: 9564 51bc 9030 55bc 3bad 0a3c bb17 413b
00000120: 9256 dfbb 7a6c 8abc f310 973a 3f2e 8e3c
00000130: 0e11 a7bb 2d32 6ebc 0355 773c a2f3 ceba
00000140: 8f6c 923c 9756 47bc cdfa 183b 84f9 c5bb
00000150: 43b3 ef3b 5125 9dbb 1fc4 ce3b 4715 d63b
00000160: a200 f33b 76a0 b73b a294 523b 2d0b 28bc
00000170: b571 0abc 607f 31bc 1d4f 3d3b 86af 1e3a
00000180: fb56 053c faca 7abb ac03 c43b d532 7138
00000190: 1fe2 0cbc c418 02bc 46dd 383b f815 86bc
000001a0: c373 503b 38a7 fdbb 4d95 1d3c 6b5f 5ebc
000001b0: 955f 0e3c f6c3 31bc baa7 b03b 7ae1 4e3c
000001c0: 2785 293c 9dd1 46bc b7f7 21b9 c8e2 5ebb
000001d0: 13fc 8c3a 6eee 94bc 3ad2 1bbc 474a 5c3c
000001e0: ff70 5dba eb7e 9b3b b913 313a f360 8f3c
000001f0: bbac 203a c51d d8bb 1b33 3e3c 4323 833c
00000200: 8701 8bbb 745f 853b 27d6 a03a 6e80 2abc
00000210: 18e3 6ebc 935e dbba c5c8 d3ba 32c3 5abc
00000220: e5f1 663c 970c b43b 06fc 29bb 7fcd 933c
00000230: cbcb 7a3c fc69 903b b0ce e3bc c7f6 393b
00000240: 4708 8d3a d763 0d3b f1a1 29bb d303 6bbb
00000250: 879a 893c b764 0c3c 6fed b03b be1c 04bc
00000260: 2fa4 bf3b b1ce 3f3c bf53 9439 60a2 d0bb
00000270: 1942 34bb dfd4 87bc 4e13 91bb 0ead 193b
00000280: c869 48bc 29e6 18bc 5b36 2a3c d30e 11ba
00000290: b794 833b d757 0dbb 59b2 32bb 52a3 feba
000002a0: b85a 9ebc 6d43 973b 8fa4 7bbb db0b 103c
000002b0: b50e 2c3c 5a02 1cbb 3dc0 85bb ef40 463a
000002c0: 6f02 d9b9 8dbf 5e3c f435 1dbc 2040 573c
000002d0: 43b9 453c e8e7 633a 6dbf 73bc f3bb 613c
000002e0: 2303 223c 30de 9abc f68f 0f3c ff98 65bc
000002f0: 9578 7ebc 2ffd 24bb 23e8 35bc 7bb9 633b
00000300: 4311 f43b 3964 363c ab7c 533b 74d7 403c
00000310: e6ec 1cbb 093e 0a3b 850b 063c 6566 25bc
00000320: d3b1 e93b df8b 3cbc 96d6 24bc 8054 29bc
00000330: dfad 89bc b257 543c e289 fc3b c769 c4bb
00000340: 8ccd 15bb ebcb 963b 1525 703a 8e9b 00bb
00000350: 2b99 2e3c 15fe a539 ac4e 423a 1f54 f83b
00000360: 57f1 7fbb 0a0c bb3b 039f e23b b2bb 693c
00000370: f787 40bc 930b 593b dd9e 86b9 bf24 c2ba
00000380: 9703 28bb f3e5 49bb 75df 71bc 48ed 04bc
00000390: 6569 c63b 3f64 76bc 1aae 603c 0436 b937
000003a0: 915f 9eba d4de 3dbc 2b3a 3d3a 9faa b23a
000003b0: 039a 9ebb a4af 263b 2ae3 62ba 0b41 40bc
000003c0: c3d2 043c c6c2 a4b9 1d66 f7bb 9c45 0b3b
000003d0: 970a 87bb 4360 80bc 289f 873b b751 853c
000003e0: 2fa2 ae39 bbba 48ba 84e2 253c 0ba9 b33b
000003f0: cf71 243a e23b 7dbc 6b11 96bb 632a 563c

action_model._discrete_distribution.branches.4.bias f4 [2]
0.0 0.0
00000000: 0000 0000 0000 0000
