Assets/results/ppo/My Behavior/My Behavior-42.pt (torch, 219559 bytes, 38 tensors)

discrete_act_size_vector f4 [1, 14]
000000 00 00 00 40 00 00 00 40 00 00 00 40 00 00 00 40
       2.0 2.0 2.0 2.0
000010 00 00 00 40 00 00 00 40 00 00 00 40 00 00 20 41
       2.0 2.0 2.0 10.0
000020 00 00 20 41 00 00 20 41 00 00 20 41 00 00 20 41
       10.0 10.0 10.0 10.0
000030 00 00 20 41 00 00 20 41
       10.0 10.0

network_body._body_endoder.seq_layers.0.weight f4 [128, 24]
000000 51 61 2f 3e c9 b4 a6 be 12 e5 41 3e 1f ca d8 bd
       0.17126967 -0.32559803 0.1893504 -0.105854265
000010 10 c9 52 3e e6 d5 7f 3d 9f 65 d7 be 9b da 0a 3d
       0.20584512 0.06245985 -0.42069718 0.033899885
000020 41 5e 57 3e 59 be d0 3d 49 33 9f be 18 2a 37 3d
       0.21032049 0.10192556 -0.31093815 0.044717878
000030 d0 4d 4a 3e 01 ff 97 3e ef 6a 4f bd 0c 22 85 3d
       0.19756246 0.2968674 -0.05063909 0.065006346
000040 a5 52 8c be 36 26 0a 3e 8b a7 b0 3e 31 e4 1b be
       -0.27406803 0.13491139 0.34502825 -0.15223767
000050 13 53 d5 3d ca 39 1e 3e b5 ce 88 3e f9 80 7c 3c
       0.10416236 0.15451732 0.26720205 0.015411609
000060 b5 ec b9 be ff 37 28 3e a5 d6 3d 3d a7 37 a9 bd
       -0.36313406 0.16427611 0.04634728 -0.08262568
000070 1b 62 72 be 6e 30 30 ba 97 92 7a 3e 12 9e b2 3b
       -0.23670237 -0.0006721084 0.24469982 0.0054509724
000080 95 07 77 3e 96 22 8e 3d d7 cd ff bc 80 d6 07 3e
       0.24123986 0.069401905 -0.031226082 0.13265419
000090 fa d9 79 3e 8a 9b bc 3c 59 61 4d bd 8d 9d a1 3d
       0.24399558 0.023023386 -0.050141666 0.078913786
0000a0 03 65 91 3d 32 af 26 be 39 b7 45 3d 8a 5b a7 bd
       0.070993446 -0.16277769 0.048270438 -0.081717566
0000b0 79 25 1e 3d e6 76 8e 3d 11 55 19 be 0e 21 32 3e
       0.038609955 0.06956272 -0.14973857 0.17395422
0000c0 54 58 3d be 85 12 c7 3d 9e e7 95 3d 37 33 74 bc
       -0.18490726 0.09720329 0.07319568 -0.014904789
0000d0 da 32 74 be 30 26 a8 3e 72 a6 c7 bd 5c 0f d4 be
       -0.23847523 0.32841635 -0.09748544 -0.41417968
0000e0 df d1 4b bd 8b b0 d4 3e 31 5e 76 be 3f 39 10 be
       -0.049760696 0.41540942 -0.24059369 -0.14084338
0000f0 34 67 aa 3c a3 8c 66 3e f4 42 76 bd 1e 33 0b be
       0.020801164 0.22514586 -0.060122445 -0.13593718
000100 06 e1 3c 3c 4b 5e f0 bd e1 43 38 be b6 9d 96 3d
       0.011528259 -0.11736735 -0.17994644 0.073543
000110 5b 0d 57 be 52 ac ba 3d de 6c c6 3d 26 57 64 bb
       -0.21001188 0.09114899 0.096887335 -0.0034841984
000120 93 4c 1b be 15 cc bf bd b6 27 0c 3d ef 27 01 3e
       -0.1516593 -0.093650974 0.03421756 0.1261289
000130 91 23 59 be 90 83 2b be 5b 95 54 3e a1 0b 64 3e
       -0.21204974 -0.16749406 0.207601 0.22270061
000140 98 12 36 be 31 8a 7b be ea 43 db 3d 31 11 97 bd
       -0.1778053 -0.24564435 0.10706313 -0.07376326
000150 7f 27 b1 be 94 2c ec bb 08 59 40 3e 27 ae f1 bc
       -0.34600446 -0.0072074626 0.18783963 -0.029501988
000160 56 f9 9d be 8f 43 62 3e e9 79 75 3e fa aa 28 3e
       -0.3085429 0.22096084 0.23972286 0.16471472
000170 23 e1 17 3e 00 9d 7f 3e 87 16 6a bb 1f 3f b1 be
       0.14831977 0.24962234 -0.0035718994 -0.3461847
000180 3e ba 62 3d f6 3a 08 3e 88 8a 0e 3e 0a 26 b3 be
       0.055353396 0.13303742 0.13920033 -0.3498996
000190 1f c3 52 be 31 c8 99 3d 63 e5 93 be 96 07 2b be
       -0.20582245 0.075088866 -0.28885946 -0.16702113
0001a0 59 98 21 be 55 b6 f7 bd 33 f4 ca bd c5 62 8e be
       -0.15780772 -0.12095324 -0.099098586 -0.2780973
0001b0 1b a1 ca bd 45 77 c6 bd dd c9 09 be 2d 75 84 3a
       -0.0989401 -0.096907176 -0.13455911 0.0010105722
0001c0 14 4b fc be 83 1a 88 be d2 5f 9f be 6a 57 95 3d
       -0.4927603 -0.26582727 -0.31127793 0.072920635
0001d0 e0 16 a7 3c 77 5d bb 3d 38 fc 02 3e 58 69 90 be
       0.02039665 0.091486864 0.12791526 -0.2820537
0001e0 45 cf b1 3e f5 48 3f 3e bd ea 3b bd 0f 66 da be
       0.34728447 0.18680175 -0.04587816 -0.4265599
0001f0 b4 55 57 3e ea d3 bd 3e d5 a6 59 bc 8a f3 e6 3e
       0.21028787 0.3707574 -0.013284405 0.4510768
000200 c4 11 8a 3e 31 eb d3 3e 27 85 4e be 8a 9e ab 3e
       0.2696668 0.41390374 -0.20167981 0.33519393
000210 26 93 c2 be f5 63 d2 3c df 77 04 3e 5b 31 80 3e
       -0.3800289 0.025682429 0.12936352 0.25037655
000220 47 d4 9b bc b8 a0 97 bd 9f 83 fd 3d 1a 40 95 bd
       -0.01902212 -0.074037015 0.1237862 -0.07287617
000230 ab 55 49 bd c9 c7 54 3e 16 25 89 3e b9 7b 82 be
       -0.049153965 0.20779337 0.26786107 -0.25485018
000240 e6 53 97 bd 9a 5a bf 3e e8 e0 19 3e 6d 31 ce 3d
       -0.07389049 0.3737381 0.15027201 0.10068021
000250 38 43 b7 be 03 9a 9d 3e b6 21 a8 bd 60 db 88 3e
       -0.3579347 0.30781564 -0.08209555 0.2672987
000260 42 bf d7 3d 16 76 52 be fa 66 07 3e 90 e7 38 3e
       0.105345264 -0.20552859 0.13222876 0.18057084
000270 4e 86 c4 3e e1 8c 2f be 79 03 ec be 3c db ce bc
       0.38383716 -0.17143585 -0.460964 -0.025251023
000280 e9 80 5b be f7 f5 a1 3d b7 5b 82 3d eb 24 22 3e
       -0.21435894 0.07908242 0.063651495 0.15834396
000290 aa 4b e9 bd 2b 47 22 be f8 65 cd bc 13 b9 cd 3e
       -0.11391385 -0.15847461 -0.025073037 0.40180263
0002a0 24 07 83 be ca 60 73 be 80 27 c2 be fc 52 fd 3e
       -0.25591385 -0.23767391 -0.3792076 0.49477375
0002b0 b8 72 33 3d fd 7a 08 bd 92 0d 99 3c 94 f4 57 be
       0.043810576 -0.033320416 0.018683229 -0.21089393
0002c0 2b 7c b1 be 9a fb 64 3e d8 22 7a 3e c7 68 26 be
       -0.34665045 0.22361603 0.24427354 -0.16250907
0002d0 df 7b 9c 3e 4c ad 0b 3e 40 a5 a4 be eb d4 35 be
       0.30563256 0.13640326 -0.32157326 -0.17757003
0002e0 fe a9 88 3d 7c 24 cf 3d b1 45 53 be 48 a8 b3 3c
       0.066730484 0.10114381 -0.20632054 0.021930829
0002f0 3e 80 28 be 2f f3 39 be e9 fc a7 3d f1 dd 3a be
       -0.1645517 -0.18159173 0.08202536 -0.18248726
000300 d7 1f f1 3d c9 fa 7e 3d 7e 91 fc 3d 64 2c c4 bd
       0.11773651 0.062250886 0.12332438 -0.09578779
000310 c6 5d a9 be eb 42 81 bd a1 d0 99 bd 74 10 66 bc
       -0.33079356 -0.06311592 -0.07510496 -0.014042009
000320 4c 03 72 be d8 f9 88 3e 26 39 03 3c 82 74 f0 3d
       -0.2363407 0.26753116 0.008009231 0.11740972
000330 61 db 11 3e 74 32 3e 3e 52 89 1d 3e f4 5c 11 be
       0.14243843 0.18573934 0.15384415 -0.14195615
000340 a9 5d 17 bd 82 13 80 bd da d3 ac bb fe 32 a0 be
       -0.036954556 -0.06253721 -0.005274278 -0.31288904
000350 d9 94 47 3e 5f db a9 3e 0e 34 71 3d ba 6a 4a be
       0.19490375 0.3317518 0.058887534 -0.19767275
000360 c8 2d ce bd 28 1f 2c be 6f 8c 09 be df 31 87 bd
       -0.10067326 -0.1680876 -0.13432477 -0.06601309
000370 c2 66 7d be 9e 3a 68 3e a1 3c 08 be 3f 8f 41 bd
       -0.2474623 0.2267861 -0.13304378 -0.04725575
000380 d8 4b a0 bd 0b 9e af 3e 14 da 3a 3c 03 f9 93 be
       -0.07826966 0.34300265 0.011404533 -0.28900918
000390 9c 95 a6 3d 87 8a 48 3e 95 35 ff bd 56 4d b3 be
       0.081340045 0.19584094 -0.12461392 -0.3501994
0003a0 b6 78 b0 3e 23 21 19 bc e0 51 da 3d 5d 22 05 3e
       0.34467095 -0.009346279 0.10660148 0.1300139
0003b0 b8 cd 9e 3e 68 60 96 3d cb 8b a4 3d 5e 2c a7 bd
       0.31016326 0.07342607 0.08034476 -0.08162759
0003c0 b3 ea 81 be d1 86 a6 be 31 9f 38 bd 8d f8 a0 bd
       -0.25374374 -0.32524732 -0.04507369 -0.07859907
0003d0 8b e3 e8 be 14 48 ee 3c 67 5c ad be 09 64 c2 bd
       -0.45486102 0.029087104 -0.3385956 -0.094917364
0003e0 19 d3 3c 3d 5d d3 f5 3e 37 9e 38 3d 19 1a 5b be
       0.046099756 0.4801282 0.04507276 -0.21396674
0003f0 8d 5b 2e be 50 40 1e 3e 00 c4 73 be 39 74 f9 3c
       -0.17027111 0.15454221 -0.23805237 0.030450927

network_body._body_endoder.seq_layers.0.bias f4 [128]
000000 00 00 00 00 00 00 00 00 00 00 00 00 00 00 00 00
       0.0 0.0 0.0 0.0
000010 00 00 00 00 00 00 00 00 00 00 00 00 00 00 00 00
       0.0 0.0 0.0 0.0
000020 00 00 00 00 00 00 00 00 00 00 00 00 00 00 00 00
       0.0 0.0 0.0 0.0
000030 00 00 00 00 00 00 00 00 00 00 00 00 00 00 00 00
       0.0 0.0 0.0 0.0
000040 00 00 00 00 00 00 00 00 00 00 00 00 00 00 00 00
       0.0 0.0 0.0 0.0
000050 00 00 00 00 00 00 00 00 00 00 00 00 00 00 00 00
       0.0 0.0 0.0 0.0
000060 00 00 00 00 00 00 00 00 00 00 00 00 00 00 00 00
       0.0 0.0 0.0 0.0
000070 00 00 00 00 00 00 00 00 00 00 00 00 00 00 00 00
       0.0 0.0 0.0 0.0
000080 00 00 00 00 00 00 00 00 00 00 00 00 00 00 00 00
       0.0 0.0 0.0 0.0
000090 00 00 00 00 00 00 00 00 00 00 00 00 00 00 00 00
       0.0 0.0 0.0 0.0
0000a0 00 00 00 00 00 00 00 00 00 00 00 00 00 00 00 00
       0.0 0.0 0.0 0.0
0000b0 00 00 00 00 00 00 00 00 00 00 00 00 00 00 00 00
       0.0 0.0 0.0 0.0
0000c0 00 00 00 00 00 00 00 00 00 00 00 00 00 00 00 00
       0.0 0.0 0.0 0.0
0000d0 00 00 00 00 00 00 00 00 00 00 00 00 00 00 00 00
       0.0 0.0 0.0 0.0
0000e0 00 00 00 00 00 00 00 00 00 00 00 00 00 00 00 00
       0.0 0.0 0.0 0.0
0000f0 00 00 00 00 00 00 00 00 00 00 00 00 00 00 00 00
       0.0 0.0 0.0 0.0
000100 00 00 00 00 00 00 00 00 00 00 00 00 00 00 00 00
       0.0 0.0 0.0 0.0
000110 00 00 00 00 00 00 00 00 00 00 00 00 00 00 00 00
       0.0 0.0 0.0 0.0
000120 00 00 00 00 00 00 00 00 00 00 00 00 00 00 00 00
       0.0 0.0 0.0 0.0
000130 00 00 00 00 00 00 00 00 00 00 00 00 00 00 00 00
       0.0 0.0 0.0 0.0
000140 00 00 00 00 00 00 00 00 00 00 00 00 00 00 00 00
       0.0 0.0 0.0 0.0
000150 00 00 00 00 00 00 00 00 00 00 00 00 00 00 00 00
       0.0 0.0 0.0 0.0
000160 00 00 00 00 00 00 00 00 00 00 00 00 00 00 00 00
       0.0 0.0 0.0 0.0
000170 00 00 00 00 00 00 00 00 00 00 00 00 00 00 00 00
       0.0 0.0 0.0 0.0
000180 00 00 00 00 00 00 00 00 00 00 00 00 00 00 00 00
       0.0 0.0 0.0 0.0
000190 00 00 00 00 00 00 00 00 00 00 00 00 00 00 00 00
       0.0 0.0 0.0 0.0
0001a0 00 00 00 00 00 00 00 00 00 00 00 00 00 00 00 00
       0.0 0.0 0.0 0.0
0001b0 00 00 00 00 00 00 00 00 00 00 00 00 00 00 00 00
       0.0 0.0 0.0 0.0
0001c0 00 00 00 00 00 00 00 00 00 00 00 00 00 00 00 00
       0.0 0.0 0.0 0.0
0001d0 00 00 00 00 00 00 00 00 00 00 00 00 00 00 00 00
       0.0 0.0 0.0 0.0
0001e0 00 00 00 00 00 00 00 00 00 00 00 00 00 00 00 00
       0.0 0.0 0.0 0.0
0001f0 00 00 00 00 00 00 00 00 00 00 00 00 00 00 00 00
       0.0 0.0 0.0 0.0

network_body._body_endoder.seq_layers.2.weight f4 [128, 128]
000000 4f 09 bb 3c 1a b7 a8 bd 24 9e 15 3e a0 32 08 3e
       0.022831587 -0.08238049 0.14611107 0.13300562
000010 86 09 36 3e ce 3c 0e bc 72 16 9b bc 48 d4 8a 3d
       0.1777707 -0.008681489 -0.018931601 0.06778771
000020 7c b3 de bc 14 fb 92 3d d6 b9 46 bd f3 18 42 3c
       -0.027185194 0.071767956 -0.04851707 0.011846769
000030 9e 7f 22 3d 35 5f 4f bd a8 41 0d bc 1c 72 80 3d
       0.039672486 -0.050627906 -0.008621611 0.06271765
000040 38 61 b0 bd 48 72 bc bc f4 09 1d 3e 1e 6b 0b 3e
       -0.08612293 -0.023003712 0.15335828 0.1361508
000050 c8 e5 94 3d 0c 4f 2d 3d 46 e4 6d bc 4c 01 21 bd
       0.0727039 0.042311713 -0.014519757 -0.039307877
000060 42 3e 06 bc 6f 89 fc 3d e9 77 f2 bb 2f b8 9f 3c
       -0.008193554 0.12330901 -0.0073995483 0.019497005
000070 27 48 59 bd 1b 24 06 3d 1d 63 3b be 6b 6d 42 3d
       -0.053047325 0.032749277 -0.18299527 0.04746763
000080 bf 9f 36 be 4e ce 7b 3c 6f ae f1 bc 01 7b 2a bd
       -0.17834376 0.015369011 -0.029502122 -0.041621212
000090 b6 65 46 3d 7f 3c cf 3c d7 8c cc 3c d4 93 c0 3d
       0.048436843 0.025297401 0.024969501 0.09403196
0000a0 53 44 61 3d 2b 9a e3 ba 60 fd 45 3d b0 06 06 3d
       0.0549968 -0.0017364671 0.04833734 0.03272122
0000b0 65 12 02 3e 6d 9d 8f bc d9 93 e8 3d ce d6 5b bc
       0.1270233 -0.017531121 0.11356325 -0.013417913
0000c0 e4 a2 e7 3c b9 79 b8 bc bd f0 e5 bb 69 0a bd 3d
       0.028275914 -0.02251898 -0.0070172236 0.09230501
0000d0 12 94 8b bd 91 06 0b be 07 d5 05 bc 63 0c 5e bc
       -0.068153515 -0.13576724 -0.008168465 -0.013552758
0000e0 e8 b3 b3 3c ba 88 b7 bd fd 37 82 bc 39 ce 80 bd
       0.021936372 -0.089616254 -0.015895838 -0.06289334
0000f0 55 a9 0a 3e 08 08 ad bd 1a f1 9c bd e4 c1 dd 3c
       0.13541158 -0.084487975 -0.07663174 0.027069993
000100 1a 24 1e 3c 28 1e 59 3d 51 82 0d 3e e8 8a 70 3d
       0.009652162 0.053007275 0.13819243 0.05872622
000110 70 d3 28 bd a1 b8 84 3d 1f 2e a0 bd f6 c7 cb bd
       -0.041217268 0.06480528 -0.07821297 -0.09950249
000120 b4 3b 9b ba 8a 65 f0 bc 91 b9 a9 3d 45 a4 1d 3d
       -0.0011843354 -0.029345293 0.08287347 0.038486738
000130 7d b3 c7 bd 91 94 91 bd 5d 7c 69 3d dc 38 d2 bd
       -0.097510315 -0.07108415 0.057003368 -0.10264751
000140 ba 37 29 3d 09 5a b4 3d 22 10 af bc bc 3a b1 bc
       0.04131291 0.08806235 -0.021369997 -0.021634452
000150 67 74 aa bd 2b b0 f7 bc 9c aa c8 3d f0 b7 ca bd
       -0.08322983 -0.03023537 0.09798166 -0.098983645
000160 41 36 2a bd 77 c2 39 39 f7 0c 46 3e 28 73 14 3e
       -0.041555647 0.00017715419 0.19340883 0.14497054
000170 db 4b fb bc 07 aa 0c bd fa a9 f2 bd 56 2c ff bd
       -0.03067582 -0.03434184 -0.11848827 -0.12459628
000180 06 b2 16 be 4a 8f b0 3d 9e 97 15 3e 2f d4 3d bd
       -0.14716348 0.0862108 0.14608619 -0.046344932
000190 b2 87 cf 3d d5 cf 26 3e f6 3d f7 bd ec 92 8c bd
       0.10133304 0.16290219 -0.12072365 -0.068639606
0001a0 b6 ed a4 3d d3 7c 56 bd 3f 18 9d 3d 92 49 c5 bc
       0.08053152 -0.052365135 0.0767064 -0.024082933
0001b0 11 5f df 3d 15 e1 84 bc 97 35 da bc f7 8c 1c bd
       0.10906804 -0.016220609 -0.026636882 -0.038220372
0001c0 ca 1c 11 3e be a1 98 bd d1 a1 eb 3d 2f 0b 59 bd
       0.14171138 -0.07452725 0.115054734 -0.05298918
0001d0 0a 90 15 bc 6f 43 61 3d d9 61 b7 bd 2d ef 28 3d
       -0.00912858 0.05499595 -0.0895421 0.04124372
0001e0 97 76 e5 bc 1f 8b 95 3c eb fc d1 bd 28 ad db bd
       -0.02801065 0.018254815 -0.102533184 -0.10726386
0001f0 7e 78 45 3c 92 8e 5e 3d ea 50 88 bc b0 8d cf 3c
       0.012052653 0.054335184 -0.016640145 0.025336117
000200 b0 a1 fe 3c 9d 79 78 3e 30 4c 0b bd a2 58 10 3d
       0.031082958 0.24265142 -0.034008205 0.035240777
000210 d0 eb fb 3d 5e fb 6a 3d 84 21 de 3d ef ea 27 3e
       0.12300837 0.05736863 0.10846236 0.16398214
000220 e8 82 9d bd b3 5b 19 be 6d 28 5e bd 9c ca c1 bd
       -0.07690984 -0.14976387 -0.05423777 -0.09462473
000230 cf 04 04 be 8e 27 17 bd 13 42 2d 3e 1c 33 96 3d
       -0.1289246 -0.036902957 0.16919737 0.07333967
000240 c8 5f 05 3d 33 3b 0a be 3f b8 fb bb ff fb 1f be
       0.032562047 -0.13499145 -0.007681876 -0.15623473
000250 99 9d fe bc 51 8f e0 3c 35 4b 4d 3d fa 42 5a bd
       -0.031081008 0.027412089 0.05012055 -0.05328653
000260 f0 0a 4d bd d7 8d 56 bd 59 de 16 3e 9d e1 be bd
       -0.05005926 -0.052381363 0.14733256 -0.09320376
000270 8b 9e be bd 83 e1 27 be 29 b1 1e 3d f2 45 41 bd
       -0.093075834 -0.1639462 0.03874317 -0.047185846
000280 46 d9 05 be f8 5a ce bc 55 c2 ce 3d f7 27 2b 3d
       -0.13071164 -0.025189862 0.1009566 0.04178616
000290 bc ac 2f bd b6 ae 22 be 47 5f db 3d 0b 37 5f bd
       -0.04288934 -0.1588696 0.10711532 -0.054495852
0002a0 48 d9 f6 bd 10 34 1e be 4a c0 a0 bd 63 a1 2f 3d
       -0.12053162 -0.15449548 -0.07849176 0.04287852
0002b0 5c a8 05 3e 79 b3 d1 3d fd 66 75 3d 7c ff c2 3d
       0.13052505 0.1023931 0.05991267 0.09521386
0002c0 d9 bc 81 bd 52 04 02 be 94 b7 95 bc c2 78 c1 3c
       -0.06334848 -0.1269696 -0.018276013 0.023617152
0002d0 89 15 5f 3d 8b 10 dc bd 71 07 20 be fd 08 3e bd
       0.054463897 -0.10745343 -0.15627839 -0.04639529
0002e0 17 97 36 be f5 7e dc bd 14 8c 35 3d c6 96 a5 3d
       -0.17831074 -0.10766403 0.044323042 0.080853984
0002f0 03 4e 2f 3e aa 2e 82 3d a4 97 3b bc 3f a3 dd bd
       0.17119603 0.06356557 -0.011449728 -0.10822152
000300 fb ca d6 3d 2d b5 64 bb 67 d7 29 bd fb 4d 29 3c
       0.10487934 -0.0034898028 -0.04146519 0.010333533
000310 90 a6 62 bd 0b 43 b2 3d 51 bb a5 3d a7 46 1d 3d
       -0.055334628 0.08704194 0.080923684 0.038397457
000320 39 ed 42 3e 63 52 fa 3a 84 b0 4c 3d 3f cf 96 bd
       0.19035806 0.001909804 0.049973026 -0.07363748
000330 11 5f 86 bd d5 ff 43 3d 3e f3 0a 3c f1 18 cc bd
       -0.06561101 0.047851402 0.008480845 -0.09965695
000340 0e 7c 16 be 34 6a 25 3e f9 fd 83 be 6f b1 16 be
       -0.1469576 0.16153795 -0.25779703 -0.14716123
000350 99 86 a1 bd ab bb 3f bd b6 eb c1 3d c7 d3 56 bd
       -0.078870006 -0.046809833 0.094687864 -0.05244806
000360 bf 55 13 bd b8 9c 81 3d 69 8c f7 bc 36 6f 8e 3d
       -0.035970446 0.0632872 -0.03021832 0.069548056
000370 52 3d 30 3d a5 b8 37 3a 51 a0 a9 3d 1d e3 b8 bd
       0.04302723 0.000700841 0.08282531 -0.090276934
000380 bd 28 1e 3d fc 37 d7 3d f3 a0 a8 3a 79 6e ed bd
       0.03861307 0.10508725 0.0012865349 -0.115933366
000390 1a c8 3c 3e 83 0a c3 3d 13 df f3 3c c9 00 25 3d
       0.18435708 0.09523489 0.029769456 0.040283952
0003a0 c9 96 37 bd 74 f7 f2 bd d2 cc 54 bd bb de 45 3d
       -0.044821534 -0.11863604 -0.051953144 0.048308115
0003b0 a0 d7 e9 3c ee c6 7c 3d 9a 3c f4 3c ec 0e 98 bb
       0.0285452 0.06171315 0.029814053 -0.0046404507
0003c0 e8 07 02 bb d7 46 83 3c 54 94 18 3d e4 51 82 bc
       -0.0019841138 0.01602499 0.03725083 -0.01590819
0003d0 bd fd 2a be 88 d6 11 be 59 13 e8 bd c0 37 c8 3d
       -0.16698356 -0.14241993 -0.11331815 0.097762585
0003e0 33 41 b4 bd ae f4 cb bd 4c e5 e3 3d da 3a 36 be
       -0.08801498 -0.09958778 0.11127719 -0.17795888
0003f0 94 bb 91 bd 04 55 a9 bd 38 b2 1f bd e1 d5 d3 bc
       -0.07115856 -0.082681686 -0.038988322 -0.025858821

network_body._body_endoder.seq_layers.2.bias f4 [128]
000000 00 00 00 00 00 00 00 00 00 00 00 00 00 00 00 00
       0.0 0.0 0.0 0.0
000010 00 00 00 00 00 00 00 00 00 00 00 00 00 00 00 00
       0.0 0.0 0.0 0.0
000020 00 00 00 00 00 00 00 00 00 00 00 00 00 00 00 00
       0.0 0.0 0.0 0.0
000030 00 00 00 00 00 00 00 00 00 00 00 00 00 00 00 00
       0.0 0.0 0.0 0.0
000040 00 00 00 00 00 00 00 00 00 00 00 00 00 00 00 00
       0.0 0.0 0.0 0.0
000050 00 00 00 00 00 00 00 00 00 00 00 00 00 00 00 00
       0.0 0.0 0.0 0.0
000060 00 00 00 00 00 00 00 00 00 00 00 00 00 00 00 00
       0.0 0.0 0.0 0.0
000070 00 00 00 00 00 00 00 00 00 00 00 00 00 00 00 00
       0.0 0.0 0.0 0.0
000080 00 00 00 00 00 00 00 00 00 00 00 00 00 00 00 00
       0.0 0.0 0.0 0.0
000090 00 00 00 00 00 00 00 00 00 00 00 00 00 00 00 00
       0.0 0.0 0.0 0.0
0000a0 00 00 00 00 00 00 00 00 00 00 00 00 00 00 00 00
       0.0 0.0 0.0 0.0
0000b0 00 00 00 00 00 00 00 00 00 00 00 00 00 00 00 00
       0.0 0.0 0.0 0.0
0000c0 00 00 00 00 00 00 00 00 00 00 00 00 00 00 00 00
       0.0 0.0 0.0 0.0
0000d0 00 00 00 00 00 00 00 00 00 00 00 00 00 00 00 00
       0.0 0.0 0.0 0.0
0000e0 00 00 00 00 00 00 00 00 00 00 00 00 00 00 00 00
       0.0 0.0 0.0 0.0
0000f0 00 00 00 00 00 00 00 00 00 00 00 00 00 00 00 00
       0.0 0.0 0.0 0.0
000100 00 00 00 00 00 00 00 00 00 00 00 00 00 00 00 00
       0.0 0.0 0.0 0.0
000110 00 00 00 00 00 00 00 00 00 00 00 00 00 00 00 00
       0.0 0.0 0.0 0.0
000120 00 00 00 00 00 00 00 00 00 00 00 00 00 00 00 00
       0.0 0.0 0.0 0.0
000130 00 00 00 00 00 00 00 00 00 00 00 00 00 00 00 00
       0.0 0.0 0.0 0.0
000140 00 00 00 00 00 00 00 00 00 00 00 00 00 00 00 00
       0.0 0.0 0.0 0.0
000150 00 00 00 00 00 00 00 00 00 00 00 00 00 00 00 00
       0.0 0.0 0.0 0.0
000160 00 00 00 00 00 00 00 00 00 00 00 00 00 00 00 00
       0.0 0.0 0.0 0.0
000170 00 00 00 00 00 00 00 00 00 00 00 00 00 00 00 00
       0.0 0.0 0.0 0.0
000180 00 00 00 00 00 00 00 00 00 00 00 00 00 00 00 00
       0.0 0.0 0.0 0.0
000190 00 00 00 00 00 00 00 00 00 00 00 00 00 00 00 00
       0.0 0.0 0.0 0.0
0001a0 00 00 00 00 00 00 00 00 00 00 00 00 00 00 00 00
       0.0 0.0 0.0 0.0
0001b0 00 00 00 00 00 00 00 00 00 00 00 00 00 00 00 00
       0.0 0.0 0.0 0.0
0001c0 00 00 00 00 00 00 00 00 00 00 00 00 00 00 00 00
       0.0 0.0 0.0 0.0
0001d0 00 00 00 00 00 00 00 00 00 00 00 00 00 00 00 00
       0.0 0.0 0.0 0.0
0001e0 00 00 00 00 00 00 00 00 00 00 00 00 00 00 00 00
       0.0 0.0 0.0 0.0
0001f0 00 00 00 00 00 00 00 00 00 00 00 00 00 00 00 00
       0.0 0.0 0.0 0.0

action_model._discrete_distribution.branches.0.weight f4 [2, 128]
000000 fb 7a 2b bb 43 e1 4a 3b 98 e1 8d bb 70 ab 15 bc
       -0.0026165831 0.003095702 -0.0043298714 -0.009135112
000010 33 5d 1b bb 20 d3 58 bc 75 77 55 3c 63 15 4e 3b
       -0.0023706674 -0.01323393 0.013028969 0.0031445853
000020 9f fc e1 ba d5 53 4b 3c ed 11 55 3c 07 63 3f bc
       -0.0017241425 0.012410124 0.013004762 -0.011681325
000030 76 c0 ca 3b 97 c4 ba ba 3f 91 99 3c e1 4d 47 bc
       0.006187494 -0.0014249262 0.018746017 -0.012164564
000040 85 8d 52 3c ee 74 1b bc ea cc 0b bc 90 d3 c0 bb
       0.012851124 -0.009488327 -0.008532742 -0.005884595
000050 43 d9 44 3b 3b 77 12 ba f9 97 b1 3a 93 78 34 bc
       0.0030036725 -0.0005587225 0.001354932 -0.011015075
000060 b3 fb f6 bb c8 2c 47 3c 69 5d a5 3a 5b eb e1 bb
       -0.007537329 0.012156673 0.0012616339 -0.0068945116
000070 7d d1 ec bc 49 25 a9 3c 28 26 27 3b 4f 84 21 3b
       -0.028908486 0.020647662 0.002550492 0.0024645512
000080 83 73 13 3c 88 32 09 bc 17 5a 43 3b 14 32 33 3c
       0.008999708 -0.008373864 0.0029808336 0.0109372325
000090 50 7a 98 b8 ec e6 07 bc c7 ef 21 3c 10 bf cf 3b
       -7.270707e-05 -0.008294802 0.0098838275 0.006339915
0000a0 4b 0b 14 3b 5f 21 9c bb 92 c2 65 3c 18 d8 1e bc
       0.002258974 -0.0047647203 0.01402344 -0.009695075
0000b0 ab e6 27 3c 7b 93 f5 bb c3 54 64 bc e6 19 15 3c
       0.010247867 -0.0074943877 -0.013936224 0.009100413
0000c0 55 b1 92 3c 6f 77 0e bc 1a 8b 5f 3c fd aa 49 3c
       0.017906824 -0.008695467 0.013644004 0.012308833
0000d0 db 61 c1 ba 65 c0 1a bb 24 12 a5 bb 94 e0 bd bb
       -0.0014753895 -0.0023613211 -0.005037563 -0.005794594
0000e0 4f ac be 3b bb 6f 7b 3b d3 19 c5 3b 43 c0 0c 3b
       0.0058188806 0.0038366157 0.0060150414 0.0021476902
0000f0 d9 bc a2 bc b6 37 31 3c 18 cb 8f 3b 88 66 bd 3b
       -0.01986544 0.010816505 0.0043882243 0.005780045
000100 ef 8d a9 bb 07 70 fa bb 5f a4 97 3a 74 e5 ae bb
       -0.0051743905 -0.007642749 0.0011569372 -0.0053374115
000110 b4 e1 31 bc ff 04 f6 3a 8a cc cb bb 3f 75 f7 3a
       -0.0108570345 0.00187698 -0.0062194513 0.0018879547
000120 62 68 b6 ba 4b 3d 9b 3c d1 3d 14 3b c3 ae 3b bb
       -0.0013916607 0.018950125 0.0022619853 -0.0028638102
000130 ff 6e 67 bb 9b d8 43 3c e3 38 d7 bb 0a 09 b3 bb
       -0.0035313962 0.011953498 -0.0065680607 -0.005463724
000140 17 63 c0 3b 70 33 91 3c 29 7f 3a bc 9f 09 a7 bc
       0.0058711874 0.017724723 -0.011382856 -0.02039033
000150 df 79 2a 3a 77 4e ca 3b 6f b0 03 bc f3 f3 fd bb
       0.00065031456 0.0061739045 -0.0080376705 -0.0077500283
000160 44 42 b8 bb 8e ac 23 3c 50 3d d4 3b 14 b2 8e 3c
       -0.005623134 0.009989871 0.0064770356 0.017418899
000170 dd fd 4f 3c 29 9d 2b bb 67 eb 5c b9 5a 0b 7e ba
       0.012694803 -0.0026186204 -0.00021068529 -0.00096910226
000180 17 00 bd 3b 0b ea 24 3c b9 26 4a 3c 58 b2 55 bb
       0.005767833 0.010065566 0.012338334 -0.0032607522
000190 69 41 97 3a 60 df e8 3a 48 a3 64 3c bf ee 46 bb
       0.001153988 0.0017766766 0.013954945 -0.0030354706
0001a0 77 ed 4d 3b 60 9f f9 3b 8f fc 32 3b bf a5 92 bc
       0.0031422058 0.007617876 0.0027311181 -0.0179013
0001b0 4b 35 18 3c bb 2e ce 3a 2d 0c 20 3b a6 71 c6 ba
       0.00929005 0.001573048 0.002442132 -0.0015140071
0001c0 9a c4 59 3c d5 ac db bb d3 08 19 3b 67 73 5a 3c
       0.013291502 -0.006703953 0.0023351207 0.013333178
0001d0 3b 44 ae bb 4d b8 32 3b 7a 21 ef ba 4f 7e 07 bc
       -0.0053181923 0.0027270496 -0.001824423 -0.00826986
0001e0 c9 99 42 3c 2e de 32 bc 93 26 20 bc 6b fb 89 3b
       0.011877486 -0.01091723 -0.009774822 0.0042108796
0001f0 07 be 91 bb 3c 08 44 3c f7 97 76 3a 5a 6b 6c 39
       -0.004447702 0.011964854 0.00094068 0.00022546705
000200 72 86 d7 3b 02 96 f4 3b ba 18 cb 3b ca de 89 39
       0.0065773064 0.0074641714 0.006198016 0.00026296667
000210 83 bf 0d 3c be b4 9c ba 08 02 42 3b 1e 67 06 bb
       0.008651617 -0.0011955721 0.0029603262 -0.002050824
000220 a0 0f 11 bb 93 f2 11 bc f8 a1 d8 bb 58 51 9b 3c
       -0.0022134557 -0.008907932 -0.006611105 0.018959686
000230 73 fc 3e 3c 80 ff b0 bb 65 86 a5 3a 67 e3 e7 3b
       0.011656868 -0.0054015517 0.0012628554 0.007076669
000240 f7 19 63 3c f5 b5 53 bb 97 71 4a bc 07 26 15 ba
       0.013861171 -0.00323045 -0.0123561835 -0.00056895654
000250 d7 18 82 3c 9f f7 4a 3c 33 36 e7 bb cb ef 86 3c
       0.015880985 0.012388139 -0.0070560216 0.016471764
000260 3b f6 5d bb 0f 7d a7 ba c0 b4 83 bb 5d 38 db b9
       -0.0033868689 -0.0012778359 -0.00401935 -0.0004181293
000270 9f 2b 8a bb 28 dc 85 bc 73 10 aa bb 1b 62 42 3c
       -0.004216626 -0.01634033 -0.005189949 0.0118642105
000280 8b 06 7d ba eb a8 43 3c ec 50 ae bb b3 bd 2d 39
       -0.0009652159 0.011942129 -0.0053197052 0.00016569234
000290 07 4d 92 bc af 7b a1 bb 27 18 38 b9 12 cc a1 bb
       -0.017858995 -0.0049280743 -0.00017556605 -0.004937657
0002a0 ed 80 a3 b9 9b 9a eb bb 2d 82 2e 3c 9b 1d ee bb
       -0.0003118584 -0.0071900613 0.0106511535 -0.007266713
0002b0 df 32 44 bb 37 a9 b9 bb 70 19 bf bb 20 12 39 bc
       -0.0029937548 -0.005665924 -0.00583189 -0.011295825
0002c0 78 75 53 3b 4a 30 bc 3b 08 5a a4 bb c5 8c 34 3c
       0.0032266062 0.005743061 -0.0050156154 0.01101989
0002d0 5b 64 f7 bb 1f 32 84 3c c7 59 40 bc b7 ff 51 3a
       -0.007549805 0.01613718 -0.011740155 0.0008010822
0002e0 0f 9b 88 3c 6d 03 4a 3a ea 59 b1 bc c2 bc 7a 3b
       0.0166755 0.0007706199 -0.02164932 0.003825948
0002f0 93 a9 29 3b 01 9a 40 bc 75 30 87 bc 9b f8 5d 3b
       0.0025888428 -0.011755467 -0.016502598 0.0033870104
000300 58 be 5b 3a 02 9c 58 3c e4 7b af 39 70 f7 96 bb
       0.00083825504 0.013220789 0.00033470907 -0.0046071336
000310 49 4f 0e 3c f2 b2 5f bb d9 e3 0f bc 8f 8a 56 3c
       0.008685895 -0.003413376 -0.00878235 0.013094558
000320 c6 06 c8 3b 35 85 38 3a ca d6 68 bc 9e 63 85 3a
       0.006104323 0.00070388924 -0.014211366 0.0010176783
000330 c0 3c 09 3c 47 32 99 3c 2a 05 1d 3b 14 92 89 bb
       0.0083763 0.018700732 0.0023959377 -0.004198322
000340 ef 13 2b bc 87 d6 0a bc fc 54 9a 3b fb dd f8 3b
       -0.010441764 -0.008473999 0.004709838 0.0075948215
000350 75 23 07 39 4a 94 df 3a 10 77 d0 3c 67 70 0c bb
       0.00012887812 0.0017057743 0.025447398 -0.0021429302
000360 f2 ed 10 3b 5f db a0 39 70 74 9c 3c a2 96 46 ba
       0.0022114483 0.00030681022 0.01909849 -0.00075755466
000370 66 f6 9a 3c 4a 05 31 3a 03 7c a1 bc fd e8 ad bc
       0.01891632 0.00067528023 -0.019712454 -0.021229262
000380 d1 17 41 3b ae b8 15 bb aa bf 4a bc 72 7f a5 3b
       0.0029463659 -0.0022845673 -0.012374798 0.005050593
000390 35 0b 59 bc a1 4e bb bb 29 31 81 ba f3 17 fb 3a
       -0.013247301 -0.0057161604 -0.000985657 0.0019156918
0003a0 12 65 87 bb 00 24 45 3b 23 04 86 3b dc c1 a6 bb
       -0.0041319216 0.0030081272 0.0040898486 -0.005089028
0003b0 76 78 9c 3c 80 31 45 bc 89 aa 0f bc 9b 4c fa 3b
       0.019100409 -0.0120357275 -0.008768686 0.0076385266
0003c0 72 df 17 bb 47 d1 d7 3b 82 b5 66 ba 23 33 6d bc
       -0.0023173955 0.006586227 -0.00088008505 -0.014477524
0003d0 14 2f a3 3b 1a 27 7f 3b db 70 0b 3c 80 85 30 bb
       0.0049799774 0.0038933218 0.008510794 -0.002693504
0003e0 1b fc e8 3b db c1 c5 ba 69 6e c6 3b dd dd 14 bc
       0.0071101314 -0.0015087681 0.0060556424 -0.009086099
0003f0 83 e7 5e 3c ce 4e 8a 3b 46 6b 09 bb df 3d 19 bb
       0.013605001 0.00422082 -0.002096848 -0.0023382825

action_model._discrete_distribution.branches.0.bias f4 [2]
000000 00 00 00 00 00 00 00 00
       0.0 0.0

action_model._discrete_distribution.branches.1.weight f4 [2, 128]
000000 d7 3a 80 bb 9a 86 b3 3b db 93 0c 3c cd 02 9e bb
       -0.0039132643 0.0054786922 0.008580173 -0.004822111
000010 14 e5 98 3b b6 c1 21 bc ac d9 37 bc 7c 1c 43 3c
       0.00466598 -0.009872844 -0.011221331 0.011908647
000020 7f 20 56 bc 68 05 fb 3b ca 18 0b 3b b8 df 7e 3c
       -0.013069271 0.0076605566 0.0021224492 0.015556268
000030 99 25 ca 3b fc af 07 3c b2 1e 79 3c ed 90 b4 bc
       0.006169033 0.008281704 0.015205072 -0.022041762
000040 30 68 3e 3c 1f 0e 0c 3a 28 67 ff b9 50 06 3e bc
       0.01162152 0.00053426804 -0.00048714248 -0.011598185
000050 57 c7 30 bc 3f 96 7a 3b b8 81 8e 3a 57 66 8a 3c
       -0.010789714 0.0038236526 0.00108724 0.016894503
000060 63 ef 7f 3c b1 49 86 3b 97 2e a5 3b 0f 90 12 3c
       0.015621039 0.00409814 0.0050409543 0.008945479
000070 8a 2b 6c 3c 83 10 09 bc 94 27 28 3c db b8 d4 bc
       0.014414677 -0.008365753 0.010263342 -0.025967052
000080 ba 22 a9 ba f7 e6 c4 bb 05 ff 20 3b 23 ec 4a 3c
       -0.0012904026 -0.0060089785 0.0024566066 0.012385401
000090 55 bd 4f bb ba da 4d bb 9d 91 e5 3a 57 1d 7b bc
       -0.0031698544 -0.0031410889 0.001751471 -0.015326819
0000a0 5b e8 ac 3b 48 80 35 bb 22 26 80 bc 37 ea 04 3c
       0.0052767224 -0.002769487 -0.015643183 0.008112482
0000b0 17 e0 7d bc 20 b2 8b 3a b6 89 a8 3c ca 03 58 3b
       -0.015495322 0.0010657944 0.020573478 0.0032961243
0000c0 13 8e 13 bc b5 65 76 3b fa aa ea 3b ea 59 74 ba
       -0.009006041 0.0037597243 0.0071614953 -0.00093212596
0000d0 25 b7 8a bb 3c 16 8f bb 24 c5 4b 3c 18 34 03 3c
       -0.0042332583 -0.004366664 0.012437139 0.008008026
0000e0 a5 ff 4e 3a 9b 17 90 3c b2 5b 9c 3a e7 66 bd 3c
       0.00078963704 0.017589381 0.0011929183 0.023120357
0000f0 81 6d c7 3b 01 ab 05 bc 15 45 2e bc a0 0a 72 bc
       0.006086052 -0.008158446 -0.010636588 -0.014773041
000100 f8 6d e1 bb f7 38 e5 3b 71 7d a3 ba 0e ff b5 3a
       -0.0068795644 0.006995316 -0.0012473298 0.0013885216
000110 62 0d b1 3b 3e 3f 9a ba 6f a9 16 3c 3d 49 0a bc
       0.0054032067 -0.0011768115 0.00919567 -0.008440313
000120 80 9f 82 3b 38 b1 08 bc 41 34 1c bb 57 55 1d 3c
       0.003986299 -0.0083430335 -0.0023834857 0.009602866
000130 1b 1b e9 3b ad 8e 88 bb c0 ac 6c 3c 01 79 39 bc
       0.007113827 -0.004167399 0.014445484 -0.0113203535
000140 60 b6 83 3b 0b d5 ff 3a d7 57 f5 3b c2 5e 3b bc
       0.0040195435 0.0019518448 0.007487278 -0.011436166
000150 d2 15 c3 bb 50 02 7e 3b 1d 18 99 bb 2f 94 d7 ba
       -0.005953529 0.0038758703 -0.004672064 -0.001644736
000160 e5 8e 20 bb 75 e9 57 3b 55 b3 2b bc 73 cf cf bb
       -0.0024499234 0.0032945548 -0.010479768 -0.0063418685
000170 27 aa b2 3b 87 43 a4 b6 ab 51 10 bc 1b a3 df 3b
       0.0054524126 -4.895442e-06 -0.008808534 0.0068248636
000180 c3 c5 f8 bb 50 ef 08 3b 6b a3 5b bc 3d c3 a9 bb
       -0.0075919344 0.0020894594 -0.013405661 -0.005180745
000190 9f 40 8b 3b 12 d8 85 3c ba aa fe ba 2e a8 07 3c
       0.004249647 0.016338382 -0.0019429543 0.008279843
0001a0 70 94 92 bb 33 c4 92 bc 5f 23 4a 3a 7b 84 00 bc
       -0.0044732615 -0.01791582 0.0007710959 -0.007844086
0001b0 1b 2a b8 bb 6f 60 90 3c e3 f1 42 3b 07 f6 de 3b
       -0.0056202537 0.017624108 0.0029746227 0.006804231
0001c0 68 bc 67 bb e8 64 7e 3a 13 21 b8 bb 78 86 3a bb
       -0.0035360102 0.0009704367 -0.005619177 -0.0028461497
0001d0 89 b1 0a bc 3f 3b 39 3b aa c8 d2 3b b2 60 50 bb
       -0.008465179 0.0028264073 0.0064326124 -0.0031795916
0001e0 ca 4d 92 bb 64 47 34 bc d2 3a 66 3b ff f4 84 b9
       -0.0044648396 -0.011003349 0.0035130274 -0.00025359538
0001f0 86 71 94 bb a3 2c b3 ba a8 ba d9 ba 95 9c f5 bb
       -0.0045301346 -0.0013669919 -0.0016611414 -0.0074954727
000200 08 71 4a 3a 4c a3 14 bb a7 e9 31 3c e3 31 f1 bb
       0.00077225314 -0.002268034 0.01085893 -0.0073606833
000210 b3 29 ab 3b 2b cc b8 ba 35 01 6d bb a2 4e 0f bc
       0.005223477 -0.0014098933 -0.003616405 -0.008746775
000220 ff 11 12 ba e5 9e dd 3b 48 12 d0 bb 63 ba 9d bb
       -0.00055721396 0.0067633265 -0.0063498355 -0.004813479
000230 27 37 91 3b 6b 9f 4f 3b 73 e9 44 bb 22 e1 b2 bb
       0.0044316235 0.0031680714 -0.0030046373 -0.005458967
000240 90 1f 4a bc 2c 2b 9b 3b 77 1c e6 b8 bb eb c9 3b
       -0.012336627 0.004735371 -0.000109725566 0.0061621345
000250 bd 89 df bb 2c f2 43 bc 6f 37 6e ba cf c4 6c bb
       -0.0068218396 -0.011959594 -0.000908724 -0.003612805
000260 0a 73 df bb 63 15 e8 3b 08 9b d6 bb c0 70 e6 3b
       -0.0068191336 0.0070826276 -0.006549243 0.007032484
000270 37 b1 91 3b 77 7c 4d 3c 15 94 89 bb 9b b2 71 3b
       0.0044461745 0.012541882 -0.004198561 0.0036880139
000280 fb 64 b2 ba e7 98 4d 39 f1 24 2b 3c f0 2b 64 bb
       -0.0013610417 0.00019607284 0.010445819 -0.0034816228
000290 82 a5 76 bb 42 f5 82 bb bf 1d aa bb 61 ca 24 bc
       -0.0037635271 -0.003996522 -0.0051915343 -0.0100580165
0002a0 98 ce 0b bb 9c fc ab bb 00 05 b6 bb ab 55 91 bb
       -0.0021332856 -0.0052486192 -0.0055547953 -0.0044352612
0002b0 5b b5 de bc 4d d9 dd ba 3b 45 b7 ba cf ae a0 bb
       -0.027186086 -0.0016925723 -0.0013982424 -0.0049036513
0002c0 ca 55 32 3b 65 52 4e bc 4d ea ea ba 68 e5 f9 3b
       0.0027211779 -0.012592887 -0.001792261 0.0076262243
0002d0 f8 eb 6e 3a 30 9e 0b 3c 3b 66 3d 3c 15 fa 68 3c
       0.00091141416 0.008521602 0.011560018 0.01421978
0002e0 f0 14 e6 ba 9d d1 4c 3c be 0b 05 3c 2b e9 81 3c
       -0.0017553847 0.012501148 0.008120475 0.015858253
0002f0 41 c0 0e 3c 1c ac 24 3c 72 bd 23 bc 74 38 c0 bb
       0.008712829 0.0100508 -0.009993898 -0.0058661047
000300 c3 c3 6c bc 7b b2 19 bc a3 ae 0a 3c 92 4b e6 bb
       -0.01445097 -0.009380932 0.008464488 -0.0070280517
000310 5d ec d8 bb e8 3e fb 3b 5d c7 d3 3a 90 10 da 3a
       -0.0066199736 0.007667411 0.0016157437 0.0016637016
000320 f9 df a6 3b 87 2f 9e bb 2f c9 a9 3b 80 e4 31 bc
       0.0050926176 -0.004827443 0.0051814537 -0.010857701
000330 80 86 1e 3c 38 c2 cd ba f3 1a 96 bc cb 55 b8 bb
       0.009675622 -0.001569814 -0.018323397 -0.0056254617
000340 47 a2 5c bc 1d eb 53 3b 6c a5 11 3a bd c5 45 bc
       -0.013466424 0.0032336183 0.0005555961 -0.01207107
000350 15 8d 1a bc dc 99 a8 b9 67 cb 81 bb 6a ef d1 bb
       -0.009433051 -0.0003215809 -0.003961015 -0.006406714
000360 61 f8 89 3c 97 8a 53 3c 3d ea d7 bb 23 98 42 bb
       0.01684207 0.01291146 -0.0065892027 -0.0029692731
000370 62 18 45 bc ad 87 91 3b b3 86 05 bc 46 2f 8f bc
       -0.012029739 0.0044412226 -0.008149791 -0.017478596
000380 a2 1b 6a 3c 27 0e 02 bc 57 00 64 3a 9f 93 50 3c
       0.014288815 -0.0079379445 0.00086975604 0.012730508
000390 27 45 1f bc 5f 4d 3a 3c eb c1 10 bc 0b de 5c 3c
       -0.009721077 0.011370986 -0.008835296 0.013480674
0003a0 d7 17 5c bc 0d 82 61 3a da 1b 70 3c 1d 43 07 ba
       -0.013433418 0.0008602448 0.014655078 -0.0005159842
0003b0 da 6b 56 3b ec f3 0d bb 40 c7 50 bc 80 72 db 3a
       0.0032718093 -0.0021660281 -0.012742817 0.0016742498
0003c0 a8 42 98 3b c3 ac 08 bc bc d3 cb 38 b2 a0 1b 3b
       0.004646618 -0.008341971 9.719233e-05 0.0023746905
0003d0 8f b2 18 bc e6 e3 82 3c d9 a0 3d ba d2 cf 76 ba
       -0.009319915 0.015977811 -0.0007233746 -0.0009415123
0003e0 4f 91 36 bc 5b a9 87 3b f7 59 23 3c a0 94 5c 39
       -0.011143043 0.004140062 0.00997018 0.00021036202
0003f0 b8 a6 02 bc 6b 44 4f 3b 10 a2 04 3c 55 73 79 3b
       -0.007974319 0.0031626474 0.008095279 0.0038063128

action_model._discrete_distribution.branches.1.bias f4 [2]
000000 00 00 00 00 00 00 00 00
       0.0 0.0

action_model._discrete_distribution.branches.2.weight f4 [2, 128]
000000 59 99 ae bb b3 46 d9 ba f4 8d 43 3c b8 4a 24 bc
       -0.005328339 -0.0016576856 0.0119357 -0.01002758
000010 53 90 d1 3a 8c f0 27 bc 47 67 b4 bb 33 cf c4 3b
       0.0015988447 -0.010250222 -0.0055054757 0.0060061454
000020 22 64 d3 3a d1 d5 ae 3a 88 53 f6 3b df 39 a5 bb
       0.0016127864 0.0013338869 0.007517282 -0.005042299
000030 e5 a7 f7 ba 49 da 9a bb 88 37 3a bc d3 b2 6d 3c
       -0.0018894641 -0.0047257286 -0.011365779 0.014507967
000040 bb 12 81 38 3f 7f d7 39 47 7b 4f 3b 34 31 a7 ba
       6.154688e-05 0.000411028 0.0031659172 -0.0012755753
000050 2e 3b 97 3c 2a 3a df 3a 52 17 8e bb bb b2 05 3c
       0.018460836 0.0017030884 -0.004336276 0.008160288
000060 35 d1 21 bb 48 5c d3 bb 2c 15 1a bc 11 59 ae bb
       -0.0024691347 -0.0064502098 -0.009404462 -0.005320676
000070 0e e9 b1 bb 59 16 26 bc c4 13 0c 3b c3 74 4f 3b
       -0.0054293936 -0.010137164 0.0021374086 0.0031655289
000080 1b cd 2a 3b 43 06 17 3c 61 a0 a1 ba 9b 29 9a 3c
       0.0026062194 0.0092178015 -0.0012331122 0.018818667
000090 f2 58 e5 bb 5f 46 85 3b 78 ef 76 b9 da 12 fb ba
       -0.0069991285 0.004067227 -0.00023549597 -0.0019155398
0000a0 22 b3 12 bb 92 d4 62 bc 62 ac 8e 3b 45 ad dc bb
       -0.0022384604 -0.013844626 0.0043540457 -0.0067345225
0000b0 4a 2b 62 3b 99 c1 1a 3c 7f 95 6d bb 57 4f 9f 3a
       0.0034510666 0.009445571 -0.0036252437 0.0012154382
0000c0 1d 3d e0 bb ef 10 74 bc d2 63 19 3b bb 89 9e 3a
       -0.006843223 -0.014896615 0.0023405445 0.001209549
0000d0 f5 59 e4 3a 3b cb 9a ba 17 99 4e 3b b5 35 c6 bc
       0.0017421829 -0.0011809835 0.0031524354 -0.024195531
0000e0 56 3a 01 3a 0f d2 43 3c 8a 90 fe bb ae 2a 81 3c
       0.0004929652 0.011951937 -0.0077686952 0.015767422
0000f0 b6 48 27 3c 57 9d bc 3b cd 7a 06 bc de 0e 9c 3b
       0.010210207 0.005756061 -0.008207989 0.0047625145
000100 5d 6e bf 3b 4f 36 93 3c 6e af b9 bb 3b 10 59 bb
       0.0058420138 0.017970232 -0.005666665 -0.0033121246
000110 a2 31 4f bc 62 f4 db bb 14 70 a4 3b 7d a5 9e 3b
       -0.012646111 -0.0067124823 0.0050182436 0.004841505
000120 1b de 62 bb 0a 0b a2 ba e0 47 ef 3b e8 55 5c bc
       -0.0034617248 -0.0012362909 0.0073022693 -0.013448216
000130 be 1a 97 bb 7f c3 56 bc cf 52 5e bb f7 0f 9a 3c
       -0.004611342 -0.013108133 -0.003392387 0.01880644
000140 94 40 82 3b d9 38 ca 3b 85 59 ab 3a 77 8d 61 bb
       0.0039749835 0.0061713275 0.0013072944 -0.0034416595
000150 17 94 a5 3b 3f cd 03 bc 4e 7b 07 3c 07 db 25 bc
       0.005053054 -0.00804454 0.008269144 -0.010123021
000160 cb 3e e3 bb 98 7f fa ba 5b 41 66 bb 90 01 63 bb
       -0.0069349757 -0.0019111512 -0.003513417 -0.0034638382
000170 1e 80 05 3b cf b4 33 bc fb 2a 15 bb 53 d8 10 bc
       0.0020370553 -0.010968401 -0.0022761214 -0.008840638
000180 ce 27 c6 bb 18 81 06 3c f3 e2 88 bb 73 b3 e7 3a
       -0.0060472256 0.008209489 -0.004177445 0.0017677381
000190 79 fc 35 bb ff a3 26 bc 6f bf b0 bb 09 95 c6 bb
       -0.0027768894 -0.010170936 -0.0053939144 -0.006060247
0001a0 11 4f 87 bc f4 40 07 3c 9b cc 06 bc 53 2f 07 3b
       -0.016517194 0.008255232 -0.008227493 0.0020627573
0001b0 43 bc 1e bb 56 29 0e bc 9e b0 c5 ba b7 4f 8a 3b
       -0.00242211 -0.008676847 -0.0015082543 0.0042209285
0001c0 c3 79 de 3a 50 50 8f 3b 7b 9e a8 bb c0 71 ad 3b
       0.0016973544 0.0043735877 -0.0051458455 0.005293101
0001d0 6a da eb 3b fd aa a3 3c 02 27 af bc db 0e c0 3b
       0.007197668 0.019978995 -0.021380905 0.005861146
0001e0 8f d4 15 3c f7 2a fa bb 3f de 85 3b 48 04 11 3c
       0.009144916 -0.0076345163 0.0040853317 0.008851118
0001f0 96 46 a7 b9 51 44 39 bb 27 e4 c0 ba 55 3f a7 bb
       -0.00031905313 -0.002826948 -0.0014716432 -0.0051039853
000200 11 02 a8 3a 01 54 45 bc 7d fc 6f bc 0f 2c 16 3b
       0.0012817999 -0.012043954 -0.0146476 0.0022914445
000210 a3 de 13 3b 48 74 28 bb 07 53 e0 ba 35 d6 de bb
       0.0022563122 -0.0025704075 -0.0017114588 -0.006800438
000220 0b b2 b0 3b b6 7b 18 bb 2c 6d 05 bb c2 62 69 bc
       0.005392318 -0.0023267097 -0.002035926 -0.014244737
000230 6e 75 1a 3c 06 fe 21 3c c0 ad 9e 3b b7 d4 a8 3b
       0.0094274115 0.009887224 0.00484249 0.0051523107
000240 03 ed ce bb 2f 2a 69 3a 80 35 aa bb 53 9c 40 3a
       -0.006314875 0.00088945305 -0.005194366 0.0007347513
000250 38 36 76 3c f3 e7 9c bb 30 2e 70 bc 6a 61 4e bb
       0.015027575 -0.0047883927 -0.014659449 -0.0031491169
000260 67 a7 41 bc 8d fb 67 3b 27 14 be 39 08 0a 7f 3b
       -0.011819697 0.0035397739 0.0003625464 0.0038915891
000270 8f 44 f9 3a 21 d3 a5 bc b5 15 28 bc 0e 32 96 b8
       0.0019017624 -0.020242276 -0.010259082 -7.161881e-05
000280 f1 92 46 3c c0 55 48 ba 1e 28 c2 bb 7a ef 4b 3c
       0.0121199945 -0.0007642172 -0.0059251925 0.012447232
000290 f3 88 b3 3a ed 97 51 3c 0c b2 2c bb 5f 08 ae 3b
       0.001369743 0.01279257 -0.0026351241 0.0053110565
0002a0 0a 79 d4 bb 77 c9 e8 ba 12 89 d7 3b d5 81 f0 3b
       -0.0064841555 -0.0017760237 0.0065776194 0.007339696
0002b0 65 b8 d9 bb a5 3c 81 3a fd 96 f2 bb 23 ce b6 bb
       -0.006644296 0.0009859992 -0.007403253 -0.0055787726
0002c0 65 a3 1c 3c ac 0f 3f bc 53 fd ec bb 5e 74 1d bc
       0.009560441 -0.011661451 -0.007232347 -0.009610264
0002d0 bd 62 f2 3b 58 42 c9 bb 41 6b 13 3c db 0e 78 ba
       0.0073970244 -0.006141942 0.008997739 -0.0009462663
0002e0 3d 10 5a 3b 8a de 01 3b e7 aa 37 bc 56 ea 27 bc
       0.003327384 0.0019816482 -0.01121018 -0.010248741
0002f0 33 62 50 bc 78 ac 44 bc 25 ea 87 bc 3f d2 30 bb
       -0.012718725 -0.01200401 -0.016591141 -0.0026980785
000300 0d 56 7a 3b cb da cf ba 8b c3 d0 3b 9a 94 84 3b
       0.0038198263 -0.0015858052 0.006370967 0.004046035
000310 9f 3a be ba 88 d2 9b bc c1 48 40 3c 4d 76 5a bb
       -0.001451332 -0.019021288 0.011736096 -0.0033334673
000320 16 a5 9e 3c 44 3d 14 3c 16 68 16 bc df 5c 17 3c
       0.019365828 0.00904781 -0.009180089 0.009238451
000330 fa de f7 ba 22 e6 79 bc 1d 3b e0 3a 22 2f 8d 3a
       -0.0018911057 -0.015252622 0.0017107461 0.0010771493
000340 09 1e 3e 3a 52 d5 fb bb c3 99 8a 3c ac 1b 81 bb
       0.00072524004 -0.007685342 0.016919022 -0.0039400663
000350 ff 79 6b 3c ae 3a c3 3b 7f 88 2b 3c e5 9e a0 bb
       0.014372348 0.005957923 0.010469555 -0.004901754
000360 62 00 df 38 69 38 31 bc 98 c7 07 b8 a1 84 38 3a
       0.0001063354 -0.010816672 -3.2372394e-05 0.0007038806
000370 16 76 1c 3a 5c 7c 28 bb 76 ce 2c ba 1f 8a 3b 3c
       0.0005968524 -0.002570889 -0.00065920444 0.011446505
000380 a4 bd 2f bc 57 cd 3e 3c 3e c8 b9 3c 7f 97 cf 3a
       -0.010726366 0.0116456365 0.02267849 0.0015837996
000390 aa 38 0c 3c 6f a5 c1 39 5b df cb ba 8f d2 9f 3c
       0.008558432 0.00036935086 -0.0015554236 0.019509582
0003a0 e3 e9 40 3c 43 f1 df 3b 6b fa 65 3c a1 e3 43 bb
       0.011774513 0.0068341806 0.014036755 -0.0029890316
0003b0 df 0d 87 bb d3 ac 9a bb d0 15 e4 3b 0f a6 5a bc
       -0.0041215266 -0.0047203093 0.006960608 -0.0133452555
0003c0 84 24 26 3c fb dc 22 3b c8 0f 6b bb 9a d5 88 3c
       0.010140542 0.0024850953 -0.003586756 0.016703416
0003d0 7b 6e 17 bb 67 e8 c4 3b 92 d6 e7 3b 62 79 06 bc
       -0.0023106623 0.00600915 0.0070751393 -0.008207651
0003e0 c3 30 ed bb 8d 29 16 bb 1f 9e 8f 3c 13 a7 9b bb
       -0.007238479 -0.002291295 0.017531453 -0.0047501414
0003f0 6a c5 7f bc b3 10 ed 3b 3b 5a e8 3b fa a9 79 3b
       -0.015611032 0.0072346567 0.0070908344 0.0038095699

action_model._discrete_distribution.branches.2.bias f4 [2]
000000 00 00 00 00 00 00 00 00
       0.0 0.0

action_model._discrete_distribution.branches.3.weight f4 [2, 128]
000000 d6 a1 0a 3c 6f da 83 3b 69 d0 96 39 df d0 6b bc
       0.008461436 0.004023842 0.00028765507 -0.0143930605
000010 7f 9f e2 3a 63 09 33 bb e7 d2 e0 39 9a a8 25 3c
       0.0017289965 -0.0027318827 0.00042881744 0.0101109985
000020 a5 0e f4 bb f1 a7 91 39 9f 57 dd 38 c9 b1 af bb
       -0.007448035 0.0002778168 0.00010554422 -0.00536177
000030 d7 a5 7e bc 5a 94 da bb fa 26 1a ba 43 26 18 3c
       -0.015542469 -0.006670517 -0.0005880442 0.009286466
000040 42 31 cf bb b6 4c 11 ba db bb 7b 3b 03 a5 9f bb
       -0.0063230107 -0.0005542742 0.003841153 -0.004871966
000050 27 1c 89 bc 8f 5e 6a bb ff 0f bf 39 83 b9 ef 3b
       -0.016737057 -0.0035761928 0.00036442277 0.007315816
000060 5c ba bc 3a 1f b8 fa bb b8 ed 97 3c 57 c8 65 3a
       0.0014398801 -0.0076513435 0.01854597 0.00087655097
000070 18 27 5f 3b 46 12 86 3b 68 8d 41 bc df 6f 46 3a
       0.0034050401 0.004091534 -0.011813499 0.00075697707
000080 b5 c6 fa bb 07 d0 22 bc 6d 0b f4 3b 68 66 31 bb
       -0.0076530823 -0.009937293 0.007447651 -0.0027069096
000090 43 d3 94 3c 23 7c 2e 3a cd 10 72 3a 07 6e b1 39
       0.018167144 0.0006656071 0.0009234071 0.00033842048
0000a0 b5 58 3a 3b 5c e4 2b bb be 13 2c bc eb 05 dd b8
       0.0028434221 -0.0026228642 -0.010502754 -0.000105392035
0000b0 a8 5f 41 bc c0 28 70 b9 1d 67 f3 3b 73 c7 a7 3c
       -0.011802591 -0.00022903364 0.0074280635 0.020480847
0000c0 d2 b9 f8 3a 03 7c 33 3c e7 92 26 bc 4a c0 71 3c
       0.0018976277 0.01095486 -0.01016686 0.014755318
0000d0 50 a7 07 bc 80 66 13 bc 16 d3 26 ba 3f 0d 43 bc
       -0.0082796365 -0.008996606 -0.0006363852 -0.011905014
0000e0 b3 24 ae bb 7b 37 14 3b 5e 40 80 bb 5c a3 0f 3c
       -0.0053144335 0.0022616077 -0.003913923 0.008766975
0000f0 9d 21 7d bb 0d 3e 51 3c 42 ae 02 3c 35 05 2d bc
       -0.0038624771 0.012771142 0.007976117 -0.0105603235
000100 95 84 fd ba a5 10 fb 3b 73 75 e3 3b a0 78 e1 3b
       -0.0019341881 0.0076618963 0.0069414913 0.0068808347
000110 cb f7 28 bb 5d 1d 52 bc aa 3e 79 bc 58 f2 4f bc
       -0.0025782462 -0.012824384 -0.015212694 -0.012692057
000120 14 bf c5 ba 03 6f 06 bc 6b e4 50 3b c3 93 9a 3c
       -0.0015086853 -0.008205178 0.003187443 0.018869286
000130 1f 75 b0 bb e4 3c 20 3c b3 d0 09 3d e2 84 cf 3b
       -0.0053850557 0.009780142 0.033646297 0.0063329795
000140 5d 92 6b 3c c4 14 bc bb 38 82 40 bc f9 aa 1b bc
       0.014378157 -0.00573978 -0.011749797 -0.009501212
000150 52 6f 98 3c f7 52 e8 bb c6 15 92 bb 40 1c 0e 3b
       0.01860777 -0.0070899683 -0.004458162 0.0021684319
000160 d2 1f 2a bc d0 7c 87 3c eb 4a 1c 3c eb 8b b4 bb
       -0.010383563 0.016539007 0.009539346 -0.0055098436
000170 f0 26 97 bc 23 bc bb 3b cb fa 08 bc 5f b9 9f b9
       -0.018451184 0.0057292148 -0.008360575 -0.00030464955
000180 8f 26 40 bc 5f e7 06 3c 84 36 b0 bb 3b 64 64 bc
       -0.011727943 0.008233874 -0.0053775925 -0.013939912
000190 bb b1 2f bc 58 df b3 bb fb 40 10 bc 5b 51 cd 3b
       -0.010723527 -0.005489271 -0.008804555 0.006265802
0001a0 d1 f8 b7 bb 23 04 87 3b 77 10 a2 bb 1d dc 5d bb
       -0.005614378 0.004120366 -0.0049458104 -0.0033853122
0001b0 d0 69 f8 bb 58 18 56 ba 4a 0f 06 3c 8a 96 81 bc
       -0.007580973 -0.00081670796 0.008182356 -0.015818853
0001c0 e9 33 8a 3b 58 f8 6e bb 26 28 02 bc 21 35 b0 3b
       0.004217614 -0.0036463942 -0.007944142 0.005377427
0001d0 a0 82 20 3b 30 f6 72 bc 35 c2 ce bb d5 06 16 3b
       0.002449192 -0.0148292035 -0.0063097724 0.0022892256
0001e0 df ba 06 3c d4 47 26 bb 82 dd 75 3c bf 65 27 ba
       0.0082232645 -0.0025372403 0.015006425 -0.0006385706
0001f0 53 32 98 3c 55 93 af 3b 1d 8b 7f bb 8b 69 68 3b
       0.018578684 0.0053581395 -0.003899283 0.00354633
000200 dd bc 1f 3c 0f 76 5e bc 5d 8d 2d 3c 72 e5 17 ba
       0.009749618 -0.013577952 0.010592786 -0.0005794383
000210 cf cd 11 3c 3f 01 62 3b 6c 4a 0d bb bc 8d 40 3c
       0.008899166 0.0034485606 -0.0021559251 0.011752542
000220 c8 04 df 3a 28 22 1c bc 06 b8 8e bc 2a 86 7e 3b
       0.0017014975 -0.009529628 -0.017421734 0.0038837292
000230 2b 35 a6 bb ab a9 58 bc e4 df af bb db 21 ee 3b
       -0.005072256 -0.013224046 -0.005367266 0.0072672195
000240 c2 a8 cd 3b b2 ac cd 3b 55 db a9 bb 95 5f e0 ba
       0.006276221 0.0062766904 -0.005183617 -0.0017118329
000250 3a a5 c0 ba 04 62 91 bb 55 2f 5f b9 27 af 53 3b
       -0.0014697679 -0.004436733 -0.0002128457 0.0032300444
000260 c4 62 0b bc e5 52 e8 3b 17 84 c7 bc fa ae 09 bc
       -0.008507434 0.00708996 -0.024354978 -0.008403534
000270 75 ef 9f 3a bb 6f d9 bb 09 2a 86 3b 93 9f 95 3c
       0.0012202101 -0.0066356338 0.0040943664 0.018264567
000280 b3 6d 5a 3c da bf af 3b 42 3a 1e 3c 32 91 05 bc
       0.013331818 0.0053634467 0.009657444 -0.008152293
000290 80 76 7c bc 28 e5 8b bc 42 13 25 bb 8f e7 99 bb
       -0.015409112 -0.017077044 -0.002518848 -0.0046967934
0002a0 bb bf 5d 3b 04 51 07 bc d2 e7 5a 3c 6b 67 8e 3a
       0.0033836204 -0.008259062 0.013360934 0.0010864561
0002b0 9b 76 50 bc 3a 58 99 bb 4b 0e a9 3b f3 5d 17 bc
       -0.01272359 -0.004679707 0.0051591746 -0.009238708
0002c0 0f 8d e5 ba e2 41 6a bc 93 03 a6 3a a0 a3 e0 bb
       -0.0017513352 -0.014297934 0.001266586 -0.006855443
0002d0 48 e2 13 3a 2b 17 03 3b 82 8b 68 3c ef 95 ac bb
       0.00056413235 0.0020002823 0.0141934175 -0.005266897
0002e0 b0 b1 6c ba 4d e1 5a 3c f7 5b d3 bb c8 62 c8 b9
       -0.0009029163 0.01335938 -0.006450172 -0.0003822057
0002f0 d3 d2 23 bc 3a 52 8c 3b b2 7d 68 3c eb 6e 10 3c
       -0.009998995 0.004282263 0.014190124 0.008815507
000300 63 f6 29 ba b9 c4 9b bb 57 a7 d1 bc 02 3e 5e 3b
       -0.0006483553 -0.004753676 -0.02559249 0.0033911471
000310 58 68 7a 3b 37 64 fe bb 73 60 60 3b 23 3f 95 bc
       0.0038209166 -0.0077634114 0.0034237176 -0.018218582
000320 44 9b 87 bc ef 89 80 3a ab 47 f1 bb e2 2b 56 3c
       -0.016553529 0.0009806732 -0.00736328 0.013071986
000330 e3 fb 55 bb df 4e 99 3b a9 eb 0b 3c 12 89 87 bc
       -0.0032651357 0.0046785916 0.0085400725 -0.016544852
000340 67 f5 15 bb 8f 35 e8 bb d4 11 1b 3b a3 80 00 3c
       -0.0022881867 -0.007086463 0.002366175 0.007843169
000350 b4 72 3d bc 4e a7 13 3c be 9e 9c 3c 2b 14 41 bc
       -0.011562992 0.0090120565 0.019118663 -0.011784594
000360 59 54 2d bb 9d be b2 ba 87 98 ef bb 78 f5 ad bb
       -0.002644798 -0.001363713 -0.007311884 -0.005308803
000370 fd f1 d8 bb f3 34 22 bb bd e8 1b b9 1b 6f aa 3a
       -0.006620644 -0.0024750798 -0.00014868654 0.0013003083
000380 1a 78 2c bc 49 2d 9f bb 75 c4 8f ba b7 a7 4c bc
       -0.010526681 -0.0048576933 -0.0010968583 -0.012491158
000390 cd a1 69 3b 3c 56 9c bb 47 58 04 3b 87 71 31 bc
       0.003564942 -0.004771022 0.002019422 -0.01083029
0003a0 76 77 80 3c 6d fc 72 3b f3 4e 9f 3b cb 0b a0 39
       0.015681963 0.0037076727 0.0048617064 0.00030526365
0003b0 2b 88 21 3c d7 42 54 bc 60 e9 8d ba fa 75 cc 3b
       0.009859125 -0.012955389 -0.0010826997 0.00623965
0003c0 5a c0 24 3b 4c e0 8f ba b3 ca 03 3b 77 7e ac 3c
       0.0025139065 -0.001097688 0.0020109832 0.021056397
0003d0 63 0e 17 bb b3 af 6b 3c d7 33 35 bc e3 23 74 bb
       -0.0023049347 0.014385152 -0.011059723 -0.0037252835
0003e0 b7 7c e3 3b 1d 4b 38 3b 77 7d e0 ba dd d8 dc bb
       0.0069423574 0.0028120943 -0.0017127235 -0.0067397193
0003f0 d3 17 91 3c 60 ac 28 3c 5b da 72 3a 14 42 21 bb
       0.017711556 0.010295004 0.0009264105 -0.0024606036

action_model._discrete_distribution.branches.3.bias f4 [2]
000000 00 00 00 00 00 00 00 00
       0.0 0.0
