Assets/results/ppo/My Behavior/My Behavior-311.onnx (onnx, 156809 bytes, 20 tensors)

discrete_act_size_vector f4 [1, 14]
00000000: 0000 0040 0000 0040 0000 0040 0000 0040
00000010: 0000 0040 0000 0040 0000 0040 0000 2041
00000020: 0000 2041 0000 2041 0000 2041 0000 2041
00000030: 0000 2041 0000 2041
2.0 2.0 2.0 2.0 2.0 2.0 2.0 10.0
10.0 10.0 10.0 10.0 10.0 10.0

network_body._body_endoder.seq_layers.0.weight f4 [128, 24]
00000000: 064e afbe 3250 a43e a96c 133e 1089 4fbd
00000010: 44ca 6c3e 4401 9d3d 967d 8c3e d924 1f3e
00000020: 4797 45be 6cb4 743d 2a8b 98be f350 913d
00000030: 9840 0bbe d471 5ebe a326 913e 4392 b1bc
00000040: cb21 413c 4113 013e 8647 aebe d2a3 0abd
00000050: 663a 08bc 08a6 ea3d d0ab d53d dc85 773e
00000060: 15ee e53d a491 2cbe 6a32 8a3e fb0e 06be
00000070: c741 8c3e acd3 02ba 5d9a 5b3d 31bd 6f3e
00000080: ea9c b8bd bca3 5b3e 66d9 1ebe 3c90 973d
00000090: 0aec a03d 0c56 19be a519 a93e ce46 d9bd
000000a0: 004b 583d 34c9 ef3e d63e c3bd ee9e 223e
000000b0: fa60 0dbe fbdc d0bd 9266 b6bd a532 043f
000000c0: 2803 593d 54a2 9abe 4bea afbc a472 79be
000000d0: ca8c b4bc 23b5 423e b3d1 fb3d 8d4a 6dbe
000000e0: 68da fdbc 40e1 86be dc4c 3fbe 3419 1a3e
000000f0: 657a 30bd 34f3 b53c 4f99 d7bd 3795 70be
00000100: 7c94 463d ae02 49bc ba6d 99bd 50f2 87bd
00000110: 7b0e 493e 4bb8 c83e 1b13 92bb d7b4 333d
00000120: 02eb 0fbe 47f3 cb3b 07f5 583f 6fcf cf3d
00000130: 996a 373d 63a9 82bd e491 013f d4f6 10be
00000140: 6106 02be 3764 cd3e 949c 2bbd fa25 39bc
00000150: a938 88be 7995 9b3d 31ac fd3d 17b7 953d
00000160: 3f78 4a3e a7d4 d6bc 28b3 febc 1803 afbc
00000170: bfaa 253e 6388 c8bd 5ffa d63d 67c0 dcbe
00000180: c041 863d 98ff 2f3b 5135 143e 3644 8bbe
00000190: 9894 a6bd 1bb6 873e c752 57be d997 d3bd
000001a0: 400a 33bd 4d68 83be 2182 373e 3c2d cb3d
000001b0: 64fe 423d 1b9f 853e dbe4 b13e 1f9d b8bc
000001c0: 016e 3bbe 8a36 7f3e 8b0b e8bd c260 4e3e
000001d0: dd13 1abe 30d9 b0bc b6b2 bc3d 87ac f7bd
000001e0: d93d a4bc a4b0 32be 41b0 a0be 16fb 1c3c
000001f0: 52d0 693e 85ba 1a3e 1ab6 593c 3adf 93be
00000200: 3776 cdbd 571d 2c3e 669b a83a a1d9 003e
00000210: 66d3 8cbe 3892 49be b7ef ab3e e9fb 06be
00000220: 4da6 b73e 8ab4 7cbd 7742 323e a2b5 05be
00000230: 1a7d ddbc a3ed f53d 2c10 5dbb 62e7 6f3e
00000240: 4b83 87bd 2c75 483e 54a7 04be 72f4 c6be
00000250: b1a6 cb3c fa1c 9cbe 7e2e 22bc c639 9fbe
00000260: 843c 883e 9f53 d13d faf8 b6bd 9d55 9fbe
00000270: 121b f73c d46a 6a3d 5fad 05be b1ce 85be
00000280: c053 a23d 8b03 c53e f0d9 163e 4607 b73d
00000290: 0c7c 4fbe 6e7d 29bc f15b 1abe c37e d93d
000002a0: c371 a7be dda4 223e fa6a c83e 3c67 e73d
000002b0: 7043 8a3e dbb3 f73d ae0e 513e 0c4d 1d3e
000002c0: 51f5 b83e 0614 8b3c 6b8a b73e c90b 8b3e
000002d0: 6d9b 3a3e 1962 b7bd fa0b 8fbd 0295 d73d
000002e0: 713c 6dbd c7e6 583e a9d2 81bd 0809 a43e
000002f0: 1b67 fc3c 1425 7cbe 761c 40be ae2f 1f3e
00000300: 16f9 5a3e 5775 423e 1a52 babc 6b6e 843c
00000310: fd2f 70bc a3da d23d 4ca9 523e 19a1 95bd
00000320: ed83 dcbd de80 b2bc b640 813e e8a3 d13e
00000330: 81cc d83c 7d8a 843c e9a6 713e 73a0 0b3e
00000340: 0b66 bfbd db61 283e e495 93bc 75a8 2bbe
00000350: c7db c43e b32c 6c3e 248e 083d d03e a3be
00000360: b9e0 b3bd 22ef d23d b654 edbc 87af 57be
00000370: 5c3c dd3e 1681 26be 4881 783a c050 77bc
00000380: adab 913e edcd 78bc 8cc3 ca3e c31e 13be
00000390: efa5 e43b 10da 3c3d 1e79 ae3e 3d01 18be
000003a0: c81b 273e 1fab c0be 7b38 0bbe 6b85 8d3d
000003b0: 3b0e d23d 5359 e6be d2c4 b3be a560 973d
000003c0: c431 113e 6fc6 4f3e 84f7 02bd 526b df3c
000003d0: 056f 0f3e 91d7 22be 3bb2 9fbd 9a6b 1dbb
000003e0: d4aa 85be 2532 153d 6685 bb3e 387a 26be
000003f0: a3ed e53d 9646 22be eae8 5a3e 1636 c6bc
-0.34239215 0.32092434 0.1439692 -0.050667822 0.23124033 0.07666257 0.27439564 0.155414
-0.19295989 0.059742376 -0.29793674 0.07095518 -0.1359886 -0.2172311 0.2834979 -0.021676188
0.011787842 0.12605001 -0.34038943 -0.033847637 -0.0083147045 0.11457449 0.10433161 0.24172157
0.11227051 -0.16852432 0.26991588 -0.13091652 0.27393934 -0.0004990648 0.05361401 0.23412015
-0.09014304 0.21449178 -0.15512618 0.074005574 0.07857521 -0.1497423 0.33027378 -0.10609208
0.0528059 0.46833193 -0.095334694 0.1588094 -0.13806525 -0.10198399 -0.089062825 0.5163978
0.052981526 -0.30201972 -0.021474024 -0.24360138 -0.02203979 0.1901441 0.12295856 -0.2317297
-0.030987933 -0.26343727 -0.18681663 0.15048677 -0.043085475 0.022210695 -0.10527288 -0.23494421
0.04848145 -0.012268705 -0.07491632 -0.06638014 0.1963443 0.39203104 -0.004457844 0.043873634
-0.14054492 0.0062240693 0.8474888 0.10146987 0.044779394 -0.06379964 0.50613236 -0.14156657
-0.12697746 0.4011552 -0.04189737 -0.011300558 -0.26605728 0.07596869 0.123863585 0.07310312
0.19772433 -0.026224447 -0.031091288 -0.02136378 0.16178416 -0.09791639 0.10496973 -0.4311554
0.065555096 0.0026855227 0.14473464 -0.27200478 -0.08133811 0.26506123 -0.21027671 -0.10331697
-0.043710947 -0.25665513 0.17920734 0.09920737 0.047605887 0.2609795 0.34744915 -0.022535859
-0.18303682 0.24923149 -0.11330327 0.20154098 -0.1504664 -0.021587938 0.09213774 -0.12093454
-0.020049023 -0.17450196 -0.3138447 0.009581348 0.22833374 0.15110214 0.013288045 -0.28881246
-0.10032313 0.16808067 0.0012863695 0.12583019 -0.27505034 -0.19684684 0.33581325 -0.13182034
0.35869065 -0.061695613 0.17408167 -0.13057569 -0.027037192 0.12008216 -0.0033731563 0.2342811
-0.06616839 0.19575948 -0.12954456 -0.38858372 0.024859758 -0.30490857 -0.00989878 -0.31098765
0.2660867 0.102210276 -0.08934207 -0.31120005 0.030164275 0.057230785 -0.13054417 -0.26134256
0.0792613 0.38479266 0.14731574 0.08936934 -0.20262164 -0.010344846 -0.15074135 0.10619881
-0.3270398 0.15883203 0.39144117 0.11298987 0.27004576 0.120948516 0.20415756 0.15361422
0.36124662 0.016977321 0.35847792 0.2715743 0.18223353 -0.089542575 -0.06984706 0.10526468
-0.05791897 0.21181785 -0.06339008 0.3203814 0.030810883 -0.24623519 -0.18760857 0.15545532
0.21384081 0.18990074 -0.022744227 0.016165933 -0.014659879 0.10295608 0.20572394 -0.073061176
-0.1076735 -0.021789964 0.25244683 0.40945363 0.026464703 0.016179318 0.23598827 0.13635425
-0.09345635 0.16443579 -0.01801581 -0.1676348 0.38448927 0.23063926 0.03333868 -0.3188386
-0.08783097 0.10299517 -0.028971057 -0.21063052 0.43210113 -0.1626018 0.00094797136 -0.015094936
0.2845129 -0.015185815 0.39602315 -0.14367203 0.0069777886 0.046106398 0.3407678 -0.14844222
0.16319191 -0.37630555 -0.13595764 0.06910213 0.102566205 -0.44990024 -0.351111 0.0739148
0.1417914 0.2029054 -0.03197433 0.027272854 0.14007194 -0.15902545 -0.07797667 -0.0024020434
-0.26106894 0.036424775 0.36625212 -0.1625756 0.11226966 -0.15847239 0.21377912 -0.024195712

network_body._body_endoder.seq_layers.0.bias f4 [128]
00000000: 0000 0000 0000 0000 0000 0000 0000 0000
00000010: 0000 0000 0000 0000 0000 0000 0000 0000
00000020: 0000 0000 0000 0000 0000 0000 0000 0000
00000030: 0000 0000 0000 0000 0000 0000 0000 0000
00000040: 0000 0000 0000 0000 0000 0000 0000 0000
00000050: 0000 0000 0000 0000 0000 0000 0000 0000
00000060: 0000 0000 0000 0000 0000 0000 0000 0000
00000070: 0000 0000 0000 0000 0000 0000 0000 0000
00000080: 0000 0000 0000 0000 0000 0000 0000 0000
00000090: 0000 0000 0000 0000 0000 0000 0000 0000
000000a0: 0000 0000 0000 0000 0000 0000 0000 0000
000000b0: 0000 0000 0000 0000 0000 0000 0000 0000
000000c0: 0000 0000 0000 0000 0000 0000 0000 0000
000000d0: 0000 0000 0000 0000 0000 0000 0000 0000
000000e0: 0000 0000 0000 0000 0000 0000 0000 0000
000000f0: 0000 0000 0000 0000 0000 0000 0000 0000
00000100: 0000 0000 0000 0000 0000 0000 0000 0000
00000110: 0000 0000 0000 0000 0000 0000 0000 0000
00000120: 0000 0000 0000 0000 0000 0000 0000 0000
00000130: 0000 0000 0000 0000 0000 0000 0000 0000
00000140: 0000 0000 0000 0000 0000 0000 0000 0000
00000150: 0000 0000 0000 0000 0000 0000 0000 0000
00000160: 0000 0000 0000 0000 0000 0000 0000 0000
00000170: 0000 0000 0000 0000 0000 0000 0000 0000
00000180: 0000 0000 0000 0000 0000 0000 0000 0000
00000190: 0000 0000 0000 0000 0000 0000 0000 0000
000001a0: 0000 0000 0000 0000 0000 0000 0000 0000
000001b0: 0000 0000 0000 0000 0000 0000 0000 0000
000001c0: 0000 0000 0000 0000 0000 0000 0000 0000
000001d0: 0000 0000 0000 0000 0000 0000 0000 0000
000001e0: 0000 0000 0000 0000 0000 0000 0000 0000
000001f0: 0000 0000 0000 0000 0000 0000 0000 0000
0.0 0.0 0.0 0.0 0.0 0.0 0.0 0.0
0.0 0.0 0.0 0.0 0.0 0.0 0.0 0.0
0.0 0.0 0.0 0.0 0.0 0.0 0.0 0.0
0.0 0.0 0.0 0.0 0.0 0.0 0.0 0.0
0.0 0.0 0.0 0.0 0.0 0.0 0.0 0.0
0.0 0.0 0.0 0.0 0.0 0.0 0.0 0.0
0.0 0.0 0.0 0.0 0.0 0.0 0.0 0.0
0.0 0.0 0.0 0.0 0.0 0.0 0.0 0.0
0.0 0.0 0.0 0.0 0.0 0.0 0.0 0.0
0.0 0.0 0.0 0.0 0.0 0.0 0.0 0.0
0.0 0.0 0.0 0.0 0.0 0.0 0.0 0.0
0.0 0.0 0.0 0.0 0.0 0.0 0.0 0.0
0.0 0.0 0.0 0.0 0.0 0.0 0.0 0.0
0.0 0.0 0.0 0.0 0.0 0.0 0.0 0.0
0.0 0.0 0.0 0.0 0.0 0.0 0.0 0.0
0.0 0.0 0.0 0.0 0.0 0.0 0.0 0.0

network_body._body_endoder.seq_layers.2.weight f4 [128, 128]
00000000: 3e40 193c 6aa4 f4bd 8e0b c1bd fdcc 87bc
00000010: 9bfb 1ebd bd87 3e3b ef85 143d 695b 81bd
00000020: 1540 1f3d d086 2dbe 7dd2 963d 7220 b7bd
00000030: d147 e53c 98f5 9a3d 837b 4d3c d394 12bd
00000040: 3f85 b6bc 88cc 723d 06cd 733d 3ad3 033e
00000050: 5243 833d 7a45 713d f360 13bc 9a9d 883d
00000060: 7ab6 7ebc e9a4 ecbd 8f47 2ebc ef04 d4bd
00000070: cb0c 363e 3afc 0f3b a9db abbd 9ae3 753d
00000080: 387d f73d 4b46 073e ab2a c23d 726e 9abc
00000090: 8b70 123d 68d1 03be 3618 25be 3eef 823d
000000a0: 34b9 af3a 7d74 233c d8ed 04be 8db3 3a3e
000000b0: 147d fabd 09c6 17bd 45d4 203c e325 0ebd
000000c0: cb99 c4bd d535 d53d bb1f 85bd b90c a1bd
000000d0: 5aac 9e3c 0d55 2f3b 8285 5bbd 4ee3 213d
000000e0: 109b 00bd 459f 353d 98b6 01be b6b6 0cbe
000000f0: 8071 313c 17fd 01bd 23f6 9e37 1ebc c73b
00000100: 3702 6c3c b1ad 9ebc 28a2 393d 7046 ff3c
00000110: c442 0b3d 484b 61bd 3ab9 523d 6ca6 a6bd
00000120: 925d 63be fff4 cb3d 94af 11be 9f50 3cbd
00000130: 6764 1d3e 101f 463d e675 723c 9183 49bc
00000140: 731d 0d3e 31d0 c6bd d43b 1dbc 7484 9cbd
00000150: 5c65 173e ac8e d03d 4435 4dbd 322a bdbd
00000160: 117d bd3d 7ce1 74bd ee16 a2bd 5af6 003e
00000170: 84b5 c7bb 2f63 68bd 08e4 82bd 540d 9cbd
00000180: c234 213d c5ce a73d f762 0e3d ebcb 653c
00000190: d455 0d3e 7fc4 53bd 82eb 923d 0abb 403e
000001a0: be3c 1bbe 72a0 203d 31ec a23c 155d 28bd
000001b0: 7773 eebc 6249 3f3d b59d d13c 182a 54bd
000001c0: 6f96 f5bb dad8 613e 6b56 253d 091c ae3d
000001d0: fe74 063e 0493 963c 1b94 62bd 88ac d7bd
000001e0: 223a a0bd c613 873b 6ab4 a7bd 7c60 c13d
000001f0: 7ed5 223b cf0e acbd 2c30 9d3d 324c e23d
00000200: 3652 76bd 379e 11bd 0798 b9bc 1049 c1bc
00000210: 5c5c a03d 7321 cf3d 3215 003e 1052 de3d
00000220: 6886 013d 2096 d4bc 1786 46bc 9625 a03b
00000230: a781 ecbd c4f7 14be 72fc 45bc f5d9 443e
00000240: 46bf a83d c669 04bd 31de 4e3d cc65 f23d
00000250: 7fb0 6abc dda0 ee3b 802e 803d 1c8b dcbc
00000260: 0ea8 a5bc be7d 1abd 7655 533c 6afb cb3d
00000270: 0def 19bd 12ee a13d b82d 32bd a6d2 ebbd
00000280: 1ce6 acbb b005 01be cb53 e23d 5932 09bd
00000290: 9c1a 44bd 70dc 503e f46f d6bd 4fe9 8ebc
000002a0: 2757 b2bc 4caa e1bc 4487 d53d fe96 00bd
000002b0: 0a92 d0bc 100c 823c 688b 143c 6ac8 febd
000002c0: 8192 f4bd 8003 1f3e 2833 d33c de5d dbbc
000002d0: c3d9 e13d 8a0e efbc d472 a0bd c74f 1fbe
000002e0: b2f8 0abd 2158 14be b103 173d 8a8e 34bc
000002f0: 957d a53d 8183 a0bd 8933 9c3d 071e 67bd
00000300: 8de2 2cbd 11e6 9fbc 0496 c0bc da01 0fbd
00000310: 6c57 cd3d 7e26 15be 5a16 64bd 3812 0e3d
00000320: 3c0e 98bd cdcc f8bd 9dc1 823d c939 d5bb
00000330: 11ee 6cbd f70b ce3b 7522 13be f72e a13d
00000340: 0226 b43c 4a5b 033d 4077 473e ef95 42bc
00000350: 538a c2bc b6f5 fb3b 24f1 a03d 5c4c 5dbd
00000360: 5981 8d3d c5d1 adbd 8d14 bc3d 2e10 babb
00000370: 552a 28bd 7795 193d 8a63 133e 8163 afbc
00000380: 57e0 e3bd 9b52 0b3e 9c5b 02bd 894c 443b
00000390: 5496 7c3c 44a1 01bc 5e0f dc3d 73d3 fe3b
000003a0: 59fa 9f3d d441 f5bb 02f7 f83d 15a1 2bbd
000003b0: 307f 613c 7b76 143e a6d5 83bd 273b c2ba
000003c0: cc78 8c3c 3989 f6bd 2402 95bc e84a 02bd
000003d0: f648 ae3d 7153 fdbd 95b3 c53c c02b 66bd
000003e0: 1fbb 263e 3cb0 b03d 3420 2ebd 305e 9cbd
000003f0: aced e53d 7394 acbb 40e9 06be 4661 f73c
0.009353695 -0.11945422 -0.09426032 -0.016577238 -0.03881417 0.0029072606 0.03626054 -0.06316263
0.038879473 -0.16945958 0.07364366 -0.08941735 0.027988346 0.075663745 0.0125416545 -0.03578646
-0.022280334 0.059277087 0.059521697 0.12873545 0.06409325 0.05890415 -0.008995282 0.06670685
-0.0155464355 -0.115548916 -0.010637178 -0.103525035 0.17778318 0.0021970407 -0.08391506 0.06003151
0.120844305 0.13210408 0.094807945 -0.018851493 0.03575186 -0.12872851 -0.16122517 0.06393288
0.0013406635 0.009976503 -0.12981355 0.18232556 -0.12230888 -0.037054095 0.009816234 -0.0347041
-0.09599646 0.10410658 -0.06500193 -0.07863755 0.019369293 0.0026753575 -0.05359412 0.039523415
-0.03139788 0.044341344 -0.1266731 -0.13741574 0.010830283 -0.031735506 1.8949684e-05 0.0060954234
0.014404825 -0.019369932 0.04532066 0.031161517 0.03399922 -0.055003434 0.051446177 -0.08137211
-0.22203663 0.09958839 -0.14227134 -0.045975324 0.15370332 0.048369467 0.014798617 -0.012299434
0.13780765 -0.09707678 -0.009596784 -0.07642451 0.1478476 0.101834625 -0.050099626 -0.09236564
0.0925237 -0.05978535 -0.0791453 0.12593976 -0.0060946364 -0.056735214 -0.0639115 -0.0761973
0.039356954 0.08193735 0.03476235 0.014025669 0.13802272 -0.051701065 0.07173826 0.1882135
-0.1515989 0.039215513 0.019888015 -0.041104395 -0.029107792 0.046700843 0.025587896 -0.051797956
-0.0074947397 0.22055379 0.040365618 0.08501441 0.13130566 0.01838065 -0.055317026 -0.105309546
-0.07823588 0.00412223 -0.08188708 0.09442231 0.002484649 -0.08401262 0.07675204 0.11049689
-0.060136996 -0.035551276 -0.0226555 -0.02359441 0.07830116 0.10113802 0.12508085 0.10855496
0.03162232 -0.025950491 -0.01211693 0.004887293 -0.11548167 -0.1454764 -0.012084113 0.19223769
0.082396075 -0.032327436 0.050504867 0.118358225 -0.0143243065 0.00728236 0.06258869 -0.026921801
-0.020221736 -0.037717573 0.012898793 0.09960063 -0.037581492 0.079067364 -0.043500632 -0.115147874
-0.0052764546 -0.12599826 0.110511385 -0.03349528 -0.04787694 0.2039659 -0.10470572 -0.017445235
-0.021770073 -0.027547024 0.104261905 -0.031393997 -0.025460262 0.015874892 0.00906644 -0.1244057
-0.11942006 0.15528679 0.02578123 -0.026778158 0.11027863 -0.029181737 -0.07834402 -0.15557776
-0.03392858 -0.14486744 0.036868755 -0.011020312 0.080805935 -0.078375824 0.07627017 -0.05642512
-0.042208243 -0.019518884 -0.023509033 -0.034913875 0.1002644 -0.14565465 -0.05568538 0.034685344
-0.0742459 -0.12148438 0.06384585 -0.0065071327 -0.057844225 0.0062880474 -0.14368613 0.07870286
0.02199078 0.032069482 0.19479084 -0.011876567 -0.023747599 0.007689203 0.07858494 -0.0540279
0.06909437 -0.08487276 0.09183607 -0.0056781983 -0.041055996 0.037496056 0.1439344 -0.021409752
-0.11126774 0.1360573 -0.031825647 0.0029952845 0.0154167 -0.007911984 0.107451186 0.0077766716
0.07811422 -0.007484654 0.12156488 -0.041901667 0.013763234 0.14498322 -0.064372346 -0.0014818654
0.017147444 -0.12037892 -0.018189497 -0.031809717 0.0851001 -0.12369431 0.024133483 -0.056194067
0.16282319 0.08627364 -0.04251118 -0.07635152 0.11226973 -0.00526672 -0.13174915 0.03019775

action_model._discrete_distribution.branches.0.weight f4 [2, 128]
00000000: 2c43 9f3b 335f b13b 83a4 9ab9 4f9a ea3b
00000010: 32c6 dfbb 7c64 cbbb 197c bbba 28dd 753c
00000020: 0fe3 3e3c 45de 71bc 01d7 45bc 4f00 20bb
00000030: f3bd 963c 4f9d 3d3c fbe4 9b3a 82d4 b53b
00000040: 7d5d 963b 20ec 6cb9 b938 953b b698 0cbc
00000050: 9d33 cb3b 977c 7c3b e893 c63b 9721 f23a
00000060: 1819 663c abd0 753b 7cca 1bba 5fae eabb
00000070: 7a0e b23a 9ab4 72bc 3124 163b 36ce 8fbb
00000080: 4d03 073c 5b1e 473b df23 053c 6f84 033c
00000090: 5f9a adbb bb5b 57bc 626b 46bb 1782 10bc
000000a0: 789c 953c 9844 3e3c 9699 283c 5c11 ca39
000000b0: 903c 71bb c499 143c 314f 323c 9f6d 983c
000000c0: 57d8 03bc dd6b bbbb 8fe5 3cbc 61f4 053b
000000d0: 4202 cdbb 6f40 1dbb 2c7c 0e3c 0807 a83a
000000e0: acbb 14bc 02cf 713c cb2d 943c 2dc9 4a3b
000000f0: 78ca 2e3c 8d78 c8bb b5ad b8bc eac6 353c
00000100: 4116 10bc 162d 09bc 65ca 65bc 73aa 92bc
00000110: 3c49 153b cf18 8fbc 0b09 8e3c cc96 cb3b
00000120: 1437 8abb 17ec e73a d9b0 00bc 82e8 7c3c
00000130: d8c3 283b 77c4 403b 38c7 b4bb 1ebf c1bb
00000140: 7c60 8c39 ae93 a5bb 47da 283c 436b 80bb
00000150: 55e0 063c a8fa d6bb 7c37 ac3a a379 a739
00000160: 1d31 77bc 5204 893c 675a a5ba 46f7 13bc
00000170: d29a 533b c637 b4bb 9af2 8d3c 87a4 79bb
00000180: 9fde 173c a7bf 4a3b 8c44 873c 085e 5ebc
00000190: 7753 28bc c48a 4a3b a8ba 86bc 7014 f339
000001a0: 7a67 df3b 251d 4f3c 936b 073b 189b d0bb
000001b0: 4cc0 29ba 6f58 7abb a59e 77ba 6318 903a
000001c0: 2a0f d03b bc44 ca3b 23e5 f73b 27cf 37bb
000001d0: e682 423a 3bb9 48ba 9f2b c23b 2292 5b3b
000001e0: 03e9 333c f9c8 acba 3144 9cbc 6429 b2bc
000001f0: 0b90 e93b faa7 96bb ebc6 143c 2731 eb39
00000200: 867e a83b 9321 c7ba 05e2 123b 8374 d7bc
00000210: 8b9e c13a fa95 513b c172 4c3b 8083 56bc
00000220: 7ff1 8fbc 2bba 5a3c c0be c5bb 2f46 243b
00000230: 9012 f2bb 2be4 5dbb e780 52bc 62c0 41bc
00000240: 3b75 ed3a 0fdc 6f3c 2f04 94ba 0bdd 1f3a
00000250: 07a5 533c f348 80bb bfd0 d53b 2a03 603c
00000260: 8b1b 5d3b 0b9d c3bb 20ff b2bb cda4 49bb
00000270: a5e7 733b 2e93 87ba 479a d43b 84ba b2bb
00000280: edf4 603c 8dc4 bf3b dd5b 533c 24e8 49bb
00000290: 678f 0fbc b7aa 4abc cd20 6abc d6dd 143b
000002a0: aeba 843c a3b5 9a3b 730e 203c 96cd 38bb
000002b0: bade 4e3c 7fb0 86bb d0c9 523c ea77 b03b
000002c0: e80e a1bb f3ba 833c bb0d 9c3b 37d2 a83b
000002d0: ab75 d03a 2500 ea3a f083 76bc c21b f73b
000002e0: 5b17 3bbc fff2 99bc 7c71 b23a 79dd 00bc
000002f0: bfe0 4a3c 9a17 d33b b706 19bc cbd8 6439
00000300: be4c 06bc b8bc 99bb e428 0b3b 8313 0dbc
00000310: d060 2eba bbfb e5bb a0b1 053b b249 fd3c
00000320: 430c 053c d992 803a a699 113c 30d0 653b
00000330: c6e3 81bc 0d98 4b3c 5f08 8d3b 21b3 953b
00000340: 0a8d 0d3b 2e4b 44bc 397c adbc 358c ecbb
00000350: 3939 4c3b f060 913b 025a f33a 2bdc 59bc
00000360: aa9a 42bc 9f20 25bc 4947 03bc d3c0 4f39
00000370: 2e0e 023a 6514 483b 483e f4bb 51fb 3c3b
00000380: 0254 9dbb a811 34bc db73 3b3c f77a 8f3c
00000390: 7543 0e3a 8f6e 38bb 9858 da3b 0726 bb3b
000003a0: 2011 4fbb cab9 0cbb ce93 3a3c 1844 7fba
000003b0: 2395 9eba 332b 42b9 ada8 ab3a e593 ad3b
000003c0: c600 08bc d4eb 31bc 125e dabb 02a2 1ab9
000003d0: 5f8e 543b 797d 103b 669a c93b 4b2e 893b
000003e0: 86e1 843b 6b71 9a3b d279 363c 2af1 d0bb
000003f0: 3faa a539 8b66 1bb9 b359 30bb 5ab8 01bc
0.0048603024 0.00541296 -0.0002949574 0.0071595083 -0.0068290466 -0.006207047 -0.0014303952 0.015006341
0.011650815 -0.014762466 -0.012075187 -0.0024414246 0.018401122 0.01157315 0.0011893803 0.0055490145
0.0045887814 -0.00022594677 0.004553881 -0.008581331 0.006201221 0.003852641 0.0060601123 0.0018473145
0.014044069 0.003750841 -0.0005942953 -0.0071619 0.0013584637 -0.014813567 0.0022909755 -0.004388596
0.008240533 0.0030383084 0.008126228 0.00802718 -0.0052979435 -0.013144429 -0.0030276407 -0.008820078
0.018263087 0.011613034 0.010290524 0.00038541376 -0.003680978 0.009069864 0.0108831385 0.018606959
-0.008047185 -0.0057196454 -0.01152934 0.002043985 -0.0062563727 -0.0023994704 0.008696597 0.0012819478
-0.009077948 0.014758827 0.018088242 0.0030942664 0.0106683895 -0.0061178864 -0.022543767 0.011094788
-0.008794368 -0.008372566 -0.014025305 -0.017903542 0.0022779247 -0.017467884 0.017338296 0.0062130447
-0.0042179916 0.0017694262 -0.007854664 0.015436294 0.0025751498 0.0029413977 -0.005516913 -0.0059126755
0.00026774767 -0.005053005 0.010305948 -0.0039190366 0.008232196 -0.0065606423 0.0013139094 0.0003194335
-0.015087393 0.016725693 -0.0012615443 -0.009031123 0.0032288325 -0.005499813 0.017327596 -0.003809245
0.009269386 0.0030936988 0.016512178 -0.0135722235 -0.010273806 0.0030905465 -0.016446427 0.000463638
0.0068177553 0.012641226 0.0020663484 -0.006366145 -0.0006475493 -0.0038199683 -0.0009445942 0.0010993596
0.006349464 0.0061727446 0.007565157 -0.0028047056 0.0007420018 -0.0007656996 0.00592561 0.003350385
0.010980847 -0.0013182453 -0.019075485 -0.021748252 0.007127767 -0.004597661 0.009080629 0.00044859314
0.005142036 -0.0015192501 0.002241255 -0.026300674 0.0014771981 0.0031980262 0.0031196328 -0.0130928755
-0.017571209 0.01335005 -0.006034702 0.0025066247 -0.0073874667 -0.0033857923 -0.0128481155 -0.011825653
0.0018116602 0.014639868 -0.0011292751 0.00060983066 0.012917764 -0.003914946 0.0065251286 0.013672629
0.003373834 -0.0059696487 -0.005462542 -0.0030768395 0.0037216928 -0.0010343546 0.006488118 -0.0054543633
0.01373027 0.005852288 0.01290032 -0.0030808533 -0.008762217 -0.012369803 -0.014290047 0.0022715232
0.016202297 0.00472136 0.00976907 -0.002819871 0.012626344 -0.0041103954 0.012865499 0.0053853886
-0.004915107 0.016080355 0.004762379 0.0051520127 0.0015904208 0.0017852826 -0.015046105 0.007541151
-0.011419143 -0.018792627 0.0013614143 -0.007865303 0.012382685 0.0064420225 -0.00933998 0.00021824536
-0.008197008 -0.0046916865 0.002123409 -0.008610609 -0.00066519994 -0.007018534 0.0020400062 0.03091893
0.008120599 0.0009809389 0.00888673 0.0035066716 -0.015855681 0.012426388 0.0043039764 0.004568473
0.0021598958 -0.011980815 -0.021177398 -0.0072188624 0.0031162037 0.0044366047 0.0018566253 -0.013297121
-0.011877695 -0.010078578 -0.008012601 0.00019812891 0.00049612194 0.0030529734 -0.0074537136 0.002883632
-0.0048012743 -0.010990538 0.011441196 0.017514689 0.0005426922 -0.002814207 0.006663393 0.0057113203
-0.00315959 -0.0021473044 0.011387778 -0.0009737625 -0.001209889 -0.00018517375 0.0013096534 0.0052971714
-0.008300966 -0.010859448 -0.006664046 -0.00014746937 0.0032433493 0.0022047444 0.006152439 0.0041864268
0.004055205 0.0047132275 0.011137443 -0.0063764052 0.00031598096 -0.00014820152 -0.0026908934 -0.007917488

action_model._discrete_distribution.branches.0.bias f4 [2]
00000000: 0000 0000 0000 0000
0.0 0.0

action_model._discrete_distribution.branches.1.weight f4 [2, 128]
00000000: bde2 babb fda3 ae3a 7789 85bc ad5e 57bc
00000010: 82a0 263c 13db ed3b 8e8b 383c 8a28 fd3b
00000020: ab13 e43a 9022 023b b73e 043b e2da 42bc
00000030: 8c3d 973b 8838 213a d35a 93bb 23dc 733b
00000040: 6508 553c 9e94 2a3c 74a6 34ba 173d ad3b
00000050: eb7c 84bc 3837 7b3a 2326 1c3b 488c 0ebc
00000060: a2bc ec3b 42f2 ac3b d51b 1139 120c 6cbc
00000070: fbbf 103c 0d73 863c c9c7 01bb f5ff e13a
00000080: 7b6f 31bb 70fd 053c 2b1e 043c f7f3 5abb
00000090: 1a29 ecba 471b a73b 8209 f7b9 2290 353c
000000a0: 958e 483c 2dd6 993a 3b60 f2bb 9797 dd3b
000000b0: 08b7 6f3b 09a9 353c 86a3 a7bb ae15 093b
000000c0: c5cb a8ba 8443 243c c828 1b3c eb90 52bc
000000d0: ce98 8cbc 475e 163b eb17 ddbb a0f4 333c
000000e0: d632 b83a 9364 853b 4a73 64bc 3af6 843b
000000f0: f384 bdbb 33ab 423b 60ca 293c 0330 13bc
00000100: 20d2 77bb 7564 63ba fadb 7d3b eace 4ebb
00000110: b8cc 51bc 940a 91bc ef85 0a3c d037 d93b
00000120: d5f1 a3ba 7fc7 9dbb 1ce0 1dbb 82bf fcbb
00000130: 4595 7fbc bb96 babb 9369 f9bb ca99 0b3b
00000140: 6dde 94bb a52b ff3b f92b 8dbb f375 3e3c
00000150: 67a5 cbba d85c 5d3c ed94 9b3b 5b84 06ba
00000160: 5d1e 09bc 46e6 2c3a 42c7 ce3c 2a50 fd3a
00000170: 3089 53bb ec7f 4cbc a2e0 df3b e928 313c
00000180: e7be 48ba 8432 333b 534d f23b 15e9 5d3c
00000190: ffa1 e7bc bcf3 2abc edda 4bbb b230 32bb
000001a0: 7337 803b 7bd1 d3b8 596a 92bb c51b 8c3b
000001b0: 60ec ce3b b4be 34bc d9e9 21bb 6a53 8bbb
000001c0: f1ef 84bb a7b9 d73a a79b 06bc 6210 6d3b
000001d0: 00b0 f6bb c3ca 0f39 8036 163c 9aa2 633a
000001e0: cdd5 a3bb b7dd 123b d22d f73b 330e 9a39
000001f0: c20e 36bc f395 393c 3bc7 06bb 5687 17bb
00000200: 3263 623b 0563 fb3a 7bd4 a43c d39d eb3b
00000210: c387 04bb 7f97 1ab9 9bad 333c 4bf4 543c
00000220: bfea 84bc 8283 9ebb 3b50 dd3b ec89 3d3c
00000230: ec03 2c3c 2798 64bb 7fc8 603a f2c6 943b
00000240: 879d 52bb 8042 d23b 1fc7 69bc b352 c83b
00000250: 2c46 b53c 8d1d 0cbc 441a 8fba 6c73 1e3c
00000260: 1b16 523c e827 763c 0fe0 2f3c 0b09 6d3c
00000270: 4ec6 a13b 4aff ed3b 5f8b 543c d376 9b3c
00000280: af01 c9bb 1b70 193c 2072 453b 8ff5 26bc
00000290: e19a 24bc 5b31 a03b ecea a4bb 575f a83b
000002a0: 0f33 53bb 030a 92bc 828b 04bb db81 493a
000002b0: 5fc0 8e3b a22d 133a 2b7f 80bc 384a d23b
000002c0: bddf bfba 0c7c 0c3c a7db c1b9 6949 1cbc
000002d0: 9263 82bc 85bc 6dbc 67a4 8a3c 5e40 9ebc
000002e0: 3baa 1a3c 1322 9c3c 0fce c9ba 208a 75bb
000002f0: 1f99 0bbb d949 92bb 902c e33b 1358 afba
00000300: 0f72 80bc fca6 a2ba e45a 8739 4da9 3a3b
00000310: 0284 3b3b bd60 60bc 5d2a ab3b 49eb 96bb
00000320: 6517 b83b 88c5 4a3b 7832 843c 835a 95bb
00000330: c896 353b 7a10 4bbb 2264 763c e7b0 f73b
00000340: c749 0d3c 466a 483b e759 8fbb 6872 48bc
00000350: 493e a43c aaf9 053a 70ba 5ab9 770e 86bb
00000360: abe5 813b 71f3 1cbb 10a4 80ba 1a6a 983a
00000370: 1e5b af3a dfe2 033c d761 42bc 82b7 95ba
00000380: efd0 c7b8 0824 993b 6ef1 cbbb 1b9c 293b
00000390: 8fc1 d23b 7e17 873c 2be5 adbb 9364 a1bb
000003a0: cf46 863a 381a 323c d081 d8bb 5b07 17bc
000003b0: 1c32 433c c512 913c 08f7 6ebb eb8e 6bba
000003c0: 04fa 93bc 7332 7b3a b1fa b9b9 3f33 743b
000003d0: e6c5 11bc d70b 74b9 970f 32bb 7b56 213b
000003e0: 80d8 65bc 77e0 8d3b eb4a 4cbc 5b0d 82bc
000003f0: 0350 8b3c 8439 b2bb cff7 38bb ebf0 d33a
-0.005703299 0.0013324019 -0.0163009 -0.013145131 0.010170104 0.0072587817 0.011263741 0.00772578
0.0017400881 0.0019857027 0.0020178983 -0.011893006 0.0046154913 0.00061500864 -0.004496911 0.003721007
0.01300249 0.01041141 -0.00068912585 0.0052868235 -0.016172847 0.00095831184 0.0023826442 -0.008700438
0.007224635 0.005277903 0.00013838646 -0.014407175 0.008834834 0.016412282 -0.001980292 0.0017242419
-0.0027074504 0.0081781 0.008063833 -0.0033409575 -0.001801762 0.0050996873 -0.00047118595 0.011081727
0.012241025 0.0011736803 -0.0073967255 0.0067624557 0.00365776 0.011087664 -0.005115929 0.0020917463
-0.0012878111 0.010025863 0.009470172 -0.012851934 -0.017162707 0.0022944377 -0.006747236 0.010983616
0.0014053236 0.0040708273 -0.013943503 0.004057673 -0.005783671 0.0029704093 0.010363191 -0.008983615
-0.0037814453 -0.0008674332 0.0038735853 -0.0031556436 -0.012805156 -0.01770524 0.008454784 0.006628968
-0.0012507985 -0.0048150416 -0.0024089878 -0.007713259 -0.0155995535 -0.005694238 -0.0076114624 0.0021301382
-0.004543117 0.0077871853 -0.0043082205 0.011624801 -0.0015536965 0.013510905 0.004747978 -0.0005131417
-0.008369056 0.0006595593 0.025241498 0.0019326259 -0.0032277815 -0.012481671 0.0068321982 0.010812976
-0.0007657841 0.0027343342 0.0073944717 0.013544341 -0.028275488 -0.010434087 -0.0031105832 -0.002718967
0.00391286 -0.00010100283 -0.004468244 0.0042757713 0.006314799 -0.011031795 -0.0024706034 -0.004251887
-0.0040569236 0.0016458527 -0.008215821 0.0036173095 -0.007528305 0.00013713077 0.009168267 0.00086835923
-0.0049998523 0.0022409984 0.007543304 0.00029383748 -0.011111917 0.011327255 -0.0020565528 -0.0023121438
0.0034543988 0.001917929 0.02012085 0.007190445 -0.0020222522 -0.00014743021 0.010966684 0.012997697
-0.016225217 -0.0048374543 0.006753949 0.011568528 0.010498982 -0.003488073 0.0008574798 0.0045403177
-0.003213735 0.006416619 -0.014268666 0.006113374 0.022128187 -0.008551967 -0.0010917862 0.009671073
0.012822653 0.015024163 0.010734572 0.014467488 0.00493697 0.007263099 0.012972682 0.018977558
-0.006134234 0.009365107 0.0030127838 -0.010190382 -0.010046692 0.004888696 -0.0050328877 0.0051383185
-0.0032226478 -0.01782704 -0.0020224755 0.00076868915 0.0043564285 0.0005614405 -0.015685638 0.006417539
-0.0014638823 0.008574497 -0.00036975482 -0.009538987 -0.01591662 -0.014510279 0.016924096 -0.019317802
0.00944 0.019059217 -0.0015396493 -0.0037466362 -0.0021300984 -0.0044643697 0.0069328025 -0.0013377689
-0.015679387 -0.0012409384 0.00025816925 0.0028482259 0.0028612618 -0.013694939 0.005223556 -0.004605685
0.005618023 0.0030940492 0.016137347 -0.004557909 0.002770828 -0.0030985163 0.015038522 0.00755893
0.008623547 0.0030580922 -0.004374731 -0.012234308 0.020049231 0.000511075 -0.00020859553 -0.00409108
0.003964146 -0.0023948813 -0.000981452 0.00116283 0.0013378595 0.008049696 -0.011864147 -0.0011422487
-9.527976e-05 0.0046734847 -0.006223849 0.00258804 0.0064317654 0.016490694 -0.00530686 -0.0049253195
0.0010244491 0.010870509 -0.0066072717 -0.009218062 0.0119138025 0.017709145 -0.003646316 -0.0008985835
-0.018063553 0.00095824077 -0.0003547273 0.003726199 -0.00889728 -0.00023274064 -0.0027169937 0.0024618197
-0.014028668 0.004329737 -0.012469034 -0.015875509 0.017005926 -0.0054389853 -0.0028223877 0.0016169822

action_model._discrete_distribution.branches.2.weight f4 [2, 128]
00000000: c74a 483c c035 8a3c 614d 3abc 2a42 c1ba
00000010: bea3 1abc 74ee 97bb a756 25bb 72e7 eebb
00000020: 78c0 573b 470b 09bc 2ff1 28bc decd 163c
00000030: 1147 3e3c 3382 aabc 6bc9 3dbc 5b67 c83b
00000040: 5bf2 94ba c01d dfbb 0a25 f03b 3360 2f3c
00000050: 85da 03bc 9328 0b3c 9dc0 3d3c 3f4b 5ebc
00000060: be7b 1e3c 2944 c63a 577e f03b b2ed 0a3a
00000070: 5027 703b 4f88 2939 d632 813c 67db 2e3c
00000080: fb80 4ebc 4f1e e3bb b4e5 34bb 081b 12bb
00000090: d1f1 c6bb 7ba1 87bb 3cf7 4a3c e004 c3bb
000000a0: 287e c43b 128c 56bc 2236 e9bc 3470 183b
000000b0: 190f 153b 6da1 faba d705 24bc ea8d 9f3b
000000c0: b512 c0bb c7eb 38bc 7fbd 00bc bcb5 8a3b
000000d0: 6336 8e3b 7d82 39bc 345f 8fbc 6dac 1c3c
000000e0: 6d7e 22bc d76c f63b ab92 b03a 6a5b a83b
000000f0: a7bc 77bc 70c5 62ba f6a2 42bc 779e 2b3c
00000100: eda9 1c3b 4675 103b 37cb 75bc eee4 88b7
00000110: e527 0e3a 4b85 8e3a 7908 953b dc14 33bc
00000120: e477 1ebb 23bb 78bc 03bc 8b3c 0fb5 18bc
00000130: 4d93 dcba 4728 aebb fb82 82b9 bdda 00bc
00000140: 08a0 943b a3c6 d23a 4e39 a9bb bd2b 373a
00000150: 45d8 48bc 6f7d d1bb 2802 d4ba 17c3 07bc
00000160: 8cdb cabb 2b32 d7bb 07cd 2fbc 1eb1 463b
00000170: fa32 103c 9ed7 b33a b966 c13c 8cad c23b
00000180: 58c8 80ba efc6 a23b 7af6 3a3c 1730 2bbb
00000190: 79ea b03b 26a0 86bc 0131 183b a03e dbbb
000001a0: 2dca 1a3c 66ad 073b c28c 77bb 8918 863b
000001b0: 1989 b7b8 1fab ad3b 6da0 40bb 7bbf 2f3c
000001c0: 53d2 99bb b79c ae3b a238 94ba 9354 32ba
000001d0: db21 0cbb c38a 76b9 3a2f 7c3c aa6d 83bb
000001e0: 682e 03bb a569 69bc 8c05 2d3b 550d ce3b
000001f0: 4b67 f2bb 25d3 f53a f2c6 163b 588a 11bb
00000200: 0797 e13b 148e 3d3c 624a 35bc 1b00 133c
00000210: 0b9b 79bc 7387 273a b8a9 b03a c827 5bbc
00000220: 47bc f73b 4d66 2abb 965d 913c 0fab 183b
00000230: 6152 8a3b 6dac 32bb 46eb 083b ad32 8c3b
00000240: 7589 1c3c 1a27 c3bb 2dff 01bc b092 18bc
00000250: 57ab d23b 5d49 4d3c 9d2c 6c3c 7aac f0ba
00000260: 1382 4c3b 8be6 aabb ea73 70bc 78fc 2dbb
00000270: b955 8abc cfb5 83b9 1780 0fbb 8f8d 42bb
00000280: 6ffc 58bb 7dd7 503c fe4f 84bb 4879 803b
00000290: 22e1 1e3c 7dd6 cc3b b312 98bc 9b8e ca3b
000002a0: 9ff3 183c aa2c 613c 898a 3bbc cb0d 8cbc
000002b0: 8b5c 973b 6261 343b e334 803b 58a9 e5ba
000002c0: 4e35 143c 5003 d53a 9b7c 3c3c 55cb 17bb
000002d0: 89ae c23a ec03 1cbc e191 acbb cacf 6abc
000002e0: fa46 69bc ab05 193b 4bbd f0bb 57af 30bc
000002f0: e012 d63a 60ef 723b 7a98 ebbb f747 803b
00000300: 505d 4ebc 1541 90bb 4954 c7bb 8392 ccbb
00000310: cd08 4d3c dfa2 3a3c 719e b93a 3bb8 223c
00000320: 670f 3c3c 534c 253c 4a49 08bc e68e bfbb
00000330: bb2c 57bb eb5f 73bc a37a c43b b1af 2abb
00000340: 9d52 0ebc 9a44 573b 313e 3f3c 4fdd 9d3c
00000350: dc6b 343b aae6 afbb 67a9 1dbc bfce c03c
00000360: aa7c dc3b 1368 b0bb 6012 f2bb 622f 9db8
00000370: b8b5 0a3b 51b4 1cbc d32a 303c 70ab 813c
00000380: 0a6a 48ba 4d1d ec3a 2360 e5ba 7987 0a3c
00000390: 4076 d3ba 0009 c33b 500e 4fbc eb91 aebb
000003a0: 33c0 a0bc c709 ccba b4f6 0b3c 41f5 9d3b
000003b0: 76b0 aab9 2b04 32bc 2519 8e3c dd00 b33b
000003c0: 1d26 4c3b 80b6 a53a 85d6 7bbc 65ff 81bb
000003d0: 8660 ccbb 98f1 26bb af1c bc3b 302e 083b
000003e0: e761 83bc 9243 7c3a 3746 2aba c5c9 54ba
000003f0: 7dcd 213c e387 01bc aa44 64bb e17d c93b
0.01222486 0.016871333 -0.011370988 -0.001474445 -0.009438453 -0.00463658 -0.002522865 -0.007290774
0.0032921117 -0.008364505 -0.010311409 0.009204356 0.011613623 -0.020814037 -0.011583666 0.0061158366
-0.0011363731 -0.0068089664 0.007328634 0.010704088 -0.008047705 0.00849356 0.011581567 -0.013567745
0.009673057 0.0015126514 0.0073392796 0.00052997016 0.0036644526 0.00016167875 0.01577131 0.010672427
-0.0126039935 -0.0069311033 -0.0027602734 -0.0022293944 -0.006071307 -0.004139123 0.012388047 -0.005951509
0.0059964843 -0.013094919 -0.028468195 0.0023260238 0.0022744595 -0.0019121595 -0.010011158 0.0048692124
-0.005861605 -0.011286682 -0.007857679 0.00423309 0.0043399795 -0.011322615 -0.017501451 0.009562594
-0.009917838 0.007520299 0.0013471445 0.0051378505 -0.015120662 -0.00086506363 -0.011879673 0.010474793
0.0023904995 0.0022042557 -0.0150020635 -1.6319067e-05 0.0005422815 0.0010873465 0.004548129 -0.010930266
-0.0024180347 -0.015181336 0.017057424 -0.0093205115 -0.0016828567 -0.00531486 -0.0002489312 -0.007864651
0.004535679 0.0016080927 -0.005164302 0.00069874135 -0.012258594 -0.0063931267 -0.0016174959 -0.008286259
-0.006190723 -0.00656726 -0.010730035 0.0030317972 0.008801216 0.0013720875 0.023608552 0.0059410986
-0.0009825332 0.0049675624 0.011411304 -0.0026121193 0.005399045 -0.016433787 0.0023222568 -0.006690815
0.0094476165 0.0020702719 -0.0037773107 0.0040922803 -8.7516564e-05 0.0052999402 -0.0029392496 0.010726805
-0.004694262 0.0053287405 -0.0011308382 -0.00068027637 -0.0021382484 -0.00023512081 0.015392119 -0.0040108757
-0.0020016674 -0.014246379 0.0026401011 0.0062882104 -0.0073975674 0.0018754943 0.0023006764 -0.0022207703
0.006884459 0.011569519 -0.0110650975 0.008972193 -0.015234719 0.0006390728 0.0013478315 -0.013376184
0.007560286 -0.0026000917 0.01774482 0.0023295318 0.004221246 -0.0027263418 0.0020892187 0.004278502
0.009554257 -0.005955589 -0.007934374 -0.009312317 0.0064291167 0.012529698 0.0144149335 -0.0018361949
0.003120546 -0.005215471 -0.014676074 -0.0026548188 -0.016886579 -0.00025121725 -0.0021896416 -0.0029686426
-0.0033109447 0.012746689 -0.004037856 0.003920708 0.0096972305 0.006251155 -0.018563604 0.0061815507
0.009335428 0.013743559 -0.011446604 -0.01709642 0.0046191863 0.0027523865 0.0039125546 -0.0017521782
0.009045912 0.0016251598 0.011504318 -0.0023161967 0.0014853041 -0.009522419 -0.0052664136 -0.014331767
-0.014238114 0.0023349326 -0.007346784 -0.010783992 0.001633253 0.0037068948 -0.0071898075 0.003914829
-0.01259549 -0.0044022896 -0.0060830456 -0.0062430515 0.012514305 0.011391371 0.0014161599 0.009931619
0.011478282 0.010088998 -0.008318255 -0.0058458922 -0.0032833058 -0.014854412 0.0059960647 -0.0026044662
-0.008686689 0.0032847286 0.011672542 0.019270567 0.002753011 -0.0053680735 -0.009622908 0.023536084
0.0067287283 -0.0053835004 -0.0073874444 -7.495169e-05 0.0021165442 -0.009564475 0.010752398 0.015828818
-0.00076451956 0.0018014103 -0.0017499964 0.008455151 -0.0016133264 0.0059520006 -0.01263769 -0.0053274534
-0.019622898 -0.0015566879 0.008542705 0.0048204963 -0.000325564 -0.0108652515 0.017345974 0.0054627494
0.0031150647 0.001264289 -0.01537097 -0.003967213 -0.0062370924 -0.002547359 0.005740724 0.0020779483
-0.016037894 0.0009623106 -0.0006495448 -0.0008117224 0.009875652 -0.007905933 -0.0034830966 0.006149039

action_model._discrete_distribution.branches.3.weight f4 [2, 128]
00000000: 7df5 2cbc 2ac3 ba3c e205 263b a07b 7c3b
00000010: e5cc 1ebc 6664 c8ba e56e 9cbb 9b93 4a3b
00000020: 7675 83b7 ac97 ae3b 6b14 6ebc f368 d0b8
00000030: 2653 2bbc 4a61 ba38 47c3 303c 9ddb 78bb
00000040: cbf9 373c 4db2 3c3c 8ff9 9bbb 41c0 073c
00000050: 6890 77bc bbe4 15bc aa97 2dbb 97fb c1bb
00000060: f81b ff3b 238c e5bb 95f5 693b d42e 24bc
00000070: 305b f6bb f7ea 8bbb 272a fe3b 7f2f 9c3b
00000080: f55c 0dbc aa8d f03a 5f3e 163b 3f36 25bc
00000090: 53ac e7bb 734c 88ba c85a d33b 7f0d 88bc
000000a0: 9b58 c2ba ca13 75bc a826 f1ba b3e1 e63b
000000b0: 4544 6d3b 85f7 243c bccd 1d3c 96a4 09bc
000000c0: 861d 2e3b 324d 9b3c 5ca0 2a3c 8332 1f3c
000000d0: 6056 0dbc cf41 fbbb ca69 51bb 6540 3dba
000000e0: d541 68bb abc9 1b3c 2d90 1b3c cb0f 423c
000000f0: f24b 0f3c 4b42 0b3c 011f 83bb edfe 10bc
00000100: 77cd 0cbc ab2e 603c 66b4 8ebb cd97 a1bb
00000110: 9f84 893c c39c a139 91a8 4b3b d72e d6bb
00000120: cf11 87bb 4380 66bc 956e c7bb 80a3 6d3b
00000130: 45b8 44bc 4f71 d3bb 67a7 82bc 4de4 603c
00000140: ae5d 2bbc bf6d 45bb 076b 153b 4a2a 4a3b
00000150: 52f7 953b 5598 123c 4373 ba3b 86a4 c8bb
00000160: 5237 e73b aa0e e0bb 25e5 27bb 4004 d2bb
00000170: a8eb 83bb a071 553c 625e 8cbb 19fc 3a3c
00000180: b64c 3ebb 5ed3 c6bb d848 4fbc 5053 393a
00000190: 268a 8d3b 9b77 78b9 10ca 7b3c 5d3c 60b9
000001a0: e729 183b 2ff8 ed3c 8308 efbb 14ea 1a3c
000001b0: b72e 7b3b ef37 413c cb56 b13c f281 e2bb
000001c0: 79e9 0dbc 5f30 a4bc f2e2 383c 5234 41bc
000001d0: cffe f6bb 8c01 063c bf31 22ba a7aa f83b
000001e0: 9f79 d13a 4310 e23c 7dc7 e7bb f3da fdbb
000001f0: e78e f83b 9b1f 673a 892f c4bb 0a36 503c
00000200: 77d8 08bc 569c 3b3c 57e3 233c 9a53 413c
00000210: 70b6 11bb fb59 0bbc 070f 26bc a0a8 5a3c
00000220: 7f7c 72bc 5a73 743a 4b9f 843b 73e6 f23b
00000230: 6f7d f2ba 480c 55bb bfe7 09bc f24a 35bc
00000240: 7727 01bc 51d2 94bb 1f0c 65bc 3f1a 71bb
00000250: 45c9 9cbb 2bf1 9fba 731b 263b 1e14 823b
00000260: 3bb6 2c3c aba3 b8bb da5c e1ba 225b 613c
00000270: 4d5b f739 d2ec 263c bfbb 02bb 68ad 9d3c
00000280: 85ed eb39 61d3 39bc 155d cd3b 43cf 223c
00000290: 37af 943b a4b2 abbb ff36 b83b 583c 893b
000002a0: 9096 2c3b 1599 1c3c cdb5 613c eed4 caba
000002b0: db4c 253c f94f 083c 6083 05bb 47be e43b
000002c0: b482 083c 8769 333b a08e 853c db82 9b3b
000002d0: 50a5 06bc 8d74 05bc 9f8f 0e3b ff8c b43c
000002e0: 7953 ccbb 1d1f 8e3b 87da 25bc 9dc7 8dbb
000002f0: a959 003c 5d9c 34bc 1897 68bc 1699 063b
00000300: 7b37 1abb 4788 803c 93bc 1b3c 6895 03ba
00000310: d6d3 c7ba 9e1b a0bb 2729 663c 736e 6a3c
00000320: ab4c 473c c30d 56bc 0496 4a3b e1e1 063a
00000330: 839b b0bb 8e7b c93b 49c4 1e3c 2343 35bc
00000340: ac18 083b 9292 c5bb 0ed8 47bb fb77 06bc
00000350: 213a 313b b2c3 1e3b 4a81 1d3c 754b 823b
00000360: 6228 fbbb 0183 00b9 ef28 1c3b ff42 f6bb
00000370: 9840 86bb b756 193c ca68 fcba 9b0d 18bb
00000380: 5742 b7ba 1776 c2b9 327d 52ba b817 57bc
00000390: 0d20 283a d361 83bb fa0e a63c 9a4b 8d3a
000003a0: 2e16 2e3b dfe7 363b 2dd8 4d3b 2f42 293c
000003b0: a5fe 97bc c895 28bc 2d65 b13b f79b c0bb
000003c0: 1711 813b 8218 77bc 13be 023a a3d4 183c
000003d0: d757 38bb 70bf f3ba a87e 833b 330f e7bc
000003e0: e532 20bb 1483 80bb c80b 143c 66cd 443b
000003f0: 6a29 9839 c316 c33a 88f7 6e3c e2c6 e8b9
-0.010556576 0.02279814 0.0025333096 0.0038525835 -0.009692405 -0.001528871 -0.004773962 0.0030910734
-1.5671114e-05 0.0053281393 -0.014531235 -9.937761e-05 -0.010456836 8.887293e-05 0.010788745 -0.0037972697
0.011228989 0.01151712 -0.0047599743 0.008285583 -0.015110113 -0.009148772 -0.0026488104 -0.0059198844
0.0077853166 -0.007005231 0.0035699357 -0.01002093 -0.0075181946 -0.0042699534 0.00775649 0.004766404
-0.00862812 0.0018352766 0.002292536 -0.010083734 -0.007070103 -0.001039876 0.006450031 -0.016607998
-0.0014827432 -0.014958331 -0.0018398361 0.0070459484 0.0036204022 0.010068779 0.00963157 -0.008401057
0.002656789 0.018957708 0.010414209 0.009716633 -0.00862655 -0.007667757 -0.0031953924 -0.00072193734
-0.003543963 0.009508531 0.009494823 0.011844586 0.008746134 0.008499692 -0.0040014987 -0.008849842
-0.0085939085 0.0136830015 -0.0043550013 -0.004931426 0.016786871 0.0003082511 0.0031075815 -0.0065363455
-0.004121996 -0.014068666 -0.0060861805 0.0036260784 -0.012006824 -0.0064527164 -0.015948964 0.013726306
-0.010459347 -0.0030125228 0.002279939 0.003084796 0.004576602 0.008947452 0.00569001 -0.0061231283
0.0070561552 -0.0068376856 -0.0025618759 -0.006409198 -0.004025895 0.013027579 -0.0042837122 0.011412644
-0.0029037423 -0.0060676774 -0.012651645 0.00070696045 0.004319447 -0.0002369568 0.015368 -0.00021384792
0.0023218335 0.029049007 -0.007294716 0.009455223 0.0038327405 0.011793121 0.021647831 -0.0069124633
-0.008661621 -0.020042596 0.011284577 -0.011792259 -0.0075377 0.00817908 -0.00061872223 0.0075887027
0.001598168 0.027595645 -0.0070733414 -0.007747048 0.0075853947 0.000881666 -0.005987112 0.012708196
-0.0083523905 0.011450848 0.0100029325 0.011799717 -0.0022233985 -0.00850534 -0.010135419 0.013345867
-0.01480019 0.000932505 0.0040473095 0.0074127256 -0.0018500517 -0.003250854 -0.008417069 -0.011065232
-0.007882944 -0.004541673 -0.013979941 -0.0036789326 -0.0047847354 -0.0012202611 0.002534595 0.0039696833
0.010541494 -0.005634745 -0.001719381 0.013754638 0.00047179536 0.010188298 -0.0019948331 0.019247726
0.0004499966 -0.011341901 0.0062671998 0.00993711 0.004537489 -0.0052398015 0.0056217904 0.0041881017
0.002633486 0.009557982 0.013776255 -0.0015474835 0.010089125 0.008319848 -0.0020372495 0.0069806906
0.008331943 0.0027376132 0.01630336 0.004745824 -0.0082181245 -0.008145464 0.0021753085 0.022039888
-0.0062355367 0.004337205 -0.010122902 -0.0043267743 0.007833877 -0.011023608 -0.01419618 0.0020538024
-0.0023531604 0.015689982 0.009505409 -0.00050195167 -0.0015245627 -0.0048861047 0.014047897 0.01430856
0.012164275 -0.0130648045 0.003091217 0.0005145353 -0.005389632 0.006148762 0.009690353 -0.01106337
0.0020766659 -0.0060294354 -0.003049377 -0.0082073165 0.0027042704 0.002422553 0.009613344 0.0039762803
-0.007664726 -0.00012255834 0.002382811 -0.007515311 -0.0040970556 0.009359053 -0.0019257304 -0.002320147
-0.0013981563 -0.00037090547 -0.000802952 -0.013128214 0.00064134673 -0.0040094643 0.020270813 0.0010779977
0.0026563513 0.0027909202 0.0031409368 0.010330721 -0.018554041 -0.010289617 0.0054136724 -0.0058779675
0.003938805 -0.015081527 0.000498743 0.00932804 -0.0028128529 -0.0018596482 0.0040129013 -0.02820549
-0.0024444398 -0.0039218757 0.009036012 0.0030029654 0.00029022555 0.0014884103 0.014585383 -0.00044398668

action_model._discrete_distribution.branches.4.weight f4 [2, 128]
00000000: a7bd 553c d31f 153c 1bd1 523a 5ebf 993a
00000010: edc8 b33b 87e9 873b e4f5 90bb 44c3 0bbc
00000020: 9033 f53b 1a1b 683c 45ba 673c 20e3 9b3c
00000030: 6d41 8abb 2b9d cc3b f28f 853c 5761 803c
00000040: 539f dc3b 0300 0abb f175 aabb 9348 ba3b
00000050: abfe 8d3b 63a4 f93a bdd1 203c 9f2e 76bb
00000060: b6b8 a03a 5fd3 563c ebcd 8d3b 61a8 113c
00000070: 6799 5b3c 9103 8fbc 1abf 23bc ff71 0fbb
00000080: e4ca 453c fb1b 04ba 10cc 7b3a 5a75 f3bb
00000090: b51e 00bc be77 92bb e79c 643c 882c fa3a
000000a0: b31a ad3c 7257 0b3c 1a5e 593b 4f45 70bc
000000b0: cf57 c93b f657 19bb 97e8 15bc 57a0 9a3c
000000c0: 3372 043c 22f2 88bb 5342 563b 4fea 333b
000000d0: c597 31bc 733e 313c 84d9 893b 5dbc 81bc
000000e0: eb0d 903a 79f4 023c fd79 583c c88a 95bb
000000f0: 526f 283b 7281 fdbb 6ac8 eabb 2d54 e43a
00000100: ff26 8ebc dc91 c5bb fa5a 293b e152 aebb
00000110: 97e1 c7bb f542 b839 21a3 c63c 0772 03bc
00000120: 0b79 9b3c 34d9 8ebb b7ac d43b b93d 8f3c
00000130: 2b9c aa3a 9bad 1b3c 56e0 05bb 68f5 5cbc
00000140: 33a4 cdbb 4940 b0bb 423d 73bc e88e 9fbb
00000150: a371 293b 82a5 f1bb ad1d d4ba 5fd0 a93b
00000160: 7edc 243c 4b17 20bc 73a4 20bc cbc0 88ba
00000170: 7162 b6bb 4f9a 99bc 27c6 343c 4fea 843c
00000180: 88a0 cabb bd1b 8abc af43 2e3c eb39 ac3b
00000190: 950d ff3a 8b3c 48bb 2a20 2c3c 4338 3e3a
000001a0: 6a49 903c a71e d9bb 1f27 2cba 1ce3 0f3b
000001b0: 09dc adba f2f4 93bb a587 f4b9 c360 47bb
000001c0: 7089 df3b b223 0bbc 076c 64bc 28ef dd3a
000001d0: 727a 58bc 37ad 3cbc d339 433c 5799 ffbb
000001e0: 67d1 733b 7be6 d4bb 63b0 853a 9850 0cbc
000001f0: 92e7 66bb b7dc 253b 1d05 4d3c f0e2 3dbc
00000200: b2d4 d23a 6d06 8d3c 3796 39bc aff7 95ba
00000210: 0452 c0ba c1a0 8fbb 4827 f63b abfd c03b
00000220: 4158 81bb b61a 0cbc afb8 393c 8b79 3dbb
00000230: 31f9 373b 53ee 21bc 85a3 ff3b 6637 10bc
00000240: c500 3aba 874d 80bc c56d 3b37 d888 0d3b
00000250: 5524 ff3a 9af9 62bc 4bfb 25bc 079e 73bb
00000260: 6d61 ee3b 23ca b2ba 28bf 223a fbfd 85bc
00000270: 6321 9f3b 9af0 d63a 4038 16bc 0241 2a3b
00000280: 964e 1cbb 2f72 05bb f7bd b23c 9b33 3b3c
00000290: 590d 8dbb e0cd 75bc 7838 a8bb 0142 44bc
000002a0: 07a5 713a 72c7 6bbb bf08 a6bc 3dae 33bb
000002b0: 3636 923c 2ded 41ba 23fd f9ba 7bc8 8fbb
000002c0: fc42 493b fecc a53b 5a36 5a3c 314b 843c
000002d0: 54d2 8fbc 12b2 df3a 1176 1e3a d84e e23a
000002e0: d3bb d63b 879c a1bc b7bb 1ebc 8586 d4bc
000002f0: fab1 fd3b 259e 953c 69ad ab3b aa12 b5bb
00000300: 6b4a bb3b ac2a 063c 4ae8 0f3c 43e3 253b
00000310: f5a7 8239 7ba0 aa3b 21c2 8139 151b 1cbc
00000320: 9b41 393c 7521 0abc 2b07 42ba 9fc3 423c
00000330: 7735 28bc b99c 183b ea21 1eba b788 bfbb
00000340: 51e9 2a3c 83bb 2f3c 6363 f3bb 7f1a a8bb
00000350: 32af c9bb 28bf 2bba 5595 0abc 4f7b acbb
00000360: 7f13 793c 73e9 1f3c 0053 12bc b969 8b3b
00000370: af92 b23b c7e1 2c3b 1320 003c 7455 be3b
00000380: c992 2d3c 5718 053c 37a9 833b 93e2 5db9
00000390: 9d32 d6b8 05de 25bb b401 03bc f784 b2bb
000003a0: 8af0 dabb c324 ee3b 7a93 25bb 0a30 683c
000003b0: af2d b23c 2fb4 4f3c 0c4e 8bba da74 83bc
000003c0: 55ff d239 55e5 54bc 8f4d 00bc cace d93b
000003d0: 0f81 f73a ab33 bd3c abaf 11bc c087 713b
000003e0: 8777 bfbc 1245 1cbc ab6a e53b 4dab 683c
000003f0: b58f 7d3a 6d01 563c 563d 94bb d5c0 0dbc
0.013045705 0.009101826 0.00080420234 0.0011730005 0.0054865987 0.0041477117 -0.0044238437 -0.008530442
0.0074829534 0.014166618 0.014143531 0.0190292 -0.004219225 0.006244322 0.01630399 0.015671415
0.00673286 -0.0021057136 -0.005202048 0.005684921 0.0043333373 0.0019046183 0.0098156305 -0.003756441
0.0012262079 0.013111918 0.004327526 0.008890242 0.013403273 -0.017457755 -0.009994293 -0.0021888015
0.012072299 -0.000503957 0.0009605298 -0.007429761 -0.007819821 -0.004469841 0.013953424 0.0019086758
0.021130895 0.008504735 0.0033167661 -0.014664962 0.006144501 -0.0023398376 -0.009149692 0.018875284
0.008083868 -0.004179255 0.003269334 0.0027452891 -0.010839407 0.010818112 0.004206838 -0.015836889
0.0010990476 0.007992857 0.013212678 -0.004563663 0.0025701118 -0.0077363783 -0.0071650045 0.0017420106
-0.01735258 -0.0060293507 0.002584158 -0.0053199385 -0.0060998905 0.00035145102 0.024247708 -0.008022792
0.018978616 -0.0043593887 0.006490316 0.017485486 0.0013016512 0.00950184 -0.0020427904 -0.013486244
-0.0062756776 -0.005378757 -0.014846148 -0.0048693307 0.0025855086 -0.0073744664 -0.001618316 0.0051823105
0.010062335 -0.0097711785 -0.009804833 -0.0010433433 -0.0055659343 -0.018750338 0.011033571 0.016225008
-0.0061836876 -0.01685893 0.010636254 0.005255928 0.0019459004 -0.0030553665 0.010505715 0.00072563085
0.017613132 -0.0066259685 -0.0006567109 0.0021955436 -0.0013264428 -0.0045152837 -0.0004664037 -0.0030422665
0.0068218037 -0.008492397 -0.013941771 0.0016932236 -0.013212787 -0.011515907 0.011915642 -0.007800262
0.003720367 -0.006497202 0.0010199662 -0.008564137 -0.0035233242 0.0025308558 0.012513426 -0.011589751
0.0016085117 0.017214978 -0.011327318 -0.0011441613 -0.001467288 -0.004383177 0.007512007 0.0058896146
-0.0039472883 -0.00855129 0.011335536 -0.0028911557 0.0028072114 -0.009883481 0.0078014755 -0.0088022705
-0.00070954516 -0.015661968 1.1171626e-05 0.0021596458 0.0019465784 -0.013853455 -0.010130714 -0.003717305
0.0072747977 -0.0013640564 0.0006208294 -0.016356459 0.004856275 0.0016398609 -0.0091686845 0.002597869
-0.0023850552 -0.0020362248 0.021819098 0.011425878 -0.0043045697 -0.015002698 -0.0051336847 -0.011978627
0.00092180114 -0.0035977033 -0.020267842 -0.0027417087 0.017848115 -0.00073977077 -0.0019072633 -0.004387913
0.0030710092 0.0050598374 0.0133186225 0.016149135 -0.017556347 0.0017066619 0.0006044815 0.0017265929
0.006553152 -0.019727958 -0.009688309 -0.02594305 0.0077421637 0.018263886 0.005239178 -0.0055259066
0.0057156584 0.008188885 0.008783409 0.002531246 0.0002492067 0.005207119 0.00024749435 -0.009527941
0.0113071455 -0.008430828 -0.0007401581 0.01188746 -0.010266653 0.0023286773 -0.0006032275 -0.005845155
0.0104316035 0.010725859 -0.0074276193 -0.0051301117 -0.006154918 -0.0006551617 -0.008458455 -0.005263723
0.015202402 0.0097602485 -0.008930922 0.0042545465 0.005449615 0.002637969 0.007820147 0.0058085267
0.010594078 0.008123479 0.0040179747 -0.00021160608 -0.00010213743 -0.0025309336 -0.0079960115 -0.0054479796
-0.0066815065 0.007267566 -0.0025264905 0.01417161 0.0217503 0.012677236 -0.0010628118 -0.01604693
0.00040244558 -0.01299413 -0.007830991 0.0066469656 0.0018883067 0.023095926 -0.00889198 0.0036854595
-0.023372425 -0.009537952 0.007001241 0.014200998 0.0009672598 0.013061863 -0.0045239134 -0.008651932
