Assets/results/ppo/My Behavior/My Behavior-324.onnx (onnx, 156809 bytes, 20 tensors)

discrete_act_size_vector f4 [1, 14]
00000000: 0000 0040 0000 0040 0000 0040 0000 0040
00000010: 0000 0040 0000 0040 0000 0040 0000 2041
00000020: 0000 2041 0000 2041 0000 2041 0000 2041
00000030: 0000 2041 0000 2041
2.0 2.0 2.0 2.0 2.0 2.0 2.0 10.0
10.0 10.0 10.0 10.0 10.0 10.0

network_body._body_endoder.seq_layers.0.weight f4 [128, 24]
00000000: 2750 743d 99be 5f3d f90b 40be 2645 803d
00000010: 54b4 a33c 1e7b 643d c3a3 383e 7a81 d53e
00000020: 57ca 33be b053 63bd 3d1f 0dbe 3618 063e
00000030: 03e0 923e 45dd 143b 34b5 aebd 16d9 9abd
00000040: b110 00bf fa3d 883d 5e4b 9bbd 4935 ce3c
00000050: 81ff 273e b5d8 ca3a 9732 0cbd 177d e6be
00000060: d016 343e 703d 533d e351 80be f7bf 77bc
00000070: 59ba 1d3d 647e 14be 1249 35be eb39 e5bd
00000080: df28 193f 088a f0bd 52ae bcbd d8b6 81be
00000090: 5456 663e 7d62 89be 844d b6be 0f62 853e
000000a0: dcf8 763d f514 39be 2aed 873e dda1 be3e
000000b0: 043e 103e 77be bb3e 4522 943b e3cd b43e
000000c0: 3355 b9bb b226 b93e f3a0 79bd f601 8dbd
000000d0: 6cd4 13bf b921 493c 01e6 ca3e 73ec 4fbe
000000e0: d211 803e 9da1 843e 4947 8d3e 95dd 5d3e
000000f0: 48cb 6b3e f819 6fbe f42c 73b9 7663 123e
00000100: eb03 a0bd d189 05be f1ec 8e3e a997 75be
00000110: d7e3 5e3e 7f1c 3abe 04cd 28be 1fcc 8ebe
00000120: 1ac9 44bd 2388 ad3d 3ca1 933d 0d13 8b3e
00000130: 9003 fcbd 7733 89bc e29f 103d c74f 733e
00000140: 45bc 4f3c 976f 06be a5dc 4dbd 11ed 913c
00000150: 2fd2 7fbe 9298 873c 8e5a d0bb 1a2b c63d
00000160: cc82 503d e3d5 5c3e 2406 923e bee5 073d
00000170: f5fa e63e 6623 b5bd 0c49 e83e 7dc4 a1be
00000180: 016c 993d b78f ed3e 107d f0bd a17c c03d
00000190: 244b a9be 1768 3ebe c470 70be 6fb7 aebe
000001a0: 0b24 c1be 8583 b83d 7196 2b3e ceb8 1d3e
000001b0: a844 28be 4871 753d b756 ae3d efe5 e83d
000001c0: 8373 b73d cdd0 b9bd 3c8c 983d a29e 163d
000001d0: 9866 bebd 6108 94be fa33 cfbe b671 13be
000001e0: af51 fd3d 8f3e b53e 5770 023e 26c4 d2bd
000001f0: 08a6 a3bd 4c6f 553e 2f0a a23d 7121 df3e
00000200: 77cc 4d3e 0b51 ad3e 1768 87bd 688f 16be
00000210: 846d e73c 6194 84bd 3272 66be 97da d53e
00000220: 8989 ae3d c1de f1be 8ad2 5c3e 249c bcbc
00000230: 4fcd 30be 27c2 0ebe ab8e 14be 4771 b3be
00000240: 225b 4abe ad9b d73e 460a 6abd 5a1b 3abc
00000250: b435 43be 59d1 9fbd 5886 833d e8be 933d
00000260: 1286 b53d 0473 79be bf15 163e b342 66be
00000270: cfed 00bd 62af 743d 1eac 92bd 168b f43e
00000280: fb74 083d fe66 e2be f55a 44b9 45c6 003e
00000290: cff4 9a3e 6566 983e ad98 c23d 7d3d aabe
000002a0: bb91 4c3d 46df a7be acc2 02be e6db 4fbe
000002b0: b60c 08be 9214 43be 6cd3 0abd 3457 d93c
000002c0: 1228 a43d 0696 9b3d ed75 89be dcf5 c6ba
000002d0: 6a67 313e 420d 413d 8810 013e 15b2 853e
000002e0: 666f 57be 87ad 103f a7ac 66be 5eef 523e
000002f0: 46f4 c23c 2362 08bf 4ec5 16be 308a f43c
00000300: 2ef2 e93d 30de 60ba dad4 023e efb3 9bbe
00000310: cb3f a5be dc3e 83bd b083 7cbc 34a5 19be
00000320: adc6 55be 7e71 d6be bd7e cd3c 041f c53d
00000330: 54cf 853d f30c adbd 5ab2 81bd 8e78 ab3e
00000340: d3a7 6f3e ff9a 44be a127 afbc bf9a d4bd
00000350: 3113 0dbe f372 1abe fa56 48bd 5129 54be
00000360: f834 3fbd a3e6 ecbc 8cd7 173f 5433 413d
00000370: cce5 18bd 7b3c 963d ed63 80be cadb 89bd
00000380: f761 2a3e b393 a83e cf7c 62be 6084 11bc
00000390: 53b0 febe 2366 a5be d88a 893e 901c 9cbd
000003a0: d16b 6dbe cbcb 81be 450e 9abe 4812 643d
000003b0: d352 993c 930a b3bc 9541 023e 35cc 9d3e
000003c0: ab21 4abe d663 1a3e 7356 153d f445 cabd
000003d0: 4372 9dbd e392 e93d 9346 bfbe 0f96 8e3e
000003e0: 72cf 063d 1ebb d7be 5e2e fdbe 222c bc3d
000003f0: ba3d 07be 3260 82be ef0a 373e 8db0 b23e
0.05964675 0.054625127 -0.18754567 0.06263189 0.019983448 0.055781476 0.1803122 0.41700345
-0.17557655 -0.055499732 -0.13781448 0.13095173 0.28686532 0.0022714895 -0.085306555 -0.07560937
-0.5002547 0.06652446 -0.075827345 0.025171893 0.16406061 0.0015475961 -0.034227934 -0.4501731
0.17586827 0.051572263 -0.25062475 -0.015121452 0.038507793 -0.14501339 -0.17703655 -0.111926876
0.5982799 -0.11745077 -0.092129365 -0.2533481 0.22493869 -0.26832953 -0.35606015 0.26051375
0.060295925 -0.180744 0.2654813 0.37232867 0.14086157 0.3666875 0.004520687 0.3531333
-0.0056559085 0.36162335 -0.06094451 -0.0688514 -0.57746005 0.0122761065 0.39628604 -0.20305042
0.25013596 0.2590455 0.2759345 0.21666558 0.23026764 -0.2334975 -0.00023191032 0.14295754
-0.07813247 -0.13040854 0.27915147 -0.23983635 0.21766602 -0.18174933 -0.16484457 -0.27890107
-0.048043348 0.08473232 0.072084874 0.27162972 -0.12305367 -0.016748173 0.035308726 0.23760901
0.012679164 -0.13128506 -0.05025925 0.017813237 -0.24982522 0.016552243 -0.006358451 0.0967619
0.050905988 0.21565966 0.2852031 0.033178084 0.4511334 -0.08844642 0.4536823 -0.3159522
0.07491303 0.46398708 -0.11742604 0.09398771 -0.3306514 -0.18594395 -0.23480517 -0.34124324
-0.3772281 0.0900946 0.16756608 0.15402529 -0.1643244 0.059922487 0.08512633 0.11371981
0.08957579 -0.09073029 0.074486226 0.036772378 -0.09296912 -0.28912643 -0.40469342 -0.14398846
0.123690955 0.3539929 0.12738167 -0.102913186 -0.07990652 0.20843238 0.079120986 0.435802
0.20097528 0.33850893 -0.066116504 -0.14703143 0.028250463 -0.064736135 -0.225045 0.41768333
0.085223265 -0.4724026 0.2156469 -0.023023672 -0.17265819 -0.1394125 -0.14507549 -0.3504736
-0.19761327 0.4211096 -0.057138704 -0.01135906 -0.19063455 -0.07803602 0.064221084 0.07214147
0.088634625 -0.24360281 0.14656733 -0.22486381 -0.031476792 0.05973757 -0.07161735 0.47762364
0.033314686 -0.44219202 -0.00018725901 0.12575634 0.302649 0.2976562 0.09501777 -0.33250037
0.049943667 -0.32787532 -0.12769574 -0.20298728 -0.13286099 -0.19050816 -0.033893034 0.02653084
0.08015455 0.07596974 -0.26847783 -0.0015179473 0.17324606 0.047131784 0.12603962 0.26112428
-0.21038589 0.5651478 -0.22526799 0.20599124 0.02379812 -0.53274745 -0.14723703 0.02985105
0.11423145 -0.00085780304 0.12776509 -0.30410716 -0.32275233 -0.06408474 -0.015412256 -0.15004426
-0.2087657 -0.41883463 0.025084848 0.096250564 0.06533685 -0.084497355 -0.06332846 0.33490413
0.23403864 -0.19199751 -0.021381201 -0.10381078 -0.13776852 -0.15082912 -0.048911072 -0.20718886
-0.046681374 -0.02891857 0.59313273 0.04716809 -0.037328526 0.073357545 -0.25076237 -0.067313746
0.16638933 0.32925186 -0.22117923 -0.008881658 -0.497439 -0.32304487 0.26863742 -0.07622635
-0.2318566 -0.25350794 -0.30089012 0.055681497 0.018716251 -0.021855628 0.1272033 0.3081986
-0.19739406 0.15077147 0.036459398 -0.09876624 -0.07687809 0.114049695 -0.3735853 0.2784886
0.03291268 -0.42134947 -0.49449438 0.09188105 -0.1320714 -0.25464016 0.17875265 0.34900323

network_body._body_endoder.seq_layers.0.bias f4 [128]
00000000: 0000 0000 0000 0000 0000 0000 0000 0000
00000010: 0000 0000 0000 0000 0000 0000 0000 0000
00000020: 0000 0000 0000 0000 0000 0000 0000 0000
00000030: 0000 0000 0000 0000 0000 0000 0000 0000
00000040: 0000 0000 0000 0000 0000 0000 0000 0000
00000050: 0000 0000 0000 0000 0000 0000 0000 0000
00000060: 0000 0000 0000 0000 0000 0000 0000 0000
00000070: 0000 0000 0000 0000 0000 0000 0000 0000
00000080: 0000 0000 0000 0000 0000 0000 0000 0000
00000090: 0000 0000 0000 0000 0000 0000 0000 0000
000000a0: 0000 0000 0000 0000 0000 0000 0000 0000
000000b0: 0000 0000 0000 0000 0000 0000 0000 0000
000000c0: 0000 0000 0000 0000 0000 0000 0000 0000
000000d0: 0000 0000 0000 0000 0000 0000 0000 0000
000000e0: 0000 0000 0000 0000 0000 0000 0000 0000
000000f0: 0000 0000 0000 0000 0000 0000 0000 0000
00000100: 0000 0000 0000 0000 0000 0000 0000 0000
00000110: 0000 0000 0000 0000 0000 0000 0000 0000
00000120: 0000 0000 0000 0000 0000 0000 0000 0000
00000130: 0000 0000 0000 0000 0000 0000 0000 0000
00000140: 0000 0000 0000 0000 0000 0000 0000 0000
00000150: 0000 0000 0000 0000 0000 0000 0000 0000
00000160: 0000 0000 0000 0000 0000 0000 0000 0000
00000170: 0000 0000 0000 0000 0000 0000 0000 0000
00000180: 0000 0000 0000 0000 0000 0000 0000 0000
00000190: 0000 0000 0000 0000 0000 0000 0000 0000
000001a0: 0000 0000 0000 0000 0000 0000 0000 0000
000001b0: 0000 0000 0000 0000 0000 0000 0000 0000
000001c0: 0000 0000 0000 0000 0000 0000 0000 0000
000001d0: 0000 0000 0000 0000 0000 0000 0000 0000
000001e0: 0000 0000 0000 0000 0000 0000 0000 0000
000001f0: 0000 0000 0000 0000 0000 0000 0000 0000
0.0 0.0 0.0 0.0 0.0 0.0 0.0 0.0
0.0 0.0 0.0 0.0 0.0 0.0 0.0 0.0
0.0 0.0 0.0 0.0 0.0 0.0 0.0 0.0
0.0 0.0 0.0 0.0 0.0 0.0 0.0 0.0
0.0 0.0 0.0 0.0 0.0 0.0 0.0 0.0
0.0 0.0 0.0 0.0 0.0 0.0 0.0 0.0
0.0 0.0 0.0 0.0 0.0 0.0 0.0 0.0
0.0 0.0 0.0 0.0 0.0 0.0 0.0 0.0
0.0 0.0 0.0 0.0 0.0 0.0 0.0 0.0
0.0 0.0 0.0 0.0 0.0 0.0 0.0 0.0
0.0 0.0 0.0 0.0 0.0 0.0 0.0 0.0
0.0 0.0 0.0 0.0 0.0 0.0 0.0 0.0
0.0 0.0 0.0 0.0 0.0 0.0 0.0 0.0
0.0 0.0 0.0 0.0 0.0 0.0 0.0 0.0
0.0 0.0 0.0 0.0 0.0 0.0 0.0 0.0
0.0 0.0 0.0 0.0 0.0 0.0 0.0 0.0

network_body._body_endoder.seq_layers.2.weight f4 [128, 128]
00000000: e5fb b7bd f8c0 d03d 220b 34bd c109 7fbc
00000010: a22d f6bd 10fa 84bb a6c1 34bd 5885 6b3d
00000020: 1599 b23d 2f7b ddbd f6bd eb3d e963 ef3d
00000030: 7f4d 433d c1ed c73d 76a9 b6ba 30db 34be
00000040: 5240 0f3e 7bc3 4dbd 5777 073d 0a31 a13d
00000050: d542 103d a1b9 ecbd 3bd5 09be cfa9 d93d
00000060: 9c15 df3c c8ef 823d 0c31 1e3e 1567 073e
00000070: 344a 8cbd 393f e43d 8918 20bd b266 c33d
00000080: daf7 b7bd cd5f 05be e98b 46bb 2abd 023e
00000090: 57d6 d9bd 2b63 2fbe da1d db3c 3d57 8bbd
000000a0: 3418 e9bd 8958 1b3a 9fa6 c9bc 94ba 5fbc
000000b0: 17f7 27bd 13bf 3f3d dc7c 833d 6ebf dabd
000000c0: 85cf 673d 742c c53c c63a 65be 15b8 ce3d
000000d0: 886c cb3b 1c87 9abb f162 b23d 4d3d 18be
000000e0: 36f2 dabd 778a 8abc 85bb 2ebc 197c 903d
000000f0: 321e b13c d974 ccbd 27f0 863d 17a6 6abd
00000100: 7384 a0bd 78cc 1a3e 8901 1ebe de9f 82be
00000110: f286 81bd e060 9a3d 7fde d0bd e35b e63c
00000120: 216d 3f3d ddb0 36bc 1c95 d9bc 8303 193c
00000130: c208 123e 08a9 e4bc 89e0 673e 24d7 0d3e
00000140: 611f a13d 02c4 89bb 1628 b7bd 971c d3bd
00000150: 6ca0 083e fab1 77bc a295 3ebd 75d2 88bd
00000160: 5cde 3f3d b3e1 623d b1f3 8a3d 6cd2 393c
00000170: fcd9 c63d 5c5b f7bc a5fd f23d 3559 823d
00000180: f27a 123e b0e4 223d 07ca 563d 16f9 aa3d
00000190: aa77 913d 29ea 443c f56a 77bc 6ef7 2a3e
000001a0: 1cdf acbd dd41 c0bd 1103 213d 1490 f3bc
000001b0: 4cbd af3a c484 10be 7ffe 863d 8b5d a4bd
000001c0: ce5d d23d 4a74 fabc b463 0dbc 45b1 b2bc
000001d0: 91be 2b3d c950 453d c639 25be 57c4 393c
000001e0: 624f 04bc 2be9 90bd 2a48 84bd bb5b 86bd
000001f0: 135d bcbd 83e5 cfbd dcca e6bd 7cda 603d
00000200: 7e84 a93d ac15 bc3d bbaa b3bb 68ba d1bb
00000210: 79ab 2abc 7393 e1bd 7d0a 1dbe e3b5 47bd
00000220: fffd 553d 060f 833b 3081 febd cc5a 92bd
00000230: d1f9 46be f2b1 d2bd 403e 66be 2fde 65bd
00000240: 9ff7 0e3d 8b76 0ebe 40c8 20be 9744 85bd
00000250: b8bb cb3d 12c0 ed3d 8917 fa3d 5cc7 0dbd
00000260: c2d5 0cbd 8ee7 58bd d7c7 5bbd 1e5b 92bc
00000270: 2c2c 19be d8fd fabc 09d8 463d 15c3 223d
00000280: 850c 58bd fa63 88bd 0db6 753c 791a e6bc
00000290: f51d 75bd 7a23 1e3d cbfd a13d 5403 c73d
000002a0: edff e4bb 61f8 42be 5e7c f0bd baf7 3abe
000002b0: 7a10 58bb 4fdb 8c3d 93eb 22bd cd8e f33c
000002c0: 21e0 f13c 3bb7 89bd f4af 62bd a9ae 1a3e
000002d0: 1572 e73d 94bc 86bd bfb2 95bd cb0d a2bc
000002e0: 1a4f f8bd 98c6 0f3d 99af 0d3e b6d7 103e
000002f0: a5db 2abc b860 763d 62ac fa3d 1558 a1bd
00000300: 6b04 06be f809 bdbc 4295 a2bc db4e 2dbd
00000310: 933d 803d 4f2c f03d b41b 7e3d 3108 cabd
00000320: 67ea f5bd 2e8b 25be 4be2 433c 8696 c23d
00000330: e581 813d becb 5fbe e59f 5ebd be8d 8bbc
00000340: a55e 3cbd 652b 1c3e 25a2 b7bc ec2b 30bd
00000350: bbfa 293e f335 f43d c79e c8bc b17a 443d
00000360: 4cc2 063e b10b b03d 05da 32be 6fa5 733d
00000370: e7e8 843d ec62 ebbd 70e0 c23d 2a1b bfbd
00000380: 80ce e53d a4d4 5cbc cef7 23bd d054 b23c
00000390: 788e 8a3d 9343 0bbe 354c db3c 766c 2b3e
000003a0: 6ddd 05bd f82f 273d b977 dfbc 4cd7 9abd
000003b0: 19a9 08bc c01b a43d b07c 83bd 945b 073d
000003c0: a77b b33b 8b76 0d3d 2f19 0e3c f4c5 9abd
000003d0: e5b5 ed3d f6c4 a63d e235 edbc b990 6bbd
000003e0: dee1 9b3d adb6 91bd 31a3 c7bd 14aa ad3d
000003f0: e933 c13d 18fc 2f3b 471a c7bc d781 bfbd
-0.08983592 0.10193056 -0.04395593 -0.01556629 -0.120204225 -0.00405813 -0.04412999 0.057500213
0.08720604 -0.10814511 0.115108415 0.11688978 0.047681328 0.09762145 -0.0013936001 -0.17661738
0.1398938 -0.050235253 0.033072796 0.078706816 0.035219986 -0.115588434 -0.13460247 0.106280915
0.027231984 0.06393391 0.15448397 0.13222916 -0.068500906 0.11144871 -0.0390859 0.09541072
-0.08982821 -0.13024826 -0.0030295795 0.12767473 -0.10636585 -0.17127673 0.026747633 -0.06803749
-0.113815695 0.00059259735 -0.024615584 -0.013655324 -0.041007128 0.046813082 0.064202994 -0.106810436
0.05659439 0.024069048 -0.22385702 0.100937046 0.0062080063 -0.0047158133 0.08710278 -0.14867134
-0.10690729 -0.016911728 -0.010664825 0.0705492 0.021620844 -0.099832244 0.06588774 -0.057287302
-0.07837763 0.15117061 -0.15430273 -0.25512594 -0.06324567 0.07538009 -0.10198688 0.028119987
0.046734933 -0.011150566 -0.026560359 0.009339216 0.14261153 -0.027912632 0.22644247 0.13851601
0.07867313 -0.004204274 -0.08943193 -0.103081875 0.13342446 -0.0151181165 -0.04652942 -0.066807665
0.046842918 0.055391025 0.06784762 0.011341672 0.09709546 -0.03019493 0.11864785 0.06364671
0.14304712 0.039768875 0.052438762 0.083482906 0.07102902 0.012018719 -0.015101184 0.1669595
-0.08440992 -0.093875624 0.039309565 -0.029731788 0.0013407855 -0.14113146 0.0659151 -0.080256544
0.10271798 -0.03057303 -0.008629728 -0.021813044 0.041929785 0.048172746 -0.1613532 0.011338315
-0.008075567 -0.07075723 -0.06459077 -0.06560465 -0.0919744 -0.10151198 -0.11269161 0.054895863
0.08277224 0.09183821 -0.005482999 -0.006400395 -0.010416859 -0.11014452 -0.15336032 -0.048757445
0.052244183 0.0039995937 -0.12426984 -0.071462244 -0.19431235 -0.102878466 -0.22484684 -0.056120094
0.03490412 -0.13912408 -0.1570139 -0.06507223 0.09947914 0.116089 0.1221152 -0.034613952
-0.034383543 -0.052955203 -0.05365738 -0.017865714 -0.14958256 -0.03063862 0.04854587 0.039736826
-0.052746315 -0.06659694 0.014997018 -0.028088795 -0.059843022 0.03860805 0.07909735 0.09717432
-0.0069885165 -0.19040062 -0.11742471 -0.18258563 -0.0032968805 0.06877767 -0.039775442 0.029731179
0.029525818 -0.067244016 -0.055343583 0.1510569 0.11301056 -0.06578937 -0.07309484 -0.019781968
-0.121244624 0.035101503 0.13836516 0.14144787 -0.010428344 0.060150832 0.12239911 -0.078781284
-0.13087623 -0.023076043 -0.019846562 -0.04231153 0.06261744 0.11727201 0.06203814 -0.09864844
-0.12007599 -0.16166374 0.011955808 0.09501366 0.063236035 -0.21855065 -0.054351706 -0.017035361
-0.045988698 0.15250929 -0.022416184 -0.043010637 0.16599552 0.119243525 -0.024489773 0.04796857
0.13160056 0.0859598 -0.1746598 0.05948394 0.06489735 -0.11493477 0.09515464 -0.09331353
0.112210274 -0.013478432 -0.040031247 0.021768957 0.06765455 -0.13599996 0.026769737 0.16740593
-0.03268187 0.04081723 -0.027278768 -0.07560596 -0.008341097 0.080131054 -0.06420267 0.03304632
0.005477387 0.03453688 0.008672996 -0.07557288 0.11606959 0.08143036 -0.028956357 -0.057511065
0.0761144 -0.07114921 -0.09747923 0.084797055 0.09433729 0.002685314 -0.024304522 -0.09350937

action_model._discrete_distribution.branches.0.weight f4 [2, 128]
00000000: 32d3 fcbb a0e0 463b 9279 2fbc ca0b 29bc
00000010: 835e 1f3c f878 d83a 2183 0e3b da35 e33b
00000020: 9e7d 26bc 10ac 833b eb89 d1bb 026e cf3b
00000030: 643d 9b3b 334b 023c 1b42 88bb 25ab a3ba
00000040: 35d7 9bba 87e3 22ba 6fb9 65bc 6cb9 033b
00000050: e142 30bc 2fb2 8e3a f190 9dba 5381 1ebc
00000060: 7b0d 31bc 6d11 6d3c 01da 09bb 95a1 7fbb
00000070: e362 a639 c43f 17bc b1f7 afbb 8e3c 223c
00000080: 5ba8 2f3c 6047 4fbc 4705 773c 27d7 da3b
00000090: df70 b8bc a21f 5639 cfcb 1d3b 63eb a9bb
000000a0: f40c 04bb 111e 203c 45e5 4fbc cec3 c93b
000000b0: 2139 9dba 176b 323c 428d 53bc b5ac 7f3c
000000c0: 3e9a 253c 4ae6 e3bb d69f c8bb 3348 63bc
000000d0: 4bf8 853b 638b 3c3c 22a2 dbbb 4dae 78bb
000000e0: 15d0 31ba bf29 ba3b ade6 debb 4585 0cbc
000000f0: 7ff4 93bb cba7 dc3b 5f16 483c 7b1b 083c
00000100: eb70 813a 3b4e 3abb 8869 683b b07d c6b9
00000110: 6d53 413a 7a92 28bb 10c9 d1ba 9ad6 223c
00000120: 716b 14bc 6c61 4aba 7c14 86bc 48e7 2a3b
00000130: b984 88bb 73c5 e33b 82ab 6fbc 41f2 833c
00000140: b0e9 7e3a 40d9 883b a3ed 83ba 8a6e 0a3a
00000150: 873f ec3b 3d9b 89bc e8a0 703b 8ff7 28bc
00000160: 62e6 ef3a c22e a13b 77c0 f83a ab66 55bc
00000170: e28a b3bb 9d67 0c3b befe 35bc 5b9c 0dbb
00000180: 8b55 05bc 45a4 21bc a37c 1fbc 0f21 833b
00000190: 9715 e63b 6e50 403b 33ad 263c 8781 3038
000001a0: 6fa7 2bbc 5257 91ba 8719 4fbc 24ab 92bb
000001b0: ca63 ad3a b5ae 013b dfe3 c5b8 bb0b b23a
000001c0: 460c 023c 32bb 51b9 1dfd 7f3c 40ba 0ebb
000001d0: b34f cbbb 9d81 60bc 44e6 33bc ea98 59bc
000001e0: 8d66 2dbc 4797 9f3c 93a5 be3b 3258 b53b
000001f0: f701 49b6 4cb8 003b b7c4 f93b 1de5 993c
00000200: 9d58 e3bc 529a 90ba c582 d43b abf0 713c
00000210: 3bf7 1e3c 5daa ce3b e6ab 3abb 8b86 25bc
00000220: b815 4cbb a8d3 b1bb 3c9f 98bb ebcd 01bc
00000230: 68ee d6ba af04 ffbb 8462 b03b 5eca 9a3b
00000240: a4c1 2f3b 1393 0cbc 4576 07bb 6a99 1fbc
00000250: e564 ea3b 2eda 02bc d2de b23b a753 e13b
00000260: 7313 f33b ecb6 333b 3345 a83b 7151 303c
00000270: 9bfc 0bb9 abe4 b93b 0b34 963c ca14 96bb
00000280: ebb3 9eba a210 443c fbff b3bc f50d 553b
00000290: 18e6 3c3c af45 953a 02e6 763b 11be 093b
000002a0: 09e2 82bb f59e c1bb 2d89 673c 2bcb 5c3c
000002b0: c509 f9bb d376 1fbb d02b ee3b fc4b c43b
000002c0: d782 89bc f244 95bc 2de3 1f3c bf62 92bb
000002d0: 182c e33a edd5 68bc 7f65 d5bb ffb9 e0bb
000002e0: 6bf0 c4bb a4a9 33bc c1a3 873b c8ed 073c
000002f0: 9bd0 59bb e725 5fbc 9577 3ebc e646 08ba
00000300: 4377 993a 736c b1bb fbcb d73b cf0f ccbb
00000310: 935b 083c dfae 7bbc 2607 86bb b2d3 fc3b
00000320: a62a 04bc 9524 8aba b7b2 9eba 498e 923b
00000330: f14b 873b 0509 ab3a 1ff5 d63c 7516 e539
00000340: a756 6dbb d3cf 0cbc 875c 01bc a775 503c
00000350: 5176 01bc 2f75 30bb 83ec 1dbb e0e0 ccbb
00000360: ce25 203b 1074 3e3c f727 2bbc e77c 3e3c
00000370: fac0 85bc 06a9 94b9 388b 9b3c 6764 463a
00000380: c56e 2abc ac10 023a 0af4 7d3b 27c0 0cbc
00000390: d3be ee3b e7f3 243c 2d28 4e3b 6529 65bc
000003a0: 0748 77bc 0d2d c53b 4b17 2d3c 0481 ae3b
000003b0: eb3e 82bc bd9a 24bc f367 403c b283 58bb
000003c0: e7a6 453b aef2 29bc 7790 163c 0179 99bc
000003d0: ea84 10bc da57 e63b 9f06 8ebc bb41 f3ba
000003e0: 2b0c a4ba c4bf c0bc a590 f03a 63f4 3cbc
000003f0: c23e b83b c7ab 03bb a8fe a33c a464 0dbc
-0.007715606 0.003034629 -0.010710137 -0.010317752 0.009727123 0.0016515544 0.002174564 0.00693391
-0.010161785 0.004018314 -0.006394615 0.0063302526 0.004737543 0.007952499 -0.004158271 -0.0012486918
-0.0011889698 -0.0006213714 -0.014021262 0.0020099534 -0.010758133 0.0010886843 -0.0012021345 -0.009674388
-0.010806437 0.014469487 -0.0021034481 -0.0039006223 0.00031735664 -0.0092315115 -0.0053701033 0.009902133
0.010721291 -0.0126512945 0.015076942 0.00667848 -0.022514759 0.00020420415 0.0024077778 -0.005185531
-0.0020149322 0.009772793 -0.012688939 0.006157375 -0.0011995175 0.01088979 -0.012912096 0.015605141
0.010107575 -0.006954943 -0.0061225696 -0.013872194 0.0040884367 0.011507842 -0.0067026773 -0.0037945688
-0.0006783021 0.005681246 -0.006802401 -0.008576696 -0.00451523 0.0067338697 0.012212365 0.008307333
0.0009875571 -0.0028427977 0.0035463292 -0.00037859147 0.0007374797 -0.0025722072 -0.0016005356 0.00993886
-0.009058819 -0.00077202055 -0.01636719 0.0026077796 -0.0041662124 0.006951028 -0.014628293 0.016106727
0.0009724153 0.004176289 -0.0010065328 0.0005280754 0.0072097215 -0.016797656 0.0036717001 -0.010312929
0.0018302912 0.004918904 0.0018978257 -0.013024966 -0.0054792026 0.0021424063 -0.011108099 -0.0021608088
-0.008138071 -0.009865825 -0.009734306 0.0040017436 0.0070216167 0.0029344815 0.01017313 4.20823e-05
-0.010476931 -0.0011088646 -0.012640364 -0.004475968 0.0013228592 0.0019787971 -9.436136e-05 0.0013583818
0.0079374965 -0.00020001529 0.015624312 -0.0021778494 -0.0062045692 -0.013702777 -0.010980193 -0.013281086
-0.010583532 0.019481314 0.005818078 0.0055341953 -2.9952478e-06 0.00196411 0.007622327 0.018786008
-0.027752215 -0.0011032319 0.0064853155 0.014766852 0.009702499 0.00630693 -0.0028483807 -0.010102878
-0.0031140875 -0.0054268427 -0.004657654 -0.00792263 -0.0016397955 -0.0077825407 0.0053828377 0.004723831
0.00268183 -0.008579987 -0.002066986 -0.009741167 0.007153141 -0.007986588 0.005458691 0.006876427
0.00741809 0.0027422262 0.0051352023 0.010761605 -0.00013350176 0.0056730113 0.018335363 -0.004580115
-0.0012108063 0.011966856 -0.021972647 0.003250954 0.011529468 0.0011388565 0.0037673716 0.002101783
-0.0039942306 -0.0059088417 0.014131826 0.013476173 -0.0076000416 -0.00243323 0.0072684065 0.0059905034
-0.016786022 -0.018221352 0.009758753 -0.004467338 0.0017331867 -0.01421116 -0.0065123434 -0.00685811
-0.0060101054 -0.010965738 0.004139394 0.008296438 -0.003323591 -0.0136198765 -0.01162519 -0.0005198553
0.0011708516 -0.0054145395 0.0065855957 -0.0062274705 0.008322614 -0.015361517 -0.0040902076 0.0077156657
-0.008066809 -0.0010539467 -0.0012107705 0.004472528 0.004128926 0.0013048953 0.02623993 0.00043695015
-0.003621498 -0.008594471 -0.007895595 0.012723363 -0.007901744 -0.0026925316 -0.002409727 -0.006252393
0.0024436596 0.011624351 -0.01044654 0.011626459 -0.01632737 -0.00028354692 0.018987283 0.00075680617
-0.010402386 0.0004961591 0.0038750195 -0.008590735 0.0072859316 0.0100679165 0.0031457052 -0.01398692
-0.015092856 0.0060173334 0.0105646355 0.0053254385 -0.015899142 -0.010046658 0.011743533 -0.003303748
0.0030159296 -0.010372801 0.009189717 -0.018734457 -0.008820752 0.0070295157 -0.017337142 -0.0018559018
-0.0012515833 -0.023528941 0.0018353654 -0.011532876 0.0056227157 -0.00200914 0.02001889 -0.008629952

action_model._discrete_distribution.branches.0.bias f4 [2]
00000000: 0000 0000 0000 0000
0.0 0.0

action_model._discrete_distribution.branches.1.weight f4 [2, 128]
00000000: c311 293c 80cc 65bb ac29 123c 14f4 2cbc
00000010: 5b25 76bc d556 d4ba 553e 21ba 15d5 623c
00000020: beea c43b 29f6 2b3c df00 643b c458 09bb
00000030: da3e c9ba ffed 18bc 0fb5 173c f744 54bb
00000040: 1d7b 083c efd8 363c d4d7 c73b dd12 d13b
00000050: 5cdb 043a afbd 413c 08b0 433b e678 413c
00000060: 33d2 4e3b 1b38 3fbc 5a07 0dbc 1f80 01bc
00000070: 9435 973b 137b b53c c753 8f3b 3634 97bc
00000080: 4f00 31bc 1d93 cc3a ab9c 06bb a830 e6bb
00000090: 7562 733b f70d 183b 2f4b 86bc cc3b c7ba
000000a0: 98c8 9dbb 2dd2 813b e2b5 35bc a1d4 393c
000000b0: 97f5 2abc c967 8d3c 3e07 823a 888c 74bb
000000c0: 6fda c13a cdfd bc3b d855 0fbc 03ab 293c
000000d0: 3aaa 6d3b e350 a6bc cafe 5dbb 9652 1c38
000000e0: dcb2 2d3c 799d 0f3b 4ed3 a13b 13d0 3c3b
000000f0: 1782 4839 7527 d2ba 8661 1d3c ff01 d13b
00000100: bf1b 983b d537 60ba f721 d33b 5c75 36bb
00000110: 0dad 8ab9 7a07 3e3c 906b b23b 5765 eb3b
00000120: e531 f23b 3a66 003c 0d0d f6bb 2248 17bc
00000130: 4439 47bb 7fdb 26bc cdbc da3b c3f5 65bc
00000140: 8b05 2ebb 78ee 4c3b 88ea a1bb c27e 123c
00000150: 715f 91bb 8fdc 2c3a 3906 8d3b 08aa 0dbb
00000160: 7bd1 6dbb 42cc 86bc 63ec 3bbc b8b9 323a
00000170: 0bb7 123b 1181 4c39 60b7 963b 66da 043a
00000180: a063 82bc a7cc 37ba e31e c53b cc2d bdbb
00000190: 7a59 59bc ab1c 14bc a123 09bb b997 b6bb
000001a0: ef24 863b 829e 20b9 b317 1d3b 13df 14bc
000001b0: 73d8 2cbc 5be0 94bb db53 bc3b df6d 77bb
000001c0: c706 1c3c 7f3b 4cbc 3023 a03a 873b 96bb
000001d0: af4e 823b 20c4 72bb ece6 45bb a078 e0bb
000001e0: 3376 8dbb b7c8 09bc 7dd4 dabb a3d4 53b8
000001f0: bd14 383b ff1a 86bc 2618 94bb 0abb 733c
00000200: 9ae3 f7ba a7ea 7fbb 6a36 70bc 5ccc 433c
00000210: ac41 9cbc f063 73bb 8b3a 00b9 35e3 b1bb
00000220: 7bcf bcbc 2b44 00bc 8b80 6f3b 9883 64bc
00000230: 5020 703a d510 40ba 96c5 0fbc edc9 02bc
00000240: 9b85 953b db74 b13a d3c4 38bc e114 95bb
00000250: 4a93 423c 418c 853b 5078 7abb 8cbf 9fbc
00000260: a81d fabb 2008 f73b 6f12 00bb 1869 8f3c
00000270: 1f1c 08bc bde5 9c3a cb8d b83a 4979 8dbc
00000280: 5535 5bbc 7a5b a63b f926 943b a53d 263c
00000290: ab2b c23c f3bc 16bb e8ba d4bb 27ac 8f3b
000002a0: a13a a8bb 1cc5 213c 8b77 9cbb fbe5 acba
000002b0: 8fb1 ebbb 2719 393c 2838 583c 2f29 14bc
000002c0: dc25 453a 864b ca3b 9239 64bc 3d06 003b
000002d0: f3f4 fb3a 8cc8 263c b72b f93b 6baa e6bb
000002e0: 1237 0c3b 7fd6 a13c d2d0 27bc 90e0 ba3b
000002f0: dbc2 9e3c 5f70 a5bc 30e6 61ba a97e 423b
00000300: df70 8ebb fe0c 31bc 2aca 433c 6fa5 303c
00000310: 0f1e 99bb 15f4 653b 7e2d b43b 29eb 0c3b
00000320: ad09 6abc 8c82 0f3c d298 e4bb 1b22 5b3c
00000330: f037 95ba 00ef 553b 232a 8f3c 2a64 72bb
00000340: da64 9c3a 775e 783b 492e 3bbc d18a b83b
00000350: efd3 3c3b eb3a 073c dfb0 9cbc 0780 373b
00000360: 1f59 fdbb bb0f e1ba 029d d0b9 6fe1 5bbb
00000370: 0f83 7d38 b13d 90bc bc4e 483c 8f3b 8a39
00000380: d82d 6e3a f16d 3dbc 86fa 80bb c7e7 faba
00000390: 972b c6ba 7151 153c f5c1 b73a e277 6c3c
000003a0: 2246 01bc 68a4 85bb 4891 54bb af3d a5bc
000003b0: d872 7b3b d2e4 083c 7bde b43b 0b11 4ebb
000003c0: c3e1 aabb 8913 bd3b 3abb 78ba ba36 993c
000003d0: afa0 d03b 9f10 f83a ad9d d5ba 48f7 ec3b
000003e0: 1ef4 80bc 2add 693b c52f d73a d330 6fbc
000003f0: df01 953b 9562 7abb 2ab8 ccba 73a6 1a3c
0.010319176 -0.0035064518 0.008921068 -0.01055624 -0.015023555 -0.0016200194 -0.0006150951 0.013844748
0.0060094288 0.010495701 0.0034790558 -0.002095745 -0.0015353814 -0.009334086 0.009259476 -0.003238974
0.008330134 0.011160119 0.0060987268 0.0063804225 0.00050680875 0.011825009 0.0029859561 0.01180861
0.0031558394 -0.011671091 -0.00860771 -0.007904082 0.0046145413 0.022153413 0.0043740007 -0.018457513
-0.010803296 0.0015607808 -0.0020540159 -0.0070248432 0.0037137542 0.0023201683 -0.016393272 -0.0015200316
-0.0048151724 0.0039618225 -0.0110907275 0.011342199 -0.01043453 0.017261403 0.0009920371 -0.0037315208
0.001478983 0.00576756 -0.008748494 0.010355714 0.0036264793 -0.020302242 -0.003387379 3.7270212e-05
0.010601725 0.002191393 0.0049385196 0.0028810545 0.00019121949 -0.0016033488 0.009605771 0.006378412
0.0046419795 -0.00085532415 0.006443258 -0.0027840948 -0.00026450344 0.011598462 0.0054449514 0.0071837115
0.007391202 0.007836873 -0.00750888 -0.009233506 -0.0030399123 -0.010184168 0.006675339 -0.014035645
-0.0026553597 0.0031270068 -0.0049412884 0.008941354 -0.0044364263 0.0006594145 0.0043037203 -0.002161624
-0.003628819 -0.01645482 -0.011469933 0.00068178354 0.0022386934 0.00019503037 0.0045994967 0.00050679443
-0.015916646 -0.00070113916 0.006015645 -0.0057732817 -0.013265962 -0.009040038 -0.0020925777 -0.005572286
0.0040937583 -0.00015317838 0.0023970425 -0.009086388 -0.010549652 -0.004543347 0.005747301 -0.0037754697
0.0095231 -0.012465357 0.0012217518 -0.004584733 0.003976665 -0.003704317 -0.0030197455 -0.006850317
-0.004317069 -0.008409671 -0.0066781626 -5.0504354e-05 0.0028088533 -0.016370295 -0.0045194803 0.014876137
-0.0018912435 -0.0039049776 -0.014661411 0.011950579 -0.019074284 -0.0037138425 -0.0001222884 -0.0054286965
-0.023048153 -0.0078287525 0.0036545123 -0.01394739 0.00091600884 -0.0007326727 -0.0087751355 -0.007982713
0.004563046 0.0013538854 -0.011277395 -0.004549608 0.011875937 0.0040755575 -0.0038218684 -0.019500516
-0.00763293 0.0075388104 -0.0019542237 0.017506167 -0.008307486 0.0011970323 0.0014080344 -0.017269747
-0.013379415 0.005076823 0.0045212475 0.010146533 0.023702463 -0.0023000806 -0.0064920075 0.004384536
-0.0051339422 0.009873655 -0.004774993 -0.0013191098 -0.0071927975 0.011297501 0.013196982 -0.009043022
0.0007520595 0.006173554 -0.013929741 0.0019534968 0.0019222781 0.01017965 0.007604088 -0.0070393584
0.002139513 0.0197556 -0.010242658 0.0057030395 0.019380024 -0.020195184 -0.00086173695 0.0029677546
-0.0043469514 -0.01080632 0.011950055 0.01078163 -0.0046727727 0.0035088111 0.005498587 0.002150247
-0.014284533 0.008759152 -0.0069762254 0.013374831 -0.0011384469 0.0032643676 0.017476147 -0.0036985972
0.0011931912 0.0037898102 -0.011424609 0.0056317826 0.0028812846 0.008253793 -0.019127307 0.0027999894
-0.0077315713 -0.0017170826 -0.00039789831 -0.0033551117 6.044196e-05 -0.017607542 0.012225803 0.00026365786
0.0009085811 -0.011561857 -0.0039361147 -0.0019142561 -0.0015119192 0.009113655 0.0014019596 0.014432879
-0.007890256 -0.0040784366 -0.0032435227 -0.020171015 0.0038368013 0.008355336 0.005519686 -0.0031443264
-0.005214901 0.005770151 -0.0009488348 0.018702853 0.006366811 0.0018925852 -0.0016297601 0.0072316267
-0.015741404 0.0035684803 0.0016417435 -0.014599043 0.004547342 -0.0038205732 -0.001561885 0.009439099

action_model._discrete_distribution.branches.2.weight f4 [2, 128]
00000000: 9df2 67bc 10c9 6a38 7f82 433b eafb 773b
00000010: 27d0 023c f729 d939 a290 a73b 21f6 163c
00000020: 69ff a5bc 1860 773a 8d8a 5abc 81ce b7b9
00000030: 9c44 86bb dec5 1fbb 1766 95ba d4af a33a
00000040: 4876 00ba edf7 33bc 1b4a 44bb 1767 ffbb
00000050: 4a45 6abc 3a28 61bc 8bc2 cdba 9a5c 76bb
00000060: 0f4b a03c bd80 f4bb 443d 84bb 2d7c deba
00000070: a0db 043c ac16 87bb 6d5c 543b 8b14 113c
00000080: c736 16bb 9b2b 05bc 611e 9cbc 9053 38ba
00000090: 4d3a f3ba 9260 2ebb 8723 c43a 6284 193c
000000a0: 9f16 fe3b 7fa6 a3ba 5b08 ba3c 077f 00bb
000000b0: 05f3 e43a 6bec f9bb 874d e13b fbd0 6a3c
000000c0: db19 4c3a 1f95 733c 8acf 113c 5469 40bb
000000d0: 3894 44bc 20a1 133b c3fa 62bb ce55 be3b
000000e0: 704d fc3b d3cc 1ebc f5a1 203c 551a cdba
000000f0: e7f6 2fbb e687 843c 2a44 7e3c 2cf4 cb3c
00000100: df59 143c df16 1cbb 87de 813c 92cf 65bb
00000110: c52d 523b 51b5 1abc 2a30 acba 7f67 453b
00000120: dbdc 39bc 87bc 34bb 4afc f2bb 0d6b 853b
00000130: 8745 d2ba e942 a5bb 0310 7bbc 4f66 85ba
00000140: 77fd 41bc 6153 c2bb 63fd 1f3c a377 ae3b
00000150: a058 483c dac6 ed3a d3ed d83b e7e9 27ba
00000160: f941 8c3b 7396 5dbc 87d8 063c d824 84bb
00000170: 44ed 863c eaa0 c93b 4c32 95ba 04e4 90bc
00000180: c3ce 4f3b 37d9 4cbc 8c8f 833c d8c2 983a
00000190: 2fda 6e3c 3f6c 913c 372a 01bc 7a81 4cbb
000001a0: bbf1 3fbb 9e9e b0bb 2f24 8b3a be4a 943c
000001b0: 3dd3 f9bb cc81 47bc f751 8cbb 5730 143c
000001c0: 6321 8a3b 4736 25bc 0a61 183b aace 78bc
000001d0: 88a5 833c 5ef4 adbb 1a5f f73b 494d a1ba
000001e0: 2aff f4bb 7e3c 923b 4928 24bc 05f5 5dbc
000001f0: f04c edbb 3fd5 27bc 0637 9abb aa19 ccbb
00000200: 1d27 ec3a c3c5 d73a ea31 d33b aa7f d9bb
00000210: 7e8c 913b 1540 59b9 1866 55bc 2121 af3b
00000220: bf51 54bc 9d46 53b9 9750 903b ed54 173c
00000230: bbff 183c d6a8 1bbc 9ba2 73bb 8a86 c83b
00000240: 42d5 6f3c 1d08 b13b bd19 ec3a bf38 9f3c
00000250: 4301 eabb 2af3 7f3b d132 193b 71c9 96bc
00000260: e9eb 22ba b29c 5f3c c553 4d3b cd6e 0dbc
00000270: 7072 92bc a356 85bc 7592 99bb a097 4a3c
00000280: 6f07 6ebb 7a3c 64bc 0b3f 81bb 77db 57bb
00000290: 6faa bdbb 7d37 d43b 48fe e53b 5f81 5e3b
000002a0: 3b50 20bc 695f ca3a ef20 8b3a 0c49 bb3a
000002b0: d84a fa3b ebb3 4d3a 9db1 453c ccc0 093b
000002c0: 33ce 77bb 5bf9 b9bb a7fc 583b 750b 063b
000002d0: 49aa 49ba 2d7d e13b 1d40 80ba abed 1bba
000002e0: 625f cf3b f969 1f3b a2a8 7dbc 05b6 c3bb
000002f0: 1373 1f3c 5f62 0e3b d778 723b bf8c 4cba
00000300: d2ec babb 5fc7 d83b 421c 903c d5db 4c3c
00000310: 0940 9e3c a3c3 2abc b346 ddbb bd7d 65bc
00000320: b35d a9b8 9ccc 123b 60ad 6fbb 95b7 c23b
00000330: 8dbd 7abb 02da 233c 33d2 433b c30b f439
00000340: e034 06bb 28b2 e33b 14e8 473c 8b85 f5bb
00000350: 658f 86bc 425f 23bc fd4a 95ba 5a2d 223c
00000360: 6b02 d03b 73c6 df39 4586 5a3b 1ffd 8dbc
00000370: 3ce8 85bb 4b62 a6bb 9493 a43a 5b5e 133c
00000380: 9ea4 1dbc cb60 cdbb 2404 1e39 c08c 5ebc
00000390: db27 34bc 1855 2cbc 04e0 45bb 745d 9f37
000003a0: 7ade 66bb 3f9e d1ba efcb 43bb c5d9 ed3b
000003b0: 59bd 82bc dfd8 923b 0134 403a d315 5fba
000003c0: 05db 513c 382e 5cbc 41f1 433c cf74 5fbb
000003d0: 352c 813b 7536 debb 2b84 183b 0eca 8a36
000003e0: 3e4b 39bb bff9 b23b a6b4 8dba 0723 0e3c
000003f0: 4890 083a a316 ad39 3402 0eb8 3449 ca3b
-0.014156965 5.59772e-05 0.002983242 0.0037839361 0.007984198 0.00041420732 0.005113677 0.009213955
-0.02026339 0.00094366213 -0.013338697 -0.00035058337 -0.0040975343 -0.0024379413 -0.0011398223 0.0012488314
-0.0004900438 -0.010984403 -0.0029951397 -0.0077942717 -0.014298746 -0.013742501 -0.0015698237 -0.0037591816
0.01956704 -0.007461636 -0.0040356237 -0.0016974263 0.008109003 -0.0041225757 0.0032403723 0.0088549955
-0.0022920833 -0.008128072 -0.019057455 -0.0007031495 -0.0018556804 -0.0026607853 0.0014964201 0.009369941
0.0077541615 -0.0012485533 0.022709062 -0.0019606964 0.0017467445 -0.00762706 0.006875697 0.014332051
0.0007785835 0.014867096 0.008899579 -0.0029359655 -0.011998229 0.0022526458 -0.003463433 0.0058085686
0.007699661 -0.009692389 0.009804239 -0.0015648106 -0.0026850046 0.016178083 0.015519181 0.024896704
0.00905463 -0.0023817343 0.01585318 -0.0035066349 0.0032070738 -0.009442643 -0.0013136913 0.0030121503
-0.01134416 -0.0027578191 -0.007415329 0.0040715993 -0.0016042449 -0.0050433767 -0.015323642 -0.0010177585
-0.011840216 -0.0059303497 0.009765002 0.0053243204 0.012228161 0.0018140927 0.0066201477 -0.00064053986
0.0042803255 -0.013524639 0.008230335 -0.0040327124 0.016470559 0.0061532157 -0.0011382787 -0.017686851
0.0031708933 -0.01250296 0.01605966 0.0011654748 0.014578386 0.017751811 -0.0078836 -0.0031205104
-0.002928837 -0.0053900024 0.0010615642 0.018102046 -0.0076240585 -0.012176942 -0.004282232 0.009044728
0.004215406 -0.0100837415 0.00232512 -0.015185991 0.016070142 -0.005308672 0.007549179 -0.0012306358
-0.007476707 0.0044627776 -0.01001937 -0.013547187 -0.0072418377 -0.010243713 -0.0047062663 -0.0062286453
0.0018017028 0.0016462136 0.006445159 -0.006637533 0.004441797 -0.00020718605 -0.013024829 0.0053445254
-0.012958943 -0.00020148834 0.0044041383 0.0092365565 0.009338315 -0.009500703 -0.0037175778 0.006119554
0.014638247 0.0054025785 0.0018013042 0.019436238 -0.0071412637 0.003905485 0.0023376236 -0.018406602
-0.0006214963 0.013648199 0.0031330448 -0.008632374 -0.017876834 -0.016276663 -0.0046866485 0.012365252
-0.0036320349 -0.013930434 -0.003944283 -0.0032937208 -0.0057881395 0.0064763413 0.007018838 0.0033951623
-0.009784753 0.0015439811 0.0010614673 0.0014288737 0.0076383166 0.0007846939 0.012066272 0.0021019457
-0.0037812113 -0.0056754774 0.0033109577 0.0020453606 -0.0007692916 0.006881377 -0.0009784732 -0.0005948196
0.006328509 0.002432464 -0.0154821 -0.005972626 0.009732026 0.0021726114 0.0036998296 -0.0007802955
-0.0057045007 0.0066155638 0.0175916 0.012503584 0.019317644 -0.01042262 -0.006752813 -0.014007029
-8.076001e-05 0.0022399789 -0.0036571845 0.005942295 -0.0038259954 0.010000708 0.0029879927 0.0004654807
-0.0020478293 0.006948728 0.012201328 -0.007492726 -0.016425798 -0.009971442 -0.0011390146 0.009898508
0.0063479445 0.0004268173 0.003334419 -0.017332612 -0.0040865224 -0.0050776354 0.0012556189 0.008994664
-0.009621767 -0.006267642 0.00015069597 -0.013583362 -0.01099583 -0.010518335 -0.0030193338 1.8997795e-05
-0.0035227821 -0.0015992596 -0.0029876193 0.007258626 -0.015959429 0.0044814195 0.0007331968 -0.0008510027
0.012808566 -0.013438754 0.011959375 -0.0034096723 0.0039420375 -0.006781394 0.0023272138 4.1362428e-06
-0.0028273608 0.005461901 -0.0010811284 0.008675343 0.0005209488 0.00033013997 -3.385749e-05 0.0061732773

action_model._discrete_distribution.branches.3.weight f4 [2, 128]
00000000: b02a 7b3b afc8 a93b d3ba e53a 0ba6 cfbb
00000010: 9143 3d3b 86f0 353c e76c 1ebc 5d43 f7bb
00000020: 2f25 f8ba 7342 8cb9 2fca 7dbc 25ba c53a
00000030: 7169 1dbc e814 643b 3c42 153c 8155 9e3b
00000040: fdc9 5a3b 32d2 6c3b e848 bbbb 6bf4 1fb8
00000050: 82fc 6d3c 2568 7f3b 1b15 bdbb 5ba7 a2bb
00000060: 436d 743b e6bd 363b 1b53 6fba 5dc7 8e39
00000070: 00f0 70bb 38ec 08bc ad86 fe3b 4ed2 22ba
00000080: d2e3 eb39 7b74 f93b 3b7f c3bb fd99 b63b
00000090: a946 b7ba 085b 453c fa12 e43b 9eb0 3d3c
000000a0: 5ea1 9a3b b673 1a3b 331e 72bb 603d 45bc
000000b0: f176 19bc b55e 363c 626f 303c 567f b1bc
000000c0: f055 d63b 2b94 753a 53a1 1d3c 5d10 19bc
000000d0: 9b25 9d3b 60a9 0cbc 60a7 3bbc 6b2b eebb
000000e0: df53 98bb da9d a13b 2bb1 b03a 231f b43c
000000f0: b7a0 d7bb d85b 39bc c3b0 60bc 6a76 773b
00000100: aa13 dbbb 1906 97bc 3979 363c 645a 85bc
00000110: 6a07 283b f876 41bc 2756 93bb f3cf a73b
00000120: 274b 63bb 712f 32bc 8b87 283c 33fa 6ebc
00000130: e1f9 b93b 13d2 253c c78e e0ba 2a02 4fba
00000140: f7fb 9dbc 73fa 5f3b 0123 2a3b 34fb 3bbc
00000150: 1c18 8abc 06d2 2bbc 3757 80bc 4ce3 3cbc
00000160: 0b45 09bc 1717 e2ba c196 3bbc da32 53bb
00000170: eb2a 2cbb 6fd8 ea3b 5cf7 063c 9a6c 6dbb
00000180: 7be2 033b 0301 e0bc 9c03 cbbb 7f2d f13a
00000190: 7c2f 2d3a e51e 313c e003 f03a f59d 89bb
000001a0: f79b 383c e160 363b b22b 893b 4223 00bc
000001b0: c284 603b c16b 0c3b 0fde 82bc a4b8 c93a
000001c0: 6dc6 313b 21d8 b33c 0577 4f3c db83 d1bb
000001d0: 9df5 e3bb 0b52 3c3c 486f 243c 9c07 a9bb
000001e0: a638 823c 92a0 863c 2203 e33b 17ae d43b
000001f0: 04bb 4a3c aa5c c0bb 30ef 77b9 af17 3abb
00000200: 901f d63c 6140 8c3a bbea 413b 4031 dc3b
00000210: 4c7e 873c 4b99 653b 8d4c 5abb e3a8 eb3b
00000220: 1767 37bc 54b4 b5bb 0925 063b 1b8a 293c
00000230: b861 f13b 814c 41bc 0b75 d6bb b76a 45bc
00000240: a3af 0a3b 38c6 1bbb 1ea6 35bc 9b52 abbb
00000250: 229b 82bc 528a 2abc 25d8 ff3b 278c 8738
00000260: fad0 ef3a bd97 39bc aaba 453c 9a44 6e3c
00000270: cb8d 96bb 9b3c e3ba 23c8 a43b e884 563a
00000280: 652f e13b e099 2fbc 0b89 b6bb 6c74 22ba
00000290: c254 063c 8d24 603c 1fc3 89bc 8b20 823b
000002a0: 042f 2e3a 7f0e 173b d018 88bc 81f5 353c
000002b0: d89e 95bb df6a e5bb 8790 ff3b db43 75bc
000002c0: d0db 77b9 1717 2abb a53c 1ab9 0b64 df3b
000002d0: 36f8 833a 5fcb 15bc faeb 783a 2a9b 87bc
000002e0: 8f5a 063b 5a84 3c3c 27ef 9e3b d0da edbb
000002f0: d72a dbbb 6747 9bbc d7f8 a13b 7fda a2bb
00000300: 7f24 603b dad7 d1ba 1869 2a3c 7ba8 f6bb
00000310: 87c4 bc39 bf17 a73b 7d8d 13bc 2b17 4fbc
00000320: 7ad4 c0bb 3354 c8bb ac0f b93b 9e18 4c3c
00000330: d06a 783b 2633 39bb cdf4 713a 8d6a 403c
00000340: fa85 86bb a535 293b 4078 9b3b 95d4 ab3a
00000350: 35c1 12bc 3f13 a93b c105 aa3a 0989 1d3c
00000360: 3ab6 513c 4751 69bb edad 8fbb 4270 f43b
00000370: fbf0 0fbb 30db e0ba a7e7 da3b 134d 68bc
00000380: b599 c53c 24c2 9b3b 3ede 843b 25bd 683b
00000390: 3503 09bc db67 d6bb 80e8 5d3c 386a 11bc
000003a0: b881 693c 03e7 483c 1f62 a2bc a2a4 d93b
000003b0: ef7c d4bb 9f26 b2ba af26 4ebb b95b 01bc
000003c0: d833 613c 726c 103c 9776 c83b a38a 5bbc
000003d0: b2aa f8bb f109 993c bf73 0e3b f87c d6bb
000003e0: cf98 aa3c 0fa5 abbb a4f8 843c 4ee2 84bc
000003f0: c327 b2bb 533e 0fbc 5019 363c 6bc1 d0bb
0.0038325004 0.005181394 0.0017526991 -0.0063369325 0.0028879384 0.011104709 -0.009669519 -0.007545872
-0.001893198 -0.0002675239 -0.015490099 0.0015085383 -0.009607659 0.00348025 0.00911003 0.00483197
0.0033384555 0.0036136028 -0.005715478 -3.8136186e-05 0.014525535 0.0038971987 -0.0057703382 -0.004963798
0.003729657 0.0027884184 -0.000912951 0.00027232888 -0.0036764145 -0.0083571 0.0077675194 -0.00062111474
0.00044992432 0.0076127625 -0.005966095 0.005572556 -0.001398285 0.012045629 0.00696027 0.011577753
0.0047189435 0.0023567504 -0.003694427 -0.012038559 -0.009366737 0.011130978 0.010768743 -0.021667164
0.0065410063 0.0009368087 0.009620982 -0.00934228 0.0047957427 -0.008585304 -0.0114534795 -0.0072683594
-0.00464867 0.0049321475 0.0013480535 0.021987503 -0.006580438 -0.011313401 -0.013714018 0.003775979
-0.0066856937 -0.018435525 0.0111373 -0.016278453 0.0025639185 -0.0118081495 -0.004496354 0.005121225
-0.0034682245 -0.010875569 0.010286222 -0.014586019 0.00567554 0.010120886 -0.0017132395 -0.0007896746
-0.019285185 0.003417638 0.0025960805 -0.011473466 -0.0168572 -0.010487085 -0.015666587 -0.011528801
-0.0083782775 -0.0017249313 -0.011449517 -0.0032226355 -0.0026270698 0.007166914 0.008237686 -0.0036228062
0.0020124007 -0.027344232 -0.0061954986 0.00184004 0.0006606502 0.0108105885 0.0018311702 -0.004199738
0.011267654 0.002782874 0.004186117 -0.007820906 0.0034258817 0.002142653 -0.015975026 0.001539011
0.0027126328 0.021953644 0.012662654 -0.006393892 -0.0069567696 0.01149417 0.010036297 -0.005158378
0.015896153 0.016433988 0.0069278637 0.0064904797 0.01237369 -0.0058704214 -0.0002364486 -0.0028395464
0.026138097 0.0010700339 0.0029589373 0.0067197382 0.016539715 0.0035033997 -0.0033309788 0.0071917637
-0.011194012 -0.0055451784 0.0020468852 0.010347868 0.0073663853 -0.011798025 -0.0065447143 -0.012049369
0.0021161817 -0.002376927 -0.011086969 -0.005228353 -0.015943114 -0.010408955 0.007807749 6.463407e-05
0.0018296533 -0.011327681 0.01206843 0.014542723 -0.0045945398 -0.0017336787 0.005028741 0.0008183257
0.006872105 -0.010717839 -0.005570536 -0.0006197158 0.008198919 0.013680589 -0.016816674 0.0039711646
0.0006644579 0.0023049412 -0.016613394 0.011105896 -0.004566055 -0.0070012654 0.0077992114 -0.014969791
-0.00023637642 -0.0025953704 -0.00014709176 0.006817346 0.001006848 -0.009142726 0.00094956125 -0.01655348
0.0020500754 0.011506164 0.0048502865 -0.0072587505 -0.0066884565 -0.018954946 0.004942994 -0.0049698944
0.003420144 -0.0016009763 0.010401033 -0.0075274087 0.0003600458 0.0050992663 -0.009005901 -0.012639801
-0.005884704 -0.006113553 0.00564762 0.012457041 0.0037905462 -0.0028259247 0.00092298986 0.011744154
-0.0041053267 0.0025819328 0.0047445595 0.0013109619 -0.008957197 0.005159765 0.0012971686 0.009615191
0.012799794 -0.0035601424 -0.0043847472 0.0074596712 -0.0021963704 -0.0017155167 0.006680447 -0.014178532
0.024121145 0.004753368 0.0040548136 0.003551313 -0.008362581 -0.0065431423 0.013544202 -0.008875422
0.014252119 0.012262109 -0.019822178 0.00664194 -0.00648462 -0.0013591832 -0.0031456163 -0.007895404
0.013745271 0.008814918 0.0061176526 -0.013399753 -0.007588708 0.018681498 0.002173647 -0.006545659
0.020824818 -0.0052381824 0.016231842 -0.016221192 -0.005436869 -0.008742887 0.011114433 -0.0063707135

action_model._discrete_distribution.branches.4.weight f4 [2, 128]
00000000: 10cc 8d3b 845a 9fbc ef26 dbba 2885 773b
00000010: e371 2b3c 8f39 b9bb d3b2 843b abf6 863b
00000020: 1c71 203c 42bc 3d3c f075 35bc 10da 94bb
00000030: d3d2 f83b ca85 3dbb 27e7 9abb 3249 823a
00000040: c3d3 043c 439a a13b 5ffa 8cbc 4577 fc3b
00000050: 9786 9f3b 3a82 903b 6397 a93a 3344 43bc
00000060: 6564 873a 02f7 c5ba 7bf9 d83b 2a75 f6ba
00000070: 31a3 113b 7f0c b03c cea3 a3bb 4211 e6bb
00000080: 6b74 9ebb 51c9 283b 17e5 0f3c cf17 dd3b
00000090: 3423 373c c432 0f3c 3415 47bc 6dfb 6c3c
000000a0: c668 c2bb 2c7f 0abc f7ea 4c3c d45f 8bbb
000000b0: 7954 b53b e2d2 893b 551d 81bc c84d dcba
000000c0: 928b f33b 4d3d 913b c96c 34bc 549c b5bc
000000d0: 50ba 80bc 956d 753a 6a57 0f3c 270f 883b
000000e0: 4f1b 81bc 97c2 3e3a 5ff3 66bb a730 933b
000000f0: 50ac c9bb 2f22 43bc 9394 aebb d3c9 d53a
00000100: cd28 d23b 5d45 25ba ca6e ffbb af6f 4e3b
00000110: db0c 873b 1feb 8d3b 1f99 53bb e044 5fbb
00000120: cf24 0f3c 846c 803a fb96 613c b736 3f3b
00000130: 69b4 a03b 654c f43b 2a4b e43b b0c2 593b
00000140: 64ba a7bc 0d3b 433c 78e7 6abc f711 923c
00000150: c849 07bb 8ff6 3dbb 0d17 06bc e119 383c
00000160: b8a8 2cbc 5314 913b 736e 43bc e02d 7a3a
00000170: ff71 15bc 6822 843b 842a 8cbc 8a3d 69b8
00000180: ba85 37bc e277 4dbc d2b2 1eba 0005 903b
00000190: e5c2 653c cd48 a2bb 658d 3139 d7d2 743c
000001a0: cf1d ef39 cecd 163b 32f8 f9ba fb39 003c
000001b0: d0cb 363c 0d64 473c 0a78 4fba 376e 9bbb
000001c0: 4312 cb3b 5dd6 f7bb 5f38 7d3b 90a3 dc3c
000001d0: 6865 023c 570e 56bc 5caa 4abc 0fd1 11bc
000001e0: fb49 9fbc ddfb a33b 980a c43b fa8d fd3a
000001f0: 2364 20bc ddc1 623b b757 f2bb 577f aaba
00000200: 840d bd3a f13a a63a edb7 c2bc 89f4 a93a
00000210: 5827 55bc 6205 15bb e189 38bb 41a3 87bb
00000220: 534c 1c3c 82ae 1f3b 0bc9 133c 6729 623b
00000230: 4b80 95ba 8b33 b83b 8dc5 513c f2b0 eebb
00000240: 686e fcbb 6448 10bc 743f 403c cd07 04bc
00000250: 2921 8dbb 1043 fe3a 8a7c e93a 37ff eb3a
00000260: eff9 673c f570 60b9 e210 dcba c0b6 3cbc
00000270: 6796 3fbc 3b96 9e3a a777 c13b abf2 1a3a
00000280: 862e 21bb dddc f13b 6d56 7d3c 4f89 c5bb
00000290: 079b 9bbc f589 583b f734 dbbb 58a8 f2bb
000002a0: a37d a5bc b3bb 79bb 288e bebb 6656 47ba
000002b0: e3cd fabb a30a 1fbc abdd 793a faec 66bb
000002c0: 48ec 563b 886b 7f3b 923a d7bb 3204 cdbb
000002d0: 5f30 ad3b a686 a4bc a8c2 5d3c b95d ba3b
000002e0: cacf 1a3c 0705 7b3a a82c 13ba e209 15bc
000002f0: ed2e e63b 4fa1 823b 2757 e63b 9adc 86bb
00000300: d045 d4bb 6cc0 293b 65e5 763a 5d63 6cbc
00000310: 85d2 663c e755 16bb cb90 8abb 71a5 3f3c
00000320: c451 393c 70b1 273b aeae 053c 6b1c e5ba
00000330: f3aa 423c f02f 813b 859c c9bb 12e4 a53c
00000340: 63ee 53bb 422c 1b3c 345c 39bc 5fbc 78bc
00000350: eff8 f7ba bf30 8d3c 627a d4ba e97c 24bc
00000360: 0723 50bb 4bfa f1bb 5858 54bb f360 133c
00000370: 3888 8dbc 005b f2bb 2cf0 3d3b 6585 b03b
00000380: 58b3 4d3c 0b02 473c 8f19 2dbc ecc9 0fbc
00000390: 659c 773c 1bbe ecbb cfc7 bebb c19f 49bc
000003a0: b4ac 233c c776 06bc 6d64 d73b 9a0e 213a
000003b0: 5590 ab3b 30d9 9f3c 5f92 8fbb ae91 4c3c
000003c0: a121 b93a c789 e8ba 83fb 783b 2010 6e3b
000003d0: a0e2 88bb cc18 b53a f2e7 9c3a eb4e 28bb
000003e0: c1e5 c3bb dd10 fb3a e5db 2fbb 21d2 b63a
000003f0: 6b27 f53a 5f51 93bb a514 d13b cb90 66bb
0.0043273047 -0.01945234 -0.0016719977 0.0037768576 0.010464164 -0.0056526135 0.004049638 0.0041187606
0.009792592 0.011580529 -0.011075482 -0.0045425966 0.0075934916 -0.0028918856 -0.0047272625 0.0009940027
0.008107129 0.0049317195 -0.01720923 0.0077046477 0.0048683393 0.0044100555 0.0012938794 -0.011918115
0.0010329603 -0.0015103521 0.0066215373 -0.0018803228 0.0022222514 0.021490334 -0.0049938923 -0.0070211003
-0.0048356554 0.002575476 0.008782647 0.006747223 0.011177827 0.008740131 -0.012151051 0.014464241
-0.0059329 -0.008453172 0.012507192 -0.004253367 0.0055337516 0.0042060474 -0.015761057 -0.0016807849
0.0074324096 0.0044323565 -0.0110122645 -0.02216927 -0.01571384 0.00093623373 0.0087488685 0.004152197
-0.015760092 0.0007276921 -0.0035240275 0.004491884 -0.0061545745 -0.0119100055 -0.00532777 0.0016310759
0.0064135552 -0.00063045864 -0.0077951895 0.0031499674 0.0041214055 0.004331007 -0.0032287312 -0.0034068152
0.008736803 0.0009797965 0.013768907 0.00291769 0.004904319 0.007455396 0.006966968 0.0033227615
-0.02047462 0.011915934 -0.014337413 0.017830832 -0.0020643342 -0.0028986072 -0.008184207 0.011236639
-0.010538273 0.0044274717 -0.011928189 0.0009543579 -0.009121417 0.004032422 -0.017110117 -5.560884e-05
-0.0112013165 -0.012540789 -0.0006053868 0.0043951273 0.014023517 -0.004952526 0.00016932709 0.014942846
0.00045607841 0.0023010853 -0.001907116 0.007826324 0.011156991 0.01216985 -0.00079143106 -0.0047433632
0.0061972453 -0.007563396 0.0038638336 0.026933461 0.007958747 -0.013064942 -0.012369718 -0.008899941
-0.019444456 0.0050043897 0.005982708 0.001934468 -0.009789499 0.0034600415 -0.0073957103 -0.0013007921
0.0014423584 0.0012682361 -0.023769343 0.0012966554 -0.013009869 -0.0022738804 -0.0028158354 -0.0041393344
0.0095396815 0.002436549 0.0090201 0.003450954 -0.0011406032 0.005621379 0.012803447 -0.007284277
-0.007703591 -0.008806322 0.011733878 -0.0080585005 -0.0043069315 0.0019398648 0.0017813605 0.0018005137
0.01415871 -0.00021404384 -0.00167897 -0.01151818 -0.011693574 0.0012099216 0.0059041562 0.0005910794
-0.002459438 0.0073810653 0.0154625 -0.0060283314 -0.018994821 0.0033041213 -0.0066896635 -0.007405322
-0.02020151 -0.0038106262 -0.005815286 -0.0007604122 -0.007653938 -0.009707126 0.00095316273 -0.0035236464
0.0032794643 0.0038974006 -0.0065682614 -0.0062566036 0.0052853073 -0.020083737 0.013535179 0.005687442
0.009448955 0.0009575639 -0.0005614259 -0.0090965945 0.007024637 0.0039865146 0.0070294323 -0.004115653
-0.006478049 0.0025902046 0.0009418338 -0.014427987 0.014088278 -0.0022939385 -0.0042286864 0.011697159
0.011310998 0.0025587939 0.008159323 -0.0017479783 0.011881578 0.003942482 -0.006152692 0.020250354
-0.0032338134 0.009471001 -0.011313487 -0.01518163 -0.0018918792 0.017235158 -0.0016210789 -0.0100395465
-0.003175916 -0.0073845736 -0.003240129 0.008995282 -0.017276868 -0.007396102 0.0028982265 0.0053869956
0.012554966 0.012146483 -0.010565176 -0.008776169 0.015112971 -0.007224811 -0.005822159 -0.012306155
0.009989906 -0.00820703 0.006573251 0.00061438384 0.0052357116 0.019512743 -0.0043814625 0.012485905
0.0014124402 -0.0017741256 0.003799171 0.003632553 -0.0041774064 0.0013816594 0.001197098 -0.0025681804
-0.0059783165 0.0019154806 -0.0026833948 0.0013948121 0.0018703764 -0.004495784 0.006380635 -0.0035181518
