Assets/results/ppo/My Behavior/My Behavior-102.pt (torch, 219670 bytes, 38 tensors)

discrete_act_size_vector f4 [1, 14]
00000000: 0000 0040 0000 0040 0000 0040 0000 0040
00000010: 0000 0040 0000 0040 0000 0040 0000 2041
00000020: 0000 2041 0000 2041 0000 2041 0000 2041
00000030: 0000 2041 0000 2041
2.0 2.0 2.0 2.0 2.0 2.0 2.0 10.0
10.0 10.0 10.0 10.0 10.0 10.0

network_body._body_endoder.seq_layers.0.weight f4 [128, 24]
00000000: a5c3 1a3e 6dfb efbd b430 b9bd 1e4b 00bd
00000010: 0820 2cbe d8c2 d4be d132 2c3d c1bb 0a3e
00000020: e6f3 5cbe 6d8d 0d3e c695 60be 2705 4e3c
00000030: 1578 05bd 39ab a0bd ef29 753e 1afc 80be
00000040: ba5a 253d 78c1 a2be b20a eebd 2752 9b3e
00000050: c2bf 963e 7aa2 c8be 937c 63be f31f 873e
00000060: 66e9 0bbe ee18 213d 99bc d23d d437 1bbe
00000070: 8bd6 6dbe 6362 7d3e e7d6 773e e1ab 1ebe
00000080: 4fc2 dc3e 4dd3 393e f111 293e 75bc eebd
00000090: 95ec 4cbe 7d50 2b3d b765 133d e075 a0bd
000000a0: c492 95bd 398f e03e 0e22 10be b775 35be
000000b0: e6e5 7a3e fa27 92be fc58 ac3d f471 363e
000000c0: f382 40be f40a a5be 8162 09be 502a 5d3c
000000d0: 90d1 27be ff8a a43e 466a ccbe 47bf 0e3e
000000e0: a3cf b93d e604 51be 1573 93bd 11ee a43e
000000f0: 5797 5a3e d3f0 83be c5b1 87bd 5697 6a3e
00000100: bccf 3d3d 9d85 543e 7a6d 91bd bfec d8bd
00000110: 5b4d c73e df9f 5a3e cdb5 0a3d b8ef f9bd
00000120: 40c0 c53e 8771 013e 351b b23d 3ca2 aa3e
00000130: 0ebb cabd 5f23 9fbe ac80 28bd f7d7 2d3e
00000140: 035a e2bd 82fc 833e 9eb2 1cbe 0a10 003e
00000150: e9cd 963e 91fd 17be b045 8a3e c8e6 ff3c
00000160: f5cc 0bbe ce7f 1b3e 56c4 b4be 1564 8fbd
00000170: e6d7 253e f10b f63d 4e9e 54be d952 f5bd
00000180: 0809 4cbd 30e8 73be 1b4f 0a3d 79e0 4c3e
00000190: 43ad 043e 06ca 73ba 64b8 953e 1456 ab3c
000001a0: 22e9 29bd 0d5d 933e b75b 60be 485f 873e
000001b0: 1615 043c 9214 993e 036f 1ebe 7b91 873d
000001c0: 6fa3 e239 3494 f33d 0216 293d b83f 5f3e
000001d0: 84e7 fbbe 361a 023e d8ff a4bd d3a0 323e
000001e0: fde0 7bbd b2fd 563e e3ae 78be 8f3b a0bd
000001f0: 33c6 9b3e b0d3 acbe f223 693e af67 da3d
00000200: 1e8c 1a3e caf8 2c3e 9b1e f93e 1b78 113e
00000210: 01b4 a2be 07a0 e13d af53 0b3e c2f9 923d
00000220: 509e 9c3e 31e1 33bd 5841 09be fbf1 613e
00000230: a0e1 313e cc2b 1d3e 8976 c7bd 4157 09bd
00000240: a275 a03e e0dd c63d d2e8 da3e 620f 09bc
00000250: 22e2 a7bc 9cf6 00bf dfbd 41be 7781 573e
00000260: 4f41 c83c 95fe 1c3c 635c 373d 7ded 413e
00000270: 8f54 bd3e df0c b13c 7237 c0bd a5a7 83be
00000280: 2118 6c3e 8543 143e bda1 a2bc 7734 5bbe
00000290: 40a7 cd3e 5462 4c3e 7d3d 8a3b ea51 cfbd
000002a0: bc38 9e3d 159f 25b9 c684 65be ee3f 49bd
000002b0: d343 8e3d 57d5 af3e 1874 32be 0d88 d43e
000002c0: a313 efbe b43b da3c 848f d83c c8e6 99be
000002d0: 9a78 80bd 2337 e33d cb03 60be fd32 f13d
000002e0: 971b 993d 4eb4 a53d a4e0 b83e fd4b b73b
000002f0: 33b3 0fbd 74c1 2b3d b8af 40bd acf8 1bbd
00000300: dcda bd3d 3e3f fa3d db3e 213e fa0c c43d
00000310: 4ea4 28be bf7e 97bb 511e 75be 0b9d 6abe
00000320: ad26 98be fdb9 8bbe e0ba 4abc 1c60 f5be
00000330: 6b96 21be 70cf b43d 7ba5 16bb bdd9 eabd
00000340: 06be fabd 5dcd 833e 12a2 473e f755 2a3e
00000350: 2fab fdbd d506 363e e400 63be bd9a d5bd
00000360: 0d5b 2abe 5e77 c9bc b38c b4bd 3722 04bd
00000370: d4c7 c03e 0a73 08be 41a7 13be 3c44 ddbd
00000380: b999 18bc 1c24 9b3d c5b8 fe3d 8995 09bd
00000390: ba2b 91be dd0c bfbd 7301 9d3c 781b dfbd
000003a0: e374 5bbe 39a5 173e 4381 c03b d637 f43b
000003b0: 07e0 083f 839f 2b3e caa4 35ba f31c 8ebc
000003c0: aac4 673c 0ae2 57bd a990 70bd a74c 06be
000003d0: a2f1 fb3c d1a9 053e ea0f 17be 7455 e43d
000003e0: 7dcb 8d3e e06b 76be 05e3 823d 3337 4fbd
000003f0: 4783 f23d dae9 ab3e 3c33 ce3c 42f0 1fbe
0.15113695 -0.117178775 -0.090424925 -0.031321637 -0.16809094 -0.41554904 0.04204065 0.13548185
-0.21577415 0.13823481 -0.21932134 0.012574471 -0.032585222 -0.07845158 0.23941778 -0.25192338
0.040369727 -0.3178823 -0.11623134 0.30336115 0.29443175 -0.3918646 -0.2221549 0.26391563
-0.13663253 0.039330415 0.102898784 -0.15158015 -0.23226373 0.24744563 0.24203072 -0.15495254
0.43116996 0.18147011 0.1651075 -0.11657039 -0.20012124 0.041824806 0.035985675 -0.07834983
-0.07303384 0.4385927 -0.14075491 -0.17720686 0.24501762 -0.28546125 0.0841541 0.17816907
-0.18799953 -0.3223492 -0.13416483 0.013498858 -0.16388535 0.32137296 -0.3992483 0.13940154
0.09072807 -0.20412025 -0.071996845 0.3221288 0.21346794 -0.25769672 -0.06625704 0.22909293
0.04634069 0.20754094 -0.07100959 -0.10592031 0.38926205 0.21350048 0.033864785 -0.12203926
0.38623238 0.12640963 0.086965956 0.333269 -0.09898959 -0.31081674 -0.041138336 0.16976915
-0.110523246 0.25778586 -0.15302512 0.12506118 0.29453972 -0.14842822 0.27006292 0.031237975
-0.13652404 0.15185472 -0.35306042 -0.07001511 0.1619564 0.120139964 -0.20763513 -0.119786926
-0.0498133 -0.23819041 0.033766847 0.20007505 0.12956719 -0.0009299818 0.2924224 0.020915069
-0.0414821 0.2878193 -0.21909986 0.2643988 0.008061668 0.29898506 -0.15472035 0.06619545
0.00043227847 0.11893502 0.041280754 0.2180165 -0.4920007 0.12705311 -0.08056611 0.17444162
-0.061493862 0.20995215 -0.24285464 -0.0782386 0.30424652 -0.33755255 0.22767618 0.10664307
0.15092513 0.1689178 0.48656163 0.14205973 -0.31777957 0.11016851 0.13606142 0.07176544
0.30589533 -0.04391593 -0.13403833 0.22064964 0.17371225 0.15348738 -0.09739406 -0.033530477
0.31339747 0.09710288 0.42755753 -0.008365484 -0.02049357 -0.50376296 -0.18920086 0.2104548
0.024445204 0.009582181 0.04476584 0.18938251 0.36978576 0.021612583 -0.09385575 -0.2571384
0.2305608 0.14478882 -0.019852513 -0.21406732 0.40166664 0.19959384 0.0042187558 -0.10123046
0.07725665 -0.00015794889 -0.2241393 -0.049133234 0.0694653 0.34342453 -0.17427099 0.41510049
-0.4669467 0.026639797 0.026435621 -0.30058885 -0.06273003 0.11094501 -0.21876447 0.11777303
0.074759655 0.08091031 0.36108887 0.0055937753 -0.035083007 0.04193254 -0.04704258 -0.03807895
0.0927026 0.12219094 0.15746634 0.095727876 -0.16468927 -0.0046232636 -0.23937346 -0.2291147
-0.29717007 -0.27290335 -0.012373656 -0.47924888 -0.15780036 0.08828628 -0.0022986818 -0.114673115
-0.12243275 0.25742617 0.19495419 0.16634355 -0.12386166 0.17776044 -0.22168308 -0.104299046
-0.16636296 -0.024593052 -0.08815899 -0.032259192 0.37652457 -0.13325134 -0.14419271 -0.1080403
-0.009313994 0.07575247 0.12437586 -0.033589873 -0.28353673 -0.09328625 0.01916573 -0.10893911
-0.21431307 0.14809121 0.005874784 0.007452945 0.5346684 0.16760068 -0.00069291575 -0.017347788
0.014146009 -0.052705802 -0.05873171 -0.13115178 0.030754868 0.13053061 -0.14752164 0.111491114
0.27694312 -0.24064589 0.06390957 -0.05058975 0.118414454 0.33576852 0.025170915 -0.15618995

network_body._body_endoder.seq_layers.0.bias f4 [128]
00000000: 0000 0000 0000 0000 0000 0000 0000 0000
00000010: 0000 0000 0000 0000 0000 0000 0000 0000
00000020: 0000 0000 0000 0000 0000 0000 0000 0000
00000030: 0000 0000 0000 0000 0000 0000 0000 0000
00000040: 0000 0000 0000 0000 0000 0000 0000 0000
00000050: 0000 0000 0000 0000 0000 0000 0000 0000
00000060: 0000 0000 0000 0000 0000 0000 0000 0000
00000070: 0000 0000 0000 0000 0000 0000 0000 0000
00000080: 0000 0000 0000 0000 0000 0000 0000 0000
00000090: 0000 0000 0000 0000 0000 0000 0000 0000
000000a0: 0000 0000 0000 0000 0000 0000 0000 0000
000000b0: 0000 0000 0000 0000 0000 0000 0000 0000
000000c0: 0000 0000 0000 0000 0000 0000 0000 0000
000000d0: 0000 0000 0000 0000 0000 0000 0000 0000
000000e0: 0000 0000 0000 0000 0000 0000 0000 0000
000000f0: 0000 0000 0000 0000 0000 0000 0000 0000
00000100: 0000 0000 0000 0000 0000 0000 0000 0000
00000110: 0000 0000 0000 0000 0000 0000 0000 0000
00000120: 0000 0000 0000 0000 0000 0000 0000 0000
00000130: 0000 0000 0000 0000 0000 0000 0000 0000
00000140: 0000 0000 0000 0000 0000 0000 0000 0000
00000150: 0000 0000 0000 0000 0000 0000 0000 0000
00000160: 0000 0000 0000 0000 0000 0000 0000 0000
00000170: 0000 0000 0000 0000 0000 0000 0000 0000
00000180: 0000 0000 0000 0000 0000 0000 0000 0000
00000190: 0000 0000 0000 0000 0000 0000 0000 0000
000001a0: 0000 0000 0000 0000 0000 0000 0000 0000
000001b0: 0000 0000 0000 0000 0000 0000 0000 0000
000001c0: 0000 0000 0000 0000 0000 0000 0000 0000
000001d0: 0000 0000 0000 0000 0000 0000 0000 0000
000001e0: 0000 0000 0000 0000 0000 0000 0000 0000
000001f0: 0000 0000 0000 0000 0000 0000 0000 0000
0.0 0.0 0.0 0.0 0.0 0.0 0.0 0.0
0.0 0.0 0.0 0.0 0.0 0.0 0.0 0.0
0.0 0.0 0.0 0.0 0.0 0.0 0.0 0.0
0.0 0.0 0.0 0.0 0.0 0.0 0.0 0.0
0.0 0.0 0.0 0.0 0.0 0.0 0.0 0.0
0.0 0.0 0.0 0.0 0.0 0.0 0.0 0.0
0.0 0.0 0.0 0.0 0.0 0.0 0.0 0.0
0.0 0.0 0.0 0.0 0.0 0.0 0.0 0.0
0.0 0.0 0.0 0.0 0.0 0.0 0.0 0.0
0.0 0.0 0.0 0.0 0.0 0.0 0.0 0.0
0.0 0.0 0.0 0.0 0.0 0.0 0.0 0.0
0.0 0.0 0.0 0.0 0.0 0.0 0.0 0.0
0.0 0.0 0.0 0.0 0.0 0.0 0.0 0.0
0.0 0.0 0.0 0.0 0.0 0.0 0.0 0.0
0.0 0.0 0.0 0.0 0.0 0.0 0.0 0.0
0.0 0.0 0.0 0.0 0.0 0.0 0.0 0.0

network_body._body_endoder.seq_layers.2.weight f4 [128, 128]
00000000: 7ff9 7b3d 154f 9cbd 2b5f 0f3d 6a76 22bd
00000010: 443c 2abe 43b7 4c3e c73b 11be 8044 883d
00000020: abaa 3d3e ee82 11bd 587e dcbc 9fff fbbd
00000030: dfaa 1c3d f67b 37be 4fc0 29bd 6ae8 973d
00000040: 0abf 0ebe 68a0 d3bd ca24 6a3e 213a b13c
00000050: fc14 963c 8e13 80bd 68f2 213e af75 bd3d
00000060: fd3a a9bc a4ee c73d d0cf f13d 7b3f 913d
00000070: 74bf 023d 423f 9ebc 2a2a 1cbd 119a 09be
00000080: feb6 323d f395 12bd cb3d 02be e881 9bbc
00000090: a5bd 21bd 7dc3 a93d ae6b fcba 64d8 20be
000000a0: be10 d73c 08b3 83bb 3c79 b9bd 7cbf d9bd
000000b0: 494e cb3c fcba c53c 37ad d33d 0d86 f1b9
000000c0: 087f ba3d 30cc bbbd eeba 8abd 1366 133e
000000d0: 69d1 983c 9119 043e b8d4 ab3d 31dc bc3d
000000e0: 7079 8a3d b84f e93c ad9c 8abd 5cdc ab3c
000000f0: a37d dc3d b056 5d3d d359 f8bc 5d5b 163d
00000100: c1ec 79bc 4366 a8bd 5152 2fbe ea4c f9bc
00000110: 68a7 27bd f7e2 92bb 67ad b23d 3c7f eb3d
00000120: 9e2f e93c e2b2 a03b ebe7 0d3c 56c3 223d
00000130: 28e6 98bc d5a4 6f3d 484d 83ba a3c8 b5bd
00000140: 3709 a03c 011a 983d ed5b c43d 3fa5 ef3c
00000150: c7fe 59bc d748 c539 80b5 bcbd ba55 a9ba
00000160: fb6c a73d 51fd 95bd e455 cfbd 663b 1c3e
00000170: 02fe 853c 7193 9c3d 57df cebc 7690 3a3c
00000180: e84b 8ebd ff54 033d 7a41 09bd 47b5 ec3d
00000190: 1900 eb3d 9744 be3d 1b9d 52b9 0670 ed3c
000001a0: 36d8 653c 4094 9fbc 55ba 823d 4061 753d
000001b0: 0276 103e 1ea6 b2bd dc87 8ebd 3fcf 7bbc
000001c0: abfc a2bd 19d2 97ba 9876 db3c db4d 1d3d
000001d0: caf8 a0bd f33d 4dbd 3a6b c73b 19db 353d
000001e0: 6a95 4fbe 7c7a 65bd fb40 a03c 864e 4dbc
000001f0: 2168 fdbc aa6e 84bd dc2a d3ba 1fe5 90bd
00000200: 4648 db3c e5b5 ed3b f566 bfbd 530f f2bd
00000210: 75a2 903d 0257 1e3e bf06 e73d 669d 0c3b
00000220: 6c88 333d 5d89 903d 532c 52bd 3716 02bd
00000230: 38a1 873d 7e92 3b3d 48a5 14be c5bc a13d
00000240: c23e 92bd 93ab 1f3e a726 b53d d059 253e
00000250: 9e2d 7c3d d7bf 1c3e 8a88 7e3d da7b 873d
00000260: b5dd c13d 1628 563e caa5 01be 6b4b 02bd
00000270: 049b 26bc 1683 1ebd 1c19 f93d 372b 323d
00000280: 9be5 bbbc f5f8 db3d 99d9 d0bd f53b 9b3c
00000290: d155 923c 1ac2 3dbe 88b5 683d de3b a83d
000002a0: 2f94 b63b ce7e 5e3c 01c3 11be ad7a 493d
000002b0: 3316 1cbd 8a4d 03be 2c87 17bb f832 bebd
000002c0: 32da 0abd f852 ee3b 855c b23d 83c7 a63d
000002d0: b274 0a3e c35e 443d 11e9 d83c a162 8fbd
000002e0: 82bd 34bd 94e3 b3bd 670a d9bd 4d05 693e
000002f0: 85da 69bd 84ac 0dbb 1044 21bc 830a b73d
00000300: 33ba 3f3e 1872 83bc aeb7 d3bc 024f e33c
00000310: 3629 273b 2c38 69bd e26b a43d efa0 96bc
00000320: b199 263d 7874 e23c 611a fb3d c83b 56bd
00000330: 6469 443e e535 453e 1110 08be fb4d 373d
00000340: b0fb a23d ba52 4cbc 8ceb da3c 6b8d 973d
00000350: 10d7 e2bc e6ba 143d 71f6 57bc 53bc 783d
00000360: 76d0 853d 664d 033e 29e6 7bbe fe7a 8bbe
00000370: d8e9 203d 73e4 22be dbee 25bb 254d 7ebc
00000380: 5916 14bd 9b14 0d3d 6b9c 52bd fe87 80bd
00000390: 8b3b 103e 0331 603c 8d15 c83d 11c7 283e
000003a0: 6b9c 733d e7d3 febd 9482 cebd 1a6f 163d
000003b0: 767b 043d 27d0 67be d6fd 683d bdef d6bd
000003c0: fae9 2c3d c0d2 8abd 10af 183e a3b9 6ebd
000003d0: 9cf5 51be 389a a13c be5b cc3d 08a0 1a3e
000003e0: b735 e2bd 754d 373e 22e9 acbd 079f 31be
000003f0: e861 c9bd c010 c6bc 8b88 23be fcd2 b4bd
0.061517235 -0.07632271 0.03500287 -0.03966371 -0.16624552 0.19991784 -0.1418296 0.0665369
0.18522136 -0.035525255 -0.026915714 -0.12304615 0.038248893 -0.17918381 -0.041443165 0.07417376
-0.13940063 -0.103333294 0.22865596 0.021634163 0.018320553 -0.0625373 0.15815127 0.09250962
-0.02065801 0.09762314 0.11807215 0.07092186 0.031920865 -0.019317273 -0.03812615 -0.13437678
0.043631546 -0.035787534 -0.12718885 -0.018982843 -0.0394875 0.082892396 -0.0019258165 -0.15707546
0.0262531 -0.004019145 -0.09056327 -0.10632226 0.024817603 0.024137013 0.103357725 -0.00046066978
0.091062605 -0.09169805 -0.06773935 0.14394407 0.018654542 0.12900378 0.08390182 0.09221686
0.067614436 0.028480396 -0.06768165 0.020979099 0.10766151 0.05403775 -0.030316269 0.036708225
-0.0152542 -0.0822263 -0.17121245 -0.030432183 -0.040931135 -0.0044826227 0.0872448 0.114988774
0.028465088 0.004904137 0.008661251 0.039737068 -0.018664435 0.058506805 -0.0010017538 -0.08876159
0.019535644 0.07426835 0.09587846 0.0292536 -0.013305373 0.00037629038 -0.09214306 -0.0012919225
0.08175083 -0.07323707 -0.10123804 0.15257034 0.016356472 0.0764531 -0.025252981 0.011386981
-0.06948072 0.03206348 -0.03350971 0.115580134 0.11474628 0.09290426 -0.00020085687 0.028984081
0.0140285995 -0.01947987 0.06383196 0.059907198 0.14107516 -0.087230906 -0.06959507 -0.015369236
-0.07958349 -0.0011583 0.026789948 0.038404327 -0.07859953 -0.050107908 0.0060857804 0.0443984
-0.2027184 -0.056025013 0.019562235 -0.0125309285 -0.030933442 -0.0646642 -0.0016110796 -0.070749514
0.026767861 0.0072543495 -0.09345809 -0.11819329 0.07062236 0.15462878 0.112805836 0.0021456121
0.043831274 0.0705745 -0.051311802 -0.031759467 0.06622547 0.045794003 -0.14516175 0.07897333
-0.07140876 0.15592794 0.08845263 0.16147542 0.06156694 0.15307556 0.062141933 0.0661542
0.094661154 0.20913729 -0.126609 -0.031810205 -0.010168795 -0.038699232 0.12162992 0.043498244
-0.022936633 0.10740844 -0.101977535 0.018949488 0.017863186 -0.18531075 0.056813747 0.08214544
0.005571864 0.013580037 -0.14234544 0.04918926 -0.03810711 -0.12822548 -0.002312134 -0.09287065
-0.033899494 0.0072730742 0.08709053 0.081435226 0.13521078 0.047941934 0.026478322 -0.07001234
-0.04412604 -0.087836415 -0.10597687 0.22755928 -0.057093162 -0.002161772 -0.0098428875 0.08937552
0.18723373 -0.016045615 -0.025844421 0.027747635 0.0025506741 -0.056938335 0.080283895 -0.018387286
0.040673915 0.027643427 0.12260891 -0.052303106 0.19180828 0.1925884 -0.13287379 0.044752102
0.07958162 -0.012470895 0.026723646 0.0740002 -0.02769044 0.036311053 -0.013181315 0.060726475
0.065339014 0.12822494 -0.24599518 -0.27242273 0.03928551 -0.15907459 -0.002531937 -0.015521322
-0.036154125 0.03444348 -0.051418703 -0.062759385 0.14085214 0.01368356 0.097697355 0.16482188
0.059475344 -0.12442761 -0.100834996 0.03672705 0.032344304 -0.22637998 0.0568827 -0.10494945
0.042215325 -0.067784786 0.14910531 -0.058282506 -0.20503849 0.019726858 0.09978436 0.1510011
-0.110454015 0.17900641 -0.08442904 -0.1734582 -0.09833127 -0.024177909 -0.15970056 -0.088293046

network_body._body_endoder.seq_layers.2.bias f4 [128]
00000000: 0000 0000 0000 0000 0000 0000 0000 0000
00000010: 0000 0000 0000 0000 0000 0000 0000 0000
00000020: 0000 0000 0000 0000 0000 0000 0000 0000
00000030: 0000 0000 0000 0000 0000 0000 0000 0000
00000040: 0000 0000 0000 0000 0000 0000 0000 0000
00000050: 0000 0000 0000 0000 0000 0000 0000 0000
00000060: 0000 0000 0000 0000 0000 0000 0000 0000
00000070: 0000 0000 0000 0000 0000 0000 0000 0000
00000080: 0000 0000 0000 0000 0000 0000 0000 0000
00000090: 0000 0000 0000 0000 0000 0000 0000 0000
000000a0: 0000 0000 0000 0000 0000 0000 0000 0000
000000b0: 0000 0000 0000 0000 0000 0000 0000 0000
000000c0: 0000 0000 0000 0000 0000 0000 0000 0000
000000d0: 0000 0000 0000 0000 0000 0000 0000 0000
000000e0: 0000 0000 0000 0000 0000 0000 0000 0000
000000f0: 0000 0000 0000 0000 0000 0000 0000 0000
00000100: 0000 0000 0000 0000 0000 0000 0000 0000
00000110: 0000 0000 0000 0000 0000 0000 0000 0000
00000120: 0000 0000 0000 0000 0000 0000 0000 0000
00000130: 0000 0000 0000 0000 0000 0000 0000 0000
00000140: 0000 0000 0000 0000 0000 0000 0000 0000
00000150: 0000 0000 0000 0000 0000 0000 0000 0000
00000160: 0000 0000 0000 0000 0000 0000 0000 0000
00000170: 0000 0000 0000 0000 0000 0000 0000 0000
00000180: 0000 0000 0000 0000 0000 0000 0000 0000
00000190: 0000 0000 0000 0000 0000 0000 0000 0000
000001a0: 0000 0000 0000 0000 0000 0000 0000 0000
000001b0: 0000 0000 0000 0000 0000 0000 0000 0000
000001c0: 0000 0000 0000 0000 0000 0000 0000 0000
000001d0: 0000 0000 0000 0000 0000 0000 0000 0000
000001e0: 0000 0000 0000 0000 0000 0000 0000 0000
000001f0: 0000 0000 0000 0000 0000 0000 0000 0000
0.0 0.0 0.0 0.0 0.0 0.0 0.0 0.0
0.0 0.0 0.0 0.0 0.0 0.0 0.0 0.0
0.0 0.0 0.0 0.0 0.0 0.0 0.0 0.0
0.0 0.0 0.0 0.0 0.0 0.0 0.0 0.0
0.0 0.0 0.0 0.0 0.0 0.0 0.0 0.0
0.0 0.0 0.0 0.0 0.0 0.0 0.0 0.0
0.0 0.0 0.0 0.0 0.0 0.0 0.0 0.0
0.0 0.0 0.0 0.0 0.0 0.0 0.0 0.0
0.0 0.0 0.0 0.0 0.0 0.0 0.0 0.0
0.0 0.0 0.0 0.0 0.0 0.0 0.0 0.0
0.0 0.0 0.0 0.0 0.0 0.0 0.0 0.0
0.0 0.0 0.0 0.0 0.0 0.0 0.0 0.0
0.0 0.0 0.0 0.0 0.0 0.0 0.0 0.0
0.0 0.0 0.0 0.0 0.0 0.0 0.0 0.0
0.0 0.0 0.0 0.0 0.0 0.0 0.0 0.0
0.0 0.0 0.0 0.0 0.0 0.0 0.0 0.0

action_model._discrete_distribution.branches.0.weight f4 [2, 128]
00000000: f5d4 a3b8 72b0 043b d35a 983a bd19 7e3c
00000010: d7dc 463b 7818 f23a 1e67 b33a f8fe 4e3c
00000020: 6f85 d2bc 4442 95bb 8793 ecbb 7d45 09ba
00000030: 7a98 f5ba eac4 37bc 9d1b 34ba 27af 04bc
00000040: a3ca debb 9e91 2d3b 2a1a 683c eb57 2a3c
00000050: 17d8 72bb 80c6 52bb 08b2 063c 62fd 5f3c
00000060: ccc7 4cbc 476f 06bb 3ea2 ab3c 52cc 7d3c
00000070: c488 00bb aa88 fc3a 9312 d7bc 6e61 033a
00000080: 38a0 933c 2c30 103c f2af 643c 8d7d baba
00000090: c1ef 13bb 27b0 08bc ea81 f238 41b3 823c
000000a0: 7916 8f3b 8d3e e1bb 836e a6bb ffcb e93b
000000b0: 27fd bc3b 3acd cebb 7b37 393b 10ff 673b
000000c0: be29 073c a445 19bc 40a3 eeba a30d 073c
000000d0: c038 71b9 d7af 553c 32b2 38bc 5c45 053c
000000e0: e3ba bebb 13ec 0d3b c8fb 2dbb 5824 6f3c
000000f0: 1036 683b c4b5 07bc baf1 33bc 15ca 8abb
00000100: 6931 c83b 5d32 4ebc f79c 1a3b 96fd 133b
00000110: e45c 3cbc af89 f2ba 6c89 25bc 6631 853c
00000120: 0347 18ba 3850 03bc 27ef 55bb ad2b 563b
00000130: 0f48 10bc 38b8 623b 38d6 203c bd38 f63b
00000140: ca53 e1b9 b300 96bb e559 f639 53c0 893c
00000150: f77e 383b 5bf1 3a3c 8a05 11bb d30d 313c
00000160: 72a2 cdbb d6af c73b dbc0 04bc a4c2 43bc
00000170: e9fe 11bc b6b5 a53c eea0 8c3a 60f0 08bc
00000180: 10f8 f73a 5ba4 df39 90d8 173c bb1b 52bc
00000190: 4388 873b a37f 8c3c 64fb 14bc 6da0 1839
000001a0: 971f 5a3b 7427 383b e3ba 92bb efed a63b
000001b0: 9aa6 d63b eb2f 653b bd9b ceba 5ca6 463b
000001c0: 1884 fa3b 958c 7dbb 3220 023c 51b7 303a
000001d0: 105c 653c 7d24 dabb 5ac3 573a 0d75 6f3a
000001e0: 2b93 0139 422b 5e3b e08f 143b 4fff fa3b
000001f0: 295a b43b 3a6c 93bb 0a82 febb 4c07 ae3b
00000200: 2c88 35bc 95e6 3dbb 3388 8939 5f13 09bc
00000210: efa4 80bc 61c9 973b cbbc 3dbc 2b89 733c
00000220: 27eb 4cba 554a 78bb 2984 97bc e973 aeb9
00000230: faa6 b2bb b80f 303b f815 1b3c 03ec 693c
00000240: fb29 5c3a e5b9 53bc 058d d2bb 6303 f43a
00000250: 325a f3bb 1a2b f2ba dbf7 b6bb 53bc c2bc
00000260: 410a 89bc cf25 783b 4e7e 933c 9c15 8fbb
00000270: 0ad8 ffbb 7061 03bb 42f9 b3bb 7358 1fbb
00000280: f8c1 9e3c 7938 8e3b 1566 fd3b 9f57 153c
00000290: 420f c8bb 9b7c 8dbb 219c 1bbb d385 7a3a
000002a0: 7700 1a3b 4b4b fb3b 4d63 06bc 824e 58bc
000002b0: 0c8d a4bb f5ad f33b 97d8 55bb 43ce fc3b
000002c0: fa20 a43c ae0e 1cbc c052 32bc 5dc3 ccbb
000002d0: 205d 62bc ab48 dbbb 7a89 f73a e226 4e39
000002e0: 8d97 353c eb68 023b 0529 f8bb 0266 b4bb
000002f0: f949 2fbb 36f6 c93c 6b5f 26bc 2106 1bbc
00000300: d8ac 99bc 4047 01bc 9f84 f8bb 0852 b0b9
00000310: 89c7 48bc 30a1 10bc 407d 05bb 6253 76ba
00000320: 81c6 153c afc5 983b 5877 603c a3d7 063c
00000330: 8d8b 9ebb c930 1a3c cb49 09bb 7312 403c
00000340: 33b4 b0ba 30c4 333b 1f98 7ebb 804f 3cbc
00000350: 3fb9 85bc 6da3 4bbc 5715 d6bb d524 36bc
00000360: 280b 1ebc ab52 0c3c eac6 5dbb 6a78 173c
00000370: c7c7 a8bc 09e4 04bc ef09 513b acd6 883c
00000380: 53ca d6b8 d22e a5bb 062e a2bb 92a5 c13b
00000390: 2b92 33bc 8fd4 9fbc 0e32 2f3c 8073 183c
000003a0: fec3 92bb bfa5 ab3b c048 d13b 0464 9b3c
000003b0: bdc9 2b3b c53c d03b 3a9b 63bb c188 97ba
000003c0: 42f4 0a3c 03f0 53bb d07d 33bb 0cf3 323c
000003d0: cf7d ea3b 5211 c6bb 336d dfbb 7c91 133b
000003e0: 2098 4a3b 9c82 b53b 0e7b 9bbb c22c 95bc
000003f0: 2360 cf3b 0bd4 123b a4d0 bf3b 6351 8bbb
-7.812112e-05 0.0020246771 0.0011623747 0.015509066 0.0030344033 0.0018470427 0.0013687348 0.0126340315
-0.025698392 -0.0045550186 -0.007219735 -0.000523649 -0.0018737458 -0.011216382 -0.000687057 -0.0080984
-0.0067990585 0.00264845 0.014166394 0.010396938 -0.003705507 -0.0032161772 0.008221157 0.013671251
-0.012498807 -0.0020513104 0.020951387 0.015490608 -0.0019612769 0.0019266803 -0.026253974 0.00050117716
0.018020734 0.008800548 0.013957964 -0.0014228091 -0.0022573324 -0.008342779 0.000115636576 0.015954616
0.0043666926 -0.0068739117 -0.005079092 0.007134914 0.005767483 -0.006311086 0.0028261829 0.0035399832
0.008249698 -0.0093549825 -0.0018206611 0.008242997 -0.00023004692 0.013042412 -0.011272954 0.008134212
-0.0058206185 0.0021655604 -0.0026547778 0.014596067 0.0035432614 -0.008283082 -0.010982925 -0.004235516
0.006109406 -0.01258525 0.0023592093 0.002258157 -0.011496756 -0.0018504168 -0.010103565 0.016258907
-0.00058089214 -0.008014731 -0.0032643767 0.0032679841 -0.008806243 0.0034594666 0.009816699 0.007514088
-0.00042977772 -0.00457772 0.00046987753 0.01681534 0.0028151849 0.011410083 -0.0022128546 0.010806519
-0.0062754685 0.0060939593 -0.008102621 -0.011948261 -0.008910873 0.020228248 0.0010729113 -0.008358091
0.0018918533 0.0004265633 0.009267941 -0.012823994 0.0041361167 0.017150706 -0.009093139 0.00014555613
0.003328299 0.0028099688 -0.004477845 0.005094282 0.006550622 0.0034971188 -0.0015762966 0.003031156
0.0076451413 -0.003868853 0.007942246 0.00067411835 0.013999 -0.006657182 0.0008230709 0.00091345684
0.00012357223 0.0033900295 0.0022668764 0.0076598297 0.005503912 -0.0044989856 -0.0077669667 0.0053109284
-0.011079829 -0.002897655 0.00026232153 -0.008366435 -0.015703646 0.0046321605 -0.011580656 0.014864246
-0.0007817023 -0.0037886102 -0.018495636 -0.00033274226 -0.005452034 0.0026864838 0.009465687 0.014277461
0.00083985896 -0.012922739 -0.0064255022 0.0018616732 -0.0074265236 -0.001847598 -0.005583746 -0.02377144
-0.016728522 0.0037864333 0.018004563 -0.0043665897 -0.0078077363 -0.002004709 -0.0054923603 -0.0024314194
0.0193796 0.004340228 0.0077331164 0.009115129 -0.0061053345 -0.0043178326 -0.0023744183 0.00095566845
0.0023498812 0.0076688877 -0.008202386 -0.0132023115 -0.005021697 0.007436509 -0.0032630318 0.007715018
0.020035256 -0.009524984 -0.010883987 -0.006248875 -0.013816148 -0.0066920123 0.0018885576 0.00019660176
0.011083496 0.0019898962 -0.0075732493 -0.0055053243 -0.0026746972 0.024653535 -0.010154585 -0.00946191
-0.018759176 -0.0078905225 -0.007584169 -0.00033630454 -0.012254604 -0.008827493 -0.0020368844 -0.000939658
0.009141565 0.0046622376 0.013700329 0.008230123 -0.004838413 0.009411045 -0.0020948525 0.011723149
-0.0013481438 0.002743017 -0.0038847995 -0.011493564 -0.016323684 -0.0124291 -0.0065333056 -0.01111718
-0.009646215 0.008564631 -0.0033840486 0.009245018 -0.020603074 -0.008111008 0.003189679 0.016703926
-0.00010242001 -0.005040982 -0.004949334 0.00590963 -0.010960142 -0.019510536 0.010693086 0.009304881
-0.0044789305 0.0052382643 0.0063868463 0.01896859 0.0026212775 0.0063549005 -0.0034729973 -0.0011561142
0.008481087 -0.0032339103 -0.0027388223 0.010922205 0.007156111 -0.006044545 -0.0068184375 0.0022517135
0.0030913427 0.0055392515 -0.004744894 -0.018209819 0.006328599 0.002240422 0.0058537293 -0.0042516454

action_model._discrete_distribution.branches.0.bias f4 [2]
00000000: 0000 0000 0000 0000
0.0 0.0

action_model._discrete_distribution.branches.1.weight f4 [2, 128]
00000000: 744c 983b 115b 1bbc 62bc c53a 2393 edbb
00000010: ad4a 06bb a877 fd3b 1a90 943b 529f 4abc
00000020: 1091 f4bb baee 60bc cb3c 0ebc 7862 d9bc
00000030: 1732 efbb 88f2 63bb 7b1b bc3b 0a2c 1c3c
00000040: 0da7 0cbc 34da 953a 43b1 d3bb 3971 8fbc
00000050: e769 233c ab1d 453c 18ea 0c3c 0b90 3cbc
00000060: b2dd a83b 383c 73bb 4706 133c 97c5 203b
00000070: ff73 1d3c b462 a03a 1811 26bb 9a74 dcbb
00000080: 2209 d33b 5b84 d7bb a322 40ba 2c30 a3bb
00000090: 22e9 8d3c 8a87 003c 2b7b 96bb eb76 373b
000000a0: 9a66 bbba 97f5 703c 8b89 453b 7117 b03b
000000b0: 8d7a 3e3c d7f2 e6bb c784 393b da4c 66bb
000000c0: 9db5 07bb e07c 55bb eb49 393b 6252 85bb
000000d0: df0d 21bc a77d d63b b5a2 8dbc 47c6 193c
000000e0: 2773 803c e572 96ba fffb 6a3c 68ce 36bc
000000f0: e3ed 91bb 5938 1cbb 384d 4fbc 9bcf 023c
00000100: cfc4 48bc 6e5c 30bb 8349 8cbc 2b06 523b
00000110: 2fb9 8cbb a3ac 123c c0fa f73a 3983 2aba
00000120: 9b11 d73b 868a 82bb 9f41 33bb 4ae4 623b
00000130: 1b9c 093c 6e23 42bb 5cb8 093c ab96 793c
00000140: eb19 5cbc 1b7b 8f3a 5f86 8fbb ec0a 07bc
00000150: 06af 8abb 352c f23b cd76 963c 8e64 cabc
00000160: ff4a 243c fcd0 1b3c a36f c03b aa1a d6bb
00000170: dce9 8a3b a747 32bc 4823 f5ba 3f67 2b3c
00000180: ba00 ad3c 2ae5 8dbc d03a 6d3b d85c b5ba
00000190: d818 89bb 1b18 99bc a07e 1e3b 8685 86b8
000001a0: 00ec dcbc 51f0 bdba 4efb 493c 561b aab8
000001b0: 6fcb ad39 fd22 bc3b fc51 213b f8bf 54bb
000001c0: 7bab 903b 5816 c9bb fb6f 1abb db6d c63b
000001d0: 039b 3dbb 2392 acbb 9020 f03a 1ecb 35bc
000001e0: dade 4d3b 01f8 0a39 529c 803a 71e3 49bc
000001f0: 75c3 0fbc 70a9 05ba 0ff8 7d3c 6bb7 353a
00000200: 1684 0abc 4fd0 563c fa0e 8cbc f361 153c
00000210: 6d8a 81bc 7024 77bb 5e1f 84bb 1973 023c
00000220: 605c 523b 04e4 263c 610d 0d3c f608 1c3c
00000230: e1e1 333c a428 1e3b e8e2 ef3b 15dd 563b
00000240: fb37 67bb 9896 983b a41b 03bb 7864 28bc
00000250: 18dc 79bb c44a c0bb d25b e5ba 0bbe 033c
00000260: 8810 e3bb 532f 31bc 0080 14bc f39e 213c
00000270: ee1f 86bc ae77 14bc 3a4d 883b 946a 04bc
00000280: 958b f93b ade3 833a ff5f 8abc 9657 0d3c
00000290: 7d39 bebb 327c 6b3c 247c 15b9 7b41 1b3b
000002a0: 2907 0dbc 6da9 9cbb 3adc 94bb 14d7 0dba
000002b0: 075d 4b3c 5be1 a1ba 4312 51ba 0f63 c53b
000002c0: 87ed 7ebc c037 2f3a b462 8c3b 071b d23a
000002d0: a219 523c e7ff e2bc 8f1e a6bb c09a ed3a
000002e0: 784d d23a 1ab1 80bc 2a84 9b3b 977a 0b3a
000002f0: 4d7c 40bc 8878 be3b 7f80 2bbc aaf3 ed3b
00000300: 231a 5abc f29a cbbb 2f95 e2ba 4606 b0bb
00000310: 12a4 4d3b f824 1ab9 d6e6 ae3c 0731 913b
00000320: 6721 693c afe4 97bb 2327 a53b 93ee 84bb
00000330: a707 3abb aacb f1bb 3796 4f3c ef00 aa3b
00000340: 5372 6e3b 6ad5 26bc b312 8f3c 8b41 323c
00000350: a935 27bc 0818 0d3c b735 b43b a0e1 793b
00000360: b547 923b 5b77 933b 5bb1 8c3a 13dd e5bb
00000370: e941 9dbb 4dee 2e3b b72d a73b 4b8c 04bc
00000380: 5b0b 21bc b77b 49bb 31b6 40bb 80c6 d0bb
00000390: 9db0 52bb f037 cf3a 9fe4 75bb 2778 8cbc
000003a0: 6b26 103b f328 49ba 2bff 37bc 2293 07ba
000003b0: 8aa3 e03b 221b cf3c b306 0fbc 7b6d 7cba
000003c0: 2489 053c 6788 553c 47e0 efba 5742 faba
000003d0: d608 163c 4411 843c ea58 233c 525e 53ba
000003e0: 256d 803c 90eb 16bc 4c8b a9bb 17c1 923b
000003f0: 0de7 cc3c a158 bdbc 5be3 5dbb 5b8f 40b9
0.004647786 -0.009482161 0.001508605 -0.007250206 -0.0020491288 0.0077352114 0.00453378 -0.0123670865
-0.007463582 -0.013728792 -0.008681486 -0.026536211 -0.0072996723 -0.003478201 0.0057405806 0.009531984
-0.00858475 0.0011432827 -0.00646034 -0.017510043 0.00997398 0.012030999 0.008600734 -0.011508952
0.0051533813 -0.003711475 0.008973665 0.0024531835 0.009610175 0.0012236447 -0.0025339779 -0.006727767
0.0064402977 -0.0065770573 -0.000732938 -0.004980108 0.01732308 0.007844815 -0.0045923195 0.0027994465
-0.0014297545 0.014706991 0.0030141796 0.005373888 0.011625898 -0.0070479917 0.0028307901 -0.0035141022
-0.0020707615 -0.0032575652 0.0028272818 -0.0040686587 -0.009829967 0.0065457406 -0.017289499 0.009385652
0.015679909 -0.0011478333 0.014342307 -0.0111576095 -0.004453407 -0.0023837297 -0.012652688 0.007984067
-0.012253954 -0.002691056 -0.017124897 0.0032047133 -0.0042945365 0.008952293 0.0018919334 -0.0006504539
0.006563378 -0.0039837984 -0.0027352346 0.0034620934 0.008399035 -0.0029623169 0.008405771 0.015233676
-0.013433914 0.0010946722 -0.004380032 -0.00824235 -0.00423229 0.007390524 0.018367196 -0.024706151
0.010027646 0.009510275 0.005872683 -0.0065339403 0.004239304 -0.010881341 -0.0018702531 0.0104616275
0.02111851 -0.017321188 0.0036198385 -0.0013836874 -0.00418387 -0.018688252 0.002418436 -6.4144886e-05
-0.026968002 -0.0014491176 0.012327982 -8.1113234e-05 0.000331487 0.0057414756 0.0024615517 -0.0032463055
0.0044149733 -0.006136697 -0.002356528 0.0060555763 -0.0028931506 -0.0052664443 0.0018320251 -0.01109579
0.0031413347 0.00013253094 0.0009812212 -0.012322293 -0.008774628 -0.00050987955 0.015501036 0.00069319335
-0.008454343 0.013111188 -0.017096985 0.009117591 -0.015813077 -0.0037710927 -0.0040320596 0.007962012
0.0032098517 0.010186199 0.008609147 0.009523621 0.010979147 0.002413311 0.0073207505 0.0032785584
-0.003528117 0.004656624 -0.0020005489 -0.01027786 -0.003812557 -0.0058682878 -0.0017498678 0.008040915
-0.006929461 -0.010814506 -0.009063721 0.009864557 -0.016372647 -0.009061737 0.0041595967 -0.008082051
0.0076155164 0.001006236 -0.016891478 0.008626839 -0.005805193 0.014372872 -0.00014255993 0.0023690152
-0.008607664 -0.0047809393 -0.0045428546 -0.0005410772 0.012412316 -0.0012350486 -0.00079754385 0.0060237716
-0.015559561 0.00066840276 0.0042842273 0.0016029783 0.012823494 -0.027709914 -0.005069561 0.0018127784
0.0016044816 -0.015709449 0.00474598 0.00053206965 -0.011748386 0.0058127083 -0.010467648 0.007261713
-0.013311896 -0.0062135393 -0.0017286892 -0.0053718416 0.003137831 -0.00014700356 0.021350306 0.0044308933
0.014229155 -0.0046354155 0.005040066 -0.0040567606 -0.0028385909 -0.007379015 0.012670091 0.0051880996
0.003638406 -0.010182718 0.017464971 0.0108798845 -0.010205665 0.0086116865 0.0054995674 0.0038128868
0.0044641146 0.0045003123 0.0010734008 -0.0070148795 -0.004799117 0.0026692331 0.005101885 -0.008090089
-0.0098293675 -0.0030743906 -0.002940547 -0.0063713193 -0.0032148727 0.0015809517 -0.0037520302 -0.017147137
0.0021995555 -0.00076736434 -0.01123027 -0.0005171766 0.006855433 0.025281493 -0.008729625 -0.0009629351
0.008150373 0.013033009 -0.0018301093 -0.0019093257 0.00915738 0.016121514 0.009969929 -0.0008063066
0.015677044 -0.009211436 -0.005174076 0.0044785845 0.025012517 -0.02311355 -0.0033857438 -0.00018363951

action_model._discrete_distribution.branches.1.bias f4 [2]
00000000: 0000 0000 0000 0000
0.0 0.0

action_model._discrete_distribution.branches.2.weight f4 [2, 128]
00000000: 7ffa 163b bfad 063b 1b24 ddba dfa3 743b
00000010: e3cc 203b f369 4e3c d88c 343c 4f26 40bb
00000020: 0240 163c 6d49 debb c725 5e3c a611 0fbc
00000030: f889 f3bb 7bde af3a 4033 fbbb 9d44 aabb
00000040: b714 6c3b 67ed 553b 9570 aebb 8d93 6cbc
00000050: ef5c 17bb 3d92 72bb 075a 353b 705b 213c
00000060: 4825 693c 9c2c 243a 1463 cabb d5be 063b
00000070: 7b68 813c 5f95 273b d325 20bb 9030 e43a
00000080: e7e7 a7b9 f794 02bc 9e9e 1abb 3e52 a03b
00000090: 7598 74ba fc07 46bc 9a27 d2bb 7711 41bb
000000a0: 3951 973c a4e1 bbbc 6a7a d43a 88c3 d8bb
000000b0: debc a33b 973d 9db8 bd53 d93b 1f0e bebb
000000c0: 8bec e23a 6304 153c 2ad4 b0bb de24 4bbc
000000d0: 2387 d03b c840 dc3b 39ed 18ba 7ce5 42bc
000000e0: e014 7e3c 8083 fc39 9cc4 1b3c 4d94 753c
000000f0: bed9 34bc 75fe 54bb 9725 6c3a 7753 983c
00000100: 6800 e53b cd20 a2bb f6c5 1f3a 6f06 22bc
00000110: b06f 913b bc01 bebb 7771 bcbb 2fcc 5c3b
00000120: 1691 0b3c 71e4 34bc 7feb e7bb 393e 37bc
00000130: b528 833b a4bf a8bb 3ff5 ae3b 83ff 8e3b
00000140: 40e6 75bb 67c3 583c c541 243b 5abc fc3b
00000150: a37c 6bbb 10a1 1abc b265 95bb 3870 85bc
00000160: 3734 ea3a 922b 933b 6976 3a3a a75d 55bb
00000170: e81c 45bc 47c7 6f3b eb72 013c fdff 03b9
00000180: 07a2 07bb 960e 3b3b 20fe e03b f72a 97bc
00000190: 3714 323a ad40 d4ba 326c 553c b7f5 303b
000001a0: 9b69 2a3b 12fc ab3b 37e3 8b3a 2852 753b
000001b0: 3236 c13b 32a9 13bc 2d89 cdbb 2736 a03b
000001c0: 4dbe 38bc 0fbc 2dbc dfd6 abbb 106b 7e3c
000001d0: 13bb ae3b 2266 82bb 2261 9abb 696b 9bbb
000001e0: 0366 d2bb 83ea 8dbb e32f a33b 6305 adbb
000001f0: 4219 b43b 3564 53bb be6f bf3b 69a9 94bb
00000200: 2a00 ce3a e38a 153c 1a0f 163a 73c1 2ebb
00000210: 2285 83bb 24a0 2dbc 65eb 723c 18cf 9abc
00000220: abdb 353a 1f9e d9bb 5df4 19bc 1b0a a3bb
00000230: ed17 903b e571 6c3c c89d 89b8 9e19 233a
00000240: 4809 0bbc b9db 04bc ada2 493c 0584 58bb
00000250: cf21 743c 2857 94bc ffdf 96bb e6fd 2abb
00000260: 0fc9 48bc b1c0 43bb d019 d8b8 b353 d0ba
00000270: 931e 973b 406a 12bc 6f7c f4ba 8307 b4ba
00000280: 4356 523c c89b 823c 8fde 07bc 2c3f 223c
00000290: 4f86 173a e3a4 bebb fff2 5cbb 0264 86bc
000002a0: b69a 0dbc 4a32 febb 5afa 52ba 158b 9b3a
000002b0: 1d0b 4d3b 3f17 b1ba 772d e53b 278d ef3a
000002c0: 4faf bd3b 3318 a7bc 04ee 8cbb ffce dc3b
000002d0: 0cec 13bc 5fbd 3bba c3d7 88bb 7587 8c3a
000002e0: fb67 3e3a 4f4c 2fbc cdb3 4fb8 15c1 883c
000002f0: cead a8bb 77e5 0abc b330 a13b 208b f5bb
00000300: ab6d 3a3b 4401 2c3c f261 68bb bfc9 59bc
00000310: c310 7b3b 308c 5fbc 4f1d 953c 56ac 81bb
00000320: 72e9 5fbb e5b8 723b acb6 293c 870e ac3b
00000330: 2718 2f3b 8827 4dba 9fe4 023b 5d5e 3abb
00000340: 2b31 4e3c f5b0 15bc 0bad d4bb a931 47bc
00000350: dc97 953a 9ac1 22ba 5936 183c c8a6 39bc
00000360: 50c2 10bc 3718 1bbb 157a 7eb9 ebd6 1c3c
00000370: 7a30 463b 7885 743a 62e0 403c 289a e9bb
00000380: b32c b6bb 2b12 0b3b 70c4 5d3b e1e8 883c
00000390: ba7f 57bc ab41 8bba e70b 51bb 0ba5 8d3b
000003a0: 17c2 5abb 1ea3 1abc 0e87 c439 c26b 223c
000003b0: 3e1f 063c 9bde 343c 3716 8b3c a687 be3b
000003c0: 317f 24bc 646a bb3b 8399 05bc 65f3 de3c
000003d0: 631e 9a3a af08 833a 4f4f 3eba 0bb9 cfbb
000003e0: 9be1 9d3b b36a 7d3c 5371 36bc 7dfa 45bb
000003f0: fd48 28bc 2b62 2dbc dae0 1c3c af06 fc3b
0.002303749 0.0020550338 -0.0016871722 0.003732912 0.0024536185 0.012598502 0.011019908 -0.0029319709
0.009170534 -0.0067836554 0.0135588115 -0.008732235 -0.0074322186 0.0013417745 -0.0076660216 -0.0051961676
0.003602309 0.0032642724 -0.0053234794 -0.014439476 -0.0023096164 -0.0037013434 0.0027672069 0.009848461
0.01423008 0.0006262751 -0.006176362 0.0020560522 0.01579689 0.002557121 -0.0024436607 0.0017409492
-0.00032025503 -0.007970086 -0.0023593078 0.0048926165 -0.0009330579 -0.012086865 -0.0064134123 -0.0029459873
0.018471347 -0.022934742 0.0016210799 -0.006615106 0.00499688 -7.4978154e-05 0.006632297 -0.005800023
0.0017312927 0.009095284 -0.0053963857 -0.012398927 0.006363766 0.0067215897 -0.0005833689 -0.011895534
0.015507907 0.0004816316 0.009507325 0.014988971 -0.011038242 -0.00325003 0.0009008287 0.018594487
0.006988574 -0.004947758 0.0006094867 -0.009889229 0.004438363 -0.0057985466 -0.0057508308 0.003369104
0.008518478 -0.011040793 -0.007077634 -0.011184269 0.0040026554 -0.0051497985 0.005339294 0.0043639555
-0.0037521273 0.013230181 0.0025063616 0.007712883 -0.0035932444 -0.009437814 -0.004559242 -0.016288862
0.0017868344 0.004491278 0.00071129814 -0.0032557042 -0.012030818 0.0036587284 0.007900934 -0.00012588497
-0.002069594 0.002854263 0.0068662316 -0.018453104 0.00067931734 -0.0016193591 0.013026284 0.0027001926
0.0026002887 0.005248555 0.0010672574 0.0037433002 0.005896353 -0.009012507 -0.006272456 0.004889268
-0.01127584 -0.010603919 -0.0052441205 0.015528455 0.0053323596 -0.0039794603 -0.004711286 -0.004743029
-0.006420852 -0.0043309345 0.004980074 -0.005280183 0.005496175 -0.0032255773 0.005842178 -0.004536797
0.0015716602 0.009127351 0.0005724296 -0.0026665598 -0.0040136734 -0.0105972625 0.01482663 -0.018897578
0.0006937335 -0.006641164 -0.00939664 -0.00497557 0.0043973834 0.014431451 -6.562058e-05 0.0006221774
-0.0084861 -0.008109027 0.012306851 -0.0033037674 0.014900639 -0.018107966 -0.004604339 -0.0026091277
-0.012254967 -0.0029869492 -0.000103044906 -0.0015894085 0.004611799 -0.008936465 -0.0018652807 -0.0013735149
0.012837949 0.015943423 -0.008292808 0.009902757 0.00057802064 -0.005817996 -0.0033714173 -0.01640511
-0.008642843 -0.0077574598 -0.00080481695 0.0011867011 0.0031287142 -0.0013510956 0.006993945 0.001827632
0.0057887207 -0.020397281 -0.0043008346 0.006738543 -0.009028446 -0.00071617024 -0.0041761114 0.0010721522
0.0007263419 -0.010699346 -4.95201e-05 0.016693631 -0.0051476723 -0.00847756 0.0049191355 -0.0074933916
0.0028446715 0.010498349 -0.003545877 -0.013292729 0.0038309551 -0.013644263 0.018202452 -0.0039573116
-0.0034166244 0.0037036475 0.010358494 0.005250755 0.0026717277 -0.000782602 0.0019972695 -0.0028437593
0.012584965 -0.009136428 -0.006490355 -0.012157836 0.0011413055 -0.00062086585 0.009290301 -0.011331268
-0.00883539 -0.0023665556 -0.00024268807 0.009572725 0.0030241297 0.000932775 0.011772247 -0.0071289726
-0.005559528 0.0021220546 0.003383901 0.016712608 -0.013153011 -0.0010624429 -0.0031897963 0.004322653
-0.0033379847 -0.009438304 0.00037484657 0.009913387 0.00818616 0.011039401 0.016978366 0.0058145104
-0.01004009 0.00571947 -0.008154276 0.027215669 0.0011758324 0.0009997095 -0.00072597427 -0.0063391975
0.004818154 0.015467334 -0.011135417 -0.0030209117 -0.010271308 -0.010582487 0.009575093 0.0076912264

action_model._discrete_distribution.branches.2.bias f4 [2]
00000000: 0000 0000 0000 0000
0.0 0.0

action_model._discrete_distribution.branches.3.weight f4 [2, 128]
00000000: 4129 0fbb c1d6 0a3b 357a f93b 226d 033b
00000010: 9123 acbb fe75 823b fec8 9e3a 3202 4d3c
00000020: b950 12bc fde4 31bc db9a 86bb e73d 0b3c
00000030: 0ae2 813b cf30 ffbb 2b7c 0ebc 4303 013b
00000040: 4036 ad3a 216a 053a 8784 a1bb 1f7c 783b
00000050: f329 6bbc 21a0 8dbb 31df ad38 c279 83ba
00000060: 5bfd 293b cb55 583b 47e6 a0bb 14d8 063b
00000070: 6b31 6a3b c6b7 253c 9ef4 b23c 6fda 0bbc
00000080: bffc 4fbb ba15 b7bb 0662 943c 2988 933b
00000090: 8006 e7bb e845 733c bda7 4e3a 3267 63bc
000000a0: 5c5b 8f3b b837 af3a af80 b8bb 83c9 a23b
000000b0: df16 a13b 83cb 003c c055 1abb c107 23bc
000000c0: 4323 5d3c 5a28 003c 5645 bcbb aa72 73bb
000000d0: a377 433c 1bce 78bb 2954 adbc da65 7bbc
000000e0: b72f cabb e111 1f3b efa6 1abb f9d4 81bc
000000f0: 8372 113b d7b7 213c 6412 8b3b 6562 553c
00000100: e289 5f3c 3291 26bc 2f49 b03a 7d6c 333b
00000110: dacc e83b d21a 9e3b 3dff d83b ad5d 543a
00000120: a86d 343c 9125 afba 6c28 07bc d459 043c
00000130: 7caf 053b 1f20 8f3b 1342 0f3c bb71 5439
00000140: bdd9 fbba 5506 f43b 0fe9 853b 5d9a 60bc
00000150: ffac 85bc a8de 2dba 8baf f7b9 8a6e 57bb
00000160: 3bd3 c6bb 7b2b 513a e767 c53b ebe2 2439
00000170: 2e8d 2fbb 7647 9c3c 05d4 0c3c 08dd d8bb
00000180: b80c 96bb 4011 25bc a15a 12bb 803c 5fbc
00000190: 3412 bb3b 260b 34bb 4b55 a63b a724 a6bb
000001a0: 20c2 55bc c2c1 2e3c 722c 6a3c 037d 373c
000001b0: 9849 87bc 67c0 ac3b d348 37bc c44c 80bb
000001c0: d619 21bc 4df5 d0bb ad92 2c3c bb29 853c
000001d0: 8f9c 483c 8978 afbc 04bd 0cbc e809 5e3a
000001e0: 93a5 613c afb9 3bbb 2865 e23a c166 a439
000001f0: d66c 323b 30cf 75bb f9e3 c0ba 3390 ad3a
00000200: 5092 03bb bc19 b63a 4250 e23b 29c0 4c3b
00000210: 1767 5abb 3b6a 6a3b 9d70 0f3b 7615 9b3c
00000220: 300e 6d3c e683 04bb 77c7 94bc 953d 6a3b
00000230: 8bcb 78bc 3097 5dbb 3007 50bc 1b10 2bbc
00000240: a7c3 bcbb ba6c d63a 793e 9f3b 20d9 103b
00000250: f171 a939 81bc a83b f76d 66bb 2bad 113c
00000260: 22d7 91bb 333d f8bb e2c5 acbc 89dc 953a
00000270: 98ff 673b 4709 63bb 7b28 0e3c 9f3a c7bb
00000280: 5572 3c3b c3e0 20bb 0290 b43a ce2b 96bb
00000290: 0a3c 513b ab37 413b 3583 de3b 3fb7 44b6
000002a0: 1593 3f3b 8c89 28ba 7eaa a3ba bd7a 873b
000002b0: 05ff 04bc 4f4a 0d3b 4b8e 5c3b e6bf 04ba
000002c0: 8313 3dbc 3d02 60bb 8fb4 e2bb c2fb ecbb
000002d0: 110f 91bc 63cd c63b ca7c 74ba 82e1 d03a
000002e0: 9150 3bbb 4edb a0bb 0738 0d3c 3895 4c3c
000002f0: b708 5f3a ed60 e4b8 3072 0dbc 223a d23a
00000300: 8095 48bc f177 38bb d093 403c b693 46bc
00000310: 8f75 b8b9 6bf6 fbbb dfcd 0a3c fa9b 0d3c
00000320: f561 7a3b 527f cdb9 baf1 2e3b e8cf 35bc
00000330: c233 693b c3cb fa3b 457d 86bb 4009 903a
00000340: ad8b 3bbc abf2 4238 8d44 003b 6565 de3b
00000350: d224 3e3c 2f6f fe3b 888c 5ebb 1a4d cbbb
00000360: 93b5 243c 9ffe 0cbc 4bb5 2dbc daf2 c7bb
00000370: a96c 30bc 4929 0dbc 7878 7c3b 09d2 23bc
00000380: 3f08 503b e39c f93b 8334 9c3b 8eba 1ebc
00000390: 7114 97ba 3251 2d3b e3f1 fb3b d3c3 04bc
000003a0: 50e4 f7bb f7bc 83bc c357 a63b 795b a7bb
000003b0: a8b0 ce3b 6827 d23b 66bb 8fbc b792 a438
000003c0: 02b7 feba 1e99 083b 135d cb3b a57d e7ba
000003d0: 6f67 ee3b 5750 e2bb ab56 a43b d7ba 0bbc
000003e0: 5a60 f63b 18fd a53b 35cf 0b3c af79 6139
000003f0: 0810 6b3c 95b1 7bb6 3706 853b ebcb 3aba
-0.0021844658 0.0021185132 0.007613445 0.0020054062 -0.0052532633 0.003981351 0.0012114344 0.01251273
-0.008930379 -0.010857818 -0.0041078157 0.008498645 0.0039637135 -0.007787801 -0.008696596 0.0019685782
0.001321502 0.0005089362 -0.0049291286 0.0037915779 -0.014353263 -0.0043220674 8.2908555e-05 -0.0010030793
0.0025938365 0.003301012 -0.0049102637 0.002057557 0.0035735022 0.010114616 0.021845158 -0.008535965
-0.0031736342 -0.005587307 0.018113147 0.0045023155 -0.0070503354 0.01484821 0.00078832713 -0.013879584
0.0043749046 0.0013368046 -0.0056305747 0.0049678697 0.0049160565 0.007861021 -0.0023549646 -0.009950579
0.013497177 0.007822121 -0.00574557 -0.0037147203 0.011930379 -0.0037964645 -0.021158295 -0.0153441075
-0.006170239 0.0024272131 -0.0023598035 -0.015848624 0.0022193498 0.009870491 0.0042441357 0.013023947
0.013643714 -0.010166453 0.0013449545 0.0027377896 0.0071044983 0.0048249746 0.0066222236 0.0008101117
0.011012472 -0.0013362636 -0.008249383 0.008078057 0.0020398786 0.004367843 0.008743781 0.00020260263
-0.0019214671 0.007447044 0.0040866206 -0.013708678 -0.016317843 -0.00066326046 -0.000472423 -0.0032872283
-0.006067661 0.00079791964 0.006024349 0.00015724792 -0.002678703 0.019077044 0.008595471 -0.006618146
-0.004579153 -0.0100749135 -0.002233185 -0.013625264 0.005708957 -0.0027472465 0.0050760857 -0.0050702873
-0.013046771 0.010666313 0.014292823 0.011199239 -0.016514584 0.0052719596 -0.011186796 -0.003915401
-0.00983282 -0.0063768984 0.010533017 0.01625525 0.012244358 -0.02141978 -0.008589987 0.0008470104
0.013772386 -0.0028644612 0.0017272579 0.00031357075 0.0027225516 -0.0037507527 -0.0014716379 0.0013241827
-0.0020076223 0.0013893167 0.00690654 0.0031242466 -0.0033325606 0.0035768885 0.002188719 0.018931132
0.014468715 -0.002022022 -0.018161518 0.0035742272 -0.015185247 -0.0033812039 -0.012697026 -0.010440852
-0.0057606283 0.0016359307 0.0048597422 0.0022102073 0.00032319085 0.0051494245 -0.003516076 0.008891384
-0.0044506947 -0.007575655 -0.021090452 0.0011433522 0.0035400148 -0.003464298 0.0086766435 -0.006079986
0.002875467 -0.002454803 0.0013775828 -0.0045828586 0.0031926655 0.0029482644 0.0067905434 -2.931294e-06
0.0029231955 -0.00064291875 -0.0012486724 0.0041345046 -0.008117442 0.0021559184 0.003365415 -0.00050639955
-0.0115402965 -0.0034181022 -0.006918497 -0.0072321603 -0.01770738 0.0060669645 -0.00093264563 0.0015936347
-0.0028581957 -0.0049089557 0.008619315 0.012486748 0.00085080735 -0.00010889941 -0.008633181 0.0016039053
-0.012242675 -0.0028147663 0.011753991 -0.012120178 -0.00035182803 -0.0076892874 0.008471935 0.008643145
0.003820536 -0.00039195508 0.0026694373 -0.011096932 0.0035583829 0.007653685 -0.0041042888 0.0010989085
-0.0114468755 4.6479207e-05 0.001957211 0.0067869895 0.011605458 0.007764719 -0.0033958275 -0.0062042596
0.010053056 -0.008605628 -0.010602306 -0.006101948 -0.010768094 -0.0086158 0.0038523953 -0.009998807
0.0031743196 0.0076175793 0.004767002 -0.009688033 -0.0011526478 0.0026446101 0.0076887473 -0.008103329
-0.007565059 -0.016081316 0.00507638 -0.00510734 0.00630768 0.006413389 -0.017545413 7.847457e-05
-0.0019433203 0.0020843218 0.0062061637 -0.0017661346 0.007275514 -0.00690655 0.0050152144 -0.008528433
0.00751881 0.0050655715 0.008533289 0.00021503003 0.014347084 -3.750528e-06 0.0040595788 -0.0007125723

action_model._discrete_distribution.branches.3.bias f4 [2]
00000000: 0000 0000 0000 0000
0.0 0.0

action_model._discrete_distribution.branches.4.weight f4 [2, 128]
00000000: dad2 e23b 9eb0 1bba 6a63 51bb a038 cf3b
00000010: 96c5 8f3c 4951 923a f05a 913b b4df 0fbb
00000020: 791a 9cbb efb6 1ebc 7739 9c3c c5ad 0f3c
00000030: e56f 153b 9bcc 0cbb 7822 5c3c 301b 5dbc
00000040: 3c29 04bc 6726 8fbb 95a3 07bc 4fd4 7ebb
00000050: f4d9 8d3c a434 383c 1dc7 7e3b 432e 23bc
00000060: 421a 15bc 5e4a 49bc 61b7 16bc 855b 7ebb
00000070: a5c4 93bc 0fae 12bc ee1e ccbb 9045 343c
00000080: cbaf 55bb 9fd4 563c 20df 0ebb 9814 06bc
00000090: 5f39 253b a591 d93b b1c2 41bb 5ce5 133a
000000a0: ec29 3f3a b77d 1abb 9250 2d3c 48e5 6bbb
000000b0: 826a ecbb 0660 843c 9737 1fb9 734b 023a
000000c0: 0df8 8f3b c83d e43a 65b1 fd3b c108 113c
000000d0: 8053 1cbb bad7 d2bb 2455 88bb 703c 6ebb
000000e0: baa7 f3bb 7e1b b13b 3914 cb3b 88d9 78bb
000000f0: 984f 30b6 b538 23bc 2b80 73ba caed b7bb
00000100: e55a 293c 5b58 83ba eaad 82bc c2f8 e1bb
00000110: e854 57bc 718b acbb a3c3 3f3b 1d5f 4f3b
00000120: fe44 b13c 67c5 b03b eb36 64ba d357 ccbb
00000130: 6a6c 593b 259d 47bb 8a23 a7bb 8455 15bb
00000140: 8707 fe3b 33d3 55bc f5a9 963b 2b7d 333c
00000150: 1fa8 393c 1acc 283c 1b2b 9fba 3559 86bb
00000160: 8d20 c43a ba84 d43b 4e8d 12bb 9713 503c
00000170: a937 1c3c 5faa ec3b 4591 53bb 60f4 623b
00000180: 8371 2bbb 806d 05bd 321c f33b 22da 3b3c
00000190: de2c ca3b 9707 c1b9 b227 d33c 9f6d 7b3a
000001a0: 4423 80bc ba3d 8dbc 27b6 c1bc 9313 1b39
000001b0: 0ffc 02bc d8c7 163c 2da2 4dbc bf2c 12bb
000001c0: 4b3a 0a3c 1bb4 adbb b505 d93b 2b07 443c
000001d0: a7cc 563b 4f3e 2c3c b5d4 dabb 25af b6bc
000001e0: 942c 8b3b fbab 0d3c b28e e7bb f9a4 4a39
000001f0: b6e6 133c 4056 533b 333d 7fbb 4b05 b4bb
00000200: ca0e 8bba 83de 6eba 6278 45bc d26e 6fbc
00000210: a01a b2bb c2fc 3e3c ab88 b33b 9268 1dbc
00000220: 59f0 b23c d379 153c 3fa9 c23b 8a5d c23b
00000230: 814d 8d3c e4ab a2ba ab5e a3bc 71f2 80bc
00000240: f2fd 013c 9dfa 953b e3bf 93bb 636b 3fbc
00000250: 7f3e 72bc c2f1 ba3c e838 e03b 5066 c03b
00000260: fbd6 063c 952e 103c 1555 7e3a 1d1f 013c
00000270: 2752 fe3a 5fc1 d23b 1e04 343c 928d b83b
00000280: 7f74 8a3c b091 433c cebb ca3b 2876 a7b8
00000290: bba6 483b 409c 6e3b 1e23 0fbc b10e 283c
000002a0: b600 063c 616b a53b ab16 8bbc 983e f4bb
000002b0: b1cd 993c d091 f2bb ec7b 1abc 1358 a23b
000002c0: 4bf6 33bb f4dd 37bc 158d d1bb 5912 ccbb
000002d0: 2f42 01b9 3f2a 7e3b 5791 15bc b938 21bc
000002e0: c048 653b 46ae 243b 13f6 38bc 32dd cbbc
000002f0: 682b 91bb 70d5 6f3b 52e3 6e3b e068 d8bb
00000300: aa86 263c c8e6 b1bb 1fd9 2d3c 927c d8ba
00000310: 6e01 0038 83bf e43a 73e7 a03a f581 4ebc
00000320: f714 16bc d0de de3a bb54 30ba cf07 ff3b
00000330: ba8c 053c e8b4 ebbb 7c46 293c e5aa 72bb
00000340: c513 dfbb eabb a239 e76e 96bc bbfa 1f3b
00000350: 8014 733c 19bd 1dbb 1bde eabb 0734 523b
00000360: 435d 8abb 5c30 33ba 83ff 53bc 2acb 54bb
00000370: 321e 2d3c 26ea 37ba cd34 7c3c 84ad 44bb
00000380: 4acd 6a3b 4bb1 e1bb 1b43 91b9 c743 12ba
00000390: 4a8c 97ba a6da 103a 8a84 02bc 4547 df3b
000003a0: 9b06 143b 7532 193c 4267 d1bb 2e21 bebb
000003b0: cb9c 9dbb da82 c6bb 33c0 b4ba 3fcd db3a
000003c0: 5332 3d3b 429a 73bc 5d8e 7c3b 9caf 9e3b
000003d0: e009 21bc 876a 673b 4b22 c53b 8afb 03bc
000003e0: a28a 563c 6850 633c 7649 08bc 6230 823b
000003f0: e311 f53b 6756 713a e900 1b3a af86 f63b
0.006922108 -0.0005939099 -0.0031950125 0.006323889 0.017550271 0.0011163141 0.0044358894 -0.0021953406
-0.004763898 -0.009687169 0.01907037 0.008769457 0.002280229 -0.002148426 0.013435952 -0.013495252
-0.008066472 -0.0043685916 -0.008278747 -0.003888387 0.017315842 0.011243019 0.0038876005 -0.00995976
-0.009100499 -0.012285797 -0.009198994 -0.0038811874 -0.018038103 -0.008952632 -0.006229273 0.011002913
-0.0032606001 0.013112216 -0.0021800473 -0.008183621 0.0025211198 0.0066396766 -0.0029565508 0.0005641782
0.00072923186 -0.0023573467 0.0105782915 -0.0035994817 -0.007214845 0.016159069 -0.0001518413 0.0004970349
0.0043935836 0.0017413432 0.0077420943 0.008852185 -0.002385348 -0.006434408 -0.00416054 -0.0036351942
-0.007435766 0.0054048887 0.006197479 -0.0037971456 -2.6272373e-06 -0.0099622505 -0.0009288813 -0.0056130635
0.010336612 -0.0010020839 -0.01595207 -0.0068961093 -0.013142802 -0.005265646 0.0029260896 0.0031642385
0.021639343 0.005394626 -0.0008705693 -0.0062360554 0.0033176192 -0.0030458656 -0.005100672 -0.0022786567
0.007752362 -0.013050842 0.004597897 0.010955135 0.011331587 0.010302568 -0.0012143584 -0.00409999
0.0014963314 0.006485549 -0.0022362056 0.012699983 0.009534755 0.0072224583 -0.0032282632 0.0034630522
-0.0026160188 -0.03257513 0.0074191326 0.011465581 0.0061698994 -0.00036817483 0.025775764 0.0009591225
-0.015641816 -0.017241348 -0.023646427 0.00014789244 -0.007994666 0.00920292 -0.012550873 -0.0022304503
0.00843675 -0.0053010113 0.006622995 0.0119646 0.003277579 0.010512902 -0.0066781887 -0.022300312
0.0042472575 0.00864696 -0.007066571 0.00019325678 0.009027174 0.0032247454 -0.003894639 -0.005493795
-0.0010609266 -0.00091121363 -0.012052627 -0.014613824 -0.005435303 0.011656942 0.0054789386 -0.009607451
0.021843122 0.009123283 0.005940586 0.005931561 0.01724887 -0.0012410847 -0.019942602 -0.015740605
0.00793408 0.0045769946 -0.0045089587 -0.011683318 -0.014785408 0.022820357 0.0068427213 0.0058715716
0.008229966 0.0088001685 0.0009702009 0.007880953 0.0019403145 0.006431743 0.01098731 0.005632111
0.016901253 0.01193659 0.006186939 -7.985189e-05 0.0030616957 0.003640905 -0.0087364 0.010257409
0.00817888 0.005048201 -0.016978582 -0.007453751 0.01877484 -0.007402636 -0.009428959 0.004954347
-0.0027460034 -0.011222351 -0.006394992 -0.006227773 -0.00012327054 0.0038782505 -0.00912889 -0.009840184
0.003498599 0.002512829 -0.011289137 -0.024885748 -0.0044302233 0.0036595725 0.0036451411 -0.006604299
0.010163942 -0.0054291226 0.010610848 -0.0016516617 3.051891e-05 0.0017452094 0.0012276008 -0.012604226
-0.009160272 0.0017003659 -0.0006726493 0.0077829133 0.008151228 -0.0071931966 0.010331746 -0.003702813
-0.0068077766 0.00031039055 -0.01836343 0.0024410922 0.014836431 -0.002406901 -0.0071675903 0.0032074468
-0.0042225434 -0.0006835514 -0.012939337 -0.0032469728 0.010566281 -0.0007015787 0.015393448 -0.003001065
0.0035827928 -0.00688759 -0.00027706553 -0.00055795576 -0.0011562195 0.0005525745 -0.00796617 0.006813916
0.0022586945 0.009350409 -0.006390483 -0.005802295 -0.004809951 -0.006058079 -0.001379019 0.0016769542
0.0028869107 -0.014868321 0.0038537004 0.0048427116 -0.009829015 0.0035311298 0.006016051 -0.008055577
0.013094576 0.013874151 -0.008318296 0.003973053 0.007478939 0.00092062954 0.00059129164 0.0075233798

action_model._discrete_distribution.branches.4.bias f4 [2]
00000000: 0000 0000 0000 0000
0.0 0.0
