Assets/results/ppo/My Behavior/My Behavior-501.pt (torch, 219670 bytes, 38 tensors)

discrete_act_size_vector f4 [1, 14]
00000000: 0000 0040 0000 0040 0000 0040 0000 0040
00000010: 0000 0040 0000 0040 0000 0040 0000 2041
00000020: 0000 2041 0000 2041 0000 2041 0000 2041
00000030: 0000 2041 0000 2041
2.0 2.0 2.0 2.0 2.0 2.0 2.0 10.0
10.0 10.0 10.0 10.0 10.0 10.0

network_body._body_endoder.seq_layers.0.weight f4 [128, 24]
00000000: 0bd1 b63d b981 83be de6a 9c3e 4fd2 70be
00000010: f21a 223f 7926 6dbd 83dc 873e baab fdbd
00000020: a7a7 d6bd c0be d3bd f645 b8bc cfe3 38be
00000030: 9bb6 403d bc62 193e dad3 1abe 0c7e df3e
00000040: f76e 16be ddff 31be ff45 ba3e 8aa8 b53d
00000050: abde b93e a2f7 cebd 4276 bebe adfe 24bc
00000060: 210d 0abe 230f be3d 6763 df3d 1d05 4fbe
00000070: 4a09 51be 8572 bc3e 6330 093e d116 943d
00000080: 6d29 c1bd 018d e9bd 1c7c 463e dbde 963e
00000090: 9ba2 09be e9bf fdbd 8f38 943e 90e5 0c3f
000000a0: b1ae bebd a774 e63d e9a0 e73d 6f3f 043e
000000b0: 8ade a5be 1712 d2be f659 19be b7e4 0fbe
000000c0: 91f2 26be 3599 69be 512f 373e a400 58be
000000d0: e926 41bd 3e05 ce3d 0389 773e 9ec0 78be
000000e0: bbc4 2c3e 8110 9f3e 5c09 babe 4899 d8bd
000000f0: e180 993e 08f6 bd3d 6a1a 33be d5e4 41be
00000100: d35b 1ebe 5613 123d f0f8 a8be 72d4 81be
00000110: 9a1f 95be d128 13bc 5294 0d3e f157 3c3e
00000120: c772 2d3a 6d7e 673d 6de5 a53d 582a 883e
00000130: 7265 80be 71ba c23e bb4c 3d3e b499 3cbd
00000140: 1ed4 74be a535 b4be d391 0c3d 1aad 38be
00000150: 2ee8 ff3e f9b9 b03b e01d 6c3d 7f36 463d
00000160: 9b63 50bc 5f10 4f3d 2c07 ba3e cf4f 513d
00000170: 4cac 9ebd e678 723e 14ad 413e 4d88 a73d
00000180: 4c41 263e 8b8c 34be 606a f6be fe3b 8bbe
00000190: bbe2 3a3e 4422 233e 01ca b13e ab8d 4d3e
000001a0: f124 2a3e 9748 01bd b90f a73d e525 8bbe
000001b0: 957e 443e 06fb 2c3d b2c0 6d3c 4804 6b3b
000001c0: 5dd0 26bf 771c f33d 0a43 78bd 1799 3c3e
000001d0: 1298 1cbd 5f05 7f3e 2a57 653e 5e77 293e
000001e0: 66cb 113e 81c6 45be fc11 a5be 757d 68be
000001f0: 4678 9e3d 3a53 533d 0efe 71bd febf 76bb
00000200: 805e 33bf a512 033e 4aa3 0dbe 6af4 72bd
00000210: c952 fdbd d01d 75bc df8f d13d f9d2 9b3e
00000220: d35e 14be 538e 10be 5716 613d 9883 143e
00000230: 8413 e7be 072e 3d3c bbba 8a3d de1e 0f3e
00000240: 208e ecbd 05c2 df3d c46b 5a3d cd02 83be
00000250: 2b76 603e 98f5 07be ebdf 74be 19aa 24bd
00000260: fa0d a93e 8603 de3d c44c 12be e606 4f3b
00000270: 34e4 f93d 2de3 4ebe 93be 1d3c e1b1 033d
00000280: 5cfe ef3d 685d 2bbd 7382 333e e742 663d
00000290: ff73 923c 0e55 25bd 7592 05be 4834 203e
000002a0: 4d9f 683e a13f 04bd a247 0fbe 0a85 8fbe
000002b0: adc6 843d 0e74 87be 2222 a7bd 722e 833e
000002c0: 2b78 e3bd fd72 913e b367 63bc 86a0 0cbd
000002d0: 969b 263e b07f 11be 42a9 a03d a84c 92be
000002e0: b81b 1bbe 33d5 a0bd 789c 1ebe a308 253e
000002f0: e0cf 4ebe dbe1 db3d 0faf ae3d d4c2 153c
00000300: 2a85 fbbc b5f9 18be acc6 1bbe a31c d13c
00000310: b798 42be 8d6e 48be a1b1 5e3d 3df8 c3bd
00000320: de53 29be d419 8abd c6d7 85be 3174 053e
00000330: 2fd8 88bc 71eb 16be 6780 5d3e d9fb 013e
00000340: 6287 c63d 7ba3 dfbc 4f81 40be a0b2 e13e
00000350: 6838 75be 5965 963d 91fe d7be f5ba cb3c
00000360: a512 acbe 0c32 5bbe e5f5 32be ddc6 96bd
00000370: 4501 22be ef78 313e 35ed acbd 90fc d0bd
00000380: 94fc 8c3c 2ee6 ac3e afa2 043f 52e9 a7be
00000390: 638b ccbe 6a34 21be 0603 563e e6c0 cfba
000003a0: 2cd2 37be dc5f d3bc 26b7 12bd c803 8bbe
000003b0: e56c a9be 0a6d 123f 66f1 0d3e af8c 00be
000003c0: c234 4a3e f346 4f3c b0a5 81be 03b4 1ebe
000003d0: 65e4 debd b5e4 82be 8055 b3bc 97ca 37be
000003e0: 836c 903e 507f 663e 7535 2f3e c8b4 a43d
000003f0: a3e3 edbe f41a cebd 29e3 023e 938d 663d
0.089265905 -0.25684908 0.30550283 -0.23517726 0.63322365 -0.05789802 0.26535425 -0.1238627
-0.10481196 -0.10339117 -0.022494297 -0.18055652 0.047049146 0.1497907 -0.15119877 0.43650854
-0.14690767 -0.1738276 0.36381528 0.08870037 0.36302695 -0.10105826 -0.371996 -0.010070485
-0.13481571 0.09280231 0.10907631 -0.20216794 -0.204137 0.3680612 0.13397364 0.072309144
-0.094317295 -0.114038475 0.19383281 0.294669 -0.13440935 -0.123901196 0.289494 0.55037785
-0.093106635 0.112527184 0.11309988 0.12914823 -0.32396346 -0.41029426 -0.14975724 -0.14052092
-0.16303469 -0.2281235 0.17889144 -0.21093994 -0.04715625 0.100595936 0.2417336 -0.24292228
0.16871922 0.3106728 -0.36335266 -0.10576111 0.2998114 0.09275442 -0.17490545 -0.18934949
-0.15464716 0.03566297 -0.33002424 -0.25357395 -0.29125673 -0.008981899 0.13826111 0.18392922
0.00066165294 0.056517053 0.081004 0.26594806 -0.25077397 0.38032869 0.18486302 -0.04604502
-0.23909041 -0.35197178 0.034318756 -0.18034783 0.49981827 0.0053932634 0.05764568 0.048391815
-0.01271906 0.050552722 0.36333597 0.051101502 -0.07747707 0.23678932 0.1891368 0.08180294
0.16235846 -0.17631738 -0.48128033 -0.27194208 0.18250553 0.1593104 0.3472443 0.20073573
0.16615655 -0.031563368 0.08157296 -0.2717735 0.19188912 0.042231582 0.014511274 0.0035860706
-0.6516169 0.118706636 -0.06061081 0.18417774 -0.038230963 0.24904393 0.22396532 0.16549441
0.14237747 -0.19314004 -0.32240283 -0.22704108 0.07737784 0.051593043 -0.059080176 -0.0037651057
-0.7006607 0.12800081 -0.13831821 -0.059315123 -0.12369306 -0.014960721 0.10232519 0.30434397
-0.14489298 -0.14116792 0.054952946 0.14503324 -0.45132077 0.011546618 0.06773897 0.13976619
-0.11550546 0.10925678 0.05332543 -0.25588074 0.21920078 -0.1327728 -0.23913543 -0.04020128
0.33018476 0.10840516 -0.14287096 0.0031589805 0.122017294 -0.20203848 0.009627956 0.03215206
0.11718437 -0.041837126 0.17530231 0.056216147 0.017877577 -0.040364318 -0.1304415 0.15644944
0.22717018 -0.032287244 -0.1399217 -0.28031188 0.06483207 -0.2645573 -0.08160807 0.25621372
-0.111069046 0.28408042 -0.013879704 -0.034332775 0.16270289 -0.14208865 0.07844783 -0.2857411
-0.15147293 -0.078531645 -0.15489376 0.16116576 -0.20196486 0.10736438 0.085294835 0.009140689
-0.030703146 -0.14939006 -0.15212506 0.02552635 -0.19003569 -0.19573422 0.05436862 -0.09568832
-0.16535899 -0.067432076 -0.26141185 0.13032605 -0.016704647 -0.14738251 0.21631013 0.12693729
0.09693791 -0.027299633 -0.18799327 0.44081593 -0.23947299 0.07343549 -0.42186406 0.024869421
-0.33607975 -0.2140581 -0.17476614 -0.07362149 -0.15820797 0.17331289 -0.08443681 -0.102044225
0.017210282 0.33769363 0.51810735 -0.32795197 -0.39950094 -0.1574265 0.20899591 -0.0015850335
-0.17951268 -0.025802545 -0.035819195 -0.27151322 -0.33090892 0.5719763 0.13861617 -0.12553667
0.19746688 0.012651193 -0.25321722 -0.15498357 -0.108834065 -0.25565115 -0.021891356 -0.17948376
0.28207788 0.22509503 0.17110236 0.08042294 -0.46462736 -0.10063735 0.12781967 0.05628736

network_body._body_endoder.seq_layers.0.bias f4 [128]
00000000: 0000 0000 0000 0000 0000 0000 0000 0000
00000010: 0000 0000 0000 0000 0000 0000 0000 0000
00000020: 0000 0000 0000 0000 0000 0000 0000 0000
00000030: 0000 0000 0000 0000 0000 0000 0000 0000
00000040: 0000 0000 0000 0000 0000 0000 0000 0000
00000050: 0000 0000 0000 0000 0000 0000 0000 0000
00000060: 0000 0000 0000 0000 0000 0000 0000 0000
00000070: 0000 0000 0000 0000 0000 0000 0000 0000
00000080: 0000 0000 0000 0000 0000 0000 0000 0000
00000090: 0000 0000 0000 0000 0000 0000 0000 0000
000000a0: 0000 0000 0000 0000 0000 0000 0000 0000
000000b0: 0000 0000 0000 0000 0000 0000 0000 0000
000000c0: 0000 0000 0000 0000 0000 0000 0000 0000
000000d0: 0000 0000 0000 0000 0000 0000 0000 0000
000000e0: 0000 0000 0000 0000 0000 0000 0000 0000
000000f0: 0000 0000 0000 0000 0000 0000 0000 0000
00000100: 0000 0000 0000 0000 0000 0000 0000 0000
00000110: 0000 0000 0000 0000 0000 0000 0000 0000
00000120: 0000 0000 0000 0000 0000 0000 0000 0000
00000130: 0000 0000 0000 0000 0000 0000 0000 0000
00000140: 0000 0000 0000 0000 0000 0000 0000 0000
00000150: 0000 0000 0000 0000 0000 0000 0000 0000
00000160: 0000 0000 0000 0000 0000 0000 0000 0000
00000170: 0000 0000 0000 0000 0000 0000 0000 0000
00000180: 0000 0000 0000 0000 0000 0000 0000 0000
00000190: 0000 0000 0000 0000 0000 0000 0000 0000
000001a0: 0000 0000 0000 0000 0000 0000 0000 0000
000001b0: 0000 0000 0000 0000 0000 0000 0000 0000
000001c0: 0000 0000 0000 0000 0000 0000 0000 0000
000001d0: 0000 0000 0000 0000 0000 0000 0000 0000
000001e0: 0000 0000 0000 0000 0000 0000 0000 0000
000001f0: 0000 0000 0000 0000 0000 0000 0000 0000
0.0 0.0 0.0 0.0 0.0 0.0 0.0 0.0
0.0 0.0 0.0 0.0 0.0 0.0 0.0 0.0
0.0 0.0 0.0 0.0 0.0 0.0 0.0 0.0
0.0 0.0 0.0 0.0 0.0 0.0 0.0 0.0
0.0 0.0 0.0 0.0 0.0 0.0 0.0 0.0
0.0 0.0 0.0 0.0 0.0 0.0 0.0 0.0
0.0 0.0 0.0 0.0 0.0 0.0 0.0 0.0
0.0 0.0 0.0 0.0 0.0 0.0 0.0 0.0
0.0 0.0 0.0 0.0 0.0 0.0 0.0 0.0
0.0 0.0 0.0 0.0 0.0 0.0 0.0 0.0
0.0 0.0 0.0 0.0 0.0 0.0 0.0 0.0
0.0 0.0 0.0 0.0 0.0 0.0 0.0 0.0
0.0 0.0 0.0 0.0 0.0 0.0 0.0 0.0
0.0 0.0 0.0 0.0 0.0 0.0 0.0 0.0
0.0 0.0 0.0 0.0 0.0 0.0 0.0 0.0
0.0 0.0 0.0 0.0 0.0 0.0 0.0 0.0

network_body._body_endoder.seq_layers.2.weight f4 [128, 128]
00000000: d84a 06bd 4310 7ebd 7bb9 003d 8392 d73c
00000010: 0031 973c 47e1 3d3e 1521 653d 7b4d fc3d
00000020: 4a28 173b b67c 013d 0b00 4dbd 2cc0 aebd
00000030: adb5 4bbd 564a adbd b608 703c 1610 82bd
00000040: 4e9a 2cbe 6cf5 cabd 21b0 5bbd dba6 06be
00000050: d8e7 04bd 877c ef3d 19be 3aba a3cf a8bc
00000060: fd16 9cbd c40a 1bbe dad5 86bd bfe2 f93c
00000070: 9515 5d3c 17c5 d33d bc4b bfbc 9ce2 003e
00000080: 187e 953d 5c13 2fbc e8dc 44bd 47a0 7d3d
00000090: 66bd 91bd ed95 d5bd fb57 cc3d 350c cc3b
000000a0: ae7b 1cbe 109c cf3d 31d0 6f3d cf62 b43d
000000b0: 5a04 81bd 2efd a23d 14b5 40bd 587d c43d
000000c0: 54fa c2bc d36a 57bd af7b 023d 8c26 d33c
000000d0: 3c7f 133e 29a8 f3bd ca1a 22bc 830d 433d
000000e0: 127c 04bd df61 f23d 3839 db3c d9d5 09be
000000f0: ba0e ef3d 3754 933d 40dc e9bc 1b37 29bd
00000100: 9d1a 8ebc fc9a 483d e86e ce3d 021d 1b3c
00000110: d444 223b 326b 433d 607e 38bd 65ac 1a3e
00000120: 4dab a43d f7ac 463d f19b 123d 0443 5ebd
00000130: 1c12 76bd 6d47 8e3d acde 9e3d 6988 ce3c
00000140: fc5d 35be dc33 bb3d 33cf a73d 5260 393d
00000150: 01e2 b3bd 25a5 1b3e ac7e c93b 3851 41bd
00000160: e10d 763e c0db 32bd 730d efbd faaf 17bd
00000170: 97e3 953d a167 0cbe e5f5 d4bc 661b 6c3e
00000180: e986 393c 8e5a 3c3e 123d 743e 6deb 053d
00000190: c4af 35be 595e 83bc be91 b73d cdd9 51bd
000001a0: 2317 643d b642 1e3d 514b ccbc 9049 3f3c
000001b0: 47a5 1d3e 7391 9fbd 8396 e9bd bda8 88bd
000001c0: cddd 8b3d 0dcf 903d bd13 f93c fe58 be3d
000001d0: 3c96 863d d720 0e3e 60c9 a0bd f3b5 63bd
000001e0: 57d1 0cbe 672e f43d 4d59 c8bd 6d9f dfbc
000001f0: 5b76 96bb ef1e 0b3e e1e2 c43c 7954 033a
00000200: af19 cc3b 647c 213e 4cc0 23be 5291 eb3c
00000210: 5fbe a4bc 3fe3 ca3c 8061 14be eed7 cf3c
00000220: 2903 803c a654 eebd 7a2b 7a3d 1766 383c
00000230: b788 ba3b a5e4 16bd 25ff a8bc 515b 48bd
00000240: 0b70 a53c ddd6 133e 3bc0 193e 48ef 7b3b
00000250: 414a 6c3d 56fb 85bd a313 87bc 56b7 393e
00000260: af02 7d3d e3f9 f43c 17e9 413e af49 ba3d
00000270: dbc6 1d3e eb11 e43c 75b7 d6bb 4142 3b3d
00000280: 8390 56bc d339 2cbd 9ac9 313d d585 98bc
00000290: fc6f cb3d a202 68bc 0fb4 5cbc 47ef 2e3c
000002a0: d534 ab3d 6e65 733b 031f acbc d0db c33d
000002b0: d9ba 0abd 1aab 54bc 8b6e a4bd 5db5 573d
000002c0: 0e4a 343c 7ce0 c9bd 5dcf abbd 80ad 833c
000002d0: 616d 0cbd 3546 8e3d 56cb 85bd b67d 9bbd
000002e0: 7e6c f43c 5598 bfbb ae8c e93d f310 cc3c
000002f0: 14fe b4bc c066 2b3c f913 413e 0224 ce3d
00000300: 79f0 b7bd dc3c 53be 3913 953d 520e b7bb
00000310: 8ecd fabd c006 c7bd ac6f 32be 26b2 113d
00000320: 6b67 803d b0c1 e5bc ae5f b63c 7d66 96bd
00000330: 88e2 19be 9e24 8fbc 4979 83bd 8285 ee3d
00000340: e70e f3bd 04e1 fcbb a753 a1bd 0c01 7a3d
00000350: 869f c63c f06f 58bd 1f01 4fbd fc90 453d
00000360: ddb9 6b3b 7378 b5bd 5337 d63c a9af 773c
00000370: 1745 febc 41a1 ddbd ef0d b9bd 3aef 263d
00000380: 1023 db3c 585e cfbd 0ea6 213d c8ea 453c
00000390: ed6b f0bc bd2e 663d db8d ee3d 6904 2d3c
000003a0: d76d f93d c921 983c cb1e 5e3e 10c8 553d
000003b0: f02f 293e cfb1 353c 8426 093d c9d3 2a3d
000003c0: a277 6dbd 47de 30bc edc3 04be ab82 eb3c
000003d0: 0342 92bd 0384 433d 584f e1b9 3d32 3b3d
000003e0: 6e48 67ba fe96 a83d 29dd 5e3d ee68 f83d
000003f0: ac34 053e 9ff1 0d3d 0707 4bbc fc8c ef3d
-0.03278622 -0.062027227 0.031426888 0.02631498 0.018455982 0.18542968 0.055939753 0.12319466
0.0023064786 0.031613074 -0.05004887 -0.085327476 -0.049733806 -0.08461444 0.014650514 -0.063507244
-0.16855738 -0.09910092 -0.053634766 -0.13149588 -0.032447666 0.116936736 -0.00071236637 -0.020606821
-0.07621572 -0.15140826 -0.06583758 0.030503629 0.013493915 0.10340326 -0.023351543 0.12586445
0.07299441 -0.010685768 -0.048062235 0.06192043 -0.07116203 -0.10428987 0.099777184 0.006227041
-0.15281555 0.101371884 0.058548156 0.08807909 -0.06299658 0.079584464 -0.04704769 0.0959422
-0.023801006 -0.05259211 0.031856235 0.025775217 0.14404005 -0.118973084 -0.009894082 0.047620308
-0.032344885 0.11835074 0.026760682 -0.13460483 0.11672731 0.07193797 -0.028547406 -0.04131232
-0.017346675 0.04897593 0.100797474 0.009467365 0.0024760263 0.04770965 -0.045042396 0.15104826
0.080404855 0.048504796 0.03579325 -0.05426313 -0.060075864 0.06947217 0.07757315 0.02521153
-0.17711633 0.09140751 0.08193817 0.045257874 -0.08783341 0.15199716 0.0061491337 -0.047196597
0.24028732 -0.0436666 -0.11672487 -0.03703306 0.073188 -0.13711406 -0.025996158 0.23057327
0.011323669 0.18393919 0.23851421 0.032695223 -0.1774283 -0.0160362 0.08963345 -0.0512331
0.055686127 0.03863784 -0.024938257 0.0116752535 0.1539508 -0.07791414 -0.11405661 -0.06672809
0.068294145 0.07070742 0.03040492 0.09294318 0.06571624 0.13879715 -0.07850909 -0.055593442
-0.13751732 0.11922913 -0.09782658 -0.0272977 -0.004591746 0.13586019 0.024033966 0.0005009841
0.0062286477 0.15770108 -0.15991324 0.028755818 -0.020110307 0.024766563 -0.14490318 0.025371518
0.015626507 -0.11637239 0.06107662 0.011254809 0.005692567 -0.036839146 -0.020629475 -0.04891521
0.020195028 0.14437433 0.15014736 0.0038442183 0.057688 -0.06542079 -0.016488856 0.18136343
0.061770137 0.029904312 0.18936573 0.09096085 0.15407889 0.027840575 -0.0065526315 0.04571748
-0.013095978 -0.042047333 0.043405153 -0.018618504 0.09933469 -0.014160784 -0.013470664 0.010677165
0.08359686 0.0037139314 -0.021010881 0.0956341 -0.033869598 -0.012980247 -0.08028897 0.052663196
0.011003984 -0.0985727 -0.08389161 0.016073942 -0.034284 0.06946985 -0.06532924 -0.07592337
0.02983689 -0.005847017 0.11403786 0.024910426 -0.02209381 0.010461509 0.18855275 0.10065462
-0.089814134 -0.20628685 0.07279057 -0.005586424 -0.12246238 -0.09718084 -0.17425412 0.035570286
0.062697254 -0.028046459 0.02226242 -0.07343767 -0.15027821 -0.017473515 -0.06419618 0.11646558
-0.11868077 -0.0077172536 -0.078772835 0.061036155 0.024245989 -0.052841127 -0.05053818 0.04823397
0.0035968937 -0.088608645 0.026149428 0.015117564 -0.031038804 -0.10821772 -0.09035861 0.040755488
0.026750118 -0.101254165 0.039465003 0.012079902 -0.029348338 0.056196917 0.116481505 0.0105601335
0.121791534 0.018570798 0.21691434 0.052192748 0.16522193 0.011089756 0.033483997 0.04170588
-0.05797542 -0.010795183 -0.12965365 0.02874883 -0.07141497 0.047733318 -0.0004297446 0.045702208
-0.00088227435 0.082319245 0.054410134 0.12129389 0.13008374 0.034654256 -0.012391812 0.116968125

network_body._body_endoder.seq_layers.2.bias f4 [128]
00000000: 0000 0000 0000 0000 0000 0000 0000 0000
00000010: 0000 0000 0000 0000 0000 0000 0000 0000
00000020: 0000 0000 0000 0000 0000 0000 0000 0000
00000030: 0000 0000 0000 0000 0000 0000 0000 0000
00000040: 0000 0000 0000 0000 0000 0000 0000 0000
00000050: 0000 0000 0000 0000 0000 0000 0000 0000
00000060: 0000 0000 0000 0000 0000 0000 0000 0000
00000070: 0000 0000 0000 0000 0000 0000 0000 0000
00000080: 0000 0000 0000 0000 0000 0000 0000 0000
00000090: 0000 0000 0000 0000 0000 0000 0000 0000
000000a0: 0000 0000 0000 0000 0000 0000 0000 0000
000000b0: 0000 0000 0000 0000 0000 0000 0000 0000
000000c0: 0000 0000 0000 0000 0000 0000 0000 0000
000000d0: 0000 0000 0000 0000 0000 0000 0000 0000
000000e0: 0000 0000 0000 0000 0000 0000 0000 0000
000000f0: 0000 0000 0000 0000 0000 0000 0000 0000
00000100: 0000 0000 0000 0000 0000 0000 0000 0000
00000110: 0000 0000 0000 0000 0000 0000 0000 0000
00000120: 0000 0000 0000 0000 0000 0000 0000 0000
00000130: 0000 0000 0000 0000 0000 0000 0000 0000
00000140: 0000 0000 0000 0000 0000 0000 0000 0000
00000150: 0000 0000 0000 0000 0000 0000 0000 0000
00000160: 0000 0000 0000 0000 0000 0000 0000 0000
00000170: 0000 0000 0000 0000 0000 0000 0000 0000
00000180: 0000 0000 0000 0000 0000 0000 0000 0000
00000190: 0000 0000 0000 0000 0000 0000 0000 0000
000001a0: 0000 0000 0000 0000 0000 0000 0000 0000
000001b0: 0000 0000 0000 0000 0000 0000 0000 0000
000001c0: 0000 0000 0000 0000 0000 0000 0000 0000
000001d0: 0000 0000 0000 0000 0000 0000 0000 0000
000001e0: 0000 0000 0000 0000 0000 0000 0000 0000
000001f0: 0000 0000 0000 0000 0000 0000 0000 0000
0.0 0.0 0.0 0.0 0.0 0.0 0.0 0.0
0.0 0.0 0.0 0.0 0.0 0.0 0.0 0.0
0.0 0.0 0.0 0.0 0.0 0.0 0.0 0.0
0.0 0.0 0.0 0.0 0.0 0.0 0.0 0.0
0.0 0.0 0.0 0.0 0.0 0.0 0.0 0.0
0.0 0.0 0.0 0.0 0.0 0.0 0.0 0.0
0.0 0.0 0.0 0.0 0.0 0.0 0.0 0.0
0.0 0.0 0.0 0.0 0.0 0.0 0.0 0.0
0.0 0.0 0.0 0.0 0.0 0.0 0.0 0.0
0.0 0.0 0.0 0.0 0.0 0.0 0.0 0.0
0.0 0.0 0.0 0.0 0.0 0.0 0.0 0.0
0.0 0.0 0.0 0.0 0.0 0.0 0.0 0.0
0.0 0.0 0.0 0.0 0.0 0.0 0.0 0.0
0.0 0.0 0.0 0.0 0.0 0.0 0.0 0.0
0.0 0.0 0.0 0.0 0.0 0.0 0.0 0.0
0.0 0.0 0.0 0.0 0.0 0.0 0.0 0.0

action_model._discrete_distribution.branches.0.weight f4 [2, 128]
00000000: d504 2f3b 6340 6f3a ffd3 b23c a2d2 7f3a
00000010: d3c5 573b 0ff0 c7b8 4648 9d3b 7f8f 803c
00000020: 02f6 143b 2793 8abb 75b3 2f3c 0f6b 8a3b
00000030: 2ccb a2bc a7a8 823b f6c8 24bc bda3 d43b
00000040: 8ae4 32bb 97ee f6bb 662b 01bc bf8d a5bc
00000050: b3db a43b 53e5 bf3b 9567 cdba bb3d 8cbc
00000060: f5ec dbbb 06bd af3a c2f5 fbbb 522b 16ba
00000070: 5cbc 0fbc 23ac 2cb9 d70a 3fbb 2b26 97bb
00000080: 1e88 893c 1d9c 99bc 2f32 ab3b edac 6f3b
00000090: 0040 32bb c9cd bf3c f354 7c3a b1d4 92bc
000000a0: 6ecb 18ba b383 8d3c 6c41 023c ee02 03bb
000000b0: d188 213b 435c 65bb 2838 5abb 3d67 d1bb
000000c0: db44 673b 4b45 0f3c 8707 0dbc fb62 203c
000000d0: cc13 473c 3252 863b d28a 2ebb 2737 62bb
000000e0: df56 06b9 fafb 653c 5187 0f3b 7678 24bc
000000f0: 1c70 83bb 672a 023a 0629 c7ba 3580 423b
00000100: e9ce 3eba 5efa 283c f5a5 073c 8f4a d73a
00000110: a54d f4bc 20b8 723c d903 2c3c 7e76 a23b
00000120: b35e a3bb 84a4 babc 7beb 1d3c 9757 ccbb
00000130: 0bf5 a2bb 4728 0e3c d5aa 5c3b cc96 ae3b
00000140: 2435 2c3b ab03 863c d1f6 30bc 2edc 153c
00000150: 8706 1c3c 76ac 90bb 2b5c 743c 2b47 0d3c
00000160: 156c d9bb ab0e 2c3c c705 cabb 3d83 37bc
00000170: d8a9 4c3b efb9 8ebb 4da4 abbb 4e60 9cb9
00000180: c5e4 ce3b 4db2 503b 2ef1 233c b4fc 9a3b
00000190: 9522 96bb ca6a 38bc 0737 53bb 143a 9cba
000001a0: 795c 893a afb5 0c3b ab78 21bc a729 51bc
000001b0: 0867 07bc 3037 e93b fd6d 60bc ba96 0f3b
000001c0: 45da 063d 36d7 0d3c 59fe 343b 1f31 b6bc
000001d0: 9532 82bb 643e 98b9 c3e9 c5ba 0544 a13a
000001e0: 2795 89bb d5f5 22bc e67a 4cba e867 4d39
000001f0: 1b8c 2bb9 6c40 aab9 40e4 e43b ad80 f8ba
00000200: 0279 debb 50eb 3ebb 1c8c a8bb ad0f 53bc
00000210: 7d74 383c 51f7 a8bb 2367 73bb 17f1 503c
00000220: ce91 86bb e720 153b dda0 03bc 9b38 403b
00000230: c105 b6bb 8727 263c 5718 3dba 55fa 6ebb
00000240: ab8c 9f3b 0f1b c9bb da0c 6fba 3080 0839
00000250: 7fbe afbb 5a19 d8bb 181f 46bb e38a 563c
00000260: 378b 29bc a800 2d3b 50b9 a6b9 6f69 a33a
00000270: d008 55bb 4b57 eb3b 62e3 a3bb 9fb9 89ba
00000280: cc20 203a e22d d7ba 6c35 c43b ec98 acbb
00000290: 9d12 59ba 8611 22bb 7180 413c 9794 2a3c
000002a0: 2f51 903b 5341 853c 3818 f6bc df3e 59b9
000002b0: 4fb7 fbbb bdda 0d3c bdd3 56b9 9774 64bc
000002c0: 20b2 51ba e6ae 45bb 1b29 023b 975d 953b
000002d0: dff4 adba 634e d3bb 045e 34bb 2d46 b6ba
000002e0: bcfb 8ebb 8f51 913b f8c6 9cbc 9521 cdbb
000002f0: 6fbe 0d3b 92e0 f03b ae57 a4bb e41c 98ba
00000300: e797 573a 0682 203c ecdb 813a b0a4 fcbb
00000310: 9eb4 adbc 8380 d23b a841 42bc 255f 25bb
00000320: 2aa1 19bc 2635 373c 96f2 97bc 2739 afbb
00000330: e36a 80bc 75d0 34bc 6a18 cbbb a439 a03a
00000340: dad6 ba3a 72d8 cf3b 634a b63b b528 22bb
00000350: f992 b3b9 8d73 b83b 6837 8bb7 541d 80bb
00000360: e75f 6d39 35db 053c 40b7 0cbb d6d7 a23b
00000370: bb6e 15ba 23cb aa3b b131 27bc f7ea 03bb
00000380: 8968 b83b 3b2b f7bb dd03 e4ba e04e dbbb
00000390: 9bf3 a5bb b3b8 f7bb 6009 5abc 4f6c 923c
000003a0: a6d4 3ebc 80b7 8f3c ce39 01bb f3ce 893b
000003b0: 40d0 65bb 9d80 54bb ca2a 673b 7061 02bb
000003c0: 9570 df3b af28 2a3c 58ff ad3b f89c 06bb
000003d0: a0e1 44bc 3670 3a3c c58a cbbb f27a 1a3a
000003e0: 1198 08bc 30cd f5bb bc1f 2f3b 517c 493b
000003f0: 6b5e 523c 3336 9ebb 7b7d 713a 7ce3 47ba
0.002670576 0.0009126721 0.021829603 0.0009758865 0.003292431 -9.533774e-05 0.0047998754 0.015693424
0.002272964 -0.0042289677 0.010723938 0.004224188 -0.01987227 0.00398739 -0.010057678 0.0064892457
-0.0027296864 -0.0075357663 -0.007883882 -0.020209191 0.005031073 0.005856195 -0.0015671129 -0.01711928
-0.006711597 0.0013407774 -0.0076892087 -0.0005728501 -0.008772936 -0.00016467324 -0.0029150748 -0.0046127043
0.016788539 -0.018751198 0.005224488 0.0036571578 -0.0027198792 0.023413556 0.00096256955 -0.017923685
-0.0005828653 0.017274713 0.007950168 -0.001999076 0.00246482 -0.003499762 -0.0033297632 -0.006390481
0.0035288844 0.008744548 -0.008607752 0.009789224 0.012150716 0.004099154 -0.0026633036 -0.0034517737
-0.00012811598 0.014037127 0.0021900723 -0.010038486 -0.004011167 0.0004965425 -0.0015194721 0.0029678468
-0.0007278757 0.010313598 0.008279313 0.0016425418 -0.02982218 0.014814407 0.010498964 0.004957973
-0.0049856543 -0.022783525 0.009638662 -0.0062360275 -0.004973059 0.008676595 0.003367116 0.005328035
0.0026276791 0.01635917 -0.010801033 0.009146733 0.009523041 -0.00441509 0.014914553 0.008622925
-0.006635199 0.010501544 -0.0061652395 -0.011200723 0.0031229164 -0.004355661 -0.005238092 -0.0002982639
0.0063138925 0.0031844557 0.010006232 0.0047298316 -0.004581759 -0.011255929 -0.0032228844 -0.0011919164
0.001047983 0.0021470597 -0.00985543 -0.012766278 -0.008264311 0.0071171746 -0.013698098 0.0021909908
0.032923 0.008657267 0.0027617423 -0.02224022 -0.003973315 -0.00029038184 -0.0015099574 0.0012303597
-0.0041986885 -0.009946306 -0.0007800296 0.00019589032 -0.00016360024 -0.00032472925 0.0069852173 -0.0018959247
-0.0067893276 -0.0029131956 -0.0051436555 -0.012882155 0.011258242 -0.0051564355 -0.0037140332 0.012752793
-0.0041067367 0.0022755207 -0.008033958 0.0029330614 -0.005554885 0.01014126 -0.0007213405 -0.0036465127
0.004869064 -0.006137259 -0.00091190415 0.00013017724 -0.005363285 -0.006594819 -0.0030230936 0.013094637
-0.010348133 0.0026398096 -0.00031800056 0.0012467335 -0.0032506473 0.007182037 -0.0050014714 -0.001050759
0.0006108403 -0.0016416872 0.0059878137 -0.005267253 -0.00082806667 -0.0024729683 0.011810408 0.010411403
0.004404209 0.0162665 -0.030040845 -0.00020718154 -0.007681764 0.008658108 -0.00020487509 -0.013943813
-0.000799926 -0.0030164062 0.0019860927 0.004558276 -0.001327183 -0.0064485534 -0.0027521858 -0.0013906412
-0.004363505 0.0044347714 -0.019137844 -0.006260107 0.00216284 0.0073509896 -0.005015335 -0.001160529
0.00082242343 0.009796625 0.0009907461 -0.007710062 -0.021204289 0.006424011 -0.011856474 -0.0025233713
-0.009376803 0.011182105 -0.018548291 -0.0053473893 -0.015675968 -0.011036028 -0.0061979787 0.001222421
0.0014254705 0.006342941 0.005563067 -0.0024743502 -0.00034251044 0.005629009 -1.6595892e-05 -0.003909746
0.00022637808 0.008169939 -0.002147153 0.0049695773 -0.0005700399 0.005212204 -0.010204718 -0.0020129064
0.005627696 -0.0075429953 -0.0017396171 -0.0066927522 -0.0050644404 -0.0075598597 -0.013307899 0.017873911
-0.011647379 0.017543554 -0.0019718292 0.0042055785 -0.0035066754 -0.0032425292 0.0035273307 -0.0019894503
0.0068188407 0.010385676 0.0053099804 -0.0020540338 -0.012016684 0.011379292 -0.006211611 0.0005892954
-0.008337037 -0.007501267 0.0026721796 0.0030744264 0.012839894 -0.0048282384 0.00092121185 -0.00076251454

action_model._discrete_distribution.branches.0.bias f4 [2]
00000000: 0000 0000 0000 0000
0.0 0.0

action_model._discrete_distribution.branches.1.weight f4 [2, 128]
00000000: 6085 af3b d204 7939 5bde b53b 7052 8b3b
00000010: c048 debb 1229 af3b 83f5 93ba ab09 c43c
00000020: af82 043c 7b65 dfbb 1d6e 55bb c6cb c1bb
00000030: b16b b7bb a7d1 53bb ffd5 1b3c 9b90 a03c
00000040: 929c 19bc f8bb 193c edd7 083c a828 47bb
00000050: 6470 24bc bf21 09ba 98fc 213b 5bf9 1c3a
00000060: 1649 9f3b 754f fd3b ca68 c0bb c729 843b
00000070: 1745 80bc 4d1c 5b3c e810 4bbc 3193 813b
00000080: b3c5 253b 6329 e7b9 d047 bfba cb10 713c
00000090: 94bf c737 a95d bc3a 4b91 693b 92f7 6b3c
000000a0: 5849 f8bb a01a 71bb c394 d03b fec5 803b
000000b0: 3b84 a5bc 0f10 623b 4cef 0aba ab0f 97ba
000000c0: d734 9c3c b257 bbbb f7c3 dc3b 8cd2 99bb
000000d0: 7b57 2b3b 7d34 e83b 9374 403b f4fb 89bb
000000e0: 7518 53bb ccce 2f3a 61b7 aa3b df82 6a3c
000000f0: 83bb ad3a 4e10 a3bb fda8 923c b1bd a03a
00000100: 6983 3c3c 7a9f 44bc c04a 343c 2d61 9f3b
00000110: fb9f ce39 7763 bfb9 f1cf 9c3b 341f 183c
00000120: 3741 a03a 1082 0c3b 8f6d 11bc 7fa3 b9bb
00000130: eda5 7d3c ba81 2cbc 43e8 56ba 9a80 eebb
00000140: a912 83bb 07ab ae3b 7001 2fbc 471d a53a
00000150: 4b5b b43b 2317 743c c251 65b8 3934 313c
00000160: 406e d8bb 8bf8 14bc ec30 87bc 78dd 223c
00000170: 7f21 973c 774f 23bc 4bf4 3cbc 670b 9ebb
00000180: 0354 323c 12dc 9a3a 2d0d 743b a858 4d3c
00000190: dc74 433c 5394 e0bb 3d39 4ebc e85d 543b
000001a0: 0081 043c 13cb 363b afe6 fbba 1d17 1abb
000001b0: 2c24 a2bb d879 1d3c 56fb 273c cc1c 91bb
000001c0: 8d8a d4bb 8b67 dbbb c0a5 503c fcc4 29bc
000001d0: 8a38 063b 12d0 eabb 67b7 35bb 3b47 33bb
000001e0: cf47 733a 5015 393c 40a7 9ebb c70e 103c
000001f0: 284b 9ebb 8e74 31bb d87b ba3c 6aa8 c6bb
00000200: d4e4 c33b 3b68 04bc c783 813b 5b08 e53c
00000210: 1d58 c6ba a2c5 f63b 1504 65ba 9b0a 863c
00000220: 94fa afbc 85e2 7bbb 07a1 303c 59fe 2f3c
00000230: 7da6 46bc 5d1a 483c 1059 893c edf9 30bc
00000240: 385d aabb 66eb aeb8 e007 2b3c ff7f 4a3c
00000250: 84aa 34b7 ab9a 893b 4434 993c a03c 21bc
00000260: 2343 76bb 1878 7abb 5bd7 d3bb bdc7 143c
00000270: 9fe7 72bc 5d33 71bc d37a 83bb 0ff5 253b
00000280: c76c 1fbb 53b1 39bc eb2c 033c ffc4 18bb
00000290: 2f2a 96bc 6f3a aa3b ac03 ccbc 8fdb 093b
000002a0: cfdf 1a3c e00c e7b9 e084 5b3b 1bbe babb
000002b0: 16fd 18bb 8f81 87bb 4225 6fbc afb1 5d3c
000002c0: c2f1 62bb bb6d 073b 5f4a 7a3b eb19 73bb
000002d0: fa53 86bb 83f9 0a3c 419b 3fbb d8b0 53bc
000002e0: aa4a 0fbc a51c 473b c3c0 3cbb 18d0 77bc
000002f0: 9708 bcbc 526e ce3b dfae 6d39 27e8 13bb
00000300: f739 073b 7d75 db3b 6d06 58bc 8caf a7ba
00000310: 27dc 4dbc ebba 2fbc 3bcb 19bb 63fc ec3a
00000320: 17b6 2d3c 2362 0cbc c029 f33b 735b 3e3c
00000330: c1a8 ab3c 5aa9 c0ba 2499 873c 9fec 22bb
00000340: 3347 543a ae94 a8bb 08ea 77bb 3abd 7ebc
00000350: 2f54 05bc 9eb4 263c 3c73 8e3a 38f1 79bc
00000360: 92dd 5cbc 2bc5 0c3c f87d 913b de4c 01bc
00000370: 697b 2ebc 408a dbbb 25de a9bb 92f5 03bc
00000380: d1d8 ab3c 74a4 913b b3a5 ad3b 08cc f63b
00000390: 3d76 99bc 875d ee3b 7006 7b3c 6477 90bb
000003a0: 630d 47bb e20f 7e3b 9fda 323c 8397 c13b
000003b0: e9a3 1cbc 1dc9 793c d0cd 5c3c 8db2 193c
000003c0: 7d31 d4ba dfe7 e3bb 8570 653c 4ba6 42b8
000003d0: 952d 3ebb 2272 58bc 2bb8 e5bb 1a9b 32bc
000003e0: 6b54 7739 a89e e43b dde6 85bb ad41 08bc
000003f0: 12a5 363c 642a afbb c2ff a03b e0cc 2a3b
0.0053564757 0.00023748286 0.0055501885 0.0042517707 -0.006783575 0.005345472 -0.0011288378 0.023930391
0.008087798 -0.0068175173 -0.0032566853 -0.0059141843 -0.0055975546 -0.0032321007 0.00951147 0.019600203
-0.009375708 0.009383194 0.008352262 -0.0030389223 -0.010036562 -0.0005231164 0.0024717208 0.00059880846
0.0048610074 0.0077304193 -0.005871867 0.0040333006 -0.015657945 0.013373447 -0.0123941675 0.003954314
0.002529484 -0.0004409059 -0.0014593545 0.014713476 2.381186e-05 0.0014371175 0.003563958 0.014402287
-0.0075771026 -0.0036789551 0.00636539 0.0039298525 -0.020204654 0.0034494435 -0.000529994 -0.0011525055
0.019068165 -0.005717241 0.006737228 -0.0046942886 0.0026144672 0.007086335 0.0029366359 -0.0042109434
-0.0032210622 0.00067065354 0.0052098488 0.014313429 0.0013254735 -0.004976309 0.017902846 0.0012263564
0.01150594 -0.012000913 0.01100415 0.004863879 0.00039410577 -0.00036504466 0.0047855307 0.009284783
0.0012226467 0.0021439828 -0.008876218 -0.005665242 0.015481454 -0.010528976 -0.0008198062 -0.007278514
-0.004000027 0.0053304466 -0.010681495 0.0012597226 0.005504047 0.014898094 -5.4673998e-05 0.0108156735
-0.0066049397 -0.00909246 -0.01650282 0.009940498 0.01844859 -0.009967676 -0.011532853 -0.0048231366
0.010884288 0.0011814854 0.0037239299 0.012533344 0.011929717 -0.006853619 -0.012586889 0.0032404605
0.008087397 0.0027892038 -0.0019218529 -0.0023512312 -0.0049481597 0.009611569 0.010252794 -0.0044284817
-0.006486243 -0.006695693 0.01273483 -0.010361906 0.0020480477 -0.007165917 -0.0027727725 -0.002735569
0.00092804147 0.011296585 -0.004841715 0.008792586 -0.0048307367 -0.0027077529 0.022764131 -0.006062557
0.005978206 -0.008081491 0.0039524767 0.027958086 -0.0015132461 0.007530884 -0.0008736265 0.016362479
-0.02148179 -0.0038434577 0.010780579 0.010741794 -0.012124655 0.012213317 0.016766101 -0.010801774
-0.005199101 -8.340813e-05 0.010438889 0.012359618 -1.0768537e-05 0.004199346 0.01870168 -0.009841114
-0.0037576638 -0.0038218554 -0.0064648814 0.009080824 -0.014825731 -0.014721719 -0.0040124445 0.0025323068
-0.002432631 -0.011333781 0.008006315 -0.0023310778 -0.018330662 0.005194954 -0.024904095 0.0021035408
0.009452774 -0.00044069346 0.0033495948 -0.005698932 -0.002334421 -0.0041353176 -0.014596285 0.013531133
-0.0034628962 0.002066477 0.0038191301 -0.0037094306 -0.0040993663 0.00848234 -0.0029236826 -0.012920581
-0.008745829 0.0030382064 -0.0028801418 -0.015125297 -0.022953315 0.0062997723 0.00022667226 -0.0022568794
0.0020633915 0.0066973553 -0.013185126 -0.0012793406 -0.012564695 -0.010725717 -0.0023467082 0.0018080588
0.010602496 -0.0085683195 0.0074207485 0.011618483 0.020954492 -0.0014698908 0.016552515 -0.0024860275
0.0008097768 -0.005144677 -0.0037828702 -0.015548045 -0.008137747 0.010174898 0.0010868083 -0.015255265
-0.013480561 0.00859193 0.0044400655 -0.007891862 -0.01064954 -0.0066998303 -0.0051839524 -0.008054154
0.02097741 0.004444653 0.005299294 0.0075316466 -0.018733138 0.007274333 0.015321359 -0.0044087637
-0.003037297 0.003876679 0.010916381 0.005907954 -0.009560564 0.015245703 0.013476804 0.009380949
-0.0016189065 -0.0069551314 0.0140038775 -4.6408077e-05 -0.0029018868 -0.013210805 -0.00701048 -0.010901237
0.00023587204 0.006976921 -0.004086359 -0.00831644 0.011147754 -0.0053456295 0.004913301 0.0026062056

action_model._discrete_distribution.branches.1.bias f4 [2]
00000000: 0000 0000 0000 0000
0.0 0.0

action_model._discrete_distribution.branches.2.weight f4 [2, 128]
00000000: 0766 c8bb 7981 b2bb f33a 30bc 1a11 dc3a
00000010: 4df6 b93b 204d e0ba a73e 5bbc edc7 21bc
00000020: baa1 9fbb 18b2 5d3c 83c2 133c 0c33 853b
00000030: eda1 06bc 0224 2f3c 92af 26bc e5be 66ba
00000040: 2d31 363b d8e9 4dbb e17a c0bc 6775 253b
00000050: 1402 bebb 5a6d c03b 2f30 d1bb faaa eebb
00000060: dd7c 67bc 9b3b 92ba 8a69 b4bb ef2d 34bc
00000070: 5b58 e33b 71c3 9eba af38 ccba f593 283b
00000080: 432c 2cb9 549d 833c 8acb c1bc 8a54 56bc
00000090: 082d 00bc c615 82bb 3340 973b b00f 3fbc
000000a0: dfc2 b5ba e311 753c 7090 f1bc c31c 023c
000000b0: 5efb 88bc 3a79 4ebc bb8b 22bc 3729 d0bb
000000c0: 4b8c c6bb ebce 87ba 0670 09bc c0f3 fdbb
000000d0: fc89 293c 772e ee3b b4ae acba d8cf 1c3c
000000e0: 03bb c23a d267 d03b 988d d0b8 a7bb 13bc
000000f0: 5b38 db3b a976 26bc 8602 283c 66f3 a4bb
00000100: ba1f 7f3b 9736 11bc 2d62 a3bb 2e65 243b
00000110: d49c 813b 3b22 2f3c 0e36 34bc 7098 cdba
00000120: c9ab 28bc a03d f23b 49e4 46bc 8579 e33b
00000130: d745 e5bb 10c9 0a3c 3dd7 05bb cf4e 6d3c
00000140: af01 df39 b1cf 9fbb 0b13 77bc 0d28 5ab9
00000150: c5b5 1db9 6105 2e3b 3b32 b7ba cfe1 1b3c
00000160: ab7e 8cb9 c462 933b 8a23 6a3c f5c1 b1bb
00000170: 4417 88bb 781f 4f3c db61 f03b 950f 1b3b
00000180: d196 1f3c 0959 3fbb b39a 6d3b 8b40 253c
00000190: dd4d 753c 94ee 823a 9512 9d3a 8b3a 2fbc
000001a0: 8166 c93c 78ce 8ebb 0b73 fdbb 6e35 183c
000001b0: bf24 dfbb a4d0 af3b d747 0fbc 3e99 cb3c
000001c0: 4c77 34bb b9c1 92bb d712 843b 3bd9 1bba
000001d0: e752 feba c842 e8bb d3d2 14b8 2d59 4b3a
000001e0: bc60 8eba b79e b43b 13b6 673b 89cd a53c
000001f0: f20c f43c 23b2 9fbb 08dd 263c 2d11 80bc
00000200: 2a17 3a3c ad91 703c 73ad 03bc ff0b 3ebb
00000210: 5031 e93a e2b1 96bb 8b7d 3f3a efe3 843c
00000220: 6ee1 90b9 57a7 373b bb17 853a 205a 7ebc
00000230: 677b fa3b a911 413c af76 c2bb 8786 ccbb
00000240: e797 7b3b b206 5fbb eaf1 f4bb 2753 38bc
00000250: e36f ae3c af68 bbba bf4f b0bb 7279 233b
00000260: c3e2 a93c f700 e1bb 5fcf 4aba f58c 7ebb
00000270: c0d1 50bb affa 08bc 8211 a53b d3da 41bc
00000280: c03e 40bc 43ac 91bc c5dd 06bc a8ad 06bc
00000290: 6280 05bb c847 58bc ff7e 8e3c ef47 9f3c
000002a0: e3de 8c3b 8d7f d6bc ad39 6c3b 0378 303b
000002b0: d833 403a 5574 e3bb 7b90 123a c8b7 9f3c
000002c0: d104 b53b 5395 9d3c b197 3cbc f315 6eba
000002d0: 279e babb 82d8 6d39 685b 7db9 f896 3e3c
000002e0: 0538 cf3b 936f ecbb a9c9 b3ba 555d 9739
000002f0: cf1b ae3a 3e29 a03a 7c3d 46bb 601a 5d3c
00000300: f465 83bb 4645 a93b 97c2 16bc 909d 5fbc
00000310: cd10 f43a d28a 50ba b307 9039 3500 223b
00000320: ac71 153c 1a35 19bc 2e27 343b 970a afbb
00000330: ebb8 7a3b 0738 dd3b 13c7 103b f767 0fbb
00000340: 48c3 2bbc 7f56 773c 024e aabb 4287 80bc
00000350: b5cd f2ba 3247 793c 878f 0cbc c35d bdba
00000360: 0fb0 74bc 2ffd b4bb b364 1a3c a88a 1e3c
00000370: 4f14 343c 93d9 1ebc f15c b4b8 ff19 17bb
00000380: 2339 fbbb 83ab a03b 090f 07bc f334 8f3c
00000390: 08db 183b d867 d1ba 08f5 0f3c 0ff3 2fbb
000003a0: c788 af39 46be 1cbc f6d9 bd3b c706 97bb
000003b0: 25d9 b6b9 6a06 903c f56a 7b3b a214 4f3c
000003c0: 3fd7 623b a8fd 143b 0add 893c 7683 1cbb
000003d0: 7d6c c4bb 38c3 31bb f61a 85bb 8b45 563b
000003e0: e622 18bb caa3 3ebc 2281 663a 8d2c 553c
000003f0: 0063 e13a 703f 063c aaed f4bb 8e69 233c
-0.006115678 -0.0054475632 -0.010756242 0.0016789765 0.0056751133 -0.0017112829 -0.013381637 -0.009874326
-0.004871574 0.01353123 0.009018543 0.004064923 -0.008217317 0.010689737 -0.010173695 -0.0008802249
0.0027800307 -0.00314199 -0.023496093 0.002524698 -0.0057985876 0.0058724107 -0.0063839178 -0.0072835656
-0.014128891 -0.001115668 -0.0055057453 -0.01099728 0.006938023 -0.001211269 -0.0015580858 0.0025722955
-0.00016419687 0.01606623 -0.023656625 -0.013081679 -0.007823236 -0.0039698808 0.0046158074 -0.011661455
-0.001386728 0.014957878 -0.029487818 0.007941428 -0.016721424 -0.012602145 -0.00992101 -0.0063525694
-0.0060592047 -0.0010361349 -0.008388525 -0.0077500045 0.010347839 0.0072687226 -0.0013174624 0.009571038
0.0014856759 0.0063600326 -9.944587e-05 -0.009016908 0.0066900677 -0.010160127 0.010254508 -0.005033898
0.0038928823 -0.008863113 -0.0049860687 0.0025084722 0.003955463 0.0106893135 -0.010999216 -0.0015685689
-0.010294863 0.0073926 -0.012139388 0.0069419765 -0.006996851 0.008470789 -0.0020422481 0.014484121
0.0004253513 -0.0048770537 -0.015080224 -0.0002080502 -0.00015040401 0.00265535 -0.0013976762 0.009514286
-0.00026797256 0.0044978578 0.0142907 -0.005424733 -0.004153164 0.01264178 0.007335884 0.002366041
0.009740547 -0.0029197356 0.0036255538 0.010086189 0.014972177 0.0009989315 0.0011983687 -0.01069511
0.02458501 -0.004358109 -0.0077346615 0.009290082 -0.0068098004 0.005365448 -0.008745155 0.024853345
-0.0027536927 -0.00447866 0.004030566 -0.00059451506 -0.0019403369 -0.007088039 -3.5482295e-05 0.00077571237
-0.0010862569 0.0055120843 0.0035356327 0.020239608 0.029791329 -0.0048735305 0.010184534 -0.01563319
0.011358062 0.014683169 -0.008036959 -0.002899885 0.0017791186 -0.004598842 0.0007304779 0.016221968
-0.00027633779 0.0028023326 0.0010154167 -0.015524417 0.0076441052 0.011783996 -0.0059345583 -0.006241623
0.0038390101 -0.003403109 -0.0074751275 -0.011250294 0.021293586 -0.0014298166 -0.0053806 0.0024944213
0.020738011 -0.00686657 -0.0007736589 -0.003884134 -0.0031863302 -0.008360549 0.0050374875 -0.011831957
-0.011733711 -0.017782336 -0.008231585 -0.008220114 -0.0020370712 -0.013200708 0.01739454 0.01944348
0.004299031 -0.026183868 0.003604512 0.0026927001 0.0007331944 -0.006941358 0.0005590987 0.019496813
0.005524256 0.019236242 -0.011510775 -0.000908225 -0.0056951228 0.00022682737 -0.00024162012 0.011632673
0.0063238167 -0.007215449 -0.0013716716 0.00028870502 0.0013283434 0.0012219322 -0.003024905 0.013495058
-0.0040099565 0.0051657287 -0.009201667 -0.013648406 0.001862073 -0.0007955256 0.00027471557 0.0024719362
0.00912134 -0.009351039 0.0027489173 -0.0053418386 0.0038257192 0.0067510637 0.0022091314 -0.0021882036
-0.01048357 0.015096306 -0.0051972875 -0.015689496 -0.001852444 0.015214728 -0.008579141 -0.0014447499
-0.014934554 -0.005523346 0.009423423 0.009676613 0.01099117 -0.009695428 -8.6003805e-05 -0.0023056266
-0.0076667233 0.0049032583 -0.008243331 0.017481303 0.0023323912 -0.0015976382 0.008786447 -0.0026847755
0.00033480508 -0.009566849 0.0057938052 -0.004608962 -0.0003487553 0.017581183 0.0038363312 0.012639197
0.003461316 0.0022734199 0.016829032 -0.0023882068 -0.005994378 -0.0027124416 -0.004062052 0.003269526
-0.002321416 -0.01163573 0.0008793046 0.01301111 0.0017195642 0.008193836 -0.007474621 0.009973897

action_model._discrete_distribution.branches.2.bias f4 [2]
00000000: 0000 0000 0000 0000
0.0 0.0

action_model._discrete_distribution.branches.3.weight f4 [2, 128]
00000000: 4098 6f3b 7334 433b db95 d4bb 0544 bcba
00000010: ad59 6cbc afb1 213c 5745 ac3b e565 aabb
00000020: 8760 7b3c 5220 6a3a 7364 55ba 8dd9 523b
00000030: 7950 3dbc 0779 c6bb 39e5 343b 3d90 ddba
00000040: 203a 5dbb ab20 8c3b d0b6 6cbb e504 e83b
00000050: 1c8d 1ebb e873 1b3c de5d 283a c546 493c
00000060: 2b94 e93b 6511 f83b 7d75 fbbb ef86 e8bb
00000070: daf9 6abb 8501 a2bb a24e 25ba b748 413c
00000080: 2270 01bc 8580 e13a f816 09bc 0331 573b
00000090: b538 bf3a f610 a3bb 5d14 5d3c 3867 5bbc
000000a0: 5d51 e6ba 934c 943b dfba 073c fc49 46bc
000000b0: 1736 8fbc 4ee8 843b 8815 5c3c cf2e babb
000000c0: 517f 083c 8df4 5a3c 4347 ccba 6c07 b93a
000000d0: e3ae 3d3c e8a6 debb 8f36 2b3c 9abf 4fbb
000000e0: 7a1f 7fba e95b cabc 6d23 4ab9 b5d8 d73b
000000f0: 430b 343c 5766 65bc c923 86bb f492 27bc
00000100: 83e0 c83b 9848 773b 67e3 143c ffa7 423c
00000110: 6b70 13bb 727e 8eba bfa7 c939 e363 75bb
00000120: 480f e1bb 758f 86bc 1596 283c 57ff 383b
00000130: d13c 49bc 47c1 dc3b 1032 783c 13a6 1bbb
00000140: 92a3 54bc a641 483c f06d 4a3b 6a19 ce3b
00000150: 767c b1bc 2337 f2ba ab4a 4f3c 0514 643b
00000160: d38b 0b3c d2f3 e3bb 9329 243c 9c6b 38bc
00000170: 07fb 06bb c082 32bc 2eed 13bb 0b40 29bb
00000180: 317a 083c 06e5 c03a 934f c93b bd63 013c
00000190: 9b74 c43c 6dff 9fbc 9f17 843a f6ae 8c3c
000001a0: b345 7c3c 335f 05bc 7720 8f3c 72fe 82bb
000001b0: 723a 6abc 7097 f439 d046 5e3b 8d0c 1c3b
000001c0: cdde ce3a 31a2 a138 a558 143a b018 bebc
000001d0: a225 a1ba 1f39 ab3b 9541 e6bb 6da2 12bb
000001e0: 6fd2 ed3b bbb4 903b 05dc 2d3c 8295 9ebb
000001f0: 2028 e4b9 a5ca 3dbb 519f 23bb 8074 73bc
00000200: 1349 933b 1399 d9ba 6743 453c 8d55 96bb
00000210: 7f1a 57bc 4416 c0bc ab22 19b8 9bf4 0a3c
00000220: 6764 173c 2368 6fbb 9f03 d33a 55e1 cf3b
00000230: ab6d f3b9 92f0 9cbb a54f f03a 9b65 4eba
00000240: 9f5a c6ba 4adc 23bc d85a 7fbc b570 6a3b
00000250: 5243 5cbc 7d0f 793b 1a28 d2bb 8514 f03b
00000260: e35a 8f3c ebda 153b 5d93 db3b 33c8 41bb
00000270: 8b07 843c 49e3 1dbc b00a 3f3b 57b9 663a
00000280: 73d9 613c 937d c8bb 03cf 51bb 34d6 803a
00000290: f700 37bb fbda b6ba a287 463c 1d65 6e3c
000002a0: c472 8fb9 6efc 8c3b 1f64 36bb e372 e6bb
000002b0: c2b2 153c 833f 1c3b f09f 773b 3f99 21bc
000002c0: befe a73b 3448 05bc ab25 f1ba cb31 51bc
000002d0: 2f8e 62bb 5817 c4bb a5b4 35bc 3d8b 0bbc
000002e0: da0a e3bb b379 b13b b2ce 883c 9f83 3fbc
000002f0: 9ab7 c139 9f17 1a3c 3746 553c 675a 0d3c
00000300: d3d4 51bb daec bdbc 3e84 cc3b 9d01 5fba
00000310: 37d2 7d3a dc78 123c e045 83bb b3f5 343c
00000320: f8bc 83bb 762c 90bc bb47 ecbb a32c b539
00000330: cb3a 113c afc1 b03c 5a2c 4d3c 5532 69bc
00000340: e0b3 9539 3fa3 04bc 1514 d33b 1764 7e3a
00000350: 02ea c03a 5e46 103c b776 763c 78a6 80bc
00000360: 149a 41bc c7f7 0f3c d401 803b 12ab b6ba
00000370: 25b0 0fbb 36b5 463b fe28 86bb db49 d9bb
00000380: da68 573b 900b 123c f570 7bbb e544 303c
00000390: 8b8c 4ebb e027 f4bb 68c4 85bc 6bee 76ba
000003a0: 0a0b 0e39 3a48 6d3c af1c 2c3a 4323 283c
000003b0: 838e 183b 019b 28bc 7a87 ce3b d748 913b
000003c0: 1716 8139 ad15 a23b 879d 58bc f403 48bc
000003d0: 0071 0e3c 3f03 4b3b 5ff7 333b f8ec 46bc
000003e0: c80a d5bb ce93 a93a 3927 c6bb 5a18 6fbb
000003f0: 1508 0d3c 3c96 30bb e9af a23a a72f a03b
0.0036559254 0.00297859 -0.0064875907 -0.0014363533 -0.014425677 0.009869023 0.0052572894 -0.005200135
0.015342838 0.00089312077 -0.0008140273 0.0032173127 -0.011554831 -0.006056908 0.0027602448 -0.0016903948
-0.003375657 0.0042763553 -0.0036119707 0.0070806616 -0.0024192994 0.009488083 0.00064226787 0.012284939
0.0071282587 0.007570433 -0.007673918 -0.0070961635 -0.003585449 -0.004944029 -0.00063059677 0.011797122
-0.00790027 0.001720444 -0.008367293 0.003283561 0.0014589044 -0.004976387 0.0134936245 -0.0133913085
-0.0017571856 0.00452573 0.0082843 -0.0121026 -0.017481847 0.004056013 0.013432868 -0.0056818496
0.008331136 0.0133639695 -0.0015585202 0.0014116592 0.011577341 -0.006794799 0.0104500195 -0.0031699897
-0.00097321684 -0.02470203 -0.00019277418 0.006587113 0.010989013 -0.0140014505 -0.0040936214 -0.010227907
0.0061302795 0.0037732478 0.00908742 0.011880874 -0.0022497426 -0.0010871424 0.00038462688 -0.003744357
-0.0068682767 -0.016425828 0.010289689 0.0028228366 -0.012282566 0.0067369076 0.015148655 -0.002375011
-0.012978451 0.012222683 0.0030888282 0.0062896507 -0.021665793 -0.0018479567 0.01265208 0.0034801972
0.008517223 -0.006956556 0.010019678 -0.011256125 -0.0020596401 -0.010895431 -0.002257179 -0.0025825526
0.008329914 0.0014716692 0.006143519 0.007897315 0.023981383 -0.019530976 0.001007784 0.017173272
0.015397477 -0.008140373 0.017471535 -0.0039976174 -0.014296161 0.00046652136 0.003391672 0.0023811192
0.0015782953 7.707289e-05 0.0005658961 -0.023205131 -0.0012294541 0.005225315 -0.007026861 -0.0022374645
0.0072577517 0.004416076 0.010611539 -0.0048396 -0.00043517444 -0.0028959897 -0.0024966786 -0.014859319
0.004494795 -0.0016601406 0.012039996 -0.004587835 -0.013128876 -0.023448117 -3.651033e-05 0.00848117
0.009240246 -0.0036530576 0.0016099102 0.0063440003 -0.0004643028 -0.0047894204 0.0018334283 -0.0007873417
-0.0015133208 -0.0100012515 -0.015585624 0.0035772745 -0.013443785 0.0038003617 -0.006413472 0.007326665
0.017499393 0.002286608 0.0067009167 -0.002956879 0.016116878 -0.009636709 0.0029150657 0.00088014215
0.013784754 -0.0061184852 -0.0032014258 0.0009829463 -0.002792416 -0.0013950759 0.012117298 0.0145504745
-0.00027360593 0.004302553 -0.0027830673 -0.0070327385 0.009136857 0.0023841567 0.003778454 -0.009863197
0.005126803 -0.00813489 -0.0018398067 -0.012768219 -0.0034569611 -0.005984228 -0.011090432 -0.008517084
-0.006928784 0.005416119 0.016700123 -0.011689096 0.00036948622 0.009405046 0.013017229 0.008627511
-0.0032017722 -0.023184229 0.0062413504 -0.00085070153 0.00096825085 0.008939948 -0.0040061325 0.011044907
-0.0040203296 -0.017599326 -0.0072106994 0.00034556267 0.008864115 0.02157673 0.012522781 -0.0142331915
0.00028553512 -0.0080955615 0.006441603 0.00097042456 0.0014718177 0.008805839 0.015042952 -0.015704378
-0.01181652 0.008787102 0.003906468 -0.0013936481 -0.0021925059 0.0030320412 -0.004094242 -0.0066311187
0.0032868893 0.0089138895 -0.0038366888 0.010758613 -0.0031516876 -0.0074510425 -0.016329005 -0.00094196823
0.00013546288 0.014482552 0.00065655535 0.010262313 0.0023278303 -0.010290862 0.006302771 0.004433732
0.00024621256 0.0049464316 -0.013221151 -0.012207974 0.0086939335 0.0030977277 0.0027460677 -0.012141459
-0.0065015294 0.0012937726 -0.006047156 -0.003648302 0.008607884 -0.0026945015 0.0012412044 0.004888493

action_model._discrete_distribution.branches.3.bias f4 [2]
00000000: 0000 0000 0000 0000
0.0 0.0

action_model._discrete_distribution.branches.4.weight f4 [2, 128]
00000000: c5e6 243c 476b 523a 7a60 04bc 139f 223c
00000010: 4d0d 11bc 42af 56bb bd55 56bb c297 2d3c
00000020: 7085 83bc 819a b03b 70a4 143a 4050 febb
00000030: 82bf f1ba 8ee3 acbb 6e26 9e3b 4e13 8bbb
00000040: 68f9 da3a 8db2 633b 807c a2bb 3288 ffb9
00000050: 7b69 72bb ffbd 223c 1629 12bb 7539 ec3b
00000060: 988a 883c e2f3 d33b 1e66 05bb 8eab 283a
00000070: b3dc 3d3b 7790 45bc e208 f4ba 8c99 bc3b
00000080: 752a 7cbb 1321 633b 4934 2dbc 1f0c 7e3b
00000090: ecf0 36bc 6a04 6a3a 8b00 2b3b aa57 4f3c
000000a0: db05 9dbb 5a9e 30bb 3d69 203b 3de7 1d3b
000000b0: 8fc3 db3b 77c9 ff3a e31e bf3b 7f57 13bc
000000c0: 5339 98bb cbad 8ebb ef1d 003b 20f3 4abb
000000d0: 8923 a8bb 2234 89bc f279 553c 9a51 b83b
000000e0: 507e 3abb 62df d8bb 08af a4bb 42d0 8e3b
000000f0: 47c1 513c 25c3 c33b 765d 233c 58cb 4f3a
00000100: e755 0abc 0f3c f3bb 1485 223c 48e4 d83b
00000110: 5d5f 5e3c 09f3 473b f724 97bc c7e8 46bb
00000120: 2c64 a13b 8e0c 413c 62a3 eeba 4874 eb3b
00000130: 1506 2a3b 4aef 833c 9a73 0ebc b062 ed3b
00000140: 48d6 19bc cd2f 093c 2ce9 05bb 4dca d7ba
00000150: 358e 50ba 2f17 bbba 5c0f 3ebb 769e 3ebc
00000160: b224 ff3a ba85 32bc 4317 e13b 4f3f 12bb
00000170: 333d 0d3c 19a2 cc3a 05da 78bc b5e7 babc
00000180: 6830 f037 e64c 82bc a85f 7338 2ff3 07bb
00000190: d2df 993b 53d6 adbb f5f7 f4bb 70a2 5a3b
000001a0: 9353 7bbc 0fa9 dfbb 373a 913c 59ae 88ba
000001b0: 2fa4 6c3c b82e 0abc 3b53 233c bfea 9bbb
000001c0: 02e8 013b f706 d2bb c699 27bc cb98 453c
000001d0: 1b95 f7bc 0f0b 593c bd6e 803b 4763 8f3a
000001e0: db6b 853c f5bb 663b 332d 2bbc cb0c d8ba
000001f0: ab95 0a3b bbe1 743c e1b5 b73b 58ff 6abc
00000200: ebf7 533c 381f f73a 165d 13bb dbdd 26bc
00000210: e2d9 50bc cb70 01bc 6b1a 6cbc 8be6 5c3c
00000220: 3f09 abbb f3ee 23bb 0048 913c e5af b73b
00000230: a3b1 fe3b ab25 4fbc 7aa0 2c3c 5025 d73b
00000240: 6a58 e93a 11e2 253c bb97 1f3b b33e ff3a
00000250: 56f3 47bc e855 793b fd91 62bc 50e2 73bc
00000260: 30a3 053c a596 123c 66ed cb39 c02a 15bc
00000270: af71 afbb ba2d 1dbc c5af 55bb eb43 8cbc
00000280: d319 983c a7df 56ba 956e d1bb 166a b43a
00000290: 2752 92bb 0174 1c3c ef66 26bc 37b3 9f39
000002a0: d929 2eb9 eb00 523b fb9c c63b 46ac 213b
000002b0: 826a 17bc 50c5 2cbb e677 c3bb 6f45 da3b
000002c0: 882d 7d3c f3e1 10bc 00d8 6f3c 52de 653c
000002d0: 7f9b ca3a 6003 d93a af3a 063c 134b 94bc
000002e0: 5d1a af3b e312 9fbb 1adc 193c cd59 5a3b
000002f0: f519 ac3b 05ea 313a 1bb3 60bc 7f83 febb
00000300: d231 56b9 a086 68bb eac2 6abc bb7e 98bb
00000310: 9cfc af3b 7a6a 0fbc 4cb0 2d3c 2365 11bb
00000320: 254d cebb 3346 49ba 30bb d2ba 9dec 7aba
00000330: c5f5 0b3c 3caf 30bc d798 363c 1fa3 8d3c
00000340: 04c3 36bb c1d5 a13a 7bc7 c73b d080 c9bb
00000350: c7a9 163c de49 1a3b cdf7 44bb f239 6d3c
00000360: b788 2f3b 0fb0 d83b c3c2 0339 9f6e b4bb
00000370: 7abc 573c db52 33bc 9f47 603c a8ab 1cbc
00000380: ce54 9d3c e39d a43b d38a ebba 15fa 15bc
00000390: c326 4a3a c0b9 eb3a 37e6 5bba c0c8 90bc
000003a0: 3524 efb9 c8a8 ce3a 2d67 7abb cb66 7d3b
000003b0: f8bd 543c c3cf 2539 36d8 18bc d578 21bc
000003c0: 072e 13bc 967f 01bb dc01 2a3a c0e4 7cbc
000003d0: 9e74 1fbc 5246 d1ba e19f 4c3c d29b 7d3b
000003e0: 351f 09ba 3a76 fc3b ed86 34bb 6370 163a
000003f0: 3bbd 233c 5b2e 633c 9be5 de3b 74e8 223b
0.010064785 0.000802685 -0.008079642 0.009925622 -0.008853269 -0.003275827 -0.0032704913 0.010595264
-0.016054839 0.005389512 0.0005670255 -0.0077610314 -0.0018443915 -0.00527615 0.0048263585 -0.0042442447
0.0016706409 0.0034743876 -0.004958689 -0.00048738864 -0.003698914 0.009932994 -0.002230232 0.007208998
0.01666765 0.006468282 -0.0020355056 0.0006434255 0.0028970658 -0.012058369 -0.001861837 0.005755609
-0.0038477455 0.0034657165 -0.010571548 0.003876455 -0.011165839 0.00089270493 0.0026092853 0.012655178
-0.004791958 -0.0026949854 0.002447679 0.0024094128 0.006706662 0.0019514997 0.0058325394 -0.008993029
-0.0046455055 -0.004354214 0.0019549092 -0.0030967668 -0.0051311892 -0.016748492 0.013029562 0.005624962
-0.0028456636 -0.006618426 -0.005025748 0.0043583224 0.012802429 0.005974191 0.009971013 0.0007926724
-0.008443332 -0.007422931 0.009919424 0.00661901 0.013572541 0.003050985 -0.018450243 -0.0030351148
0.0049252715 0.011782778 -0.0018206651 0.0071854927 0.0025943567 0.016105313 -0.008694554 0.0072444305
-0.009389468 0.008373213 -0.002043317 -0.0016463489 -0.0007955761 -0.0014273877 -0.0029000854 -0.01163446
0.0019465892 -0.010896141 0.006869228 -0.0022315567 0.008620548 0.0015612274 -0.015188699 -0.022815565
2.863277e-05 -0.015905809 5.80248e-05 -0.0020744314 0.004695871 -0.0053050905 -0.007475848 0.003336098
-0.01533975 -0.0068255733 0.017727954 -0.0010427936 0.014443441 -0.00843399 0.009968574 -0.0047582085
0.0019822125 -0.0064095217 -0.010229534 0.012060354 -0.030222466 0.0132472655 0.003919451 0.0010939621
0.016286781 0.0035207246 -0.010447788 -0.0016483305 0.0021146338 0.014946396 0.0056063985 -0.014343105
0.012937526 0.0018853908 -0.0022485903 -0.01018473 -0.01274726 -0.007900427 -0.014410595 0.0134827
-0.005219608 -0.002501425 0.017734528 0.005605685 0.007772641 -0.012643258 0.0105363075 0.0065657273
0.0017802839 0.010124699 0.0024351913 0.0019473642 -0.012204012 0.003804559 -0.013828752 -0.0148855
0.008156583 0.008947049 0.00038896053 -0.009104431 -0.0053541283 -0.009593422 -0.0032605988 -0.01712223
0.018567001 -0.0008196779 -0.0063913562 0.0013764526 -0.0044653597 0.009549142 -0.010156377 0.0003046037
-0.00016609523 0.0032044004 0.006061194 0.0024669333 -0.009241702 -0.0026362725 -0.0059652207 0.006661109
0.01545275 -0.008842933 0.014638901 0.014030056 0.0015457718 0.0016556792 0.008192702 -0.018102204
0.005343719 -0.0048545464 0.009390855 0.0033317686 0.0052521178 0.0006786886 -0.013714577 -0.0077671404
-0.0002042719 -0.0035480633 -0.014328698 -0.0046537793 0.0053706896 -0.008753413 0.0106011145 -0.0022185526
-0.0062958174 -0.0007678002 -0.0016077515 -0.0009572001 0.008542483 -0.010783967 0.011144838 0.017289696
-0.0027887234 0.0012347029 0.006096778 -0.006149389 0.0091957515 0.0023542563 -0.0030054927 0.014479147
0.002678437 0.0066127847 0.00012565688 -0.005506351 0.013167495 -0.010945047 0.013688951 -0.00956241
0.019205477 0.0050237044 -0.001797045 -0.0091538625 0.00077114644 0.0017984435 -0.00083884917 -0.01767385
-0.0004561261 0.0015766853 -0.003820847 0.0038666006 0.012984745 0.00015813023 -0.009328892 -0.009855469
-0.008983142 -0.0019759885 0.00064852624 -0.015435398 -0.009732394 -0.0015966392 0.01248929 0.0038697612
-0.00052307855 0.0077045234 -0.0027546242 0.0005738793 0.0099938465 0.0138660325 0.0068022734 0.002485779

action_model._discrete_distribution.branches.4.bias f4 [2]
00000000: 0000 0000 0000 0000
0.0 0.0
