Assets/results/ppo/My Behavior/My Behavior-14.onnx (onnx, 156809 bytes, 20 tensors)

discrete_act_size_vector f4 [1, 14]
00000000: 0000 0040 0000 0040 0000 0040 0000 0040
00000010: 0000 0040 0000 0040 0000 0040 0000 2041
00000020: 0000 2041 0000 2041 0000 2041 0000 2041
00000030: 0000 2041 0000 2041
2.0 2.0 2.0 2.0 2.0 2.0 2.0 10.0
10.0 10.0 10.0 10.0 10.0 10.0

network_body._body_endoder.seq_layers.0.weight f4 [128, 24]
00000000: 3154 233e ce53 dd3e 93a3 8abe 0627 97bd
00000010: a6b4 cd3d f7c9 4fbc b4ce 5c3c 8d41 01be
00000020: c22b 2c3e 9ad3 613e cedd b3bc b89d bebd
00000030: 8122 a03d e405 9bbd 2556 a5bd 6ae3 d13b
00000040: 0532 d83e 1abf 63be a5c2 a4be d3ee 84be
00000050: b03d e0be 9022 833d 08b2 8e3c 62c9 2b3e
00000060: c61b 64be 095b 563e 98b9 323e e37d 84be
00000070: cbfe fdbe 8503 e03d 3c73 90be 436a 923d
00000080: 53b7 2dbe dd84 e13e ab5f 25be ebb5 49be
00000090: 8d54 eb3e f382 bf3c 9071 413e 7651 8c3c
000000a0: 3647 1ebe 2e1d ffbd 519e f7bb 72a9 6fbe
000000b0: 5810 c3be 7967 59bd bd09 453e 14e1 543b
000000c0: 93b6 803e 1802 21be 3ad4 f63c cd60 3fbd
000000d0: 205f 093e d187 883d 04f6 ef3e 5f6c 823e
000000e0: a2f1 80be c35a af3e 5bc6 bc3c f4e1 8bbd
000000f0: fbd2 91be f30b 13be 8066 10bf 19a4 a83c
00000100: ca32 443e 748c 53be eaa1 d53c 0bac a2be
00000110: 799c cf3d 042a 04be d003 b43e bcd8 91bd
00000120: 6ddc c23e 859a 95be 7551 c63c df92 8e3e
00000130: 90ff a3bd 0fb7 413e f7d6 ad3d 782e 623d
00000140: fe28 c13d 32d1 58be 08e2 94be bc8c 9ebd
00000150: cb12 713e b390 21be e065 fabe b8be 903e
00000160: ee30 833d a194 013e e139 373d b54c 0c3e
00000170: 412c 8a3e 9aaf 3c3e d050 70be 056f 713e
00000180: 20d0 2abd 94d8 71bd 452b aebe 27f5 ca3d
00000190: b62e 4f3e 3054 edba 76c7 003e 5685 bc3e
000001a0: 9e56 143c 89dd 85be 8451 033f 41d0 f63d
000001b0: a9b5 94be 4577 223e 5fec a3be 0a1e 1bbe
000001c0: 8636 223e c2c1 7d3e 8ca0 b6bd 0c7b 0cbe
000001d0: 5535 0fbe 38eb 88be c073 bbbc 5df9 3e3e
000001e0: 2df9 6cbe c516 71bd 6d84 1fbe 7e0e b8be
000001f0: 8af5 3f3c b5c5 0fbe 834b ad3e 4a9f a43e
00000200: d814 f53a 1328 1b3f f61d 85bd de4f 49be
00000210: 0571 503d 876b 23bd fad6 8d3e ddf4 b93e
00000220: 3ca8 313e 7cbe 1a3e b65f 263e 833d 50be
00000230: 00f3 2f3e c012 d0bc 3120 a83a c1cc f2bd
00000240: 6338 2a3d ca42 c0ba 86db 32be c58a 323e
00000250: a085 693d f8d6 72be 059a 8dbe 7208 94be
00000260: 149d 893e 81c1 f2bc 3fe4 05be 9da0 6bbb
00000270: afc7 ad3e 6a8f cc3c 4a72 2a3d 3af9 0bbe
00000280: 5499 1bbe 9f06 233d 3a2b 03be 4359 1cbe
00000290: 1a43 09bd b063 b23e 3e65 a73e a314 03be
000002a0: 2c30 193d ff72 853e 823c e3bc 57e1 8d3d
000002b0: 24c1 35bc 4f10 7e3e f90f 36be 7fb5 ab3e
000002c0: 4d3b ea3d b90b d93d d73f 3fbe 799f b2be
000002d0: 24a6 9e3c 631d fdbc f5e1 c3be 50d9 2e3e
000002e0: 657d 38bb 17c5 23bf 0df6 833e 468a 81bd
000002f0: 1c84 a83e 9ead a2be e321 5abe 5107 813e
00000300: 2113 b0ba 4e6c d2bd afd3 6bbe 10b5 adbd
00000310: b3b8 a93e 9551 a13e 43e6 e13d 6f12 803d
00000320: 65fd ccbd 5c81 8c3c b15c 94be d049 6cbe
00000330: 5027 79be ff24 d73d d571 413e 5c9b dcbd
00000340: 2ebc 8f3d 3fe0 9e3d 0d83 193c f5cb 9fbe
00000350: ff2e b8bd 17b6 253d 2cff 693e 3fbe 953d
00000360: 4af0 863e 627a 00bf 1c65 0ebe dc15 93be
00000370: 8684 8f3e fa8e e2bb eace 813d 109b 8abe
00000380: 07b5 a73c eab6 0abe 2e7f 42be 3f2d 19be
00000390: 3765 143e b283 03be f994 603e 98dc 66bd
000003a0: 6c72 c9bd de4b 03be c4d5 ecbd 6606 183f
000003b0: db4d 9f3e fc02 653e b691 92bb 4b67 843d
000003c0: 7e34 0d3e df23 35be 0da5 223e 0ca6 eb3d
000003d0: f671 173e 58f4 023e 0b16 e23d 140c 893e
000003e0: 8eb6 04bd 4675 fb3c 7299 423e 583f 14be
000003f0: ead3 403e c956 82bd 5686 d73e 3d3f 1abd
0.15950085 0.43228 -0.27077922 -0.0738049 0.100442216 -0.0126824295 0.013477016 -0.12622662
0.16813567 0.22053376 -0.02195635 -0.09307426 0.07819081 -0.07569483 -0.080730714 0.0064052837
0.42225662 -0.22240868 -0.32179752 -0.25963458 -0.43797064 0.06403077 0.017418876 0.1677604
-0.2227622 0.20933165 0.17453611 -0.25877294 -0.49608454 0.10938171 -0.28212917 0.07149174
-0.16964464 0.4404668 -0.16149776 -0.19698302 0.45962945 0.023377871 0.18890977 0.017128687
-0.15456852 -0.124567375 -0.0075567146 -0.23404482 -0.38098407 -0.053077195 0.19241996 0.003248279
0.25139293 -0.15723455 0.030130494 -0.046723176 0.13415194 0.0666653 0.46867383 0.25473306
-0.2518435 0.34248933 0.023043802 -0.068302065 -0.28481278 -0.14360027 -0.564064 0.02058606
0.1916 -0.20659047 0.026078183 -0.31771883 0.10137267 -0.12906653 0.3515916 -0.07121417
0.38058797 -0.29219452 0.024208764 0.2784643 -0.08007729 0.18917488 0.08488267 0.055220097
0.09431647 -0.21173552 -0.29078698 -0.07741687 0.23542325 -0.15777855 -0.4890585 0.28270507
0.06405817 0.12654354 0.044732932 0.13701136 0.26986888 0.18426362 -0.23468328 0.23577507
-0.04170239 -0.059044436 -0.34017387 0.0991004 0.20232663 -0.0018106755 0.12576088 0.36820477
0.009053854 -0.2614558 0.5129626 0.1205144 -0.29044846 0.1586581 -0.32016274 -0.15148178
0.15841112 0.24780944 -0.08917341 -0.13718814 -0.13985188 -0.26741958 -0.022882342 0.18649812
-0.23141928 -0.058859605 -0.1557786 -0.35948557 0.011716256 -0.14040263 0.33846673 0.32152778
0.0018698229 0.60608023 -0.06499855 -0.19659373 0.050889034 -0.039897468 0.27703077 0.36319628
0.17349333 0.15111727 0.16247448 -0.20335965 0.17182541 -0.025399566 0.0012826977 -0.1185546
0.04155768 -0.0014668342 -0.17466554 0.17435749 0.0570122 -0.23714817 -0.2765657 -0.28912693
0.26877654 -0.029633285 -0.1307535 -0.0035953887 0.3394141 0.024970729 0.0416129 -0.13669291
-0.15195209 0.039801236 -0.12809458 -0.15268426 -0.03351126 0.3484168 0.3269443 -0.12800841
0.037399456 0.26064298 -0.027738813 0.06927746 -0.011093412 0.24810909 -0.1777953 0.33536908
0.11437092 0.10597939 -0.18676697 -0.34887293 0.019366331 -0.030897802 -0.3825833 0.17075086
-0.0028150913 -0.6397261 0.2577366 -0.06325202 0.3291329 -0.31773084 -0.2130199 0.25200894
-0.0013433435 -0.10274564 -0.2302997 -0.084818006 0.33148727 0.31507555 0.11030247 0.06253516
-0.10009269 0.017151527 -0.28976968 -0.23075032 -0.24331403 0.10505103 0.1889108 -0.1077182
0.07018314 0.07757615 0.009369624 -0.31210294 -0.08993339 0.040456858 0.22851247 0.07311677
0.263552 -0.5018674 -0.13905758 -0.28727615 0.28030795 -0.006914017 0.06338294 -0.27071428
0.020472063 -0.13546339 -0.18993828 -0.14958666 0.14491735 -0.12843207 0.21931829 -0.05636272
-0.09836277 -0.1282191 -0.1156421 0.59384763 0.31114087 0.2236442 -0.0044729365 0.06465014
0.13789555 -0.17689465 0.15883274 0.1150628 0.14789566 0.12788522 0.110393606 0.26767027
-0.03240066 0.030695569 0.19003847 -0.14477289 0.18830839 -0.06364209 0.42094678 -0.037657965

network_body._body_endoder.seq_layers.0.bias f4 [128]
00000000: 0000 0000 0000 0000 0000 0000 0000 0000
00000010: 0000 0000 0000 0000 0000 0000 0000 0000
00000020: 0000 0000 0000 0000 0000 0000 0000 0000
00000030: 0000 0000 0000 0000 0000 0000 0000 0000
00000040: 0000 0000 0000 0000 0000 0000 0000 0000
00000050: 0000 0000 0000 0000 0000 0000 0000 0000
00000060: 0000 0000 0000 0000 0000 0000 0000 0000
00000070: 0000 0000 0000 0000 0000 0000 0000 0000
00000080: 0000 0000 0000 0000 0000 0000 0000 0000
00000090: 0000 0000 0000 0000 0000 0000 0000 0000
000000a0: 0000 0000 0000 0000 0000 0000 0000 0000
000000b0: 0000 0000 0000 0000 0000 0000 0000 0000
000000c0: 0000 0000 0000 0000 0000 0000 0000 0000
000000d0: 0000 0000 0000 0000 0000 0000 0000 0000
000000e0: 0000 0000 0000 0000 0000 0000 0000 0000
000000f0: 0000 0000 0000 0000 0000 0000 0000 0000
00000100: 0000 0000 0000 0000 0000 0000 0000 0000
00000110: 0000 0000 0000 0000 0000 0000 0000 0000
00000120: 0000 0000 0000 0000 0000 0000 0000 0000
00000130: 0000 0000 0000 0000 0000 0000 0000 0000
00000140: 0000 0000 0000 0000 0000 0000 0000 0000
00000150: 0000 0000 0000 0000 0000 0000 0000 0000
00000160: 0000 0000 0000 0000 0000 0000 0000 0000
00000170: 0000 0000 0000 0000 0000 0000 0000 0000
00000180: 0000 0000 0000 0000 0000 0000 0000 0000
00000190: 0000 0000 0000 0000 0000 0000 0000 0000
000001a0: 0000 0000 0000 0000 0000 0000 0000 0000
000001b0: 0000 0000 0000 0000 0000 0000 0000 0000
000001c0: 0000 0000 0000 0000 0000 0000 0000 0000
000001d0: 0000 0000 0000 0000 0000 0000 0000 0000
000001e0: 0000 0000 0000 0000 0000 0000 0000 0000
000001f0: 0000 0000 0000 0000 0000 0000 0000 0000
0.0 0.0 0.0 0.0 0.0 0.0 0.0 0.0
0.0 0.0 0.0 0.0 0.0 0.0 0.0 0.0
0.0 0.0 0.0 0.0 0.0 0.0 0.0 0.0
0.0 0.0 0.0 0.0 0.0 0.0 0.0 0.0
0.0 0.0 0.0 0.0 0.0 0.0 0.0 0.0
0.0 0.0 0.0 0.0 0.0 0.0 0.0 0.0
0.0 0.0 0.0 0.0 0.0 0.0 0.0 0.0
0.0 0.0 0.0 0.0 0.0 0.0 0.0 0.0
0.0 0.0 0.0 0.0 0.0 0.0 0.0 0.0
0.0 0.0 0.0 0.0 0.0 0.0 0.0 0.0
0.0 0.0 0.0 0.0 0.0 0.0 0.0 0.0
0.0 0.0 0.0 0.0 0.0 0.0 0.0 0.0
0.0 0.0 0.0 0.0 0.0 0.0 0.0 0.0
0.0 0.0 0.0 0.0 0.0 0.0 0.0 0.0
0.0 0.0 0.0 0.0 0.0 0.0 0.0 0.0
0.0 0.0 0.0 0.0 0.0 0.0 0.0 0.0

network_body._body_endoder.seq_layers.2.weight f4 [128, 128]
00000000: c176 c13c 2438 93bd 9a15 e0bc 9299 de3c
00000010: 75c7 8b3c 13ab 56bd 27b5 1ebd 2356 663d
00000020: efe9 133d d2c7 073c 8230 a4bd 98ab 45bd
00000030: 3898 a1bd 78e8 ad3c b3c1 0fbd 73a4 1f3c
00000040: ce12 50bd 314e 82bd 8528 773d ebd5 54bd
00000050: d037 393d 4958 8f3d 6ff5 d73d 4094 0ebc
00000060: 5e43 193d 9c1b 843e 369f f8bc 1d2a f7bd
00000070: fe15 e6bc f38d 1e3d a767 863d 3e6b 4f3d
00000080: af15 973d 28e6 843d e631 00be 52c0 013d
00000090: 6883 f7bd 0fc6 1b3e 4e20 9a3d b362 6e3d
000000a0: 6b73 87bd 956d d2bc 9c39 d6bd e660 333e
000000b0: 6771 30be 47fc 763d f1bc 01bc 1a9a 523d
000000c0: 80f9 b93a e25b 33bd 0ffd a9bd a1f1 333d
000000d0: 28da 1cbd 30b6 07bd e6fc e9bc 3101 ebbc
000000e0: 704a febd c2e0 8abd 4fe4 e43c 9456 4b3c
000000f0: 6043 0fbe 6158 0dbe b8ad cebd 6b52 aebc
00000100: 6abb b2bd 82c1 a1bd 2fc2 ba3d f9b4 10be
00000110: 60f3 17bd a136 a73d de24 0abd 4433 cf3c
00000120: 3c62 58bd 2b18 8e3d 9723 fdbd b521 5f3d
00000130: b24e 8b3d 3ff7 e3bc 8f6a f9bd 4e0a 423d
00000140: 6cc1 54bd cda8 203d 1120 253e cd26 debd
00000150: 1ea0 25bd b85b 253e e6f6 cd3d fcce 5cbe
00000160: b38e 9dbd 1ee5 7ebd 7819 a23d 0c0a 163c
00000170: a4b7 92bd 06c2 1abe 4f49 e63c 5206 8cbd
00000180: f4db 03be 29cb a1bd f3a1 a6bd 0948 593e
00000190: 69c5 92bd c93c 7a3c a20b 7ebd 54db abbc
000001a0: 436e 46bd e7e2 06bd 15b5 33bd 4c77 8d3d
000001b0: df37 903d 9b0b c9bd b2be 65bd 9939 c03d
000001c0: f148 593e 62f4 d03b 1a06 c43d 49d7 ccbc
000001d0: bb76 ec3c 4980 97bb 8880 52bc 6f6c 59bd
000001e0: b88b 38bd 16b3 273e ff19 40bd 2ea8 febc
000001f0: bc98 25be ca4c 77bd e36f fbbc 9a4e 97bb
00000200: e540 843d 5908 093e e04c c73b bf8d 6d3e
00000210: 9e4b 22be 07e8 d13d cda6 2abe 9f04 e3bd
00000220: 7787 17be 6c0c 863d e083 8b3c 7989 183d
00000230: cb30 a83c 8289 aabd 0c19 b03d f330 85bd
00000240: 7e20 383d c5b3 8abd 38ce 553d f222 dfbd
00000250: 563b 3cbd 6bff d6bc 4f5e 55bb 8c84 a53d
00000260: 645c 07bc cf4a 8cbc b7ac ddbc 11ed 193e
00000270: 918b 7e3d 9260 40be c3fb c5bd 19cc 033e
00000280: 56f1 56bd 14f0 0cbc e8ba 95bd c597 2bbd
00000290: 47c3 3abd 9e9b 0bbe d3d9 7bbd adaf eebd
000002a0: ada6 c83d 039a 513d c1f6 1dbe 5a26 ecbc
000002b0: d416 103d 0256 5abc 5dbf db3c 33c6 ac3d
000002c0: ff34 063d b5a4 3a3d 8630 70bd cb86 0a3d
000002d0: 2158 123d 9060 83bd 05ee 2bbd edd9 033c
000002e0: 1eca 04be 2fd6 a7bc 2dba 22bd de9d be3d
000002f0: 285d 173e a56b a1bc 143e 9fbd fa46 bfbc
00000300: 69f5 f0ba 4f67 8bba 29b9 aa3d e9e2 02be
00000310: f587 6fbc 3554 973c 1792 0dbe 9933 ad3c
00000320: 984a 2f3d ff09 27be fa15 f7bd de2f 3b3b
00000330: c1be 8abd 30bd 1e3d 3211 99bd c96a 5e3d
00000340: 8fd3 cbbd a6e4 863b 7e1a d23d e567 b33d
00000350: efe0 e7bd b4f9 813d 11a8 fbbd 554f ffbd
00000360: 6ce1 dd3c cbda ecbd 3d5f 193e 7e41 25bd
00000370: 9f58 803d 764e 033d c365 193e d78f ff3d
00000380: d764 0d3e ee08 34bd 9876 813d fb2b 8abb
00000390: 5ed5 2a3d de62 ccbc 60de 4a3e f489 7d3d
000003a0: 224d 9dbd 6c8e d33c 000f ccbd 40e3 943c
000003b0: c3ce ca3d 08e9 50bd aef9 c43d 34b6 cf3d
000003c0: e4cb 5cbe 6832 473d 8927 823c 8537 f03d
000003d0: 7e29 9f39 02d9 01bd 0273 443a d237 2b3e
000003e0: ef39 e73d 518e 0c3e 7001 b7bd a4fd e1bd
000003f0: 81b2 69bd b6e0 09be a16b 973b 310f 01be
0.023616197 -0.07188442 -0.02735405 0.027172837 0.017062882 -0.052409243 -0.03874698 0.05623449
0.03611177 0.008287387 -0.08017065 -0.048259348 -0.078903615 0.021229014 -0.035096835 0.009743798
-0.050799184 -0.0636257 0.060341377 -0.05196182 0.045219243 0.06999261 0.105448596 -0.008702338
0.037417762 0.25802314 -0.030349355 -0.12068579 -0.028086659 0.038709592 0.06562739 0.050639383
0.07377183 0.06489211 -0.12519035 0.03167755 -0.12085611 0.15212272 0.07525693 0.058199596
-0.06613811 -0.025687018 -0.10460207 0.17517433 -0.1723076 0.060299184 -0.007918582 0.051416494
0.0014188737 -0.0437888 -0.0830022 0.043931607 -0.038293988 -0.033132732 -0.028562974 -0.028687092
-0.124165416 -0.067811504 0.027940897 0.012410779 -0.13990545 -0.13803245 -0.10091728 -0.021279534
-0.08727153 -0.07898237 0.09119069 -0.14131536 -0.037097335 0.081647165 -0.033726566 0.025293
-0.05282806 0.069382034 -0.12360304 0.054475505 0.06802119 -0.027827857 -0.121785276 0.04737311
-0.051942274 0.03922348 0.16125514 -0.108472444 -0.040435903 0.16148269 0.10056858 -0.21563333
-0.07693233 -0.062230222 0.07915014 0.009157669 -0.07163933 -0.15113077 0.028111128 -0.06837143
-0.12876874 -0.07900078 -0.08136358 0.21218885 -0.07166559 0.015273281 -0.062022813 -0.020978607
-0.048444998 -0.032931235 -0.043873865 0.0690752 0.070419066 -0.09816667 -0.056090064 0.09385986
0.21219231 0.006376789 0.09571476 -0.025005 0.028865209 -0.004623447 -0.012848027 -0.053081926
-0.04505512 0.1637691 -0.04689979 -0.031086054 -0.16171545 -0.060375966 -0.030693 -0.0046175243
0.0645769 0.1338209 0.0060821623 0.23198603 -0.15849158 0.10249334 -0.16665192 -0.11084866
-0.1479777 0.06545338 0.017030656 0.03724048 0.020531079 -0.08327009 0.08598527 -0.06503477
0.044952862 -0.067725696 0.05219862 -0.10895337 -0.045955025 -0.02624484 -0.0032557433 0.08081922
-0.008261774 -0.017125515 -0.027059896 0.1503184 0.06214482 -0.18786839 -0.0966716 0.12870826
-0.05247625 -0.008602161 -0.0731104 -0.041892786 -0.045596387 -0.13633582 -0.06148703 -0.11654601
0.09797416 0.051172268 -0.1542616 -0.028826881 0.03517802 -0.01332617 0.026824648 0.08436241
0.032765385 0.045567233 -0.058640026 0.033819955 0.035728578 -0.06414902 -0.04197504 0.008047563
-0.12967727 -0.020487873 -0.039728332 0.093074545 0.1478163 -0.01970465 -0.07775512 -0.023349274
-0.0018383685 -0.0010635647 0.08336098 -0.12781872 -0.014619817 0.01847277 -0.1382526 0.021142768
0.042795748 -0.16312407 -0.120647386 0.0028562467 -0.06774665 0.038754642 -0.07473983 0.054301057
-0.09952461 0.0041166125 0.10258959 0.08760051 -0.113221996 0.06346455 -0.122879155 -0.12466303
0.027085029 -0.11565169 0.14977737 -0.04034566 0.06266903 0.032057248 0.14980225 0.12478607
0.13807999 -0.04395383 0.06321448 -0.0042166687 0.04170739 -0.024949487 0.19811392 0.06189914
-0.076807275 0.025824748 -0.099637985 0.018174767 0.09902718 -0.051003486 0.09617935 0.10142174
-0.21562153 0.048632056 0.015887992 0.117293395 0.00030357757 -0.031701095 0.0007493944 0.16720513
0.11290347 0.13726164 -0.08935821 -0.11034706 -0.057055 -0.13464627 0.0046209847 -0.12603451

action_model._discrete_distribution.branches.0.weight f4 [2, 128]
00000000: dd19 503c e0eb 63bc 8bd6 82bb 69d0 ba3c
00000010: 9c03 203c e881 c7bb bd0d d9bb 28e0 053c
00000020: c7da df3b ef92 c1bb d519 54bb 1ed7 a9b9
00000030: cb55 46bb 028f 13bc 6fb2 51bc 34b8 983b
00000040: aa1e 563b efeb 31bc 16ac 423c e1b8 433b
00000050: 285e 85bc 1794 5f3b cda7 5d3c 6936 1b3a
00000060: cc88 a53b b9c1 173c 0d1b 0b39 1801 e93b
00000070: 4d1f 99bc ca12 51bb 73b6 fdb8 e07f 273c
00000080: db47 98bb 9893 dfba c16f 35bc 6d0b ef3b
00000090: 63c1 68bc d578 56bb 13f4 c83b 0327 7d3c
000000a0: 8b83 42bc 0f61 253a 12e7 52bc 2c1f 09bc
000000b0: b276 2d3c bbe8 e3ba 4bf3 39ba 3ff9 24bc
000000c0: 51b0 003c 5d6b 34bc 02a0 1cbb 54e1 19bc
000000d0: 4b77 4fbb bd27 03bc 98e6 813c dfcf 2d3b
000000e0: 7210 7e3b 70b3 3fba 734f e5bb 05fd c63b
000000f0: 8b71 2ebc d7e5 453c 30c5 ccba 05ba 703c
00000100: 6070 61bc be56 03bb 3727 833b d2b9 52bb
00000110: 13df 983c bb14 513c d1a4 bd3b 232d 373b
00000120: fe99 443c 5ab1 70bb 05fa 163c fb25 44bc
00000130: a4da b5ba e746 4c3b a0bc d3bb 6f82 293c
00000140: a771 c7bb c7b0 0c3a bd32 e63b 0e7a 98bb
00000150: 7b49 903b e3e1 153c 88c6 adbb 6d48 8c3a
00000160: 1b97 223a 53de 33bc 7384 a93a 54df 2ebc
00000170: cb41 3fbc d765 b4bb 00c2 fa3a 2f97 6f3a
00000180: 41b9 2a3b 5f95 6abc ada5 3eba aacc 63bc
00000190: 50ba 883b 8a17 d3b9 0e10 bc3a 7d39 5cbc
000001a0: 6057 a6bc 38d5 61b7 214e a33b fb8e 78bb
000001b0: 279a 773c 2098 833a 1d32 34bb 133f 803b
000001c0: 1f12 17bc 647d 85bb bbf7 a33b 7174 22bc
000001d0: 0f71 aebb 45eb 8a3c 2bd6 073b e3e7 efbb
000001e0: 9360 03bc 0d87 afbb 1fdf b53b 1ef3 2fbc
000001f0: 4885 8739 3861 fb3b eb4d 6c3b 4bac bb3b
00000200: 5332 71bb a11e 3c3b 88e0 27bc 3dda 06bc
00000210: 2d93 ee3a 5719 043c 7917 0fbb 62a8 493b
00000220: 850c 3fbc 62c4 0e3c 8a62 c3bb cc66 47bc
00000230: e03d 263c e6f0 babb 1f3b ab3b fb4f b5bb
00000240: f894 323c b260 6b3a 2eb6 38bb 68ae 74bc
00000250: 3ba6 ac3b eec0 40bc e33a 8f3c 46f9 2f3c
00000260: e719 eb3a 841c bd39 0916 263c cb17 99b9
00000270: d817 563c d5ea 9fbb 63c7 45bc 1a0a ddbb
00000280: 7532 583c d47b c03b 8595 da3b 3c07 26bc
00000290: f65e b03b 8046 a3bb 002a 7a3b cb71 b13b
000002a0: 9b92 25bb 1a63 ef3b 4a06 4b3b ff97 d8ba
000002b0: 6831 7fbb 2dde 5dbc d998 93bb c3af 033c
000002c0: 7f0d 91bb 0318 273b 4b00 60bb bb0c 29bb
000002d0: fbbf 87bb f954 833a acb0 903b ddbe 3f3c
000002e0: 7564 6ebc c45b c3bc 7741 19bb aff4 efba
000002f0: 4f79 d1bb 6470 8339 985f e23b 3ce4 cb3a
00000300: 7ff2 773c af57 87bb f285 faba da25 513b
00000310: 5c1d 893c a38a 55bb 9e72 80bb 6057 b63b
00000320: bba5 853b 8d59 b6bb c17b 153c 3826 363c
00000330: 9b08 6ebb 85dd 403c 8c77 a83b 13bf 6d3a
00000340: 8ad4 2aba eee4 8a3c 4420 83ba a3cd 063c
00000350: becc adba 235f 9eba a718 caba 0da2 5f3a
00000360: 1428 09bc 0cee af3b 1d6c a83a 6120 bfbb
00000370: 134a 133c b8cb 93bb 17e8 5f3b ff4f 5c3c
00000380: 551d b1ba d2a5 e4bb df1e 0cbb b1ac 173c
00000390: eb5c 80bb 4f60 0bbc 93fb 4e3b b9a8 393b
000003a0: 5015 283c d35e 4d3b b3c4 b0ba e3e7 a23c
000003b0: 6a44 5a3c 35be f73b 40a9 703c f1cd 083c
000003c0: 0e15 1b3b a2c5 5bbb 5b0c 36bc e028 4d3c
000003d0: d098 cebb 6617 853c 67b5 babb 6298 2abc
000003e0: 1f43 07bb 9716 fdbb 329a f8ba c74b 523b
000003f0: 9dbb 6d3c e719 1b3a 44d9 acbb 450c 73bb
0.012701479 -0.013911217 -0.0039928607 0.022804456 0.009766486 -0.006088484 -0.006623952 0.008171119
0.0068315 -0.0059074084 -0.003236403 -0.00032394467 -0.003026354 -0.009006264 -0.01279889 0.0046606306
0.0032672086 -0.010859474 0.011881849 0.0029864835 -0.016280249 0.0034115368 0.013528776 0.00059208885
0.005051708 0.009262496 0.0001326615 0.007110726 -0.018691683 -0.0031902068 -0.00012097964 0.010223359
-0.0046472377 -0.0017057536 -0.0110740075 0.007295063 -0.014206263 -0.003272583 0.0061326115 0.015451196
-0.011872183 0.00063087133 -0.012872474 -0.008369248 0.010587381 -0.0017388085 -0.00070934434 -0.0100691905
0.007854537 -0.0110119255 -0.0023899083 -0.009392101 -0.0031656798 -0.00800508 0.015857026 0.0026521606
0.0038767126 -0.000731281 -0.0069979965 0.0060726427 -0.010647188 0.012078724 -0.0015622731 0.014692788
-0.013759702 -0.0020040716 0.0040024775 -0.0032154215 0.018661058 0.01276129 0.00578747 0.0027950488
0.011999605 -0.0036726804 0.009214883 -0.011971946 -0.0013874364 0.003117019 -0.006461695 0.010346039
-0.0060865465 0.0005366918 0.0070250914 -0.004653222 0.004403291 0.009148094 -0.005303208 0.0010702737
0.0006202326 -0.010978299 0.001293315 -0.010673363 -0.011673401 -0.0055053043 0.0019131303 0.00091396546
0.0026050361 -0.014317839 -0.00072726124 -0.013903776 0.004172601 -0.00040262594 0.0014348046 -0.013441441
-0.020305336 -1.3460689e-05 0.004983679 -0.003792702 0.015112436 0.0010039844 -0.002749569 0.003913769
-0.009220629 -0.0040737856 0.005003897 -0.009915457 -0.005323536 0.016957888 0.002072702 -0.007321344
-0.008018631 -0.0053566755 0.0055502797 -0.010739116 0.0002584851 0.0076715015 0.0036057185 0.005727326
-0.0036803677 0.002870478 -0.0102464035 -0.008230743 0.0018201821 0.008062682 -0.002183406 0.003077053
-0.0116607 0.0087138135 -0.0059626745 -0.012170505 0.010146588 -0.005704987 0.0052255536 -0.005533216
0.010899775 0.00089789473 -0.002818476 -0.01493416 0.0052688397 -0.011764748 0.017484134 0.010740584
0.0017936797 0.00036070135 0.0101370895 -0.0002920016 0.013067208 -0.004880289 -0.012071463 -0.006745589
0.013195624 0.0058741365 0.006670656 -0.010133561 0.005382414 -0.0049827695 0.0038172007 0.0054151765
-0.0025264386 0.007305515 0.003097909 -0.001652479 -0.003893936 -0.01354174 -0.004504305 0.00803751
-0.0044266577 0.002549649 -0.0034179862 -0.0025794941 -0.004142759 0.0010019831 0.004415592 0.01170322
-0.014550318 -0.023847468 -0.0023384967 -0.0018307174 -0.006392635 0.00025070005 0.0069083683 0.001555569
0.015133499 -0.0041303257 -0.0019113405 0.003191343 0.016737632 -0.0032583855 -0.0039199134 0.005564615
0.0040785945 -0.0055648745 0.0091237435 0.0111175105 -0.0036321047 0.011771564 0.005141204 0.0009069305
-0.0006516656 0.016954865 -0.0010004123 0.008227739 -0.001325987 -0.0012082796 -0.0015418724 0.00085309224
-0.008371372 0.0053689536 0.0012849603 -0.0058327173 0.008989829 -0.004510369 0.0034165436 0.013446807
-0.001351277 -0.006977775 -0.0021380705 0.009257481 -0.0039173267 -0.0085068485 0.0031583055 0.0028329326
0.010258988 0.0031337037 -0.0013486355 0.019885963 0.013321975 0.0075605162 0.01468879 0.0083498815
0.0023663673 -0.0033534546 -0.011111344 0.012521952 -0.0063048378 0.016246509 -0.0056978944 -0.010412307
-0.0020639373 -0.00772364 -0.0018966852 0.0032088624 0.0145100625 0.00059166405 -0.0052749235 -0.003708617

action_model._discrete_distribution.branches.0.bias f4 [2]
00000000: 0000 0000 0000 0000
0.0 0.0

action_model._discrete_distribution.branches.1.weight f4 [2, 128]
00000000: 4798 9c3a 70fb ceba e309 c73c 4510 7b3c
00000010: ae0a 9d3a 4791 d33b 9b59 78bc 879c 063b
00000020: bf0b fbba 71a3 18bc b3d9 c0bb 97c5 bd3a
00000030: 1aa5 2ebc 5b77 be3b 8a5b 683c ab27 7c3b
00000040: 92a7 a3bc 7b7b ecbb f183 0fba 27fe 8cbb
00000050: a396 2c3c 3e98 3abc afa0 d0bb 8c0b 3a3b
00000060: 9784 75bc 47b6 b0bb c33f f43b b3b8 563a
00000070: 67df e33a d73f 03bc 9c77 96b9 8bba 9cbb
00000080: ab76 4b3c f56f 47bb af06 eebb 8562 0dba
00000090: adb8 d8ba a203 deba 1a8e 233c d346 243c
000000a0: a5ee 4d3c f385 b43a ba52 ce3b 222f 0c3c
000000b0: 4781 b93b 533d 9d3c cbd3 923c 875b f43a
000000c0: 3b64 163c e75f 02bc ffa1 22ba 08d3 8c3b
000000d0: 9df0 023b 488b 5e3b 63b0 533c a77b 47bc
000000e0: 4381 633c a3fc 7b3b 46c6 aa3b bd01 0d3c
000000f0: 9a33 a53b 00be 14bc 5008 f2bb 39d0 04bc
00000100: 77f0 48bc 293e 0dbc 0764 f03b 72d3 023c
00000110: 9b70 763b 4f66 f3ba 4313 a53b 567c 9a3b
00000120: 8361 2dbb f351 e63b 87b6 17bc 8aac 6d3b
00000130: e259 ce3a 0b39 f039 c52f 63bb 5d45 673c
00000140: 2e21 14bc e0c0 84bb 6525 3fbb 7275 54bc
00000150: 2c6a 483b 4605 a13c 2d33 563c 1963 843c
00000160: 4feb 61bb 8f04 8ebb 03c8 953b 7301 61bb
00000170: 83bb d13b bd9a 9f3b 4be3 03bb 6ac7 0bbb
00000180: 2095 3fbb 1a76 433c e433 30bc 654f 5dbc
00000190: 5181 0a3c 2bcf d63b e5f8 eabb 2fd5 7dbc
000001a0: 4ef0 2dbc 4d4d cf39 c77e 2b3c 5ab2 5abc
000001b0: 007a 3d3c 9f94 0a3b 073c 053c 46f2 25ba
000001c0: 639d 34bc 4a96 ad3c b727 50b8 a349 9e3b
000001d0: b766 e3bc c74a 283c b50d 873b 7a90 9ebc
000001e0: befd 8a3b 251d abbb bb28 7c3b 4b0e 133b
000001f0: c409 0b3c bb85 4abc bbde 91bc 2854 8ebc
00000200: 4308 4fbc c038 02bc fef9 2c3a 366e 42bb
00000210: 4feb 143b 97c7 8bbc fdd4 953c 7292 e5bb
00000220: a264 66bc d104 923b 2daa 3fbc bc42 99bb
00000230: 1db7 593c 4f32 9abb 837d 3b3a 6b01 e53a
00000240: d239 353c 0eb8 99bb 5742 8dbb 4b8f 89bb
00000250: 4048 0dbc fbba 48bc 49ae 243c ddd7 adb9
00000260: 84fe a23b f3b6 7c3a bef8 983b f775 713b
00000270: 62cd b63c 65dd 40bc db8d 113b d3db 3dbb
00000280: 253e 583c 1849 7f3c d26b 11bc 83c8 583b
00000290: f261 553a 2b53 e9bc 2ff2 01bc dd40 37bb
000002a0: 22fa 6bba b37d 833b 7ae7 7c3a 97de eb3a
000002b0: d3e6 78bb 7773 e53b 4345 37bc e996 3f3b
000002c0: 8611 95bb 22dc 65b9 3bf1 debb c339 98bb
000002d0: 6719 64bb aa7a 533c 902e 673b 705a 82ba
000002e0: f726 dd3a ab71 7a3b cb39 903b 51ec 9e3b
000002f0: 7a2d 0dbc 7898 ddba fd21 df3b 521a 823a
00000300: 8b3d bbbb 8c62 8fbb d230 14bb 9f3c 983b
00000310: 5fca 2b3c 60ba 45bb b395 a53b 7681 8bbc
00000320: 085f 063c ccab 9eb6 6da8 443a 675b 29ba
00000330: 4060 85bc 10bf 4dbc 2797 a23b e794 853c
00000340: 3719 e23a f705 1ebb 92b8 c73a 1329 f0bb
00000350: 07cb 51bc 1640 bdbb 9f19 e73b 19aa 28bb
00000360: d3d1 523a 6085 783c f90c 103b bd3c 91bb
00000370: 65ad 5fbc 045f 2cbc 3729 b1bc 5f23 8c3a
00000380: caf6 ecba d30f b0b9 72fa 843c 8700 03bc
00000390: daa5 e83b 2f20 323c 6bd5 28bc 4803 ce3a
000003a0: 2fe0 a53a 4866 a23c cfed e43a 4316 8d3c
000003b0: 94a3 383c f7b2 163c 9105 a6bb e134 153b
000003c0: 5af5 f739 555e 073c 7dba 99bb 30f4 7abb
000003d0: 8f4d 77bc 6409 b0bb b7c3 dcbb 7d82 af3a
000003e0: fa06 6f3c f59e 4ebb 2f11 123c 63c8 02bb
000003f0: 0f10 753c 153d 1e3c 6a8a 76bc bfe1 1abc
0.0011947238 -0.0015791487 0.024296707 0.015323703 0.0011981332 0.0064565274 -0.015158082 0.0020540075
-0.0019153281 -0.009316311 -0.005885327 0.0014478442 -0.0106594805 0.005812568 0.014181981 0.0038475792
-0.019977365 -0.0072168685 -0.0005474678 -0.0043027583 0.0105339615 -0.011388836 -0.006366811 0.002838823
-0.014985225 -0.005392823 0.00745389 0.00081909745 0.0017385305 -0.008010826 -0.00028699345 -0.00478298
0.012418429 -0.0030431722 -0.0072639803 -0.00053934037 -0.001653453 -0.0016938339 0.00998261 0.010026651
0.012569104 0.001377283 0.006296483 0.008556159 0.005661163 0.01919428 0.017923256 0.0018643
0.00917917 -0.007957435 -0.0006203949 0.004297618 0.0019979842 0.003395753 0.012920472 -0.012175477
0.013885799 0.0038450144 0.0052116243 0.0086063715 0.005041552 -0.009078503 -0.007386245 -0.008106285
-0.012264363 -0.008620777 0.007336143 0.007984983 0.003760374 -0.0018569919 0.0050376966 0.004714529
-0.0026455827 0.007028812 -0.0092598265 0.0036266171 0.001574334 0.00045818868 -0.0034665924 0.014115659
-0.009041114 -0.004051313 -0.0029166576 -0.012967454 0.0030580861 0.019655835 0.013073725 0.016160535
-0.003447253 -0.0043340395 0.0045709624 -0.003433314 0.006400527 0.004870741 -0.002012449 -0.0021328577
-0.0029233173 0.011930013 -0.010754559 -0.013507699 0.008453683 0.006555458 -0.007170784 -0.015492721
-0.010616375 0.0003953971 0.010467238 -0.013348186 0.011564732 0.0021145714 0.008131987 -0.0006330352
-0.011023852 0.021189827 -4.962805e-05 0.0048305555 -0.02775894 0.010271735 0.004121507 -0.019356001
0.004241674 -0.00522198 0.0038476426 0.002243894 0.008486215 -0.012360985 -0.017806401 -0.017374113
-0.012636247 -0.007948101 0.0006598531 -0.0029667742 0.0022723263 -0.017062945 0.018290037 -0.007005983
-0.014062079 0.0044561406 -0.011698288 -0.004677145 0.0132882865 -0.0047057043 0.00071521866 0.0017471736
0.011061149 -0.0046911305 -0.004310887 -0.00419799 -0.008623183 -0.012251611 0.010051318 -0.00033157962
0.0049741883 0.00096402987 0.0046683243 0.0036843994 0.022314731 -0.011771535 0.0022209797 -0.0028970137
0.01319841 0.015581392 -0.008875804 0.0033078499 0.00081399 -0.02848204 -0.007931276 -0.0027962246
-0.0009001811 0.0040127872 0.000964753 0.0017995414 -0.0037979379 0.00700229 -0.011185947 0.0029234237
-0.004549208 -0.00021921148 -0.0068036593 -0.0046455576 -0.003480518 0.012907663 0.0035275556 -0.0009945165
0.0016872574 0.0038214724 0.0044014207 0.0048499485 -0.0086167995 -0.0016906401 0.0068094716 0.0009926057
-0.0057141236 -0.0043757614 -0.0022612107 0.0046458985 0.010485261 -0.0030170903 0.005053246 -0.017029505
0.008201368 -4.7287667e-06 0.0007501904 -0.00064604584 -0.016281247 -0.01255776 0.0049618664 0.016306354
0.0017249946 -0.0024112442 0.0015237501 -0.007329115 -0.012804753 -0.005775462 0.007052615 -0.0025736152
0.00080421305 0.015168518 0.0021980389 -0.0044322894 -0.01365218 -0.0105207 -0.021626098 0.0010691694
-0.001807892 -0.00033581126 0.016232703 -0.007995731 0.007099849 0.010871931 -0.010304789 0.0015717531
0.0012655313 0.019824162 0.0017465892 0.01722253 0.011269469 0.009197942 -0.0050665815 0.0022767114
0.00047294312 0.008262237 -0.0046914206 -0.003829252 -0.015094175 -0.005372213 -0.006737198 0.0013390329
0.014589066 -0.0031527851 0.00891523 -0.0019955866 0.014957442 0.009658118 -0.015047649 -0.009453236

action_model._discrete_distribution.branches.2.weight f4 [2, 128]
00000000: efbd 1c3a 0d78 e63b 3475 8339 6347 50bc
00000010: 1412 31bc ab92 74bc ad15 debb 0526 003a
00000020: ab09 0f3a 83ca 023c b4cd 33bb 7c4a cb39
00000030: 61e6 013c 9166 4aba 98d4 e43b 8a81 623b
00000040: 74e7 c1bb 0ee5 0a3c 4af6 a2bb 93b8 11bb
00000050: 0b30 d1bb d3a1 b83b b8a1 31bb 7955 b93b
00000060: f398 a3bb 8183 453c c359 3fbc c712 4c3b
00000070: ab58 13bb 2071 5bbc 5bc4 7a3b 02c2 76bb
00000080: 1424 bb3c a7e3 65bc 770f e43b 5cca b1bc
00000090: 6e39 c1ba 8d70 6f3a c3de 7cbb b433 c5bb
000000a0: 8bb2 6ebb a544 5c3c 15bb 5d3c 682a 653b
000000b0: 58f3 80bc 1031 ddbb 73bb c4b9 0263 213c
000000c0: df0d 28b9 65c5 db3b e004 4e3c bde2 373c
000000d0: 48c8 d5bc d4ea 06bc 7545 8dbb 80c5 4abc
000000e0: 310b 9fbb ea74 70bb 30a5 11bc b304 96bc
000000f0: 4577 833a af7a b33a 8abf 833b af0e 26bc
00000100: 8d49 68bc 0e74 403c 28c2 febb d537 8f3b
00000110: 1b97 2f3c 6f44 153c 5912 a4bb c3b5 053c
00000120: 3b64 13bc 7e14 04bc 274a 333c d021 31bc
00000130: 2dc5 5b38 5343 f3ba 9bd3 07bc 3029 f8bb
00000140: b9ef ac3b 3b78 543c cd18 8bbb 68e4 78ba
00000150: fe4e 913c aad7 9c3b f60b 8f3c 0c9f 09ba
00000160: ff03 16bc ec2a 3e39 cb5f 37bb 7d34 a33b
00000170: f0a8 d03b 1f24 693c f3fd 463c 58eb 273b
00000180: 8f3d d439 85ab a93a 7320 9bbb 50aa d03b
00000190: 0bdb 413b 3591 983b 84c1 333c e221 acbc
000001a0: d434 303b fb41 1bbc a096 cebb 511b 96bb
000001b0: 20af 93bb 1f22 b0bb 69d7 303c 51d2 803c
000001c0: 93c5 27bc 822e 323c a822 753b 6db6 fcba
000001d0: 49df 9239 9519 e43a a7dc 753c 9e72 8f3a
000001e0: b35f 3c3c 76e9 85bc 6231 023c 43ed be3c
000001f0: 5ba5 653c b176 083c d74b 45bb 9369 7dbc
00000200: c79d bb3b 2a5b 953c 62e0 f6bb 7b3b ce3a
00000210: edf9 26bc cbe3 9dbc 715f 1c3c 9c0d 29bb
00000220: 8af7 b239 cb1d 45bb 13ff e8bb 271f eb3a
00000230: 2102 c7ba 6663 9cba 1a6e 203a c448 48bc
00000240: 957d f8bb b557 6a3b 47be 40ba ed92 33ba
00000250: 0b3b 693a b0a1 223b ff75 f23b 6211 e63a
00000260: bab6 b1bc 4be2 03bc 6070 d4ba 47d1 feba
00000270: 57c0 95bc e7a5 1c3c ffa5 7d3b 676a 91bb
00000280: 5a29 6d3c b1df 24ba 026c d039 8726 a23a
00000290: 69d8 3cbc e47b 3abc ef23 bebb 82ff e73b
000002a0: 80eb 113b 5058 8a3c a1e1 14bb 4f3e ebba
000002b0: 4256 d3b9 48d8 5e3b 74d4 2a3c bb61 dfbb
000002c0: 59ec 0f3a 29d0 c4bb d2cc 8a3b c730 aebb
000002d0: 2b54 513c 1529 32bb f3dd 11ba 3dc6 88bb
000002e0: 47a1 bd3a 675b 01bc db2e deba 71db 813c
000002f0: 8f5d b0bc 0375 86bb 5f8a 5fba f152 493c
00000300: 3bdd 493c bf17 023c 7a50 dd3c 1a41 c23b
00000310: 3617 bfbb 2e9f 14bc a79b 63ba abac 803c
00000320: 8337 86ba 5b8b 1e3c 8847 f4ba ab6b 8cba
00000330: 1bf4 193c c016 72bb c7ab b63c 4343 093b
00000340: 612a 243c 7261 52bb 083c e33b dff3 05bc
00000350: cb27 68ba 38ae 673b 9308 173c 458b 503b
00000360: 33e6 083c 3656 19bb ba25 513b fafb 5abc
00000370: 3660 223c 93d0 883b dd7f 9eb9 da30 febb
00000380: 8ff3 95bb 40a2 073c 1e34 a33b afee e4bb
00000390: 333f 0bbc 0755 683b 4b68 8c3b cdd5 93bc
000003a0: 77c3 ca37 d8e2 493b 2f53 5dbc 57c0 ae3b
000003b0: 399d a83b 3973 b1ba 1fbd 803c 9a70 893b
000003c0: 69ab 3b3c 4aa1 fbbb 8876 82bc 0bcc 5c3b
000003d0: e2a5 1abc ec3c 98bb cbf2 9ebb 2de6 d43a
000003e0: 9b48 393b 45a0 703c 9e30 9dbb 1b24 af39
000003f0: a9f1 873b dce6 013c f1e5 11bc 7f7b c2bb
0.000597923 0.007033354 0.0002507359 -0.012712332 -0.010807533 -0.0149275465 -0.0067774863 0.0004888478
0.0005456458 0.007982853 -0.002743584 0.00038774672 0.007928462 -0.0007720972 0.006983351 0.0034562075
-0.005917484 0.008477462 -0.0049732076 -0.002223526 -0.006383901 0.0056345253 -0.0027104449 0.005655941
-0.004992598 0.012055279 -0.011679116 0.0031139122 -0.002248327 -0.01339367 0.003826401 -0.0037652259
0.022844352 -0.014031327 0.0069598514 -0.021702938 -0.0014741847 0.0009133898 -0.0038584925 -0.0060181264
-0.0036422338 0.0134441005 0.013533373 0.0034967903 -0.015741035 -0.0067502335 -0.00037523694 0.009850265
-0.00016026896 0.006706881 0.0125744045 0.011223492 -0.026096478 -0.008234698 -0.0043112584 -0.012376189
-0.004853629 -0.003669078 -0.008889481 -0.018312788 0.0010030052 0.0013693179 0.004020636 -0.010135337
-0.014177692 0.01174642 -0.00777461 0.0043706694 0.010717179 0.009110554 -0.00500707 0.008161011
-0.008996065 -0.008061526 0.010942972 -0.010811284 5.2397303e-05 -0.0018559493 -0.008290197 -0.0075732693
0.0052776006 0.012968118 -0.0042449 -0.00094944844 0.017737862 0.0047864513 0.017461758 -0.0005249835
-0.009156226 0.00018135802 -0.002798068 0.0049806223 0.006367795 0.014229803 0.012145507 0.0025622454
0.00040481656 0.0012944794 -0.004734093 0.006367959 0.0029580023 0.004655982 0.010971431 -0.02101225
0.0026886957 -0.00947618 -0.006304577 -0.004580893 -0.0045069605 -0.0053751613 0.010793545 0.015725287
-0.010239976 0.010875346 0.003740469 -0.0019280441 0.0002801365 0.0017402644 0.015006221 0.0010944193
0.011497426 -0.016346674 0.007946344 0.023306495 0.014016475 0.0083290795 -0.0030105019 -0.015467065
0.0057255956 0.018231947 -0.0075340727 0.0015734279 -0.010191423 -0.01927366 0.009544239 -0.0025795465
0.00034135237 -0.0030077572 -0.0071104853 0.0017938361 -0.001518313 -0.0011931479 0.0006119922 -0.01222438
-0.00758333 0.0035757844 -0.0007352572 -0.0006850202 0.0008897043 0.0024815612 0.00739932 0.0017552788
-0.021693576 -0.008049558 -0.0016207807 -0.0019441032 -0.018280191 0.009561039 0.0038703678 -0.004437733
0.014475191 -0.0006289436 0.00039753324 0.0012371101 -0.011526206 -0.011382077 -0.0058026235 0.0070800195
0.0022265613 0.016887814 -0.0022717493 -0.0017947647 -0.00040309323 0.0034003425 0.010426629 -0.0068170703
0.00054902356 -0.00600626 0.0042358423 -0.0053158733 0.012776415 -0.0027185131 -0.0005564384 -0.0041740225
0.001446762 -0.007895327 -0.001695122 0.015851708 -0.021528987 -0.0041033044 -0.0008527394 0.012287841
0.012320812 0.007940232 0.027015913 0.005928171 -0.0058316244 -0.0090711545 -0.0008682557 0.015707335
-0.0010239932 0.00967678 -0.0018637041 -0.001071324 0.009396578 -0.003693983 0.022298707 0.0020944632
0.01001987 -0.003210154 0.0069346465 -0.008175819 -0.0008856027 0.0035351645 0.009218353 0.0031821292
0.008355665 -0.0023397333 0.0031913356 -0.01336574 0.009910634 0.0041752546 -0.00030231374 -0.0077572884
-0.0045761536 0.0082784295 0.004980578 -0.006986461 -0.008498955 0.003545107 0.0042848936 -0.018046284
2.4171297e-05 0.0030805375 -0.013508602 0.0053329873 0.0051456955 -0.0013538367 0.01571518 0.0041943314
0.011454442 -0.0076791393 -0.01592566 0.0033690955 -0.009438964 -0.0046459343 -0.0048507205 0.0016242914
0.0028272036 0.014686649 -0.0047970554 0.00033405502 0.004148681 0.007928576 -0.00890492 -0.005935132

action_model._discrete_distribution.branches.3.weight f4 [2, 128]
00000000: d762 f738 e707 a1bb b0c6 a7ba f8ff d6b7
00000010: 7793 0abb 6968 02bc 10db 5bbb 1535 8a3c
00000020: a266 d0ba c94b a53b 2f0b e5bb 66d4 083c
00000030: 3d96 3f3a 61b3 c1bb d710 a439 b107 0dbb
00000040: cb50 c7ba d111 233c 32ec 67bb e066 6abc
00000050: d77c 543a 353d 7bbc 614c 803c bd04 4bbc
00000060: e5e0 60ba 02a0 c23b 9e30 263c d33b 30bc
00000070: aa99 31bc cb4e 47bc 63fe 7f3c b31e 043b
00000080: 66fb a53b 9b87 383c 57c4 8db9 306d 7bbb
00000090: 55dc 183b f07a 883b 5332 b6b8 60f2 f43a
000000a0: aa2f df3b 4873 49bc 770b 9abc 7d7a 403b
000000b0: 9f8a a7bc b5ca b2bb f339 71bc d046 393c
000000c0: 4b18 26b9 0a8e 4cbb 3b10 0f3b a709 bb3b
000000d0: 8329 a1bb a4d6 02bc b515 333b 379f 493b
000000e0: e290 253c e84d 003b 4a66 6a3c bfca c03b
000000f0: fad4 1a3c 6a3b cb3a ca62 dcbb 0c52 383c
00000100: a580 14bc 95d2 c8bb 7230 65bb 4c26 273c
00000110: a7e9 5c3b e3c9 b63a 76ad 1e3c 8c7b 84bc
00000120: b1d5 9b3b 4f08 5f3b b8a8 2cbb df1d dfbb
00000130: fa2c 843c e535 fb3b 7b8a 223c ad56 75bb
00000140: 42c3 2bbc d367 e43b e6a1 3f3b 22cd dc3b
00000150: c3ec a9bc 831e c338 b943 b1bb 3c73 0e3c
00000160: 92f7 dfba 6fa5 463b 033a 40bc 4b9d 823a
00000170: a0ca 5dbb ab29 b03b b7f1 7bbc ec4d aabb
00000180: 9575 ad3c 85b2 f7ba 7f46 46bc df50 123c
00000190: e852 32bc 3d61 2c3c 159b 953c 6b97 d6bb
000001a0: 4343 b0bc 04e4 a6bb 2535 72ba c627 43bc
000001b0: ea7c a83a 311d 23bc 27fd b3bb aa3e 63bb
000001c0: ffaa ad3b 4f66 da3b e8d7 893b 0d3c 66bc
000001d0: fd95 573c 4c31 453b 6bbc bcbb d863 623c
000001e0: 27b1 b53b 4fea 133c 934a b13b 7515 fc3b
000001f0: 7822 bcbc 079e ce3b 3d0f 7f3b 9476 133c
00000200: 80d1 61bc c641 0a3c cb0d 16ba 5b14 18bc
00000210: 0faa ebbb 072b ba3c 17ef 6e3c dbe4 443c
00000220: 8987 2c3c 5882 2cbc fd8a 3abb db83 033c
00000230: 8419 363c 86c0 89bb 77bd a1bc d81d 94bb
00000240: 3543 533c 0888 7b3c 3831 58bc 4ace d3ba
00000250: 772c 023b 2d20 6bbc 77b6 12bc 23ef 9c3b
00000260: ba66 83b9 cd8a 50bb 1dd4 8d3c a033 69bc
00000270: cb58 1fbc d204 563c 4dec df3b 30fa 743c
00000280: 9e68 b63b a346 2c3a cb1d 03bc aab2 d83b
00000290: e172 08ba 874c 043a 548e 323c be04 0a3b
000002a0: 7243 cf3b 828c 7cbc ad78 8cba a0e9 e53b
000002b0: 8843 f5b9 779e 9e3b 0bb8 c63a 8f58 23bc
000002c0: 8a88 e63b 158d adbb 273f 85bb b709 3dbc
000002d0: 0270 603b 73d3 6abb 1b55 27bb a377 e5ba
000002e0: 1584 63bc 4b44 f0bb cf79 caba 94b0 1ebc
000002f0: 2695 01bc 99e8 b2bc 3f29 433b d17c c73a
00000300: 522d 383c ff73 0bbc 7bf6 3f3c c021 8e3c
00000310: 5024 2b3c 079c 2e3c 93b6 e53b 7618 c0bc
00000320: 5d3f d7bb 437a 583b 0de2 6b3b 23c4 80ba
00000330: 73a0 31ba 7946 c6bb 1ea1 803b 39d0 c43b
00000340: 32f5 883b ce92 cbbb cd81 6cb9 5fe0 52bc
00000350: 7ade fbba c352 3dbb 6085 7d3c 2fa8 0a3c
00000360: c792 083b ff28 23bb 8c81 943c 4c24 88bb
00000370: 3cb0 1c3b badf 7b3a c2fb 57bb 1745 41bc
00000380: a7bc 93bb e8c7 de3b 935a 4abc c23e d0bb
00000390: a5f3 b83a aa5b 5bbc 59fa 10bc cb8c 843c
000003a0: f965 13bb 61f1 18bc 0505 41bb 1ada 51ba
000003b0: 42ce fbba 43c7 093c 3daa 66bc 6fdf fbbb
000003c0: cbc9 10bc 9384 823a 881b 963b 5333 c1bb
000003d0: 7a77 6d3b 1a28 5a3b e072 5c3c 9496 c0bb
000003e0: c781 a43c ba62 8cbb 61b7 963a a050 4fbc
000003f0: 372e 8bbc dfff 59bb 3b72 8ebb def7 423c
0.00011796288 -0.004914272 -0.0012800302 -2.5629983e-05 -0.0021145025 -0.007959464 -0.003354732 0.016871015
-0.0015899728 0.0050444347 -0.0069898586 0.008351421 0.0007308459 -0.005911276 0.00031293064 -0.0021519477
-0.0015206573 0.009952978 -0.0035388586 -0.014306754 0.0008105761 -0.015334417 0.01566142 -0.012391266
-0.0008578434 0.0059394846 0.010143427 -0.010756451 -0.010839859 -0.012164782 0.015624615 0.00201599
0.0050653694 0.0112628 -0.000270399 -0.0038364641 0.0023324687 0.004165046 -8.68781e-05 0.0018687956
0.006811102 -0.012295552 -0.018804295 0.0029369884 -0.020451842 -0.0054562935 -0.014723289 0.011308387
-0.00015840043 -0.0031212592 0.0021829742 0.0057079378 -0.0049182787 -0.007985745 0.002732617 0.0030765065
0.010105344 0.0019577686 0.014306614 0.005883544 0.009450192 0.0015505378 -0.0067256438 0.01125003
-0.009063874 -0.006128619 -0.0034971503 0.010202002 0.0033708604 0.0013945665 0.009684911 -0.016172193
0.0047556986 0.0034032052 -0.0026345681 -0.006808981 0.016134728 0.007666337 0.009920712 -0.0037435696
-0.010483565 0.0069703846 0.0029240786 0.006738321 -0.02074278 9.304008e-05 -0.0054096845 0.008694466
-0.0017087332 0.0030311008 -0.011732581 0.000996509 -0.0033842698 0.005376061 -0.0153774535 -0.0051972773
0.021174232 -0.0018897807 -0.0121017685 0.008930414 -0.010884024 0.01052123 0.018262425 -0.006548812
-0.021516448 -0.0050930995 -0.00092394865 -0.011911338 0.001285461 -0.00995569 -0.0054928246 -0.0034674802
0.0052999253 0.006665028 0.0042066462 -0.014052403 0.013158319 0.0030089198 -0.005759766 0.01381775
0.0055448 0.0090280315 0.0054105013 0.0076929876 -0.022965655 0.0063054594 0.0038918995 0.009000439
-0.013782859 0.008438533 -0.0005724101 -0.009282197 -0.0071919034 0.022725595 0.014583371 0.012017454
0.010530361 -0.010529123 -0.002846419 0.008027042 0.011114482 -0.004203859 -0.019743664 -0.004520159
0.012894441 0.015352257 -0.013195328 -0.0016159501 0.001986293 -0.014350933 -0.008954636 0.0047892495
-0.00025062804 -0.0031821013 0.017313058 -0.0142335 -0.00972576 0.013062673 0.006833589 0.0149522275
0.0055666706 0.0006571805 -0.008002709 0.0066130953 -0.00052051066 0.0005046804 0.0108981915 0.0021059955
0.006325179 -0.015414359 -0.0010717117 0.0070163757 -0.00046780356 0.004840668 0.001516105 -0.0099698445
0.0070353197 -0.0052963593 -0.0040663662 -0.011537961 0.003424645 -0.00358316 -0.0025532905 -0.0017506968
-0.013886471 -0.00733236 -0.0015447679 -0.009685654 -0.007909095 -0.021839427 0.0029779223 0.0015219693
0.011241274 -0.008511542 0.01171648 0.017350078 0.010445669 0.010657317 0.00701029 -0.023449164
-0.006568833 0.0033031858 0.003599289 -0.0009824078 -0.0006775923 -0.0060508815 0.0039254567 0.0060062674
0.00417962 -0.006212569 -0.00022555068 -0.012870877 -0.0019216083 -0.002888844 0.015473694 0.00846295
0.002083944 -0.0024896262 0.018128179 -0.0041547175 0.0023908755 0.0009608228 -0.0032956456 -0.011796257
-0.004508573 0.006798733 -0.012350696 -0.0063551376 0.0014110698 -0.013388554 -0.00884875 0.016180417
-0.00224912 -0.009334893 -0.0029452455 -0.0008005217 -0.001921125 0.008409324 -0.014078674 -0.0076865475
-0.008837174 0.0009957723 0.0045809187 -0.005896011 0.0036234544 0.0033288063 0.013455123 -0.0058773253
0.020081414 -0.00428423 0.0011498743 -0.0126535 -0.01698981 -0.0033264083 -0.0043471134 0.011899916

action_model._discrete_distribution.branches.4.weight f4 [2, 128]
00000000: 673d 44bc 3c37 3fbb 569b 823c 1406 94bc
00000010: 1fc0 94bc a48b 0e3c 6146 4cbc 6e64 42ba
00000020: 3508 093c cbfb 3e3c 57f7 103c 7342 353a
00000030: 83fb 9abb bfb9 0e3b 4c48 1a3a fb62 86bc
00000040: 5f84 cebb 13fb 193c 56b4 25bc 8b02 8cbc
00000050: c100 abbb 856f 173c 32d8 57ba 9279 f23b
00000060: 1e87 293c 936a 023b 6052 88bb 4250 6e3b
00000070: 89b3 a8bb 0136 033c 3ad7 6a3a 9211 d53b
00000080: 3603 90b9 7b1f 26bc 2dfb 0c3c dbd5 923c
00000090: b5c4 873c 9da3 3a3b 912c 8e3b 684b 4fbc
000000a0: e7c4 3eba 944e 133b b8f4 83bb 7ecb 42bb
000000b0: 623d 523b ee83 b5bb 2f5a e2bb 0233 24bc
000000c0: 0f65 fc39 5816 f53b 4b63 1dbb d7dd f23b
000000d0: 6338 253c 6d6d 393c e246 463c 03ee 85b9
000000e0: c400 0ebc 7d7b 613b 8715 4bbc b942 46bb
000000f0: 6898 8b3c 7360 44bc 2239 7ebc a0e0 b1bb
00000100: 559d 25ba d056 f9bb c6f3 013c 18d6 59b9
00000110: 8363 d8b8 523a 72bc b89d fe3a 65a9 63bb
00000120: 562a 43bb deea 883c ef1e 16bb b291 fe3b
00000130: ed81 ba3b 6b80 a7bb 45c6 e63b b5d8 26bc
00000140: 7bdb 023c b8c4 b6b9 723a 18bc e206 c4bb
00000150: 4e5c 2b3b 07a8 02bc 9a4b efbb c3a9 5b3c
00000160: 1f01 003c d95e 3dbc ddbc 4dbc 2bef 80bb
00000170: fb8b 1d3c 9976 a939 fd91 8c3b a903 b53c
00000180: 2d37 353c 50a9 c3bb d609 b7bb d778 b7bb
00000190: db40 2bbc c7a6 bd3b abca 343b 086e bebb
000001a0: 8622 c3bc 876e cfba 8a73 493a 9a71 1fbc
000001b0: bd6d 883b 3b3b 94bb 05e3 fa3b 638c 5cbb
000001c0: dfa4 4cba df92 10bc c547 f5bb afbd 21bc
000001d0: 0392 343b 0564 6e3c f2ba 363c fda5 7abb
000001e0: d9a8 16bc 77fd 20bc abc1 a8bc 7989 c93b
000001f0: f565 f3bb 61ff 4bbb 4fd8 4d3c 5b8a aabb
00000200: e359 503c b3c9 cf3b 22cf 2d3c 8b78 12bc
00000210: ead9 e73a c700 07ba 3d2e 6d3c ef91 0abc
00000220: d1f6 1fbc 97a4 f2bb 6b79 0a3b d879 e23a
00000230: 4909 9fba ebc9 48bc 171c 473b 0a2b 73bb
00000240: e7fa 75bc 977f 543c 4df8 0cbc ae6c 95bb
00000250: 3022 473a dbad 013c de03 0bbc c839 133c
00000260: 5345 cbba a795 633c d7d2 153c 2704 49ba
00000270: 8b86 feba 4683 483c a399 c33b af77 e73b
00000280: 4a46 a93b 6dba 44bc 83c1 7c3b 82be bfbb
00000290: da70 ce3c 0620 1abc bf8c b1b8 82e0 d23b
000002a0: 57b9 24bc 3313 d437 207a 62bc 4402 3bbc
000002b0: e192 ba3b 6f40 3fbb 1806 443c e09d 813b
000002c0: 9798 acbb 9a8b d1bc 8ed8 493a 7309 5b3c
000002d0: 47e2 663b 1f6d 9fba 4904 8dba 93f6 733c
000002e0: d081 e33b b2b0 01bc ad03 103b 9739 1abc
000002f0: 86ba 9f3b 08a0 a33b 632c 08bc e77b 563c
00000300: e3ea 403c 5b4e 183c 386b 82ba d8cb 063a
00000310: 57ba 103c d5b7 63bb 39c4 2f3c 5724 083c
00000320: 986d 72bc ac05 a2bb 7d8e 953b 9ae3 29bc
00000330: 803e 66bb 4125 463b 9794 b7bb a1e8 2a3c
00000340: f959 22b9 d23f ea3a f723 443c 7227 d2bb
00000350: 309f bd3b 7963 863c 3f44 0e3c 854b c43c
00000360: 697f 0cbb 2df6 bfbb b31a 8aba cb7a f2bc
00000370: d84f acbb 2774 4d3a 3a9a 503c cbf5 65bc
00000380: 2303 63bc b5b6 113c bb76 59bc 0840 cf3b
00000390: eb72 083b 5ba3 64bc aab5 de3b 4596 f33a
000003a0: 2f6e 26ba 0308 4d3c 0391 c5ba b896 fe3b
000003b0: 94cb 1e3c c5df cf3b 8fa5 7f3a 38bb 7f3b
000003c0: d332 623c e9b8 973a 1b55 8bbb b8ef 6dbb
000003d0: cf31 14ba 2de1 69bc 4376 c23a 285e 7d3c
000003e0: 884f 45bc 5e55 1e3a b1f3 8fbc b2db 623c
000003f0: 3b2a 45bc 7758 36bb 8aae feba 476a 2aba
-0.01197753 -0.002917721 0.01594321 -0.018069305 -0.018158017 0.008700285 -0.0124679515 -0.0007415478
0.008363773 0.011656712 0.008848033 0.0006914504 -0.0047296896 0.0021778194 0.0005885407 -0.01640462
-0.006302401 0.00939824 -0.010113796 -0.017091056 -0.0052185957 0.009242897 -0.0008233815 0.007399746
0.010347156 0.001989995 -0.0041602105 0.0036363755 -0.0051483554 0.008008481 0.0008958463 0.0065023387
-0.00027468213 -0.0101393415 0.008604807 0.01792424 0.01657329 0.0028478869 0.004338809 -0.012652256
-0.00072772655 0.0022477256 -0.0040269755 -0.0029723342 0.0032080044 -0.005539409 -0.0069077234 -0.010021927
0.0004814048 0.00747947 -0.0024015482 0.0074116993 0.010084244 0.011317593 0.012101861 -0.0002554507
-0.008667175 0.003440588 -0.012395269 -0.0030252172 0.017040446 -0.011985886 -0.015516551 -0.0054283887
-0.0006317695 -0.007609226 0.007931655 -0.00020774489 -0.00010318218 -0.014784412 0.0019425666 -0.0034738418
-0.0029779873 0.016713556 -0.0022906621 0.007768833 0.005691758 -0.005111744 0.0070426785 -0.010183503
0.0079868985 -0.00034860312 -0.009291278 -0.005982266 0.0026147547 -0.007974631 -0.0073027136 0.013407174
0.007812767 -0.011558258 -0.012557236 -0.003934761 0.0096158935 0.00032322554 0.004289864 0.022096472
0.011060518 -0.0059711114 -0.0055858893 -0.005599122 -0.0104524745 0.0057877037 0.002758662 -0.0058114566
-0.023820173 -0.0015825786 0.0007684758 -0.009731675 0.0041634724 -0.0045236624 0.0076564574 -0.0033653013
-0.000780655 -0.008824079 -0.0074853622 -0.009871884 0.002755285 0.014550214 0.01115297 -0.003824591
-0.00919553 -0.009826056 -0.02060016 0.006150421 -0.0074279257 -0.003112756 0.012563779 -0.0052044815
0.012716743 0.006341183 0.010608466 -0.0089398725 0.0017688845 -0.0005149957 0.014476356 -0.008457645
-0.009763435 -0.0074048745 0.00211295 0.0017278744 -0.0012133504 -0.012255172 0.0030381733 -0.003710451
-0.015013433 0.012969873 -0.008604121 -0.004560075 0.0007596342 0.0079149855 -0.008484809 0.008985944
-0.0015508331 0.01389066 0.009144506 -0.000766816 -0.0019418759 0.012238329 0.0059692427 0.007063828
0.00516585 -0.012007338 0.003856749 -0.0058515677 0.025200296 -0.009407049 -8.466234e-05 0.006435455
-0.010053954 2.528131e-05 -0.013823062 -0.011414114 0.005693779 -0.0029182693 0.0119643435 0.0039555877
-0.0052672136 -0.025579263 0.00076998107 0.013368952 0.0035230087 -0.0012163258 -0.0010758723 0.014890331
0.006942965 -0.007915663 0.0021974847 -0.009413145 0.0048745302 0.0049934424 -0.008311364 0.013091064
0.011774751 0.009296025 -0.0009950167 0.00051420694 0.008833489 -0.0034747024 0.0107279355 0.008309445
-0.014796637 -0.004944524 0.004564105 -0.010369206 -0.0035132468 0.0030234607 -0.00560243 0.01043144
-0.00015483041 0.0017871803 0.011971465 -0.0064133937 0.005786799 0.016404854 0.008683263 0.023961792
-0.0021438247 -0.005858204 -0.0010536521 -0.029599568 -0.0052585416 0.00078374374 0.012732083 -0.014035652
-0.013855728 0.008893658 -0.013272936 0.006324772 0.002082045 -0.013954963 0.0067965584 0.0018584213
-0.0006348816 0.012514117 -0.0015073124 0.007769432 0.0096920915 0.006343814 0.0009752148 0.0039021503
0.013806063 0.0011575493 -0.0042520887 -0.0036306214 -0.0005653174 -0.0142748775 0.001483627 0.015464343
-0.0120428875 0.00060399424 -0.017572256 0.013846325 -0.012033994 -0.0027823725 -0.0019430679 -0.0006500822
