Assets/results/ppo/My Behavior/My Behavior-433.onnx (onnx, 156809 bytes, 20 tensors)

discrete_act_size_vector f4 [1, 14]
00000000: 0000 0040 0000 0040 0000 0040 0000 0040
00000010: 0000 0040 0000 0040 0000 0040 0000 2041
00000020: 0000 2041 0000 2041 0000 2041 0000 2041
00000030: 0000 2041 0000 2041
2.0 2.0 2.0 2.0 2.0 2.0 2.0 10.0
10.0 10.0 10.0 10.0 10.0 10.0

network_body._body_endoder.seq_layers.0.weight f4 [128, 24]
00000000: fa07 f33d aa0c 653e b476 44bd f641 d83d
00000010: 538c 6fbe fd39 8b3d a9d0 a3bc fd3d e2be
00000020: 063c 45be c86b cf3d 4b63 153e e026 cdbc
00000030: 3c37 bdbd 2b49 8bbd fc19 073e 2941 2b3d
00000040: e700 293e 5f48 6cbe b319 5b3e d29f f2bc
00000050: 13cd c83d cc8d b93d c850 88bc 57df 9d3c
00000060: 9a43 19be f8d2 e4bd 2b0a 60be 8454 83be
00000070: ff26 863e d613 773e 325a e7bd eee4 9abc
00000080: b9c7 df3d 8dd9 923e bb4d 1dbd 8ed3 263e
00000090: b17f c3bd 7b4c 5c3e f0aa 6cbd 029d a03d
000000a0: 3c9c e33d 4976 7d3e a272 8dbd cbd0 e2bd
000000b0: ffe7 4abe ba36 b83e 23d0 783c e98b 843e
000000c0: 55b8 32be 7de0 803c 6fc6 d2bb cedd aa3d
000000d0: 4df8 da3e 9eb5 0c3e d3f9 01bf 4922 643e
000000e0: 4fa6 89be 62f7 ce3d 3725 f83a c1a4 f03c
000000f0: bd3b cebd 2576 433d 3865 2e3e 762a 91be
00000100: 8372 b4be 1c97 ef3d cb04 353e 284e b43d
00000110: b71d 6d3e 0b0b 73be 4c1d 333f 815c c63c
00000120: 92b6 98bd eec2 403e f43a 05bd e1a7 fdbc
00000130: 2395 8f3d 2cb1 723d 50b3 8a3e 048c 23be
00000140: 4013 0b3e aa24 04be 3d80 c0bc b0f0 85be
00000150: 7505 96be 637c 89be 1dc7 183e 07e8 68be
00000160: a236 20bd 9d1c 99be a8e2 53bc 5440 17bd
00000170: cdfd 7c3d 4324 cd3e bfc7 dc3d 2f72 c33d
00000180: 80ac 1d3e b0f7 813d 5dbf e1bd 82fa 423e
00000190: 76e5 c6bd 0522 a4bd 3724 1a3e 55b5 41be
000001a0: b664 c13e d43b 083e fcdc 18be 5724 b2bb
000001b0: e5fc 093d 3c4b e43d b9e4 29bd a5cb ccbe
000001c0: 55bd 003e 705e f03c e03f 71bd 4df5 e83c
000001d0: 8c13 b4bd 162b 0ebc b2a5 20bd 3fa2 9cbe
000001e0: 66ee 28be 166a bc3b be40 803e a29d 893e
000001f0: 6efc 69be e78d 903e 42c6 d13d f5e5 d5bd
00000200: 38ec ddbd 99f3 a23d 8b7d 96bd f62d 34be
00000210: 2c18 183e 4631 9e3e 0386 4bbd bc92 7abe
00000220: 59d3 a23e 6c86 50bd 7fef b2bd 10ba a7bc
00000230: c0fc 66be 2030 013e f467 65be c66c 29bd
00000240: cd89 8b3e e3df 243e 8775 1c3e 11b2 94be
00000250: b82c 7e3e 69c7 983e 9cc9 853e ef62 57be
00000260: a931 983d 7afe a83d a316 32be 1a51 963e
00000270: 5b42 39bd 9aa2 e9bd c738 5ebb 80e0 933e
00000280: d55d bbbd 0663 c9be 8a98 31bd d9b7 24bf
00000290: 0957 b33e 8a52 bd3e 8094 b13e 9087 60be
000002a0: 4f2e 6ebd 64fb f93d 8dc9 9b3e f470 0c3e
000002b0: bd3b 213e 702c d53d d757 04be 7cf8 b2bc
000002c0: fb03 f6bd 9f33 6a3e 6794 553e d146 16be
000002d0: 3297 2abd 2040 273e b055 2b3e b42f 90bc
000002e0: 8389 14bd 563a f43d 4b82 023e 0d56 d03e
000002f0: 7583 e3bd 7f2d e63e a657 5e3d a2c8 423d
00000300: af64 bfbd 5e72 1f3f 41d9 86be 0aa5 7cbd
00000310: f776 5b3e 640d 333e b662 00b9 ea72 f4bd
00000320: 0ed5 993e ed61 2a3d 2511 ccbe f196 b8be
00000330: add6 11be f9f2 29be 7804 dcbd 0484 a1be
00000340: 3725 4abe 2da0 1dbe 762b 563d 6d35 b63d
00000350: 59ce 71be 99ed febd 233f 993d f084 5c3e
00000360: ad23 fc3e c0f3 5b3b 6386 a0bd b146 2bba
00000370: 1b9a 91bc 27d8 81bc b8ab 3d3d eacf 49be
00000380: cdcf 0abe d287 a7bb 577c bc3d ad91 343e
00000390: 02d1 b2bd 0ce8 04be 35f9 37be 6147 7e3d
000003a0: 0c4e 68be c4b9 d43d 9d4d 3e3e a960 983d
000003b0: 3a75 6ab9 be92 d03e 6660 59be 6ac9 803d
000003c0: 69cf 363e 0e3e 593d 858e 753d 78ad 763c
000003d0: 5257 a13e 8bff 86bd 62ea af3e fd12 20be
000003e0: 294e c33e 2593 be3d 2e49 8dbd c837 4abb
000003f0: eadc b7be c2b1 53be f429 0dbd 6b24 b53b
0.11866756 0.22368112 -0.047964767 0.10559456 -0.23393373 0.0679817 -0.019996958 -0.44187918
-0.19261178 0.101279795 0.14588659 -0.025042951 -0.09239051 -0.06801065 0.13193506 0.04181019
0.1650425 -0.23074482 0.21396522 -0.029617224 0.0980474 0.09060249 -0.016640082 0.019271536
-0.14967194 -0.111730516 -0.21878879 -0.25650418 0.26201627 0.2412866 -0.112965 -0.01890799
0.10926766 0.28681603 -0.038404208 0.16291639 -0.095458396 0.2151355 -0.057780206 0.07842447
0.11113784 0.24752153 -0.0690663 -0.1107498 -0.19815062 0.35979253 0.015186342 0.25887993
-0.1745313 0.015732044 -0.0064323465 0.08343087 0.42767563 0.13741156 -0.50771827 0.22278704
-0.26884696 0.10105778 0.0018931989 0.029375436 -0.10069988 0.047720093 0.170308 -0.28352708
-0.35243616 0.11698744 0.1767761 0.088039696 0.23155867 -0.23734681 0.6996658 0.024214031
-0.074566975 0.1882436 -0.032526925 -0.03096384 0.070108674 0.059250996 0.2708993 -0.1597138
0.13581562 -0.12904611 -0.023498649 -0.26160192 -0.29301038 -0.26852712 0.14919706 -0.22744761
-0.039114602 -0.29904643 -0.012932457 -0.036926582 0.06176548 0.40066728 0.10780286 0.09543263
0.15397835 0.06346071 -0.11022828 0.19040874 -0.09711735 -0.08014301 0.15052877 -0.18916829
0.3777215 0.13304073 -0.14928049 -0.005436461 0.033688445 0.11147162 -0.041477893 -0.39999118
0.12572224 0.029341906 -0.058898807 0.028437281 -0.08792791 -0.008677265 -0.03922052 -0.30592534
-0.16497192 0.005749951 0.25049394 0.26878077 -0.228502 0.28233263 0.10242893 -0.104442514
-0.10836071 0.07956619 -0.07348164 -0.17595658 0.14852971 0.30896968 -0.04968835 -0.24470037
0.3180187 -0.050909445 -0.087370865 -0.020474464 -0.22557354 0.12616014 -0.22402936 -0.0413635
0.2725357 0.16101031 0.15279208 -0.29042104 0.24821746 0.29839638 0.26130378 -0.21033834
0.07431347 0.082516626 -0.17391448 0.2935875 -0.045229297 -0.11407967 -0.0033908354 0.28882217
-0.091487564 -0.3933336 -0.043358363 -0.6434303 0.3502734 0.36977035 0.3468361 -0.21926713
-0.058149632 0.12206152 0.3042721 0.13714963 0.15745445 0.104088664 -0.12924133 -0.021847002
-0.12012478 0.22871254 0.20857392 -0.14675452 -0.041648097 0.16333055 0.16731906 -0.017600872
-0.036263954 0.11925189 0.12745015 0.40690652 -0.11109058 0.44956586 0.054282807 0.04755462
-0.09345376 0.62283885 -0.26337627 -0.06168083 0.214321 0.17485577 -0.00012243804 -0.119359806
0.3004536 0.041597296 -0.3985683 -0.3605266 -0.14242049 -0.16596593 -0.1074304 -0.31546032
-0.19740759 -0.15393133 0.05228754 0.08896909 -0.23613872 -0.12447662 0.074827455 0.21535087
0.49245968 0.0033562034 -0.07838132 -0.0006533666 -0.017773679 -0.01585014 0.046306342 -0.19708219
-0.13555832 -0.0051126266 0.092034034 0.17633696 -0.08731271 -0.12979144 -0.17966159 0.06207979
-0.22686023 0.103869945 0.18584295 0.074403115 -0.0002235965 0.40736955 -0.2122818 0.06288417
0.17852558 0.053037696 0.05995037 0.015056007 0.31511933 -0.0659171 0.34358507 -0.15632243
0.3814557 0.09305409 -0.068987235 -0.0030856002 -0.35910732 -0.20673278 -0.034463838 0.005528023

network_body._body_endoder.seq_layers.0.bias f4 [128]
00000000: 0000 0000 0000 0000 0000 0000 0000 0000
00000010: 0000 0000 0000 0000 0000 0000 0000 0000
00000020: 0000 0000 0000 0000 0000 0000 0000 0000
00000030: 0000 0000 0000 0000 0000 0000 0000 0000
00000040: 0000 0000 0000 0000 0000 0000 0000 0000
00000050: 0000 0000 0000 0000 0000 0000 0000 0000
00000060: 0000 0000 0000 0000 0000 0000 0000 0000
00000070: 0000 0000 0000 0000 0000 0000 0000 0000
00000080: 0000 0000 0000 0000 0000 0000 0000 0000
00000090: 0000 0000 0000 0000 0000 0000 0000 0000
000000a0: 0000 0000 0000 0000 0000 0000 0000 0000
000000b0: 0000 0000 0000 0000 0000 0000 0000 0000
000000c0: 0000 0000 0000 0000 0000 0000 0000 0000
000000d0: 0000 0000 0000 0000 0000 0000 0000 0000
000000e0: 0000 0000 0000 0000 0000 0000 0000 0000
000000f0: 0000 0000 0000 0000 0000 0000 0000 0000
00000100: 0000 0000 0000 0000 0000 0000 0000 0000
00000110: 0000 0000 0000 0000 0000 0000 0000 0000
00000120: 0000 0000 0000 0000 0000 0000 0000 0000
00000130: 0000 0000 0000 0000 0000 0000 0000 0000
00000140: 0000 0000 0000 0000 0000 0000 0000 0000
00000150: 0000 0000 0000 0000 0000 0000 0000 0000
00000160: 0000 0000 0000 0000 0000 0000 0000 0000
00000170: 0000 0000 0000 0000 0000 0000 0000 0000
00000180: 0000 0000 0000 0000 0000 0000 0000 0000
00000190: 0000 0000 0000 0000 0000 0000 0000 0000
000001a0: 0000 0000 0000 0000 0000 0000 0000 0000
000001b0: 0000 0000 0000 0000 0000 0000 0000 0000
000001c0: 0000 0000 0000 0000 0000 0000 0000 0000
000001d0: 0000 0000 0000 0000 0000 0000 0000 0000
000001e0: 0000 0000 0000 0000 0000 0000 0000 0000
000001f0: 0000 0000 0000 0000 0000 0000 0000 0000
0.0 0.0 0.0 0.0 0.0 0.0 0.0 0.0
0.0 0.0 0.0 0.0 0.0 0.0 0.0 0.0
0.0 0.0 0.0 0.0 0.0 0.0 0.0 0.0
0.0 0.0 0.0 0.0 0.0 0.0 0.0 0.0
0.0 0.0 0.0 0.0 0.0 0.0 0.0 0.0
0.0 0.0 0.0 0.0 0.0 0.0 0.0 0.0
0.0 0.0 0.0 0.0 0.0 0.0 0.0 0.0
0.0 0.0 0.0 0.0 0.0 0.0 0.0 0.0
0.0 0.0 0.0 0.0 0.0 0.0 0.0 0.0
0.0 0.0 0.0 0.0 0.0 0.0 0.0 0.0
0.0 0.0 0.0 0.0 0.0 0.0 0.0 0.0
0.0 0.0 0.0 0.0 0.0 0.0 0.0 0.0
0.0 0.0 0.0 0.0 0.0 0.0 0.0 0.0
0.0 0.0 0.0 0.0 0.0 0.0 0.0 0.0
0.0 0.0 0.0 0.0 0.0 0.0 0.0 0.0
0.0 0.0 0.0 0.0 0.0 0.0 0.0 0.0

network_body._body_endoder.seq_layers.2.weight f4 [128, 128]
00000000: 7c18 2f3e ae45 0f3c 5eaa 043d 9ce2 b33d
00000010: 775b 953d f865 06bc d8e6 3abd 9b28 c0bc
00000020: f7c1 c23d 7838 893d 1d68 d3bd e735 1a3e
00000030: 9afd ed3d af94 363e b77e 713e b052 e1bc
00000040: c66b 293c 700d 29bc 26ae 0f3e 932d c4bd
00000050: db7d d63d 9657 cbbd 07b0 62bd 42e1 043d
00000060: 017c 053e 3b67 133d 2e7c 283e 8be5 023d
00000070: e53a c93c f118 cebc 6ced a93d c0ff 82bd
00000080: a148 8cbc 1ac3 32bd 047d fdbd fe3e 48bd
00000090: 4b2b 353d b697 8fbc f57d 8cbd 5c65 efbb
000000a0: cfba bc3d 95f9 9f3d 0b4d 2fbc 5883 483d
000000b0: d884 22bd 1d8f aebc bd57 ae3d fe50 e3bb
000000c0: 054c 1e3d 1ed3 99bd 2de6 973c 9c6a 0e3e
000000d0: d19f 483d f920 c2bc 03fb f5bd 6ddd 983d
000000e0: 5c02 e33d ea3b 02be 4c98 98bd 6434 853e
000000f0: b17d bfbd 714a 393d 805c 373e 9d20 0e3d
00000100: 518a e1bc 3ae5 32bc 47f6 b53d e66e 9e3d
00000110: 7804 b23d b8de 86bd e8f1 02bd cf27 213d
00000120: 46b0 15bd 1d96 24bc 1638 b4bd 003f e4bd
00000130: 3274 01be 0c87 c9bd a968 1e3c 315f d7bd
00000140: f9a2 4a3d 3bd6 4d3e e52e 44bd 6639 993d
00000150: 38cb 883d d14c 0e3d 5a13 1c3e 60eb 1b3d
00000160: dd14 903d 75e7 49bd 1e6c e6bc cb5a cb3d
00000170: dced 163d 3501 db3d e066 4f3d 6f7a c6bc
00000180: d19e 8dbd aa56 b03d f755 e2bc 4104 5dbe
00000190: b46a 853c 69ec dbbc 33bb d63d 32f0 9c3a
000001a0: 53af 09bc 4290 13bc 604d 2b3e 88aa a7bd
000001b0: 4c59 f83d 077d 01be 3363 31bd ade3 f5bd
000001c0: e232 a1bc 21e0 a5bb 4ebf e0bc fc4b 053d
000001d0: 6390 75bc 7609 c8bd 5249 c53c fb25 773d
000001e0: e121 f43d 2faf a03d 87f5 003e 796d 98bd
000001f0: 84f4 203d b491 db3d bfc6 dbbd e1e5 3f3d
00000200: 3c46 0b3e 03dc 3ebe f288 57bd c497 293d
00000210: a017 0e3e 9d76 a23d 2708 a13d 320e 703b
00000220: 8eaf 16bd cd11 fb3d 32b9 9a3d 3554 003d
00000230: 905d 2bbe 8843 d73c 3f4a 473e 3e79 50bc
00000240: 3e03 a5bc ab50 90bc 0700 6fbc 8be5 eebd
00000250: 9646 583c 524b 793b 9675 16be b4bd 093a
00000260: aaa0 263d 32df d9bd ca61 e73d 401d 2e3d
00000270: 3fc4 fa3d 80f6 4d3c 84b9 f63c 244f c8bc
00000280: 04e1 8c3d 2ae9 8fbd 7548 cdbd aedf 593d
00000290: db26 a5bd 82ea 29be b310 283a d3c4 b7bd
000002a0: adbf 09bc eeb1 d53d 066f 883c 033c 273e
000002b0: f850 8fbd a1e8 58bd bdfd 8a3d 0f09 a9bd
000002c0: 9e3a 1cbe 74e7 673d 41a8 b6bd e2b7 09bd
000002d0: 6e71 773c 984d 373d 92df 71bd 4786 193e
000002e0: c445 a1bb 200e cdbd bc68 883c 058d debb
000002f0: b86f b5bd afcb 153e cfb4 73bd 5744 e2bd
00000300: f432 823d 7b96 4f3d 2b74 9fbc 6264 d43c
00000310: d1e2 413e fe99 2ebe c978 16be 7e84 673d
00000320: f5c4 8e3d adaa 6c3d 023c 7abd 4b1b 803b
00000330: bf8f 43bd de94 6ebd dcf9 e83d 6a65 73bc
00000340: e47c a6bd 5935 a7bd c766 fcbd b7a4 98bd
00000350: 68d0 283d 8d43 273d 695d 1dbe 2f03 2c3d
00000360: 7d70 e43c d1eb 9abb 7092 d2bd 8a68 493e
00000370: fb73 4cbb 04d8 31bd 7770 4b3d 1130 59bd
00000380: 02cf fe3c 7e6e 183d 6633 c8bc 2baa ddbd
00000390: ae88 5f3e ba19 093e d939 273d c275 113d
000003a0: 1d08 853d 5618 ccbc a342 16bc 568a d93d
000003b0: 837b 8bbd 9f9c bdbd 2d64 9cbd 8736 1abe
000003c0: c1f6 243d f3e5 95bc 981a 77bd 1917 95bd
000003d0: 3223 80bd 9e1a 9fbd 09ec 633d 3658 ca3c
000003e0: 0a72 2cbd a1dd b53c ca20 32be b823 e03d
000003f0: c67a 92bc 9982 adbd 2ebe d33b d8ec 3cbe
0.17099184 0.00874464 0.032389037 0.08783457 0.07292836 -0.008203022 -0.045630306 -0.023456862
0.09509652 0.06700224 -0.103225924 0.15059625 0.11620636 0.17830156 0.23583494 -0.027505249
0.010340637 -0.010318145 0.14031276 -0.09579005 0.10473224 -0.09928815 -0.055343654 0.032441385
0.13035585 0.03598712 0.16453621 0.03195719 0.024564216 -0.025158377 0.08297238 -0.06396437
-0.017124476 -0.043643095 -0.123773605 -0.0488882 0.04423074 -0.017528396 -0.06859962 -0.007305784
0.092153184 0.07811276 -0.010699521 0.048953384 -0.03967747 -0.021308476 0.085128285 -0.0069371453
0.038646717 -0.075109705 0.018542374 0.13907856 0.048980538 -0.023697363 -0.12010767 0.074641086
0.110844344 -0.12718168 -0.07450923 0.26016533 -0.093501456 0.04523701 0.1790638 0.03469907
-0.027531775 -0.01091891 0.08884864 0.07735996 0.086922586 -0.06585449 -0.03196898 0.039344605
-0.03654506 -0.010045555 -0.0879976 -0.11144829 -0.12641981 -0.09840211 0.009668508 -0.10516203
0.04947183 0.20101254 -0.047896285 0.07481651 0.06679386 0.034741227 0.15241757 0.038066268
0.07035229 -0.049293 -0.028127726 0.09929427 0.036847934 0.106935896 0.05063522 -0.024228303
-0.069150575 0.0861028 -0.027628882 -0.21583654 0.016286232 -0.026846128 0.10484924 0.0011973439
-0.008403617 -0.009006562 0.16728735 -0.08186823 0.12126407 -0.1264535 -0.043307494 -0.12006316
-0.019677583 -0.0050621186 -0.027434971 0.032543167 -0.014988038 -0.097674295 0.024082813 0.060338955
0.119205244 0.078459136 0.12593661 -0.07442755 0.03929569 0.1072115 -0.10731267 0.04685009
0.13601011 -0.18638615 -0.052620836 0.0414045 0.138762 0.0793278 0.07862883 0.0036629555
-0.036788516 0.122592546 0.075548545 0.031330306 -0.1673491 0.026277319 0.19461916 -0.012724219
-0.020143148 -0.01761659 -0.014587409 -0.116648756 0.013200423 0.003803928 -0.14693293 0.0005254403
0.040680565 -0.10638274 0.11297949 0.042508364 0.12244462 0.012570977 0.030117758 -0.0244518
0.06878856 -0.070268944 -0.10023586 0.053191833 -0.08064052 -0.16593364 0.000641118 -0.08973088
-0.0084075155 0.10434328 0.016654503 0.16331486 -0.069978654 -0.052956227 0.06786678 -0.08253681
-0.15256736 0.056617215 -0.08918811 -0.03362263 0.015102727 0.044751734 -0.059051104 0.14992629
-0.004921647 -0.1001246 0.016651504 -0.006791713 -0.08859199 0.1462848 -0.059498604 -0.11048191
0.06357375 0.05068062 -0.019464573 0.025926773 0.1893418 -0.17050931 -0.14694513 0.05652284
0.0697116 0.057779957 -0.061092384 0.0039095036 -0.04774451 -0.05824744 0.11375782 -0.014855722
-0.0812929 -0.08164472 -0.12324291 -0.07453292 0.041214377 0.040835906 -0.15367664 0.041995224
0.02788567 -0.0047278185 -0.10281837 0.19668785 -0.003119706 -0.0434189 0.0496678 -0.053024355
0.031104568 0.03721475 -0.024438571 -0.108234726 0.21829483 0.1338872 0.040826652 0.035512693
0.06495688 -0.024913948 -0.009171161 0.106220886 -0.06810667 -0.09258389 -0.076362945 -0.15059863
0.040274385 -0.018298125 -0.060328096 -0.07279796 -0.06256713 -0.07768749 0.055645023 0.024700265
-0.042100944 0.022200407 -0.1739532 0.10944313 -0.017880809 -0.08472175 0.00646188 -0.18449724

action_model._discrete_distribution.branches.0.weight f4 [2, 128]
00000000: 3822 c43a 556d 543b bb28 293b 83c9 79bb
00000010: 339b 25bb ef5e 6f3c 9a09 853b 9785 4a3b
00000020: 4f4d 9a3a f23f b63c 3d76 28bc 79e2 b5bb
00000030: 1164 a8ba 9975 033b f391 da3b 518b 9bba
00000040: f33c 12bc c2d1 91bc 6fdd 78bb d86a 0bbb
00000050: 1b56 033c e559 8b3b 7102 24b9 dbbd 15bb
00000060: 5a53 93bb e4e0 cb3b 58cf 40bc af72 d5bb
00000070: d37a 67bb 0398 d3bb b139 caba 4d7d f0b9
00000080: d721 adba 23fd b13b 1582 663b e1ad 07ba
00000090: 17c0 5e3c 38aa 40bc ef9a 083c e970 16bc
000000a0: 0784 8bbc b1f2 8e3c 22df e8ba 7297 703b
000000b0: d397 7a3b 8188 1a3a 63d1 f63b 23ab 9f3c
000000c0: c4cf 943b 92dc 083b 5a1b a53b e570 ae38
000000d0: df0c 883b 12c5 a6bb 4b90 c73a 0363 523b
000000e0: ea3d 7a3c b8ca 68bb 5b03 953b 1f8b 39bb
000000f0: 9787 00bc 57e0 f93b 08a1 8439 9fbb fbbb
00000100: 7dbb 8c3a 72f0 12bc 2d8b 6e3b 77e3 d8b9
00000110: 648b 96bb 5c31 1c3b 77f7 28bc db80 2bba
00000120: 507a 053b ab2d cabb 754f 90bc 4a10 a83b
00000130: 2a32 3e3a cfe9 f4bb 201d 8bbb 75b6 083b
00000140: 2a2c 0a3c c19b 443a d7be 873a ffd8 f9ba
00000150: 97a0 fcb9 abcd 7fb9 b745 8cb8 8299 4f3c
00000160: 014a 8b3c 27e3 d63b b996 80bb 0354 dcbb
00000170: 8fee 35bc 39a2 32bb 6761 d73a 57f5 bf3b
00000180: b54d 8aba 5375 39bc 209c 443a 6edd aebb
00000190: 8dc7 71bc bfb0 c039 fa8e 76ba cef0 8e3b
000001a0: 8080 503c 8d69 ad3b 3816 3c3a 5a32 6d3c
000001b0: 0815 5dba 3ee4 b13b f994 8b3c 6351 cdba
000001c0: bf5f 80bc 27e0 56bb 8f2d 7cbb 46e0 ca3b
000001d0: bf36 023c 5abf 9ebb df4b 443c c3e7 253a
000001e0: c75c 12bc 47a4 19bc 7fbb 263c 4867 1ebc
000001f0: 05cc 0dbc 962c 23bc 32f7 5a3c 0dac 4f3b
00000200: 4d3d cf3b 0b90 2fbb 7b07 2fbb d66c c6b9
00000210: 43a8 f5bb f773 0dbc 694c 2ebc b400 38bc
00000220: 2598 03bc e3b5 0c3b 75fa d238 7fd7 bbbb
00000230: bb4d ab3b 770d a33b cd30 a9bc 8549 ebba
00000240: 358d f0bb 0bbd f23b 6876 dbbb 3f98 d33b
00000250: 9787 3f3c 4a18 8cbb 0083 e83b d33a 76bc
00000260: a29f c1ba bd17 3fbc 9373 ba39 ce9d 873b
00000270: f338 1b3c df9a 7ebb 487d fcbb 3bbc 1e3a
00000280: f63a 23bb e5ce f4bb 321d b2bb 21f7 21bb
00000290: 8c5c bfbb 5f08 04bb 3776 61bb 02f8 96bb
000002a0: d046 1f3c 9375 553c cfd3 4dbc 5520 6a3b
000002b0: 1bc8 6a3a 595e 1fbc 502f cebb 65bb 423b
000002c0: 8d40 38bb f314 8ebc c917 b7bb 4375 a6bc
000002d0: 80fd bbbb ba39 53bb ebfc ebbb dbc1 5e3c
000002e0: b796 4fba ee83 49bb 68ed 4fbb 4b38 543c
000002f0: 7ba0 8cba 1d1d 9d3c 5be0 e1bb 672c 243c
00000300: 8a19 d53a c07c 7d3b 993c a8bb 4782 4f3c
00000310: 1798 e93b eff1 23bc 4087 303c 4be9 273b
00000320: ff88 8bba daa7 5c3c 80e7 6bbc 1932 1a3c
00000330: 8d5a b53b 6541 58bb 5752 163a 48e2 edbb
00000340: f1fb cabb 7bcd b33b 3790 e3ba 0f06 8bb9
00000350: cdf0 06bc 1666 4abc 7394 28bb 2232 5c3c
00000360: 088f de39 1e84 9f3b 53f3 a4ba 226b d3ba
00000370: 6359 993b 0cb2 85bb 8519 fabb 8f84 b5bb
00000380: 5267 3e3c e7dd 513c 7207 64ba 25a7 bdbb
00000390: 220a 943c 2314 95bb d9cf 4bbc a053 293b
000003a0: 331e d73b de43 87bb 70f4 893a 1547 03bc
000003b0: f239 da3b 308f 63bc 6b9b 8dbb ab32 643c
000003c0: 8efe 1bbc c324 c0bb a398 553c 03c6 7bbc
000003d0: 7d41 2e3c 9864 57bc 14f2 81bc 0b1f d03b
000003e0: ca86 5c3c bbf8 a0bb 7822 b6bb f88c 4b39
000003f0: e35c 7539 01ed 8bbc 40e9 5a3c bf12 873b
0.0014963811 0.00324138 0.002581163 -0.0038114495 -0.0025269508 0.014610036 0.0040599825 0.003090238
0.0011772307 0.022247288 -0.010282096 -0.0055506793 -0.0012847205 0.0020059107 0.0066702305 -0.0011867081
-0.008925664 -0.017800216 -0.0037973782 -0.00212734 0.008016135 0.0042526596 -0.00015641168 -0.0022848758
-0.0044960203 0.0062218774 -0.011768185 -0.0065139155 -0.0035321012 -0.00645733 -0.001542857 -0.00045869724
-0.0013208938 0.0054317876 0.003517275 -0.0005175751 0.0135956025 -0.011759333 0.00833772 -0.009182193
-0.017030729 0.017449709 -0.0017766694 0.0036711362 0.0038237467 0.00058949745 0.007532285 0.019490784
0.004541369 0.0020883423 0.005038661 8.317995e-05 0.004151925 -0.0050894106 0.0015225498 0.0032102473
0.0152735505 -0.003552122 0.004547519 -0.0028311682 -0.007844827 0.0076256203 0.0002529698 -0.0076822783
0.0010737028 -0.008968459 0.0036398873 -0.00041368205 -0.0045942534 0.0023833131 -0.0103129065 -0.0006542333
0.0020367093 -0.006169995 -0.017616013 0.005128895 0.00072554 -0.007474161 -0.0042454153 0.0020860706
0.008433381 0.0007500016 0.0010356557 -0.0019061862 -0.00048184834 -0.00024395312 -6.6887056e-05 0.012670876
0.017003061 0.0065578404 -0.0039242175 -0.006723882 -0.01110424 -0.0027257337 0.0016432226 0.005858104
-0.0010551723 -0.011319476 0.0007500071 -0.005336455 -0.014757049 0.0003675278 -0.00094054604 0.0043622022
0.012725949 0.0052921236 0.0007174942 0.014477337 -0.0008433615 0.00542882 0.01703881 -0.0015664514
-0.015670655 -0.0032787414 -0.0038479303 0.0061912863 0.007947623 -0.004844588 0.01198098 0.00063287857
-0.008933253 -0.009377546 0.0101765385 -0.009668179 -0.008654599 -0.009959361 0.0133646 0.0031688244
0.0063244463 -0.0026788737 -0.002670734 -0.00037846592 -0.007496865 -0.008633605 -0.010638335 -0.011230636
-0.00803188 0.0021470718 0.000100602316 -0.0057324762 0.005227772 0.0049759704 -0.020653153 -0.0017950988
-0.007341052 0.0074077896 -0.0066974647 0.006457358 0.011690042 -0.0042753564 0.0070956945 -0.015028673
-0.0014772306 -0.0116633745 0.00035562794 0.004138685 0.009474027 -0.0038849635 -0.0077053644 0.000605527
-0.002490697 -0.007470953 -0.0054356093 -0.002471395 -0.00583989 -0.002014659 -0.0034402737 -0.0046072016
0.009721473 0.01302852 -0.012562706 0.0035724838 0.00089562096 -0.009727084 -0.006292261 0.0029713747
-0.0028114647 -0.017343974 -0.005587552 -0.020319587 -0.0057370067 -0.0032230453 -0.007201781 0.013596023
-0.00079188816 -0.0030748802 -0.0031727199 0.012952874 -0.0010728979 0.019178921 -0.0068932003 0.010020352
0.0016258222 0.0038679093 -0.005134177 0.012665338 0.007128726 -0.010006412 0.010774434 0.0025621231
-0.0010645686 0.013467753 -0.014398456 0.009411358 0.005534476 -0.0032997963 0.00057343155 -0.007259641
-0.0061945845 0.0054871417 -0.0017361705 -0.0002651666 -0.008236122 -0.012353441 -0.0025723248 0.013439687
0.00042449706 0.0048680445 -0.0012584723 -0.001612995 0.004679845 -0.0040800627 -0.0076324367 -0.005539484
0.011621313 0.012809253 -0.0008698619 -0.0057877474 0.018071238 -0.0045495196 -0.012439691 0.0025837198
0.0065648793 -0.0041279634 0.0010525119 -0.008012553 0.0066597397 -0.013889119 -0.004321506 0.013928096
-0.00952114 -0.0058637573 0.01303688 -0.015367034 0.010635731 -0.013146542 -0.015862502 0.006351357
0.013459871 -0.0049124635 -0.005558308 0.00019412104 0.00023399624 -0.017080786 0.013361275 0.0041221078

action_model._discrete_distribution.branches.0.bias f4 [2]
00000000: 0000 0000 0000 0000
0.0 0.0

action_model._discrete_distribution.branches.1.weight f4 [2, 128]
00000000: f8a8 4abc 2069 433c 3123 92ba 7fca 7e3c
00000010: 39b9 06bc 285e 1bbc 2a37 d1ba 42b4 9fbb
00000020: 380b 30bc e356 113c 3788 bdbb 6896 2fbc
00000030: 1a1d 9dbb 0287 55bc 20ec 53ba 7f6a 0f3c
00000040: 0235 8b3c c778 0abb 136d 3ebc 6341 293c
00000050: f7be 773b 6261 763c 78c8 34bc 03bc 70bc
00000060: 28e0 bcbb 089b 123c 7049 5a39 2371 80ba
00000070: 25fc 22bc 436a 73bc 975b f23b 9208 59bc
00000080: 0313 dfbb 635f 4dbc 7379 183c 0709 9b3b
00000090: 0d2c b8bb ab19 6a3b 37e4 6cbc f299 733c
000000a0: c2d7 35bc c728 753b 844c 923b 0db1 ec3b
000000b0: 67a5 913b b306 f43b 4318 f13a 7b51 0ebc
000000c0: 15e6 e1ba ed37 573c 2b71 60ba f5c7 b13a
000000d0: 93be 68bc 25de e9ba 03c4 5f3b b71e 4dbb
000000e0: d243 cfbb bb69 693c 6716 683a abba 48bb
000000f0: 8859 b1bb a77a 4f3c fb9c 333c 40d2 b3bb
00000100: 86dc 01bb 434a 203c 71db a03b 1bd1 b83b
00000110: 82f8 76ba 0a78 adbb 484f eeba 27ca e0bb
00000120: 0344 ca3b 1f68 553c 35cd 4f3b 45ca 8f3a
00000130: e027 8bbb 4766 283b d898 5fbc 1f9f b73c
00000140: 703f 7c3c 1bcb 56bc e2e6 313c e813 9339
00000150: 8d7e 39bc 7359 17bc fd06 52ba 5071 d43b
00000160: 152b 5b3c 0eba 05bc 976c 923b d848 60ba
00000170: d764 7fbc a68b 933b f8ec e33b 34ce 8ebb
00000180: 8017 d53a a095 b93b 0900 ca3b b0d4 053c
00000190: 1bd2 6b3b bd8d cf37 4fa9 013a 5a47 20bc
000001a0: 6277 ba3b 4ec1 42bc 5899 403c d54a bd3b
000001b0: 30ad 6dba a0b3 273c 15a6 553c ce51 993b
000001c0: 40ce 13bc 9d80 a1bc 4bc0 70bc 515a 2bbc
000001d0: dce5 88b9 a5ca 7e3c 92ea 54bc b639 933b
000001e0: 98a1 31bb ab65 a33b df29 113c 204c f53b
000001f0: a7df a03c 50bf e6bb fb1c 53bc 7840 5d3b
00000200: 88fd 2c3c b260 973b 6aa7 7e3b efa2 b13b
00000210: c82b 6ebc 528d ea3b 0f03 c63c f854 1a3c
00000220: d83f e4bb ad68 943a 529d 023c 2f3e 203b
00000230: 0096 7cbc 8aa0 263c 293e 2e3b 278c 4bbb
00000240: 65bd 54bc 174e 08bc 5806 0f3c 8adf 8a3b
00000250: 2872 21bc 3f15 793b f23b 34bc 3374 e23b
00000260: 230e 92bb ae13 35bb f7f3 dd3a 5baf dcbb
00000270: f35d 093b 0a82 e1bb 0341 3f3c 1a2b eabc
00000280: d3ca c03a 0049 993c 6b63 05bc 3fc8 1fba
00000290: fa58 623c d370 ac3a 4207 d73a 6f81 fd3a
000002a0: 8cb4 a93b 3042 f23b 73c4 013c 1686 bebb
000002b0: aaa4 5fbb 5751 31bc 6863 3bbb bbf8 4b3b
000002c0: 2b52 ba3b f503 353c 120b 503b b0ce eebb
000002d0: d04f 5e3b 4986 833b d7a9 3bbc ea4a 00bc
000002e0: 8779 9abc b53f 333c 1325 dfbb dfa4 f83a
000002f0: 5816 45bb c57c a4bc c77f 08bb 1176 c93c
00000300: 49d7 afba b01b 133c 3822 f2ba eb97 07bc
00000310: b569 5a3b eb3e dd3b 6db8 a83b 73b7 bdbb
00000320: 93bc 20bb 6a2e 7f3b 2f34 09bc 51ad 4c3c
00000330: af11 773c 58a6 75bc f72a 23bb 7644 a5bb
00000340: 7771 37bb 38bb 173b a3de c13a baff df3a
00000350: 6060 d7b9 9dd8 b43b b7c1 e0ba 0774 96bc
00000360: 6b4a 13bc 6f2f 8bbc 5332 993b 5841 00bc
00000370: 60ad 5fbb 09e1 ac3c 1a92 1abb b928 a8bb
00000380: fd3e 55ba 117e 143c 37ef 8dba 9fc5 cabb
00000390: 2bb7 14bc 6280 e2bb 72ac 353b 6ac1 19bb
000003a0: a585 a43b 7000 613c f751 853b ca5c 993c
000003b0: 0899 d3bb 8a0d 7cbb ac06 85bb b7df 163b
000003c0: 85d4 613c 573b 17bb 42fb e6bb a1eb 9c3c
000003d0: 8ba7 4dbc 8f08 5cba 67d6 7bbc bef4 c8bb
000003e0: c99f ab3b 6792 313c 2450 053c caa5 7f3c
000003f0: a4f4 09bc 1fc9 5dbb f22e 99bb f761 92bb
-0.012369387 0.011926919 -0.0011149404 0.0155512085 -0.008222871 -0.009482898 -0.0015961875 -0.0048737833
-0.010744862 0.008870813 -0.0057840603 -0.010717012 -0.004794729 -0.013032677 -0.00080841966 0.008753418
0.01699305 -0.0021129118 -0.011622685 0.010330531 0.0037803033 0.015037866 -0.011034124 -0.014693263
-0.005764026 0.008948095 0.00020817458 -0.0009799342 -0.009947811 -0.014856878 0.0073961723 -0.013246672
-0.0068076863 -0.012534949 0.0093062995 0.0047313008 -0.0056204856 0.0035720866 -0.0144587075 0.014868246
-0.011098804 0.0037408338 0.004464688 0.0072232545 0.0044447663 0.0074470877 0.0018394071 -0.008686419
-0.0017234707 0.013135892 -0.0008561785 0.001356362 -0.014205593 -0.0017842693 0.0034143932 -0.0031298825
-0.0063252235 0.0142463995 0.0008853436 -0.003062884 -0.0054122843 0.01266352 0.01096272 -0.0054877102
-0.001981528 0.00978333 0.004908972 0.0056401617 -0.0009421186 -0.005293851 -0.0018181587 -0.006860036
0.0061726584 0.013025313 0.0031708006 0.0010970315 -0.004246697 0.0025695728 -0.013647281 0.022414742
0.015395984 -0.013109948 0.010858269 0.00028052856 -0.011321676 -0.009237635 -0.00080119056 0.0064832345
0.013376971 -0.008162035 0.0044685113 -0.00085557764 -0.015588007 0.0045027314 0.006955739 -0.0043580774
0.0016257614 0.0056635886 0.006164555 0.008168384 0.0035983387 2.4742325e-05 0.00049461884 -0.009782637
0.005690501 -0.011886908 0.01175531 0.005776743 -0.00090666395 0.010235697 0.013040085 0.0046789413
-0.009021342 -0.019714648 -0.014694284 -0.010458545 -0.000261112 0.015551244 -0.012995379 0.0044929637
-0.0027104374 0.004986485 0.0088600805 0.0074858814 0.019637896 -0.007041849 -0.012885327 0.003376035
0.010558493 0.0046196813 0.003885711 0.0054210345 -0.014536805 0.00715796 0.02417138 0.009419672
-0.0069656186 0.00113227 0.007972078 0.0024451127 -0.015416622 0.010170111 0.0026587343 -0.003105888
-0.012984608 -0.008319399 0.00872954 0.0042380737 -0.009853877 0.0038007048 -0.01100062 0.0069108247
-0.0044572516 -0.0027630138 0.0016933669 -0.006734771 0.002096054 -0.006881957 0.011673215 -0.028585006
0.0014708884 0.018711567 -0.008141379 -0.00060952076 0.013815159 0.0013156183 0.0016405361 0.0019340942
0.0051789936 0.007393144 0.007920372 -0.005814324 -0.0034125247 -0.010822616 -0.0028593186 0.0031123597
0.0056860647 0.011048307 0.003174488 -0.0072878227 0.0033922084 0.004013811 -0.011454067 -0.007830361
-0.018856777 0.010940482 -0.0068098395 0.0018970034 -0.0030073132 -0.020079026 -0.0020828114 0.024592431
-0.00134156 0.008978769 -0.0018473333 -0.008275966 0.0033327166 0.006751885 0.0051489384 -0.005789691
-0.0024526461 0.0038937577 -0.008374258 0.012492494 0.0150799 -0.014993273 -0.0024897435 -0.0050435616
-0.0027991214 0.0023152363 0.0014791082 0.0017089762 -0.000410798 0.0055189864 -0.0017147575 -0.018365873
-0.008989911 -0.016990392 0.0046751886 -0.007828079 -0.003413044 0.021103399 -0.0023585618 -0.0051318076
-0.0008134691 0.00906326 -0.0010828738 -0.006188109 -0.009076874 -0.006912277 0.0027721194 -0.002346123
0.0050208145 0.013733014 0.004068609 0.018721003 -0.0064574517 -0.0038460218 -0.0040596332 0.0023021528
0.013783579 -0.002307614 -0.0070489952 0.019155325 -0.012552152 -0.00083936093 -0.015370942 -0.006132691
0.0052375537 0.010838128 0.008136783 0.015603492 -0.008420143 -0.0033841801 -0.004674786 -0.0044672447

action_model._discrete_distribution.branches.2.weight f4 [2, 128]
00000000: 2124 173c 6dc7 0b3b 4a5b 39bc 889f 023c
00000010: 98ca b63b 7259 223c f8ea 91bc a7e7 743a
00000020: 3539 d03b b00c 5d3c 4f4d 0d3c 9ba2 ebbb
00000030: 50dd 21ba a36e 083c e81b ee3a 2537 8f3a
00000040: 68d4 523a 3545 2cbc abc1 f2bb db8a 903b
00000050: 302a 673c a341 ee3b 9ea2 b1bc b294 dbbb
00000060: 2bb3 b3bb 439f 53bb d3aa 713a 21d1 27bc
00000070: a072 d5b9 5f71 97bb 5ac1 4d3b dfe3 b73b
00000080: 7f90 333b 87a8 fcbb 1446 8cbb beee 41ba
00000090: d37a 85bb 3775 e23b d3a0 793c c43a adba
000000a0: 8fd8 ec3b bd8e 4f39 056a df3b 148e 08bc
000000b0: 7ce8 44bc 0085 e1bb 1db6 c6bb 8047 3dbb
000000c0: e04c 0fbc 4bb6 c1bb f115 b83b efa4 853b
000000d0: dfe6 a43b c182 c8bb 85b4 4539 6a5f cf3a
000000e0: 1812 75bc e30d 173c b244 283c e548 abbb
000000f0: 7946 a5bb 4391 0cbc 12e3 3bbc 7d35 5c3b
00000100: 3845 65ba 5bab 1a3c 206b 12bc cf14 373b
00000110: 5164 263b 5c73 c53a 815d 1cbc b773 9b3b
00000120: 2f30 87bb cca2 adbb 5371 233c c769 6bbc
00000130: 44d1 82bc 3244 7cbb fda4 0a3c e0dc 8abc
00000140: 7bbe b0bb d05f d03b 670d 203c b773 21bc
00000150: 51ed b2ba 255b 64bc 4dd0 46bc 9733 c5bb
00000160: 006c a33c 440f bf3b a7ee 3bbc b007 ee3b
00000170: 414c c23b 3b67 00bb 4b53 b23b 923f 2b3b
00000180: 0400 973b ab8a 373b c7d2 38bc d7a3 2bbb
00000190: 6f8e 47bb cb6a 81bc 435d 40bb dbb1 2dbc
000001a0: 47e9 9bbb 0bcd b3ba d1d1 2cbb 760d a13c
000001b0: e273 4d3b df5d e93b 68e3 a2bb 2aed 10bc
000001c0: df3c 6cbc 7f6b db3b b65a c7bb ed9a 1b3c
000001d0: 9066 70bb 72c3 90bc 1c5f 0739 00b9 533c
000001e0: 0b94 c1bb 02e0 863b 4b59 eb3a 8b0b 0cbc
000001f0: 9fc7 22bc a888 7f3c c746 f33b fd12 f5ba
00000200: f7ad c7bb 7313 40bc 8767 68bc 00fc efb9
00000210: ba3b 4a3c b004 0b3b 4889 7f3b e59b 5d3c
00000220: c31e 933a 7f1f 543c 07e8 453b 40d5 573c
00000230: d14d 97bb 0e08 0cbc fa65 333c 64e6 18bb
00000240: 0bb8 a1bc 096c 193c 0dd3 95ba 4c6e 0a3c
00000250: 98d8 8cbc 5361 a9bb 387b 75bc 5b10 70bc
00000260: 83a0 2a3b c550 2e3b f026 3d3c d5a1 07bc
00000270: a04b 0ebc 5b55 843c 93bd 3a3c ecde 883c
00000280: 5770 92bc 9b90 4a3c ded7 19bc bcaa 31bb
00000290: 181f c03b be83 33bc 5522 c93a 8293 52b9
000002a0: 967b 4b3b 8ac6 633b d2de 003b a3a0 813b
000002b0: da9a 283c b902 8aba 4bb7 26bb f0aa 7d3b
000002c0: 48a5 c9bb 8110 053b a2d6 273a dd87 5cbc
000002d0: 50e4 51bb 2dec d6ba 92aa 79bc 036a 5dbc
000002e0: 2b91 56bb 2366 be39 c5ed 583b 65a9 043c
000002f0: b8b4 563b 5da8 1dbc 1590 72bb 68af 21ba
00000300: d1de 24bb 4a69 6dbc 614d 153c bb98 083c
00000310: fb54 06bc 3d1d a6bb 1303 d1ba 1f2a 913b
00000320: 6803 c1b9 8a57 8a3a 2867 c8ba 5b41 6aba
00000330: c73e 553b 6815 95bc b896 d2ba f332 a5bb
00000340: 4da3 a7bb b70e 2bbc 904e 853c 076e 7abb
00000350: 5d6a b83b 30af 39bb 7a7e 77bc c5a7 e1bb
00000360: 2bc5 a33b 0a5a 1e3b 2b7d eabb b8b2 73bb
00000370: f99a be3b 6098 403c f81b e9bb 61b5 0d3c
00000380: d08f 76bc ec7d 06bc 8bf4 56bc 0d68 b4bb
00000390: 9730 6b3b fd69 253c fee3 49bb c38c 8f3c
000003a0: ded2 8ab9 8bab 70bc 4768 23ba 7a03 903b
000003b0: 9bf9 eb3b 37fd 013c f2dd e7bb fcb7 8e3a
000003c0: 4576 18bb 2fd2 0a3c dc83 0abb 1d7b d1bb
000003d0: a3cb 8e3b 6234 dabb 150a 51bb 7631 983b
000003e0: b84e b83b a320 cd3b 62f1 f5ba 0021 64ba
000003f0: 1012 8f3c 4704 eaba adeb eabb 65ed 933b
0.009224922 0.0021328584 -0.011313269 0.0079726055 0.0055783503 0.009909021 -0.017812237 0.000934238
0.006354476 0.0134917945 0.008624389 -0.007191015 -0.0006174641 0.008327159 0.0018166276 0.0010926469
0.0008042515 -0.010514547 -0.007408341 0.004411084 0.014109179 0.007271008 -0.021683987 -0.0067010755
-0.005484005 -0.0032290972 0.0009218875 -0.010242731 -0.00040711928 -0.004621669 0.0031395764 0.005611881
0.0027399359 -0.0077105197 -0.004280815 -0.0007397941 -0.0040734797 0.0069109458 0.015236097 -0.0013216366
0.0072279642 0.00019794233 0.0068180584 -0.008334655 -0.012018319 -0.00688231 -0.00606419 -0.0028881729
-0.008746356 -0.0059116236 0.00561785 0.0040784995 0.005032405 -0.0061191027 0.00018854633 0.0015821282
-0.014957927 0.009219619 0.0102702845 -0.0052271956 -0.0050438014 -0.008579555 -0.011467712 0.0033601217
-0.0008745971 0.009440268 -0.008936673 0.0027935987 0.0025389383 0.0015064287 -0.009543777 0.004744019
-0.004125617 -0.005298948 0.009975749 -0.014368481 -0.015968926 -0.0038492796 0.008462188 -0.016951025
-0.005393801 0.006359078 0.00976882 -0.009854249 -0.0013651048 -0.013937746 -0.012134624 -0.006018113
0.01994896 0.005830677 -0.011470473 0.0072641 0.0059295003 -0.001959278 0.005442058 0.002613042
0.004608156 0.0028006237 -0.011280722 -0.0026190185 -0.0030449887 -0.015797993 -0.0029352463 -0.010601486
-0.0047580334 -0.0013717724 -0.0026370178 0.019659739 0.003134959 0.007121786 -0.0049709566 -0.008845607
-0.01441881 0.006696164 -0.0060838116 0.009497386 -0.0036682226 -0.01767132 0.00012910034 0.012922525
-0.0059075407 0.0041160593 0.0017955689 -0.008547674 -0.009935289 0.015596546 0.007424209 -0.0018697676
-0.0060937363 -0.011723387 -0.014184839 -0.00045773387 0.0123433415 0.002121251 0.0038991738 0.013525938
0.0011224378 0.012946962 0.0030198114 0.013173401 -0.0046174307 -0.008546842 0.010949606 -0.0023330683
-0.019741079 0.0093641365 -0.0011430696 0.008449148 -0.017193124 -0.0051690727 -0.014982991 -0.014652337
0.0026035614 0.0026598435 0.011544928 -0.00827833 -0.008685023 0.016153982 0.011397737 0.01670786
-0.017875833 0.012363578 -0.009389846 -0.0027109822 0.0058630817 -0.010956703 0.0015345315 -0.00020082112
0.0031049005 0.003475579 0.0019664061 0.003955917 0.010290826 -0.0010529376 -0.002543884 0.0038706623
-0.0061537363 0.0020304027 0.0006402527 -0.013460127 -0.0032026954 -0.001639729 -0.015238421 -0.013514045
-0.0032740335 0.00036315722 0.0033100706 0.008097027 0.0032761525 -0.00962266 -0.003701215 -0.00061678
-0.0025157223 -0.014490435 0.009112687 0.008337195 -0.008198972 -0.0050694034 -0.0015946351 0.00443007
-0.00036814366 0.0010554653 -0.0015289532 -0.00089361303 0.003253864 -0.018198684 -0.0016066646 -0.005041474
-0.0051159025 -0.01044052 0.016272813 -0.0038212554 0.005627914 -0.002833318 -0.015105838 -0.0068864548
0.0049978695 0.0024162554 -0.0071560345 -0.0037185382 0.005816814 0.011755079 -0.00711393 0.008649201
-0.015048936 -0.008208733 -0.013119827 -0.005505568 0.0035887116 0.01009607 -0.003080606 0.017523175
-0.0002647852 -0.0146893365 -0.0006233495 0.0043949457 0.007201386 0.007933906 -0.0070760185 0.0010888572
-0.0023263854 0.008472963 -0.0021135723 -0.00639285 0.0043577715 -0.0066590765 -0.0031896878 0.004644568
0.0056246184 0.006259994 -0.0018763954 -0.0008702427 0.017464668 -0.0017854058 -0.007169208 0.0045143836

action_model._discrete_distribution.branches.3.weight f4 [2, 128]
00000000: 7b01 a3bb 3b64 163a 02ed 623a c3a1 aabb
00000010: 1b9c e23b 7dde 7a3b 970e 4ebc 530e 09bc
00000020: 77f1 d13b c78c a0ba e8f8 0d3b ee00 b03b
00000030: 8a27 9d3b e8c2 ffbb cd56 6fbb 3db0 7bba
00000040: 62db 48bb 564d 0f3c ab58 073c 5b86 0939
00000050: df35 e2bb 0fea 5d3c a388 42bb 1a90 64bc
00000060: 8f36 a7bb 23cf bcb9 5490 ab3b 08bd c03b
00000070: 3367 e53a f7cf 6439 8913 aaba 8bb9 85b9
00000080: bd63 3dbc 54b8 9a3b 024a 65bc ebcb 143c
00000090: c7ed 773b 8f39 18ba 11c3 a3bb 1d3d e339
000000a0: 6aa2 ea3a 4fc6 873b 5e13 91ba 000a f13b
000000b0: be70 18bb a9ad b13b dbe8 99bc 30dc 9fbb
000000c0: 1db3 b53a 9e57 b7bc 281d eaba 5a4f 523c
000000d0: af8f a33b 4d13 e23b f635 2c3a ab0d 25ba
000000e0: c617 be3b 1ed8 913b 7268 143a 3371 223c
000000f0: d299 253c 3ce2 3bbc 0fa6 dabb 8793 403c
00000100: 7cf8 253c 02b1 febb 461f 11bb a24b 2d3b
00000110: 0c2b a6bb a5e6 b4bb f083 d7ba 623a e6ba
00000120: 8b36 893c f03a 5a3b efc1 02bb 66b2 07bc
00000130: 6a97 bcbb 95cb 853b af88 84bb cf57 ff3b
00000140: 405a 343c cbdf 2d3c e8a6 593c dd5d 833b
00000150: 5b81 2bbc 9a7a 603a a418 a0b9 2f9d 10bb
00000160: bb94 b9bb fc3e abbb 7c61 a3bb 9311 14bc
00000170: bcd9 bb38 f895 ca39 1a57 d1bb db0f 5cbc
00000180: 7ab7 acbc a6c8 88bb 25b2 023b 3fed a0bb
00000190: 945c 9abb 5f74 e83b 048e 273c cb5e 0a3c
000001a0: 82a0 cdbb 538a 27bb e7f9 85bc be2f 8bbb
000001b0: be79 42bc b04c a9bc 2b9c 62ba 2b6c 05bb
000001c0: 77c1 e4ba 4f0c 95bc 880f 553c 7eb0 a2bc
000001d0: 259c d1bb 3dcb 393c 20ec 04ba 6740 4f3b
000001e0: e7d6 cdbb f7dd b93b 90ff 95bb 77c8 15bb
000001f0: 0705 a039 44fb 3a3a 82a9 043c f163 8bbc
00000200: a0be b1bb b7f8 4dbb 0060 0a3a 8be8 8dbb
00000210: 00d8 583b 93a6 2c3b b3bb 36bc 874b e7bb
00000220: cd1c 583c 34d4 3a3c 7bcf bc3b aff6 9b3b
00000230: 4557 e339 0881 ed3b 1049 cf3a 2b8f 663c
00000240: 62f6 9fbb c6e6 903a 5f36 20bb aded 7c3b
00000250: cb6f 5abc 598f 97bb fbce de3b 1dcf bd3b
00000260: 87ae bbbb 6a6a 31bc 2de7 cbbb 425a 553b
00000270: 112a 333c 1812 e7bb ddf8 573c ef1b 09ba
00000280: 2731 853b 5cd3 babb b495 23bb 3308 543c
00000290: cbee 7abb 7df0 e0bb d64e 93bc 7f11 9e3a
000002a0: 07e3 c33b 37c0 103c b55d eabc 5637 a0bb
000002b0: cfdd 00bc 92d7 273c e526 adbb 8bef 7bbc
000002c0: cfab 1abc 4fc4 5f3a 385b 3cbc 36d1 313b
000002d0: 6316 4e3a 88aa 1bbc 0fe6 7c39 5b51 05bb
000002e0: c728 56bb 81c0 80bb 5e47 17bb 1f9b 653a
000002f0: 37e3 7abc eb32 793b 47c6 33bc afe3 b23c
00000300: d256 49bc b4c9 c53b 57ef 873c 1a4a f93b
00000310: efcf f4bb a259 82bc 07ec 233c cd0c 1e3c
00000320: 3ad6 103b e076 f3ba 1201 043c 37dc 8ebc
00000330: 2a0d 2dbc bb83 193a 0a47 403c f556 e63a
00000340: 7a8b 8c3b d599 e3b9 c2c1 dabb 046f 89bb
00000350: eff4 b13a 60e7 d83a 77b2 343c 0a67 003c
00000360: 38f6 a6ba cf69 e33a 2bbc 51bb 8f1d 6c3b
00000370: e2a0 613c e25b 633c 23fc 67bb e551 04bc
00000380: 53c6 503b 7dee e4bb e76f d6b7 ba73 20bb
00000390: 486e 1c3c d75c 97bb b520 98ba 6ea5 b43b
000003a0: 1757 ddbb 5776 683b 2bdd 623b cbee d6bb
000003b0: 8d18 96bb 09a6 9e3b 886a dbbb 9772 d4bb
000003c0: c359 5dbc fcc8 3bbc a7a1 bfba b936 013c
000003d0: a0d8 6539 c60d 083c b3dd c039 60e8 48bc
000003e0: a581 e23b 8cc9 213c 4b0d 1cb9 ba9d 8b3b
000003f0: 522e 633c 354d 07bc 0713 c23b a86c a93b
-0.0049745417 0.00057369814 0.0008656533 -0.005207272 0.006915582 0.0038279586 -0.012576721 -0.008365232
0.0064069587 -0.0012248986 0.0021663252 0.0053712046 0.004795973 -0.007805217 -0.0036520243 -0.00096011517
-0.003064834 0.008746466 0.008260886 0.0001311539 -0.0069033946 0.013544573 -0.0029683493 -0.013950372
-0.0051029394 -0.00036012483 0.005235711 0.0058819093 0.0017502069 0.00021821247 -0.0012975793 -0.00025505977
-0.011559424 0.0047216807 -0.013994696 0.009081821 0.0037830935 -0.0005806917 -0.004997619 0.00043342347
0.0017901186 0.0041435133 -0.0011068394 0.0073559284 -0.002326056 0.005422313 -0.018787792 -0.0048785433
0.0013862584 -0.022380646 -0.0017861472 0.012836302 0.0049914937 0.0068992735 0.000656932 -0.0006296287
0.005801174 0.004450812 0.00056613155 0.009914684 0.010107474 -0.011467513 -0.0066726278 0.011753923
0.010130044 -0.007772566 -0.0022143885 0.0026442786 -0.0050710496 -0.005520659 -0.0016442519 -0.0017565007
0.01674964 0.003329929 -0.001995202 -0.00828228 -0.0057553547 0.0040831068 -0.0040446143 0.00779245
0.011007845 0.010612438 0.013284422 0.004008992 -0.0104678525 0.0008563191 -0.00030535937 -0.0022066345
-0.005663482 -0.005226014 -0.0049859863 -0.009037393 8.957411e-05 0.00038640178 -0.006388557 -0.013431515
-0.021083582 -0.00417431 0.0019942608 -0.0049110944 -0.004710743 0.0070939506 0.01022673 0.008445452
-0.0062752375 -0.0025564625 -0.016354514 -0.0042476347 -0.011869846 -0.02066645 -0.00086444867 -0.0020358663
-0.0017452677 -0.018194346 0.013004191 -0.019859549 -0.0063967877 0.01133996 -0.0005070586 0.003162408
-0.006281722 0.005672212 -0.0045775846 -0.0022855082 0.00030521324 0.00071327784 0.008097054 -0.01701543
-0.0054243356 -0.0031428763 0.00052785873 -0.0043307 0.003308773 0.0026344403 -0.011153149 -0.007058564
0.01319046 0.011403132 0.0057620383 0.0047596316 0.00043361835 0.0072480477 0.0015814621 0.01407222
-0.004881666 0.0011055104 -0.002444647 0.0038593814 -0.013332318 -0.0046252427 0.0067995763 0.005792512
-0.0057275924 -0.010828594 -0.0062226267 0.0032555019 0.010935322 -0.0070517175 0.013181892 -0.00052302977
0.0040646973 -0.0057014655 -0.0024961056 0.012941408 -0.0038289304 -0.006864606 -0.017981928 0.0012059658
0.0059779915 0.00883489 -0.028609136 -0.004889409 -0.007865383 0.010244267 -0.0052841776 -0.015376936
-0.009440376 0.0008536027 -0.011496358 0.0027132756 0.0007861612 -0.009501107 0.00024118296 -0.002034268
-0.0032678114 -0.0039291983 -0.002308331 0.00087587716 -0.015312961 0.0038024734 -0.010972566 0.021837084
-0.012288766 0.006036008 0.016593618 0.0076077105 -0.0074710767 -0.01591188 0.010005004 0.009646607
0.0022100345 -0.0018574856 0.008056896 -0.017438991 -0.010562221 0.0005856116 0.011735687 0.0017573523
0.004289088 -0.00043411428 -0.0066759298 -0.0041941423 0.0013577024 0.0016548447 0.011028877 0.007837066
-0.0012738174 0.0017350259 -0.0032003026 0.003602836 0.013771268 0.013876887 -0.0035398088 -0.008076166
0.0031856492 -0.006986438 -2.5562897e-05 -0.002448304 0.0095477775 -0.0046192217 -0.0011606427 0.005512885
-0.0067547667 0.0035470927 0.003461669 -0.006559228 -0.0045805634 0.0048415703 -0.006696049 -0.0064833867
-0.01351017 -0.011461493 -0.001462032 0.007886582 0.00021919841 0.008304065 0.00036786273 -0.012262434
0.0069124275 0.009874713 -0.00014882271 0.004260746 0.013866024 -0.008258154 0.0059226784 0.0051704235

action_model._discrete_distribution.branches.4.weight f4 [2, 128]
00000000: 4a82 90bb a702 49bb 2856 7fbb c19d 9b3b
00000010: 228a b5bb f0d3 68bb be58 80bb 39fe 213c
00000020: 6b98 2d3c cff7 443a d92a 1dbc a8b4 913b
00000030: 3fae 93ba 1492 07bc a7c8 4b3c 5ecf 1dbc
00000040: bd55 9abb 1daa c43b 1c37 273c 3a04 d3bb
00000050: d0b7 96ba 3449 bf3b d329 c93b fb19 0abc
00000060: bd39 91ba 0ff9 d03c 4759 80bb 0bf7 913b
00000070: 87f4 b23b 75a8 1cba 9bc1 93ba 5d3d bc3b
00000080: 7a3d 35bc ae31 b93b 4a08 2ebb 6160 8f3a
00000090: e3a1 26ba f72b 643b ff63 35bc a7c5 2e3c
000000a0: 0cf5 2f3a f8e4 70bb 6584 193b 8ffc 73bc
000000b0: 9d67 7d3b ebcb 5c3c 9a62 723c e63f 1ebc
000000c0: 1e8c 90bb 0592 ed3b 9df0 593c 7bc5 4d3a
000000d0: 224f 6f3b efad 7c3c 679c 8839 fbf9 e03a
000000e0: e45b 803b eac5 fa3b 09ea 4a3c abf9 913b
000000f0: 606c d23a 7085 fcba 3a6a 16bc 026b 583c
00000100: 7392 4bbb e5b0 48bc bc10 8b3b 8b4e 0ebc
00000110: 9dfb b93b 87d1 56bc d7cb 003b 8742 963b
00000120: abe7 03bb f06d 863c 4b37 513c 35ea 3abc
00000130: a2ec a8bc bd8d a1bb e8a6 303b 9782 9d3a
00000140: 86a2 33bc 6b35 23bc 09a2 af3c d09d 713c
00000150: 8567 a0bb 81aa 483c 8f90 173b 89bc 2bb9
00000160: e8e5 3639 cb69 8a3b 6caf ab3b eaff 7ab9
00000170: 9885 6f38 4c69 b53b dd22 603c c8ce 79bb
00000180: cb11 e53b 0f93 cdbb 7f51 a13b 6054 86bb
00000190: 4f4d 033c 9ffb 2a3c 47db 413c f35b 883b
000001a0: cf64 a2bb 3ec9 1c3a 5456 aabb 9eaf 8f3c
000001b0: 3529 aa3a 0d6d 14bc 509b 333c 81fa 84bc
000001c0: 80a1 77bc 0a4d 1dbc 6e02 3e3b 5799 39bc
000001d0: 03d8 8c3b 799e 9bbb c2f0 853c f04b 0fb9
000001e0: eb5d 81bc b8a5 8fbb 2fcf 8bbc 2b9e 413c
000001f0: 5f53 4f3c 826f d1bb adc4 bcba 332f 023a
00000200: fd91 90bc 2462 30bc bb78 193c a5b3 1dbb
00000210: d0c8 f93c b372 15bc 3176 c03b 50a4 4ebb
00000220: 7ffe ce3a 1376 36bc dafa 623c 0540 62bc
00000230: 4863 263c f78f 853c 171b 193c 859d 5f3c
00000240: 0dce cdbb e6db 01bb 455b ee3b ea4d 7bbb
00000250: a769 6ebc 98be 213a 7b42 0b3a 5351 c639
00000260: 2205 6ebc c2ea efbb 22a1 cc3b 7237 dcb9
00000270: c2d4 0cbb 308a 3339 4951 183c daee 08bc
00000280: 4e31 29bc 2738 aebc ca51 d4bb 2be1 ecbb
00000290: 7502 5839 124c 33bc 5de3 dd3a c2fd 4b3b
000002a0: ac48 40bc f2a4 75bc caba a7bc 9f82 073b
000002b0: eaae be3a 0918 18bc 7775 4c3b cff9 36bc
000002c0: 1292 c6bb e9a5 9abb 8b91 0d3c d9ba 9d3b
000002d0: c341 6ebb 4854 2a3b 05a3 f0bb 5bba 03bc
000002e0: 3366 a2bc 4374 b2ba b72d 213c 0cb4 403c
000002f0: e7a1 c8bb 53ae 8abb b7ba a93b df75 103c
00000300: 0237 d9bb ba8b d0bb 0441 943b f667 223c
00000310: c3a4 82bc 25b5 653c 0d03 6dbb c144 2abc
00000320: 6804 773b 2c75 07bb 26eb 853b af94 233c
00000330: 533b 353a 72ab 943c caee dfb8 4310 54bb
00000340: d3b5 4d3c 8bae 823c eaff f73b e806 373c
00000350: 9b24 083b 4081 603b 8d55 0dbc 01fc 0a3c
00000360: 1f62 2d3c 0294 623a 4c38 033c fc7f 8b3b
00000370: 2312 d7bb 8d17 e73b 7c06 83bb db33 44bc
00000380: 2734 f8bb e595 613b ea9c efbb 5ff8 a3bc
00000390: 0d34 743c ca16 a9bb fbf7 7939 dbaa 473c
000003a0: 000e 3a3c d314 bd3b 3bf3 ddbb 7be0 d6ba
000003b0: 56d4 bc3b 4de4 18bb 3af6 88bc e8c7 613c
000003c0: 56ff 1539 f8ee 703b 189c 21bc 430c 7dbc
000003d0: 8b9a 5e3b e024 85bc f04c 4d3a 8cff 21bc
000003e0: 8d29 083c 5bba 5dbc b2d2 633b 1ec3 043c
000003f0: d5b6 2a3b 2ad0 073c ced9 b8bb 5afa 953a
-0.004410063 -0.0030671747 -0.0038961265 0.0047490303 -0.0055401484 -0.0035526715 -0.003916829 0.009887272
0.010595421 0.0007513733 -0.009592735 0.0044465847 -0.0011267139 -0.008274574 0.012437976 -0.00963196
-0.004709928 0.0060017244 0.01020601 -0.006439713 -0.0011498872 0.005837584 0.006139019 -0.008429046
-0.001107983 0.025509385 -0.0039168927 0.0044544986 0.005461279 -0.000597603 -0.0011272909 0.0057446198
-0.01106202 0.0056516742 -0.0026555234 0.0010938757 -0.00063565205 0.0034816244 -0.011071204 0.010667241
0.0006712235 -0.003675757 0.002342486 -0.014891758 0.0038666495 0.013476352 0.014794016 -0.009658789
-0.0044112345 0.007250073 0.013301996 0.0007849556 0.0036515673 0.015422328 0.0002605647 0.0017164344
0.003917204 0.0076529877 0.0123849 0.0044548116 0.0016054027 -0.0019265842 -0.0091806 0.013209106
-0.0031062632 -0.012249206 0.0042439383 -0.008685718 0.0056757466 -0.013111479 0.0019652748 0.0045855674
-0.0020127099 0.016409844 0.0127695305 -0.011408378 -0.020620648 -0.0049302266 0.0026954953 0.0012017068
-0.010964042 -0.009961466 0.02143957 0.014747098 -0.004895153 0.012247683 0.0023126935 -0.00016378066
0.0001744252 0.0042240373 0.005239418 -0.00023937193 5.710646e-05 0.005536234 0.013680187 -0.0038117636
0.0069906465 -0.0062736343 0.004923045 -0.0040994138 0.008014037 0.010435968 0.011832065 0.004161352
-0.004955865 0.0005980915 -0.0051982794 0.017539795 0.0012982251 -0.009059203 0.010962322 -0.01623273
-0.015114188 -0.009600887 0.0028993147 -0.011328063 0.0042982115 -0.004749116 0.016350154 -0.00013665832
-0.015791854 -0.004383769 -0.017066566 0.011817495 0.012654155 -0.0063914666 -0.0014401876 0.00049661397
-0.017647738 -0.010765586 0.009367163 -0.0024063375 0.030491263 -0.009121585 0.0058734645 -0.0031531043
0.0015792398 -0.0111365495 0.013853753 -0.013809209 0.010155506 0.016304 0.009344838 0.013648395
-0.0062806667 -0.0019814908 0.007274064 -0.0038346 -0.014551557 0.0006170063 0.00053123356 0.00037826094
-0.014527591 -0.0073216865 0.0062447945 -0.0004200298 -0.0021489118 0.00017122249 0.009296724 -0.008357728
-0.010326697 -0.02126701 -0.0064794766 -0.0072289906 0.0002060028 -0.01094343 0.0016928721 0.0031126593
-0.011736076 -0.014992939 -0.02047481 0.0020677221 0.0014547978 -0.009283074 0.0031197944 -0.011167957
-0.0060598934 -0.004719485 0.008640657 0.0048135337 -0.0036355115 0.0025990177 -0.007343652 -0.008040036
-0.019824123 -0.0013614971 0.009837559 0.0117616765 -0.006122816 -0.004232207 0.005179729 0.008817165
-0.006628872 -0.006364313 0.004524352 0.0099124815 -0.015947705 0.014020239 -0.0036165148 -0.010392369
0.0037691835 -0.0020669205 0.00408687 0.009984179 0.0006913442 0.018148158 -0.000106779466 -0.0032358326
0.012555557 0.01595237 0.007568349 0.01117108 0.0020773772 0.0034256727 -0.008626354 0.008482934
0.010582476 0.00086432707 0.008009028 0.0042572003 -0.0065634414 0.007052368 -0.0039985757 -0.011975254
-0.0075745764 0.003442162 -0.007312407 -0.020015894 0.014904988 -0.0051601874 0.0002383887 0.012186731
0.011355877 0.0057703047 -0.00677338 -0.0016393805 0.005762617 -0.0023329437 -0.016718972 0.0137805715
0.00014304867 0.003676353 -0.009863876 -0.015444818 0.0033966627 -0.016252935 0.0007831594 -0.009887587
0.008310688 -0.0135332 0.0034763035 0.00810316 0.0026048918 0.008289376 -0.0056411987 0.0011442408
