Assets/results/ppo/My Behavior/My Behavior-144.pt (torch, 219670 bytes, 38 tensors)

discrete_act_size_vector f4 [1, 14]
2.0 2.0 2.0 2.0 2.0 2.0 2.0 10.0
10.0 10.0 10.0 10.0 10.0 10.0
00000000: 0000 0040 0000 0040 0000 0040 0000 0040
00000010: 0000 0040 0000 0040 0000 0040 0000 2041
00000020: 0000 2041 0000 2041 0000 2041 0000 2041
00000030: 0000 2041 0000 2041

network_body._body_endoder.seq_layers.0.weight f4 [128, 24]
-0.070014596 0.24192898 -0.08095641 0.14591023 0.06742762 -0.14302456 0.04623078 -0.29312086
0.19050056 0.14169928 0.17899072 -0.26709482 -0.06349943 -0.2885712 0.020202044 -0.19462429
-0.032648943 0.41485518 0.20878528 -0.0470595 0.0984413 0.32026052 0.0008980584 0.19218867
0.15244378 0.09014725 0.11846345 -0.100236654 0.09521973 0.12218729 0.16930819 -0.050222255
-0.3507102 0.5133453 -0.010071459 -0.04029055 -0.24193278 0.2454883 -0.06883877 -0.2556276
-0.21312945 -0.043179784 0.009289162 0.2585977 0.3027823 -0.13274337 0.103336886 0.043311834
0.013376065 -0.25429007 0.055530638 -0.30759826 0.12304669 0.06201528 0.22667196 -0.0182527
-0.12671573 0.050320994 0.20398584 0.046305344 0.09087555 -0.22175725 0.026355332 -0.18582508
0.05757841 -0.009904447 0.32675844 0.052573606 -0.08969466 0.14004034 0.31013 -0.20045683
0.1988591 -0.049248252 -0.120248124 0.025431246 0.06622594 0.29524565 0.3103464 -0.06299206
0.1864644 0.27023163 0.18918206 0.040351342 0.12976354 -0.36927783 -0.06466765 0.0350085
0.29573837 0.15704983 -0.016393535 -0.051933933 0.110035785 -0.14275327 -0.5226492 -0.037122827
0.017764727 0.13795494 -0.025569886 0.1553221 0.3284452 -0.075266756 -0.34170842 0.059852637
0.035652936 0.013627304 -0.39986336 0.5329209 -0.17951459 0.33585384 0.17509097 -0.0028508382
-0.06433364 -0.081041835 -0.21031599 -0.0123119 -0.06676253 -0.024186933 0.32785714 0.1451641
0.27104193 -0.09196206 -0.1074514 -0.09195241 0.042993106 -0.21605311 -0.10867788 0.15645082
0.0942179 0.44047448 0.268769 -0.071501985 0.03678515 -0.19017257 -0.46754384 -0.096871264
0.049266443 0.33401722 0.20778722 -0.34775013 0.1140818 -0.23888749 0.272252 -0.22865961
0.10979661 -0.08701844 0.19946083 0.06763912 0.0969447 0.1460722 0.120083064 -0.26180503
-0.43518335 -0.4691461 0.13925652 0.29715466 -0.20496799 -0.06177101 0.10105872 0.45134386
-0.045883115 0.28257272 -0.09428753 0.011780079 -0.14531298 0.04271281 0.12650561 0.1035423
-0.2420976 0.39132056 0.079551175 -0.022380175 0.13248736 -0.62249064 -0.43806252 0.0889125
0.4272281 -0.12105622 -0.12846838 -0.07066271 -0.139662 0.15276763 -0.05779005 0.0870061
-0.018190863 0.33199787 -0.32845628 -0.0003045585 -0.19219682 0.2087401 -0.113305055 -0.13926713
0.34876293 0.001091336 -0.26981854 -0.0648253 -0.02796815 0.029163733 -0.0450543 0.32052568
-0.24038069 0.14463718 -0.0007363941 0.2528746 0.08814373 0.24165358 -0.10177016 0.04182833
0.121473745 0.14561017 0.07423169 0.10485877 -0.058646224 -0.24403615 -0.018602647 -0.18010652
-0.00073188293 0.11130279 0.43128082 0.26347193 0.1937273 0.02824484 -0.44445902 -0.19234307
-0.51121527 -0.13834043 0.5180604 0.21845138 0.12499901 -0.104576856 -0.22288747 -0.13751253
-0.088078335 -0.055497434 0.025627347 -0.40460566 0.22500382 0.32241693 -0.13067587 -0.56322247
0.099440984 0.03420656 0.27478135 -0.09661301 0.22344933 -0.044611502 -0.17307134 0.061000112
-0.27406934 0.03299636 0.3966823 -0.0014721268 0.2573158 -0.1710813 -0.24248143 0.29020754
00000000: d063 8fbd 3bbc 773e 79cc a5bd 7e69 153e
00000010: 7e17 8a3d 0875 12be 7d5c 3d3d f013 96be
00000020: 9412 433e 9e19 113e 5849 373e a7c0 88be
00000030: fd0b 82bd 9bbf 93be c27e a53c 974b 47be
00000040: e6ba 05bd e667 d43e cfcb 553e 76c1 40bd
00000050: 989b c93d 30f9 a33e ae6b 6b3a 1bcd 443e
00000060: 391a 1c3e 1f9f b83d f79c f23d e048 cdbd
00000070: 9002 c33d 543d fa3d 205f 2d3e dab5 4dbd
00000080: 4a90 b3be 996a 033f c302 25bc b407 25bd
00000090: 3abd 77be 4961 7b3e 57fb 8cbd 9fe1 82be
000000a0: 9b3e 5abe 49dd 30bd 9231 183c eb66 843e
000000b0: 4806 9b3e e1ed 07be 4aa2 d33d c067 313d
000000c0: 4827 5b3c 4f32 82be 1874 633d 857d 9dbe
000000d0: e7ff fb3d bc03 7e3d b21c 683e b086 95bc
000000e0: c5c1 01be 631d 4e3d aae1 503e acaa 3d3d
000000f0: f61c ba3d 5514 63be 23e7 d73c ee48 3ebe
00000100: 57d7 6b3d 4346 22bc e24c a73e 6c57 573d
00000110: d5b1 b7bd bc66 0f3e 5cc9 9e3e 8e44 4dbe
00000120: b8a1 4b3e 89b8 49bd a644 f6bd 3055 d03c
00000130: 77a1 873d 702a 973e b9e5 9e3e fb01 81bd
00000140: 86f0 3e3e cd5b 8a3e f1b8 413e 7347 253d
00000150: bce0 043e fc11 bdbe 7970 84bd 1365 0f3d
00000160: 056b 973e acd1 203e bc4b 86bc adb8 54bd
00000170: 715a e13d ea2d 12be 57cc 05bf 1b0e 18bd
00000180: 5587 913c 0f44 0d3e f077 d1bc c20c 1f3e
00000190: f829 a83e 7525 9abd 68f4 aebe 0a28 753d
000001a0: d008 123d 0e45 5f3c e4ba ccbe 816d 083f
000001b0: acd2 37be 09f5 ab3e 0c4b 333e 21d5 3abb
000001c0: 5bc1 83bd 43f9 a5bd 135d 57be dab7 49bc
000001d0: cbba 88bd ad23 c6bc e4dc a73e e6a5 143e
000001e0: 02c6 8a3e 9b56 bcbd 7b0f dcbd 8c51 bcbd
000001f0: 8a19 303d 073d 5dbe 8292 debd a534 203e
00000200: 50f5 c03d df85 e13e 179c 893e a26f 92bd
00000210: 07ac 163d 99bc 42be e861 efbe 7164 c6bd
00000220: 9ccb 493d 4e04 ab3e 2cc6 543e 4e0c b2be
00000230: b8a3 e93d ec9e 74be 9d64 8b3e bf25 6abe
00000240: 0cdd e03d b936 b2bd 763f 4c3e 6186 8a3d
00000250: f18a c63d f393 153e 1cee f53d 4f0b 86be
00000260: 5ad0 debe eb33 f0be 4399 0e3e a824 983e
00000270: 21e3 51be 9903 7dbd e0f7 ce3d 8b16 e73e
00000280: efef 3bbd 5fad 903e d219 c1bd 3c01 413c
00000290: edcc 14be a1f3 2e3d b08a 013e fc0d d43d
000002a0: 6fe8 77be 2b5b c83e baeb a23d a156 b7bc
000002b0: c4aa 073e 8c5b 1fbf bb49 e0be c217 b63d
000002c0: a4bd da3e 53ec f7bd 378d 03be 9cb7 90bd
000002d0: 8e03 0fbe 1e6f 1c3e 42b5 6cbd 4130 b23d
000002e0: 0105 95bc a0fb a93e 6c2b a8be 26ad 9fb9
000002f0: 3ecf 44be f7bf 553e 7b0c e8bd 0b9c 0ebe
00000300: 0e91 b23e 290b 8f3a a825 8abe 20c3 84bd
00000310: 761d e5bc c8e8 ee3c dc8a 38bd f11b a43e
00000320: 5b26 76be c51b 143e 920a 41ba c878 813e
00000330: b384 b43d 0974 773e e06c d0bd 2f54 2b3d
00000340: 3ac7 f83d d51a 153e c906 983d 32c0 d63d
00000350: 0637 70bd 9de4 79be 9464 98bc d86d 38be
00000360: d5db 3fba b8f2 e33d d7d0 dc3e cbe5 863e
00000370: 7360 463e b961 e73c 2290 e3be 95f5 44be
00000380: 01df 02bf 1da9 0dbe 9b9f 043f b8b1 5f3e
00000390: 7bff ff3d 642c d6bd 9d3c 64be 16d0 0cbe
000003a0: 6a62 b4bd 4751 63bd 71f0 d13c 7928 cfbe
000003b0: 6767 663e d513 a53e e5cf 05be 592f 10bf
000003c0: b7a7 cb3d 2e1c 0c3d 24b0 8c3e 0bdd c5bd
000003d0: e7cf 643e 8dba 36bd 9d39 31be 41db 793d
000003e0: d152 8cbe 3127 073d f119 cb3e 61f4 c0ba
000003f0: e6be 833e f02f 2fbe 0d4d 78be 1596 943e

network_body._body_endoder.seq_layers.0.bias f4 [128]
0.0 0.0 0.0 0.0 0.0 0.0 0.0 0.0
0.0 0.0 0.0 0.0 0.0 0.0 0.0 0.0
0.0 0.0 0.0 0.0 0.0 0.0 0.0 0.0
0.0 0.0 0.0 0.0 0.0 0.0 0.0 0.0
0.0 0.0 0.0 0.0 0.0 0.0 0.0 0.0
0.0 0.0 0.0 0.0 0.0 0.0 0.0 0.0
0.0 0.0 0.0 0.0 0.0 0.0 0.0 0.0
0.0 0.0 0.0 0.0 0.0 0.0 0.0 0.0
0.0 0.0 0.0 0.0 0.0 0.0 0.0 0.0
0.0 0.0 0.0 0.0 0.0 0.0 0.0 0.0
0.0 0.0 0.0 0.0 0.0 0.0 0.0 0.0
0.0 0.0 0.0 0.0 0.0 0.0 0.0 0.0
0.0 0.0 0.0 0.0 0.0 0.0 0.0 0.0
0.0 0.0 0.0 0.0 0.0 0.0 0.0 0.0
0.0 0.0 0.0 0.0 0.0 0.0 0.0 0.0
0.0 0.0 0.0 0.0 0.0 0.0 0.0 0.0
00000000: 0000 0000 0000 0000 0000 0000 0000 0000
00000010: 0000 0000 0000 0000 0000 0000 0000 0000
00000020: 0000 0000 0000 0000 0000 0000 0000 0000
00000030: 0000 0000 0000 0000 0000 0000 0000 0000
00000040: 0000 0000 0000 0000 0000 0000 0000 0000
00000050: 0000 0000 0000 0000 0000 0000 0000 0000
00000060: 0000 0000 0000 0000 0000 0000 0000 0000
00000070: 0000 0000 0000 0000 0000 0000 0000 0000
00000080: 0000 0000 0000 0000 0000 0000 0000 0000
00000090: 0000 0000 0000 0000 0000 0000 0000 0000
000000a0: 0000 0000 0000 0000 0000 0000 0000 0000
000000b0: 0000 0000 0000 0000 0000 0000 0000 0000
000000c0: 0000 0000 0000 0000 0000 0000 0000 0000
000000d0: 0000 0000 0000 0000 0000 0000 0000 0000
000000e0: 0000 0000 0000 0000 0000 0000 0000 0000
000000f0: 0000 0000 0000 0000 0000 0000 0000 0000
00000100: 0000 0000 0000 0000 0000 0000 0000 0000
00000110: 0000 0000 0000 0000 0000 0000 0000 0000
00000120: 0000 0000 0000 0000 0000 0000 0000 0000
00000130: 0000 0000 0000 0000 0000 0000 0000 0000
00000140: 0000 0000 0000 0000 0000 0000 0000 0000
00000150: 0000 0000 0000 0000 0000 0000 0000 0000
00000160: 0000 0000 0000 0000 0000 0000 0000 0000
00000170: 0000 0000 0000 0000 0000 0000 0000 0000
00000180: 0000 0000 0000 0000 0000 0000 0000 0000
00000190: 0000 0000 0000 0000 0000 0000 0000 0000
000001a0: 0000 0000 0000 0000 0000 0000 0000 0000
000001b0: 0000 0000 0000 0000 0000 0000 0000 0000
000001c0: 0000 0000 0000 0000 0000 0000 0000 0000
000001d0: 0000 0000 0000 0000 0000 0000 0000 0000
000001e0: 0000 0000 0000 0000 0000 0000 0000 0000
000001f0: 0000 0000 0000 0000 0000 0000 0000 0000

network_body._body_endoder.seq_layers.2.weight f4 [128, 128]
0.16555153 0.07191538 0.017225936 -0.027980085 -0.13926241 0.16614833 -0.0032637 -0.09743866
0.055522736 -0.0142936995 -0.17892127 0.06600911 0.05400695 -0.08225479 0.036714006 0.014524429
-0.14690223 0.1100945 -0.09285665 0.15484975 -0.032411397 -0.07904486 0.08468021 -0.07313909
-0.027874319 -0.07285194 0.005646579 -0.12705667 -0.013697567 0.020682035 0.06814575 0.01783531
0.018962203 0.031079955 0.06675099 0.061558317 -0.22261657 0.14613694 -0.1339115 0.034008186
-0.0050819716 0.105020754 0.059036545 0.049269117 -0.060356036 0.0179213 0.02724427 -0.117037416
0.13315104 -0.091508836 -0.039954625 0.0006738631 -0.016995667 -0.056772806 0.05853358 0.01293244
-0.14526035 0.10801883 -0.07724732 -0.040077705 -0.15311614 0.027358823 -0.05508443 0.054340538
-0.03647755 0.00745404 -0.18218163 -0.098641254 0.13809927 -0.0074720914 -0.06904604 0.021005755
0.07244755 -0.03976996 0.1378391 0.052734148 -0.13049854 0.13869761 0.01747975 0.16039166
0.10687278 0.20176512 0.076129995 0.036736332 -0.04285408 0.031998735 -0.03936976 0.037560783
0.088150084 0.004456837 0.027571341 -0.04546409 -0.026705703 0.0036998966 -0.015634798 -0.14470208
-0.040405072 0.008336742 -0.05348492 -0.028130792 -0.02524273 -0.03861827 0.13390076 0.0457894
-0.15520264 0.11860826 -0.007610953 0.08363526 0.00034154064 0.039617546 0.18799995 -0.016304001
0.017307188 -0.109751806 -0.08250437 0.10407191 0.00053072633 -0.07744624 0.065677635 0.020047383
0.13853933 0.103146635 -0.086634316 0.07598207 0.056041684 -0.046637636 0.0784484 -0.06792927
-0.005188933 -0.035543494 -0.13135251 0.019069131 0.046544198 -0.014716004 0.07608752 -0.18737507
-0.14665854 -0.012012422 -0.08924331 0.037413023 -0.17441447 -0.042574316 -0.0032184613 -0.0044737607
-0.052980915 -0.008463369 0.08712939 0.06854092 0.010999787 0.04228604 -0.017124983 -0.020849563
0.014606338 0.13478549 0.17263386 0.029737778 0.040403776 -0.088811405 0.050390117 0.065915614
-0.18511076 0.09954492 0.012487692 0.042471867 0.05437056 0.10223421 0.02467031 0.1614264
-0.08883798 -0.084148176 -0.031263933 -0.0680309 0.10509179 0.003223849 -0.0524466 -0.039555736
0.019244384 -0.027855955 -0.10907142 -0.02481733 -0.0056596883 -0.077371605 0.024461595 -0.030540485
-0.042083357 -0.042380195 0.094396874 0.0707378 0.05240487 -0.084777266 0.03467016 -0.06440425
0.07740324 0.08333625 0.04897965 -0.043978356 0.11574303 0.115605906 -0.025619546 0.104460984
0.036710132 0.089152984 0.009917035 -0.025365084 0.048944496 0.022722205 -0.08931955 0.010988436
0.1278663 -0.0047365 0.19139224 -0.043607753 -0.008132445 0.132311 -0.16671455 -0.043963835
0.019824017 0.035286125 0.055182684 -0.068859965 0.078689046 0.019945333 -0.034416977 0.12804095
-0.09669078 0.07902433 -0.07154783 -0.02938164 0.12708984 -0.05513315 0.020960387 -0.04851373
-0.04464403 -0.04925913 0.01743584 0.0031336502 -0.18085565 -0.04575652 0.21937984 0.021001188
-0.026426155 -0.10020821 0.030502591 -0.09411006 -0.02850225 0.15825559 0.02983652 -0.009384745
0.07483927 -0.024427716 -0.08245081 -0.085771866 -0.093584746 0.05230737 0.13342828 0.034305762
00000000: 5786 293e 5f48 933d 681d 8d3c 7e36 e5bc
00000010: ce9a 0ebe ca22 2a3e cde3 55bb ec8d c7bd
00000020: cf6b 633d 1f30 6abc 2337 37be c92f 873d
00000030: 6436 5d3d 3375 a8bd 6d61 163d dff7 6d3c
00000040: 8a6d 16be 3a79 e13d a12b bebd ef90 1e3e
00000050: d0c1 04bd 46e2 a1bd d16c ad3d f2c9 95bd
00000060: af58 e4bc 6633 95bd f006 b93b 251b 02be
00000070: c36b 60bc 5f6d a93c 0090 8b3d 5b1b 923c
00000080: 9f56 9b3c 649b fe3c beb4 883d 9324 7c3d
00000090: 99f5 63be eca4 153e 1920 09be 2b4c 0b3d
000000a0: ab86 a6bb 1f15 d73d 4ed0 713d 6ace 493d
000000b0: e437 77bd b1cf 923c 602f df3c 50b1 efbd
000000c0: bf58 083e fc68 bbbd 76a7 23bd 30a6 303a
000000d0: 7f3a 8bbc 9a8a 68bd e8c0 6f3d 96e2 533c
000000e0: 21bf 14be fa38 dd3d d833 9ebd 8528 24bd
000000f0: 7aca 1cbe 9c1f e03c 36a0 61bd 2f94 5e3d
00000100: 7c69 15bd 0541 f43b d28d 3abe 6d04 cabd
00000110: e569 0d3e 72d8 f4bb 0368 8dbd 4314 ac3c
00000120: 625f 943d d3e5 22bd b125 0d3e c3ff 573d
00000130: 69a1 05be bf06 0e3e b131 8f3c b63d 243e
00000140: 1ee0 da3d 849b 4e3e 0bea 9b3d d678 163d
00000150: c387 2fbd 1b11 033d 2f42 21bd 56d9 193d
00000160: 0888 b43d a90a 923b 4bdd e13c 8e38 3abd
00000170: ebc5 dabc f779 723b 8c14 80bc c82c 14be
00000180: ca7f 25bd d596 083c 0113 5bbd 8c72 e6bc
00000190: d7c9 cebc 312e 1ebd 481d 093e aa8d 3b3d
000001a0: 71ed 1ebe e3e8 f23d 4d65 f9bb f748 ab3d
000001b0: cf10 b339 0246 223d 0f83 403e f88f 85bc
000001c0: cec7 8d3c 8ec5 e0bd 0df8 a8bd a723 d53d
000001d0: 7120 0b3a 229c 9ebd ff81 863d 693a a43c
000001e0: 41dd 0d3e 8b3e d33d 556d b1bd 7d9c 9b3d
000001f0: f78b 653d 1b07 3fbd 8ea9 a03d 801e 8bbd
00000200: ed07 aabb 0e96 11bd 4681 06be de36 9c3c
00000210: 21a5 3e3d 651b 71bc c6d3 9b3d 40df 3fbe
00000220: a82d 16be c0cf 44bc 32c5 b6bd 663e 193d
00000230: b599 32be 6862 2ebd d2ec 52bb a098 92bb
00000240: 8402 59bd f1a9 0abc e570 b23d 2f5f 8c3d
00000250: 7338 343c 2034 2d3d b149 8cbc b4cc aabc
00000260: 6c4f 6f3c 3505 0a3e eec6 303e a49c f33c
00000270: 6e7e 253d c1e2 b5bd de65 4e3d c4fe 863d
00000280: ad8d 3dbe 35de cb3d 2d99 4c3c fbf6 2d3d
00000290: aab3 5e3d 2b60 d13d 6419 ca3c f64c 253e
000002a0: b0f0 b5bd e155 acbd 9c0e 00bd c953 8bbd
000002b0: 5d3a d73d 3647 533b 3fd2 56bd 3205 22bd
000002c0: 66a6 9d3c 2c32 e4bc d660 dfbd b74d cbbc
000002d0: e874 b9bb 0175 9ebd af63 c83c 0a30 fabc
000002e0: 995f 2cbd db96 2dbd 2653 c13d fbde 903d
000002f0: 7da6 563d b49f adbd 4c02 0e3d 60e6 83bd
00000300: 9785 9e3d 32ac aa3d e39e 483d a622 34bd
00000310: af0a ed3d cac2 ec3d 15e0 d1bc a4ef d53d
00000320: 5d5d 163d d795 b63d 0f7b 223c 70ca cfbc
00000330: 067a 483d eb23 ba3c 2bed b6bd d708 343c
00000340: 62ef 023e a434 9bbb 54fc 433e 0b9e 32bd
00000350: f23d 05bc 897c 073e 38b7 2abe 6c13 34bd
00000360: fa65 a23c 2f88 103d 3d07 623d 7406 8dbd
00000370: b927 a13d 6564 a33c d1f8 0cbd 2b1d 033e
00000380: d105 c6bd 82d7 a13d ab87 92bd c4b1 f0bc
00000390: d723 023e 4cd3 61bd 1eb5 ab3c 55b6 46bd
000003a0: a9dc 36bd f1c3 49bd 9bd5 8e3c ed5d 4d3b
000003b0: 3932 39be 306b 3bbd 1ca5 603e af0a ac3c
000003c0: aa7b d8bc f639 cdbd 92e0 f93c c6bc c0bd
000003d0: 8d7d e9bc c10d 223e b86b f43c 79c2 19bc
000003e0: 5545 993d a21c c8bc f8db a8bd 29a9 afbd
000003f0: 5ca9 bfbd 4140 563d 6ca1 083e 3384 0c3d

network_body._body_endoder.seq_layers.2.bias f4 [128]
0.0 0.0 0.0 0.0 0.0 0.0 0.0 0.0
0.0 0.0 0.0 0.0 0.0 0.0 0.0 0.0
0.0 0.0 0.0 0.0 0.0 0.0 0.0 0.0
0.0 0.0 0.0 0.0 0.0 0.0 0.0 0.0
0.0 0.0 0.0 0.0 0.0 0.0 0.0 0.0
0.0 0.0 0.0 0.0 0.0 0.0 0.0 0.0
0.0 0.0 0.0 0.0 0.0 0.0 0.0 0.0
0.0 0.0 0.0 0.0 0.0 0.0 0.0 0.0
0.0 0.0 0.0 0.0 0.0 0.0 0.0 0.0
0.0 0.0 0.0 0.0 0.0 0.0 0.0 0.0
0.0 0.0 0.0 0.0 0.0 0.0 0.0 0.0
0.0 0.0 0.0 0.0 0.0 0.0 0.0 0.0
0.0 0.0 0.0 0.0 0.0 0.0 0.0 0.0
0.0 0.0 0.0 0.0 0.0 0.0 0.0 0.0
0.0 0.0 0.0 0.0 0.0 0.0 0.0 0.0
0.0 0.0 0.0 0.0 0.0 0.0 0.0 0.0
00000000: 0000 0000 0000 0000 0000 0000 0000 0000
00000010: 0000 0000 0000 0000 0000 0000 0000 0000
00000020: 0000 0000 0000 0000 0000 0000 0000 0000
00000030: 0000 0000 0000 0000 0000 0000 0000 0000
00000040: 0000 0000 0000 0000 0000 0000 0000 0000
00000050: 0000 0000 0000 0000 0000 0000 0000 0000
00000060: 0000 0000 0000 0000 0000 0000 0000 0000
00000070: 0000 0000 0000 0000 0000 0000 0000 0000
00000080: 0000 0000 0000 0000 0000 0000 0000 0000
00000090: 0000 0000 0000 0000 0000 0000 0000 0000
000000a0: 0000 0000 0000 0000 0000 0000 0000 0000
000000b0: 0000 0000 0000 0000 0000 0000 0000 0000
000000c0: 0000 0000 0000 0000 0000 0000 0000 0000
000000d0: 0000 0000 0000 0000 0000 0000 0000 0000
000000e0: 0000 0000 0000 0000 0000 0000 0000 0000
000000f0: 0000 0000 0000 0000 0000 0000 0000 0000
00000100: 0000 0000 0000 0000 0000 0000 0000 0000
00000110: 0000 0000 0000 0000 0000 0000 0000 0000
00000120: 0000 0000 0000 0000 0000 0000 0000 0000
00000130: 0000 0000 0000 0000 0000 0000 0000 0000
00000140: 0000 0000 0000 0000 0000 0000 0000 0000
00000150: 0000 0000 0000 0000 0000 0000 0000 0000
00000160: 0000 0000 0000 0000 0000 0000 0000 0000
00000170: 0000 0000 0000 0000 0000 0000 0000 0000
00000180: 0000 0000 0000 0000 0000 0000 0000 0000
00000190: 0000 0000 0000 0000 0000 0000 0000 0000
000001a0: 0000 0000 0000 0000 0000 0000 0000 0000
000001b0: 0000 0000 0000 0000 0000 0000 0000 0000
000001c0: 0000 0000 0000 0000 0000 0000 0000 0000
000001d0: 0000 0000 0000 0000 0000 0000 0000 0000
000001e0: 0000 0000 0000 0000 0000 0000 0000 0000
000001f0: 0000 0000 0000 0000 0000 0000 0000 0000

action_model._discrete_distribution.branches.0.weight f4 [2, 128]
-0.0073393905 0.0077524506 -0.00035280845 0.009981296 0.009788643 -0.007195142 0.0016520079 0.010258296
-0.0013222493 0.006345503 -0.01402503 0.02173618 0.0052692858 -0.0019151729 -0.014160409 -0.021293873
-0.0007179403 -0.0022808474 -0.011645995 0.0040454804 -0.0010083204 -0.0041361023 0.0011204624 0.013169728
0.007859377 -0.00024009962 -0.011089006 -0.011734504 -0.0018604707 0.0049489215 -0.009356621 -0.017939264
0.0023218256 -0.013123478 0.007502974 -0.010128149 -0.011233466 0.015510336 0.013062554 0.0028224771
-0.0006662073 -0.005252696 0.0015994748 -0.012342434 -0.004411616 0.0041287905 0.011061919 0.00075500243
-0.0093235355 -0.0055188052 0.0021340034 0.0049068783 0.0008272752 -0.019156042 0.0012167859 -0.0059844214
-0.0072936015 -0.0028611363 -0.0011070364 -0.0061036586 0.00943614 0.0018843912 -0.0039421855 -0.022640236
-0.008684506 0.009219068 -0.00765157 0.0036158152 -0.015685974 0.0007007682 -0.0068769935 0.006231018
-0.009391221 0.004262472 0.0060657603 0.007427983 -0.014439999 -0.0023697189 0.016400171 -0.0058258544
0.0034664888 -0.015305273 0.008292443 -0.004145221 -0.0103271855 0.0014914403 -0.017085599 0.010387528
-0.011809912 -0.008627728 -0.0043589617 0.010758788 0.0153780505 -0.006583314 -0.007987328 -0.0038380572
-0.00031840778 -0.008603859 0.009075428 -0.0011943657 0.027448261 0.0005803886 0.020829579 -0.016052134
0.009986873 0.007713993 -0.009173198 -0.009536282 -0.007881813 -0.009040716 0.0092453165 0.013633998
-0.0071725347 -0.0066597494 -0.0011568315 0.008995374 0.006240576 -0.004038704 -0.00178004 -0.0107283415
0.011036799 -0.021086778 0.010738868 0.0025381474 -0.00061367295 0.0007519207 0.0011945645 0.008386225
0.002795042 0.003073903 0.008413982 -0.0030272896 -0.0026136185 0.017586058 0.0028231887 -0.0072542327
0.0016585743 -0.003985933 0.0026775876 -0.0078685405 0.0045343023 0.00055479957 -0.0009682844 0.009549224
0.00066799 0.012305356 -0.015857944 -0.006963763 -0.0014944727 0.013636164 0.001251486 0.0021484976
0.013622749 -0.00043490747 0.00042327936 -0.011449443 -0.0069903783 -0.0130975265 0.005835048 -0.00025757062
0.0035490163 0.0058932076 0.018494098 -0.0057955845 0.012676959 -0.020420741 0.0009555099 0.008730781
0.0025787537 0.002695523 0.0007735027 0.01312638 0.0018012293 0.0004335884 0.005319118 0.0027803124
0.0017410644 0.0010856785 0.00040221983 -0.016576655 0.009601622 0.0067768516 0.010270002 0.010057407
-0.001937259 0.00028908518 -0.017278634 -0.0030754893 0.007463436 -0.007914882 -0.0095475055 -0.00046899225
0.0021795877 -0.0064035566 -0.013539202 -0.006838744 0.004184495 -0.0019181774 -0.00035672178 -0.00047343672
-0.00085174426 -0.000405201 0.0010024952 0.010857831 -0.0057918294 0.002527634 0.0048264703 -0.0013040876
-0.0183626 -0.004945373 0.0046415483 0.0029726455 0.009040091 -0.0072927917 -0.00915914 0.0019556147
-0.008828742 -0.0025714205 0.005469708 -0.006812463 -0.0027363456 0.0067000478 0.01215912 0.005501292
-9.3768336e-05 0.017046671 -0.008408858 0.0022306223 0.0023136337 0.00015756364 0.012625538 0.0053443816
-0.0014700684 -0.004376249 0.0054896446 0.0136088645 -0.0013910416 0.0072120926 0.0059013763 -0.014073707
-0.00020681045 -0.010842787 -0.012733285 -0.009309216 -0.0035592855 -0.004205092 0.003302797 -0.0062735076
-0.0017020231 -0.0051594297 0.0026076015 0.0024363992 -0.008193583 -0.0016055396 0.0048037064 0.011800585
00000000: 457f f0bb 4508 fe3b 26f9 b8b9 9788 233c
00000010: 8b60 203c 3ac5 ebbb 3088 d83a 6912 283c
00000020: 534f adba f0ed cf3b 3dc9 65bc 1310 b23c
00000030: f9a9 ac3b 8a06 fbba 0f01 68bc 7d70 aebc
00000040: 2834 3cba 457a 15bb d8ce 3ebc f38f 843b
00000050: 9e29 84ba 2488 87bb 7bdc 923a d8c5 573c
00000060: 9ec4 003c 40c3 7bb9 aaae 35bc 1442 40bc
00000070: 0adb f3ba 902a a23b 834c 19bc 5df5 92bc
00000080: c529 183b db03 57bc 82db f53b 89f0 25bc
00000090: 920c 38bc 101f 7e3c 5304 563c 4ff9 383b
000000a0: 6aa4 2eba cf1e acbb 78a5 d13a ec37 4abc
000000b0: 518f 90bb ce4a 873b 0d3d 353c 5beb 453a
000000c0: bec1 18bc 18d7 b4bb a3da 0b3b e1c9 a03b
000000d0: 80dd 583a 22ed 9cbc 8f7c 9f3a f718 c4bb
000000e0: 2aff eebb e781 3bbb fa19 91ba 3301 c8bb
000000f0: 0a9a 1a3c adfd f63a 732d 81bb 0478 b9bc
00000100: 7549 0ebc 930b 173c 05ba fabb 50f7 6c3b
00000110: df7f 80bc c2b3 373a 6758 e1bb 912d cc3b
00000120: a3dd 19bc 35ac 8b3b 49c3 c63b 7066 f33b
00000130: bf95 6cbc 494d 1bbb a759 863c cfe6 bebb
00000140: 082e 633b f8c2 7abc 07dd 073c a2d4 87bb
00000150: 5b33 29bc 6f7c c33a 19f7 8bbc 7330 2a3c
00000160: 5c7e 41bc 505b 0dbc 9fd5 8ebb a145 303c
00000170: 38f4 7b3c d7b8 d7bb 48dd 02bc ea87 7bbb
00000180: f8ef a6b9 33f7 0cbc 1bb1 143c 438c 9cba
00000190: 2ddb e03c 3825 183a cba2 aa3c c47f 83bc
000001a0: fb9f 233c aac5 fc3b 2e4b 16bc 113e 1cbc
000001b0: b822 01bc 831f 14bc ab79 173c 2261 5f3c
000001c0: 9507 ebbb 073a dabb d3a0 97ba 5561 133c
000001d0: bf7d cc3b 1b57 84bb 3b50 e9ba edc5 2fbc
000001e0: b1d3 343c 2ebe acbc 14f2 2f3c 0c57 263b
000001f0: e5de 20ba 8b1c 453a ef92 9c3a 6166 093c
00000200: 062d 373b 8973 493b ccda 093c 7e65 46bb
00000210: 3e49 2bbb a310 903c 3f05 393b eab4 edbb
00000220: 8564 d93a 6e9c 82bb 777a 2f3b 0deb 00bc
00000230: 7c94 943b f86f 113a 77d4 7dba 5974 1c3c
00000240: 0d1c 2f3a 679c 493c 85e8 81bc 4730 e4bb
00000250: 2fe2 c3ba 386a 5f3c e708 a43a cfcd 0c3b
00000260: f331 5f3c 4b04 e4b9 98eb dd39 7296 3bbc
00000270: 8b0f e5bb 0297 56bc ee33 bf3b 8b0a 87b9
00000280: 9d96 683b cf1b c13b ef80 973c e3e8 bdbb
00000290: 05b3 4f3c 6649 a7bc 2f7b 7a3a 8d0b 0f3c
000002a0: 4f00 293b 5fa7 303b e3c4 4a3a 0710 573c
000002b0: 3a17 ec3a 4053 e339 ff4b ae3b e735 363b
000002c0: 6d34 e43a 534d 8e3a 08e1 d239 c4cb 87bc
000002d0: 1f50 1d3c 5a10 de3b 8343 283c d3c7 243c
000002e0: a0eb fdba 5b90 9739 ec8b 8dbc 268e 49bb
000002f0: d78f f43b 6cad 01bc 246d 1cbc 13e3 f5b9
00000300: 6ad7 0e3b edd4 d1bb 87d3 5dbc 8b17 e0bb
00000310: 171e 893b 5a6b fbba 6306 bbb9 9a37 f8b9
00000320: 9747 5fba 2871 d4b9 2866 833a 0be5 313c
00000330: 63c9 bdbb a9a6 253b 5e27 9e3b ebed aaba
00000340: 2a6d 96bc cc0c a2bb 2118 983b b7d0 423b
00000350: e41c 143c 5ff8 eebb 3810 16bc c529 003b
00000360: 6ea6 10bc 4785 28bb 3c3b b33b 153b dfbb
00000370: 4354 33bb 138c db3b 0c37 473c 2f44 b43b
00000380: 7ea5 c4b8 76a5 8b3c 4fc5 09bc a22f 123b
00000390: 55a0 173b ab37 2539 58db 4e3c ec1f af3b
000003a0: 4faf c0ba a366 8fbb 7ae2 b33b b7f7 5e3c
000003b0: 9c53 b6ba 6b53 ec3b 5560 c13b 6895 66bc
000003c0: 42db 58b9 f2a5 31bc 459f 50bc af85 18bc
000003d0: e742 69bb deca 89bb bd73 583b ff91 cdbb
000003e0: 6b16 dfba 6f10 a9bb 4be4 2a3b ffab 1f3b
000003f0: 613e 06bc f870 d2ba 6968 9d3b 3e57 413c

action_model._discrete_distribution.branches.0.bias f4 [2]
0.0 0.0
00000000: 0000 0000 0000 0000

action_model._discrete_distribution.branches.1.weight f4 [2, 128]
0.016971763 -0.018674279 0.0006780725 0.005089638 0.0069884295 -0.0027322283 0.0029931385 -0.0054076468
-0.008289549 0.0047567273 0.010181428 -0.0034833008 -0.0063355933 -0.005172919 -0.00573117 0.0065972055
-0.0059861564 0.0007135194 0.0038531744 -0.010617393 0.0065436983 0.00049458485 0.0007652046 -0.005444925
-0.0046490966 0.016893214 -0.010110036 0.00014196262 0.007194299 -0.013397721 -0.00659028 0.003258545
0.008865232 0.0027290538 -0.0019195604 0.00382667 0.010359397 -0.02004983 0.0074545117 -0.0075744423
-0.0049420414 0.00229692 0.018940438 -0.0072033354 0.007625773 0.02641925 -0.0057269516 -0.0027803637
-0.025676055 -0.011502978 0.011627206 -0.0036138443 -0.00058258185 -0.0003149492 -0.00013090801 0.006351909
-0.0018773827 0.003093507 -0.00079206255 0.0013494742 -0.0020405583 -0.005884583 -0.008241176 0.00067083887
-0.020548664 0.010512059 -0.016396172 -0.00067771104 -0.009374691 0.0048823664 -0.0064390856 -0.004458171
-0.017514853 -0.003750745 0.00040911665 -0.0020138628 -0.00922088 -0.020313455 -0.013489594 -0.00030711154
0.005640044 0.013731089 -0.008522948 -0.0009672916 -0.007857768 -0.008032969 0.006716747 0.0075185187
0.025595097 -0.0031345559 -0.0005332629 0.0022078706 -0.0014818109 -0.0034250275 -0.0011220599 -0.008178729
0.00416114 0.00025600236 0.0018549949 0.0054952935 0.0020013019 -0.000873416 0.006609935 0.0007189218
0.022116875 -0.0074764485 0.004150792 -0.008161082 0.0026780989 -0.0036685683 0.010111611 -0.0010370411
-0.0012217675 -0.009349024 0.007862471 -8.509508e-06 -0.009168158 -0.0002535028 -0.0040092384 -0.0072097555
0.0030476763 0.018169044 -0.0013093603 -0.0027063384 0.0043384614 0.008477972 0.019438468 0.0023283723
-0.0096956 0.008209945 -0.0015818746 -0.011906388 -0.025038177 0.0038896974 0.0011885324 -0.0043184003
-0.01017183 0.006256398 0.01210853 0.010090065 0.0016068736 -0.009816469 0.0020425122 0.000100619545
0.0016048553 0.0072365473 0.0016159067 0.012076917 0.005749112 -0.0085900035 -0.007303567 0.009383615
-0.0031966034 -0.00724051 -0.015890714 -0.005153689 0.013326898 -0.0009799589 0.013838154 -0.0040184427
-0.0114961695 0.002289752 0.0007468789 0.0013720162 -0.003770575 0.00031350247 -0.017584616 0.002238313
0.0055169724 0.006013427 0.0016132485 0.0039763344 -0.0033734075 0.011787343 0.01397448 -0.0047321315
0.010287849 0.00729648 0.0035529553 0.0025738485 -0.004122609 -0.0070807333 0.01721742 0.0076589817
-0.009912425 0.006878105 0.002802775 0.004824597 -0.007473679 -0.015875472 0.0037373882 -0.004815724
0.009509056 -0.004552409 0.003176462 0.0084704785 0.010822386 0.0120366635 0.000651325 0.0053288867
-0.0058771586 0.0008604337 -0.0014659403 -0.011215239 0.008452397 0.003208251 -0.008882339 0.014677427
0.008380053 -0.0049150847 0.014110376 -0.0036858853 -0.0034681882 0.006108588 0.013312185 0.0061289775
0.0020045794 -0.0007431143 0.01384836 -0.011279384 0.0027440654 -0.015058179 0.009238416 0.004730197
0.017342996 0.0104097845 0.00079681986 -0.002748355 5.8970334e-05 0.019229919 0.0011593604 -0.0049030627
0.0061706016 0.012526694 -0.006215834 0.016474659 -0.00693883 -0.0051889545 0.008915703 -0.01500526
-0.005124456 0.007056799 0.0026593232 0.016535684 0.01796357 0.026898408 0.007765344 -0.005141221
0.008151852 0.004063375 0.001559978 0.0035047585 -0.0035626597 0.0034672373 0.0013973672 -0.0044210926
00000000: 5e08 8b3c cdfa 98bc adc0 313a fac6 a63b
00000010: 32ff e43b 2f0f 33bb 8828 443b a132 b1bb
00000020: e3d0 07bc 52de 9b3b 01d0 263c 1748 64bb
00000030: cf9a cfbb 9781 a9bb 8acc bbbb 5f2d d83b
00000040: 8527 c4bb 7a0b 3b3a 8a85 7c3b 93f4 2dbc
00000050: 856c d63b 07a7 013a 0398 483a 576b b2bb
00000060: 7357 98bb a363 8a3c 90a4 25bc cddb 1439
00000070: 27be eb3b 1d82 5bbc 47f3 d7bb 508d 553b
00000080: 7a3f 113c edd9 323b c299 fbba dfc8 7a3b
00000090: 76ba 293c 8b3f a4bc fa44 f43b 0733 f8bb
000000a0: d9f0 a1bb ec87 163b fa28 9b3c f509 ecbb
000000b0: 9fe1 f93b 2f6d d83c 27a9 bbbb c336 36bb
000000c0: 9756 d2bc fd76 3cbc 0980 3e3c 3fd6 6cbb
000000d0: 68b8 18ba c41f a5b9 5a44 09b9 ad23 d03b
000000e0: 8312 f6ba 6fbc 4a3b 6ba2 4fba d7e0 b03a
000000f0: e3ba 05bb 76d3 c0bb ff05 07bc 3cdb 2f3a
00000100: ac55 a8bc c53a 2c3c 4451 86bc 6ba8 31ba
00000110: 4e98 19bc 42fc 9f3b f7fe d2bb d915 92bb
00000120: 4f7b 8fbc 0fcf 75bb b57e d639 03fb 03bb
00000130: 2d13 17bc 6768 a6bc 7503 5dbc d003 a1b9
00000140: 1ed0 b83b 5df8 603c d6a3 0bbc d791 7dba
00000150: debd 00bc b79c 03bc 2818 dc3b e85d f63b
00000160: cfac d13c 1f6d 4dbb abca 0bba ecb1 103b
00000170: 5339 c2ba 6d76 60bb 1512 93ba 1300 06bc
00000180: 2c5a 883b 0e38 8639 4d23 f33a dd11 b43b
00000190: 4628 033b f5f5 64ba 2798 d83b 0676 3c3a
000001a0: 732e b53c fffc f4bb 5e03 883b 0fb6 05bc
000001b0: 0b83 2f3b 5d6c 70bb 2cab 253c 53ed 87ba
000001c0: b723 a0ba a62c 19bc 98d1 003c 0fc4 0eb7
000001d0: 0b36 16bc 92e8 84b9 ee5f 83bb d03f ecbb
000001e0: 86bb 473b 3fd7 943c d79e abba d35c 31bb
000001f0: a729 8e3b 31e7 0a3c 6c3d 9f3c 9b97 183b
00000200: 4bda 1ebc 0183 063c e756 cfba 0313 43bc
00000210: dd1c cdbc 4bea 7e3b 88c8 9b3a 5e81 8dbb
00000220: bfa7 26bc 7802 cd3b db62 463c cd50 253c
00000230: bb9d d23a 41d5 20bc abdb 053b b503 d338
00000240: 025a d23a 8f20 ed3b d5cc d33a 43de 453c
00000250: 0c63 bc3b 16bd 0cbc c352 efbb bcbd 193c
00000260: 1b7e 51bb cd41 edbb 3e2d 82bc 47e0 a8bb
00000270: 1059 5a3c f771 80ba 6db9 623c 24ad 83bb
00000280: 6e5a 3cbc aa0f 163b 32ca 433a 39d5 b33a
00000290: c01b 77bb 975d a439 9d0d 90bc a9b0 123b
000002a0: b8c7 b43b 480c c53b a373 d33a e94b 823b
000002b0: 6314 5dbb b31f 413c 38f5 643c ff0f 9bbb
000002c0: 5e8e 283c 4f17 ef3b b3d8 683b 03ae 283b
000002d0: f316 87bb 7f05 e8bb 8c0b 8d3c 32f8 fa3b
000002e0: b967 22bc ba61 e13b c3ae 373b a717 9e3b
000002f0: c3e5 f4bb 470d 82bc f8ee 743b 39cd 9dbb
00000300: dfcb 1b3c 602c 95bb 302c 503b c3c7 0a3c
00000310: 6050 313c 6d35 453c aebd 2a3a f19d ae3b
00000320: 2e95 c0bb ba8e 613a cb24 c0ba 1fc0 37bc
00000330: ec7b 0a3c 8541 523b 3b87 11bc 9779 703c
00000340: 7d4c 093c b80e a1bb 352f 673c e58e 71bb
00000350: 8b4a 63bb 8d2a c83b 5a1b 5a3c 97d5 c83b
00000360: 435f 033b 8ecd 42ba 3be4 623c 2acd 38bc
00000370: c7d5 333b 95b6 76bc ba5c 173c c5ff 9a3b
00000380: e612 8e3c cd8d 2a3c ade1 503a bf1d 34bb
00000390: ea56 7738 1088 9d3c aef5 973a dfa9 a0bb
000003a0: c232 ca3b c33c 4d3c 32ae cbbb ddf5 863c
000003b0: 205f e3bb 1b08 aabb 2b13 123c 9fd8 75bc
000003c0: 0deb a7bb b83c e73b 0a48 2e3b d875 873c
000003d0: 5628 933c 0d5a dc3c 6d74 fe3b b077 a8bb
000003e0: 588f 053c 0f26 853b 2d78 cc3a 17b0 653b
000003f0: 837b 69bb 973a 633b dd27 b73a d0de 90bb

action_model._discrete_distribution.branches.1.bias f4 [2]
0.0 0.0
00000000: 0000 0000 0000 0000

action_model._discrete_distribution.branches.2.weight f4 [2, 128]
0.00633351 0.0051790364 -0.003808098 -0.004459136 0.007911862 -0.016906431 0.0034864235 0.006835521
-0.0020165748 -0.01346602 -0.014277256 0.009028158 -0.00011608423 0.010950911 0.007835778 0.014675989
0.006932237 0.0014354293 -0.00030267276 -0.0019219976 0.0061796284 0.010419194 -0.000677082 0.010077204
0.008678281 -0.0044142785 0.0029580377 -0.0050177956 -0.00050242135 -0.003661117 -0.0013710688 0.0029537021
-0.0153910965 0.0015284843 -0.0024993052 0.01274125 -0.003144116 -0.0009961048 -0.010182091 0.001169002
-0.0037915192 9.395359e-05 0.009741726 -0.0017995622 0.008410987 0.0034424667 0.0012791037 0.0067164465
-0.00058128726 -0.005174032 0.0016552715 -0.0072089615 -0.0044759354 0.007959317 0.0041923574 0.014837394
0.0032029275 -0.009861541 -0.017432205 -0.012111771 -0.0037386238 -0.0049560443 -0.0029201542 0.003891116
0.017525028 -0.012223188 0.0025435993 0.0022071085 -0.0011359449 -0.0036778797 -0.006456534 0.006126936
-0.002753248 0.012324049 -0.0045867753 0.0037054194 -0.0012755336 0.00069313776 -0.0022385265 -0.008338552
-0.0063707517 0.0007699758 0.0053242603 -0.0009144934 0.0016496722 -0.0022792968 0.010339679 0.006478734
0.017494984 -0.00053637865 -0.006665069 -0.009590806 -0.018493539 -0.012224435 -0.006068141 0.0010906842
0.008985608 0.00026821412 -0.0038674355 0.0018012965 -0.0012914236 0.0076403106 0.0076754815 0.0035542983
0.012564925 0.006093378 0.004446277 0.013494025 -0.0143240765 0.012687616 0.0007554019 -0.007625436
-0.008212446 0.004450142 0.008857558 -0.007607172 -0.0034303532 -0.012589663 -0.008112281 0.006754972
0.0070776152 -0.014468439 -0.002838054 0.0050302586 0.0008103731 0.0069408687 -0.0047298423 -0.017571261
-0.0056536733 0.0034598166 -0.002336923 0.004593475 -0.0154842315 0.0010633533 -0.0018546205 -0.0016422573
0.010857435 -0.0117132105 0.0034241911 -0.001177106 0.0088212285 0.0009600212 0.010324679 -0.014519827
-0.0062174234 0.011236277 -0.0040127183 0.00061061746 0.004885332 -0.0057359813 -0.0070419195 -0.014196162
-0.0061654286 0.0031389499 0.0009851267 -0.0072848215 -0.0042608962 -0.0014691858 -0.00034730305 0.0013097322
0.0017912058 -0.0020341452 -0.012396838 -0.00806413 0.011340256 0.0023049405 -0.0027256429 -0.004232083
0.0030489354 0.004099465 -0.0048116064 -0.027735233 0.011963187 0.009340131 -0.0054380507 0.0038228799
0.003998443 2.7965512e-05 -0.0072892993 0.0032789947 0.0011363429 0.009576394 0.0012407376 0.00433371
0.010413783 -0.01478862 -0.010684202 0.00974059 -0.00035584517 -0.006428337 0.0038577064 0.006179105
0.0074916356 0.01218396 0.0060006417 -0.0047707045 -0.01881753 0.005941845 -0.010027338 0.014203434
-0.004990452 -0.007230108 -0.005917126 -0.0006657084 0.00018807269 0.0022641835 0.016040107 -0.008390013
0.015368449 0.01234956 0.0029133991 0.006181782 0.0018223278 -0.0051959883 0.009007634 -0.013788161
-0.005769489 -0.012051533 0.02360936 -0.008600743 -0.013199433 -0.0021233375 -0.012618882 0.008227566
-0.003448033 -0.002360205 0.010729617 -0.0033481002 0.00074078335 -0.002780169 -0.0057383925 0.0038198896
-0.015386845 0.011802308 0.0017010361 0.00809849 0.0060141697 -0.0049523795 0.007064531 -0.008012779
-0.006629416 0.0026298556 -0.0038977899 0.010756494 -0.0060059396 0.0017515231 -0.003533632 -0.007453547
-0.0019546319 0.00452429 0.014665725 -0.011076278 0.0026325854 -0.019533841 0.010335737 -0.005977773
00000000: 5589 cf3b e8b4 a93b 4891 79bb f21d 92bb
00000010: c1a0 013c 5b7f 8abc 7b7c 643b 82fc df3b
00000020: 8328 04bb 95a0 5cbc 27eb 69bc d7ea 133c
00000030: 3f72 f3b8 736b 333c a361 003c 8f73 703c
00000040: d227 e33b 0425 bc3a 0db0 9eb9 8aeb fbba
00000050: 7b7e ca3b 44b5 2a3c 347e 31ba db1a 253c
00000060: 592f 0e3c a7a5 90bb a3db 413b 526c a4bb
00000070: edb4 03ba 5aef 6fbb 6fb5 b3ba e692 413b
00000080: f02a 7cbc 6c57 c83a 62cb 23bb adc0 503c
00000090: 830d 4ebb bb8f 82ba c9d2 26bc 3339 993a
000000a0: 237b 78bb f308 c538 c39b 1f3c 4adf ebba
000000b0: 3dce 093c 029b 613b 99a7 a73a a315 dc3b
000000c0: 8761 18ba ed8a a9bb b2f5 d83a 2739 ecbb
000000d0: deaa 92bb cc67 023c 0b60 893b 8a18 733c
000000e0: 35e8 513b 4d92 21bc fccd 8ebc 7370 46bc
000000f0: b303 75bb 5066 a2bb 0f60 3fbb 1802 7f3b
00000100: a690 8f3c c443 48bc 84b2 263b 23a5 103b
00000110: fce3 94ba 9508 71bb 5591 d3bb 77c4 c83b
00000120: d66f 34bb cfea 493c a94c 96bb 9fd6 723b
00000130: ce2f a7ba b0b3 353a 3eb4 12bb 6c9e 08bc
00000140: bdc1 d0bb 34d8 493a 2277 ae3b 9dba 6fba
00000150: d039 d83a 4160 15bb c267 293c 8f4b d43b
00000160: a451 8f3c c39b 0cba a766 dabb c222 1dbc
00000170: c37f 97bc ff48 48bc 42d7 c6bb 4af5 8e3a
00000180: 5f38 133c 179f 8c39 cd74 7dbb 7b19 ec3a
00000190: fc44 a9ba 925b fa3b 9b82 fb3b 3bef 683b
000001a0: 1ddd 4d3c f6aa c73b 13b2 913b 0b16 5d3c
000001b0: 88af 6abc b8df 4f3c 2a06 463a cbde f9bb
000001c0: 7f8d 06bc 7fd2 913b 4a1f 113c 9545 f9bb
000001d0: c7cf 60bb e044 4ebc 5fe9 04bc d058 dd3b
000001e0: 57eb e73b 080d 6dbc a5fe 39bb ded4 a43b
000001f0: 386f 543a 3a70 e33b cbfc 9abb 9bf1 8fbc
00000200: 7342 b9bb 17be 623b 1027 19bb dc84 963b
00000210: 93b1 7dbc 3760 8b3a bd16 f3ba 0341 d7ba
00000220: 62e3 313c c4e8 3fbc 6568 603b 2049 9aba
00000230: ea86 103c efa9 7b3a d828 293c 92e4 6dbc
00000240: 87bb cbbb 5d18 383c 1f7d 83bb d811 203a
00000250: 2315 a03b e6f4 bbbb e7bf e6bb 0597 68bc
00000260: 5d07 cabb d7b6 4d3b 5e1f 813a 83b5 eebb
00000270: fd9e 8bbb b291 c0ba 3a16 b6b9 52ab ab3a
00000280: e5c6 ea3a 4b4f 05bb 1b1c 4bbc 6a1f 04bc
00000290: 7bcc 393c 7c0e 173b b3a0 32bb 49ad 8abb
000002a0: a6d0 473b ce54 863b aeaa 9dbb 0035 e3bc
000002b0: 3e01 443c 5907 193c ad31 b2bb 4889 7a3b
000002c0: 5f05 833b 7b97 ea37 13db eebb 67e4 563b
000002d0: 57f1 943a 4fe6 1c3c 3fa0 a23a cb01 8e3b
000002e0: 929e 2a3c f84b 72bc cb0c 2fbc ff96 1f3c
000002f0: bb90 bab9 cda4 d2bb 93d1 7c3b 177a ca3b
00000300: 657c f53b 3b9f 473c 08a1 c43b 9253 9cbb
00000310: 3827 9abc cfb3 c23b b449 24bc 85b5 683c
00000320: f286 a3bb 8bea ecbb 73e4 c1bb ef82 2eba
00000330: 6135 4539 b262 143b 8b66 833c 4476 09bc
00000340: f2cb 7b3c cf55 4a3c baee 3e3b 8c90 ca3b
00000350: 2ddb ee3a 1c43 aabb c194 133c bde7 61bc
00000360: fb0d bdbb cb73 45bc 6b68 c13c 21ea 0cbc
00000370: 6f42 58bc b127 0bbb 6dbf 4ebc eacc 063c
00000380: 65f8 61bb abad 1abb 47cb 2f3c cd6b 5bbb
00000390: 2131 423a 7f33 36bb 2009 bcbb 1d57 7a3b
000003a0: 1b19 7cbc 785e 413c 4df5 de3a 87af 043c
000003b0: 8312 c53b 9247 a2bb 957d e73b 0848 03bc
000003c0: 923b d9bb a859 2c3b 1072 7fbb 013c 303c
000003d0: 79cd c4bb 5d93 e53a 8294 67bb e23c f4bb
000003e0: 4819 00bb 7f40 943b 8248 703c 4779 35bc
000003f0: 7487 2c3b 6f05 a0bc 3957 293c 32e1 c3bb

action_model._discrete_distribution.branches.2.bias f4 [2]
0.0 0.0
00000000: 0000 0000 0000 0000

action_model._discrete_distribution.branches.3.weight f4 [2, 128]
0.0062802224 -0.0007847425 -0.0007196011 0.009984165 0.0053196317 -0.014087068 -0.00073733274 0.0048660557
0.0057862937 -0.012449148 0.004101155 -0.017203486 0.00079479156 0.0053587034 -0.0005237101 -0.0047458285
-0.00078837574 -0.01689676 -0.0002657913 0.00048198688 -0.0026070343 5.525292e-05 -0.00058235077 0.0028005892
-0.009400132 -0.0065308213 -0.019426798 -0.007867722 -0.0080012875 4.150088e-05 -0.0049847593 0.004207773
0.0021940898 0.00084828166 0.0074935704 -0.00091035705 -0.005902977 -0.0017651193 -0.0075464793 0.0129121905
-0.0009513392 0.006219419 0.016439028 -0.006396717 0.003026889 -0.0089584915 -0.002318968 0.008756582
0.009868814 -0.024338977 -0.007914032 -0.017123941 -0.008106128 -0.0057753897 0.005289457 -0.011152557
0.0075724083 0.00026337008 -0.000810478 -0.0019881786 -0.0062349453 -0.012057781 -0.005489029 0.007229975
0.0045304247 0.00048149042 0.010783746 -0.006250281 -0.011068984 -0.0035907514 0.008312061 0.0038481986
-0.0014849999 -0.0037025723 -0.006360825 -0.0036182948 -0.0027696078 0.0077567953 0.008235031 0.0039870436
0.013627973 0.0070727053 0.016834494 0.009615107 0.004615702 0.0031678719 0.011249616 0.0020748286
0.008061542 -0.021956118 0.007925032 0.0026157333 0.0070379446 0.00037765794 0.009761142 0.011196057
0.008699094 0.01598498 0.015843017 0.0030920194 0.017267978 0.009106596 -0.006874597 0.010565955
0.00061841944 -0.0032057855 -0.0050709522 -0.01652298 -0.00078371185 -0.0070461445 -0.0056091165 -0.0074232975
-0.00037307336 -0.003408619 -0.0038456053 -0.0047018225 -0.011518343 0.008757564 0.007963962 -0.0038785455
-0.00065631897 -0.01162029 0.006067488 0.005203805 -0.011723637 -0.0011947796 -0.0028352789 0.01331875
-0.0019328104 -0.00419335 0.0071276496 0.0036892917 0.0037120082 0.005714906 0.00633334 0.00391736
-0.009869621 -0.013970285 0.00083787553 -0.0008873516 -0.010021835 -0.0044818087 -0.0003811231 -0.005160982
-0.011631823 -0.006244617 0.015813826 -0.008043074 -0.007076312 0.0031983347 -0.0021096154 0.0051287576
-0.0017523941 0.0046924683 0.005111913 -0.0038789932 0.0017038884 0.006106371 -0.0023371628 -0.0030381659
-0.007744161 0.008108645 0.01146154 0.004152152 -0.0028991688 -0.0007985686 0.024761392 0.006742234
-0.013392775 -0.013351907 0.006839181 0.009076247 -0.0018333675 0.011370722 -0.0011823669 0.009251833
-0.0011001085 0.0038228433 -0.0050796014 0.004034051 0.007912758 -0.003128846 -0.0027646124 -0.0066949474
0.003760089 -0.0077116634 0.008679586 -0.010161641 0.002182319 0.007812368 0.006636401 0.008021756
0.00048277652 -0.013996865 0.010427214 0.0031944704 -0.00067929475 -0.0059081237 0.0006672134 -0.021967163
-0.00067007414 0.0003572352 -0.0038750072 0.004353977 0.014285641 0.015676076 -0.0027275297 0.0059647444
0.009807307 0.010253216 0.002976433 0.007896535 -0.0015120053 0.010135012 0.0031446908 0.00908884
0.0044378447 -0.010693203 0.010294835 0.0022436816 0.0026146339 0.0040066983 0.0103887115 -0.0024032549
0.0027745354 0.006083944 0.013233641 0.0013703074 -0.013266103 -0.013269422 -0.017097516 -0.009985675
-0.007438687 -0.010750942 -0.0055781044 0.0067701037 -0.0018891493 -0.007896761 0.018520376 -0.0074277497
0.013187818 -0.015099155 -0.00040642024 -0.020411162 0.010172495 0.007376946 0.00543978 0.003408101
0.015978968 0.0027899917 0.0004808039 -0.021273522 0.0035904765 0.012538888 0.0017565398 0.017536229
00000000: 53ca cd3b 2db7 4dba 9da3 3cba a094 233c
00000010: 4e50 ae3b 72cd 66bc 9049 41ba 6f73 9f3b
00000020: f39a bd3b 83f7 4bbc fb62 863b 53ee 8cbc
00000030: 8f59 503a 1098 af3b 9749 09ba e582 9bbb
00000040: 00ab 4eba 136b 8abc e859 8bb9 2fb3 fc39
00000050: c7da 2abb 5fbf 6738 e6a8 18ba 178a 373b
00000060: 0303 1abc 8000 d6bb f324 9fbc 9ee7 00bc
00000070: d517 03bc 3b11 2e38 3157 a3bb 5ce1 893b
00000080: b8ca 0f3b 385f 5e3a a08c f53b 07a5 6eba
00000090: c36d c1bb 935b e7ba 7548 f7bb a78d 533c
000000a0: 4b63 79ba 45cc cb3b 24ab 863c 8d9b d1bb
000000b0: c55e 463b a3c6 12bc d4f9 17bb c477 0f3c
000000c0: ceb0 213c 8962 c7bc dba9 01bc 8247 8cbc
000000d0: 91cf 04bc 7b3f bdbb 2e53 ad3b 37b9 36bc
000000e0: f721 f83b ef14 8a39 4276 54ba 1a4c 02bb
000000f0: 834e ccbb 008e 45bc 50dd b3bb 6de9 ec3b
00000100: f573 943b 8d70 fc39 4fae 303c 28cf ccbb
00000110: af5a 35bc d052 6bbb 502f 083c 0f32 7c3b
00000120: 54a4 c2ba dba6 72bb 786e d0bb ea20 6dbb
00000130: 4f82 35bb b72c fe3b 39ec 063c bfa5 823b
00000140: dd47 5f3c 27c2 e73b 7ee8 893c af88 1d3c
00000150: 513f 973b 129c 4f3b 4f50 383c d9f9 073b
00000160: 8f14 043c 51dd b3bc fed7 013c b96c 2b3b
00000170: 8f9e e63b 6400 c639 32ed 1f3c ab6f 373c
00000180: a586 0e3c eff2 823c 37c9 813c 7aa3 4a3b
00000190: 9375 8d3c d533 153c 4d44 e1bb d41c 2d3c
000001a0: 6d1d 223a 2818 52bb 3b2a a6bb 335b 87bc
000001b0: 0372 4dba 58e3 e6bb aecc b7bb 223f f3bb
000001c0: 0f99 c3b9 2363 5fbb 8d06 7cbb bf11 9abb
000001d0: 6fb7 3cbc e37b 0f3c 477b 023c 322f 7ebb
000001e0: d20c 2cba 0763 3ebc c7d1 c63b ae84 aa3b
000001f0: 7f14 40bc 279a 9cba 16d0 39bb e336 5a3c
00000200: 5b56 fdba 5f68 89bb 0f8f e93b 0bc8 713b
00000210: 2a45 733b 1b44 bb3b e887 cf3b 335d 803b
00000220: 31b4 21bc 9fe3 64bc e0a4 5b3a 289d 68ba
00000230: 9f32 24bc 23dc 92bb 7ad1 c7b9 741d a9bb
00000240: 6793 3ebc a59f ccbb ff8b 813c 19c7 03bc
00000250: 68e0 e7bb 279b 513b 7941 0abb 230f a83b
00000260: 97b0 e5ba 47c3 993b d681 a73b b536 7ebb
00000270: 0255 df3a f417 c83b 162b 19bb f71b 47bb
00000280: bbc2 fdbb 1fda 043c 2fc9 3b3c c70e 883b
00000290: fbff 3dbb 0857 51ba 67d8 ca3c f5ed dc3b
000002a0: 5f6d 5bbc f5c1 5abc 351b e03b 8ab4 143c
000002b0: 9b4d f0ba 444c 3a3c a6f9 9aba 0095 173c
000002c0: 8431 90ba ab88 7a3b c972 a6bb 1330 843b
000002d0: 83a4 013c 530d 4dbb 802e 35bb 4a61 dbbb
000002e0: d36b 763b 1fb2 fcbb d334 0e3c 037d 26bc
000002f0: 3d05 0f3b e5fe ff3b 2b76 d93b af6d 033c
00000300: 2b1d fd39 1b53 65bc e8d6 2a3c 525a 513b
00000310: b312 32ba ef98 c1bb efe7 2e3a 7bf4 b3bc
00000320: eaa7 2fba 4c4b bb39 d5f3 7dbb ceab 8e3b
00000330: 520e 6a3c 1d6b 803c 5bc0 32bb e773 c33b
00000340: d4ae 203c 1bfd 273c 4210 433b 7860 013c
00000350: 7b2e c6ba 520d 263c 2817 4e3b 5ce9 143c
00000360: 576b 913b 8b32 2fbc abab 283c bb0a 133b
00000370: 475a 2b3b 9f4a 833b 6a35 2a3c ed7f 1dbb
00000380: fbd4 353b d25b c73b ead1 583c e39b b33a
00000390: 125a 59bc fd67 59bc 1710 8cbc f59a 23bc
000003a0: 3bc0 f3bb b824 30bc 88c8 b6bb bfd7 dd3b
000003b0: 559d f7ba 6b61 01bc 0bb8 973c 7b64 f3bb
000003c0: b811 583c 7262 77bc cd14 d5b9 4f35 a7bc
000003d0: 89aa 263c 4fba f13b 2f40 b23b 725a 5f3b
000003e0: 53e6 823c 4bd8 363b 6814 fc39 cf45 aebc
000003f0: 334e 6b3b e86f 4d3c b23b e63a 23a8 8f3c

action_model._discrete_distribution.branches.3.bias f4 [2]
0.0 0.0
00000000: 0000 0000 0000 0000

action_model._discrete_distribution.branches.4.weight f4 [2, 128]
-0.006519309 -0.00228821 0.0045443955 -0.011608931 -0.016385239 -0.0028516443 0.014329106 2.047028e-05
-0.0037696555 -0.002775484 0.012278899 0.01474415 -0.013616889 -0.0023366997 0.009809348 0.011299394
-0.002269994 0.0039973534 0.002328396 0.0010690637 -0.0038325724 0.0012675883 0.0020687743 0.01856923
-0.0026868705 -0.003987307 -0.011218177 -0.009946115 0.010173966 -0.013596495 0.0041548507 -0.015095164
-0.010336947 0.005191603 -0.0048281825 1.9428342e-05 0.000116648516 0.00974309 -0.0055835894 0.012725617
0.012299148 -0.0022303783 -0.0046049445 -0.011104765 -0.007920792 0.012062716 0.0008579994 0.0032088363
0.0010556977 0.013011011 0.006086351 -0.0071998104 -0.0061447816 -0.006739285 -0.0072832704 -0.02451214
-0.0011274194 -0.005976171 0.00091313536 0.002034075 0.005256694 0.016901176 0.002294928 -0.012554704
0.0081795845 -0.010889807 0.006611193 -0.0083200745 0.002438775 -0.004115662 0.008706653 -0.0077146315
-0.0046150344 0.00082343834 0.011303998 0.007617254 0.008227927 0.012930127 -0.00940645 0.0013367777
-0.015919676 -0.004683114 0.017587572 -0.014682052 -0.008241071 -0.0057746256 0.0072955126 0.009108332
-0.0055240225 -0.006443816 0.009804433 -0.014063348 -0.0076949173 0.009255926 -5.154005e-05 0.00083662727
0.004174396 0.007871151 0.020019764 0.008609078 0.0077471132 -0.013135132 0.002818507 0.00747179
0.015878802 -0.021261109 -0.014273693 0.0048340918 0.0064178975 0.0027255153 0.012205314 -0.0016276172
0.0069399774 -0.0049262745 0.0040764417 -0.00541716 -0.00090236403 0.014086555 0.009884077 0.0007227425
-0.007938814 -0.0053792037 -0.0041596927 -1.3090519e-05 -0.0028899377 0.007007675 -0.0026122506 -0.0055089826
-0.00330063 -0.0049073393 0.0061847246 -0.012601751 0.004026622 -0.003461529 0.007540446 -0.00013111006
0.012818554 -0.018158983 0.014241322 -0.0041239345 -0.008540784 -0.0161069 0.0050566895 0.0040761
-0.002154568 -0.013791035 -0.003380835 0.0045856177 0.009573809 -0.02119746 -0.015810458 -0.011107084
0.0013777235 -0.010321417 0.0020085275 -0.009816626 -0.012609066 -0.0060370318 0.015832352 -0.011408353
0.0075996234 -0.006611013 0.013037008 -0.021083495 0.0019908505 0.0060732025 0.009069472 -0.008386862
-0.0026056536 0.0026202088 0.0008517706 -0.0075265854 0.005154723 -0.0009719037 0.005234269 0.01589953
0.007372127 -0.009083829 -0.0021342665 -0.0053551383 0.014924452 0.0035073448 -0.0063590193 -0.005311487
-0.012974947 -0.004153879 -0.006269574 -0.0055438606 0.004568279 -0.001594512 0.007578712 -0.0046958015
0.003219245 -0.014830306 0.00071980944 -0.0010645558 -0.0017837062 -0.021604588 0.0004007272 -0.0075671473
-0.0076149176 0.0071736136 -0.004968293 -0.0020197767 -0.0010834442 0.0034055372 0.0006160382 -0.0118562775
-0.013430133 0.006366481 -0.0047736326 0.008849887 0.006338688 -0.006777896 -0.004786028 0.007909644
0.0036337485 0.009717121 -0.015200207 -0.015091265 0.0038198286 -0.012981638 -0.003914088 -0.0009501869
-0.0055594384 -0.0009952199 0.0017949442 0.010265172 -0.006246269 -0.002726927 -0.0032488739 -0.0017424962
0.0032932588 -0.018506587 0.0009299465 0.0024825986 -0.008428372 0.0042963936 -0.005086199 -0.0084273135
0.0021533067 0.00042723102 0.0076804305 0.00034739816 -0.003262651 0.0049898415 0.009843363 -0.008232369
-0.002433961 0.0033725027 0.013172391 0.0030578156 0.0024152787 -0.0070255506 -0.012064414 -0.00039763097
00000000: ed9f d5bb cbf5 15bb 27e9 943b 6333 3ebc
00000010: 563a 86bc a7e2 3abb a0c4 6a3c 97b7 ab37
00000020: 530c 77bb e5e4 35bb 6f2d 493c 7391 713c
00000030: 5f19 5fbc 5123 19bb 63b7 203c 1821 393c
00000040: 2ec4 14bb 3bfc 823b 0198 183b d31f 8c3a
00000050: e52b 7bbb 3525 a63a 4694 073b 7f1e 983c
00000060: 3516 30bb f5a7 82bb 72cc 37bc 08f5 22bc
00000070: b5b0 263c d5c3 5ebc 6a25 883b b551 77bc
00000080: 4c5c 29bc 531e aa3b bb35 9ebb 0cfa a237
00000090: 32a1 f438 7ba1 1f3c 8bf6 b6bb 1b7f 503c
000000a0: 5e82 493c 8a2b 12bb 13e5 96bb c3f0 35bc
000000b0: 36c6 01bc b3a2 453c 5deb 603a 574b 523b
000000c0: 565f 8a3a 232c 553c 0370 c73b 63ec ebbb
000000d0: 2a5a c9bb 38d5 dcbb 80a8 eebb afcd c8bc
000000e0: ebc5 93ba c2d3 c3bb 7a5f 6f3a 1e4e 053b
000000f0: 5840 ac3b 5674 8a3c 8166 163b 3fb2 4dbc
00000100: aa03 063c 296b 32bc b5a2 d83b ec50 08bc
00000110: dbd3 1f3b addc 86bb 59a6 0e3c 05cb fcbb
00000120: b739 97bb 03dc 573a 6734 393c 289a f93b
00000130: 6dce 063c e2d8 533c 831d 1abc d136 af3a
00000140: fb69 82bc cf74 99bb d013 903c fd8c 70bc
00000150: 8f05 07bc 1239 bdbb 320f ef3b 1d3b 153c
00000160: dc02 b5bb a526 d3bb c6a2 203c f569 66bc
00000170: a525 fcbb 2ba6 173c b52c 58b8 1b51 5b3a
00000180: 5fc9 883b 00f6 003c 7d00 a43c 170d 0d3c
00000190: 7fdb fd3b bd34 57bc b3b6 383b ebd5 f43b
000001a0: 4314 823c c72b aebc 35dc 69bc 4d67 9e3b
000001b0: 3a4d d23b 8f9e 323b ccf8 473c c555 d5ba
000001c0: c068 e33b 966c a1bb ac93 853b 6f82 b1bb
000001d0: a08c 6cba 4bcb 663c d3f0 213c 6e76 3d3a
000001e0: cd11 02bc 0844 b0bb 084e 88bb 5a9f 5bb7
000001f0: 1c65 3dbb a3a0 e53b 4b32 2bbb b284 b4bb
00000200: 624f 58bb bfcd a0bb 3ba9 ca3b 9377 4ebc
00000210: c1f1 833b d2da 62bb d815 f73b 977a 09b9
00000220: ea04 523c 26c2 94bc 6f54 693c 1222 87bb
00000230: a5ee 0bbc 9ef2 83bc 96b2 a53b ce90 853b
00000240: a733 0dbb cbf3 61bc 0091 5dbb f342 963b
00000250: 77db 1c3c 4ca6 adbc ef84 81bc 7dfa 35bc
00000260: bb94 b43a 291b 29bc 80a1 033b ead5 20bc
00000270: 4296 4ebc 4bd2 c5bb d9b2 813c 1aea 3abc
00000280: 4306 f93b 32a1 d8bb 2d99 553c 4bb7 acbc
00000290: ee78 023b b701 c73b 1f98 143c 0d69 09bc
000002a0: 9dc3 2abb cfb7 2b3b 5b49 5f3a 93a1 f6bb
000002b0: f3e8 a83b 5ac7 7eba 3b84 ab3b bb3f 823c
000002c0: e291 f13b 57d4 14bc 0ddf 0bbb 287a afbb
000002d0: b085 743c 7bdb 653b 525f d0bb fb0b aebb
000002e0: df94 54bc 431d 88bb 0071 cdbb 46a9 b5bb
000002f0: 80b1 953b f2fe d0ba d856 f83b 3ddf 99bb
00000300: f8f9 523b d0fa 72bc 98b1 3c3a 9188 8bba
00000310: 40cb e9ba 1bfc b0bc b218 d239 d5f5 f7bb
00000320: 8f86 f9bb a210 eb3b 10cd a2bb 3b5e 04bb
00000330: 5b02 8eba 6f2f 5f3b a07d 213a d540 42bc
00000340: 100a 5cbc ea9d d03b 226c 9cbb 1eff 103c
00000350: c5b4 cf3b 1d19 debb 1dd4 9cbb 7497 013c
00000360: 2f24 6e3b 8f34 1f3c 4a0a 79bc 5a41 77bc
00000370: 1756 7a3b f0b0 54bc c041 80bb f715 79ba
00000380: f32b b6bb 0a72 82ba 5544 eb3a 412f 283c
00000390: 81ad ccbb 3eb6 32bb 0feb 54bb 7864 e4ba
000003a0: b7d3 573b 209b 97bc a7c7 733a 18b3 223b
000003b0: 2817 0abc c3c8 8c3b 21aa a6bb b712 0abc
000003c0: 7e1e 0d3b fafd df39 1fac fb3b fe22 b639
000003d0: 33d2 55bb d381 a33b 0f46 213c 0fe1 06bc
000003e0: 1783 1fbb 3505 5d3b 03d1 573c a265 483b
000003f0: a749 1e3b 9736 e6bb d2a9 45bc 2079 d0b9

action_model._discrete_distribution.branches.4.bias f4 [2]
0.0 0.0
00000000: 0000 0000 0000 0000
