Assets/results/ppo/My Behavior.onnx (onnx, 156809 bytes, 20 tensors)

discrete_act_size_vector f4 [1, 14]
00000000: 0000 0040 0000 0040 0000 0040 0000 0040
00000010: 0000 0040 0000 0040 0000 0040 0000 2041
00000020: 0000 2041 0000 2041 0000 2041 0000 2041
00000030: 0000 2041 0000 2041
2.0 2.0 2.0 2.0 2.0 2.0 2.0 10.0
10.0 10.0 10.0 10.0 10.0 10.0

network_body._body_endoder.seq_layers.0.weight f4 [128, 24]
00000000: 3d4d 443d 173b 23bd c1c6 5f3e 14f6 503e
00000010: 5fe4 b0be 7423 f23e 89ed aa3c d62b 0f3e
00000020: 5ddd d33c dce9 af3c b4f5 5dbe b725 5a3e
00000030: 02de 23bd a5ed a8bd 1ff2 63be c258 733e
00000040: b5cc 733b c961 06bc 7b85 14be fc3b b3bd
00000050: 4b68 82be 6173 21be 4090 e53d 19b1 213e
00000060: 5a86 053e 605e f7bd 591a e73e 4115 373e
00000070: 669f 2abd 8581 5c3e 32d6 c53d eb6f 433e
00000080: 818e 59be a012 3cbe a605 cdbe e9f4 b0be
00000090: a718 f5bd 8262 233f 3c48 57bd aaee 9d3d
000000a0: 7b24 19be 34c9 023e c36a 88be c8cf 84be
000000b0: 0504 5fbe b49b bbbd ac9f d1bd 7691 73bd
000000c0: 170e 0c3e 45e7 83be 9bb0 8ebe 1fd8 6c3e
000000d0: 0ee4 09be 3d9c 83be d7eb 603b 807c 653c
000000e0: faac 54be fa69 33be 3827 903e d494 47be
000000f0: 9f25 413e 2b8d b03d c45f 943e a133 433d
00000100: d063 783e 6664 24be ddb6 f83e 2de8 703d
00000110: 94ff 04be 4e02 02be 306f 603d c87c 633e
00000120: b674 8b3e c39d 193d a7d6 f53e f839 a9bd
00000130: 4ae3 75be bc00 69bd 54e5 433e dbfc 5abe
00000140: 301c 793d e85e 183c 12e5 9a3e d40e 1e3e
00000150: 64c9 05bd c1b9 823e 8626 dd3d 9d3d 083f
00000160: b8ba a5bd ba47 c2be 69ec eebb ab44 09be
00000170: 3b4b a43d 6817 61bd f1a1 4bbc 19f7 bdbd
00000180: bb45 a5be 633d 783e 4565 bfbe 5d04 f2bd
00000190: 6a68 febd cb75 113e 3f60 b6bd 91f7 7abe
000001a0: 2b9b 0dbd 6a5d 30be a072 8b3e 6584 6a3d
000001b0: 7f2c 2cbc 3a91 c3bd c475 b4be 1af5 013e
000001c0: 5eee e6bd e7bb 413e 1567 7e3d a380 72be
000001d0: 10ab f83d 798a 4b3e ce89 803e fa08 033e
000001e0: a9d2 53be a8bd a5bd bef2 233e 30b1 b1be
000001f0: d4ec c6bd 16c6 993e 4919 1ebe 8c19 6b3d
00000200: aaf6 623e 1e1a 783e 41f0 bd3d 48b0 983e
00000210: a880 c9be d93b bebe 2698 8e3d d5b2 b1bd
00000220: f1ce bc3e d698 6ebe 5abf bf3b 7c17 03be
00000230: 0fbd 11be 7c95 0bbd e913 71be 00d0 01be
00000240: 9186 0ebe f81d a03c 4afc cdbd 2d01 8fbc
00000250: aa73 e1bd 63b7 28bd e683 6a3e a8ae 9bbe
00000260: 1fe5 123d e20f 45be 7ded 45bd 0370 55be
00000270: f0dd c03d 320a 503a d7d3 eebd bd2b 82be
00000280: d768 40bd 67ef d6bb b419 21bc 4c74 0f3e
00000290: 47c6 653e 0940 11bd 6b0a bb3e e69d 813e
000002a0: cacb 823e 8f85 153e ac39 8fbd e111 833e
000002b0: 5fd7 5a3b 202f 73be 01a9 46bd 146f 5e3c
000002c0: 45f7 363e a973 143e f85a 4a3e 681e 463d
000002d0: 0acc 12bd 9f05 1c3e 3b3e 8d3e 9253 1e3d
000002e0: 977c 7e3d cea0 a03d f794 1abe 0445 3cbe
000002f0: 52c5 ec3e 28d1 42be c692 8b3e 8f91 0e3f
00000300: 3b16 193e eb70 74bd db1a 523e 4489 023d
00000310: 0d58 1e3d e9d6 46be 2010 a7be be8b 50bc
00000320: 9779 0ebe b9aa 4d3e 07b1 4abe 7809 683b
00000330: 5daf a93d daa6 9a3d 1e8b 783c d0da 67be
00000340: 9ec4 e2bc 6604 6cbe 6863 88bd 640c 55be
00000350: 45df 753d f8d7 5ebc e44a 083e 2ddb 813d
00000360: e3e1 103f c946 acbe d1cf 69be 1d2c f33d
00000370: bf13 993d 9b15 c1be b6cf 503d a274 4fbd
00000380: 4583 11bc 9d0c 6d3e 5128 0c3f dd55 173c
00000390: 678a 873e 2a5e 773d af6b 2bbe 4d1d b43d
000003a0: cac6 33be a760 89be 57b1 06be af32 6ebe
000003b0: bab4 92bc fa4b 5cbd c5c8 42be 434d 9f3c
000003c0: 2b59 18bd 6e75 d03d 3def 90be 33ff 04bd
000003d0: eeec 4cbd 3698 a1bd 0bc4 81b9 a097 97bc
000003e0: 0a1f 003e 1f78 5b3e a7b4 8b3d df30 333e
000003f0: 8c1a da3d 45f3 65be 72be 223e 18af b93e
0.047925223 -0.039851274 0.21853162 0.20406371 -0.34549233 0.47292674 0.020865219 0.13981566
0.02586239 0.021473818 -0.2167576 0.2130345 -0.040006645 -0.08248452 -0.2226033 0.23764327
0.0037200872 -0.008202025 -0.14504044 -0.087516755 -0.25470194 -0.1576667 0.11209154 0.15790214
0.13039532 -0.120785475 0.4513729 0.17879201 -0.04165592 0.21533783 0.09659995 0.19085662
-0.21245767 -0.1836648 -0.40043372 -0.34561852 -0.11967593 0.63822186 -0.052559122 0.07711537
-0.14955322 0.12772065 -0.26643953 -0.25939775 -0.21778877 -0.091605574 -0.10235533 -0.059464894
0.1367725 -0.25762382 -0.27869114 0.23129319 -0.13465902 -0.25705138 0.003432026 0.014006734
-0.2076911 -0.17520896 0.28154922 -0.19490367 0.18862008 0.08620676 0.28979313 0.04765666
0.24256825 -0.16053924 0.48577014 0.05881517 -0.1298812 -0.12696192 0.054793537 0.22215569
0.2723748 0.03750397 0.4801533 -0.0826301 -0.24012485 -0.056885466 0.1913045 -0.21385519
0.060817897 0.009299971 0.30252892 0.15435344 -0.032662764 0.25532344 0.107983634 0.53219014
-0.080922544 -0.37945348 -0.007291366 -0.13405101 0.080221616 -0.054953963 -0.012428747 -0.09275646
-0.32279763 0.24242167 -0.3738195 -0.118172385 -0.12422259 0.1420509 -0.08905076 -0.24508502
-0.034571808 -0.17223135 0.2723589 0.057255168 -0.010508656 -0.09549184 -0.35246098 0.12691155
-0.11275934 0.18919335 0.062110025 -0.23681884 0.121420026 0.19877042 0.25105137 0.12796393
-0.20685829 -0.08092815 0.16010568 -0.34705496 -0.0971314 0.3003394 -0.15439333 0.05739741
0.22164407 0.24228713 0.092743404 0.29821992 -0.3935597 -0.37155035 0.06962614 -0.08676688
0.36876634 -0.2330049 0.0058516683 -0.12801927 -0.14232276 -0.034078106 -0.23542751 -0.12677002
-0.1391852 0.01954554 -0.10057886 -0.017456615 -0.11008389 -0.041190516 0.22901878 -0.3040669
0.03586304 -0.1924434 -0.04832219 -0.2084351 0.09417331 0.00079360895 -0.11661499 -0.25423995
-0.046974983 -0.0065593007 -0.009832788 0.14009207 0.22438918 -0.03546146 0.36531386 0.2531578
0.25546104 0.1460173 -0.06993422 0.25599578 0.0033392531 -0.23748446 -0.04850102 0.013576288
0.17867763 0.14497246 0.19761264 0.04836884 -0.035839118 0.1523652 0.2758654 0.038653918
0.062130537 0.07843171 -0.15095888 -0.18385702 0.46244293 -0.190251 0.27260417 0.55690855
0.14949887 -0.059678 0.20518057 0.031869188 0.03865819 -0.19417919 -0.3262949 -0.01272863
-0.1391357 0.20084657 -0.19794093 0.0035406034 0.08285401 0.07551356 0.015169887 -0.22642064
-0.027681645 -0.23048553 -0.06659585 -0.20805508 0.06002738 -0.013601296 0.13309819 0.063406326
0.56594676 -0.33647755 -0.22833182 0.11873648 0.074744694 -0.37711796 0.05097934 -0.05064834
-0.008881395 0.23149343 0.5474902 0.00923678 0.2647278 0.060392536 -0.16740297 0.08794651
-0.17556301 -0.26831552 -0.13153587 -0.23261522 -0.017908443 -0.053783394 -0.190219 0.019446021
-0.037194412 0.10178648 -0.28307524 -0.03246994 -0.05003064 -0.0789036 -0.0002475086 -0.018504918
0.1251184 0.21432541 0.06821566 0.17499112 0.10649595 -0.22456081 0.15892962 0.36266398

network_body._body_endoder.seq_layers.0.bias f4 [128]
00000000: 0000 0000 0000 0000 0000 0000 0000 0000
00000010: 0000 0000 0000 0000 0000 0000 0000 0000
00000020: 0000 0000 0000 0000 0000 0000 0000 0000
00000030: 0000 0000 0000 0000 0000 0000 0000 0000
00000040: 0000 0000 0000 0000 0000 0000 0000 0000
00000050: 0000 0000 0000 0000 0000 0000 0000 0000
00000060: 0000 0000 0000 0000 0000 0000 0000 0000
00000070: 0000 0000 0000 0000 0000 0000 0000 0000
00000080: 0000 0000 0000 0000 0000 0000 0000 0000
00000090: 0000 0000 0000 0000 0000 0000 0000 0000
000000a0: 0000 0000 0000 0000 0000 0000 0000 0000
000000b0: 0000 0000 0000 0000 0000 0000 0000 0000
000000c0: 0000 0000 0000 0000 0000 0000 0000 0000
000000d0: 0000 0000 0000 0000 0000 0000 0000 0000
000000e0: 0000 0000 0000 0000 0000 0000 0000 0000
000000f0: 0000 0000 0000 0000 0000 0000 0000 0000
00000100: 0000 0000 0000 0000 0000 0000 0000 0000
00000110: 0000 0000 0000 0000 0000 0000 0000 0000
00000120: 0000 0000 0000 0000 0000 0000 0000 0000
00000130: 0000 0000 0000 0000 0000 0000 0000 0000
00000140: 0000 0000 0000 0000 0000 0000 0000 0000
00000150: 0000 0000 0000 0000 0000 0000 0000 0000
00000160: 0000 0000 0000 0000 0000 0000 0000 0000
00000170: 0000 0000 0000 0000 0000 0000 0000 0000
00000180: 0000 0000 0000 0000 0000 0000 0000 0000
00000190: 0000 0000 0000 0000 0000 0000 0000 0000
000001a0: 0000 0000 0000 0000 0000 0000 0000 0000
000001b0: 0000 0000 0000 0000 0000 0000 0000 0000
000001c0: 0000 0000 0000 0000 0000 0000 0000 0000
000001d0: 0000 0000 0000 0000 0000 0000 0000 0000
000001e0: 0000 0000 0000 0000 0000 0000 0000 0000
000001f0: 0000 0000 0000 0000 0000 0000 0000 0000
0.0 0.0 0.0 0.0 0.0 0.0 0.0 0.0
0.0 0.0 0.0 0.0 0.0 0.0 0.0 0.0
0.0 0.0 0.0 0.0 0.0 0.0 0.0 0.0
0.0 0.0 0.0 0.0 0.0 0.0 0.0 0.0
0.0 0.0 0.0 0.0 0.0 0.0 0.0 0.0
0.0 0.0 0.0 0.0 0.0 0.0 0.0 0.0
0.0 0.0 0.0 0.0 0.0 0.0 0.0 0.0
0.0 0.0 0.0 0.0 0.0 0.0 0.0 0.0
0.0 0.0 0.0 0.0 0.0 0.0 0.0 0.0
0.0 0.0 0.0 0.0 0.0 0.0 0.0 0.0
0.0 0.0 0.0 0.0 0.0 0.0 0.0 0.0
0.0 0.0 0.0 0.0 0.0 0.0 0.0 0.0
0.0 0.0 0.0 0.0 0.0 0.0 0.0 0.0
0.0 0.0 0.0 0.0 0.0 0.0 0.0 0.0
0.0 0.0 0.0 0.0 0.0 0.0 0.0 0.0
0.0 0.0 0.0 0.0 0.0 0.0 0.0 0.0

network_body._body_endoder.seq_layers.2.weight f4 [128, 128]
00000000: 6887 5f3e ff64 e7bd 0f18 97bd ee83 44bd
00000010: f475 f4bd 7b2a f53c e6df a2bd 4919 aa38
00000020: 91c0 1e3e 29c8 83bd 91dc 04be d792 0cbe
00000030: beab 8cbd 0cdb 55be 8f8f 153e 6096 87bd
00000040: 3568 ad3c 61e5 8f3c 37aa f33d 14db a73d
00000050: d0c8 1fbc bdc7 453d 8e3f 17bd 28f6 c6bd
00000060: 5812 893b 2d37 6bbe a1b5 2e3e 0efb cd3c
00000070: a349 063e 88d0 fe3d 2fed c33d bb97 5f3e
00000080: d0cf e73c 2622 1f3d b48e 153e 41f3 073d
00000090: 1dbb 2aba 34a9 53bd 4f8b 523e fd29 d3bd
000000a0: ee4d 113c 27a7 adbd 1a9c eebc bb60 8b3d
000000b0: 1804 19ba 215b 363d 1df5 83bc e960 95bd
000000c0: c1a8 383d cfb6 143d eda2 1f3c 5f92 3c3e
000000d0: 38e2 61be 7d49 753d e184 c1bd d8e9 0c3d
000000e0: 56f4 42bd a767 a6bd d756 1ebc 5207 88be
000000f0: 66c2 5a3d 1521 a43d d9c5 eabd a7a3 223e
00000100: 38d9 c83c 016e 073e ad64 a43c e153 04be
00000110: 287d 843d 50d7 f4bd 4415 33be 2520 dabc
00000120: 3d77 11be ef62 f13c 9a29 f3bd 9163 683c
00000130: 4d9a a6bd 97a3 88bd 4ca5 a6bd 3e47 ae3d
00000140: 9851 113e 1fed 013e edc4 773d f315 85bd
00000150: b5b0 84bd 3ff4 3f3d 8df3 4ebd dfe3 193d
00000160: e7bb e5bc 6ca8 6d3d 734b 913d a7ae 523e
00000170: 4f74 fabc 8079 783d e8ea 0e3e 40b8 803d
00000180: 37b3 3ebd 225a 9ebd bc6e b03b 7fe3 663d
00000190: b8f1 d73d 2cba 453d cd75 0d3d 23a6 1cbd
000001a0: c4f3 e13b 5f7f 7fbd e16d 6abb 6876 a5bd
000001b0: aa1e 6e3d c4bf 143e 5f51 46be 7abb c8bb
000001c0: 22c8 35bd 5a6a 0b3e 5edc 2cbd c34c fe3d
000001d0: 6d6f 6a3d a4dd dfbd 5d8f eb3c a5ae 4a3d
000001e0: 9af7 a9ba 8b4b 873c 5c14 9ebc ff76 70bd
000001f0: 1ddb 0ebe 1de7 0e3e 6a83 bcbd 796c c03d
00000200: 1a7a efbb 02a8 9abd a485 203d b458 4fbd
00000210: caac 29bd 683e c1bc efd7 5dbd 81fb 52bd
00000220: 046d 1abe 8a8a 5fbc a1dd 513b f2a5 fd3d
00000230: a201 be3d be3b 8ebd 81af acbd dc2c 67bd
00000240: 436c 00be 2977 92bc 47cf 343d 50da 983d
00000250: 9d79 e5bd 6845 173d d2dd c1bd c75b 5abd
00000260: a6f2 b0bd 27c0 0dbe 455e fdbd ea8c b1bd
00000270: 3dfd 96bc 0901 093e 2d3b bb3d 09e7 463d
00000280: 846e 693d 97a5 48bd 2bab f3bd e693 183d
00000290: 5ca0 93bd 99ad fabc ae8b d5bd 4b89 6abd
000002a0: 4038 3cbe 890d 0ebd b88d 1cbe fac2 8a3d
000002b0: eca7 033d be3c 23bd bd35 66bd 0e4b 97bc
000002c0: 6bcc bebd 4b6b aabc 74f7 993c 86a1 a1bd
000002d0: ed82 9a3d 5194 8a3e 7356 a93b cfd7 ffbd
000002e0: 03fa 89bd c1b5 943d 259e 2b3d 9cf3 88bc
000002f0: 19da 5abe 70c6 89bd 8ea7 203e 688c abbd
00000300: 9ac2 d73c 5c5c 0ebe 86b3 bfbd 9dad 23bc
00000310: e933 19be 9793 e7bd 44cb 14bd 988a 3c3e
00000320: fb50 29bd 870c 843d f277 933d 8317 3f3e
00000330: b736 db3d d546 1c3d 11ea 5cbd a3cc 74bc
00000340: bf50 48be a4e0 b8bd f7ba 4bbe 21b4 edbd
00000350: 4ed7 043e fc5c 05bb 9511 a9ba f184 d13d
00000360: cf63 19be b8c6 46bd 6e8a 1b3d 1c23 e93d
00000370: 9261 18bd ad4e c13d d836 2d3e 39d8 3ebd
00000380: f8a1 e83c 397e 2ebd 7bf7 adbd 0a33 a8bc
00000390: 6812 1ebe c10f 2fbd b8ed cabd 2370 09be
000003a0: 3119 813b 09a5 1e3d cecc 0a3d 61f2 e2bd
000003b0: 3776 2bbe d91c 733d f1dd ef3d 1b8a 90bd
000003c0: b1e2 fabd b1bd 1bbe 245c 3b3b 357b 05be
000003d0: fb70 26bd d95a e4bd f3c0 993d 670d 3abc
000003e0: ddb4 6a3d 4117 273e 60e3 293d 4cf1 f6bc
000003f0: 53ba a43c aeb2 3d3e 237b abbd 30a4 803d
0.21828997 -0.1129856 -0.07377636 -0.04797738 -0.1193656 0.029927483 -0.079528615 8.1109414e-05
0.15503146 -0.06434662 -0.12974764 -0.1372789 -0.06868695 -0.20884341 0.14605545 -0.06620479
0.021167854 0.017565431 0.118977 0.08196083 -0.009752467 0.04828619 -0.036925845 -0.09714919
0.004183095 -0.22970267 0.17061473 0.025144126 0.13114028 0.12442118 0.095667236 0.21835224
0.028297335 0.038850926 0.14605218 0.03319097 -0.00065128674 -0.051675037 0.20560955 -0.10310743
0.008868678 -0.084791474 -0.02912717 0.06805559 -0.0005837097 0.0445205 -0.01610809 -0.07293875
0.04508281 0.036307152 0.009743434 0.18415211 -0.22058952 0.059884537 -0.09449173 0.0344027
-0.0475963 -0.08125239 -0.009664259 -0.26568085 0.05340805 0.080141224 -0.11463518 0.15882741
0.02451764 0.13225557 0.020067537 -0.12922622 0.06469184 -0.1195513 -0.17488581 -0.026626656
-0.14205642 0.02946612 -0.11873169 0.014183895 -0.08134899 -0.06671827 -0.081369966 0.08509682
0.14191282 0.12688111 0.060490537 -0.06498327 -0.06479017 0.04686379 -0.050525237 0.03757083
-0.0280437 0.058021948 0.07094469 0.20574437 -0.030573038 0.060662746 0.13956797 0.06285143
-0.04655763 -0.07732035 0.0053842943 0.0563693 0.10544151 0.04827325 0.03453617 -0.038244378
0.006895514 -0.06237733 -0.003577106 -0.08079225 0.058134712 0.14526278 -0.19366978 -0.0061258646
-0.044380315 0.13614789 -0.042202346 0.12416985 0.05723517 -0.109309465 0.028754884 0.04948296
-0.0012967468 0.016515514 -0.019296817 -0.058707234 -0.13950773 0.1395535 -0.09204753 0.093956895
-0.007308257 -0.07551576 0.03918995 -0.050621703 -0.04142455 -0.023589328 -0.05416101 -0.051509384
-0.15080649 -0.01364387 0.003202297 0.12385167 0.09277655 -0.06944989 -0.08431912 -0.056439266
-0.12541299 -0.017879086 0.044142988 0.07463515 -0.112048365 0.036931425 -0.09466137 -0.053310182
-0.086400315 -0.13842832 -0.12371496 -0.08669455 -0.0184313 0.13379301 0.09142146 0.048560176
0.05699016 -0.048986044 -0.11897882 0.037250422 -0.072083205 -0.030600356 -0.104270324 -0.05725984
-0.18380833 -0.034680877 -0.15288436 0.0677547 0.032142565 -0.03985285 -0.056203593 -0.018468406
-0.093163334 -0.020803114 0.018794753 -0.07892136 0.07544503 0.2706628 0.0051677763 -0.12492334
-0.06737139 0.07261229 0.041898865 -0.016717725 -0.2137226 -0.06727302 0.15688917 -0.0837639
0.02633791 -0.1390242 -0.09360413 -0.009990123 -0.14961208 -0.113074474 -0.03632666 0.18412244
-0.041336995 0.06447702 0.07200612 0.18661313 0.107037954 0.03815349 -0.05393416 -0.014941367
-0.19562052 -0.09027222 -0.1989554 -0.116066225 0.12972757 -0.0020349612 -0.0012898917 0.10230435
-0.1497948 -0.048529357 0.037973814 0.1138365 -0.037202425 0.09438834 0.16915452 -0.046592925
0.028397545 -0.042600844 -0.08494469 -0.02053215 -0.15436709 -0.042739633 -0.099086225 -0.13421683
0.0039397706 0.03873161 0.033886723 -0.11081386 -0.16744314 0.059353683 0.11712254 -0.070575915
-0.12250269 -0.1520908 0.0028588856 -0.13035281 -0.04063509 -0.1115014 0.07507505 -0.011355734
0.05730139 0.16317464 0.041476607 -0.030144356 0.020108378 0.18525192 -0.08373096 0.06281316

action_model._discrete_distribution.branches.0.weight f4 [2, 128]
00000000: 477e 573b 890c af39 879a 4bbb c8d1 553b
00000010: 4a1f d2bb 4005 77bb 395c 22bc 7f14 82bc
00000020: 0347 4dbc 9b86 b33a 52d0 a4bb 0675 a9bc
00000030: 6acb 2bbc 9c19 053c 0c16 8c3b 4dbb 65bc
00000040: a12b 103c ace7 213c 07fa d8bb 2aa9 663b
00000050: 808f 323c 68f4 b0ba 79aa 983b d190 cb3b
00000060: 17c7 003c 1d2a 46bc 589e 1d3c 7fa3 a73c
00000070: 157a 5e3c 9201 b1bb cfd1 873c 6b75 723b
00000080: add8 063c 7d4f 14bc 18a8 c739 7561 803b
00000090: fa68 583b 692b 2239 fbd4 3ebb f93c 973b
000000a0: 0b4a b2bb 4363 97bc efff 2dba f12f 2cb8
000000b0: 04b1 94bc fbef 133c 85ba 503b 4159 103c
000000c0: babe 4abc c3c6 243c 0f3b 2cbb f2af d939
000000d0: 208a 6cbb 8365 f93a ef0d 70bb ba2f 713a
000000e0: 0b37 67bc 5f25 8d3b 8617 2c3b 42bc 633b
000000f0: a77a d23b 0a6e 533c 5dc0 4fba 3e5d be3b
00000100: 63b5 fa3a c829 5b3b 1950 19bc 9d16 533c
00000110: 86d9 8a3b dfca b13c 2869 7cbb c355 efba
00000120: d3ca 043c 2303 0ebc 27ac 4d3b 44b1 983b
00000130: 90e6 ccbb 6d10 41bb b39e 883b 1bed f1bb
00000140: 1495 213a ce3a 9d3c 21c2 b2bb 18e8 05bc
00000150: 9fe8 0bbb b5c8 bc3b 9161 853c da88 683b
00000160: f71b 42bb b6be 11b9 4a4d 05bb 7b16 b63b
00000170: df27 e5ba f9de ac3b d859 24bc ad68 e5b9
00000180: 0035 583a dd52 583c 4fa2 16bc 3dc1 bbba
00000190: 30b6 383b aa96 95bb 4696 a7bb 670e 083c
000001a0: 98d8 17bb b174 44bc b721 91bc 7d60 3839
000001b0: 836a 9abc 4f5a 933a 27d1 efbb 8f99 bcbb
000001c0: 2900 4abc d362 1bbb 5ca7 2abc 3774 1cba
000001d0: 9d86 8539 ef57 c73a 877e e5bb c8c1 bb3a
000001e0: 3779 24bc 9d48 c3bb d2ef aabb a152 2a3c
000001f0: 7b57 e5b9 4f73 963c 1829 623a 32ec 463b
00000200: 427f 733b d23e b3bb 5faa 9eba 2207 cf3b
00000210: 56ce 88bb 588a 7ebb 21ca 24bb 14c8 98bc
00000220: 7df6 e43a 7b50 f6bb 91e2 913c 02f2 fb39
00000230: fd8f 5c3b 7c9a 843b 91f5 a9bb 8f98 f03b
00000240: 3569 bd3b eb36 b13b 2829 4cbb ea18 f3bb
00000250: 0ad9 c33a e99b 14bc b074 07bc 21c2 923a
00000260: cfac 5a3c e818 5838 cc7c 0f3c da81 8ebc
00000270: 636e 02bc 50ab 923b c6b6 b7bb cf37 123a
00000280: 27c0 18ba 0797 053b 599f bd3b a293 ebbb
00000290: e751 5a3a e92b 47bc f27b 613c 5715 20bc
000002a0: efe6 f73b 2754 05bc c898 b83a 9668 20bc
000002b0: d385 cbbc 27a9 b4bb 2f23 5d3c 7308 4abb
000002c0: 9382 fbbb 1165 b0bb 5724 51bc 11f9 aaba
000002d0: 87c6 903b 63f5 adbb dfaf de3a 016e 34bc
000002e0: fe3a 3e3c 2a5b 72bc 68b6 f23b 58a7 7a3c
000002f0: 905b f13a b2f5 37bb d324 753c 32b9 78bc
00000300: 7847 9bbb e0c1 51bc 9b39 4d3a 1fe7 793c
00000310: 077b 933b 8240 53bc 8b46 a83b af69 b9bb
00000320: 25d3 e33b acee 1ebc 8f89 a13b 8842 ecba
00000330: 6891 cabb 1f30 d2b9 4bb4 353a 39dc 1eb6
00000340: e294 c63b 4ec6 453c 5779 2dbc 04a7 93bb
00000350: 8e65 11b9 f32f 343c dd91 da3b 5f8f 973a
00000360: e2b4 733b 23de 71bc eae2 193a cebe 8a3c
00000370: 295b 09bc 2754 593b b689 abbc 139e 9dbb
00000380: cf2b 393c c2f1 b4bb 722e 1f3c e554 a4bb
00000390: 798b 07bc f78c 8d39 dcbf c73c f702 453a
000003a0: ed09 1abc abe5 283b f220 7cbc 132e debb
000003b0: c35a 833c 5d0d f0bb 2040 d23b 36c0 88bb
000003c0: d25b 93bb be4f 3abb 1c76 a43b 37c1 acbb
000003d0: d7d5 d1bb b287 6f3b 0637 aa3c a077 303c
000003e0: 7f8a 9d3c 3065 323c 2c84 06bb 631e 62bb
000003f0: 69ba a83b f27e d23b a51d 4f3c 2c47 b23b
0.0032881664 0.0003338794 -0.0031067447 0.003262626 -0.0064124214 -0.0037692338 -0.009909683 -0.015878914
-0.012529138 0.0013696732 -0.0050297165 -0.020685684 -0.010485509 0.0081237815 0.004275089 -0.014021707
0.008799464 0.009881895 -0.0066216025 0.0035196044 0.010898471 -0.0013500573 0.004658994 0.006212332
0.007859967 -0.0120950015 0.009620272 0.020463703 0.013578911 -0.0054017985 0.016579537 0.0036996256
0.0082303705 -0.009052155 0.00038081477 0.003917868 0.0033021555 0.00015465695 -0.0029118645 0.004615423
-0.0054409555 -0.018479949 -0.00066375633 -4.1052645e-05 -0.018150814 0.009029384 0.0031849456 0.008810342
-0.012374574 0.010057154 -0.002628032 0.00041520555 -0.003609307 0.0019027445 -0.0036629399 0.0009200532
-0.014112244 0.0043074335 0.0026259138 0.0034749662 0.0064233127 0.012904653 -0.00079250877 0.005809455
0.0019127544 0.0033441652 -0.009357476 0.012883809 0.0042373566 0.021703182 -0.0038514826 -0.0018259812
0.008104998 -0.00866774 0.0031383128 0.0046598036 -0.006253071 -0.0029459253 0.004169309 -0.0073830015
0.0006163877 0.01919308 -0.005455271 -0.008173011 -0.002134837 0.005761231 0.016281875 0.003548196
-0.002961872 -0.00013899323 -0.0020340257 0.005556879 -0.0017483196 0.005275604 -0.010031186 -0.00043756273
0.0008247644 0.01320335 -0.009193971 -0.0014324557 0.0028184764 -0.0045650797 -0.0051143495 0.008304215
-0.0023169871 -0.011990712 -0.017716272 0.00017583552 -0.018849617 0.0011242124 -0.007318634 -0.0057556103
-0.01232914 -0.0023710027 -0.010415878 -0.0005968245 0.00025468032 0.0015208701 -0.0070036086 0.0014324719
-0.0100386655 -0.005959584 -0.005216577 0.010395677 -0.00043743462 0.01836553 0.0008627339 0.0030353186
0.003715471 -0.0054701352 -0.0012105218 0.006317989 -0.004174988 -0.0038839784 -0.0025144892 -0.018650092
0.0017468479 -0.0075169182 0.01780823 0.0004805476 0.003365516 0.0040467363 -0.0051867445 0.007342405
0.005780364 0.005408158 -0.003115246 -0.0074187415 0.0014942002 -0.009070375 -0.008267567 0.0011196771
0.013346865 5.152161e-05 0.008757781 -0.017395902 -0.007960889 0.0044759884 -0.005606505 0.0005577774
-0.0005826973 0.0020384209 0.005786818 -0.00718923 0.00083282444 -0.012156465 0.013762461 -0.009770713
0.007565371 -0.008137739 0.0014083618 -0.00979056 -0.024844086 -0.0055133286 0.013497158 -0.003082779
-0.007675478 -0.005383142 -0.012765012 -0.0013044198 0.0044181976 -0.0053087934 0.001698967 -0.011012555
0.0116107445 -0.014792243 0.0074069984 0.015298687 0.0018414129 -0.002807003 0.014962393 -0.015180873
-0.0047387443 -0.012802571 0.0007828713 0.0152528575 0.00450075 -0.012893798 0.0051353625 -0.0056583504
0.0069526606 -0.0097004585 0.0049297283 -0.0018025199 -0.0061818846 -0.00040090174 0.0006931468 -2.3672021e-06
0.0060602287 0.012071205 -0.010588012 -0.004505994 -0.0001386611 0.01099776 0.0066702203 0.0011563114
0.0037186672 -0.014762434 0.00058702996 0.016936686 -0.008383551 0.003316173 -0.02093969 -0.0048101037
0.011301949 -0.005521984 0.009715663 -0.005015003 -0.008272999 0.00026998643 0.024383478 0.00075153954
-0.009401781 0.0025771658 -0.015388714 -0.006780395 0.01603449 -0.007325812 0.0064163357 -0.004173304
-0.00449703 -0.0028428878 0.0050189625 -0.0052720564 -0.0064036655 0.0036549387 0.02077819 0.010770708
0.01923108 0.010888383 -0.0020525558 -0.0034502975 0.005149175 0.0064238245 0.012641345 0.0054406133

action_model._discrete_distribution.branches.0.bias f4 [2]
00000000: 0000 0000 0000 0000
0.0 0.0

action_model._discrete_distribution.branches.1.weight f4 [2, 128]
00000000: 701d 93bb 583b a6ba 12c4 dfba 7089 983b
00000010: 1054 ae3c 9bd0 663c 52c9 2abc 5153 893b
00000020: 6c47 8cbc 1841 56bc 5acb e3b9 2695 1bbc
00000030: df0c 483b d04a 003c c82b 153c 06fb 84bb
00000040: b934 cc3a 4b3f 5d3a 129f 23bb 02b5 d5bb
00000050: d409 253c a4f6 99bb 6bfe efbb 001b 343c
00000060: 3551 783c e2bb 8a3c a377 143c 43f5 043b
00000070: 1a7f 7abb 1ba5 b53b fb0e 063c 0204 09bc
00000080: 36db 433b 9f2e 803c 94b8 b2bb 6f4c c2bb
00000090: 0b0e 5bbb 608b 4dbc a016 3ebb e7d1 0e3b
000000a0: 1346 99ba b5a6 e5bb bda3 8dbb 82aa 243a
000000b0: 23ce 383c 6725 db3b ba47 2cbb 6b87 503c
000000c0: a036 d73b b3a7 ec39 b599 52bc 7740 eabb
000000d0: 84ff 863c 6bdc 943b c840 2ebb 5368 23bc
000000e0: 2d42 003c ba87 93ba ccf4 aabb 77ae 473c
000000f0: 737a e2bb 6389 373b 356e 50bb 0895 673c
00000100: 9345 13bc d539 153b afe7 47bb bdd2 993b
00000110: 9f49 473c aa20 bdbb 9576 2ebc 074d f23b
00000120: e3ed 3dbc 4794 8d3c d340 df3b 7aba 5f3c
00000130: 4881 4ebc 4f1f cb3b 8986 b73b df07 a8bb
00000140: ce96 413b f79c 31bc 3374 11bc f809 903c
00000150: 74d3 8c3c 0af8 ddba 6ff7 04bc 0728 8a3b
00000160: 134f 10bc fb47 5d3b 98e6 b73c 3a13 eb3b
00000170: 35eb 6c3c 3fb4 94b8 4702 1d3c 5315 08bc
00000180: 34ba 803b 9572 6f3b a072 693c 10ed 61bc
00000190: fc10 80b9 c97e 943b cbf5 77bb cc75 183c
000001a0: c808 d1bb ac9f 30bc 2f13 4fbc 1395 1739
000001b0: 3bdf f7bb 16fd c93c 42b5 febb 89b9 10bb
000001c0: e7ad b9bb 6806 423c ba9f bf3a 9cf6 3d3c
000001d0: 487c d93b 5326 8b38 ace4 96bb 650c f7bb
000001e0: 6976 8e3b a686 133a 3fb3 3739 9a21 4d3c
000001f0: b0d4 153c ef69 0aba eb31 32bc f208 dcba
00000200: 4a12 023c 50ca ea3a 5197 273b 9285 93ba
00000210: 9d59 b03b a5a1 22bc 9d31 d23b ef58 4cbb
00000220: 712e 87bc 60fd 52bc 2d84 023c 1f44 f539
00000230: 4bb3 2dbc 8e13 9d3b bff8 b43a 8bc2 ea3b
00000240: 24d3 163c bfcc 2f3c 846a 0a3c 7aef 993c
00000250: a4b5 32bb 78db a2bb 7e2e 023b 30b7 743a
00000260: fac9 40bb f5c4 adbb 9f47 e8bb a325 a73b
00000270: 17db 153b 52ab 953b 552d 873c 2bcc 183c
00000280: a869 503b c10b 28bc f731 e6bb 1d43 52bc
00000290: 4ffc 66bc 1b35 943a 90fc 553a afac 8838
000002a0: e33d 26bc 7174 c1bc 9376 c33b 93ee 09bb
000002b0: ad06 6139 127a e8ba 4d51 7d3c 6279 e43b
000002c0: 8712 3c3c 6f10 1c3c 687a 5b3a 4e72 11bc
000002d0: 41ce 1a3c 4706 0cbc ac73 b6bb 0bea e6bb
000002e0: 60cd c03c 2fab 293c c749 33bc c996 333a
000002f0: c5ed 82ba da60 3a3b 7993 93ba 1000 d23b
00000300: 9810 683b dd40 6fb9 c2f2 df3b d52a 21bc
00000310: 4446 02bb 77c0 87bb 6bc1 04bc 19a4 993a
00000320: 7f20 0d3b cbed 47bc 2d75 843c c881 cabb
00000330: 3948 853b a5bc 533c 907a 8fbb 3209 23bb
00000340: f1ed 9f3c 3641 1a3c ea1d 6ebc a7b4 c8bb
00000350: 7840 cc3b 2eb1 04bc 81c0 a23b 8321 dbbb
00000360: b8da eeba b2f7 d43a b895 4ebb bfd3 cebb
00000370: 9a67 f43b 27e0 dabb b783 383c e962 46bc
00000380: fd42 70bb 4eb2 8f3b cfee 973a 5b2c 7cbc
00000390: fbaa 6e3c 0924 0bbc aaeb 01bc d26e 26bb
000003a0: cbe5 463c 0da2 c43b 577d 88bb d213 54bb
000003b0: a3e3 313c 1565 f4bb f088 943c 9f7f 8cbb
000003c0: 5b0f faba d27d a23b 727d 1a3c 22ae 0c3c
000003d0: 9055 dcbb 90ec 33bb fa9a b5bb 3fda cd3c
000003e0: 0597 913c 32d5 243a 6d7b d1bb 1a4f 1ebc
000003f0: 90bc a4bc 8763 0a3c aa85 173a aacc b13a
-0.004489593 -0.0012682481 -0.0017071983 0.0046550557 0.021280318 0.014087821 -0.010423975 0.0041908403
-0.0171239 -0.013077043 -0.00043448323 -0.009496009 0.003052525 0.007830337 0.009104677 -0.0040582446
0.0015579677 0.00084399123 -0.002496664 -0.006521822 0.010073144 -0.0046985913 -0.00732403 0.010992765
0.01515608 0.016935293 0.009061727 0.002028779 -0.003822273 0.0055433637 0.008182283 -0.008362772
0.0029885299 0.01564723 -0.0054541323 -0.0059295218 -0.0033425118 -0.012545437 -0.0029005185 0.0021792592
-0.0011693857 -0.0070083984 -0.0043224976 0.0006281511 0.011279616 0.0066878083 -0.002628787 0.012727599
0.006567791 0.00045138373 -0.012854029 -0.007148798 0.016479261 0.0045428774 -0.0026588906 -0.009973603
0.007828278 -0.001125566 -0.0052171703 0.012187592 -0.0069115697 0.0028005473 -0.003180397 0.014134653
-0.008988756 0.0022770066 -0.0030503084 0.0046943114 0.012163549 -0.005771716 -0.010648389 0.0073944363
-0.011592361 0.017282618 0.0068131476 0.013655299 -0.012604065 0.0061988006 0.0056007546 -0.0051278914
0.002953935 -0.010840646 -0.008877802 0.017582878 0.017190672 -0.0016934883 -0.008115633 0.0042161974
-0.008807915 0.0033764828 0.022448823 0.007173923 0.014460375 -7.0907634e-05 0.0095830625 -0.008305865
0.003928447 0.0036536802 0.01424852 -0.01378943 -0.00024426717 0.0045317155 -0.0037835713 0.009305429
-0.0063792206 -0.010780256 -0.012638851 0.00014456017 -0.007564453 0.024656814 -0.0077730725 -0.0022083244
-0.0056664827 0.011842348 0.0014619746 0.011594441 0.00663713 6.635175e-05 -0.0046048965 -0.0075393193
0.0043476117 0.0005627669 0.00017519014 0.012520218 0.009144947 -0.00052800676 -0.010876159 -0.0016787334
0.007938931 0.0017913077 0.002557237 -0.0011255017 0.0053817765 -0.009926234 0.006414606 -0.0031180938
-0.016501637 -0.012877792 0.0079660835 0.00046780796 -0.010601829 0.004793591 0.0013807042 0.0071643046
0.009205613 0.010729968 0.008448247 0.01879095 -0.002726891 -0.0049700104 0.0019864137 0.00093351584
-0.0029417262 -0.00530302 -0.007088616 0.005100922 0.0022866183 0.004567542 0.016501108 0.009326021
0.0031801257 -0.010256709 -0.0070249992 -0.012833384 -0.014098241 0.001130733 0.000816294 6.51715e-05
-0.010146591 -0.023615094 0.005965063 -0.0021046742 0.00021460159 -0.0017736575 0.015461278 0.006972478
0.011479027 0.009525402 0.0008372427 -0.00887735 0.009448589 -0.0085464185 -0.0055679884 -0.007046943
0.02353543 0.010355755 -0.010942883 0.0006850777 -0.0009989074 0.0028439076 -0.001125916 0.006408699
0.0035410281 -0.0002281698 0.006834359 -0.009836872 -0.0019878307 -0.0041428166 -0.008102755 0.0011721879
0.0021534262 -0.01220269 0.016169155 -0.006180022 0.0040674475 0.012923394 -0.0043786243 -0.0024877307
0.019522639 0.009414962 -0.014533499 -0.006125051 0.006233271 -0.008098884 0.004966796 -0.0066873445
-0.0018223142 0.0016248135 -0.0031522345 -0.006311863 0.0074586393 -0.006679553 0.011261872 -0.012108543
-0.0036661022 0.0043852692 0.0011591556 -0.015391435 0.014567132 -0.008492478 -0.007929722 -0.0025395644
0.012139748 0.0060007633 -0.0041653323 -0.0032360447 0.0108574955 -0.007458339 0.018131703 -0.0042876746
-0.0019078063 0.0049588466 0.009429323 0.008586438 -0.006724067 -0.0027454235 -0.0055421563 0.025128482
0.017772207 0.0006287872 -0.0063928873 -0.009662414 -0.020109445 0.008446581 0.00057801104 0.0013565023

action_model._discrete_distribution.branches.2.weight f4 [2, 128]
00000000: 2387 643c 2375 2ebc 3774 92bb e78e 683c
00000010: 9ceb 18bc c2f0 74b6 875c 63ba 3baf 44bb
00000020: 4cb7 c6bb 87e1 653a 889d 50bb 831a 4b3c
00000030: b763 8ebc 8dda ccba 53c8 7a3b c8a6 bdbb
00000040: eab1 56bc 12af 86bc 42bc 533c d5de dcbb
00000050: df91 3b3c baad dfbb c0f6 73bc 05e9 7a3b
00000060: 3415 803b 8fd6 113c a5ac 9f3b 01ac 8eba
00000070: 3c0c 003c d3fe 92bb b872 873c 27d7 cd3a
00000080: d390 68bb a7bf 223c 9d8f 66bb 1382 513c
00000090: 4f93 28bc e16e 9b3b 920d 683b 46b8 b1bb
000000a0: aa72 b03c 9d2c a8ba 8e17 08bb ba88 2fbc
000000b0: 6b12 883c 93d5 a8bb 3445 0ebc 13b9 a7bc
000000c0: 3bcd b4bc e7b4 7bbc 37a9 dfba 5ac6 b33a
000000d0: 0c05 29bb f1ea 28bb af8b e33b 6a23 e53b
000000e0: 45ff a53b bb2a 073c 72ef 7e3c 3159 42bc
000000f0: 3562 403a 8ba3 02bb 73b6 1dbb ea60 94b8
00000100: db31 d2bb 2b53 053b 0f61 2f3b 7bf8 013b
00000110: 23ac 6abc 3768 5e3b 8518 ed3b a201 67bb
00000120: e584 e83b 8721 15bb 3d96 193c 3d60 eb3b
00000130: e767 81bc f728 2cbb 47e1 bfba 52da c03b
00000140: eeeb b73b 22ef 7b3b 3753 48bc bd9c 4f3c
00000150: 3a75 76bb 07cc 433c 233b 2c3b cf99 1d3c
00000160: 0585 513c 2a5c 25bc 7bcb 80bc 5803 32bc
00000170: d8ad 503c d7a6 89bc 59b4 25bc 03e9 02bc
00000180: 389e f2ba 6bef d63b 631f 063c 70ee 5cbb
00000190: 250e 09bc 1edb 27b8 ebb5 a2bb 7bfa 663c
000001a0: e37f 203c 2a40 863c a722 6cbb a7a0 e63b
000001b0: 36af 9c3b f874 36bb d81c ce3b 9fd7 1fbb
000001c0: 2f9a 9f3a 0f0d a33b 7cdb 92bb 98f1 523b
000001d0: f2d7 6f3b 21d8 c43b dae6 5a3c b9c6 0a3b
000001e0: 9122 14bb e8cd e938 e009 493c bcdc 0abc
000001f0: bc22 0b3b 6c8b 00bc 5f04 43bb 30ec 38bc
00000200: 10b7 34bb ef05 233c fbac fa3b 5fdc 7fbc
00000210: 2e18 aaba 704b 7e3b cf32 58bc 2bd9 afbb
00000220: d0df 29bc a5a9 233a c7cb 353b aae5 d13a
00000230: dfd3 d23b c39d e339 39e3 973b aa8c 973b
00000240: df67 d7ba 5bc9 0c3a efd9 c53a cdbb d13b
00000250: 8b69 c9ba 7257 553c 7d4c 393c 2554 643b
00000260: ef80 cd3b cf80 9e3a eaac 75bc 7d38 d1b8
00000270: b8ce bdbb e432 c43b 6529 313b 064f 303a
00000280: 85c1 f4b7 681d f93b 305d d93b 6da2 4d3b
00000290: 3ae0 c2bb f24c a83b c2b8 31bb f48c 8b3c
000002a0: c0ea 843c 8730 aabb 90c4 4f3b 7577 00bc
000002b0: 2852 4abc 839f a63b 17d9 06bc 8a0f 4aba
000002c0: 33e0 08bb e5f1 d5bb c818 dabb 40a6 dc3a
000002d0: 768d 463c bf72 fabb ac07 013c e2ee 283a
000002e0: fb60 38bc b7da 053c b2ef ed39 305b 48bc
000002f0: 4685 013c 915f 083c 67c5 aa3c 9d15 8fb9
00000300: a343 e1b9 0089 9bbb df29 9039 0a46 163c
00000310: c32e cbba 1261 503b b34e 94bc 3388 473c
00000320: bca2 1c3a afe9 a33b 0e83 aebb 3222 f3bb
00000330: acb3 9aba a861 0bbb e7fd 30bc 67c7 01bc
00000340: bd8d 733b 2b13 dc3b a75b 063c 6346 0a3b
00000350: 13b2 683c 938b 883c 7892 483c 7363 a83c
00000360: 3b3c d9bb 50e0 653c 9e38 c5bb fb84 e6bb
00000370: adbe fe3b aaa5 923a ec5c 9c3a 61f8 9139
00000380: a8c6 4dbc 4a5d d93b 3319 593b a4b6 97bb
00000390: 8fca 883c 5b5d 7f3c 13e1 ddbb 1f15 73bb
000003a0: 3b10 76bc b580 be3b 23b7 8b3c e36f 74bb
000003b0: 1556 80bc 3e1f 863b 6cec 153c 600b deba
000003c0: a939 8cbc 5407 47bc db15 55bc 07a4 8a3b
000003d0: 3081 623c 230d 0b3c a24a b0bb 989e 8cbc
000003e0: f39a ac3b a73d 0f3b 171c 0bbb a27e 8b3b
000003f0: 6af2 063a e8ce 71bc e381 fcbb b454 a33b
0.013948235 -0.010648045 -0.0044694203 0.014194227 -0.009333517 -3.6498973e-06 -0.00086731504 -0.0030011672
-0.006064331 0.0008769263 -0.0031832177 0.012396458 -0.017381532 -0.0015629098 0.0038266375 -0.005787704
-0.013103941 -0.016440902 0.012923302 -0.006740431 0.011448353 -0.0068261297 -0.014890373 0.0038285863
0.0039087776 0.008901252 0.0048728758 -0.0010885001 0.007815417 -0.004485944 0.016534194 0.0015704379
-0.0035486713 0.009933389 -0.0035180815 0.01278736 -0.010289027 0.0047434424 0.003540848 -0.0054235784
0.021539051 -0.0012830679 -0.0020765993 -0.0107137505 0.016610345 -0.005152413 -0.0086834915 -0.020473992
-0.022070518 -0.015362955 -0.001706398 0.001371573 -0.0025790362 -0.0025774802 0.006944142 0.006992747
0.005065831 0.008249934 0.015560018 -0.011862085 0.0007338853 -0.0019933905 -0.0024065047 -7.0752416e-05
-0.0064146346 0.0020343761 0.0026760732 0.0019831944 -0.014323267 0.0033936629 0.007235589 -0.0035248776
0.0070959204 -0.002275558 0.0093741985 0.0071831034 -0.015796615 -0.0026269534 -0.0014639281 0.005885401
0.005612842 0.0038442095 -0.012226871 0.012671647 -0.0037606494 0.011950499 0.0026280365 0.00961919
0.012788062 -0.010092774 -0.015722027 -0.010865055 0.01273676 -0.016803188 -0.010113799 -0.007990125
-0.0018510288 0.0065593026 0.008186194 -0.0033711456 -0.008365189 -4.001997e-05 -0.004965534 0.014097805
0.009796116 0.016388018 -0.0036031397 0.007038194 0.004781629 -0.0027840715 0.0062900595 -0.0024389995
0.0012176688 0.004975922 -0.004481731 0.0032187458 0.003659722 0.00600721 0.013360703 0.0021175577
-0.002260361 0.00011148659 0.012270421 -0.008475479 0.002123042 -0.007845741 -0.0029757244 -0.01128678
-0.0027574934 0.009950145 0.0076500154 -0.015616505 -0.0012977177 0.0038802288 -0.013195707 -0.0053664646
-0.010368302 0.00062432355 0.002773987 0.001601388 0.0064339484 0.00043414356 0.0046352413 0.0046249228
-0.0016434154 0.00053705805 0.0015094856 0.0064005614 -0.0015366537 0.013021337 0.01130974 0.0034840193
0.0062714736 0.0012092831 -0.014994839 -9.9764184e-05 -0.005792465 0.005987512 0.002703273 0.00067256426
-2.9177181e-05 0.0076023825 0.0066334233 0.003137733 -0.00594714 0.0051361257 -0.002711818 0.017034985
0.016225219 -0.005193773 0.0031702854 -0.007840981 -0.012348689 0.0050849332 -0.008230469 -0.0007708004
-0.0020885586 -0.00652908 -0.006655786 0.0016834214 0.012118688 -0.0076430733 0.007875364 0.0006444288
-0.011253591 0.008169821 0.0004538275 -0.012228772 0.00790531 0.008323566 0.020846082 -0.0002729119
-0.00042965738 -0.0047465563 0.00027497017 0.009171972 -0.0015501607 0.003179614 -0.018103933 0.0121784685
0.0005975177 0.0050022225 -0.0053256815 -0.007419848 -0.0011802814 -0.0021267924 -0.010802723 -0.007921076
0.003716334 0.006716152 0.008200563 0.0021099083 0.014202612 0.016668117 0.012241952 0.020555234
-0.0066294945 0.014030531 -0.006018712 -0.0070348955 0.007774195 0.0011188288 0.0011929548 0.00027841612
-0.01255957 0.0066334354 0.0033126592 -0.0046299268 0.01669815 0.0155862225 -0.0067712157 -0.0037091447
-0.015018518 0.005813683 0.0170551 -0.0037298135 -0.015666047 0.00409308 0.009150606 -0.0016940646
-0.017117338 -0.012147743 -0.013005699 0.0042309794 0.013824746 0.008487019 -0.0053799907 -0.017165467
0.005267495 0.0021856816 -0.002122646 0.004257039 0.0005147817 -0.014758803 -0.0077059134 0.0049844626

action_model._discrete_distribution.branches.3.weight f4 [2, 128]
00000000: b85a 9cba e262 8fbc 3840 603c 05cd 41bc
00000010: d868 e33b 1f18 48bc 1f1d a53b 9788 98bc
00000020: c76c 86bc 5a19 3a3b 17bc 3eba 3fb0 ac3b
00000030: 45ab 07b9 d88d 583c 8b0c b73b 5d43 3eba
00000040: ad40 7dbb fabe e438 734b 1a3b 7d6a c93a
00000050: a04f 14bc 5363 22bc 1089 4fbc 9f35 adba
00000060: ac39 45bc 935a c9bb 8a1e 8dbb 3cf1 993c
00000070: 6786 3f3c 7330 913b 68fb 0ebb d264 85bc
00000080: 4bae 113b f04d a5bb dbaf bbbb b1f0 0a3b
00000090: ea87 fabb d9d6 8b3b b72b 60bb ef9e 1fbc
000000a0: fdb6 b4bb db8c 563b d2ed 53bc 4a28 4db9
000000b0: 0b6b 43bc b88c bebb 29ae c6bb 7395 953c
000000c0: cb38 b9bc ecf7 1f3b 62f0 adbb ff36 90ba
000000d0: c4a9 423b b427 1bbc 2f8c 883b c5b7 6cbc
000000e0: 575a e93a 1a2e 89bb cd84 ee3b dff5 8cb9
000000f0: bfcb 71ba c76f 8fbc 0749 79bc ad68 be3b
00000100: 2ae7 28bc aaa2 cf3b 989c f73b 0db3 b43b
00000110: b573 283c 1304 893b 0124 213c bea8 bfba
00000120: 4a34 d93b 2da3 e9bb b1eb 403c 240a 083c
00000130: 296d 40bc a6c7 1c3c f725 ec3b a7d7 353c
00000140: b28a bbb9 a3e6 503b 9759 893c 5c80 483c
00000150: f8de 01bc 681e f1bb 0991 103b 89cd 443a
00000160: 930b 5dbc 92ff ccbb da77 e4bb dbd2 5f3b
00000170: d3cb 17bc 0742 8fbc c7b9 bab9 d8d6 32bb
00000180: 5785 bb3b 07fe 8938 306d a83b 8f7f 283b
00000190: 4cc5 44bb 92f7 87bb 8b74 11bb c67d 19bb
000001a0: fa8f 673c 008c 57bc 9908 9d3a 35e8 edbb
000001b0: 9f9e 96bb 8b3f 0bbc 89dd 97bb 8008 c9bb
000001c0: 3fca 4e3c cf69 603c e34c b43c 04d3 323b
000001d0: 37ff ddbb c359 003c fbc3 653c 7dd5 2d3b
000001e0: 1f68 943c 7758 8bba 558e d2b9 b097 4abb
000001f0: 1439 1d3c 3bc6 263b ad91 5dbb 5e7f a73a
00000200: 90d6 e7bb dca6 21bc 206d 663a a690 34bc
00000210: ab9b 8d37 bdc7 8e3c 22ac bfbb 9c31 bfba
00000220: e3b7 983c 120f 693c b79b 92bc 6755 28bb
00000230: 6eb2 b2bc 0c56 49bc 733d f8bb 0100 c039
00000240: 3664 a53c d78f 133c 9f4d 99bb 3a21 683b
00000250: 19dc 1abb fa34 74b8 b076 4abc 21d9 97bb
00000260: bbf8 223b c19b 2a3b 3aec 463c f51c 79bb
00000270: cdc0 283b 7d4a 64bb 5327 28bc c6a5 c5bb
00000280: 3748 6cbc 5182 25bc 095f a13a 9fe2 b43b
00000290: ff62 2dbc 3fe8 4b3b 83c9 9b3c 9305 a3bb
000002a0: 1843 74bb c7c6 b5bb 23df 8e3b 70ef 75bb
000002b0: b34b 733c 2162 153c 1dff 74bb afdc da39
000002c0: 1218 5f3c 3829 46bc 8204 f63a 994e a8bc
000002d0: 39f0 8b3b 50f1 7638 c8fc e3bb 1484 903b
000002e0: c805 ebba a993 22bc 8075 f63b e320 153c
000002f0: 34de abb8 3b4f 3a3c 97a5 053c 3d3e afbb
00000300: ecbb aabb 21e3 173c 4624 28bb 1433 32bc
00000310: 49e2 02bc c362 d33c b683 213c b93f 233c
00000320: d724 a137 3f93 70bc b043 333c 9bde e9bb
00000330: 1fac 353a dbf1 fd3a f9e2 ab3c 8fb6 50bb
00000340: 9a7d 0139 68f6 c63b 5305 0dbc 9fc2 24bc
00000350: edfc 603a 530f a03a 0646 a23b b1dc 98bb
00000360: 4af7 1cbc 8a2f 2b3b 0058 153b d6a6 413c
00000370: cee4 2dbb f536 d739 e35e 88ba 0bd1 f23b
00000380: a43e 35bc 571f 803b db05 173c 0cbf 13bc
00000390: 4bb3 c0ba 4a40 6abc 221f e6ba 5bb7 3cbb
000003a0: 0324 453c 636c ca3b 8b52 b9bb 32f4 97bb
000003b0: 629e 463c 9859 f2bb dc25 283b b618 1e3c
000003c0: 564b 9ab7 1b36 143c d89a d0bb 7b9e acbb
000003d0: cbe1 13bc 1d9a e83b eb05 99bc 0f16 f33a
000003e0: aac5 193b ed31 65bc a9d3 07bb 7ba4 b0bb
000003f0: 776c 8a3a 3678 2dbc 025c 263c bd08 453b
-0.0011928892 -0.017503206 0.013687186 -0.011828666 0.0069399886 -0.012212782 0.005038872 -0.018619819
-0.016409291 0.0028396458 -0.00072759524 0.0052700336 -0.00012938406 0.013217412 0.005586212 -0.0007257963
-0.0038643286 0.000109074594 0.0023543506 0.0015366819 -0.009052187 -0.009911376 -0.012666956 -0.0013214833
-0.012037676 -0.0061448305 -0.004306619 0.018791787 0.011689759 0.0044308244 -0.002181733 -0.016283426
0.002222913 -0.0050446913 -0.0057277507 0.0021200592 -0.0076455968 0.004267555 -0.0034205744 -0.009742483
-0.005514978 0.0032737765 -0.012935119 -0.00019565332 -0.0119273765 -0.005815115 -0.006063242 0.01825974
-0.022610089 0.0024409248 -0.005308197 -0.0011002718 0.002970324 -0.009469915 0.004167102 -0.014448111
0.0017803413 -0.004186404 0.0072790147 -0.0002688607 -0.0009223781 -0.017509354 -0.015215165 0.005810818
-0.01030902 0.0063365297 0.007556509 0.0055145086 0.010281493 0.004181394 0.009835244 -0.0014622433
0.006628548 -0.007130048 0.011774943 0.008303199 -0.011744776 0.009569084 0.007206674 0.011098779
-0.00035770755 0.0031875751 0.016766353 0.0122376345 -0.007926695 -0.007358361 0.0022059104 0.0007507434
-0.013491529 -0.0062560523 -0.006972295 0.003415278 -0.009264904 -0.017487539 -0.000356151 -0.0027288701
0.0057226825 6.579985e-05 0.0051399693 0.0025710796 -0.0030024825 -0.0041493857 -0.002219471 -0.0023420914
0.014133448 -0.013155937 0.0011980712 -0.0072603473 -0.004596546 -0.008499037 -0.0046345633 -0.0061350465
0.012621461 0.013697102 0.022009319 0.002728642 -0.0067748087 0.007833901 0.014023776 0.0026524954
0.018116055 -0.0010631223 -0.00040160367 -0.0030913167 0.009596128 0.0025447744 -0.0033808753 0.0012779047
-0.0070751384 -0.0098664425 0.00087900646 -0.011020815 1.6880998e-05 0.017429227 -0.0058493773 -0.0014586928
0.018642372 0.014224784 -0.017896516 -0.002568567 -0.021813598 -0.012288582 -0.0075756847 0.00036621097
0.020189386 0.009006462 -0.0046784426 0.0035420195 -0.0023629724 -5.822347e-05 -0.012357399 -0.004634038
0.0024867493 0.0026032778 0.012141282 -0.0038011645 0.0025749684 -0.0034834438 -0.010263282 -0.0060317246
-0.014421514 -0.010101871 0.0012311648 0.0055201794 -0.010582685 0.0031113771 0.019016987 -0.0049750297
-0.0037271436 -0.0055473777 0.004360096 -0.003752675 0.014849591 0.009117634 -0.0037383505 0.00041744622
0.013616579 -0.012094788 0.0018769654 -0.02054529 0.00427058 5.887571e-05 -0.006957624 0.004410276
-0.00179308 -0.0099229 0.0075213313 0.009102079 -8.195304e-05 0.011371429 0.0081571555 -0.0053479956
-0.0052103903 0.00927046 -0.0025656386 -0.010876436 -0.007988521 0.02580393 0.0098580625 0.009963923
1.920985e-05 -0.014683544 0.010941431 -0.0071371323 0.000693025 0.0019374447 0.020982252 -0.0031847095
0.00012349189 0.0060718544 -0.008607226 -0.010056167 0.0008582611 0.0012211598 0.004952195 -0.0046649803
-0.009580443 0.0026120865 0.0022788048 0.011819562 -0.0026534083 0.00041048942 -0.0010404255 0.007410174
-0.011062298 0.003909986 0.009217705 -0.009017717 -0.0014701871 -0.014297554 -0.0017556886 -0.0028795812
0.012032512 0.0061774715 -0.005655592 -0.0046372646 0.012122722 -0.0073959343 0.0025657332 0.009649446
-1.8393312e-05 0.009046103 -0.006366115 -0.005267916 -0.009026001 0.00709845 -0.01867958 0.0018546003
0.0023463764 -0.013988954 -0.0020725525 -0.0053907013 0.001056089 -0.010587743 0.010153772 0.0030065023

action_model._discrete_distribution.branches.4.weight f4 [2, 128]
00000000: 0f30 d03b 2003 133c c890 ac3a 522f 3ebc
00000010: 452b 93bc 7a12 d03b 955f 68bc 97dc cabb
00000020: 95f3 76bb 357a 643b b92a 963c bd0e 053b
00000030: 7889 18bc ff20 24bc d38d 823b 846f 05bb
00000040: 9fe3 723c 9818 91bc f060 3dbc 5bca debb
00000050: 6dcd 6abc 11b7 4b3b c27b 9c3b 3ffa ecb9
00000060: c3db 3bbb 6231 05bb b7d3 e13a 88b6 493a
00000070: 77da 233c a88a a13c e4b6 143a 2f43 39bc
00000080: aea9 113b 309a 9dba 8b18 07bc 471a 9b39
00000090: f23b bbbb 479a 3d3b 9ece 24bb f8f9 a7bb
000000a0: fa26 453b 76fa b6bb 2809 aabb 3ebc 20bc
000000b0: 696e 973b f398 aaba 3477 45bc bdf1 693b
000000c0: 9749 ec3b 93ae a0bb 3121 883c 6c0e 2c3b
000000d0: ea5f f43b 9ae7 d3bb be05 0e3c 312c 90bc
000000e0: 5d4b 1c3b c556 dfba 4eac 32bc 83f1 80bb
000000f0: 775c 7c3a a3f4 e73c eb27 5fbc 1eb8 a83b
00000100: 1484 3cbb 9d2c f43b 3f05 34bb d067 073c
00000110: 00d2 223b ecf3 373c 14cf 37bc 8755 ed3a
00000120: cce8 b13b 9536 09bc 9be3 dbbb 23ba 14bb
00000130: f3ed 1fbc 3fed 9bba 24a4 3abc 18d6 2abc
00000140: 1a52 56bb 0130 0fbc de6b 02bc 3b41 85bb
00000150: c771 ea39 db0e 3abb 59dd 8ebb f3b7 483c
00000160: 35ce f5bc ee64 a63b 6b8e 62bb af3a 25bc
00000170: b9ad 0cbc 8763 b53b 6a4e 15bc c842 ff3b
00000180: 72ed 833c 70ea 2abc 0075 453c 2082 86bc
00000190: cf1c 6bbc bffc a2ba c2b3 343c 9309 8d3b
000001a0: 175b 31bc 373f 0ebc 5707 bc3b 274f 2cbc
000001b0: 3086 433c 8706 0dbc 4f37 7d39 7e32 1cbb
000001c0: a816 b1ba 8871 42bb c02c f7ba fc9b 383c
000001d0: c6bf 25bc 19b0 903b e4ab a93b 6d8f 9d3c
000001e0: 5d56 7bbb 2579 cc3c b83c 20ba 460b c23c
000001f0: f3ac 063c 1bfe aaba c1c3 39ba ef61 283c
00000200: fa6d 993b 6d3b 61bc 8635 b0bb c75d 473b
00000210: 49f0 93bc f2e9 cbbb 73ae 6a3b 8841 6039
00000220: b40f 1f3c 7310 80bb 0bf3 8c3b 7b55 37b9
00000230: 68d9 5bba 6e68 c4bb d5a0 f03a 2bf0 28bc
00000240: 4d2c 06bc 8095 073c 8a32 d639 bd17 a2b9
00000250: fb16 363a 4726 7db9 f5d8 37b9 45bd 743b
00000260: a1a5 a23b 5388 6a3c ee82 16bc 6304 54ba
00000270: c8c5 7eba 4ee9 81bb 8d8a 18bc adbe debb
00000280: f3f2 36bb e3ab 0e3d 65c0 30bc 8548 083a
00000290: b582 2d3c adce 693c 6a0d dcbb bb0d e23b
000002a0: 1c64 98ba cca3 b9bb cd78 aebb 8bc2 7a3c
000002b0: 2575 a73a e780 74ba 0229 f03b bbe7 b0bb
000002c0: 6080 64bc dfc9 e53b d582 a1bc ff48 a0ba
000002d0: 4c90 0cbc 5d28 f6bb 57e1 2cbb e206 833c
000002e0: bda4 24bc 3fcb 93bb 046b 963a df16 10bc
000002f0: aad5 9cbb ab11 183b 416b 263b d75b 40bb
00000300: 7334 3bbc 336c 963b df7b 4339 3d83 88bc
00000310: 5367 083c 1d3c 61bc 9e03 9fbb 5040 dc3b
00000320: d7ee 583c eaea 8d3b 4b68 14ba 6773 ac3a
00000330: 9fd3 443c 5b43 29bc 2b24 5c3b 4865 183c
00000340: 1f83 0039 3be2 833b 72b0 8d3b baac d839
00000350: 478a 583c 2727 023c f754 0e3b e9f0 283c
00000360: 2b12 81bc bba7 763c 1361 b7bb 4b45 14bc
00000370: 009d cb3b 2b22 06bc 3390 e43b ffdc bfbb
00000380: 7ea6 1b3b acf9 223b f399 a3bb ae77 44bb
00000390: 89e7 2d3b c25b afbb 270b a03c b0f8 e8bb
000003a0: b243 d93b 8b4b c0bb 632a 82bb 202e 6dbb
000003b0: 1301 e63b 3afd 583b ef11 afbb e791 a33b
000003c0: 4782 053c 4b4a a3bc 2bd6 5c3c 851a a8bb
000003d0: 8656 88bb 3403 253a 67dd 9d3b 5762 943b
000003e0: 95db a3bc 8fb2 9f39 65b5 f2bb 4dc5 54ba
000003f0: 25ea a7ba 21f4 94bb d330 c83b 7933 2f3c
0.0063533853 0.008972913 0.0013165707 -0.011607962 -0.017964968 0.006349859 -0.014182945 -0.006190847
-0.0037681807 0.003486288 0.018330919 0.0020302974 -0.009310119 -0.0100176325 0.003984192 -0.0020360658
0.014824777 -0.017711923 -0.011558756 -0.006799025 -0.014331204 0.0031084458 0.0047754953 -0.00045199876
-0.0028664924 -0.0020323624 0.0017229234 0.0007694741 0.010000817 0.019719437 0.0005673005 -0.011307522
0.002222638 -0.0012024101 -0.008245598 0.00029583482 -0.005713933 0.0028931068 -0.0025147568 -0.005126234
0.0030083046 -0.0055840565 -0.00518908 -0.009810505 0.004621316 -0.0013015553 -0.012052346 0.0035697066
0.007210921 -0.0049036234 0.01661739 0.0026253713 0.007457723 -0.006466818 0.008668361 -0.017599197
0.002384863 -0.0017039409 -0.010905338 -0.0039350404 0.00096268154 0.028314894 -0.013620357 0.0051489016
-0.0028765248 0.0074516074 -0.0027468947 0.008264497 0.0024844408 0.011227589 -0.011218805 0.0018107154
0.005429363 -0.00837483 -0.0067104823 -0.0022693954 -0.009761321 -0.0011896266 -0.011391673 -0.0104270205
-0.0032702745 -0.008739472 -0.007960288 -0.004066614 0.0004471673 -0.0028390202 -0.004359883 0.012250888
-0.030005554 0.0050779497 -0.003456975 -0.010084792 -0.008586341 0.005535546 -0.009112934 0.0077899434
0.016104434 -0.010431871 0.012051821 -0.01641947 -0.01435013 -0.0012434943 0.011029186 0.00430412
-0.01082494 -0.008682064 0.0057381797 -0.010516918 0.011933848 -0.008607513 0.00024148564 -0.0023833807
-0.001351078 -0.002966972 -0.0018857941 0.011267658 -0.010116523 0.0044155237 0.0051779617 0.01923343
-0.0038351037 0.02496011 -0.00061125634 0.023687016 0.008219945 -0.00130457 -0.00070863595 0.010277255
0.0046822997 -0.013747078 -0.0053774742 0.0030420886 -0.018058913 -0.006222957 0.0035809546 0.00021386717
0.009708334 -0.003908211 0.004301434 -0.00017484084 -0.0008386583 -0.0059938943 0.0018358479 -0.010311167
-0.008189273 0.00827539 0.00040854915 -0.00030916734 0.00069461734 -0.0002414222 -0.00017533063 0.0037344259
0.004963592 0.014314729 -0.0091864895 -0.0008087812 -0.0009718803 -0.0039645797 -0.009310377 -0.0067976327
-0.0027915805 0.034831893 -0.010788058 0.00051987945 0.010590245 0.014270467 -0.0067154663 0.0068986095
-0.0011626515 -0.005665278 -0.005324459 0.015305172 0.0012776001 -0.0009327069 0.0073291073 -0.005398718
-0.013946623 0.0070125903 -0.019715706 -0.0012228786 -0.008579325 -0.007512136 -0.002637943 0.015994493
-0.010049042 -0.004510313 0.0011475985 -0.008794515 -0.004786213 0.002320389 0.0025393518 -0.0029351616
-0.011426079 0.004590535 0.00018642795 -0.016664142 0.008325416 -0.013747242 -0.004852726 0.006721534
0.013240538 0.0043309825 -0.0005661293 0.0013156951 0.012013345 -0.010331 0.0033590894 0.009301491
0.00012255878 0.0040247715 0.0043240124 0.00041327422 0.013216562 0.007943905 0.0021718123 0.010311344
-0.015755733 0.0150546385 -0.005596289 -0.009049724 0.006213784 -0.008186857 0.0069751977 -0.005855202
0.002375036 0.0024868054 -0.0049927174 -0.0029978561 0.002653571 -0.0053515146 0.019536568 -0.007109724
0.0066303844 -0.0058683804 -0.003972338 -0.0036190823 0.007019171 0.003310992 -0.005342714 0.004991758
0.008148736 -0.019932887 0.013478796 -0.0051301145 -0.004160705 0.0006294728 0.004817653 0.0045283246
-0.020002166 0.0003045988 -0.007406878 -0.00081165583 -0.0012810869 -0.004545704 0.006109336 0.010693424
